runs/Ant_29-21-43-04/nn/last_Ant_ep_50_rew_359.65393.pth (torch, 705683 bytes, 36 tensors)

value_mean_std.running_mean f8 [1]
00000000: 8bcd efb4 53f3 da3f
0.42110150022127674

value_mean_std.running_var f8 [1]
00000000: f36a bcd9 e113 cf3f
0.2427942574657532

value_mean_std.count f8 []
00000000: 0000 0040 0000 5941
6553601.0

running_mean_std.running_mean f8 [60]
00000000: 93a5 54a9 771d e53f cdaf 54aa b5d5 d93f
00000010: 98c6 6536 1f47 b0bf fc82 6d6a 1c5d b63f
00000020: 57fb d5e8 3406 583f 129b 26b6 75dc 95bf
00000030: 2ad1 be25 bbd5 a0bf 56f2 1eab f463 0940
00000040: c8af feaa 415a 0a40 7776 55dd 4e65 09c0
00000050: 9121 fc71 c1d4 e63f ee9b ce8b a5b1 de3f
00000060: 3a39 dbd2 6e9b dbbf 1077 05bf ee48 ddbf
00000070: 8292 7662 d76c c4bf 60ed 74a3 a9bf be3f
00000080: 98be 7fc6 8c9a c4bf 4619 8910 3919 c53f
00000090: f560 4210 895c d1bf b8e2 e4b7 6b71 d8bf
000000a0: 7cc8 c4d7 9053 7a3f efbb 2e4b df30 b13f
000000b0: 0c2f 7ccf bed3 9c3f 1bc7 201c 9927 a4bf
000000c0: d686 01aa 3389 963f 4b12 f46d 5412 a6bf
000000d0: 4b49 c8af e102 7e3f 4666 9406 04ab b03f
000000e0: 38f6 31e9 bdd4 d0bf 1053 c8c6 df0c a03f
000000f0: cf23 f801 29ac c0bf 3d58 3bc4 6868 a8bf
00000100: e4c3 c3bd 336c 61bf a443 b8ca 828d 993f
00000110: 21f8 c889 3fd8 b13f 4f6f 3742 2ce5 b03f
00000120: 87eb 17f3 5385 6f3f 6c6f bf3c dc8b 88bf
00000130: d8aa 3ca2 2600 37bf 8a42 2301 9d1d 703f
00000140: 1ba9 acfa 463a 63bf 7cf5 7c0d 988e 98bf
00000150: a928 a60e 8cb5 913f 79be 94cc f2c2 8e3f
00000160: 5a2c 9656 abba 4a3f 45dd 9ec8 7874 703f
00000170: bc45 ec5f dae8 be3f 5070 8010 eaa9 8bbf
00000180: 4ff0 1611 85ab 9fbf 7db2 3824 ed62 a53f
00000190: f46a 201c 6be6 553f 8e82 3280 224b 893f
000001a0: df83 db3e 6088 d0bf b20c 7285 b9d3 c5bf
000001b0: f06a 401d 6b8b b0bf caf5 b4fe a73a 863f
000001c0: 03a5 06c5 b364 b4bf 5c0a 61fa 8b9e 963f
000001d0: 61bc 4f35 0d03 c4bf bafa 7b07 a98f c1bf
0.6598470980872427 0.40366880067699357 -0.0635852344328448 0.08735826109251471 0.0014663235373004368 -0.021348799936869396 -0.0328806384635832 3.1738065117663536
3.2940705641721912 -3.1744668285089648 0.7134711481349304 0.47959269192727916 -0.43136187163772244 -0.4575764527743198 -0.15957157428524132 0.12011203995364417
-0.1609664887650879 0.16483224208259112 -0.27127291286298255 -0.38192265470892606 0.006427350799912298 0.06715198121558762 0.028151494420895637 -0.039364609416578676
0.022007758380261 -0.043108595296903994 0.0073269668469200895 0.06510949288021903 -0.26298473141637 0.0313482217935982 -0.13025391193539668 -0.047671579317168235
-0.002126790101208519 0.024953883765252663 0.0697059356106995 0.06599690071692275 0.00384775539782595 -0.011985512355685755 -0.0003509611435556343 0.003934491442308849
-0.0023471247017329395 -0.023981452773332176 0.01729410972033266 0.015020272129361733 0.0008157097446867087 0.004017326174952378 0.12074055520886068 -0.013507679585068072
-0.03092773358160655 0.04177037303120288 0.0013366743082829343 0.012350339448233851 -0.25832372797418474 -0.1705238248433481 -0.06462735618735471 0.01085406538060853
-0.0796615940113448 0.02208918300335437 -0.15634312728022606 -0.1371966635269553

running_mean_std.running_var f8 [60]
00000000: 57bb fa83 4e94 9a3f 2b14 dbf2 a73d ef3f
00000010: f966 9736 caaf eb3f 98c4 465f 97da e43f
00000020: 0c36 fd4d 4aa1 1940 4aed 4ce0 652a 1740
00000030: 92dd 938d cb34 2340 884d dd3b e9f5 1640
00000040: 5fbc 4337 6935 1e40 c519 49ba eaf5 1640
00000050: fc93 9571 15cc d13f cabd 4cab 65f7 d63f
00000060: 6278 6d4e 6597 e03f 47cd 5f0d bda6 db3f
00000070: 64e3 05f1 d5d8 e13f ef81 6826 f843 e33f
00000080: 480d c10a 93f6 df3f f71e b83e f5c7 e13f
00000090: f026 83e6 223d e33f eeb0 4103 70c6 de3f
000000a0: c068 1355 c905 0140 9d99 da0d 74e0 0540
000000b0: fceb d9b4 8483 0b40 1db4 896d 4d99 0740
000000c0: 0039 31c0 752d 0e40 1537 6a18 b42a 0940
000000d0: 1ee0 b55b ffd1 0140 408d 4b9b f5ca 0740
000000e0: 93ff fb22 bbe4 f13f e44d 34b5 9286 c53f
000000f0: d14e 8599 7578 f13f 4eb3 7f09 e8a7 9b3f
00000100: 1a93 7a50 a78d 133f 6246 9863 7036 763f
00000110: febf 8eb5 7c55 f43f 3998 6e8e a852 ca3f
00000120: 48a7 9dd2 b169 f23f 1e2c 5841 7478 9b3f
00000130: c38e afab ae7a 1d3f f46b 9ce0 57e6 743f
00000140: aa1f 15f6 4b82 f33f d3c0 bcf7 ad92 c83f
00000150: 197a 505c a35b f13f f2b6 107f d21c 9a3f
00000160: 5e22 a79e f941 1b3f 08ac 38ad 6753 733f
00000170: a4b8 832e ac7a f23f 4dc9 335f 9cb0 c63f
00000180: 1b54 13f7 3c91 f23f d6e9 8337 3f4a 9d3f
00000190: 3456 06c7 8309 153f 5ab4 7dba bd01 763f
000001a0: 153e 9346 0752 dd3f 6059 0196 980f dc3f
000001b0: 6e98 5713 6607 de3f 74da 8e2d a897 dd3f
000001c0: 923e 3708 3c26 de3f 72b8 b051 7fcb dc3f
000001d0: 1b6c 0d60 53af dd3f 5c59 d93a c81c dd3f
0.02595637016809901 0.976276373222054 0.8652087274778913 0.6516835080020824 6.407510012225895 5.791404251761671 9.603115486431111 5.740147529012923
7.5521591792195 5.740153227531157 0.2780812844487739 0.35884992340558297 0.518480923823301 0.4320519095046688 0.5577192027550208 0.6020470380936426
0.4994247059841723 0.5556589341149153 0.6012129308885203 0.48086166685131004 2.1278254171894275 2.734596355661053 3.4392179612163982 2.949854713215713
3.7721972479840815 3.1458513171591087 2.227537838447474 2.974101269953877 1.1183425299240966 0.1681693444048583 1.0919090268043201 0.027007699565661007
7.459005075334223e-05 0.005423010844894801 1.2708708850950639 0.20564753489196777 1.1508043505841261 0.026826683510119513 0.00011245432953859839 0.005102484961549959
1.219310723552534 0.19197630497502036 1.0848725896863753 0.02550057316346161 0.0001039799314305283 0.004718213068865225 1.154949361512572 0.177264734731191
1.1604585315119553 0.028603542102226452 8.025042348543885e-05 0.0053727542179845215 0.45813161747079906 0.4384519066710677 0.4692015828026176 0.4623814053442523
0.4710836487038047 0.44992049195832984 0.4638260305416126 0.4548817228982409

running_mean_std.count f8 []
00000000: 0000 0080 0000 4941
3276801.0

a2c_network.sigma f4 [8]
00000000: 0e3d dbbe c744 02bf c11e d5be bcdb e7be
00000010: 83b9 b4be 65a9 f6be 603a f6be d7d6 f1be
-0.4282002 -0.50886196 -0.41625026 -0.45284832 -0.35297784 -0.48176113 -0.48091412 -0.47234222

a2c_network.actor_mlp.0.weight f4 [256, 60]
00000000: 4beb 9a3d 06bd 27be 442d 2b3d 07a1 b6bc
00000010: 63ef 083e 341b 84bb 7e3a 713e c7bd b1bd
00000020: ef03 f0bd 33a6 88bd 6aed af3d 340a 28bd
00000030: f522 703e f6eb 1cbe 2b0e 08be 4060 ccbd
00000040: fd14 05be 558a 763c 2faa 4c3d 6d8a 143e
00000050: 0d60 293d 96ba e6bd 8fea fb3d a57b 98bd
00000060: d15d 9d3d e88d 11bd cbde 0b3e c9a7 43bd
00000070: 7f0c a5bd 7b81 ce3c 7326 433d 73cb b6bc
00000080: 122a 363d 6c8a 3c3d b9ed 96bd a967 10bd
00000090: 7465 b73d 9b05 70bd edda 0dbd 423b 11be
000000a0: fc12 9dbd 20e1 6e3c c16f 00bc 3b3b aabd
000000b0: 6d88 ef3b 2725 81bd 85ed e2bd d565 15bd
000000c0: 9ac7 01be 8029 63bd 5da1 1b3e 3d7c 2d3d
000000d0: 4cc7 713d 62a3 ebbd 7005 1dbd d37e 52bd
000000e0: b36b 9d38 d462 e3bd 0b5f 4ebd f0fd 6fbd
000000f0: 5fa0 c3bc b33c 07be 50d9 c03c e2b5 9e3c
00000100: c960 9fbd 2f1d d0bd d0c0 c5bc d8dc 18bd
00000110: 81ce 413e 45bb b8bd 7b57 1c3e d5b5 d83d
00000120: 7003 33bd 3702 b73d 4155 cc3c 4c64 84bb
00000130: bb34 c3bd f961 31be 5f66 d33c 7b72 253c
00000140: e376 a53d 07e6 61bd 32d6 783d 1469 d4bd
00000150: 241d 80bd 3f35 223c 3fe5 9f3d acb4 0c3e
00000160: 68ef 8f3d 7a91 d8bd 9feb 423d 90a5 2dbd
00000170: fae0 86bc 90ca d9bd 792b 143d c53a 07be
00000180: 85fd db3c e47d 63bc df1d f03b b316 5fbd
00000190: e569 063d a85b 233e d1bf 1a38 0f0f c0bd
000001a0: ff79 3a3d c51f 03be 0fc3 cbbd 60ce 073e
000001b0: a7b7 e13c 277e 5cbd 3d0f dbbd d026 a639
000001c0: feaf d53c 13c8 06bc 8879 b7bd d62e 29bd
000001d0: 142b c2bc 070c ae3d 533a b33d d405 a7bd
000001e0: 4968 363d 6dc9 be3d 9499 653d ca27 94bd
000001f0: 1df6 b93d cd17 ff3c 908c 5fbb 4439 bcbc
00000200: 63fa 11be fe3f 673c d6ae 4a3d 65d8 6abc
00000210: b034 0a3e 8f96 d23d 3d0d 82bc 45f3 53bc
00000220: 6511 9ebc 5c51 00bd 4592 293d dce5 d43c
00000230: aecd 2fbe 8aa4 34bd 7930 fa3d 1d22 893d
00000240: b4d3 443d 2efe c6bc 51ed adbd 19ad f4bd
00000250: a08a 35bc 61f4 083d eb78 87bc a81f 81bb
00000260: 46f7 babd 0b94 8abd 01a0 17bd 4943 c63d
00000270: 7e42 cb3b 27d4 2ebd 16d0 2c3d e1a3 483d
00000280: b606 d2bc 03d5 cd3d c714 83bd 1e15 ebb8
00000290: 68ee d8bd 2fea 3b3d d4a3 453d 62f7 793d
000002a0: 44c2 7cbd 58c0 37be 95bd dcbd fcaf 623c
000002b0: 5607 543c d3ba 9b3d b147 c93c feb6 b33d
000002c0: 8622 233d f240 12bd e3a5 47bd 5366 8ebd
000002d0: 0f56 973d e0bf 22bc 7485 f23c e625 9ebd
000002e0: 6708 cabb 3a89 ffbd 0b6e d3bd 3a30 443b
000002f0: 860f f6bd ccc8 f43d 04c1 5dbd cbb2 d9bd
00000300: 43c5 2a3c 24f6 c2bd bae6 8bbd 828b 15be
00000310: 44d7 053e 296e 9ebd 838c e23d 9dd0 573d
00000320: 67a0 763d 25c8 28be df27 d43d 5b4b 80bd
00000330: 2854 a43d 1b5c 843d 9526 82bd 4976 723b
00000340: 20c4 3a3d 6b2e 0abe 4299 923d a3f8 d6bd
00000350: 148b 123e 5b2d 943d 357e a73d a7d7 a9bd
00000360: 4368 cbbd bd46 eb3c f17b ae3c 1af5 82bd
00000370: 455d 06bd f7d6 5dbd ea7b b6bc ca01 54bd
00000380: fdca 40bd 3ab2 febd 178a c1bd 6744 1e3e
00000390: 28a0 df3d 055b 1cbd b2e0 febb 2cf4 a2bd
000003a0: 42b3 fabd 27c9 bebd 52ac 4e3d 6382 93bd
000003b0: 0390 5fbd 0499 6dba 3e1f 24bd 89d3 d0bc
000003c0: aa5c c1bb c7f2 5b3c ed70 003d 961f 53bd
000003d0: 8b10 e4bd e616 023e eced 26bd 3814 3e3c
000003e0: d2ee a0bd 8693 073d 34e7 703e 4ffa 333e
000003f0: c4f1 f8bd 723b 893c e69d aa3d 82d6 f43b
0.0756441 -0.163807 0.041791216 -0.02229358 0.13372569 -0.004031563 0.23557469 -0.08678775
-0.117195 -0.06672325 0.08590205 -0.041025355 0.23450835 -0.15324387 -0.13286655 -0.09979296
-0.12996288 0.015047629 0.049966987 0.1450593 0.041351367 -0.11266057 0.12300598 -0.07445458
0.0768391 -0.035535723 0.13659208 -0.047767434 -0.08059024 0.025208225 0.04764409 -0.022313809
0.044473715 0.046030447 -0.07369561 -0.035255108 0.089548975 -0.058599096 -0.034632612 -0.14182761
-0.076696366 0.014580041 -0.007839144 -0.083120786 0.0073099644 -0.06305914 -0.110804595 -0.036474068
-0.12673798 -0.0554595 0.15198274 0.04235481 0.059027955 -0.11505772 -0.038335264 -0.05139048
7.506404e-05 -0.11102834 -0.05038361 -0.058591783 -0.023880182 -0.13206749 0.023541123 0.019373838
-0.07782132 -0.10161816 -0.024139792 -0.037319988 0.18926431 -0.09020094 0.15267746 0.10581557
-0.04370445 0.08935969 0.024942996 -0.0040402766 -0.09531542 -0.1732253 0.02580565 0.010098095
0.080793165 -0.05515101 0.060751148 -0.103716046 -0.06255558 0.00990039 0.07807397 0.13740796
0.07028085 -0.105746225 0.047587987 -0.04239422 -0.016464699 -0.10634339 0.03617427 -0.13206013
0.026854286 -0.013884995 0.0073277797 -0.054465007 0.032815833 0.15952933 3.6895104e-05 -0.09377872
0.0455265 -0.12805088 -0.09949314 0.1326232 0.027553393 -0.053831246 -0.10696266 0.00031690905
0.026084896 -0.008226412 -0.08958727 -0.04130443 -0.023702182 0.08498388 0.08751359 -0.081554085
0.044533048 0.09315763 0.056054667 -0.07234152 0.090801455 0.031139279 -0.0034110881 -0.022976525
-0.14255671 0.014114378 0.049483143 -0.014333819 0.13496661 0.10282623 -0.015875453 -0.012936418
-0.019295404 -0.03132759 0.04139926 0.025988512 -0.17168304 -0.04410223 0.12216277 0.0669596
0.04805346 -0.024291124 -0.0849253 -0.11947078 -0.011080414 0.033436183 -0.01653715 -0.0039405413
-0.09129195 -0.06766518 -0.037017826 0.096808024 0.006202995 -0.042682793 0.042190634 0.048984412
-0.025637966 0.100503944 -0.06400447 -0.000112096066 -0.105923474 0.04587763 0.04825194 0.06102694
-0.061708704 -0.17944467 -0.107783474 0.013835903 0.012941202 0.07603993 0.024570318 0.08775137
0.039827846 -0.035706468 -0.048742186 -0.069531105 0.07389461 -0.009933442 0.029604651 -0.07722072
-0.0061655524 -0.12477346 -0.103237234 0.0029935972 -0.120146796 0.119523615 -0.054139152 -0.10629805
0.010423007 -0.09519604 -0.06831117 -0.14604 0.13070399 -0.07735855 0.11061957 0.052689184
0.060211565 -0.16482599 0.10359167 -0.06264373 0.08023864 0.0646288 -0.06355015 0.0036996773
0.045597196 -0.1349427 0.07158138 -0.104966424 0.14310867 0.07235213 0.08178369 -0.082930855
-0.09931996 0.028720254 0.021299334 -0.06394406 -0.032803793 -0.054160085 -0.022275884 -0.05175952
-0.047068585 -0.12436338 -0.09450167 0.15455781 0.10919219 -0.03817274 -0.0077782506 -0.07956728
-0.12241222 -0.093157105 0.050457306 -0.07202604 -0.0545807 -0.00090636336 -0.040068857 -0.025491493
-0.005900939 0.013424582 0.031357694 -0.051543795 -0.11135968 0.12704048 -0.040754244 0.0116015
-0.07858051 0.033099674 0.23525697 0.17575954 -0.12155488 0.016751979 0.08330898 0.0074718604

a2c_network.actor_mlp.0.bias f4 [256]
00000000: 8668 c6bc 8a30 71bd cf60 c6bc ff64 313d
00000010: 743a 92bc 0686 3dbd a9f7 cbbc 91ed 81bd
00000020: 8b49 26bd 35b1 06bd 6f60 f6ba f7ae b8bb
00000030: 9eb6 723c 58e3 8cbc 65a3 76bd d1a8 39bd
00000040: 3829 abbd 4594 023d b7ab c6bc 2381 b43c
00000050: 3943 98bd 181e 02bd f363 013d 5a60 293d
00000060: 29cb 19bd 6aa0 04bd 68f0 e73c 08b5 bf3d
00000070: 0a74 8bbd 0b37 a43d f1d6 14bd 0a56 8a3d
00000080: 3689 17bc f231 d9bc ee4a 97bb 4a04 f73c
00000090: ac08 3e3c e9e3 18bd ef8b 05bd 0309 883d
000000a0: df10 413d e7d3 a53d 2d4b c1ba 0c78 7a3d
000000b0: cf25 a7b9 ca87 16bd 14a5 813c 627d 303d
000000c0: ff24 74bd ade2 3abd 4c5e 3fbc 3f93 56bd
000000d0: 21f7 0c3d 8caa 4d3d e70c 403d 1ee9 453d
000000e0: afba 4ebd 82ed 3a3d 59ca 443c c121 703d
000000f0: 6825 713d 081d 113c ccd3 c0bc 78f5 87bd
00000100: 370d 97bd 8c68 15bc c2bf 96bd 112a d93b
00000110: 2148 f83c b688 2d3d d8f4 9abd 7a66 09bc
00000120: 0eec 8f3d e1c8 ef3c e426 8d3c 4568 44bd
00000130: 5187 7fbd c74f dd3d e19a 85bc bc66 c8bc
00000140: 5d20 08bd 8090 0fbb 04e0 c6bc 9d2a ebbc
00000150: 95ab 29bd 0876 04be b937 9dbc 959c 42bc
00000160: 2b2e 183d 61af 69bc d21a c53d 381f 513d
00000170: 5946 a2bd e17e 153d 04c6 2fbc 02a2 033d
00000180: ffa4 9bbd 5e9d 70bd ae21 bf3d 184e 383c
00000190: dc41 c9bd a1ac 933d 40ce 30bd 6da5 57bb
000001a0: 4ac5 0bbd 6c0a 183d 6595 50bc c188 afbd
000001b0: ff86 2cbc a2ee 94bd 62d4 48bd 768c 0cbd
000001c0: 9024 c9bb 6a3a b33c 504a 633c c9e7 c7bd
000001d0: e186 5dbc 1f9b a0bd fedc 1b3d fb86 10bd
000001e0: 2d45 df3c 73b0 633d cbfb 313d 445e 1bbc
000001f0: 6e18 f7bc ace9 0d3d 21d0 ee3c c600 0a3d
00000200: c10e 473c dae5 87bd 9651 b8bc 8928 203c
00000210: a0c5 8b3c f447 ee3c 7651 4b3a 7233 913c
00000220: e34f 9fbd eab4 7fbd dc62 5cbd 48e0 23be
00000230: c8d7 93bb a582 c73c d8cc 78bc afce ed3c
00000240: 8181 803c 6297 753c 35a1 173d 7cb1 483d
00000250: fa76 fc3a 3f83 303d cbe5 99bd d859 4fbc
00000260: e84b 843d fb01 ddbc dae9 0b3d 507b 15bc
00000270: 5934 ec3c 3334 2d3d 9fe6 87bc 7ba7 b83c
00000280: de61 823d 21f3 253d 4aab abbd e339 87bd
00000290: cc68 34bd 92b1 323c a058 4e3c de4d bcbc
000002a0: 6489 bebb 1cea b83c 69c1 363c dea5 4abc
000002b0: 486d d43d 6bd0 003d 82e7 e13c 82a8 6bbd
000002c0: 0dee 71bc cbaf b43b bc3a 343c c9af 3fbd
000002d0: 070f 9a3d 0ef8 2fbd b996 92bd 708f bbbd
000002e0: 03bc 71ba ae09 8e3d aafe 243b ba98 293b
000002f0: e1f0 aa3c 67d7 e2bc 1d71 b53b 2ed8 9fbd
00000300: 3feb 6bbd ffa2 c7bc cb75 84bd 06cc 9c3d
00000310: bb2c 593b 28a8 3bbd 59b4 60bd 5154 09bd
00000320: f2c2 a7bb fb05 68bc 3ced 843b 941e 2fbd
00000330: 97a4 2ebd fd48 50bc c1d1 1dbd 059d 363c
00000340: 7f58 a8bc 18e2 a83d 3c41 b03b 8211 7f3d
00000350: 9e52 023d 257e c53b 4ad2 1cbd 8ac2 4ebd
00000360: b69c a4bd aa25 c73c 785d a7bd 489c e7bc
00000370: 2c23 b4bc 1bf0 4ebd b5a9 963c 576a 21bb
00000380: fd53 093e c4ae d0bc 288c 9b3d a964 d1bc
00000390: 423c 89bc c1a7 1bbd 2de5 453c b09d a4bc
000003a0: 7ea6 6c3d 19af 1abc 275f 823d 597f bdbc
000003b0: c157 383d 66a4 85bc b0f4 e5bc 60c9 4bbc
000003c0: c340 c23c 5e04 fa3c 993d 1f3d aac9 593d
000003d0: 006a 12bd 480d 683d 99f0 c23d 6592 a6bc
000003e0: bb48 463c 0b09 a1bc fcad 7d3c 84fa 96bc
000003f0: 0b98 103c 5b60 5b3d e1e5 393c 7c67 89bc
-0.024219763 -0.05888418 -0.024216084 0.043309208 -0.017850138 -0.046270393 -0.024898367 -0.0634414
-0.04059748 -0.03288384 -0.001879705 -0.005636092 0.014814047 -0.01719825 -0.06021442 -0.04532701
-0.08357471 0.031879682 -0.024251802 0.022034233 -0.07434697 -0.03176698 0.03158946 0.041351654
-0.037547264 -0.032379545 0.028312877 0.09360701 -0.06809242 0.08018311 -0.036337797 0.06754692
-0.009249022 -0.026513074 -0.0046170866 0.030153412 0.011598747 -0.037326727 -0.032604154 0.06642344
0.04713523 0.08097058 -0.0014747136 0.061149642 -0.00031880892 -0.036750592 0.015825786 0.043088324
-0.059605595 -0.04562633 -0.011680197 -0.05238652 0.034415368 0.050211474 0.046887305 0.04831802
-0.050471004 0.04563666 0.012011134 0.05862594 0.058873564 0.008857019 -0.023538493 -0.06638616
-0.073755674 -0.009119164 -0.07360794 0.006627329 0.030307831 0.042366706 -0.075662315 -0.008386249
0.07027446 0.029270591 0.017230459 -0.047951 -0.062384907 0.10806232 -0.016309204 -0.02446305
-0.03323399 -0.0021906197 -0.02427674 -0.028706843 -0.0414234 -0.1293565 -0.01919161 -0.011878152
0.037153404 -0.014263005 0.09624256 0.051055163 -0.07923574 0.036497954 -0.010728363 0.032136925
-0.0759983 -0.058743827 0.09332596 0.011249088 -0.09827015 0.07210661 -0.043165445 -0.0032904998
-0.034123696 0.037119314 -0.012730931 -0.085710056 -0.010530232 -0.07272078 -0.04903067 -0.03431364
-0.006138392 0.02187844 0.013872698 -0.097610064 -0.013520927 -0.07842087 0.03805255 -0.035284977
0.027254665 0.055588197 0.04345302 -0.009482924 -0.030163016 0.034646675 0.029151978 0.033692144
0.012149514 -0.066356376 -0.02249984 0.009775289 0.017062008 0.029087044 0.0007755974 0.017724726
-0.07778909 -0.062428392 -0.053805217 -0.16003525 -0.004511807 0.024354288 -0.015185557 0.029029218
0.015686752 0.014989706 0.037018973 0.048997387 0.0019261532 0.043093916 -0.07514533 -0.012655698
0.064597905 -0.026978483 0.034158565 -0.009123638 0.028833555 0.04228611 -0.01658946 0.022540798
0.06366323 0.04051507 -0.0838228 -0.06602838 -0.044045255 0.010906594 0.012594372 -0.022986349
-0.005814718 0.02257257 0.011154511 -0.012368647 0.10372406 0.031448763 0.027576212 -0.05753375
-0.014766228 0.00551412 0.0110003315 -0.0467985 0.075223975 -0.042961173 -0.07157654 -0.09158218
-0.00092214363 0.0693544 0.0025176206 0.0025878386 0.020866813 -0.027690602 0.005537166 -0.07804905
-0.057597395 -0.024369715 -0.0646778 0.07656102 0.0033138234 -0.045814663 -0.054859493 -0.033527676
-0.005119675 -0.014161582 0.004056601 -0.04275377 -0.042637434 -0.012712714 -0.038530115 0.011145835
-0.02055001 0.08246249 0.0053788703 0.062272556 0.03181707 0.0060270005 -0.038286485 -0.050478496
-0.08037703 0.024309952 -0.081721246 -0.028272763 -0.021989428 -0.05052195 0.01839147 -0.0024630034
0.13410945 -0.02547396 0.07595092 -0.025560694 -0.016752366 -0.03800178 0.012078566 -0.020094723
0.057775967 -0.009441161 0.06365805 -0.023132013 0.045005564 -0.016313743 -0.028070778 -0.012438148
0.023712521 0.03051966 0.038877103 0.053170837 -0.03574562 0.05665329 0.095185466 -0.020333478
0.012102301 -0.019657632 0.015483376 -0.018430002 0.008825312 0.05355869 0.011346311 -0.016772978

a2c_network.actor_mlp.2.weight f4 [128, 256]
00000000: f5cb 72bd f67a 1e3d af0e 40bd c2e6 46bd
00000010: 28fe c13c cdc3 603d bde3 02bd 93bb a43d
00000020: fc34 81bc f7aa 933d 9d97 953d debe c0bd
00000030: e8d8 80bd ab2e cf3b f97f 24ba 6683 193d
00000040: 42fc 04bd 61c2 8d3d 7a14 d439 1306 1c3c
00000050: 359b aa3a 9b57 4e3a 7065 95bd 0385 2cbc
00000060: de44 da3a dbf7 0d3d dff5 51bc 1bf1 cebd
00000070: c185 2b3d 581f cebd 920c a43c 1773 97bd
00000080: 3b24 023d 286a 6b3a e2c6 6a3d d525 343b
00000090: 8fd2 89bd 0018 20bd 14d8 e0bc 0c30 84bd
000000a0: f8a4 e43a 8c85 513c 4e7a 37bc 4dda 023d
000000b0: cb48 9abd 079d 4abc 487a f93c 0ef7 333d
000000c0: 467a d1bb 8a9a 42bc 39a3 ae3d c959 953d
000000d0: e63b fe3c b13a c13c 2678 85bd 99d4 3e3c
000000e0: 7a74 d83c 9f47 d1bd a38b 34bd 6c53 30be
000000f0: fe8b 3fbd 4183 6cbd 5c10 cfbc 31e7 6e3d
00000100: 57ad 0e3d 95ff ee3c 0605 783b f56e 9cbd
00000110: 26ac e53a bb24 9dbd 9a23 203d 00a0 89bd
00000120: 0cfb 98bd 69a8 ebbc d332 72bd cd1b f63d
00000130: ed9f 023d cfaf f1bc fb73 59bd 9af6 623c
00000140: 70c4 c13d 5d9f 52bd 2046 cc3c 6a90 653d
00000150: fca5 8e3d 74e4 f93b 26ac 1e3c 494c debb
00000160: bbb3 4dbd 5f18 7fbd 7ba2 68bd 417d 44bd
00000170: 3484 5e3d f2bf 1e3c 2cea a53d 5a6b 4abd
00000180: 39c2 d73c da15 4d3b 9b1b c73c 9a96 0a3b
00000190: 5bcf d6bb 3b25 73bc 67e6 2b3d d8a7 9a3c
000001a0: 5240 743c 77cd 41bd 9bb5 653d d6a1 473d
000001b0: df14 c3bc 122a 9bbc 3e30 46bb 4c13 1a3a
000001c0: 2299 693c 9afb 2a3d aafc 8cbd 496a e0bc
000001d0: 7fed a93b fff2 da3c d17c 74bd 53a4 55bc
000001e0: 876b 063d dceb 72bd a8b3 c3bc f1db a33c
000001f0: 5dd0 c63d c25d d4bd d4a3 c7bb 1e17 a4bd
00000200: cc42 9d3d fd72 a8bc c3d7 493d deab 0d3b
00000210: c5a5 17bd a5fc 4d3c 67f9 063d 71fe 05bd
00000220: fa51 05bd e958 9d3d f01e 073e 8058 bb3c
00000230: 3650 b5bd 194e 36bd b4b9 edbc 4856 b3bd
00000240: e58e 00bd dc03 9dbd 03f2 d23c b304 49bd
00000250: 4610 033d da20 0cbd 1b26 0f3d 149e 62bd
00000260: 51f9 43bc ba7d 783d 7840 02bd 7fd8 9d3d
00000270: ea35 92bd 1066 5ebd c58a 8abd 7598 a8bd
00000280: 98df c7bd 7a72 2b3d cdf9 6abc e2b6 5f3d
00000290: 0587 843d f115 b73c 6158 4ebd ce4a ad3d
000002a0: 48e5 a03d 8c32 05bb 07d4 81bc 0306 8b3c
000002b0: 9e8f af3c 455a ddbc 69dc 843c 774c 05bd
000002c0: 5dc4 c4bc 107e 47bd f7be aebd f554 4d3d
000002d0: c30d 15bb 87ce 1bbd b194 47bc 23d2 a13b
000002e0: ecf2 98bd af50 793b 6a69 993d 838b 92ba
000002f0: 9a4c c6bc 7506 b2bc ab74 a6bd 7ad4 163d
00000300: 7858 70bc e553 953d ae0c 30bd 3116 ce3d
00000310: 8a1a b3bb f503 5d3d ec1c 9d3d e8ee 7abc
00000320: 226c be3d d8d6 483d 5a71 da3c eb17 d03c
00000330: 3b00 91bd 645a 54bd 0755 f53c 9d41 e53c
00000340: 8aca 643d 545c c4ba 1b94 863d 1e8e d2bd
00000350: e683 0f3c 530c edbc 467d d33b f231 6d3c
00000360: 2395 8d3d 78eb e63c a88a 893d 19d5 efbc
00000370: ebf5 a7bb 904d a53d 8ea0 b03c d55c 353c
00000380: a96a 5fbd 83b1 2d3c 5026 3bbd 3f42 f5bb
00000390: 2b2f 33bd 632b 20bd 62cb 003d 71f2 e03d
000003a0: 57df 403d d010 9f3c ba0c 213c 87ec 9d3d
000003b0: 2551 83bd d816 7d3c 9bf9 bd3c 7d7e bd3d
000003c0: 0843 23bb 085a 2abd 4046 a73b a8cf a8bd
000003d0: f521 1f3e d573 83bd 13c7 88bc 313c a13c
000003e0: d565 02be 892d 8cbd 9c68 3f3d 6986 ab3d
000003f0: 04e5 2dbd 647b 803d 4fe3 4e3d 9615 b93b
-0.05927654 0.038691483 -0.046889003 -0.04855991 0.023680761 0.05487423 -0.03195547 0.080435894
-0.015772335 0.07210343 0.073043086 -0.09411405 -0.062913716 0.006322702 -0.0006275173 0.037478827
-0.032467134 0.069218405 0.00040451047 0.009522933 0.0013016226 0.00078713306 -0.07294738 -0.010529759
0.0016652604 0.0346602 -0.012814968 -0.10104581 0.041875605 -0.10064572 0.020025525 -0.073949985
0.031772833 0.0008980357 0.057318576 0.002748837 -0.06729614 -0.03908539 -0.027446784 -0.06454477
0.0017444184 0.012788188 -0.011198593 0.03194647 -0.075334154 -0.01236654 0.030453816 0.04393678
-0.00639275 -0.011877665 0.08527226 0.07292516 0.031034421 0.023587557 -0.06517057 0.011647367
0.026422728 -0.10218739 -0.04407848 -0.17219323 -0.046764366 -0.05774236 -0.025276355 0.05832595
0.03483328 0.029174605 0.003784479 -0.07638351 0.0017522618 -0.076730214 0.039096452 -0.06719971
-0.074697584 -0.028766828 -0.0591305 0.12017021 0.0318908 -0.029502777 -0.053089123 0.01385274
0.094612956 -0.051421512 0.024935782 0.056045927 0.06965253 0.0076261107 0.009684598 -0.0067839962
-0.050220232 -0.0622791 -0.05679558 -0.047971014 0.054325297 0.009689318 0.08101305 -0.049418785
0.02633773 0.0031293542 0.024305156 0.0021146894 -0.0065554804 -0.014840419 0.041967776 0.018878862
0.014907913 -0.047315087 0.056081396 0.048738323 -0.023813663 -0.01894096 -0.0030241157 0.0005877509
0.014257701 0.041743852 -0.06884129 -0.02739443 0.0051857824 0.026727198 -0.059689347 -0.013039666
0.03281739 -0.059306964 -0.023889378 0.020002337 0.09707711 -0.103694454 -0.006092528 -0.08012222
0.07678756 -0.020562643 0.049278032 0.0021617333 -0.037023325 0.012572442 0.032952692 -0.032713357
-0.032548882 0.07682974 0.13195395 0.022869349 -0.0885319 -0.044508073 -0.029019214 -0.08756691
-0.031386275 -0.07666752 0.025750166 -0.049076747 0.03199794 -0.034211017 0.03494845 -0.055326536
-0.011961297 0.060666777 -0.031799763 0.07707309 -0.071391895 -0.054296553 -0.067647494 -0.08232204
-0.09759444 0.04185722 -0.014341784 0.05461777 0.064710654 0.02234933 -0.050377253 0.084615335
0.07856232 -0.0020324318 -0.015848173 0.01697064 0.021430787 -0.027020583 0.016218381 -0.032543626
-0.024019415 -0.048704207 -0.085325174 0.05012985 -0.0022743798 -0.038038757 -0.012181447 0.0049383803
-0.07468209 0.0038042476 0.07490809 -0.0011180494 -0.024206448 -0.021731595 -0.081277214 0.036823727
-0.01466953 0.07291392 -0.042980842 0.100628264 -0.00546581 0.05395885 0.07671532 -0.015315749
0.092979684 0.049033016 0.026665378 0.02540203 -0.07080122 -0.051844016 0.02994777 0.027985388
0.05585722 -0.0014981129 0.065712176 -0.10281013 0.008759474 -0.02893654 0.0064541427 0.01447724
0.06913211 0.028188452 0.067159 -0.029276418 -0.0051257513 0.080714345 0.021560933 0.011069496
-0.05454508 0.010601404 -0.045690835 -0.007484704 -0.043746155 -0.039103877 0.03144396 0.10983742
0.047087993 0.019417197 0.009829694 0.0771113 -0.064119615 0.015447341 0.02319031 0.09252641
-0.002491178 -0.041589767 0.00510481 -0.08242732 0.15540297 -0.064185776 -0.016696488 0.019682022
-0.12734158 -0.06844623 0.046730623 0.08375246 -0.042454734 0.06273535 0.050509747 0.005648325

a2c_network.actor_mlp.2.bias f4 [128]
00000000: e269 163c f1c2 34bb 8071 c53c c8b8 f3bc
00000010: 8303 9ebd 18d7 e43c 08fb 3c3c 4ab0 ff3c
00000020: 9ad6 e03c 4e09 2bbc 1f1b 983c 40a1 473d
00000030: c803 85bc 4bb8 81bc 4bc2 923d 1d7d 50bd
00000040: 4efa ecbb f3de 87ba 21d9 3dbd 2366 d6bb
00000050: df6b a9bc cd0a fbb9 33b2 603b b635 063c
00000060: c255 3ebd 6c61 aebb d7f1 a7bb 52c4 36bd
00000070: d125 76bc f077 d23c 715f b4bd d1f5 083c
00000080: e341 1c3d 3584 903a 3295 83bc 6589 9dbc
00000090: 388e d0bd e41b 40bc 2356 4abd 35c0 36bd
000000a0: e9b2 5dbc 02ba e93c d20b 9a3d 7b0b 633d
000000b0: 5e06 6bbd cba1 57bc c160 27bd 3baf 77bd
000000c0: cfb2 0c3b abac 36bd db61 cc3d 5739 2abc
000000d0: 703b f1bd e193 5b3d befe 8ebb 38d6 b43c
000000e0: 046a c93c 6dac de3c 7577 d73b da88 353c
000000f0: 9c30 253c 1d47 443d 7325 a3bd ce51 0c3d
00000100: a8f9 e93c 40a4 9f3c 6d19 40bd 27b5 b83c
00000110: ce31 dc3a 1638 d33c 8819 183d aee9 273d
00000120: 53a4 34bd 689a 1b3d 3e96 2cbd 4516 8f3c
00000130: 0f08 d83b fea3 1f3b bc75 5a3c d4ec 5dbd
00000140: a4ce e4bb 160e f7bc 0912 b43b 0abc 403d
00000150: 58bb a83c 1282 a63d 7cca 39bd 56fe 84bd
00000160: eef6 3bbc ccd8 b43b 20e9 14bb bcab f23c
00000170: dfea 1ebd fbea 083d a696 15bd fb90 d03c
00000180: 74fd 833d 8ce3 c6bb a585 fabb 4aa1 1bbc
00000190: de74 21bc c608 28bc f1e0 9ebb a175 d83c
000001a0: 3a75 bb3b 6013 1bb9 0bd2 91bc 0877 d8bb
000001b0: 18f3 1c3d 00d4 04be d1ff 8dbc 743d 2c3d
000001c0: 023b 4dbd 6c31 f738 df9f f63c b4ca 55bc
000001d0: 971f 7bbb 9fd0 c63c d147 503c d02f c8bc
000001e0: f393 163c b0ab 4b3d fc16 543c fcee cc3c
000001f0: 27b2 4ebd b89c ad3a a822 fa3b 4a39 87bd
0.009180518 -0.0027582014 0.024101973 -0.029751197 -0.077155136 0.027934596 0.01153446 0.03121199
0.02744608 -0.01043923 0.01856762 0.048737764 -0.016237155 -0.015834948 0.07165965 -0.050900567
-0.007231987 -0.0010366127 -0.04634965 -0.0065429374 -0.02068132 -0.00047882498 0.0034285903 0.008191517
-0.046468504 -0.005321672 -0.005125265 -0.04462082 -0.015023665 0.025691956 -0.088072665 0.008359388
0.038148772 0.0011025729 -0.016062353 -0.019230554 -0.10183376 -0.0117254 -0.049398553 -0.044616897
-0.013531425 0.028531078 0.07521786 0.05543087 -0.05737912 -0.013161133 -0.040863756 -0.060469847
0.0021468883 -0.044598263 0.09979602 -0.010389647 -0.11778915 0.053607825 -0.0043638637 0.022074804
0.024586685 0.027181828 0.0065755197 0.011079991 0.01008239 0.04791938 -0.07966127 0.034257703
0.028561428 0.0194875 -0.046899248 0.022547318 0.0016799511 0.02578358 0.037133723 0.04099434
-0.044102024 0.03798905 -0.04213547 0.017466674 0.0065927575 0.0024359222 0.013333734 -0.054180935
-0.0069826413 -0.030158084 0.005495314 0.047054328 0.020597145 0.08130278 -0.04535912 -0.06493823
-0.011472447 0.0055190083 -0.002272196 0.029622905 -0.03879821 0.03342722 -0.036520623 0.025459757
0.06444827 -0.006069606 -0.007645326 -0.0094989035 -0.009854523 -0.010255998 -0.0048485924 0.026423277
0.0057207616 -0.0001478917 -0.017800352 -0.0066059865 0.03831777 -0.12971497 -0.017333897 0.042050794
-0.050105102 0.00011787083 0.03010553 -0.0130488165 -0.003831839 0.0242694 0.012712435 -0.024436861
0.009190547 0.04972428 0.012944933 0.0250163 -0.050462868 0.0013245558 0.007633526 -0.06602724

a2c_network.actor_mlp.4.weight f4 [64, 128]
00000000: 2dcb 183c 5f15 0c3d 4502 ff3c ee40 97bd
00000010: 164e d53b ace6 d93d d010 2f3d 7e36 013d
00000020: 479d 92bd e6ff 6c3c 3bdd 0bbd 878a 70bd
00000030: 9f04 613a 44ab a7bc 4b70 a5bd 4e81 56bc
00000040: d0ec efbd ab6d 1cbd f701 63bd 69ce 893d
00000050: 8c66 82bd d0f3 3dbd c2ba 33bd a689 40bd
00000060: 5a3c 0a3e 6c37 0f3d b3e9 aabc 98b2 14bc
00000070: 6a3c 71bd f07e 913a 45c7 abbb ac29 8fbd
00000080: cb52 9d3d 3942 ba3d f455 7fbd d4e4 c83c
00000090: b704 b93d 2fa8 21bd 5111 c03d ad53 c7bd
000000a0: 1908 d8bc 38cd 2cbd 78dd 18be ad70 a9bc
000000b0: 4ec1 4dbd fd11 3d3d fba6 ee3c be36 913d
000000c0: bc6e b03c 94bb b33d 742c 00bd 95d7 903d
000000d0: 0c48 8d3d 078e b33c 3ffa 58bd 629a 863d
000000e0: af80 bb3d 399b 0dbd cc97 1d3d 5664 08bd
000000f0: 4a12 b5bc 5f6a ca3b de64 1c3d 39bf dfbc
00000100: eb41 70bb 84e1 37bd ffbb 153e 0f70 7e3a
00000110: 1d99 cd3d 459b 9f3d d247 d2bd da10 8b3d
00000120: 5ce4 c9bd b885 ddbc 95b6 02bd 2e06 db3d
00000130: 1f8d 3abd 68c8 e23c 9c38 663d 087a 3cbd
00000140: 5142 a23d 483a b83a 23eb 8ebd c116 3abd
00000150: 4167 723d fbae 14be 3457 a33d 373f 42bc
00000160: ceea 1f3d 0872 3f3d b6be 63bd 7eb0 d33c
00000170: cf46 343d 1087 f3bd 0361 0ebe 4f9c b83c
00000180: 415a 4d3c 3ff8 14bd f7f0 66bd 7eb8 59bc
00000190: 84a5 2b3d 4fe1 253d 8a4b 013d 7d6f d1bd
000001a0: 4927 97bd 3660 053e 48fa d23d 26b0 e53c
000001b0: 4d1d 70bb 5db8 823c 7e72 4fbd 5ea9 ca3d
000001c0: 73bc 9ebd 4084 9d3d f952 1d3d cb41 143d
000001d0: 00a2 1d3c c3a5 a5bb 740c 67bb 0916 9ebd
000001e0: 6eee af3d 46f6 00be b90e be3d de27 eebc
000001f0: 6e75 ba3d 4501 9f3d 18dd 243d 34d6 0ebd
00000200: d82f 79bd 61ce 953d 488e f83c fc52 debd
00000210: 4237 e03c 902c 35bd 0327 37bd 72bc 533d
00000220: 39e2 a0bc 9f15 eebc 3938 12bd b667 1bbd
00000230: 70cb 423d ebbb 65bc 5a56 0dbd 6c56 80bd
00000240: 7580 b8bd a88a eb3c 9312 b2bb 90e5 313d
00000250: 2817 94bc 48f1 9d3b 92e8 e23c 3144 133d
00000260: cbbc 013e c30f 86bd df46 98bd 6d75 5fbd
00000270: 2047 6f3d c7d3 20bd fd6b 77bc 34f3 953d
00000280: 0cea cb3b c65a 513d 0879 6a3d 1aa5 b6bc
00000290: 67a2 45bd 3127 743d ecb1 0ebd aa7a b63c
000002a0: a96e 2b3c efb1 e23b f1c5 a4bd 0e94 36bc
000002b0: b96a 013d 5b23 a0bd e4bd 0a3d bc45 f93d
000002c0: f8fa 893d abe0 8f3d f0a5 843c 0607 1dbd
000002d0: d6fe 5abd 7a49 0fbd e2d7 d93d c226 d83c
000002e0: 46d6 803d 60d5 8ebd ee04 843d 9d77 d33d
000002f0: cbab 7dbd d149 9ebd c46c 033d 40e7 bebd
00000300: 23d4 e9bc 920d f8bc cd01 323d 0481 72bd
00000310: b354 a7bd 564e b5bd b537 37bd d6be 9cbd
00000320: 8396 b9bc 509e a5ba b446 d5bd 73de 723d
00000330: f63c 993c 4f36 3fbd 68fb aebb 953a 9bbd
00000340: 49fb b63d a187 7f3d 4c78 753c 143c d0bc
00000350: 23fc 803d c855 82bc cfc8 503b fe6d 99bc
00000360: a278 3f3c c40d 623d e96d 0bbd c207 8cbd
00000370: 0b21 cabc 2c41 2abc fe09 60bd 8578 d2bd
00000380: b262 1ebd 7eb0 c23c 07bf 8e3d 2000 6ebc
00000390: 67fc 5dbd 8734 e2bc b40e c9bc eda1 56bd
000003a0: 7f3b a43d 7e38 223d febd 2e3d ab6f 063d
000003b0: 1c79 be3c 4688 9abd 0921 18be 7fd4 c13d
000003c0: 0289 20bb 3abd ca3c e442 8c3d b0fd 713b
000003d0: d1cd c03d 8c67 bf3c c637 d0bd 4db6 ffbd
000003e0: 31d3 b3bd 6971 e33c 1aca 6a3c 8aec fcb9
000003f0: 2a22 53ba 186a a73d 70ec 953c 3e37 bf3d
0.009325785 0.03420007 0.031129012 -0.07385431 0.0065095527 0.106397 0.042740643 0.03154611
-0.071589045 0.014465308 -0.03414653 -0.05872586 0.00085837574 -0.020467408 -0.08078059 -0.013092352
-0.1171509 -0.038190525 -0.055421796 0.06728823 -0.063672155 -0.046375096 -0.043879278 -0.04700627
0.13499585 0.034964964 -0.02086339 -0.009075783 -0.058895506 0.0011100452 -0.0052422606 -0.0699037
0.07681807 0.09094662 -0.06233783 0.024523176 0.090341024 -0.039467033 0.09378303 -0.09732757
-0.026371049 -0.0421879 -0.14928234 -0.02068361 -0.050233178 0.046159733 0.029132357 0.07090519
0.021537177 0.08776012 -0.031292394 0.07072369 0.068985075 0.02191831 -0.05297303 0.06572415
0.09155404 -0.03457186 0.038474843 -0.033298813 -0.022103447 0.006177231 0.038182132 -0.027312862
-0.0036660384 -0.044892803 0.14622496 0.0009706029 0.1003897 0.07793287 -0.10267605 0.067903236
-0.09858009 -0.027041301 -0.031912405 0.10694538 -0.04554474 0.027683452 0.05620633 -0.046014816
0.07922805 0.0014055455 -0.069784425 -0.045431856 0.0591805 -0.14519875 0.07975617 -0.011855892
0.039042287 0.046739608 -0.055601798 0.025840994 0.04401284 -0.118909955 -0.13904195 0.022535471
0.012533725 -0.03636956 -0.056382146 -0.013288615 0.041905895 0.040498074 0.03156618 -0.10226343
-0.0738054 0.13024983 0.103016436 0.028038096 -0.0036638558 0.015957052 -0.050646298 0.098955855
-0.077507876 0.0769124 0.038409207 0.036195558 0.009621143 -0.0050551607 -0.0035255225 -0.077190466
0.08590399 -0.12593946 0.09280152 -0.029071745 0.09104429 0.07763914 0.040249914 -0.03487225
-0.060836643 0.07314754 0.030341282 -0.10855672 0.027370099 -0.04423195 -0.04471494 0.051693387
-0.019639121 -0.029063044 -0.03569815 -0.037940703 0.047557294 -0.014021854 -0.03450618 -0.06266484
-0.09008876 0.02875264 -0.005434343 0.04343182 -0.018077448 0.0048200227 0.027698789 0.035953704
0.12669675 -0.06545975 -0.074353926 -0.054555345 0.05841744 -0.039264467 -0.01510143 0.07321778
0.006222969 0.05111196 0.05724433 -0.022295523 -0.048250582 0.05960769 -0.03483765 0.022275288
0.010463395 0.006918184 -0.08045567 -0.011143697 0.03159592 -0.078192435 0.0338725 0.12171504
0.067373216 0.07025274 0.016192406 -0.038336776 -0.053465687 -0.034982182 0.106368795 0.026385669
0.062908694 -0.06974292 0.06446253 0.10325549 -0.061931413 -0.07728923 0.03208615 -0.09321451
-0.028543537 -0.030279908 0.04345875 -0.05920507 -0.08170452 -0.08852832 -0.04473086 -0.076535866
-0.022654777 -0.0012635682 -0.10413876 0.059294175 0.018705826 -0.046682652 -0.0053400286 -0.07579533
0.089346476 0.062385205 0.014982294 -0.025419272 0.06298091 -0.015910044 0.0031857972 -0.018729206
0.011686476 0.05518891 -0.034040365 -0.06837417 -0.02467396 -0.010391515 -0.05469703 -0.102768935
-0.038668342 0.023765799 0.06970029 -0.014526397 -0.054195788 -0.027612938 -0.024543144 -0.05240052
0.080191605 0.039604656 0.04266166 0.03282134 0.023251109 -0.07545523 -0.14856352 0.094643585
-0.0024495726 0.024748433 0.06848696 0.0036924891 0.09414256 0.023364805 -0.10166888 -0.12485943
-0.08780516 0.02776404 0.014330411 -0.0004824142 -0.0008054102 0.08174533 0.018301219 0.093367085

a2c_network.actor_mlp.4.bias f4 [64]
00000000: a8ad 61bc 8c0a 71bd 7f6c 2b3d 6366 9e3b
00000010: 5f85 c2bc bef5 02bd cd6e 16bd 4964 b7bd
00000020: ddcc 13bb 4f19 74bd 5925 c3bd 0aa8 3e3d
00000030: 8040 173d fff6 57bd fd59 76bd 7ff4 0c3c
00000040: 4eed 2bbd a230 56bd d629 483d a9eb 27bd
00000050: 68f5 3fbd 7701 abbd b784 c7bd 57c2 aebc
00000060: 3b72 633d f0e5 91bc 68bd 51bd ae6a a43c
00000070: f429 7a3d 6f78 48bd dcb8 01be 6ca7 b9bc
00000080: 0ff7 44bd 68bf e53b 7c18 553c 2632 9dbd
00000090: b434 79bd 82d3 503c 2762 d8bc c1f1 2bbb
000000a0: aec7 083c 0d93 8e3c d326 75bd 19ab 02bc
000000b0: 7ba3 9dbd ee27 f4bd 64b8 163d 39c3 88bb
000000c0: 10bc 9abd 2348 6cbd 709e 2a3d f08f 8dbd
000000d0: 6656 443c da27 47bd 6eb4 d23c 2442 50bd
000000e0: e8f5 93bb cf4b 003d 4c65 7bbd fae1 4dbd
000000f0: 3c16 4d3c 42b1 61bd a415 a8bd eab2 4abd
-0.013774313 -0.05884795 0.041851517 0.004833983 -0.023745237 -0.03197264 -0.03672676 -0.08954675
-0.0022552528 -0.05959445 -0.09528608 0.046546973 0.036926746 -0.05272579 -0.060144413 0.008603214
-0.04197436 -0.052292474 0.048868023 -0.040996227 -0.046864897 -0.08349889 -0.0974211 -0.021332903
0.05552886 -0.017809838 -0.051206023 0.0200704 0.061075166 -0.04894298 -0.12668175 -0.02266284
-0.048087176 0.007011343 0.013006326 -0.07675581 -0.060841277 0.01274574 -0.02641399 -0.0026236626
0.008348389 0.017404104 -0.05985148 -0.007975363 -0.07697197 -0.119216785 0.036796942 -0.004173663
-0.07555401 -0.057685982 0.041655004 -0.069122195 0.01198349 -0.04862199 0.025720801 -0.050844327
-0.0045153983 0.031322297 -0.0613759 -0.050264336 0.012517508 -0.055100687 -0.082072526 -0.049487032

a2c_network.value.weight f4 [1, 64]
00000000: b5cc ab3d d065 963c 5202 443d 8e2a 013e
00000010: faed 3abd d52b 8bbb 5899 773b 8299 efbc
00000020: fb19 17bd 0cbe b0bd 6472 71bb d820 ac3d
00000030: e957 babb 8635 70bb 8261 80bd 765f 25bd
00000040: 6c03 ecbd 0096 b4bd aa24 bf3d 9fb1 48bd
00000050: de6f 05be 8b38 29bd bdff bd3b 896c 1bbc
00000060: 4606 87bc 7354 173d 3868 bbbd aa6b 013d
00000070: f6f6 e13c 91c0 b1bd 0b38 61bd 4045 0dbd
00000080: 8b3b c7bd 40c0 803c a23b fcbc 184d 5dbd
00000090: 21bf 35be 52eb 8b3d a422 d43c 8ade 4bbd
000000a0: d812 7b3d 1a0b 7fbc 3525 99bd 32ac 973d
000000b0: 1f67 823d 96f6 b53b 8e93 9d3d 38ae 57bd
000000c0: b836 8abd 26ae f5bd 34cb 8a3c ee0f b1bd
000000d0: d2d6 d33d c182 0bbd de5d 1a3d 38e7 85bc
000000e0: 03ac 033d f4e9 6d3d bd75 10bd ddca 22be
000000f0: 6d46 ff3d 43d8 fdbd 82f0 47bc cdb3 5cbc
0.08388654 0.018359095 0.047853775 0.1261389 -0.04563711 -0.0042471685 0.003778061 -0.029248003
-0.03689001 -0.086299986 -0.0036841864 0.08404702 -0.0056867492 -0.0036652996 -0.06268598 -0.04037424
-0.1152409 -0.08817673 0.09333165 -0.048997518 -0.13030955 -0.04131369 0.0057983086 -0.009486326
-0.016482484 0.03694577 -0.091507375 0.031596817 0.02758358 -0.08679307 -0.054985087 -0.03448987
-0.09728154 0.015716672 -0.030790154 -0.0540286 -0.17748691 0.06831993 0.025895424 -0.049772777
0.061297268 -0.015566612 -0.074778 0.074058905 0.06367325 0.005553077 0.076941594 -0.052656382
-0.06748718 -0.11996107 0.016942598 -0.086456165 0.10343708 -0.034060244 0.037687175 -0.016345605
0.032146465 0.058084443 -0.035268534 -0.15897699 0.124646045 -0.12394764 -0.012203338 -0.013470602

a2c_network.mu.weight f4 [8, 64]
00000000: 7ee0 a03c 5816 c23c e849 03be 5b6a 713d
00000010: d6f6 8738 76d6 633d 4964 61bd 48b0 283c
00000020: 4e0a 11bc ab3c eb3c 8361 363c 1af7 a63c
00000030: d5f7 78bc bd6b a2bc 155b 0d3e d98a 82bd
00000040: 46b9 973d 0a22 c03c c74d a03c b777 c8bd
00000050: 5733 853d 6ff6 1c3d f7ff 8d3d 59d9 d5bd
00000060: b556 83bd eb20 3e3d dd45 273d 549f 003e
00000070: 41a7 dbbd 6783 723d 13b3 86b7 dd4b 19bd
00000080: 83ce bfbd 4bf7 de3d 1756 753d 8e58 1b3e
00000090: 744f 83bd 70f7 203d 9ada 033b 134c b7bd
000000a0: 3bb8 353c 60fc 633d 864b bb3d baab 8fbc
000000b0: b821 d4bb e8fb 673d 87b1 2abc aafe abbd
000000c0: 4c7f 61bb 3ba6 b13d 5e58 5dbd ca5e 5f3d
000000d0: 20bd 263d 76e3 083d 6f30 c6bd 12f8 e8bc
000000e0: d305 d6bb dfa8 0fbe c12a 653d fb2f 02be
000000f0: 7e37 9bbb b516 623d f408 063d c578 9c3d
00000100: 0323 c43c c452 1abd a4ce 8ebd a59e ad3c
00000110: f513 c4bc 86ea a1bd 190c eebc 95d8 ec3d
00000120: fe90 4cbd b65e 99bc dfb1 f23c 95d4 f2bc
00000130: 0bd5 a7bd 4484 fbbb 2d40 fe3c 7e67 11bd
00000140: 3afd 15be 0554 663c 40b6 1ebd 922d 353d
00000150: 8d83 f73d ca16 db3d 3eea 463d 159d 27bc
00000160: d2fe 23bd 9159 b23d c8b4 73bd df84 48bd
00000170: f5c3 e53d bb72 0d3d 3504 f23c 59cc 4bbc
00000180: 4245 3b3d 2434 143d c317 8c3d dd94 21bc
00000190: dfdd 843b 70b4 e03d adb4 803d 165c 62bd
000001a0: 76ce 303c 1df0 16bd a694 d0bd 6e43 a93d
000001b0: cd1f fabc 829b 9f3d fe4a 04be fe07 03bd
000001c0: adb5 1bbd 2a45 f33d c78f e23d 98ba 4f3c
000001d0: 9c26 02be daff 363d b145 fe3d d833 053e
000001e0: 66f9 72bd 08ba 18bd 3b5e 993d b46e 6ebd
000001f0: 9e26 e93c 26dc 81bd 8d95 5a3d b48d 803d
00000200: b636 ba3c 5cac 0c3d 1055 82bd 053a 34bd
00000210: 5a19 bebc 87f2 d73d c836 7e3d 37ca 9f3d
00000220: d322 023b fc93 46bc 0c86 b43c 8fd7 c0bd
00000230: ff5d 5b3d e8cd 593d 0820 8ebd 3c62 33bd
00000240: 17f2 57be 7f53 84bd f8c3 a2bd 3300 4abd
00000250: a443 393d 742e aa3c 9e7f a63d 67dc 053d
00000260: e644 96bc eff6 a23d 50b9 733c e5bd 45bc
00000270: 78f0 f6bd 531a 09bd 729f d03d 7f01 6c3c
00000280: 31f0 08be 6da4 b5bc f27c 80bd 979b 073e
00000290: 68d7 24bd 4a9a 273d b9c4 293c 4a78 01be
000002a0: ca9c 1fbd 1094 c63c 3bae ebbc adda 043d
000002b0: e937 fc3d bf2f 833d ebd9 9e3d e844 e63c
000002c0: 79cd eb3d 306e aebd 5f13 9fbd 6a7e 8ebd
000002d0: e415 99bd 0e2f e73d 83ef 1bbd a599 3ebc
000002e0: 4b85 c03d d445 983d 79c7 49bd 8cb7 b1bd
000002f0: 60c4 473d 2a67 aa3c 7c7a 633e b84d 98bd
00000300: 2185 acbd 0ae4 3ebd 68a7 cabd 5f7d 3abd
00000310: e33e 5b3d 0e71 973d 4b53 81bd 571b 9ebc
00000320: e630 24bd 9029 9ebc e666 82bd 24a9 983c
00000330: 2a70 563d 732a 33bd 74ca f5bc 70a5 603d
00000340: bad7 3abd 4439 0a3e 3469 c03d a8bb d23b
00000350: c2a1 213d 7b20 7b3d 5ab6 a1bb 00a4 693d
00000360: 6def b13c 67cb 013d e2eb 353d ecc2 023d
00000370: 1992 d13d 2aab 063d c611 00bd c38a 80bd
00000380: 2ce0 64bd 684a 05be b35e aabd ed49 69bb
00000390: 21b8 00bd f822 3d3d da43 a53d 8967 1e3c
000003a0: be5d e6bb 0ecf aabb 5431 c83d 6855 a23d
000003b0: 7256 8d3d e35b e83c 48f6 8d3c acf4 1b3d
000003c0: 977d 9c3c f9cf 553c 7e7e 223d 0afb 7a3d
000003d0: 5cee f5bd a2ab d8bd db27 27bd 2b0a d13d
000003e0: 7cd8 0c3d 0455 a93d d0fe 08bd 3441 723c
000003f0: c5fd 753d 23aa e2bd 7a00 dd3c 8296 d1bc
0.019638296 0.023692295 -0.12821162 0.05893932 6.4832784e-05 0.055624448 -0.05502728 0.010295935
-0.0088525545 0.028715452 0.011131647 0.0203815 -0.0151958065 -0.019826764 0.13804276 -0.06374139
0.07408385 0.023453731 0.019568337 -0.09788459 0.06503933 0.038320955 0.06933587 -0.104418464
-0.064130224 0.04641811 0.04083811 0.12560779 -0.107252605 0.059207346 -1.6057433e-05 -0.037425864
-0.09365561 0.10887011 0.059896555 0.151705 -0.06411639 0.039298475 0.002011931 -0.08950057
0.011091287 0.055660605 0.09145264 -0.01753794 -0.006473746 0.05663672 -0.010418302 -0.08398183
-0.003440815 0.08674284 -0.05403935 0.054533757 0.040707707 0.03342005 -0.09677207 -0.028438602
-0.006531456 -0.14029263 0.055948976 -0.12713616 -0.00473684 0.055197436 0.032723382 0.076402225
0.023942476 -0.037676588 -0.06973007 0.021193812 -0.023935298 -0.0790606 -0.029058503 0.11564747
-0.049942963 -0.01872192 0.029625831 -0.029642383 -0.081949316 -0.0076756794 0.03103646 -0.03549909
-0.1464738 0.014058118 -0.038748026 0.044232912 0.12085638 0.10697706 0.048563235 -0.010230322
-0.040037937 0.0870849 -0.05949858 -0.04895484 0.112190165 0.034533244 0.029543022 -0.012438857
0.045720346 0.036182538 0.0684047 -0.009862152 0.0040547694 0.10971916 0.06284461 -0.0552636
0.010791412 -0.036850084 -0.101846024 0.08264814 -0.030532742 0.07793333 -0.12919232 -0.031990044
-0.038015056 0.118784264 0.110625796 0.012678765 -0.12710041 0.044677593 0.12415636 0.13008058
-0.059319876 -0.03728679 0.07488676 -0.058211043 0.028460797 -0.06340818 0.05336528 0.06277028
0.022731166 0.034344062 -0.06363881 -0.044000644 -0.023205448 0.10544305 0.062063962 0.07802241
0.0019857183 -0.012120243 0.022036575 -0.094161145 0.05355644 0.053174883 -0.06939703 -0.043794855
-0.21088444 -0.06461238 -0.07947534 -0.049316596 0.045230523 0.020774104 0.0812981 0.032680895
-0.0183434 0.07957255 0.014875725 -0.0120692 -0.120575845 -0.03347237 0.10186662 0.014404654
-0.13372876 -0.02217313 -0.062738314 0.13242947 -0.04024449 0.040918626 0.010361844 -0.12643543
-0.038967885 0.024240524 -0.028769603 0.032435108 0.123153515 0.06405591 0.07756408 0.028109029
0.115138 -0.0851711 -0.077673666 -0.06957705 -0.074748784 0.11288272 -0.038070213 -0.011633311
0.094004236 0.07435194 -0.049262498 -0.08677587 0.048771262 0.020801146 0.22214693 -0.07436699
-0.0842383 -0.046604194 -0.098952115 -0.04552972 0.05352677 0.0739461 -0.06314715 -0.019300146
-0.040085696 -0.019306928 -0.063672826 0.01863534 0.05235306 -0.043741655 -0.030003764 0.054845273
-0.04561589 0.13498408 0.09395066 0.006431062 0.039460905 0.061310273 -0.004935068 0.05704117
0.021720612 0.03168812 0.04441441 0.031924173 0.10232944 0.03287808 -0.03126695 -0.06276467
-0.05587785 -0.13016665 -0.08318844 -0.0035597042 -0.0314256 0.046175927 0.08069582 0.009668239
-0.007030218 -0.005212671 0.097750336 0.07926446 0.06901254 0.028364128 0.01732935 0.038075134
0.019102855 0.013050073 0.039671414 0.061274566 -0.12008354 -0.10579611 -0.040809494 0.102070175
0.034386143 0.082681686 -0.033446133 0.014786053 0.060056467 -0.11067607 0.026977766 -0.025584463

a2c_network.mu.bias f4 [8]
00000000: b8aa debd 29ba babd 3229 e1bc eae7 323d
00000010: f627 9fbd 7a9b e13a 7ebd 10be a5d3 5cbd
-0.10872406 -0.091175385 -0.027485464 0.0436782 -0.07771294 0.0017212473 -0.14134786 -0.053912777

exp_avg f4 [8]
00000000: 60e3 f1b8 543b a93b 7931 173b d433 303b
00000010: 0f93 213b ef6f 833b 0ddb c23a 3618 2f3b
-0.000115341274 0.005164543 0.002307026 0.002688636 0.0024654304 0.0040111463 0.0014866308 0.0026717312

exp_avg_sq f4 [8]
00000000: 1a6e dd37 a53a 2138 c3c1 0338 a912 ea37
00000010: 66d9 c237 fbf8 0c38 82d7 fd37 a186 1238
2.6396523e-05 3.844001e-05 3.141329e-05 2.7903663e-05 2.3227836e-05 3.3610482e-05 3.0260304e-05 3.4934495e-05
