runs/Cartpole_30-14-38-00/nn/last_Cartpole_ep_25_rew_157.67276.pth (torch, 29535 bytes, 24 tensors)

value_mean_std.running_mean f8 [1]
000000 d3 b5 98 8f 59 72 06 40
       2.805834886405799

value_mean_std.running_var f8 [1]
000000 3c 8e 42 97 43 84 13 40
       4.879164088666183

value_mean_std.count f8 []
000000 00 00 00 00 04 00 19 41
       409601.0

running_mean_std.running_mean f8 [4]
000000 68 0d 19 b6 71 de b4 bf 3c 30 44 e9 8a d7 c1 bf
       -0.08151922889469676 -0.13939033880194696
000010 d2 e7 81 0b 0a 9c 40 bf ee 4d 75 6c 11 cf a5 bf
       -0.0005068825767147128 -0.04259542893364797

running_mean_std.running_var f8 [4]
000000 2b 0c df df a3 e7 ee 3f a5 32 4c 59 01 a1 20 40
       0.9657763836370398 8.314463415671819
000010 ce 55 4f e9 cd 59 c2 3f 7f 2c 4c 95 c1 cb 1e 40
       0.1433656110008727 7.698980648779183

running_mean_std.count f8 []
000000 00 00 00 00 08 00 09 41
       204801.0

a2c_network.actor_mlp.0.weight f4 [32, 4]
000000 6a 1f 17 be 90 1c 10 3d 26 30 a5 be 82 df 21 3e
       -0.14758077 0.03518349 -0.32263297 0.15807918
000010 e7 dd f2 3e a3 33 a9 be fe ec 07 3f 2b c9 17 3e
       0.47434923 -0.33047208 0.53095996 0.14822833
000020 51 3c aa 3e 0b 07 2e 3d 39 a3 9e 3e 1f b9 fd bd
       0.33249143 0.042487185 0.30983904 -0.12388825
000030 f0 f4 89 3e 72 9f 18 3d 64 8d 0e be 17 b2 1f 3e
       0.26944685 0.037261434 -0.13921124 0.1559528
000040 67 3f 85 be be bf ed bd e1 4f 9e be b6 48 35 3e
       -0.26024935 -0.116088375 -0.30920318 0.17703518
000050 6e 5a bd be 78 5b 46 bd 0e ba 06 be d7 a8 1e be
       -0.36983055 -0.048427075 -0.13156912 -0.15494095
000060 ca 85 c3 3d f6 29 01 bf c7 26 df 3e 71 5b ea be
       0.095470026 -0.5045465 0.43584272 -0.4577289
000070 23 2c f0 3e ff c7 0b 3d fe 03 4c be 25 14 13 3e
       0.46908674 0.034126278 -0.19923398 0.14363153
000080 3c 58 05 3d 98 eb a7 3e 3a eb b7 3c 45 e6 96 be
       0.03255485 0.3279693 0.022451032 -0.29472557
000090 fe 0d 52 3d e5 b6 54 be 94 82 b7 3e bd 9b dc 3e
       0.051282875 -0.20772894 0.3584181 0.4308757
0000a0 ed 21 88 3e ab e5 56 be 69 e2 bf 3e 56 37 e0 3d
       0.26588383 -0.20986049 0.37477425 0.109480545
0000b0 36 d5 cf 3e 1e 42 84 bc 8f 2b 1a bf e9 e6 68 bd
       0.40592355 -0.016144808 -0.60222715 -0.056860838
0000c0 25 77 11 bf cd b8 75 3e 8e 11 83 3e 61 37 ab 3c
       -0.56822425 0.23996277 0.2559933 0.02090043
0000d0 34 8e f3 3d e7 94 81 bd 78 5f b4 3e 65 c4 cc be
       0.118923575 -0.06327229 0.35229087 -0.39993587
0000e0 be 24 6c 3d 25 c4 a7 be 11 70 77 bd 12 d5 86 be
       0.057652228 -0.32766834 -0.06040961 -0.26334435
0000f0 05 20 13 bd cc cf 11 be e0 f5 fd 3e e7 b3 30 be
       -0.035919208 -0.14239424 0.4960165 -0.17256127
000100 d4 7d 0b bf 64 4b a8 be a2 ba 28 3f b7 00 87 3e
       -0.54488873 -0.32870018 0.6590978 0.26367733
000110 bc fa 0a 3f ef 09 b3 bd 46 69 3f bf ed 7f 76 be
       0.5428884 -0.08742129 -0.7477001 -0.24072237
000120 f5 bd ef be 1a 03 6d 3d 5e 62 ac 3e cc a7 88 3e
       -0.46824613 0.057864286 0.33668798 0.2669052
000130 a9 ca f3 be c0 0d 86 be 28 3c d9 3e 1c a3 cb 3d
       -0.47615555 -0.26182365 0.42428708 0.0994322
000140 ef c7 bf 3e d3 b2 97 bd 0a b2 7f 3e 79 ea 8c be
       0.37457225 -0.07407155 0.2497026 -0.27522638
000150 d1 ca 1d be 57 90 29 3e ee b7 3d bd 96 5c 7c be
       -0.154094 0.16558968 -0.046317987 -0.24644694
000160 83 3e dc 3e 10 a4 d4 3e 12 1c 0f bf 45 fb b8 be
       0.43016443 0.4153142 -0.55902207 -0.36129203
000170 f0 f7 0c 3f 2b 7f 2f 3e da 7f ea be a3 70 91 be
       0.5506582 0.17138354 -0.45800668 -0.28406247
000180 64 44 61 be 15 8a 83 3e 61 ba b5 bc e0 37 a4 be
       -0.21998745 0.25691286 -0.022183599 -0.3207388
000190 b1 3a 96 3d 15 76 00 be 0d 29 f3 be 5f 3c 4a be
       0.07335413 -0.12545045 -0.47492257 -0.19749592
0001a0 61 c0 2e bf b9 48 a9 be 75 11 ef 3e fc 63 07 3e
       -0.68262297 -0.33063295 0.46693006 0.13221735
0001b0 18 01 0d 3f f7 fc 91 3d 2f 00 01 bf c6 8f 3a bc
       0.55079794 0.07128327 -0.50390905 -0.011386817
0001c0 cd f1 80 3b 1e 83 bd be 62 fa a8 be ca 05 97 be
       0.003935075 -0.37014097 -0.33003527 -0.29496604
0001d0 63 9b eb 3e 43 18 fe 3d 79 1e 87 be 48 0a 58 be
       0.46016988 0.12406971 -0.26390436 -0.21097672
0001e0 3e cf d9 be 5d 69 02 be 7a 38 ac be 85 28 a2 be
       -0.42540926 -0.12735505 -0.33636838 -0.3167154
0001f0 30 62 df 3e e2 f9 1e be b9 ce 05 3f 38 63 f7 3d
       0.436296 -0.1552501 0.5226856 0.12079471

a2c_network.actor_mlp.0.bias f4 [32]
000000 de 6d 4a be 02 ef 4d be 7e 31 55 be 80 b1 81 be
       -0.19768474 -0.20110705 -0.20819661 -0.25330734
000010 f9 b4 2c be af 04 2a be be d6 28 3e db a4 5e be
       -0.1686591 -0.16603349 0.16488168 -0.21742575
000020 16 54 2b be 57 9f 32 be 84 dd 4a be 9e 94 4c be
       -0.16731295 -0.17443596 -0.19811064 -0.19978568
000030 2d e9 1f be 04 cc 00 3e 1c 44 33 3e ab 2c 5b 3e
       -0.15616293 0.12577826 0.1750645 0.21403758
000040 d2 06 61 be 73 d3 49 be 1d 5a 34 be 07 06 a0 3e
       -0.21975258 -0.19709568 -0.176125 0.31254598
000050 4f 03 17 3e 27 db d2 3d 36 95 5c be 74 31 17 be
       0.14747356 0.10295706 -0.21541294 -0.14764959
000060 8c fc 55 3c 7c 24 ea bd 2d 08 87 3e c5 19 4a bd
       0.0130607 -0.1143274 0.26373425 -0.049340982
000070 d7 4c 20 be 21 49 04 3e 0c 72 01 be d6 86 4b be
       -0.15654312 0.12918521 -0.12641162 -0.19875655

a2c_network.actor_mlp.2.weight f4 [32, 32]
000000 42 e9 9d 3d 79 7b a0 3d 43 72 1e 3d d6 44 63 3e
       0.07710506 0.078360505 0.038683187 0.22194228
000010 ed 43 a3 3d 61 03 cf bc cc ab 19 be 40 a3 27 3d
       0.0797194 -0.025270166 -0.15006942 0.04092717
000020 5f 5c 72 3e 63 f5 e5 bc 10 fa 81 bc 10 26 d2 3d
       0.2366805 -0.028071111 -0.01586631 0.10261166
000030 9b 4e 2a be dd 9e e7 bb b7 60 9a 3d 88 09 8c be
       -0.16631548 -0.0070684985 0.07537978 -0.27351022
000040 3c 69 0f bc ec ab 57 3e 18 72 e2 bc e6 da 23 be
       -0.008753117 0.21061677 -0.027642295 -0.16001472
000050 f1 e7 84 3c 7a d6 8b 3d e3 70 72 3e 3c 56 e4 ba
       0.01622388 0.068280175 0.23675875 -0.0017420719
000060 d7 9a a0 3c e1 42 f0 3d d1 3f b3 be 57 7b c5 3c
       0.019605083 0.11731506 -0.35009626 0.024106665
000070 a9 6c 44 3e cd 1c 4f 3e 4f c2 ce 3c ed df 82 3d
       0.19182076 0.2022583 0.025239138 0.06390367
000080 68 1d cf bd 87 96 88 bc 50 c1 63 3c 26 99 00 3c
       -0.10113031 -0.01667334 0.01390107 0.007849013
000090 33 3d 84 be dd 33 47 be 5f 1f 86 3e f5 16 8f bb
       -0.2582794 -0.19453378 0.2619581 -0.0043667504
0000a0 ab 62 4c be a5 07 81 bd 2a 7d cc bd 72 9a d6 be
       -0.19959514 -0.06300286 -0.09984811 -0.41914707
0000b0 26 03 ad bd 91 dc ae 3d 54 90 2a 3e d8 a6 09 3e
       -0.08447866 0.085381635 0.1665662 0.13442552
0000c0 02 a2 a7 be 99 f1 7a be 3e dd 11 ba bb 18 7a 3e
       -0.3274079 -0.24506225 -0.00055642787 0.24423496
0000d0 fb c5 be 3d f6 bd 63 bd 28 fe 86 be d5 bd 15 be
       0.093151055 -0.055601083 -0.2636578 -0.14623196
0000e0 e9 b9 69 be ec 35 e5 bb da da d8 bd 78 db c9 bd
       -0.22824825 -0.0069949534 -0.105886176 -0.098563135
0000f0 d4 55 62 be 56 03 c6 3d 34 7d 32 3d 89 5d 7c 3d
       -0.22103053 0.09668605 0.043576434 0.06161264
000100 d2 22 2a be 4a fb 8b be f4 53 5b be 3a 7e e1 3d
       -0.16614845 -0.27340156 -0.21418744 0.11010404
000110 8c c7 a2 3c ac 97 8e 3d ea 9b 45 3e 2b c1 09 3c
       0.019870542 0.06962523 0.19297758 0.008407871
000120 7e 93 03 be 7c bd 57 be a5 b8 5f be 08 9c 86 be
       -0.12849233 -0.21068376 -0.2184778 -0.26290917
000130 81 b3 00 bc 3a 35 9c bc 0e 41 a8 3d 42 3d ad bc
       -0.007855297 -0.01906835 0.08215533 -0.021147374
000140 69 b4 8d be cf 23 ec bd ff 7c 40 be 40 c6 6f bd
       -0.27676705 -0.115302674 -0.18797682 -0.058538675
000150 b0 4a a9 3d 9a d7 ad 3d 41 54 86 be da 41 45 bd
       0.08266199 0.08488388 -0.26236156 -0.048158504
000160 99 0a bc bd 24 06 06 be 28 d6 81 be e6 f1 08 bd
       -0.09181709 -0.1308828 -0.253587 -0.033433817
000170 e6 7d e6 3d 19 8b ca bc 1f 7b 7a 3d ef b4 15 bc
       0.11254482 -0.02472453 0.061152574 -0.009137376
000180 1d 8f da 3d 32 09 c7 bc 77 ef 83 3e b7 44 08 3c
       0.10671828 -0.024296377 0.25768635 0.008317164
000190 a9 63 a0 3d ee db 68 3e d5 f1 98 bd 0f 26 5c 3d
       0.07831509 0.22740147 -0.07468001 0.053747233
0001a0 d3 77 ef 3d 68 0e 15 be d1 53 33 3e 94 cf 4c 3c
       0.116927765 -0.14556277 0.17512442 0.012500662
0001b0 af 5e 76 3d b8 e6 b4 3d 48 dc e6 3d d9 e5 10 be
       0.06014889 0.088330686 0.11272484 -0.1415018
0001c0 1e af 57 be ea bc 37 3e 0d 7e 94 3c ee 93 9c be
       -0.21062896 0.17943159 0.018126512 -0.3058161
0001d0 91 69 b6 bd 0d 15 12 be 66 e5 38 3e 07 0d a7 bc
       -0.08906854 -0.14265843 0.18056259 -0.020391954
0001e0 36 15 15 bc d3 a6 5b 3d 0e ee 03 bf 61 c7 68 3e
       -0.009099295 0.053625893 -0.5153512 0.22732307
0001f0 fe b4 6c 3e 1c c2 f5 3c 64 94 23 3c 51 c0 09 3d
       0.23115918 0.029999785 0.00998411 0.033630673
000200 ac ad 4f be c8 c8 a9 be 4b b4 a2 bd c4 27 5f be
       -0.20281094 -0.33160996 -0.079445444 -0.21792513
000210 3e 8c ee bd ca e3 3e bd f0 3e ef 3d b7 c7 35 be
       -0.11647843 -0.046603955 0.11681926 -0.17751966
000220 38 d2 18 be a3 64 1e be 12 df 56 be e5 87 3f be
       -0.14923942 -0.15468077 -0.20983532 -0.18704183
000230 7f ee 24 be ab 60 8b 3e 57 aa db 3d 9a 0f 53 3e
       -0.16106604 0.2722219 0.10725849 0.2061142
000240 a1 50 08 be aa 9d b1 bc 58 4b eb 3d 74 be 96 3d
       -0.13312007 -0.021681625 0.1148898 0.07360545
000250 d5 79 0d bd 68 55 7e 3d cb db b8 3c 3e 5c 23 3e
       -0.034540016 0.06209317 0.022565743 0.15953156
000260 20 cf 98 3d 25 5b c0 3d f4 d0 49 bd e4 f0 6e 3c
       0.07461381 0.093923844 -0.04927154 0.0145838
000270 f9 c8 dc bd f2 d5 ae bc 04 36 f3 3d 7d 5d 76 bd
       -0.1078052 -0.021342251 0.11875537 -0.06014775
000280 79 66 e3 bd 2f b6 3e bd 53 ea 43 bd 62 d4 37 be
       -0.111035295 -0.046560463 -0.04783089 -0.17952111
000290 53 1c 6e bd d5 03 69 3d 43 8f b7 3d a1 bc e6 3c
       -0.05813248 0.05688842 0.08962872 0.028166117
0002a0 30 d7 97 bd 4b 88 db bd 86 38 2a 3e 76 22 1a bd
       -0.07414091 -0.10719355 0.16623124 -0.03763052
0002b0 11 de d6 bc 94 0a 28 3d 09 c5 d3 bd b1 d2 8a bd
       -0.026228936 0.041025713 -0.10340316 -0.067784674
0002c0 62 ab ea 3c 89 e6 36 3c 07 e0 e2 bd ab 0c 43 be
       0.028646175 0.011163362 -0.11077886 -0.19047801
0002d0 5f 1e 6b be 0f 49 80 bd a2 b5 88 3e 5f 31 23 be
       -0.22960804 -0.06263935 0.26701075 -0.15936802
0002e0 ce ae 54 bc 5f e4 06 3e 33 e2 00 be 0e 5d 02 3e
       -0.01298113 0.13173054 -0.12586288 0.1273081
0002f0 3c 0e 5e 3e 36 11 00 3e 78 fb be bd 72 76 d1 3d
       0.21685117 0.12506565 -0.093253076 0.1022767
000300 7f da 5d 3e d0 e9 ed bd cf ac 3c be 77 cb 2d 3e
       0.21665381 -0.11616862 -0.18425296 0.16972147
000310 db 0b df bc b8 1f 4c be c9 c8 0b be b4 b7 52 3c
       -0.027227333 -0.19933975 -0.13650812 0.012861181
000320 75 8f e5 3c 91 2a 27 3c f5 ff 69 bd 85 ae 09 be
       0.028022507 0.01020302 -0.057128865 -0.1344548
000330 d8 5a 4b be 3d 87 b2 bd 1e 48 3c 3e 67 f1 eb 3c
       -0.19858873 -0.08717201 0.18386886 0.028801633
000340 5f 81 b0 be 3b 53 d3 3c a1 b2 13 be a4 41 07 bd
       -0.34473702 0.025796523 -0.1442361 -0.033021584
000350 09 12 12 3c 64 b0 3b 3e d3 46 58 3d 3e 9b c3 bd
       0.008915433 0.18329006 0.05280192 -0.095510945
000360 0c a9 13 3e 0f ec 04 be 39 81 8f 3d c7 2b 82 3e
       0.14419955 -0.12980674 0.07007069 0.25424024
000370 58 66 50 3c 37 58 81 3e c6 1b 5a be df 9e 14 be
       0.012719713 0.25262615 -0.21299657 -0.1451373
000380 20 71 03 3d db 61 0b be 98 3a f3 bd f5 b9 cc bd
       0.032090306 -0.13611548 -0.1187641 -0.09996406
000390 a4 fa e7 3b 56 b1 28 bc fd b0 32 3e 7e 0b 40 be
       0.0070794392 -0.010296186 0.17450328 -0.18754384
0003a0 6c 5a 86 be 30 3a 1a bd 98 e7 05 bd 63 45 84 be
       -0.2624086 -0.03765315 -0.032691568 -0.25834188
0003b0 66 9a a9 bd 7d 41 60 3e 48 27 b3 3d 79 f4 fe 3d
       -0.08281402 0.21899982 0.08747727 0.12448973
0003c0 44 77 7f be aa ce 6c be 18 e6 42 be 50 0a 1e be
       -0.2494784 -0.23125711 -0.19033086 -0.15433621
0003d0 b4 55 68 3d 72 18 22 3c b6 f5 b5 be 47 4f d1 bd
       0.056722358 0.0098935235 -0.35539025 -0.10220199
0003e0 84 69 a6 3d f0 bd 6f bc 61 e2 e0 bc fb ed c7 bd
       0.08125594 -0.014632687 -0.027451696 -0.09762188
0003f0 30 80 a3 bd 59 4f 67 3d a1 a1 30 be 0d fe 4c be
       -0.07983434 0.056472156 -0.17249157 -0.20018788

a2c_network.actor_mlp.2.bias f4 [32]
000000 1d fb 50 be f4 ff 27 3e 62 23 48 3e 57 9d 63 be
       -0.20408292 0.16406232 0.19544747 -0.22227989
000010 cf e4 21 3e 3f c6 26 be 8a 0e 4f 3e c7 47 3a 3e
       0.1580994 -0.16286562 0.2022039 0.18191443
000020 99 0c 3a 3e 5b 8f 44 be 74 bf 34 3e 88 af 81 3d
       0.18168868 -0.19195311 0.17651159 0.06332308
000030 f2 b2 2a 3e 00 ad dd 3d 9e c7 1f 3e 90 f8 31 be
       0.16669825 0.10824013 0.15603492 -0.17379975
000040 1e 10 4a be 4a 83 ee 3d 78 75 9f 3d 5e 7f 3b 3e
       -0.1973271 0.11646135 0.07786077 0.18310305
000050 7a 23 38 be b8 8b 02 3e 50 97 1a 3e 10 9e 33 be
       -0.17982283 0.12748611 0.15096784 -0.17540765
000060 af 54 0d 3e 10 78 f5 3d f0 39 3a be fb f5 8d bd
       0.13801835 0.11985791 -0.18186164 -0.06931683
000070 7a 7a 48 be 75 57 66 3c 51 1d a0 be dc ae 4b be
       -0.19577971 0.014058937 -0.31272367 -0.19890922

a2c_network.value.weight f4 [1, 32]
000000 2e 2a ee bd d3 4f 3b 3e ad a0 2c 3e 94 0c 1c be
       -0.11629139 0.1829217 0.16858168 -0.15239173
000010 12 c5 a7 bc b4 d7 67 bd d1 3f 90 3e 6b 89 81 3e
       -0.020479713 -0.056602195 0.28173688 0.25300154
000020 dc 1d 1d 3e 41 ca 5e be 0b 46 36 3e 85 e2 67 3d
       0.15343422 -0.21756841 0.17800157 0.05661251
000030 0e cd 09 3e 8c 55 d5 3d 74 a7 16 3e 82 0d f8 3b
       0.13457128 0.104167074 0.14712316 0.0075699696
000040 d8 78 84 bd 6b 2d 21 3d c8 5d de bc 01 56 81 3e
       -0.064683616 0.039349955 -0.027144328 0.25260928
000050 88 54 11 be 62 48 92 3d 82 72 9a 3d 90 c4 a7 bd
       -0.14192402 0.07142712 0.07541372 -0.08191788
000060 f6 b6 6a 3e 63 a3 b9 3b d4 86 d7 bd 80 38 a6 3d
       0.22921357 0.005665229 -0.10523763 0.08116245
000070 f6 53 27 be 6c 91 f7 bb 5d f2 50 bd bb 43 3f be
       -0.16340622 -0.0075551774 -0.051012386 -0.18678181

a2c_network.mu.weight f4 [1, 32]
000000 4a 7b 12 bd 4b 5f 12 be e1 00 8e 3b fb c0 1f bc
       -0.03576211 -0.14294164 0.004333601 -0.0097506
000010 65 91 77 3e 20 22 0c 3d 8a 04 9e bd 67 fe 73 be
       0.24176557 0.03421223 -0.077157095 -0.23827516
000020 bc 06 a5 3d 1f d5 91 bd 23 2b 8c be aa e8 8f 3e
       0.08057925 -0.07120728 -0.2737666 0.28107196
000030 bd 39 fe bd a2 45 b0 be 35 fc ab 3e 04 0b 1d be
       -0.124133565 -0.34428126 0.33590856 -0.15336233
000040 29 5e 04 3e 8e aa aa 3d 52 f2 e1 3c 93 80 d5 bd
       0.12926544 0.08333312 0.027581368 -0.10424914
000050 61 39 47 bc e1 ac 28 bd 30 78 1d 3e 17 7c 21 3e
       -0.012159676 -0.041180495 0.15377879 0.15769993
000060 aa d6 b1 3d 48 27 f9 3d 91 c6 ac 3d 57 44 61 be
       0.08683522 0.121656954 0.08436311 -0.21998726
000070 b3 6e 0d bd eb 25 02 3b 2d 5a a2 be 63 3c aa be
       -0.0345294 0.0019859027 -0.31709424 -0.33249196

exp_avg f4 [32, 4]
000000 51 31 51 3a 0f 38 49 39 ca 4e 75 38 b5 77 ea 39
       0.0007980066 0.00019189737 5.848593e-05 0.00044721147
000010 78 04 57 3b e2 94 54 3a 96 f4 e0 3a 0c 2e 1b ba
       0.003280906 0.00081093435 0.0017162736 -0.0005919642
000020 01 36 10 3b 47 00 1f 3a e0 18 9b 3a 8a 78 b2 b9
       0.0022004845 0.000606541 0.0011832975 -0.00034040614
000030 bf 1a c6 39 9a dc 37 3a 47 64 a7 b9 8d a6 1b 3a
       0.0003778543 0.0007013768 -0.00031927435 0.0005937599
000040 5f 3c 1a 3a db 79 52 b9 fc fc 4f 3a 50 54 44 ba
       0.000588363 -0.00020072555 0.0007934121 -0.000748937
000050 1f 52 7d 38 fc 08 0f 39 3e cd 3e 3a 31 a4 18 bb
       6.039638e-05 0.0001364089 0.0007278508 -0.0023291225
000060 ca 97 e0 ba b5 30 be ba 72 a1 01 ba b7 2b 53 b8
       -0.001713508 -0.0014510365 -0.00049450167 -5.0347033e-05
000070 f4 26 e7 3a 27 75 00 b9 ff 23 56 3a 3f d3 8d b9
       0.001763551 -0.00012250674 0.0008168816 -0.00027051006
000080 c7 2e fc 39 4c 1e a9 39 d0 d4 84 3a ac 7a 84 ba
       0.00048100037 0.00032256765 0.0010134224 -0.001010736
000090 45 45 9a 3a db e0 fd 3a 56 a1 af 39 be 25 37 39
       0.0011769912 0.001936938 0.00033498806 0.000174663
0000a0 b3 7a e8 3a 4c 44 52 3a e4 6d 49 3a 3e 22 d1 b9
       0.0017736763 0.0008021041 0.00076839165 -0.000398891
0000b0 af af 5a 3b f6 bc 44 ba 8b 42 19 3b fb 1b a1 ba
       0.0033368876 -0.0007504964 0.002338561 -0.0012291664
0000c0 f3 6f 60 ba 44 7c 81 3a 06 34 c9 39 ca 32 84 ba
       -0.00085616036 0.0009878953 0.00038376468 -0.0010085937
0000d0 74 7a b4 b9 32 b4 01 ba b2 6a 83 b8 fe 0c 2e b9
       -0.0003442351 -0.00049478107 -6.26644e-05 -0.00016598773
0000e0 f3 62 a4 ba c3 ea c0 ba 40 fd 22 b9 23 53 a1 39
       -0.0012541696 -0.0014718402 -0.00015543867 0.00030770255
0000f0 38 6d ef ba 99 79 32 ba d8 af c4 b9 79 93 53 b9
       -0.0018266803 -0.00068082806 -0.00037515047 -0.00020177466
000100 60 ee 14 3a 43 a5 5a 3b fb 5a fc 3a e2 55 82 bb
       0.00056812726 0.0033362664 0.0019253189 -0.003977523
000110 04 58 fe 3a 98 ec 60 ba 1c 02 ff 3a 1f 2d 7e b9
       0.0019404893 -0.0008580177 0.0019455585 -0.00024240137
000120 19 40 cf b8 d2 60 bd 3a bd 86 f3 39 24 f8 b6 b9
       -9.882468e-05 0.001444841 0.0004644896 -0.00034898624
000130 3b 92 9f ba 10 73 03 b8 10 34 58 b9 73 46 43 ba
       -0.0012174317 -3.1339994e-05 -0.0002061876 -0.00074491574
000140 0b 3a d2 ba 5e f9 84 ba d3 e1 9b ba f4 e1 f5 b9
       -0.0016039027 -0.0010145118 -0.0011892862 -0.0004689839
000150 d0 b0 b1 b8 46 74 c1 ba dd 43 ad 39 d0 0f 41 b9
       -8.4729516e-05 -0.0014759384 0.00033047693 -0.00018411805
000160 69 a1 89 3b 5b a9 25 bb 98 78 5f 3b a6 75 1b bb
       0.00420015 -0.0025277946 0.003409898 -0.0023721247
000170 5b 46 c5 3a 8a 44 9a ba 65 81 d9 3a 0a dc a3 b9
       0.0015050875 -0.0011769694 0.0016594349 -0.00031253725
000180 18 97 da 39 2e b0 8b ba ba 4f 6d 3a fd d7 f7 ba
       0.00041692774 -0.0010657364 0.00090527127 -0.0018908974
000190 53 72 b3 39 68 5e 21 ba a5 da 92 3a 96 d0 a8 ba
       0.0003422672 -0.000615573 0.0011204077 -0.0012879546
0001a0 2d 4f ab ba 06 29 a1 3a 4f a4 a0 b9 d5 d8 cc ba
       -0.0013069861 0.0012295551 -0.00030639998 -0.0015628586
0001b0 48 0a 36 39 8f 14 8d ba 51 dd 72 39 6f ac 91 39
       0.00017360703 -0.0010763573 0.00023161365 0.00027785028
0001c0 de 5a af 39 8c 9b 8a b9 4a 5e 32 3a 7a 47 fb b6
       0.00033446302 -0.00026437303 0.00068042113 -7.488704e-06
0001d0 72 d8 71 b8 f9 83 be ba bd a1 02 ba 11 c2 1c 38
       -5.7660458e-05 -0.001453518 -0.00049832073 3.7374037e-05
0001e0 00 6d 26 b7 7c dd 20 ba b8 e1 a8 3a c5 9e f2 ba
       -9.91975e-06 -0.00061365194 0.0012884652 -0.0018510452
0001f0 ea 38 27 3b 68 86 0f 3a bd 64 b2 3a b4 c9 e2 b9
       0.00255161 0.0005475045 0.0013610345 -0.0004325636

exp_avg_sq f4 [32, 4]
000000 3f 9c 2a 38 dd eb 82 37 8f 63 ef 37 01 3e 4f 37
       4.0676674e-05 1.560704e-05 2.853738e-05 1.2352598e-05
000010 7f 7d 40 39 43 9d bb 39 f8 63 0b 39 1e 8f 99 39
       0.00018357298 0.00035784589 0.00013293314 0.00029289065
000020 73 82 ce 38 8c 55 38 39 b1 ad 56 38 f3 34 12 39
       9.8471435e-05 0.00017579476 5.118334e-05 0.0001394337
000030 37 72 22 38 20 8f cb 36 0d 00 24 37 95 e1 78 36
       3.873018e-05 6.0665334e-06 9.775174e-06 3.7086186e-06
000040 a3 87 cf 37 1d 7c f6 37 9d 9f 9d 37 34 db e0 37
       2.4739484e-05 2.938328e-05 1.8790184e-05 2.6804955e-05
000050 1c 7b ef 38 eb 83 1d 39 42 7e ae 38 54 40 03 39
       0.00011419339 0.0001502183 8.320484e-05 0.00012517098
000060 cc 3c b0 38 cc 41 82 38 45 29 3e 38 2e 10 5f 38
       8.403658e-05 6.211139e-05 4.5337965e-05 5.318241e-05
000070 5a 9c a6 38 b0 31 eb 38 a0 42 15 38 a0 83 bb 38
       7.9446196e-05 0.00011214928 3.5586418e-05 8.941372e-05
000080 19 e8 2d 39 44 65 92 39 dd f8 94 38 3b 3e 73 39
       0.00016585029 0.0002792274 7.103544e-05 0.00023197469
000090 b4 bf 02 39 94 0b 46 39 cc fc bb 38 32 c5 08 39
       0.00012469181 0.00018887065 8.963942e-05 0.00013043432
0000a0 2d 93 d3 38 df a2 11 39 b8 5b 74 38 8d d1 dd 38
       0.00010088678 0.00013888952 5.8259553e-05 0.00010577133
0000b0 a6 cd 69 39 8d a7 73 39 c7 71 ef 38 a5 10 43 39
       0.00022297222 0.00023236703 0.00011417601 0.0001860285
0000c0 62 39 17 38 43 22 c8 38 7a e4 ba 37 f6 ef bd 38
       3.6054647e-05 9.543125e-05 2.227932e-05 9.0569185e-05
0000d0 a8 be c8 37 f0 f2 9f 37 ba 00 84 37 ed 73 61 37
       2.393064e-05 1.9067404e-05 1.5735965e-05 1.3438036e-05
0000e0 f6 17 9f 38 b6 d7 4f 38 9e b2 13 38 37 d1 11 38
       7.586174e-05 4.9553542e-05 3.521388e-05 3.476554e-05
0000f0 8f bb 8f 38 16 73 96 37 0d dd 97 37 63 7f 80 37
       6.853707e-05 1.7934984e-05 1.8103538e-05 1.5318108e-05
000100 30 8f c1 39 7c e9 4d 3a 16 63 8a 39 13 e5 40 3a
       0.00036918512 0.0007854921 0.00026395236 0.00073583535
000110 b8 e3 03 39 8e e6 ea 38 06 4e ac 38 07 35 a8 38
       0.00012577965 0.00011200934 8.216132e-05 8.0207414e-05
000120 ee 5c 9b 38 a9 38 37 39 33 35 8e 38 01 0c 17 39
       7.4082855e-05 0.00017473348 6.780997e-05 0.00014404954
000130 71 4b 8b 36 05 84 a6 35 cc bd 3d 35 2d 8f b2 35
       4.1513053e-06 1.2406387e-06 7.068418e-07 1.3303703e-06
000140 00 bf fe 38 0e 4f da 38 83 da 2d 38 6d 67 a4 38
       0.0001214724 0.00010409775 4.144992e-05 7.839394e-05
000150 1f 76 93 38 6a 1e 37 37 5b 18 33 37 68 99 c1 36
       7.031508e-05 1.0914731e-05 1.0674902e-05 5.769707e-06
000160 04 98 b6 39 55 07 ea 39 fc f7 23 39 75 2f c2 39
       0.00034827006 0.0004463742 0.00015637273 0.00037037922
000170 7e d4 60 38 ff 2f 62 38 28 25 9e 37 e2 a6 34 38
       5.360366e-05 5.39273e-05 1.885237e-05 4.3070766e-05
000180 e0 83 2f 39 63 c4 47 39 26 5f a3 38 43 77 1f 39
       0.00016738428 0.00019051279 7.7901685e-05 0.0001520785
000190 4f 90 17 39 e0 78 f9 38 d0 32 b3 38 b8 ee b0 38
       0.00014454241 0.0001189576 8.54485e-05 8.436799e-05
0001a0 74 c8 15 38 96 95 d9 37 cf c6 67 37 36 2a c5 37
       3.5711055e-05 2.5938072e-05 1.3814962e-05 2.3503886e-05
0001b0 e5 38 00 37 c2 0c 9a 36 9e 37 93 36 3a 49 84 36
       7.642641e-06 4.591043e-06 4.387416e-06 3.9424312e-06
0001c0 36 05 bf 38 ff 95 64 38 35 67 9a 38 25 b3 34 38
       9.10856e-05 5.449913e-05 7.362516e-05 4.3082186e-05
0001d0 46 9b 3a 37 28 26 b5 37 1f 2a aa 36 8d f8 a7 37
       1.1122616e-05 2.159465e-05 5.0712983e-06 2.0023692e-05
0001e0 ed 18 4c 39 fa ea 38 39 d8 57 01 39 8f 9d 10 39
       0.00019464242 0.00017635143 0.00012335123 0.00013791605
0001f0 29 f4 f9 38 31 6d 99 39 1a e8 c9 38 fa 12 78 39
       0.000119187236 0.00029263788 9.627659e-05 0.00023658192

exp_avg f4 [32]
000000 a8 d0 dd 39 6d f4 a9 b9 cf 9e 8d 3a b6 f1 e1 3a
       0.00042307866 -0.00032416303 0.0010804775 0.0017238173
000010 51 3b 9b ba 80 de b4 ba 33 8b a1 b8 f8 5b 66 3a
       -0.0011843239 -0.001379922 -7.703006e-05 0.0008787508
000020 62 90 0c 3a 8d c3 09 3a 0b 89 35 3a ef 26 22 b9
       0.0005362091 0.00052552746 0.0006925023 -0.00015464028
000030 44 57 fb b9 42 f2 ad 38 c8 49 d1 b9 a8 9a 88 ba
       -0.0004793947 8.294407e-05 -0.00039918558 -0.0010422068
000040 02 7c 11 bb 2a b6 96 ba f7 da 12 39 9b 7a c1 39
       -0.0022199159 -0.0011498381 0.00014005216 0.00036903177
000050 74 b2 2b 3a b2 e2 d6 ba a9 f6 db b9 2a b6 e5 ba
       0.0006549724 -0.0016394465 -0.0004195471 -0.0017525603
000060 81 e7 d3 ba 31 a1 ac b9 31 47 b8 b9 75 f1 19 b9
       -0.0016167016 -0.00032926493 -0.00035148257 -0.00014681167
000070 2e d8 09 b9 b3 f8 25 3a 71 7a 33 bb aa 01 95 38
       -0.00013145871 0.00063313096 -0.0027386213 7.1051836e-05

exp_avg_sq f4 [32]
000000 fb d3 7c 38 bd 18 56 3a 32 29 d3 39 32 b6 60 37
       6.0278904e-05 0.00081671384 0.0004027575 1.3393861e-05
000010 87 e6 be 38 2b 07 cc 39 f6 20 5f 39 4d 2f 91 39
       9.102845e-05 0.00038915253 0.00021279216 0.00027691797
000020 cd 5f 1f 3a 00 2b a8 39 81 91 92 39 df 6d 28 3a
       0.0006079644 0.00032075495 0.000279557 0.00064250635
000030 a4 3c 56 39 d1 84 8a 38 75 37 f9 38 f6 53 b0 38
       0.00020431221 6.605092e-05 0.00011883575 8.407973e-05
000040 d0 27 d1 3a b4 57 be 39 10 59 cb 39 72 47 a0 36
       0.00159573 0.00036304968 0.00038785534 4.776689e-06
000050 79 23 94 39 d8 77 1a 38 3d 76 9e 3a 85 30 44 39
       0.0002825519 3.6828074e-05 0.0012089681 0.00018710092
000060 38 68 fd 39 63 92 b5 39 7b 1a cf 38 bd 2e dd 37
       0.0004833357 0.00034632077 9.8754615e-05 2.6367017e-05
000070 16 94 74 39 77 84 44 38 c6 b4 00 3a b2 6a 1d 3a
       0.0002332482 4.685341e-05 0.000490975 0.00060049735

exp_avg f4 [32, 32]
000000 a5 17 ab b9 b7 b3 36 3a 69 c8 bc 39 dd cb 11 38
       -0.00032633278 0.00069695286 0.00036007471 3.4760556e-05
000010 76 4a cb b9 99 9a a5 b9 fb 61 0c 3a c0 fd 7d 39
       -0.00038774655 -0.00031586437 0.00053551764 0.0002422249
000020 fa 86 85 b8 f2 4a ec 38 c7 15 c3 39 ad 66 4b 38
       -6.3670755e-05 0.000112673166 0.00037209524 4.8494596e-05
000030 01 7a b6 b9 87 51 d5 39 09 83 7d 39 3a ca b9 39
       -0.00034804645 0.00040687268 0.00024176775 0.0003543662
000040 01 6e ae b9 ba e1 36 39 32 da ab b9 4b b5 32 b9
       -0.00033269826 0.00017440962 -0.0003277823 -0.0001704294
000050 96 c7 1d 3a ad 03 ae b8 5b 8c 28 b7 ea f0 8b 39
       0.00060188153 -8.297651e-05 -1.0046259e-05 0.0002669164
000060 18 9a 0e b9 9e 18 ba b8 1d 1e cb b9 8a 64 94 39
       -0.0001359958 -8.8737565e-05 -0.00038741613 0.00028303667
000070 cc ab f9 b6 50 bc d3 39 46 7e a6 b9 e6 c1 1f 3a
       -7.440778e-06 0.0004038536 -0.00031756068 0.0006094262
000080 20 a1 95 39 c1 3b 9f ba 63 75 70 ba a1 a3 80 b9
       0.00028539542 -0.0012148545 -0.00091727654 -0.00024535976
000090 2c 2a d4 39 fe 80 40 38 db bb 28 38 5b 34 03 ba
       0.00040467212 4.58965e-05 4.0229275e-05 -0.0005005055
0000a0 f3 10 e4 b9 f4 f1 d4 b8 8e 96 42 ba 38 4a 8b b8
       -0.00043500177 -0.00010154015 -0.0007422947 -6.641861e-05
0000b0 6b 6a c1 38 4b fa ad b9 fc b4 39 39 0e d2 4a b9
       9.222779e-05 -0.00033183614 0.00017710397 -0.00019342473
0000c0 a6 4c 51 39 e4 02 ae b8 95 b0 8b 39 0b 48 3c 3a
       0.00019960347 -8.297505e-05 0.0002664371 0.0007182366
0000d0 d2 5a 15 ba c4 af 3d 38 30 cb 70 b9 d1 1a e5 b9
       -0.0005697432 4.5224806e-05 -0.00022963877 -0.00043698263
0000e0 2a f2 04 b9 e5 3b ef 38 33 84 76 3a 29 00 30 b9
       -0.00012678714 0.00011407564 0.00094038545 -0.00016784728
0000f0 92 82 30 39 e1 e3 6b b9 3d 99 95 38 53 7e 9f ba
       0.00016833309 -0.00022496238 7.1334165e-05 -0.0012168385
000100 49 2d be 39 b6 9d 7d ba 4d 41 3c ba 82 16 db b8
       0.00036273364 -0.0009674685 -0.00071813614 -0.00010446926
000110 5b 84 07 3a 34 a0 3b 39 11 0e 13 b9 58 c9 ce b9
       0.0005169564 0.0001789339 -0.00014024253 -0.00039441395
000120 06 d9 af b9 4e aa 3c 38 73 66 04 ba 5e d9 58 b8
       -0.00033540296 4.49813e-05 -0.00050506665 -5.1700852e-05
000130 4c 34 7b b8 57 d6 fd b9 d8 4b 8a 38 55 ec a0 b9
       -5.989177e-05 -0.00048415616 6.59448e-05 -0.0003069366
000140 76 08 f2 39 c3 37 3a b9 61 b3 6c 39 5d 1c f8 39
       0.0004616414 -0.00017759115 0.00022573538 0.00047323378
000150 b4 58 3a ba 46 c2 b7 b8 df 6a 93 b9 97 4a 04 ba
       -0.0007108555 -8.762306e-05 -0.0002811765 -0.0005046515
000160 94 6c 68 b9 63 a6 32 39 a1 cb 3a 3a 4d 63 98 b9
       -0.00022165693 0.00017037387 0.000712568 -0.00029065684
000170 f9 b7 86 39 43 e5 f6 b9 a8 06 53 39 ae 81 7b ba
       0.00025695542 -0.0004709159 0.00020125008 -0.0009594214
000180 34 01 d3 b9 f9 be 64 3a ce e6 ea 39 9c a5 4f 38
       -0.00040245953 0.0008725967 0.0004480392 4.950688e-05
000190 2b 1a f8 b9 9e d8 ce b9 5b 84 2d 3a 18 9b 9d 39
       -0.00047321743 -0.00039452774 0.0006619149 0.00030060927
0001a0 94 d5 b7 b8 7c 8b 2e 39 3c 48 f9 39 30 ed 62 38
       -8.765902e-05 0.00016645895 0.000475468 5.4103497e-05
0001b0 7a 15 e8 b9 55 59 01 3a a7 98 99 39 03 8f e6 39
       -0.0004426649 0.0004934271 0.0002929617 0.0004397557
0001c0 a7 bc bd b9 3f 3d 50 39 ab a2 ce b9 99 38 51 b9
       -0.00036189446 0.00019859242 -0.0003941258 -0.00019952877
0001d0 d2 14 3f 3a 7b 81 00 b9 91 ce 03 b8 d0 82 a2 39
       0.0007289174 -0.00012255266 -3.1425214e-05 0.0003099651
0001e0 37 84 4a b9 e6 21 f9 b8 3a 8e f1 b9 7c 79 b0 39
       -0.00019313475 -0.00011879559 -0.0004607307 0.0003365985
0001f0 f6 78 45 b7 8d 00 f8 39 1b 22 d6 b9 89 21 48 3a
       -1.1770278e-05 0.00047302656 -0.0004084267 0.00076343917
000200 f4 f5 0a 38 ae 4e 04 3a fa a4 b0 39 39 b6 37 39
       3.3130826e-05 0.00050471246 0.00033692253 0.00017520123
000210 5b ba 11 39 36 fb 3b 39 72 07 6a b9 bd 05 42 39
       0.000138977 0.00017927293 -0.00022318753 0.0001850342
000220 b1 71 53 38 89 3a a0 39 e7 c7 d5 39 60 c6 83 b8
       5.0412204e-05 0.0003056119 0.00040775465 -6.283517e-05
000230 8c d5 df b8 61 87 40 b9 61 67 2f b9 a7 ba b6 b7
       -0.00010673245 -0.0001836098 -0.00016727812 -2.1783007e-05
000240 d6 90 24 3a 4b 49 64 b9 ba f9 ad 38 76 cd a0 b8
       0.0006277686 -0.00021771078 8.295798e-05 -7.6676646e-05
000250 73 76 d1 b8 8a 7a 5b b9 c1 d4 30 b9 47 70 ec b8
       -9.9879595e-05 -0.00020931117 -0.00016863925 -0.0001127427
000260 9e e5 42 b9 73 01 9f b8 ab ac cf 37 c1 9b 1f b9
       -0.00018586821 -7.581981e-05 2.4756728e-05 -0.00015221444
000270 cf 2c df b7 d1 38 a1 b9 92 82 1c 39 20 23 07 3a
       -2.6604537e-05 -0.00030750645 0.0001492596 0.00051550753
000280 01 32 cf b8 ed f9 b8 39 f1 c4 77 39 dc f6 97 38
       -9.879843e-05 0.00035281424 0.00023629122 7.246222e-05
000290 5a 41 0f b9 4f 02 ac b8 e0 78 90 38 09 b4 1b 39
       -0.00013661888 -8.202029e-05 6.88897e-05 0.0001484902
0002a0 90 f7 86 38 58 34 d1 38 c1 ba 66 39 3a 15 b6 37
       6.43573e-05 9.9756464e-05 0.0002200408 2.1705975e-05
0002b0 64 88 42 b8 dd 97 f3 38 22 58 02 b8 8b 6b c3 38
       -4.6380228e-05 0.0001161543 -3.1076495e-05 9.318356e-05
0002c0 2c e9 97 b7 3c 1d 10 38 7e 5d 44 b8 f8 41 1e b9
       -1.8109182e-05 3.4359502e-05 -4.6817113e-05 -0.0001509263
0002d0 da f7 3e 39 5c e7 5d b8 4e 20 2f 38 17 f4 f7 38
       0.00018212144 -5.2905976e-05 4.1753337e-05 0.00011823343
0002e0 ba c8 f8 b7 f3 c2 8a b8 b7 48 67 b9 2d 87 a5 38
       -2.9657374e-05 -6.616665e-05 -0.00022056965 7.8929916e-05
0002f0 9b 63 78 b8 92 b6 b1 38 99 62 02 b9 d0 98 b2 39
       -5.9220572e-05 8.474024e-05 -0.00012434497 0.0003406466
000300 22 41 21 3a aa dc c1 ba 8a 97 85 ba 1f 18 8c 38
       0.0006151368 -0.0014790494 -0.0010192257 6.680213e-05
000310 18 12 20 3a 46 27 49 b9 63 25 46 ba 46 e2 86 b9
       0.0006106212 -0.00019183484 -0.00075586716 -0.00025727059
000320 d0 a5 e6 b9 61 d7 32 b9 eb 0c 63 ba fa 85 ab 39
       -0.00043992558 -0.00017055638 -0.0008661288 0.00032715482
000330 0c c4 17 ba 52 41 6e ba 86 85 9a b8 8f dd 71 ba
       -0.0005789406 -0.0009088713 -7.368163e-05 -0.0009226435
000340 f6 ab 01 ba 88 12 65 39 87 23 44 b9 cd 4d c7 b8
       -0.00049465836 0.00021846045 -0.00018705252 -9.503551e-05
000350 d8 70 60 ba 33 c4 43 b9 25 0f 94 38 44 c7 8f b9
       -0.0008561737 -0.00018669739 7.060011e-05 -0.0002742355
000360 c3 bb ef b9 cb 31 b8 39 36 b8 84 38 71 3b 0c 39
       -0.00045725526 0.00035132313 6.3285624e-05 0.00013373584
000370 5f 22 0d 39 c9 ee f6 b8 e9 af 55 b9 26 fe bc ba
       0.00013459612 -0.00011774671 -0.00020378795 -0.0014419004
000380 86 5e e3 39 c4 89 f7 ba 9c fe b9 ba f9 87 dd b9
       0.0004336724 -0.0018885662 -0.0014190259 -0.00042253712
000390 af 91 1a 3a 39 84 bd 38 f3 d5 e1 37 f5 45 5a ba
       0.00058963423 9.036851e-05 2.6921718e-05 -0.00083264644
0003a0 25 9f 22 ba cb 30 50 b9 dd 42 98 ba c5 58 2c b9
       -0.0006203524 -0.00019854603 -0.0011616606 -0.00016436267
0003b0 4c a4 5c 39 04 54 01 ba 81 af 7f 39 e5 3b 98 b9
       0.0002104204 -0.0004933479 0.00024384075 -0.00029036324
0003c0 7f 7b 6b 39 b3 c7 50 b9 9a 62 d8 39 e1 b9 89 3a
       0.00022457352 -0.0001991082 0.00041272194 0.0010507667
0003d0 8f 70 6c ba b0 90 fe 38 a1 8e d2 b9 75 ef 3e ba
       -0.0009019458 0.00012138614 -0.00040160588 -0.00072836067
0003e0 e3 a1 df b8 27 30 35 39 40 66 b0 3a 78 18 b5 b9
       -0.000106636224 0.00017279443 0.0013458207 -0.0003454124
0003f0 b1 f6 80 39 56 70 d3 b9 dd e0 08 39 4d 70 f7 ba
       0.00024597862 -0.00040328753 0.00013053739 -0.0018878073

exp_avg_sq f4 [32, 32]
000000 df 06 68 36 f3 cb 40 37 d6 e6 fc 36 76 a6 83 36
       3.4574693e-06 1.1491577e-05 7.537058e-06 3.923483e-06
000010 88 77 8b 36 0a 40 a0 37 89 69 3e 37 99 18 1f 37
       4.156438e-06 1.9103307e-05 1.1349454e-05 9.482866e-06
000020 8f d1 9d 35 8e dd ff 36 3c 7a f7 36 2c 18 1b 37
       1.1758401e-06 7.6253846e-06 7.3754036e-06 9.244348e-06
000030 07 87 a7 36 ec e3 92 36 3d 02 a9 36 74 40 a3 36
       4.992707e-06 4.3776727e-06 5.036853e-06 4.865282e-06
000040 1b 49 02 37 3b f6 84 37 bd de be 36 cd 06 84 36
       7.765625e-06 1.5850286e-05 5.6883714e-06 3.9346983e-06
000050 f5 21 df 36 8a d9 6b 36 1c 0f 3f 37 d9 bb 0b 37
       6.649871e-06 3.5144353e-06 1.1388005e-05 8.328782e-06
000060 6f 14 98 36 f9 a2 74 37 17 1f 8b 36 0d 6e 09 37
       4.532332e-06 1.4581478e-05 4.146142e-06 8.1914595e-06
000070 3f 11 58 37 3c cc f3 36 f8 08 fd 37 3e d0 7c 37
       1.2878619e-05 7.2657404e-06 3.0164127e-05 1.5068856e-05
000080 97 e9 0a 37 3d 5b e7 37 9c c9 56 37 35 63 ed 36
       8.279828e-06 2.7579832e-05 1.2802335e-05 7.0746996e-06
000090 b3 b9 0c 37 7e f9 ae 37 31 ac 46 38 8a ed 70 37
       8.387887e-06 2.0858595e-05 4.7367244e-05 1.4360421e-05
0000a0 a7 39 4f 36 44 1c 3e 37 38 8c 86 37 25 92 23 37
       3.0878962e-06 1.1331464e-05 1.603934e-05 9.749584e-06
0000b0 db c0 29 37 0a 60 7c 37 5f f6 93 37 d7 34 bb 37
       1.0118088e-05 1.5042731e-05 1.7638491e-05 2.2316743e-05
0000c0 db 4c d4 37 a0 43 9c 37 7e 63 21 37 40 bf e9 37
       2.5308158e-05 1.862814e-05 9.619513e-06 2.7864822e-05
0000d0 9f dd 96 37 79 32 ad 36 f0 b0 63 37 db 73 40 37
       1.7984594e-05 5.1616776e-06 1.3571451e-05 1.14710665e-05
0000e0 38 bf 9d 36 52 60 4f 37 55 9f 13 38 fc b3 08 37
       4.7012254e-06 1.2360588e-05 3.519592e-05 8.148138e-06
0000f0 07 44 cd 37 e6 bc 1d 37 30 2e 16 38 a5 16 c8 37
       2.4469582e-05 9.401911e-06 3.5805802e-05 2.3852403e-05
000100 59 e4 00 37 d4 28 ba 37 89 34 1d 37 48 29 91 36
       7.682561e-06 2.219194e-05 9.370161e-06 4.3261425e-06
000110 d9 f8 ec 36 a5 be 9d 37 93 fb 18 38 2a 55 16 37
       7.0623178e-06 1.8804634e-05 3.647392e-05 8.9605255e-06
000120 be 88 17 36 f2 9f 2b 37 ba d0 6b 37 c0 62 ea 36
       2.2580348e-06 1.0229634e-05 1.40556895e-05 6.9852395e-06
000130 16 5f dc 36 a1 ec 3b 37 2e b7 6b 37 5e d3 8b 37
       6.5675804e-06 1.1201163e-05 1.4049741e-05 1.6668517e-05
000140 99 06 a8 37 4d f6 6a 37 d1 61 ed 36 67 67 89 37
       2.0030233e-05 1.4004833e-05 7.0745377e-06 1.6379823e-05
000150 bf 92 4d 37 7b 0d b2 36 a7 00 0d 37 99 34 f2 36
       1.2253119e-05 5.3063827e-06 8.404407e-06 7.218285e-06
000160 27 d9 9b 36 52 7a 57 37 38 82 a6 37 2e 64 ad 36
       4.64464e-06 1.28434785e-05 1.984938e-05 5.167464e-06
000170 32 6b bb 37 c0 cc d3 36 d9 49 09 38 01 c3 98 37
       2.2342054e-05 6.312126e-06 3.273212e-05 1.8210618e-05
000180 82 ac 8f 36 d2 95 71 37 e5 dd 1b 37 d8 40 aa 36
       4.2818147e-06 1.4399602e-05 9.290384e-06 5.0739436e-06
000190 06 b2 a5 36 57 82 92 37 a6 a9 6b 37 e9 64 42 37
       4.938108e-06 1.746525e-05 1.4046591e-05 1.1586796e-05
0001a0 64 bc d2 35 0b ef 1b 37 ae 78 1f 37 5b 9e 2e 37
       1.5701048e-06 9.2943765e-06 9.505236e-06 1.0408078e-05
0001b0 7f 55 da 36 a7 ab b3 36 68 eb e3 36 e5 79 c1 36
       6.5068593e-06 5.3545987e-06 6.792532e-06 5.7660386e-06
0001c0 57 d8 29 37 08 e1 a3 37 d2 c3 f8 36 3d 9a a6 36
       1.01235555e-05 1.9535903e-05 7.4137724e-06 4.965141e-06
0001d0 f9 d8 05 37 9b b2 99 36 59 b9 7d 37 43 2d 33 37
       7.977936e-06 4.5805477e-06 1.512313e-05 1.067977e-05
0001e0 9e 4e a3 36 a3 a3 67 37 62 b5 b8 36 72 bf 16 37
       4.866931e-06 1.3806773e-05 5.504743e-06 8.985271e-06
0001f0 33 9c 73 37 0b 82 1f 37 63 50 fb 37 76 6f 8c 37
       1.4520297e-05 9.5074165e-06 2.9958965e-05 1.6741204e-05
000200 b7 1d 89 35 cf 72 ae 36 ab 46 a4 36 c9 48 a4 36
       1.0215944e-06 5.1989696e-06 4.8958077e-06 4.896054e-06
000210 45 d0 1f 36 89 df 0f 37 e6 fa d4 36 48 0c 37 37
       2.3814075e-06 8.57551e-06 6.3473008e-06 1.0910509e-05
000220 fc fc d6 35 de ee 3b 36 2c f2 2a 36 4a c5 5f 37
       1.6017871e-06 2.800421e-06 2.5472937e-06 1.3337771e-05
000230 ec fc 4c 37 ef 9b c4 35 b0 0a 0c 36 c3 09 ba 36
       1.22182355e-05 1.4648521e-06 2.0867847e-06 5.5443684e-06
000240 43 31 b4 37 c8 70 a1 37 df 02 2f 37 af 8e fe 37
       2.1480611e-05 1.9245213e-05 1.0431481e-05 3.0345602e-05
000250 db e6 9e 36 cf 6d a3 35 55 e9 93 37 cc 01 8b 37
       4.735642e-06 1.2176405e-06 1.763242e-05 1.6570928e-05
000260 41 53 f7 35 c9 27 af 36 a2 6f 34 38 ea ef 86 37
       1.8427164e-06 5.220038e-06 4.301931e-05 1.6085763e-05
000270 cd d6 21 36 76 2d 48 37 e0 69 43 37 d0 39 d6 36
       2.41159e-06 1.1931514e-05 1.1647557e-05 6.3844273e-06
000280 25 fd c7 35 c3 76 c8 36 6f ea 8d 36 38 21 05 36
       1.490033e-06 5.97429e-06 4.229419e-06 1.983788e-06
000290 08 50 e7 35 ff 1e 3c 37 fd b8 e2 36 49 70 b5 36
       1.7234133e-06 1.121289e-05 6.7568603e-06 5.407292e-06
0002a0 8c d6 42 35 d3 44 a7 36 86 18 62 36 39 c3 a8 36
       7.258284e-07 4.985e-06 3.3690899e-06 5.029517e-06
0002b0 96 e0 3f 36 f6 33 13 36 ee 97 44 36 eb 01 36 36
       2.8591944e-06 2.1934952e-06 2.929471e-06 2.712123e-06
0002c0 88 90 3e 36 24 94 14 37 83 28 64 36 23 cf 19 36
       2.8396335e-06 8.855979e-06 3.3998228e-06 2.2919346e-06
0002d0 f3 7b 58 36 2b d3 a4 35 68 1a a4 36 8f 1e 96 36
       3.2258656e-06 1.228041e-06 4.890655e-06 4.473906e-06
0002e0 7f 8d 0d 36 27 fc 15 37 c9 d3 08 36 50 86 9e 36
       2.1092999e-06 8.939801e-06 2.0388854e-06 4.724403e-06
0002f0 b4 f0 00 37 1f 0f 62 36 46 22 92 37 5c ad 32 37
       7.685438e-06 3.3685426e-06 1.7420516e-05 1.064999e-05
000300 28 52 a0 37 1c 99 81 38 e3 40 13 38 fb 89 8d 37
       1.9111743e-05 6.179718e-05 3.510796e-05 1.6872762e-05
000310 95 de a8 37 4a 35 51 38 26 93 d1 38 66 25 2c 38
       2.0130808e-05 4.9879112e-05 9.993305e-05 4.1042826e-05
000320 81 79 0a 37 7d b7 09 38 fd 30 18 38 13 67 e5 37
       8.253731e-06 3.2834232e-05 3.6285248e-05 2.7346925e-05
000330 e5 8b bd 37 79 9d 0c 38 c1 24 26 38 03 96 3a 38
       2.25957e-05 3.352526e-05 3.9611714e-05 4.4485565e-05
000340 6c f0 1f 38 f5 4f 69 38 76 29 cc 37 c9 9a 14 38
       3.8132464e-05 5.5625995e-05 2.4338002e-05 3.5430105e-05
000350 14 92 2e 38 e3 ef 42 37 1e 75 1d 38 cf f8 09 38
       4.162088e-05 1.1619154e-05 3.754079e-05 3.2895066e-05
000360 1c cd 3e 37 90 6c 0d 38 99 d9 1f 38 c4 17 c9 37
       1.1372638e-05 3.3718126e-05 3.8111208e-05 2.3972134e-05
000370 ec ec 81 38 e3 32 e5 37 68 08 b2 38 36 f9 8e 38
       6.1953295e-05 2.7322623e-05 8.489267e-05 6.817507e-05
000380 3b 6e a3 37 bd 10 78 38 36 4e d9 37 8b 89 69 37
       1.9482444e-05 5.9143396e-05 2.5904836e-05 1.3919906e-05
000390 90 0e 9c 37 e3 f1 83 38 8b ff da 38 16 bb ec 37
       1.860343e-05 6.291622e-05 0.000104426486 2.8220511e-05
0003a0 50 35 e5 36 6a 4b da 37 21 01 14 38 2c 16 d5 37
       6.830938e-06 2.6022743e-05 3.5287e-05 2.5401903e-05
0003b0 12 9a c8 37 50 ef 02 38 51 7e 26 38 7b 96 4c 38
       2.3913602e-05 3.1217292e-05 3.9695125e-05 4.8777536e-05
0003c0 c0 0e 6f 38 e9 78 3a 38 79 9e c5 37 64 c1 82 38
       5.6995777e-05 4.4458462e-05 2.3558025e-05 6.234905e-05
0003d0 c6 f0 14 38 45 10 57 37 31 c2 d6 37 78 48 c5 37
       3.5510187e-05 1.2818787e-05 2.5601215e-05 2.3517976e-05
0003e0 1d 2f 6a 37 38 75 34 38 f3 33 a4 38 7f 86 b0 37
       1.3958456e-05 4.3024513e-05 7.829806e-05 2.1043465e-05
0003f0 c3 01 87 38 c8 ad a1 37 96 be d8 38 ac 59 57 38
       6.43763e-05 1.9273619e-05 0.00010335182 5.1343508e-05

exp_avg f4 [32]
000000 67 bc 0d 3a c7 f8 74 3a ed 0d 47 b9 1b 57 1e 3a
       0.0005406797 0.0009344932 -0.00018983307 0.00060402014
000010 12 12 ac ba 3e a6 21 b9 28 27 a9 39 08 a0 bb 3a
       -0.0013127944 -0.00015416087 0.00032263366 0.0014314661
000020 ea c2 06 ba f4 4c c1 b9 75 fa e8 3a 53 27 c0 ba
       -0.0005140739 -0.00036869163 0.0017774837 -0.0014660157
000030 d1 f8 1a 3a 7a 0d c2 3a 49 66 ab ba 59 17 3e 3a
       0.00059117103 0.0014805042 -0.0013076748 0.0007251404
000040 67 e5 63 ba 03 3e b9 b9 45 0e ce 37 cb 83 bb 3a
       -0.00086935464 -0.00035332152 2.4563758e-05 0.0014306245
000050 09 5a 84 38 d5 4f 3e 39 98 0f f6 b9 90 ac 71 ba
       6.311021e-05 0.00018149552 -0.00046932395 -0.0009219134
000060 fa 3c 6e ba 1a f0 27 ba a6 b3 a3 b9 2d 63 90 3a
       -0.00090880657 -0.00064063224 -0.0003122363 0.0011015885
000070 a8 4f 25 b9 eb 9d 29 38 89 0b c5 3a 0e 4c 05 3b
       -0.000157653 4.0439812e-05 0.0015033345 0.0020339522

exp_avg_sq f4 [32]
000000 b9 17 59 39 85 4e 52 39 a1 5b 42 39 40 31 44 39
       0.0002070357 0.00020056411 0.00018535416 0.00018710364
000010 ec ca 54 38 13 b5 29 39 a9 34 1f 3a 37 5a 25 3a
       5.0733724e-05 0.00016184551 0.00060732156 0.00063076935
000020 e5 b7 29 39 b9 91 74 39 31 2a a7 39 d1 3c a2 37
       0.00016185602 0.00023323939 0.00031884157 1.9340225e-05
000030 d5 73 27 39 4c 53 c9 38 03 86 36 39 1a 6d d5 37
       0.00015969512 9.599942e-05 0.00017406796 2.5442383e-05
000040 05 84 79 38 b8 29 71 37 b8 33 d3 35 8d 73 0c 3a
       5.948918e-05 1.4374433e-05 1.5735777e-06 0.00053577946
000050 3b 3d 2a 39 6e 01 cc 37 6d aa 82 38 7e 35 ae 38
       0.00016235274 2.431936e-05 6.230627e-05 8.30693e-05
000060 bc 8f db 39 47 c4 a0 36 88 2e 72 39 51 1c ff 37
       0.00041878026 4.7912213e-06 0.00023096253 3.0411555e-05
000070 5b 2b 17 39 ad a0 d3 35 07 57 88 37 25 29 ba 39
       0.00014416633 1.5767488e-06 1.6252989e-05 0.0003550734

exp_avg f4 [1, 32]
000000 71 f1 c7 ba 8c ea b3 ba b0 61 9e 3a 98 fd 12 bb
       -0.001525445 -0.0013726517 0.0012083557 -0.0022428986
000010 e0 ab 01 3a 99 e1 75 ba d7 1c 1c 3b 4f 7b c0 3a
       0.0004946571 -0.0009379625 0.00238209 0.0014685186
000020 c4 be 03 ba 0f c4 61 3a 6c 0d 68 3b 6f 0d 1d 3b
       -0.000502568 0.0008612284 0.003540839 0.0023964306
000030 8b 21 fe 3a 45 69 5f 3b be f6 66 ba db 52 62 b9
       0.0019388659 0.0034089845 -0.0008810571 -0.00021583906
000040 73 6a 2c 3a 0c f1 aa 39 b2 28 f3 3a af 86 e2 ba
       0.00065771415 0.0003260452 0.0018551557 -0.001728257
000050 cc ac 22 ba 3f 5e e2 b9 d3 8c 7b 3b aa 4f 1d ba
       -0.00062055583 -0.00043176298 0.0038383498 -0.00060009456
000060 d6 e0 81 3a ea 41 32 3a f8 5e b8 ba ca 29 92 3a
       0.0009908925 0.0006799983 -0.0014066389 0.001115137
000070 4a 5a 02 ba e6 83 9d 3a 40 49 59 3a 91 0e fc b9
       -0.00049725606 0.0012017458 0.0008288808 -0.00048076038

exp_avg_sq f4 [1, 32]
000000 3c fd 6b 3a ae 22 c7 3a 41 fc 98 3a d1 41 62 3a
       0.00090022734 0.001519283 0.0011671857 0.0008631023
000010 c3 f1 50 3a f7 d5 e1 39 39 08 ae 3a db 7b a8 3a
       0.00079705956 0.0004307476 0.0013277597 0.0012854295
000020 ed 00 d0 39 24 e0 a8 3a 77 86 a2 3a 8e 72 8d 3a
       0.0003967354 0.0012884182 0.0012399693 0.0010791586
000030 07 12 81 3a 3b 6f f2 3a 67 de 0e 3a 17 3f d9 39
       0.0009847292 0.0018496284 0.00054500106 0.0004143647
000040 ab 6a ee 39 4b cf fc 39 47 78 cb 39 52 e9 bd 3a
       0.0004547437 0.0004821963 0.0003880879 0.001448909
000050 cb a2 a8 3a 16 39 cb 39 09 1d e8 39 9a 43 9f 3a
       0.0012865899 0.0003876171 0.0004427212 0.0012150884
000060 29 1d c4 3a b5 25 07 3a 14 99 86 3a 02 03 87 3a
       0.0014962304 0.000515546 0.001026901 0.0010300579
000070 49 66 fb 3a b3 c7 9d 38 b0 1a 35 3a 2b 30 04 3a
       0.0019180264 7.52354e-05 0.0006908579 0.0005042578

exp_avg f4 [1, 32]
000000 a4 6a ba 3a 02 c5 66 bb d0 53 72 bb 27 6c af 3a
       0.0014222455 -0.003521264 -0.0036976226 0.0013383672
000010 db 03 57 bb 1f 34 82 3a ea 4a 90 bb 91 6b 7c bb
       -0.0032808695 0.0009933746 -0.0044034617 -0.0038516263
000020 bf 10 16 bb d1 e5 35 3b 1a 60 55 bb d8 ae 52 bb
       -0.0022898165 0.002775539 -0.0032558502 -0.0032147672
000030 89 10 6c bb ce 9a 1e bb 46 5e 3f bb 66 5c f1 3a
       -0.0036020598 -0.0024201158 -0.0029200478 0.0018414378
000040 1f 16 03 3b 77 85 18 bb d8 1a ba ba 99 31 b3 ba
       0.00200022 -0.002327291 -0.0014198674 -0.0013671397
000050 f9 35 11 3b 23 ab 2b bb e4 0c 1a bb 37 12 cb 39
       0.0022157414 -0.0026194535 -0.0023506219 0.00038732748
000060 54 40 79 bb 2b 00 ad ba 20 f5 db 39 e2 ac e2 b8
       -0.0038032727 -0.0013198903 0.00041953567 -0.00010808722
000070 10 89 61 3b cd fe 5a 39 0b b0 73 3b f0 89 0e 3b
       0.003441397 0.00020885021 0.0037183787 0.0021749698

exp_avg_sq f4 [1, 32]
000000 f8 58 1f 3a 83 e4 84 39 47 86 e7 38 42 b4 08 3a
       0.0006078626 0.00025347256 0.000110399495 0.0005214849
000010 0d f5 3e 39 ba 8a 18 39 27 9f 82 39 04 68 6e 39
       0.000182111 0.0001454753 0.0002491411 0.00022736198
000020 46 d6 a2 38 28 52 3a 3a f4 2b b3 39 cf 6f c9 39
       7.7646735e-05 0.0007107579 0.00034174288 0.0003842101
000030 6d 06 90 38 c3 98 29 39 7a 23 98 39 47 6c 64 39
       6.867652e-05 0.00016174004 0.0002901813 0.00021784111
000040 ce b3 7b 39 85 37 ab 39 64 27 4f 38 99 73 85 39
       0.00024004208 0.00032657027 4.938933e-05 0.00025453864
000050 f8 7c af 39 3b 31 1a 39 89 b1 de 38 ae 7d 5d 39
       0.0003347171 0.00014704924 0.000106188534 0.00021123022
000060 32 17 83 38 49 88 32 39 4f 66 f3 39 e9 0b c9 38
       6.250887e-05 0.00017026173 0.00046424798 9.586645e-05
000070 1a b6 0a 3a 02 61 19 38 76 31 2a 3a c5 27 47 39
       0.00052914175 3.6568388e-05 0.00064923556 0.00018992934
