runs/Ant_31-18-18-18/nn/Ant.pth (torch, 702911 bytes, 36 tensors)

value_mean_std.running_mean f8 [1]
00000000: 322c 1def 8a76 0840
3.0578821831491263

value_mean_std.running_var f8 [1]
00000000: 229a deea 390b 0d40
3.6304815625365032

value_mean_std.count f8 []
00000000: 0000 0010 0000 7941
26214401.0

running_mean_std.running_mean f8 [60]
00000000: 5020 0cc2 86b6 e33f 772f 29ea 1aeb 0540
00000010: d0a4 173c 471f dabf 45b8 380c 10f2 d8bf
00000020: 96ed f05b c6af 9b3f 7fd9 640f 3649 593f
00000030: 602c 6458 bd42 a7bf 2f38 5018 5491 0540
00000040: 3747 8358 7059 0f40 0f41 9629 9d92 05c0
00000050: 98cd 5c5d 7f57 ec3f 0201 3d32 57e0 e83f
00000060: cf50 25df f827 e0bf 203a 8892 92b1 e0bf
00000070: 2395 dd84 e3ee d1bf 9d33 5db1 bf04 e73f
00000080: 92e8 a34e f27f 8abf fa92 1928 0591 e43f
00000090: 5522 0a2b 15a4 adbf 3a41 ce0a ed2c e4bf
000000a0: 96c4 716c 1ec9 953f 9513 46b4 4039 af3f
000000b0: a960 a67d 046b a33f 9ed3 52aa 4a8a b1bf
000000c0: 49f6 a39c e753 653f d4ee 8469 25dc a8bf
000000d0: 4177 edd0 7a22 803f 13ab 2f57 c286 b03f
000000e0: 00ab e96b f2c1 d4bf 30a8 829d ece5 9c3f
000000f0: 0d3f 76bd 3e4a c5bf 3d71 e68a f747 a8bf
00000100: 8222 7a05 7561 5fbf f0b4 fba2 1a56 a03f
00000110: 48d6 e098 58d5 a7bf 69b1 9262 65ab 723f
00000120: b039 d3f1 fa38 d7bf d802 2fc7 6d60 b1bf
00000130: ffcc 79d7 d790 4bbf 39b1 5c8b d502 883f
00000140: 3804 6eb3 0cad adbf 3d74 3131 5d3e 7e3f
00000150: fd2d ea15 cc9e c7bf 3435 7b72 bead a13f
00000160: f351 91fd b7bc 373f 6cae 89b8 6f4a 31bf
00000170: 7e3c 11bd 8805 b3bf 6436 a48b 357c 9dbf
00000180: 0207 5e86 aae6 d0bf 37cf 281e 1e23 b03f
00000190: 69b9 f722 37f6 293f b73d 7cca efba 603f
000001a0: ae1e 5105 e0b7 d1bf 04fa 21ae 7449 c5bf
000001b0: 2d4a 6e14 d66b bfbf 8e3f e055 9ee8 d03f
000001c0: 5b68 5077 ae4f 9abf f53e 1ad3 de34 be3f
000001d0: 5dae 45db 8ffe 9cbf 391a 0882 8bcf cdbf
0.616031054495588 2.739797429448966 -0.4081590735282363 -0.38977433389198196 0.0270377153030786 0.0015433338099462843 -0.045431057968095656 2.6959611796837843
3.9186713137686655 -2.696588826082127 0.8856808494078221 0.7773853284088832 -0.5048794134441098 -0.5216763364749717 -0.2802056119456486 0.7193296875135392
-0.012939351105604655 0.6427026541901733 -0.05789247656236244 -0.6304841242836468 0.021275019997521648 0.06098367882353909 0.03792585405170829 -0.06851641329087818
0.0026034854573698013 -0.04855458176686303 0.007878264904941925 0.06455626133508145 -0.3243375829539872 0.028220841516180595 -0.1663282799822742 -0.047424064355455965
-0.0019153254305896155 0.03190692176381471 -0.04654957643689933 0.004557987246851838 -0.3628527986119492 -0.06787763703233496 -0.0008412412561952519 0.011724155726903095
-0.05796088877014721 0.007383693725469928 -0.18453360624367568 0.03452868602253503 0.0003622006602815024 -0.000263836169813492 -0.07430319419766993 -0.028794132850683232
-0.26407874223524186 0.06303585277856603 0.00019807265333278014 0.002042263356891029 -0.2768478443071939 -0.16630419256758 -0.12273920058059025 0.2641979063637273
-0.025694585831026334 0.11799423841352648 -0.02831482673484086 -0.23289626931382815

running_mean_std.running_var f8 [60]
00000000: b6f6 853f 1409 8f3f 44d4 4f5d 8fb2 1140
00000010: 0f9c 8075 d6f2 f53f 5e36 b387 9675 e73f
00000020: c20f a252 76b3 1040 12f8 fc67 4422 1340
00000030: 3400 4f1f 224d 2140 426c 2542 0c5b 1d40
00000040: 74da a927 4c4e 2040 1c75 13eb 0b5b 1d40
00000050: b5cc a513 1e14 bc3f 476f c22b 36ad c53f
00000060: 6605 2322 9f1a db3f 2638 8fcd 1541 d23f
00000070: 8555 2da3 dec6 dc3f 0a75 6d23 db58 d43f
00000080: bdc7 1570 e4cb de3f 1e2e 9f5c ccc0 d23f
00000090: 1ac0 c025 d93d e03f 7d36 63db a4f3 d03f
000000a0: 872d 498b 284a 0640 af92 1082 48da 0740
000000b0: 0dc4 08d6 e7f3 0f40 bd51 16f9 a2b8 f23f
000000c0: 45cc c44a 89c0 1440 bd34 7fb1 e09b fb3f
000000d0: e398 91ed 01ee fc3f 2e03 a52e ce6c 0240
000000e0: c90d 986e a46a f43f f561 be1f 7425 c93f
000000f0: cdcd ff10 4548 ee3f f7f7 0e19 8bc3 963f
00000100: 7367 30b3 fa46 103f 7dd6 9daf 5ffb 773f
00000110: b0e6 2401 0c6d fb3f c0a8 87dc db0e c33f
00000120: 58f1 573c 59b5 ed3f 466b 89dd c181 943f
00000130: b151 0a2d 9e5b 103f 4f6a 8e3d 2e0c 823f
00000140: db5c 25fd 0003 0140 8a85 34bc a9a8 c43f
00000150: d735 2cb7 714f ee3f 5118 6cdd 6b73 943f
00000160: 4296 455f 9c05 153f c9f4 bf30 b98b 853f
00000170: 43a8 746b 7ef9 e83f 0ade 0550 36c0 c53f
00000180: 5c9c 2654 18af f03f 5941 4b4f fe71 963f
00000190: 967e 1d42 b4d3 053f b7ae 5d73 0525 6c3f
000001a0: 0d2a 8081 6d54 db3f 3cac c2fd 8903 d93f
000001b0: b6e3 f411 47d0 de3f a625 7234 91e8 d53f
000001c0: 0272 3c65 21a8 e03f 6d5e 9aba 0c12 d73f
000001d0: 28d3 ec92 ab71 db3f ad9d c67f eca3 d83f
0.01515403574807848 4.424375017163644 1.371786555284192 0.7331040048972672 4.175256053105786 4.783464073958401 8.65065095748296 7.338913949522125
8.152924766048478 7.338912652075376 0.10968196849516938 0.1693484986943707 0.42349985440895066 0.2852224833885678 0.44963804183256456 0.31792334041331627
0.4811946005421495 0.2930174736509076 0.5075498330461443 0.2648708479363007 2.786210144205771 2.9815836106593774 3.9940945359635465 1.1700772981613305
5.188023727666466 1.7255560811493489 1.8081073074368355 2.3031276363475603 1.2760357208324982 0.1964554934500168 0.9463219959274568 0.02223031368679781
6.209283019167708e-05 0.00585496308655353 1.7141227764790692 0.14889095562040744 0.9283872774681567 0.02002623476651457 6.240036897004507e-05 0.008812295201825608
2.126466729834289 0.1613971871347924 0.9471977784721116 0.019971547498265633 8.019225044150153e-05 0.010520407486178123 0.7804557894462579 0.16992834956521136
1.0427478110448396 0.02191922530147514 4.163164000092511e-05 0.0034356218774770036 0.42702806135699306 0.3908410051469138 0.4814622569425028 0.3423197757880082
0.5205237366931785 0.3604766676230387 0.42881287906793597 0.38500511625394546

running_mean_std.count f8 []
00000000: 0000 0020 0000 6941
13107201.0

a2c_network.sigma f4 [8]
00000000: f9ee 71bf d8e1 98bf ada0 77bf dca8 81bf
00000010: 48f8 70bf 79b4 a3bf 495e 77bf 58e1 87bf
-0.9450527 -1.1943922 -0.96729547 -1.0129657 -0.9412885 -1.2789451 -0.9662824 -1.0615644

a2c_network.actor_mlp.0.weight f4 [256, 60]
00000000: 89cb 3f3d e7f8 25be 1085 1d3c 203f 51bd
00000010: fd46 0d3e dcb5 ab3c 3d9d 853e a1a5 c3bd
00000020: 35f8 cdbd fc7b 6dbd 290a d13d 423a 40bd
00000030: f19b 853e 7814 2bbe 9372 23be c366 03be
00000040: 59ee d0bd ace7 d83b 491d 513d 643f 0c3e
00000050: 897a 653d ff77 17be f194 a93d f7fd b9bd
00000060: 18e6 603d 11a0 c6bc 47b9 ad3d abf5 06bd
00000070: 07d3 7cbd ecdc 6f3d c870 d63c 42af e3bc
00000080: a437 1c3d e80c b03b d25f 9ebd 6dcf 87bc
00000090: 9ce3 963d 9635 61bd 6a68 f2bc 2a5b 1abe
000000a0: 0c1c 8bbd 3c1f 723a a655 ea3c 58a5 b4bd
000000b0: ab50 2a3b d0bb 66bd 2ea0 0fbe 3617 11bd
000000c0: 44d3 bfbd e3f1 77bd d853 063e 9e05 443d
000000d0: a675 3d3d c2e1 f8bd dee7 59bd bac9 87bd
000000e0: 1beb 8dbc d099 e1bd 7414 aebd 1d10 19bc
000000f0: 8eb5 7fba 1ea8 f9bd a43e 1e3d f73a d9bc
00000100: 243a 15be a277 e4bd 42a6 39bd 0880 07bd
00000110: e360 673e 6970 c1bd 4e66 373e 0ce6 f23d
00000120: c5bb a6bc 6e36 9e3d 273e 853d beba 3d3c
00000130: a75d 35be bf4b 51be 2066 a13d 6108 3dba
00000140: f59f c53d 7667 c6bd 1b2e a33c 9f40 bfbd
00000150: 50e2 9abd 3db1 08bc eaca 043e a319 af3d
00000160: ef77 6a3d f8ef a2bd fa59 3e3d 7312 34bd
00000170: d130 25bd e22b f8bd 24c3 743d cc8e 17be
00000180: 32cf 7d3b fadd 22bd 5650 a13c f0b4 acbd
00000190: 7421 413d b40e 133e 2c50 793c ba82 96bd
000001a0: 3768 4e3d 6949 0bbe 038a 9dbd fe3c 233e
000001b0: c805 e0bc b587 cebc 30b7 bcbd d158 513b
000001c0: e470 793c 09ef 043d 41ae 1cbd 8a50 c1bc
000001d0: cce8 03bd 9a39 053e 1960 7d3d 8f15 e9bd
000001e0: bc3c 813d 3340 cc3d fccd 7c3d e9f9 11bc
000001f0: dcbd d03d 009c 1e3d a411 b6bc 02b0 edbc
00000200: 2fdb 10be b82a a53c 1a51 253d dd0c f0bc
00000210: 6bba 2f3e 011f fe3d 1c7e 86bc 490d 043a
00000220: 9f6b 9cba 6d7f 23bd 08c0 3a3d f02d cd3c
00000230: 052c 2ebe ef18 a1bd ad5d d33d 6e37 b33d
00000240: 8a5f 363d dbc2 2ebb 4ccb 77bd e93c acbd
00000250: dca8 96bb a01d a43c faad 22bc 4bc6 a03b
00000260: 83d9 cdbd 2baa 99bd 6ee1 18bd f956 b23d
00000270: edbc 8dbb 0cd8 1fbd c182 8a3d 1017 6c3d
00000280: c4d5 debb fa4a 9f3d cb07 f1bc 325f 7bbb
00000290: cd24 b4bd c784 763d 82d8 263d 9b75 503d
000002a0: 7dcd 59bd 9605 25be 0a91 c1bd 0bba eb3b
000002b0: ef58 433c 9074 853d 8811 983b d372 963d
000002c0: 182f 663d 1010 81ba 73bd 6cbd b988 3abd
000002d0: 5ee8 aa3d 0abe 15bd 8282 f53c 4e69 bcbd
000002e0: 8eb3 b2bb 5880 33be 83ac aebd 8546 553c
000002f0: 6a10 d1bd 7f43 e03d 75bd a6bd aedf 01be
00000300: 4bfb cc3d bb8f 1fbe 04fb 94bd 2104 3abe
00000310: d49c 493e a52f 90bd 502d 0a3e 1a09 bf3d
00000320: b376 293c ea0c 85be 4074 903d 7494 8abd
00000330: 9028 d13d 9d3e 2d3d c238 dabd 079d 8d3d
00000340: eadc 903d 3a7e efbd 23f6 803d 03ad 97bd
00000350: 1639 343e 4a20 eb3c de30 cf3d 390d 54bd
00000360: 6847 b2bd dc17 243d d66f ad3d 6b84 acbd
00000370: 61f5 45bd 21c1 31bd f95b 0bbc 2da4 1dbd
00000380: 3861 81bd 3af3 24be febe 62bd 7ebc ea3d
00000390: 3490 d23d 4382 0abd 74ba 9e3c 9d76 66bd
000003a0: cf95 26be c8b7 80bd 68e1 903d 0ca7 d5bd
000003b0: d87e 59bd a8da 8a3b 9277 b7bd 320a 533b
000003c0: 14d1 00bd 6d73 d23b 18c6 023d 5fec 99bd
000003d0: 9094 29be 86f9 d13d 7138 6ebd 8322 153c
000003e0: bcf1 bcbd 09cd 113d 7ab3 823e 0db9 283e
000003f0: 9e9a e3bd c375 35bc 1038 be3d 7348 943b
0.046824966 -0.1620823 0.009614244 -0.05108559 0.13796611 0.02096074 0.26096526 -0.095530756
-0.10057107 -0.05797957 0.10207016 -0.04693056 0.26095536 -0.16707027 -0.15961675 -0.12832169
-0.10201711 0.0066194143 0.05105332 0.13696057 0.05602506 -0.14791869 0.082803614 -0.09081643
0.054906934 -0.024246247 0.084826045 -0.03294913 -0.06172469 0.058560297 0.026176825 -0.02779353
0.038139 0.0053726323 -0.0773312 -0.0165784 0.07367632 -0.054982744 -0.029590804 -0.15073839
-0.06792459 0.00092362217 0.028605293 -0.08820599 0.0025988023 -0.056331456 -0.14025947 -0.035422526
-0.093664676 -0.060533416 0.13117921 0.04785692 0.046254776 -0.12152435 -0.05319964 -0.06630273
-0.017324021 -0.110156655 -0.08499995 -0.009342221 -0.0009754532 -0.12190269 0.038633958 -0.026517374
-0.1457296 -0.11155631 -0.04532457 -0.033081084 0.22595553 -0.09445269 0.1791012 0.11860284
-0.020353207 0.077252254 0.06505995 0.011580167 -0.17711507 -0.20439051 0.07880807 -0.00072110264
0.0964965 -0.09687702 0.019919446 -0.09338497 -0.07562697 -0.008343038 0.1296803 0.08549812
0.057243284 -0.07955927 0.046472527 -0.043962907 -0.040329758 -0.12117745 0.059756413 -0.14800566
0.0038728234 -0.039762475 0.019691627 -0.084329486 0.047151044 0.14361078 0.015216868 -0.07349153
0.050392356 -0.13602223 -0.07692339 0.15941235 -0.027346507 -0.025211195 -0.09214628 0.0031943808
0.015224669 0.032454524 -0.03825212 -0.023597974 -0.032204434 0.13010255 0.061859224 -0.11381065
0.06310412 0.099731825 0.06171988 -0.008909681 0.10192463 0.038722992 -0.022225209 -0.029014591
-0.14146112 0.020161971 0.040360548 -0.029303009 0.17160957 0.12408257 -0.016417556 0.000503738
-0.0011933929 -0.039916445 0.04559329 0.025046319 -0.1700898 -0.07866084 0.103206016 0.08750807
0.044524707 -0.0026666436 -0.060496613 -0.08410055 -0.0045977663 0.020033658 -0.009929175 0.004906451
-0.10051253 -0.0750316 -0.03732436 0.08707995 -0.0043255 -0.039024398 0.067632206 0.05763918
-0.006800385 0.077779725 -0.029422661 -0.0038356301 -0.08796082 0.06018522 0.04073382 0.050893407
-0.053174485 -0.16115412 -0.09451492 0.007193809 0.011923059 0.06516373 0.0046407618 0.0734612
0.056197256 -0.0009846706 -0.05779786 -0.045540545 0.08345102 -0.03655819 0.029969458 -0.09199773
-0.0054535335 -0.17529428 -0.08528998 0.013017301 -0.10208209 0.10950374 -0.08141605 -0.12682983
0.10008868 -0.15582173 -0.0727444 -0.18165638 0.19688731 -0.070403375 0.13493848 0.09327908
0.0103432415 -0.25986415 0.07053423 -0.067665964 0.10212815 0.04229604 -0.10655357 0.06914716
0.07073386 -0.11693998 0.06296947 -0.07406046 0.17599902 0.02870192 0.101167426 -0.051770423
-0.08705026 0.040061817 0.08468597 -0.08423694 -0.048329715 -0.043397073 -0.008505815 -0.03848665
-0.06317371 -0.16108409 -0.055357926 0.11461733 0.10281411 -0.033815634 0.019376017 -0.056265462
-0.16268085 -0.062850535 0.07074243 -0.10432252 -0.053099483 0.0042374916 -0.08958353 0.0032202122
-0.031449392 0.006422451 0.0319272 -0.07515787 -0.16560578 0.10252671 -0.058159295 0.0091024665
-0.09225795 0.035595927 0.25527555 0.16476841 -0.11113475 -0.01107544 0.09288037 0.004525238

a2c_network.actor_mlp.0.bias f4 [256]
00000000: 760e 5dbc 3738 0dbd bff1 e1bc 4c32 e13c
00000010: 0a0d 61bb ead9 95bc 9772 2c3b d2f9 80bd
00000020: 8c50 8fbd 1dcc debc 3e70 013d fe74 ef3b
00000030: 91d9 cebc 5742 b7bc b1e6 89bd 7e5c acbc
00000040: c7de 5abd a042 373d 0340 4ebd f6ff 0d3d
00000050: c253 4cbd a268 47bd 993f 243c 821f a23c
00000060: bf9b 51bd dd8c ccbc 0dc8 9b3c 4a66 8d3d
00000070: 00c2 50bd dc84 9d3d 42e6 adbb d099 113d
00000080: 5c8f 9cbc 91b5 5cbd 9b92 013d e92d 823d
00000090: a563 663c 8fb0 4ebd e6dc ebbc 1bad 503d
000000a0: e637 323d 12cf 9b3d 0c60 04bd 10c3 5f3d
000000b0: 50a6 cdbb 8e7f bfbc 70c1 d0b9 cf76 143d
000000c0: 7ecf b8bc f266 41bd 11a7 64bc 0faf 78bd
000000d0: 3003 17bc 8899 1e3d eee1 793d 0762 533d
000000e0: 3f8d 0ebd 0566 5d3c 27c6 173d cd8b 0e3d
000000f0: edc1 0e3d 5744 543d 7d18 cbbc 6cf4 29bd
00000100: a82f 8dbd 01df 6bbc b80c 89bd b79d 9abc
00000110: 3b21 263d c7fe ea3b 8629 8dbd 3eef bc3a
00000120: e8e5 953d fa54 333c f8b0 92bc 7ca7 9fbc
00000130: 8d0c 29bd 0c33 a33d fbd4 26bc 9113 0dbd
00000140: 6fac 19bc bfd8 bdbc d8ea 5cbd d2cd 5dbc
00000150: 6a33 3fbc 93ac 01be ac40 2aba 6b1a c0ba
00000160: 86ca c13c 3928 afbc cf12 713d 2a0b 013d
00000170: aaef 20bd cea3 b83b 8c2a d5bb 995b dd3c
00000180: 3639 3bbd 1617 48bd e7dd b03d b80c c5bb
00000190: 02ca a6bd 272d d03d 232a 2dbd 4c70 c43b
000001a0: 539a f2bc c7b7 4a3c 4b60 37bd f809 86bd
000001b0: 0259 00bd cf2d 4bbd 0e08 83bc 0048 4bbc
000001c0: cbae afbc 7515 263c 877c 023d 0353 4cbd
000001d0: 1f40 dabc d8e4 2fbd 7001 473c 456d 103c
000001e0: 45c1 bd3b 92bb 303d 1f58 313d f6e8 e4ba
000001f0: 70f3 0abc 1fa6 383d be89 3d3d 0110 ba3b
00000200: e53b afba ab22 4fbd 2bc8 58ba 4109 d23b
00000210: 866d 013c ea3c 933c cb6b 56bc c30a 73bc
00000220: d60d d8bd 4472 69bd dad7 f8bc c62f 1bbe
00000230: 3ff2 d5bb ee5c 053c 8866 b43b 5c23 313d
00000240: 94dc d43b b141 3a3d 3eb4 a83c f449 d93c
00000250: 2a2c 553c 1a8a c13c 62c6 a4bd 05c9 c53b
00000260: 0566 243d d93b c0bc 125f b53c ec12 78bc
00000270: d408 6b3a 98b0 243d ab03 f33b 3fc6 963c
00000280: 52bd 633d 74ad 653d 08d7 9bbd 805f 88bd
00000290: aadc 14bc b7bf 18bc ef41 06bd 28f1 f8bb
000002a0: d5e6 f93b 6ed0 e0bc 4c6f 013d ae37 d4bc
000002b0: 38eb bc3d 3ded 453c ed30 1b3c 891f 21bd
000002c0: dc61 973c 77b8 c43a 0b5e 20bc d500 7bbd
000002d0: ce76 9f3d 1fca 3fbd 3804 c6bd c4cf a4bd
000002e0: c87d 34bc d292 ad3c 1a53 023d 4f84 8b3b
000002f0: f691 73bb fd13 29bd e8ab 8e3b 8706 68bd
00000300: a421 83bd 7aee 7cbc bda1 adbd 4831 bf3d
00000310: 018c 8c3c 7d1f 35bd 4cbe 13bd f6e5 07bd
00000320: 2b35 9a3a a833 fbbc 3074 423b b989 0ebd
00000330: d754 85bd c112 9d3c 8a78 cbbc a8da de3a
00000340: fabc ebbc af1a b23d 8803 203b 7370 203d
00000350: c115 b13a afc2 a6bc 05ac 84bc ecae 47bd
00000360: a931 53bd bad0 4c3c 20b2 21bd e70b a2bb
00000370: 9a4f 55bd b55d 99bc 12af 663d e9d4 cc3a
00000380: 9a81 df3d 5a35 1e3c 7d23 c53d 8689 fa39
00000390: a977 16bd 3f25 59bc a53b 123d 0184 71bc
000003a0: 9eed 1f3d cb96 b8bc 524b 6c3d 36c8 443c
000003b0: c384 163d 74a9 43bc 87cd c7bc fe07 8c3c
000003c0: 1aa3 5b3c 144c 18bc 559b 1a3d 1a74 f63c
000003d0: c1e6 8dbc ede8 963c 43ad 793d 484d bdbd
000003e0: c66a c7ba d382 8bbd 0a36 853b 80de 84bc
000003f0: 3a5f 943c 0362 613d 7ae3 fb3c b2ba 3bbd
-0.013492217 -0.03447744 -0.027581094 0.027489804 -0.0034340047 -0.018292386 0.0026313418 -0.062976494
-0.06997785 -0.027196938 0.031601183 0.0073076477 -0.025250228 -0.0223705 -0.06733454 -0.021040197
-0.053435113 0.044741273 -0.050354015 0.03466793 -0.049884565 -0.04868377 0.0100249285 0.019790415
-0.05117392 -0.024969513 0.01901629 0.06904276 -0.050966263 0.076913565 -0.00530699 0.035547078
-0.019111328 -0.053884093 0.031633954 0.06356413 0.014061843 -0.05046135 -0.028791856 0.050946336
0.04351034 0.07607855 -0.03231816 0.054629385 -0.0062759295 -0.023376253 -0.00039816974 0.036246117
-0.022559877 -0.047217317 -0.013955847 -0.060713824 -0.009217069 0.038720638 0.06100648 0.051607158
-0.03480267 0.013513093 0.037054207 0.034801293 0.03485291 0.051822986 -0.02479195 -0.041492864
-0.06893855 -0.01439643 -0.06691879 -0.018874032 0.040559035 0.007171485 -0.068926856 0.0014414561
0.07319242 0.010945553 -0.01790665 -0.019489042 -0.041271735 0.07968721 -0.010182614 -0.034442488
-0.00937949 -0.023174642 -0.053934902 -0.013537841 -0.011669973 -0.12663488 -0.0006494622 -0.0014656311
0.023656141 -0.021381484 0.058855828 0.031504788 -0.03929106 0.0056347614 -0.006505316 0.027021216
-0.045708857 -0.04885014 0.086360745 -0.006013479 -0.08143999 0.10164862 -0.042276513 0.005994832
-0.029614603 0.0123729175 -0.044769567 -0.0654487 -0.031334884 -0.049604233 -0.015995052 -0.012407303
-0.021445652 0.010136952 0.03185704 -0.049883854 -0.026641903 -0.04294285 0.012146339 0.008815114
0.005790862 0.04314763 0.04329693 -0.0017464447 -0.008480892 0.0450803 0.04627394 0.0056781773
-0.001336929 -0.05057017 -0.00082695734 0.0064097946 0.007899648 0.017973382 -0.013087223 -0.014834109
-0.10549514 -0.056993738 -0.030376364 -0.15154943 -0.006529122 0.008139832 0.0055053867 0.043246612
0.0064960215 0.045472804 0.020593759 0.026524521 0.013011018 0.023625422 -0.08045651 0.0060359263
0.040136356 -0.023466038 0.02214006 -0.01514123 0.0008965854 0.040207475 0.0074162087 0.018405078
0.05560047 0.05607362 -0.07609373 -0.0665884 -0.009085814 -0.009323052 -0.032777723 -0.0075971074
0.0076263943 -0.027443137 0.03160028 -0.025905456 0.09224552 0.012080488 0.009472114 -0.039336715
0.01847928 0.0015008588 -0.009788047 -0.06128009 0.07786332 -0.046823617 -0.096687734 -0.08047441
-0.011016317 0.021188173 0.031817533 0.004257716 -0.0037165857 -0.041278828 0.004353989 -0.05664685
-0.06402901 -0.015437717 -0.08478115 0.093355715 0.017156603 -0.044219483 -0.036070153 -0.033178292
0.0011765113 -0.03066428 0.0029671304 -0.03479931 -0.065103225 0.019173982 -0.024837751 0.001700242
-0.028776634 0.08696496 0.0024416167 0.03916974 0.0013510511 -0.020356504 -0.016195307 -0.048750803
-0.05156103 0.012500936 -0.039476514 -0.0049452665 -0.052077867 -0.01872144 0.056319304 0.0015627417
0.109133914 0.009656275 0.096259095 0.0004778618 -0.03673521 -0.013253509 0.035701413 -0.014740945
0.03904497 -0.022532841 0.05768902 0.012010625 0.036747705 -0.011942256 -0.024389995 0.017093655
0.013405586 -0.009295482 0.037745792 0.030084658 -0.017321946 0.018421615 0.06095625 -0.09243256
-0.0015214316 -0.06812062 0.00406528 -0.016219378 0.018111814 0.055025112 0.030748118 -0.045832343

a2c_network.actor_mlp.2.weight f4 [128, 256]
00000000: 5962 0fbd b3b8 573d 11bb 5abd 55aa 48bd
00000010: a313 693c b621 4d3d fff7 d3bc 0102 9e3d
00000020: 1870 acbc d7d0 893d ed2a 903d 5b98 74bd
00000030: e3a5 9bbd 9b2b ad3c be9e 8f3b 8c3c 013d
00000040: e17a 92bd 9ab8 9a3d 724c bdbc 16cc 653b
00000050: 09d7 98bc 9695 bf3b 3a27 95bd 8b80 61bb
00000060: a2ed 2dbc 6dc1 4b3d 4a79 b3bb f3b0 ebbd
00000070: 0d0b 8b3c 877a d2bd f01f 293d 0f53 73bd
00000080: a0e9 983d 413b 46bc 16bd 813d 2607 843b
00000090: 3b98 9cbd 511e 58bd 68d0 9ebc 9115 a1bd
000000a0: 0092 af3c dc57 453b 383c 39bc 3187 233d
000000b0: 0007 d5bd b54d 23bd c341 0b3d 76d8 1e3d
000000c0: 5caa ffbc 368a 05bd 7551 b53d 3563 833d
000000d0: 6e6d 093d dd13 a63b 61b2 bbbd e04c e13c
000000e0: ab01 723d 37f2 eabd a0e2 e3bc f2b7 33be
000000f0: 99f0 24bd f2d7 11bd 7492 ddbc 95aa 553d
00000100: 1156 0a3d a938 e83c 3926 b0bb 8448 0ebd
00000110: 94d7 b03c 0c5d c4bd dfb2 4d3d f5fd 68bd
00000120: 78f6 8dbd 9903 d9bc f918 09bd 441b be3d
00000130: 38e4 473d ff08 2dbd 5fcd 2bbd f26c 93bc
00000140: 4468 a33d f4a1 85bd 1e29 a73c 899e 613d
00000150: dcb4 6d3d 308b 99bc d5d3 a53b 909a 29bb
00000160: 5426 96bd ddb6 79bd bd3d 04bd 359b 52bd
00000170: 9230 313d b9d7 603c 5776 a53d 2432 49bc
00000180: f000 bb3c 3414 c13c ed88 f13c fda4 ad3b
00000190: a6a4 e9bb d04f 7f3c b2ab 293d 3e5c c23c
000001a0: eeaa 363c 5907 66bd bfde e43b 472c 143d
000001b0: f4a1 41bc fc43 c8bc 36a0 d93b f7e6 99bb
000001c0: 6365 9e3c cc71 523d bc88 86bd 1d9c 2ebd
000001d0: e1fc 9a3c 123a 94bb bfc7 45bd 25a7 923a
000001e0: 5858 b93c c97b 2ebd 6435 56bc 4b27 ec3b
000001f0: f9da c23d c710 c6bd b8ad a8bc a94d c7bd
00000200: 5f5e 8f3d e68e 07bd 12f9 623d 6b5e d23a
00000210: 7ce9 d5bc 965a 433c 0351 3c3c 79a3 cdbc
00000220: 255a debc d94e a63d a53c 153e 3c91 8839
00000230: 09f8 81bd c19e 3fbd cc90 46bd 2993 bfbd
00000240: 22be 8bbc cdd2 38bd 6cac cb3c 7929 15bd
00000250: cae8 d13c 1fde e5bc 1f6e e53c 636a f1bc
00000260: 5ad9 9ebb f52f 8f3d 6008 99bc 6609 933d
00000270: 6a7c 93bd 8178 16bd a835 9ebd 7f8e aebd
00000280: ec8b eebd d333 263d 15dc e8bc 3f45 4c3d
00000290: b647 583d 5d17 d43c f8e7 1ebc 2c2c aa3d
000002a0: 4511 a73d e6ee c43c 8cf3 8bbc e3e9 e03c
000002b0: a412 1f3d d859 4abc 28f5 d13c ef93 68bd
000002c0: 19c4 d1bc 03a5 0dbd b5b9 94bd bff3 663d
000002d0: af12 9fbb 13c9 4bbd 6571 d7bc 419a 153b
000002e0: 6723 8bbd e147 f43b d3db b93d 972d ca3b
000002f0: d012 89bc 8909 15bd 78e5 a9bd 885d 153d
00000300: 0a12 fabb 379e 833d baea 32bd d4aa ab3d
00000310: 358c 3bbb dc93 b33c fb87 973d 2b3c ebbc
00000320: 5e4f bb3d 90a2 6f3d 2f33 1b3d d0d6 043d
00000330: 89f2 a9bd c36a 40bd 2f6c 7f3c 930b fb3c
00000340: 7110 443d 6fa8 953b 00dc 8a3d 50ad e5bd
00000350: b539 583c 0a53 ffbc 4c77 b8bb 4912 1a3d
00000360: b711 a13d 06bd 133b 3382 893d 22c5 23bd
00000370: 81ff 65bb 0ebd 463d 7f22 473d 7bb5 133d
00000380: 6f60 46bd 934d 3b3c c7dd eabc f17b 4a3c
00000390: e1d1 54bd bbde 0bbd e878 b23c 2b58 e63d
000003a0: 47c0 763d 7ee2 023d 4c0d 2d3d c2de a83d
000003b0: 8f4e 9abd 20de 653b c96c 6f3c bc3a ce3d
000003c0: b38a 97bc bd49 b4bb ae18 77bc 82e8 8fbd
000003d0: 3a18 293e 6cb6 90bd a099 c6bc 0e18 fe3c
000003e0: d57a debd d74e acbd 9f13 1e3d 22ce bb3d
000003f0: 347a e2bc fe10 6a3d 72b2 8a3d a101 453c
-0.0350059 0.052666377 -0.053401057 -0.048990566 0.014225873 0.050080977 -0.02587509 0.07715226
-0.021049544 0.06729286 0.070394374 -0.05971561 -0.076 0.021138957 0.004382937 0.031551883
-0.071523435 0.07554741 -0.023107741 0.0035064272 -0.018657224 0.0058466895 -0.072828725 -0.0034408893
-0.010615738 0.049745012 -0.0054771053 -0.1150836 0.016973043 -0.102772765 0.041290224 -0.059405383
0.074664354 -0.012099088 0.063348934 0.0040291725 -0.07646223 -0.052763287 -0.019386485 -0.078654416
0.021431923 0.0030112183 -0.011305861 0.03992385 -0.10401726 -0.03986903 0.033998262 0.038780652
-0.031209163 -0.03260251 0.08853427 0.064154066 0.033551626 0.005068286 -0.091648825 0.027502477
0.059083622 -0.1147198 -0.027818024 -0.17550638 -0.040268514 -0.035606332 -0.027047373 0.052164633
0.033773486 0.02834733 -0.0053756502 -0.034737125 0.02158717 -0.0958806 0.050219413 -0.056882817
-0.06931776 -0.026490973 -0.03347108 0.09282544 0.04880163 -0.042244907 -0.041943904 -0.017996285
0.079788715 -0.06525031 0.020405348 0.05508283 0.05803381 -0.018743128 0.0050606527 -0.002587948
-0.07331529 -0.060965408 -0.03228544 -0.05141755 0.04325921 0.013723307 0.08079212 -0.012280021
0.022827595 0.023569204 0.029484237 0.005299209 -0.0071302233 0.015582994 0.041423507 0.023725625
0.011149151 -0.05615935 0.006984561 0.03617504 -0.011818398 -0.02444648 0.006641413 -0.0046967226
0.019335454 0.051378056 -0.06569049 -0.04262935 0.01891941 -0.004523524 -0.048286196 0.0011188729
0.022625133 -0.04259852 -0.013074253 0.0072068325 0.09514422 -0.09671169 -0.020590648 -0.097316094
0.07000422 -0.033095263 0.055413313 0.0016049867 -0.02611231 0.011923453 0.011493924 -0.025102364
-0.027142594 0.08120508 0.14573915 0.0002604815 -0.06346137 -0.04678226 -0.048477933 -0.093542404
-0.017058436 -0.04512291 0.02486249 -0.036416505 0.025623698 -0.028060017 0.028006611 -0.029469674
-0.0048476877 0.06991569 -0.018680751 0.07179527 -0.072014645 -0.036736015 -0.07725078 -0.08523273
-0.11647782 0.040576767 -0.028425256 0.049870726 0.052802764 0.025890047 -0.00969886 0.08309206
0.08157591 0.024039697 -0.017083906 0.027455276 0.038836136 -0.012350522 0.025629595 -0.056781705
-0.025606202 -0.034581196 -0.07261983 0.0563848 -0.004854522 -0.049752306 -0.026299188 0.0022827538
-0.06793862 0.0074548577 0.09075131 0.0061699855 -0.016732603 -0.036386047 -0.08295721 0.03646615
-0.007631545 0.064266615 -0.043680884 0.08382192 -0.0028617505 0.02192109 0.07398983 -0.028715214
0.091459975 0.05850464 0.03789061 0.032431424 -0.08298213 -0.046976816 0.015589758 0.030645167
0.047867242 0.004567198 0.06780243 -0.11214697 0.013197352 -0.031167526 -0.0056294557 0.037615094
0.07864707 0.0022543087 0.06714287 -0.039982922 -0.003509492 0.04852014 0.048616882 0.036061745
-0.04843181 0.011432069 -0.028670205 0.0123586515 -0.05195797 -0.03414796 0.021786168 0.112472855
0.060241964 0.03195428 0.04224901 0.08245613 -0.07534515 0.0035075024 0.014613339 0.100697964
-0.018498754 -0.0055019544 -0.015081568 -0.07026769 0.16513148 -0.07066044 -0.024243176 0.03101733
-0.10863272 -0.08413475 0.03859293 0.09170176 -0.027646162 0.05714511 0.06772317 0.012024314

a2c_network.actor_mlp.2.bias f4 [128]
00000000: 5bf9 723c 4210 76bb 3150 9c3c 7080 4cbd
00000010: 0bca d1bd 07c8 1a3d ad8f ad3c fd25 bbbb
00000020: 4bb1 ccba 7e21 4e3b 1408 f73c bafc 203d
00000030: 8663 4b3c 17cd dabc 8121 693d 40f3 7bbd
00000040: 249f a3bc ad5d f6bb 9275 8ebd 3533 453c
00000050: 4f49 34bd cda9 c7bc f4c2 c6bb f856 19bc
00000060: 6756 17bd 9875 56bc e305 b93a b9da 61bd
00000070: 38ba 3dbc 34d9 e63c 2191 a4bd 4eb7 2ebd
00000080: 396f 373d f2af 1b3c 2fba 9fbc b0d9 d2bc
00000090: d3ec dabd 7fe6 cebc 5715 62bd 6e58 63bd
000000a0: dbdc 5c3a cab9 8e3c c428 8d3d 1f9a a33c
000000b0: 4146 75bd 789a 24bc 6e2e 2abd cd8f a8bd
000000c0: 357f 983b 558a 05bd 59f6 da3d 1bd0 91bc
000000d0: 1a41 e9bd d92f 3a3d d30f 10bd ed6c ae3c
000000e0: 6bb9 3f3d 1043 663c 6ed7 8c3c 8306 873a
000000f0: ed90 563c 7854 863d cba6 a5bd b7f4 043d
00000100: 173f d73c 5d33 473a e9d1 6bbd 215d 3a3d
00000110: ace1 2b3c 11e9 063d ccc2 243c d8e3 033d
00000120: 33ee 84bd 7093 2a3d 1b2d 5bbd 6e8e 0c3d
00000130: c6e5 4f3c 288b c83b b20e 253c 8c17 80bd
00000140: a1d1 133b 9591 2abd 9ca7 00bc 3a79 6b3d
00000150: ad40 0f3d cf08 99bc cade ddbc b139 85bd
00000160: 8fea 74bb c660 ce3c b0e0 393c 5e9a 43bc
00000170: 435e 28bd fccf 113b 61ef 14bd c4bd 363c
00000180: c5d2 7f3d c576 c0bc fdac 1e3c daea 063c
00000190: 45fa 1ebc 883e 72bc 177c 0b3b d0e0 143d
000001a0: 0d8e 233c b0e9 313c d645 1dbc 39d6 353b
000001b0: 948b 1d3d 3b95 d8bd 1d35 c5bd a863 453d
000001c0: f01b 8abd 2305 503c 4021 283d 4c13 323c
000001d0: 8c9d aa3b 4ece f43c 0e52 4e3c a1fa cebc
000001e0: c9c8 0d3d 4689 083d 5793 193d 917f 4f3c
000001f0: 3155 4ebd 5fe0 713c d342 e13c 35b4 9abd
0.014829959 -0.0037546312 0.019081207 -0.049927175 -0.10243615 0.037788417 0.021186674 -0.0057113157
-0.0015616802 0.0031453068 0.03015522 0.03930352 0.012413865 -0.026709123 0.056916717 -0.06151128
-0.019973345 -0.0075184912 -0.069560185 0.0120361345 -0.044015225 -0.02437296 -0.0060657207 -0.009359114
-0.036947634 -0.01308956 0.0014116134 -0.05514023 -0.011580043 0.028179742 -0.08035494 -0.04265528
0.044783805 0.009502398 -0.019497959 -0.025738567 -0.10689702 -0.025256393 -0.055196133 -0.055504255
0.0008425244 0.017422576 0.06892541 0.019970952 -0.059881452 -0.010046594 -0.041548185 -0.08230553
0.004653836 -0.032602627 0.10691518 -0.017799428 -0.1138937 0.045455787 -0.03517134 0.021292174
0.046807688 0.014054075 0.017192569 0.0010301623 0.013096076 0.0655908 -0.08088454 0.03245994
0.0262752 0.0007598901 -0.057573233 0.04549897 0.010490816 0.032937113 0.010056209 0.03219971
-0.064907454 0.041644514 -0.053509813 0.03431552 0.01268906 0.0061201043 0.010074304 -0.06254491
0.0022555368 -0.041642744 -0.007852461 0.057488658 0.03497379 -0.018680958 -0.027083773 -0.065051444
-0.0037371253 0.02519263 0.011345074 -0.0119386595 -0.04110552 0.0022249212 -0.036361102 0.011153642
0.062456865 -0.023494134 0.009684798 0.008234704 -0.009703224 -0.014785416 0.002128368 0.03634721
0.009982598 0.010858938 -0.00959917 0.0027746095 0.03846319 -0.105753385 -0.09629271 0.048190743
-0.0674361 0.012696537 0.041047335 0.010868859 0.0052067693 0.02988353 0.012592806 -0.025265994
0.03461531 0.03333404 0.03749403 0.012664692 -0.050374214 0.014762967 0.027497685 -0.07553903

a2c_network.actor_mlp.4.weight f4 [64, 128]
00000000: 3dde 3b3a f3a6 143d 424e c23c a7ac 77bd
00000010: fafd 91bc bba3 df3d 624a fc3c 8166 973d
00000020: 2915 68bd 6e98 503c 6ccc c2bc 1c79 3abd
00000030: b1b4 e13b 9ca8 96bc cdad cbbd 980a bebc
00000040: 7d77 e0bd 791f 5a3a 09ed 30bd fad3 7d3d
00000050: df34 50bd 4386 8bbd 6d33 11bd d151 55bd
00000060: d1e9 e23d 273e a73d fec1 7fbd 68a8 c1bb
00000070: b774 a8bd 646d 083b 7757 b5bc 1587 9bbd
00000080: 8a78 a83d e91e ad3d 5eab 9abd 02a2 343b
00000090: 6b6a de3d 1865 21bd 652d b83d 803a d5bd
000000a0: 2f32 abbc 33c3 53bd 723e babd adfd dbbb
000000b0: 92a1 53bd 59f1 9e3c 494c 723c faa2 a23d
000000c0: 665d 053c 6ed6 993d 72a8 26bd 7968 c03d
000000d0: 9fce 933d 76d8 0abb 7883 13bd 2f95 a03d
000000e0: 1aa5 be3d 570a 83bd 4eae 0e3d 7e72 19bd
000000f0: e432 abbc 4bd8 4d3c 1950 fe3c c7d3 06bd
00000100: 7a90 c1bc 7027 7fbd 8c4e 1e3e e012 cc3a
00000110: b205 b63d 2e52 b73d 228a f0bd 8980 c03d
00000120: d62e ebbd c176 e4bc 5653 e2bc ed8f d63d
00000130: 8fa1 7fbd 4c57 b13c 079a 7d3d 060f 12bd
00000140: 5781 993d 9d1e a63b fd31 8cbd b543 79bc
00000150: c3dd 823d cc40 1dbe fd42 573d 7dbc c1bb
00000160: fc7f 5d3d b0bb 163d be75 24bd 202c 5f3c
00000170: af77 1c3d 7111 eabd 9a87 2ebe c6fa 2f3d
00000180: 4e65 873c 3faf 61bd 6c96 86bd 6ea1 3ebc
00000190: c47a c63c bad5 e83c d4f7 1c3d d545 94bd
000001a0: ffca 8abd 3451 033e 8a18 973d 058a f0bb
000001b0: 4452 d43a 9939 013c 81aa 1fbd 45a1 1d3e
000001c0: 2bcf b5bd fa84 a43d 131c 153d 1d1b d03c
000001d0: 0ef6 7c3c c2d6 02bd 3af1 1aba e46d 96bc
000001e0: 28c0 8e3d 72f2 83bd bf25 a93d 9b62 14bc
000001f0: 510d 893d 4d1a 773d 169e 513d 2b85 07bd
00000200: 8d97 80bd dd2c 983d f6b5 ee3c 2d60 12be
00000210: 1ef1 e5bc 4cc6 47bd 451b 2dbd 7155 c63d
00000220: 108c 2fbd 0fc2 2abd e4df 8bbc 4bfd 4abd
00000230: 0213 673d aa76 1dbd 4ad1 91bd 7d40 99bd
00000240: 4ff6 bfbd 87dd 7f3c f11b f7bc 1c43 223d
00000250: 7b4c 25bb 8aef f6bb 4e0a 283d b41d 073d
00000260: 3f5f 0f3e 94ce 56bd 79e8 8ebd f2bc e0bc
00000270: f293 003d c487 17bd 9df9 a3bb 2690 b03d
00000280: a81e 823b 7648 9c3c 1c47 803d de4b 4ebc
00000290: e053 a53b 1f6d 9a3d 5cf7 20bd 67e2 fd3a
000002a0: beeb 7a3b 8572 fc3c 1d7d 92bd 344a 71bc
000002b0: b4c0 103c 7c05 b2bd 4e89 9a3c af19 d43d
000002c0: a50f 563d fcb5 913d ae10 513d 6b8e 27bd
000002d0: e2f3 60bd bdf5 20bd f207 d83d b0b7 bd3c
000002e0: 8fe9 863d fb2b fbbd 15d3 903d 28a3 d23d
000002f0: 0337 abbd 0be5 97bd acc1 283d b56f ecbd
00000300: 94b2 78bd e6ea b4bc 90f1 30bd e2f9 90bd
00000310: 8b2f b0bd c0f8 e7bd 09c0 bdbd b5ec e3bd
00000320: 6511 66bd 9dc2 38bc f661 14be 6815 733d
00000330: bb7f 883c cf56 5fbd e20e 45bc 4749 87bd
00000340: e1ce 903d 1be0 283d b4c2 943c e0fe 05bd
00000350: 5aec 873d 6e3d 42bd 3cf5 e1ba 35f9 c7bc
00000360: bb25 b23c f5ea 733d b992 72bd 5598 cdbd
00000370: d862 33bd bd9d 963c be95 5dbd 86c4 dcbd
00000380: 5eec 04bd d73e 6d3c 66f1 6f3d 6245 15bc
00000390: 396b 57bd 35d7 08bd d60c 92bb 42b0 90bd
000003a0: 4f58 c03d 0a00 e23c aec8 503d 108f 013d
000003b0: a974 823c aae3 c2bd 8054 13be c3be b33d
000003c0: 826d c1ba 5c41 8a3b 645e 623d 97be 643b
000003d0: 342f cd3d 44a4 2e3d bbf0 fcbd 8749 c8bd
000003e0: 3f43 cebd b6eb 3f3d ac54 873c 1a1a 14bb
000003f0: 4365 8b3b 6fad 883d c70f 8a3a 9fcd c43d
0.00071666 0.036292028 0.023718957 -0.06046739 -0.0178213 0.10919901 0.030797187 0.07392598
-0.056660805 0.012731655 -0.023779117 -0.045525655 0.006887995 -0.018390946 -0.09945259 -0.02319841
-0.109602906 0.000832073 -0.043194804 0.061969735 -0.05083167 -0.06812718 -0.035449434 -0.05207998
0.11079753 0.081661515 -0.062440865 -0.005909968 -0.082253866 0.0020817155 -0.022136433 -0.07594124
0.08226116 0.08453161 -0.07552217 0.0027562384 0.10860141 -0.03940305 0.08993033 -0.104115486
-0.020897953 -0.05169983 -0.09093942 -0.00671359 -0.051667757 0.019402193 0.014788696 0.079412416
0.008139944 0.07511602 -0.040687986 0.093949266 0.07217144 -0.002118615 -0.03601405 0.078409545
0.093088344 -0.063984565 0.0348342 -0.037462704 -0.02089829 0.012563775 0.031044053 -0.03291681
-0.023628462 -0.06229347 0.15459651 0.001556959 0.08887805 0.089512214 -0.11745097 0.09399516
-0.114835426 -0.027888658 -0.027627628 0.104766704 -0.062409934 0.021648072 0.06191447 -0.03565886
0.07495373 0.0050695674 -0.06845472 -0.0152138965 0.06389954 -0.1535675 0.05255412 -0.005912362
0.054077134 0.036800086 -0.04015135 0.01362136 0.038200077 -0.11429108 -0.17043915 0.042963766
0.016527798 -0.05509877 -0.065716594 -0.0116351675 0.024228461 0.028422225 0.038322285 -0.07239882
-0.06777 0.12823945 0.07377727 -0.007340672 0.0016198833 0.0078872675 -0.038980965 0.1539355
-0.08877405 0.08033176 0.036403727 0.025403554 0.015439523 -0.03194309 -0.00059105793 -0.018362947
0.06970245 -0.06442727 0.082591526 -0.0090567125 0.06691993 0.060327817 0.051176153 -0.033085983
-0.06278906 0.07430432 0.0291395 -0.142945 -0.028069075 -0.048773095 -0.042262334 0.096842654
-0.042858183 -0.041688975 -0.017074533 -0.049557965 0.05641461 -0.038443245 -0.07119997 -0.07483003
-0.093731515 0.015616781 -0.03016469 0.03961478 -0.0025222588 -0.0075358795 0.041025452 0.03298731
0.14001177 -0.052443102 -0.069779344 -0.027433846 0.03139109 -0.03699471 -0.0050041215 0.08621244
0.0039709397 0.01907752 0.06263563 -0.01259133 0.005045399 0.075403444 -0.0392984 0.0019369841
0.0038287486 0.030816326 -0.0715277 -0.014727164 0.0088350065 -0.08692452 0.0188643 0.10356461
0.052261014 0.07114789 0.051041298 -0.040907305 -0.054920085 -0.039296854 0.105483904 0.023158878
0.065875165 -0.12264248 0.07071511 0.10285026 -0.08360102 -0.07416733 0.041200325 -0.11544744
-0.06071718 -0.022084665 -0.043199122 -0.07078911 -0.08602818 -0.11326742 -0.092651434 -0.11129133
-0.056168932 -0.011276868 -0.14490494 0.059346586 0.01666247 -0.054526147 -0.012027474 -0.066057734
0.07070709 0.04122935 0.018159248 -0.03271377 0.06636877 -0.047421865 -0.0017239223 -0.024410823
0.021746507 0.059550244 -0.059221957 -0.10038821 -0.043795437 0.018385762 -0.054097883 -0.10779671
-0.03245198 0.014480314 0.058579825 -0.00911078 -0.05259249 -0.033408362 -0.0044570966 -0.070648685
0.093918435 0.02758791 0.050972633 0.031630576 0.015924769 -0.0951608 -0.14387703 0.08776619
-0.0014757367 0.004219217 0.0552658 0.003490364 0.10018769 0.042637125 -0.12350603 -0.09779649
-0.1007142 0.04685565 0.016519867 -0.0022598566 0.0042540147 0.06673705 0.0010533266 0.096095316

a2c_network.actor_mlp.4.bias f4 [64]
00000000: 7b21 3d3c 87da 78bd 510f 3f3d 4041 ae3c
00000010: b84b edbc d7eb 2cbd 1afa 80bd 0196 a4bd
00000020: 7279 71bc eaf2 9bbd 835d a8bd aba4 543d
00000030: a3c0 fa3c e61d 98bd b800 9fbd dca7 bb3c
00000040: 7e34 57bd 38bf 2ebd dfe8 8f3d 93bf ffbc
00000050: 787a 89bd 6557 c5bd b2bb b8bd b9e1 06bc
00000060: c7fa 5d3d e278 adbc fd61 6abd 740f cb3c
00000070: e6c4 893d dc6b 70bd 9a87 0cbe 146d c6bc
00000080: 26bc 1cbd a024 3e3b af3b cc3a a584 a9bd
00000090: a7c9 a1bd 2e06 b43c 1f70 8cbc c4e9 57bc
000000a0: a01c e23c 3243 af3c 9aa7 8dbd cc61 00ba
000000b0: 8fac 8cbd 2801 18be 7e77 223d a133 6bbc
000000c0: dbef b2bd 7218 5abd 3541 3e3d 65e9 7fbd
000000d0: 70fe cf3c 1cc8 a0bd 80b0 a13c f112 75bd
000000e0: 764a 87bc 9003 263d b594 76bd 67bc 5bbd
000000f0: 4509 fc3c 992f 97bd 459e aabd ba49 3abd
0.011543627 -0.06075528 0.046645466 0.021271348 -0.02896677 -0.042217102 -0.06297703 -0.080364235
-0.0147384275 -0.076146916 -0.08220961 0.051914852 0.030609434 -0.07427578 -0.07763809 0.02290719
-0.052540295 -0.04266283 0.070268385 -0.03121928 -0.06712812 -0.0963581 -0.09020175 -0.008232527
0.054194238 -0.021175805 -0.057222355 0.024787642 0.067270085 -0.058696613 -0.13723603 -0.024221934
-0.03826537 0.002901353 0.0015581752 -0.08277253 -0.0789979 0.021975603 -0.017143307 -0.013178293
0.02760154 0.021394346 -0.06916733 -0.00048973854 -0.068688504 -0.14844191 0.039664738 -0.014355571
-0.08737155 -0.05324597 0.046448905 -0.06247844 0.02538988 -0.07850668 0.019737482 -0.059832517
-0.016514998 0.04053074 -0.06020041 -0.05364647 0.030766139 -0.073821254 -0.08330969 -0.045480467

a2c_network.value.weight f4 [1, 64]
00000000: 8b55 933d 086f 9b3a 9bca 933c a055 f93d
00000010: fecb 82bd de38 8a3b 6d11 393b e906 2abb
00000020: f0b9 c7bc 928c 94bd 099a 293c 7841 4c3d
00000030: 09b8 443c e476 f63a cc0e 25bd 1625 ddbc
00000040: 1c0d b1bd e2bb 70bd 2bc8 923d 356b edbc
00000050: e2fa f8bd 5021 e3bc 1b85 8a3b 99fd 18bc
00000060: 1c2b f8bc 4362 023d bf04 70bd 37f5 ff3c
00000070: 0398 183c 9c84 c1bd b153 37bd 7cf7 29bc
00000080: 4fa2 c1bd 2765 31bb a7dd e5bc 68a6 1abd
00000090: 41a1 1dbe b77e 6d3d 1709 b43c 4747 56bc
000000a0: fc9c 6b3d 0a11 29bc 76a6 16bd c564 333d
000000b0: ecdf 603d d4b2 df3a fd69 6a3d 56c1 9cbd
000000c0: 2542 8ebd 22a8 c9bd b56b 7e3c e54e 95bd
000000d0: 2892 b03d c537 0abd 4fbd c93c 2073 d23b
000000e0: dc90 6d3d 404b 523d 377a bdbc 39a9 ebbd
000000f0: 213f e13d a5e6 e9bd d4f8 173c 03a2 28bb
0.071940504 0.0011858651 0.018040946 0.12174535 -0.06386565 0.004218205 0.0028239146 -0.002594406
-0.024380654 -0.07253374 0.010351666 0.049867123 0.012006768 0.0018803743 -0.040297315 -0.026995223
-0.086450785 -0.05877293 0.07167085 -0.028981784 -0.12157227 -0.027725846 0.004227293 -0.009337806
-0.030293994 0.03183199 -0.058598276 0.031244857 0.009313586 -0.09449121 -0.04475755 -0.010373946
-0.09454786 -0.0027068348 -0.028059794 -0.037756354 -0.15393545 0.057982173 0.02197699 -0.013078517
0.05752276 -0.010319004 -0.036779843 0.043797273 0.05490105 0.0017066845 0.057229985 -0.076540634
-0.0694621 -0.09846522 0.015528609 -0.072904386 0.08621627 -0.033744592 0.024626402 0.0064224154
0.057999477 0.051341295 -0.023129566 -0.11506886 0.10998369 -0.11420945 0.009275634 -0.0025731332

a2c_network.mu.weight f4 [8, 64]
00000000: 4ece 513c 3a08 eabb 1c46 0ebe 3286 6d3d
00000010: 70a8 c83c 39d1 103d ab43 c2bd 3a1f a63c
00000020: e2cc 7fbd b561 233d 12be b8bd 7192 003b
00000030: a0d7 acbc 1032 92bd 8cef 3d3e d419 6dbd
00000040: ff09 d73d 47f3 6d3d 0ded ad3c 28e3 ffbd
00000050: 7c15 923d 8985 313d 3ed9 023e a08e 1abe
00000060: ad45 69bd 057b 813d 1fa9 893d 98c8 293e
00000070: 628f cbbd c0cf 813d 8839 10bc 4e4e 82bd
00000080: 30bf b9bd 1ec1 203e 3a7c 993d ad8e 243e
00000090: 524c 80bd 61a8 533d cfe3 9abb 4fe4 b8bd
000000a0: 6e5f a43c 2eaa cf3d 222b ee3d 32db e9bc
000000b0: 25fe 71bc e14a 5c3d 3c6e 48bc a6a9 fcbd
000000c0: 8462 af3c b9f7 e33d 3b12 73bd fbe3 143d
000000d0: 2323 043d 193e 923c 583a b1bd 460c 413d
000000e0: 68a7 3fbd 8882 29be 8111 ca3d 9025 32be
000000f0: b595 dfbb f007 343d d402 2dbb 440e cf3d
00000100: 4af7 ae3c 38f5 57bd ba66 9cbd dbaa db3c
00000110: 21d3 b8bc b2a3 c6bd 3c52 aabc 1c3f 1f3e
00000120: 41f5 8fbd 6ff3 adbc 2a92 d7bc 8841 54bd
00000130: d384 99bd adeb 60bd e39b c53c 898a 8abc
00000140: 7f61 18be efe5 e03c b238 18bd f119 543d
00000150: 720b 003e c468 0a3e ed05 a13d 9940 95bc
00000160: 6fcf 2abd f48d ff3d c349 97bd 26a2 a0bd
00000170: b17e ff3d 51ca 2b3d 6085 2c3d c60a f7bb
00000180: 93ea 483d 365d 833d b794 953d 95d7 ddbb
00000190: 1b8c 50bb 7a39 f13d 4664 733d e031 83bd
000001a0: 6b6a 2d3c 3c1e 24bd cb18 0dbe d491 a93d
000001b0: cdf8 c6bc a90a b73d d9d9 c8bd 7ff5 0fbd
000001c0: 05bd 44bc a71f c53d 846b f53d 0506 04bc
000001d0: 8b62 07be 25ad 363d 7767 2a3e dbd3 443e
000001e0: 6ba9 c0bd e727 15bd daf7 893d eff9 20bd
000001f0: 2477 2f3d 0374 62bd fe2c 413d fff1 f93d
00000200: 1faa ab3c f0e5 d33c e364 61bd 698d 2abd
00000210: 4e10 79bd fb41 103e 0f2e a83d 845e ae3d
00000220: 26f8 11bd 3104 debc 2d65 123a a59b 01be
00000230: ede5 553d a13a d83d 02fa 86bd 76df 3abd
00000240: 88f7 6bbe a548 d7bd aabd b0bd 058d 29bd
00000250: d2f9 5e3d d77e 8e3c 9411 f83d 97b6 603d
00000260: b1dc 06bd c34a fa3d 44b8 ab3a 98da e2bc
00000270: 8f65 06be 40d4 28bd 07fe e13d 726b 4dbc
00000280: 72bb 21be 0074 76bd 04ca aebd d199 133e
00000290: 0c61 38bd 6fbe 8c3d 514f 32bc 761c 2ebe
000002a0: 7d54 32bd f6db 37bd 4dc1 8ebd 0e53 493d
000002b0: 1948 fc3d eb0c c93d 8de5 d53d da5d 753c
000002c0: 958f f43d 274a adbd c925 a5bd adfa 98bd
000002d0: cf09 abbd 75bd c83d e2ea d0bc fc4b aebc
000002e0: 764b d13d a139 983d 1847 93bd d9ee a2bd
000002f0: 5caf 4f3d 2d83 d33c 510b 893e 19b3 c1bd
00000300: a49b c6bd 50d9 48bd 55ff b8bd b7a6 11bd
00000310: 5580 a73d 9657 6e3d fa4d 8dbd b534 1abd
00000320: 4ba7 42bd 782f ffbc 06b3 93bd 58ec a03d
00000330: 492f 503d 0506 ddbd 7ce8 8dbc 33c1 843d
00000340: 36fd 30bd 11c2 0f3e 4543 d63d 48f3 0fbc
00000350: 1f41 043d 4511 463d 8904 8b3b 4011 523d
00000360: 0f80 993c 0722 113d 5807 703d 39f2 7b3d
00000370: 176c d13d bf23 453d 4e8b 31bd 800d 01bd
00000380: 9909 a6bc 36ce f5bd 7c01 eabd b18b 653c
00000390: e438 48bd b455 5b3d 1366 863d 1d04 d33c
000003a0: 4a76 44bc 291d 7abc 7c5c d33d 9987 af3d
000003b0: 423b a83d b6cd 3f3d dcb0 1a3d 5f36 fd3c
000003c0: 2abe f83c 4114 db3b ea3c 463d 8aea 583d
000003d0: d718 06be 1914 f5bd f959 f8bc 6629 d83d
000003e0: 5f25 843b a8d2 893d bdc0 3bbd 78eb a3bb
000003f0: aab4 5a3d d7c4 01be 82b5 dfbc de5f 10bc
0.0128055345 -0.007142094 -0.13893932 0.057989307 0.02449438 0.03535578 -0.09485563 0.020278562
-0.06245125 0.039888103 -0.09020628 0.0019618536 -0.021098912 -0.07138455 0.18548411 -0.05788596
0.104999535 0.058093335 0.021231199 -0.124944985 0.07133004 0.04334024 0.12778184 -0.1509347
-0.056951214 0.06322292 0.067217104 0.16580427 -0.099394575 0.06338453 -0.008802779 -0.06362592
-0.09069669 0.15698668 0.074943975 0.16070051 -0.06264557 0.05167425 -0.004726864 -0.090279214
0.020065036 0.10139881 0.11629321 -0.028546903 -0.014770065 0.053782348 -0.012233313 -0.12337045
0.02140928 0.11131234 -0.059343558 0.03635023 0.03226007 0.017851876 -0.08653706 0.047130845
-0.04679051 -0.165537 0.0986662 -0.17397141 -0.0068232664 0.043952882 -0.002639939 0.10110143
0.021358151 -0.052724093 -0.07636781 0.026814869 -0.022561612 -0.09699191 -0.020791166 0.15551418
-0.070292 -0.021234242 -0.026314814 -0.051820308 -0.07496037 -0.054912258 0.024122184 -0.016911762
-0.14880942 0.02745339 -0.037163444 0.051782552 0.12504366 0.13516527 0.078624584 -0.01821928
-0.04170173 0.12478247 -0.07387116 -0.07843427 0.12475336 0.04194099 0.042119384 -0.007539126
0.049051832 0.06414263 0.07303756 -0.006770084 -0.003182179 0.11778541 0.0594218 -0.06405997
0.010584454 -0.040067896 -0.13778989 0.08279768 -0.02428856 0.0893758 -0.09807176 -0.035146233
-0.012007956 0.09625178 0.119833976 -0.008058076 -0.13221185 0.044598717 0.16641031 0.19221441
-0.09407314 -0.036415007 0.06736727 -0.039300855 0.04283823 -0.05528642 0.04716205 0.1220436
0.020955143 0.025866479 -0.055027854 -0.041638765 -0.060806565 0.1408767 0.0821191 0.08514121
-0.035637043 -0.027101608 0.00055845344 -0.1265703 0.052221227 0.105580576 -0.06590654 -0.045623265
-0.23043644 -0.10511903 -0.086299255 -0.041394252 0.054437466 0.017394466 0.12112728 0.05486163
-0.03292531 0.12221291 0.001310118 -0.027692124 -0.13124679 -0.041218042 0.1103478 -0.012537824
-0.15794161 -0.06016922 -0.08534625 0.14414145 -0.045014426 0.0687226 -0.010883168 -0.17003044
-0.043537606 -0.044887505 -0.06970463 0.049151473 0.12318439 0.09816917 0.10444174 0.014975989
0.119414486 -0.08461409 -0.080638476 -0.074696876 -0.0835148 0.09801761 -0.025502626 -0.021276467
0.10219471 0.07432867 -0.071912944 -0.07955713 0.050704345 0.025819385 0.26766446 -0.09457988
-0.09697655 -0.04903537 -0.09033076 -0.035559382 0.08178774 0.058188997 -0.068996385 -0.03764792
-0.047522824 -0.031150565 -0.072118804 0.07857579 0.050826345 -0.10792164 -0.017322771 0.06482162
-0.04321023 0.14038874 0.104620494 -0.00878603 0.032288667 0.048356313 0.004242484 0.051285982
0.01873782 0.03543284 0.058600754 0.0615103 0.102256946 0.048129793 -0.043345742 -0.031507015
-0.020268248 -0.12002222 -0.11426064 0.014010356 -0.04888238 0.05354853 0.06562438 0.025758797
-0.011991093 -0.015265741 0.10320374 0.08570785 0.082144275 0.04682704 0.037766322 0.030909715
0.030364115 0.006685764 0.048397936 0.05295805 -0.13095413 -0.11966724 -0.03031634 0.10554771
0.0040327753 0.067296326 -0.045838106 -0.0050024353 0.05339495 -0.12672745 -0.02730823 -0.008811919

a2c_network.mu.bias f4 [8]
00000000: ee91 d8bd 5b0c bbbd 7b7b 1fbd 0b41 743d
00000010: 5f24 84bd 512b 823c 168e 05be 1c4e 32bd
-0.10574709 -0.09133216 -0.03893612 0.059632342 -0.0645225 0.015889795 -0.13042483 -0.043531522

exp_avg f4 [8]
00000000: 3ca5 8f3b 0e63 083b 07ce 5f3b b19a 91b9
00000010: cb25 a93b 271f 853b 8047 123c bff1 773b
0.004383711 0.0020810994 0.0034149901 -0.0002777181 0.005161976 0.0040625515 0.00892818 0.00378333

exp_avg_sq f4 [8]
00000000: 5bcf 6638 b6ea a538 2766 6438 df4a 5d38
00000010: a480 6538 fd0a b338 aac0 8138 9dc8 8b38
5.5029388e-05 7.9115314e-05 5.4454573e-05 5.2760235e-05 5.471766e-05 8.537432e-05 6.187086e-05 6.6654036e-05
