runs/Ant_31-18-18-18/nn/last_Ant_ep_150_rew_3947.2495.pth (torch, 705735 bytes, 36 tensors)

value_mean_std.running_mean f8 [1]
00000000: 248e 0b6f 9532 0340
2.399699084797037

value_mean_std.running_var f8 [1]
00000000: da9c e0a0 0424 0740
2.8925869530245167

value_mean_std.count f8 []
00000000: 0000 0010 00c0 7241
19660801.0

running_mean_std.running_mean f8 [60]
00000000: d547 52e8 c9cf e33f 3ba5 c030 678a 0140
00000010: f1d6 9c0e da21 d3bf 92d7 32b1 954a d1bf
00000020: 9814 3fec 09ff 973f 1475 da65 ff89 683f
00000030: 2dbe bf92 a6b8 a9bf 106f 11ea c869 0640
00000040: 7b52 67a9 757d 0e40 08a4 75e0 116b 06c0
00000050: 2b7c 623e 4baa eb3f 1d09 59a7 d4b1 e73f
00000060: 83ea 3298 6acc dfbf 7c68 16c5 deb0 e0bf
00000070: 1e33 7f0f 788f d3bf b563 9195 5fa2 e43f
00000080: 0d06 af74 72b2 96bf 6e59 5c98 e37e e23f
00000090: dbdd f100 4804 bebf 04fd 65bf 4d48 e3bf
000000a0: 6499 2c1f de45 943f 6ab4 dd4a 180a b03f
000000b0: 384d c0c2 52e0 a33f 92e0 036a ba9c b0bf
000000c0: f6fb 3d5d aeec 813f 3dc8 f8ab 3a88 a9bf
000000d0: c748 2458 bd52 843f af6d b8ba ef03 b13f
000000e0: a8a2 33b5 3ea4 d4bf 387c b637 134f a03f
000000f0: adad 093e f444 c3bf 5073 6f6f b290 a8bf
00000100: e8cd 7257 2be7 60bf 4128 696a 2201 a03f
00000110: 3f61 2505 19e9 a9bf f038 17a3 e4cb 923f
00000120: 9909 195f 54dd d4bf ed44 9a9d c334 b0bf
00000130: 1f54 c9b5 0884 4cbf 9337 1c71 b7d4 893f
00000140: 97ea be8b 22a1 adbf 835c 8cc6 c183 6a3f
00000150: aaee 4e29 8039 c4bf 6f17 2945 ec47 a03f
00000160: d31b f0b2 6f1b 403f 098d 2d5f 4f83 313f
00000170: 91d5 91df 8c36 a7bf adc2 54f1 15c9 a3bf
00000180: c65f 5ee1 f312 cebf 625e 81b2 329e af3f
00000190: 6482 1899 83df 393f c1b5 d682 31a2 6f3f
000001a0: d5f4 5489 7837 d2bf d16b 5fd3 166a c5bf
000001b0: 0f5d 427b 1de0 c0bf 3311 a7eb bbeb ce3f
000001c0: 27bb 9b56 c073 a2bf 0be4 6462 427a ba3f
000001d0: 1899 624f baa2 aabf 4235 4fcb 76c5 ccbf
0.6191148316886436 2.1925796326437683 -0.2989411490155894 -0.2701772909598442 0.023433833164535928 0.002995489906267532 -0.05023689786309791 2.8016527449198136
3.8112595781952314 -2.802280191030608 0.8645378321124374 0.7404578464995982 -0.49685158599064766 -0.5215905999532562 -0.30563165200583053 0.6448209687470042
-0.022165096637541782 0.5779893852039046 -0.11725282691065024 -0.602576135468468 0.019797773983691327 0.06265403583320653 0.038820825837456885 -0.06489148224125277
0.008752214642070637 -0.049867471211101556 0.00992343831288557 0.06646631535152524 -0.3225247163341387 0.03185329489792149 -0.15054181126775515 -0.047978950598667525
-0.0020633551135575863 0.03125865506133652 -0.05060651958291595 0.018355915502802966 -0.326008885258625 -0.06330511663169931 -0.0008702318696786094 0.01261275590834624
-0.05786998706704088 0.0032366547278673287 -0.15800477997787726 0.03179872841114572 0.0004915519147069509 0.00026722610271275087 -0.04533806065675628 -0.03864353724418854
-0.234953389209066 0.061753830232814236 0.0003947922024014948 0.003861519528718133 -0.2846356717235044 -0.16730008431372181 -0.13183945196644983 0.24156903273081695
-0.03603936249952815 0.1034280290813429 -0.052022764387674225 -0.2247761242601119

running_mean_std.running_var f8 [60]
00000000: 4648 661f 913f 913f dadd 0de6 6164 0d40
00000010: 459d 1f13 82b6 f23f ad69 78f3 743e e63f
00000020: f0a7 9479 14c4 1140 43b1 691a cfdf 1340
00000030: 8955 5db5 baa0 2140 542d edb4 54d2 1c40
00000040: 85ac 4a7d 034f 2040 17ce 7352 56d2 1c40
00000050: b1d3 e98f 002b c13f 4e97 218f 6afd c93f
00000060: 32e2 917f 2ffd db3f 9259 e625 0c2c d33f
00000070: d30e 4047 6312 dd3f 5ce0 b072 8cca d83f
00000080: f1bf ac82 fe11 df3f d4ff 22ec 3d75 d63f
00000090: 934b 3528 a8e4 e13f 808e 4ba5 2e00 d33f
000000a0: 40ff 36bd 8386 0440 fa87 8aaa 1572 0740
000000b0: 5f11 262f 54bc 0d40 de31 302a d79d f63f
000000c0: 3d81 52b2 86b7 1340 2ade 68c3 64da fe3f
000000d0: 09eb a29c 25f0 fc3f 0cbf 7e9a b714 0340
000000e0: b406 1400 9387 f33f f1e6 93a8 2c1f c83f
000000f0: e41c 2212 57a0 ef3f f19f b456 2393 973f
00000100: 021f 56e9 6f6d 103f 01a3 bee5 f66b 773f
00000110: ce32 ed9e c467 fa3f 771a cab0 db33 c43f
00000120: 8a9f 3bca 9ced ee3f 78df badd acf6 953f
00000130: a8ad 3540 2cdd 113f b658 a66a 63fd 803f
00000140: 514c 9890 1153 ff3f 3f7d fab2 08ee c43f
00000150: 9afa f16d 30d6 ee3f b533 af45 a846 953f
00000160: 86fd 63fc cad0 153f 24ef 82fe 5536 833f
00000170: f826 bdd3 7ad8 eb3f 451c b5f3 6ac5 c53f
00000180: 9117 c5e2 1224 f13f d101 bf25 cde0 973f
00000190: 04a2 d677 17db 083f 890d 6842 823b 703f
000001a0: eaba 1e68 2af1 db3f 0639 111d 8dc1 d93f
000001b0: 3261 b939 7c5e de3f e1eb e824 0ec0 d73f
000001c0: 6c86 3792 de4b e03f b93d 01fc 6f42 d83f
000001d0: 1654 fc16 dafa db3f 7677 6ac6 dc96 d93f
0.016844050923801278 3.6740148518544915 1.1695576426516976 0.6951241259842412 4.441484355638735 4.9685634734162845 8.813924472468686 7.2054012555848495
8.154323497167079 7.205407417600802 0.13412482287426777 0.2030461501009832 0.4373282190131561 0.2995634431948925 0.45424730260877516 0.38736258697782033
0.4854732776757365 0.3509058767340296 0.5591622147861578 0.29688612119773694 2.5656809599312567 2.930705387451778 3.7169574435703647 1.4135352752665464
4.9292247641427 1.9283187516392766 1.808629619465764 2.3851158208780188 1.220599174790931 0.18845136863074388 0.98832276860858 0.023022224585616816
6.266589692504809e-05 0.005718197291493921 1.6503339965885746 0.1578325856427971 0.9665054273473157 0.021448803933452137 6.81455858761367e-05 0.008295799915498097
1.957780422996411 0.16351422061141282 0.9636461398475433 0.020777348759839238 8.32198994409253e-05 0.009380981282781038 0.8701757560276908 0.17008721256044815
1.0713070734213697 0.023318486622658178 4.7408727350376655e-05 0.003963002038747895 0.4365945832059156 0.402438429246914 0.47451692235110265 0.37109712223508323
0.509261403636811 0.3790550194725842 0.4371857857198064 0.3998329103140955

running_mean_std.count f8 []
00000000: 0000 0020 00c0 6241
9830401.0

a2c_network.sigma f4 [8]
00000000: bffc 54bf dbc9 84bf 34c6 56bf 18e7 65bf
00000010: a01b 53bf 793f 8ebf f05c 4ebf 5d63 6fbf
-0.8319816 -1.0374101 -0.83896184 -0.89805746 -0.8246403 -1.111312 -0.8061056 -0.9351099

a2c_network.actor_mlp.0.weight f4 [256, 60]
00000000: ab12 543d c3f7 1dbe 17f5 813c 32ca 53bd
00000010: 36a7 033e 0fd8 fa3c 4aac 813e 04a3 b8bd
00000020: 1818 efbd 18c1 81bd 5e77 cb3d d6f2 35bd
00000030: 8b76 7c3e 8525 2abe 046a 17be 53d2 ecbd
00000040: 87a8 cbbd a17f 633c 279b 353d 4ed3 083e
00000050: 1cb2 6f3d a138 0cbe b758 c23d 255e aabd
00000060: 4938 6c3d 17e3 ebbc 4da4 bd3d dc7e 31bd
00000070: f428 a7bd 0e0e 713d 7417 503d ad95 2fbc
00000080: a311 153d c1d7 193d 021d 96bd 63df d6bc
00000090: a3d3 af3d b319 5ebd ce05 e7bc 3947 1abe
000000a0: 66f8 a4bd ce0f 263c 8afd 943c d533 b0bd
000000b0: 9d31 753b 0418 89bd 65a7 07be 066c d1bc
000000c0: 5e56 d9bd db89 81bd dc0c 143e e548 083d
000000d0: 9d54 193d 85f7 e6bd 4a4c 23bd 9e8e 68bd
000000e0: 1fc7 88bc 1f68 e8bd 4af5 85bd 51be c0bc
000000f0: 031e 22bc e64a f3bd c4df ff3c 40a6 8dbc
00000100: 43c2 0cbe 8f7a bbbd 59c4 34bd d913 19bd
00000110: c67a 6c3e 2aa8 b8bd 652e 383e 1b6a f93d
00000120: 54b0 e9bc 786b a13d daf5 6f3d e9ee 603c
00000130: fb7b 25be f569 4bbe 6e31 903d 739a 573c
00000140: 84d3 cd3d dc85 c4bd 4183 7b3c 0a39 ccbd
00000150: 3ee5 81bd b47f 0dba baf8 063e f4d9 c03d
00000160: 4f74 583d 43f1 bbbd 69be 213d a27b 30bd
00000170: 40ce 1abd a98e 00be ba52 593d c983 0dbe
00000180: 1acd de3b 3bfb 39bd bdfa 0d3d eb1c a6bd
00000190: 1730 713d fe02 183e 9968 923c 15f3 91bd
000001a0: 695d 8c3d 8535 02be 5092 a8bd 44bf 1a3e
000001b0: cd35 dbbc 02a9 b8bc 45d1 c8bd 7f79 933a
000001c0: dbb7 053b eb07 233d 0a65 2ebd 1359 08bd
000001d0: ba3f c6bc 301a f63d e851 933d 94b4 d3bd
000001e0: 1c66 8a3d 4bb2 c53d 2a8b 793d ac76 debc
000001f0: 3944 cd3d 540b 443d a7c1 44bc 14fe f9bc
00000200: 4aa1 0bbe c074 b13c ed6e 203d 7d1e ddbc
00000210: 75b6 313e 8313 043e 2973 71bc 8d2c e93a
00000220: 5773 9ebc de9b f1bc ec37 3c3d a8b8 363c
00000230: c149 34be 790c 92bd c8af d43d f91c c13d
00000240: 0813 4a3d cdda 54bb cfca 83bd 0e5e adbd
00000250: 24a0 cebb 9043 a43c 43b8 4d3c 78d1 1d3c
00000260: f689 cbbd 90d3 89bd 41f2 3dbd 3876 9b3d
00000270: 3c5c 7dba d423 23bd 3f70 613d c484 7d3d
00000280: e3a5 33bc 943c 833d ff8b 1fbd e7f5 d13a
00000290: a3eb bdbd 66f4 693d 69e3 473d 0577 5a3d
000002a0: 9077 75bd a655 21be dd0b a8bd 085a db3b
000002b0: 2742 843c 844d 993d 2df7 933c a140 af3d
000002c0: b755 4c3d c2a1 14bc 83b3 25bd 067b 4fbd
000002d0: ea51 c13d b8b5 fcbc da7d f23c 73dc b4bd
000002e0: b39f 07bc 9e3d 28be 51cf bebd c711 4d3c
000002f0: 0367 ecbd 2a47 e13d c4eb aabd e6bc fbbd
00000300: 6095 bb3d 6726 24be 22b4 8ebd 695f 35be
00000310: 074f 3f3e c0ae 96bd 6988 0c3e 0b82 da3d
00000320: 636c 4f3c 469c 82be d30e 923d 92af 81bd
00000330: f3c4 c73d 39e7 053d 3d78 e6bd d647 8c3d
00000340: bd34 8d3d 5408 e9bd 5bf8 863d 4df7 acbd
00000350: daec 2d3e f02a 123d 65d6 d83d 6184 66bd
00000360: 4089 afbd 207b 1f3d 2a40 8a3d 73b2 b2bd
00000370: 1d30 4fbd 1092 12bd bd4b 32bc b0a3 45bd
00000380: ad80 6abd 8643 22be 7fe5 88bd 7935 003e
00000390: 07fa e13d ae67 3fbd 795f 533c 4bf3 87bd
000003a0: 0344 26be e60b 8fbd 67c8 8a3d 19a5 c8bd
000003b0: 1986 79bd b61c 19ba 5068 aebd dc24 663b
000003c0: e491 fbbc cc7a c63b 1def e83c 213a 91bd
000003d0: 01bd 21be 682d cc3d 6288 53bd c775 2e3c
000003e0: 3ce1 c5bd 1c7a 0b3d f362 7d3e 8eb0 253e
000003f0: 85d9 e6bd a750 10bc 04c9 ba3d be2e bb3b
0.051775616 -0.15426545 0.015863938 -0.0517065 0.12856755 0.030620603 0.2532676 -0.09015468
-0.116745174 -0.06335658 0.09934877 -0.04442104 0.24654596 -0.16615875 -0.14786536 -0.11563554
-0.099442534 0.01388541 0.044337418 0.13361856 0.058519468 -0.13693477 0.09489577 -0.08318738
0.057670865 -0.028794808 0.092598535 -0.043333873 -0.08162108 0.058851294 0.050803617 -0.010716838
0.036393773 0.037559275 -0.073297516 -0.026229566 0.085852884 -0.054223727 -0.02820101 -0.15066232
-0.08055191 0.010135604 0.018187303 -0.08603636 0.0037413605 -0.06694034 -0.1324745 -0.025564205
-0.10612176 -0.06325122 0.1445803 0.033272643 0.03743421 -0.11277679 -0.039867677 -0.056776635
-0.01669651 -0.113479845 -0.06540926 -0.02352825 -0.009894851 -0.1187952 0.03123463 -0.017291188
-0.1374598 -0.091542356 -0.044132564 -0.037372444 0.2309371 -0.0901645 0.17986448 0.12178441
-0.028526463 0.07881826 0.05858407 0.013728836 -0.16160576 -0.19864638 0.07040678 0.013159382
0.10050109 -0.09595844 0.015351118 -0.09971817 -0.063425526 -0.00053977524 0.13180819 0.09416571
0.052845296 -0.091768764 0.03948823 -0.043086655 -0.03779435 -0.1255442 0.05305741 -0.13819803
0.0067993524 -0.045405608 0.03466295 -0.081109844 0.058883753 0.14844891 0.017872142 -0.07126442
0.06853754 -0.12715729 -0.08231032 0.15112025 -0.026759053 -0.022541527 -0.0980554 0.0011251419
0.0020403776 0.039802473 -0.042576827 -0.033288073 -0.024200309 0.120167136 0.07193357 -0.10337177
0.06757757 0.09653147 0.060923733 -0.027156197 0.10022778 0.047862366 -0.012009061 -0.030516662
-0.13635746 0.021662116 0.039168287 -0.026992077 0.17354758 0.12898068 -0.014736929 0.0017789766
-0.019342108 -0.029493269 0.04595177 0.011152424 -0.1760626 -0.07131285 0.1038509 0.09429354
0.049334556 -0.0032479048 -0.06435167 -0.08465205 -0.0063057113 0.020051748 0.012556138 0.009632461
-0.09938423 -0.067298055 -0.04637361 0.07590908 -0.0009664928 -0.03982909 0.055038687 0.061894193
-0.010964843 0.06408039 -0.03895187 0.0016018719 -0.0927346 0.057117842 0.04880086 0.053336162
-0.059928477 -0.15755329 -0.08205388 0.006694082 0.016144825 0.07485488 0.018062199 0.08557249
0.04988643 -0.009071769 -0.0404544 -0.050654434 0.09439452 -0.030848369 0.029601026 -0.0883111
-0.008277821 -0.16429755 -0.09316886 0.0125164455 -0.115430854 0.109999016 -0.0834575 -0.12291889
0.091593504 -0.16030274 -0.06967951 -0.17712177 0.1868249 -0.0735755 0.13723911 0.10669335
0.012660119 -0.25509852 0.07131734 -0.063323155 0.09754362 0.032691214 -0.112534024 0.06849639
0.06894825 -0.113785416 0.06590339 -0.084456064 0.16984883 0.03568548 0.105877675 -0.05627859
-0.085711 0.03893578 0.067505196 -0.08725443 -0.050582994 -0.035783827 -0.010882315 -0.048251808
-0.05725162 -0.1584607 -0.06684398 0.12520398 0.11034017 -0.046729736 0.01290118 -0.06638201
-0.16236882 -0.06984691 0.06776505 -0.09797115 -0.0609189 -0.0005840765 -0.0851599 0.0035117185
-0.030709215 0.006057119 0.02843433 -0.07091165 -0.15794756 0.09969598 -0.051643737 0.0106481975
-0.09662101 0.034052 0.24744777 0.16180632 -0.11271957 -0.0088082915 0.09120372 0.005712359

a2c_network.actor_mlp.0.bias f4 [256]
00000000: 8308 81bc a04a 11bd a130 e0bc 5987 d93c
00000010: 3c1b eebb 5c28 d6bc 79d0 f2bb dfd9 7ebd
00000020: 95a8 81bd 1bee d7bc dc34 b53c 34a9 f83b
00000030: 6618 71bc 3ae8 b8bc fe42 7fbd ecbc dabc
00000040: abaf 6bbd 220f 313d cfb0 52bd eebd 093d
00000050: 69f8 6ebd 827a 46bd 6ae4 6c3c 063e e73c
00000060: e464 42bd 1689 d2bc 25cb c33c 3d35 923d
00000070: 9481 60bd 1ed3 9d3d 09f9 3fbc 50ce 183d
00000080: 02b8 b7bc e9f6 62bd c05e b23c 9792 663d
00000090: 2399 713c c5a3 47bd d608 1ebd fc9e 513d
000000a0: 704f 2b3d cf09 a13d 4412 febc 085e 5f3d
000000b0: 12a7 37bb 5362 bebc d84f 373c 9dd2 003d
000000c0: 8ed1 f0bc 599c 37bd 4ae8 59bc e101 79bd
000000d0: 4184 b9bb f4cb 383d f6a7 773d 8a3c 4b3d
000000e0: edcd 0cbd 0aa0 c93c bd37 df3c 725c 283d
000000f0: b23a 2d3d 3005 293d 0aeb d4bc 704b 44bd
00000100: 3323 90bd 2fd7 71bc da56 93bd 43cc 5cbc
00000110: b799 343d 57c3 803c 675f 8bbd 602c 6fba
00000120: ea5c 8d3d bb13 873c 322b 00bc 7f65 acbc
00000130: 843c 36bd 8b69 b73d d94c ffbb acb5 08bd
00000140: cb40 88bc d43a 84bc ee66 50bd 114c a4bc
00000150: c2be b1bc f7da febd ebf4 24bb d932 8fbb
00000160: 801c b73c bb4d 65bc 7e87 813d 194b 133d
00000170: fd5d 41bd f4c3 f33b 55e3 dbbb f2dc f13c
00000180: 10f8 4cbd 16db 56bd 0a0d b83d 93a0 63bb
00000190: df49 a0bd 1e67 be3d 7d42 35bd 98fd 923b
000001a0: 0c99 dcbc 626d 7d3c 70c9 28bd 0325 8dbd
000001b0: d1bc a1bc ae4e 69bd ef46 c8bc 9ac2 7cbc
000001c0: dba4 a2bc 7a71 8c3c d9cb fe3c 65d9 6abd
000001d0: 8128 9abc 798c 5cbd 6e52 753c f936 49ba
000001e0: 5429 473b eb2e 333d b3d3 3f3d 83d9 33bb
000001f0: 737f 58bc 89b8 2a3d cd75 413d b705 373c
00000200: 5af4 353b 77eb 51bd 09b4 c6bb be00 423c
00000210: c078 143c dcb7 943c 3e27 43bc 197e 20bc
00000220: 4f4c e2bd e637 5ebd 28a4 03bd e3e8 14be
00000230: caef 7ebb 06b7 3b3c c4c9 513a 5730 3b3d
00000240: 7144 153c 1dbd 263d 1d4b 993c 877b e93c
00000250: 326d 4d3c f5c6 ed3c 99ee a5bd 7e91 383b
00000260: fea9 3b3d bf24 b3bc 6638 cd3c 7a5b 83bb
00000270: e86b 183c 63ba 303d 62d9 c03a 1e99 a03c
00000280: 980d 733d 8d73 653d dfe9 a5bd d728 83bd
00000290: a086 a5bc bec8 04bc 4799 bebc 587f 62bc
000002a0: ef44 8b38 73fa 90bc 7b98 9c3c bbb8 dbbc
000002b0: 5ebe c13d 0167 8a3c 7723 553c 3f2a 1dbd
000002c0: a915 223c 8078 a43b 380e afbb 60fc 79bd
000002d0: af00 a93d 7046 32bd a91e bebd 083f a8bd
000002e0: 6dae 31bc 3c5d 0a3d 023e cc3c 8e41 513b
000002f0: 9ff9 d73a e399 15bd 34e3 3e3b a065 80bd
00000300: 7bf1 80bd 47c2 8cbc fa25 a9bd 695a c13d
00000310: 0310 333c 9a1d 3abd 4702 2ebd d1bf f7bc
00000320: 9f19 673a 4b2e edbc 5b8e 0b3b 41be 0ebd
00000330: d95d 82bd 8bc1 473c 58e4 e5bc f129 cc3b
00000340: c2e9 e0bc 5f38 ae3d 33df d03b 6430 363d
00000350: b307 1b3c a247 a0bc d91d aabc 7158 4abd
00000360: 5835 75bd 00c9 033c ca3e 59bd 9ade 59bc
00000370: 73c2 53bd 9830 e1bc 9bd4 563d 3095 e83a
00000380: ff82 e73d c330 3f3b c56b c43d 6b9a a5bb
00000390: f97f 0ebd a002 c9bc 61c1 e23c a038 89bc
000003a0: 2f34 453d 6ff8 b6bc 1db5 7e3d fafc 8e3a
000003b0: 1527 1d3d 24c7 46bc 74c5 f3bc a1d8 283c
000003c0: b944 213c 9ba2 eeb8 9639 273d 9292 183d
000003d0: 8d06 c0bc d183 df3c e275 873d 7298 b0bd
000003e0: 21a1 593b 19ce 81bd 31b8 0a3c 34d9 5cbc
000003f0: c67c 853c 486e 663d 1a7b f53c 7ff0 34bd
-0.015751129 -0.03547156 -0.027366938 0.026553797 -0.00726643 -0.026142292 -0.007410106 -0.062219497
-0.063309826 -0.026358655 0.022119932 0.00758853 -0.01471529 -0.022571672 -0.062319748 -0.026701413
-0.057540577 0.043227322 -0.05143815 0.033628397 -0.05834237 -0.048456676 0.014458755 0.028227817
-0.047459498 -0.025700133 0.023900578 0.07139061 -0.054811075 0.07706283 -0.011717089 0.03730613
-0.022426609 -0.055411253 0.021773696 0.056292143 0.014745983 -0.048740167 -0.038582645 0.05117701
0.041823804 0.07863199 -0.03101457 0.054533035 -0.0028023166 -0.023240244 0.01118847 0.031450856
-0.029396798 -0.04482684 -0.013300011 -0.060792807 -0.005661518 0.04511638 0.060462914 0.04961828
-0.034376074 0.024612445 0.027248258 0.041103788 0.042292304 0.041264713 -0.025990982 -0.047923505
-0.07037964 -0.014760776 -0.071943 -0.013476434 0.044091906 0.015718145 -0.06805306 -0.0009123739
0.069024876 0.0164889 -0.007822799 -0.02104449 -0.044491306 0.089556776 -0.0077911434 -0.03337638
-0.016632458 -0.016141333 -0.05087941 -0.020055803 -0.021697406 -0.12444108 -0.0025170397 -0.004370075
0.022352457 -0.013995583 0.06324671 0.03596029 -0.047208775 0.007439131 -0.0067104497 0.0295243
-0.05004126 -0.05245503 0.08986862 -0.003473316 -0.0782659 0.09297012 -0.04425286 0.004485797
-0.026928447 0.015467973 -0.04120773 -0.06891825 -0.019743355 -0.0569598 -0.024447886 -0.015427256
-0.019854 0.017143954 0.031103062 -0.05733623 -0.018818142 -0.053844903 0.014973266 -0.0007675733
0.0030389624 0.043745916 0.04683275 -0.002744288 -0.01321398 0.041679893 0.047231484 0.011170796
0.0027764053 -0.051249947 -0.0060639423 0.011840997 0.009061992 0.018154077 -0.011911212 -0.009795689
-0.11049711 -0.054252528 -0.032138973 -0.14541964 -0.003890025 0.01145721 0.00080027827 0.045700397
0.009110556 0.040707696 0.018712575 0.028501285 0.012538241 0.029025534 -0.081021495 0.0028162892
0.045816414 -0.021868108 0.025051307 -0.0040087076 0.009303071 0.043146502 0.0014713223 0.019604262
0.059339136 0.0560184 -0.08101248 -0.06404274 -0.020205796 -0.008104501 -0.023266448 -0.013824306
6.6408764e-05 -0.017697548 0.019115677 -0.026821485 0.09460138 0.01689482 0.013008944 -0.038370367
0.0098928595 0.0050192475 -0.005342271 -0.0610317 0.082520835 -0.043524206 -0.09283192 -0.08215147
-0.010844809 0.03378032 0.024931911 0.0031929943 0.0016477591 -0.03652371 0.0029127123 -0.062693834
-0.06296059 -0.017182482 -0.082591966 0.094410725 0.01092911 -0.045438386 -0.04248264 -0.030242832
0.00088157685 -0.028952738 0.0021294567 -0.03484941 -0.06365556 0.01219214 -0.028062984 0.0062305857
-0.027455214 0.08506846 0.0063742637 0.044479743 0.009462285 -0.019565407 -0.020766186 -0.04940075
-0.059865326 0.008043528 -0.053038396 -0.013297701 -0.051699113 -0.027488992 0.05244885 0.0017744657
0.113042824 0.0029173351 0.09590868 -0.0050538084 -0.034790013 -0.024537385 0.0276801 -0.016750634
0.04814547 -0.02233526 0.06218444 0.0010909133 0.03836735 -0.01213244 -0.029757239 0.010305555
0.009843045 -0.00011379012 0.040826403 0.037249155 -0.023440624 0.027284535 0.06614281 -0.08622827
0.0033207613 -0.06338138 0.008466766 -0.01347952 0.016294848 0.056257516 0.029965926 -0.044174667

a2c_network.actor_mlp.2.weight f4 [128, 256]
00000000: b9bb 0fbd 93c0 743d 1aa9 4cbd b7e3 48bd
00000010: 1aa9 753c 6df3 5c3d 5f25 c1bc 2695 943d
00000020: 3552 aebc f75f 923d aad8 8d3d ca12 82bd
00000030: 5763 95bd 1ed4 e53c 5db8 1fbb f011 0a3d
00000040: 11d6 6abd c4e3 993d abdf 97bc 2c04 153c
00000050: af84 36bc 607b aa3a b6de 98bd 94d2 54bc
00000060: ed8a 56bc fa9d 3b3d 47f3 ceba 03e9 e4bd
00000070: 4c44 f13c 000a cebd d016 e73c 3335 65bd
00000080: 97a4 7e3d 4b6e a0bc b295 753d 4bf0 ad3c
00000090: 35cd 9cbd 22a4 56bd 5e25 b8bc cab5 96bd
000000a0: a5ff bc3c ce35 b5bb 7cb4 afbc b942 513d
000000b0: 27e0 c6bd c7f9 26bd ceab 0a3d 4ee0 323d
000000c0: 7a77 aebc d497 c0bc 96dc b53d 1b3e 883d
000000d0: 6d5d 0a3d e51c 953c c8d8 cbbd 2a64 993c
000000e0: c16b 543d 6cda e3bd 68ea 16bd 82f2 37be
000000f0: ce7b 34bd 67d8 fdbc f3c3 06bd 3992 623d
00000100: da5a 013d 7132 183d c94b 13bc 7d63 37bd
00000110: b9d5 4a3c 60fa b5bd d0c5 433d cf5c 84bd
00000120: bb1d 8bbd 4556 a4bc 691b 15bd 2102 c43d
00000130: b8aa 2a3d 86eb 19bd 2bdd 4bbd 3bf9 63bb
00000140: a069 b23d 1107 79bd fa0d b93c 985a 683d
00000150: 0a3c 6f3d 663e 52bc 582f 003b 8bbf d1bb
00000160: 2c15 92bd bf88 85bd 6fe6 18bd ef65 36bd
00000170: 45fb 413d fe68 103c fc92 a13d 418b ddbc
00000180: e0aa dd3c 63e1 803c 8d06 ce3c fb9d a339
00000190: 60d5 3dbb 1472 de3b 20aa 3a3d 402a d13c
000001a0: 78de 7a3c 97fa 48bd f622 833c cf11 483d
000001b0: 5c58 73bc b051 d5bc 51fa 213a da39 c6bb
000001c0: 3fb1 ab3c 1fc6 403d c437 89bd 7a12 3abd
000001d0: cf58 853c 7b75 573c db7f 6cbd 6e58 97ba
000001e0: 0eae db3c bb7d 32bd 7bf6 58bc 25a6 393c
000001f0: 89e2 c63d ae06 c6bd 9d82 e6bc 7701 c6bd
00000200: 7734 953d 39ee 0abd c5d5 453d 70c5 103c
00000210: e1aa cbbc 896c 773c e702 903c 9034 f7bc
00000220: 512e 15bd 2624 a63d 8213 0e3e 04d6 7dbb
00000230: 6799 88bd ec7b 4abd d2e0 2bbd 370d c3bd
00000240: 5b32 b2bc f970 2fbd 75df 9a3c 5bfb 23bd
00000250: 10a9 f03c 4d97 cdbc 69c8 e03c d0b8 14bd
00000260: 9c05 acba 24c4 833d 2643 cabc 6453 9a3d
00000270: f419 94bd 1217 45bd cc7c 91bd 399a adbd
00000280: d9ec f0bd 170c 2a3d d9dd ecbc e747 563d
00000290: 7b55 643d 32e3 fc3c 6dbc cdbc bcd3 a13d
000002a0: d42c a43d eee6 413c 12e9 2ebb f3e2 793c
000002b0: 4aec 163d 880d 58bc bdb4 bb3c 1874 41bd
000002c0: d2a2 d3bc 3fd0 32bd 73a1 a1bd e74f 4e3d
000002d0: 2d8b 85bb 5004 37bd 5cad 3fbc 89fe b03b
000002e0: d284 96bd ccf7 223c 9e0f ad3d fe8f 443b
000002f0: 60be 9ebc 0ef2 09bd 2e06 9ebd ab2d 153d
00000300: e61a dfbb dd6c 823d db72 44bd 7d16 b83d
00000310: 792a a1b9 15ac f23c 81e5 923d e038 e5bc
00000320: 2119 c83d 7ba4 763d 3ec4 0a3d 3367 1a3d
00000330: 76b2 a5bd 24d7 4cbd 22b6 a33c 3441 0e3d
00000340: dc39 6d3d c164 88b9 dc9f 853d bff7 dfbd
00000350: 8ce2 553c b8b3 03bd 88a3 09bb bfc9 293d
00000360: abe3 993d beb4 1a3c e809 8b3d 1147 04bd
00000370: 9692 d1bb 9202 823d 0b05 363d cb08 183d
00000380: bf23 36bd 866b 983b 5d17 f4bc 213d 48b7
00000390: d7ff 3bbd 008a 17bd d604 c33c 1400 eb3d
000003a0: b185 5d3d d419 0d3d 9580 023d 8b8b ad3d
000003b0: 7456 8dbd bc8b c93b a957 843c 5fbd cf3d
000003c0: 7342 31bc 3eac 85bc 219f 93bc ff54 97bd
000003d0: 207e 2b3e 67d7 8bbd 3fb4 b0bc ef72 b93c
000003e0: 2f3c e4bd 7292 a9bd 373f 2f3d 8398 b43d
000003f0: 47d2 fbbc 2059 683d 6017 613d e9e4 2c3c
-0.035091136 0.059753966 -0.049965955 -0.04904529 0.01499393 0.053943086 -0.02357739 0.0725501
-0.021279434 0.0714721 0.06926091 -0.0635124 -0.07294338 0.028055247 -0.0024371364 0.033708513
-0.057333056 0.07514146 -0.01853927 0.009095233 -0.011140033 0.0013006739 -0.07464354 -0.012989659
-0.013094646 0.045804955 -0.0015789055 -0.11177256 0.029451512 -0.10060501 0.02820912 -0.055958938
0.062168684 -0.019583842 0.059957214 0.021232745 -0.07656328 -0.052402623 -0.022478756 -0.07358892
0.02307112 -0.0055300957 -0.021448366 0.051089022 -0.097107224 -0.04076555 0.033855252 0.043670945
-0.021297205 -0.023509897 0.08879964 0.06652471 0.033780504 0.018202255 -0.09953457 0.01872452
0.051860575 -0.11125645 -0.03684464 -0.17963603 -0.04406338 -0.030986978 -0.032901715 0.05531523
0.031580783 0.03715748 -0.008990237 -0.044772614 0.012380057 -0.08885646 0.04779607 -0.06463014
-0.0679278 -0.020060668 -0.036403093 0.095707186 0.041666716 -0.03757813 -0.04977147 -0.0034786004
0.087115526 -0.060797755 0.022589672 0.056727022 0.058406867 -0.01283226 0.001955947 -0.0064010075
-0.071329445 -0.06520223 -0.037329134 -0.044530805 0.04735877 0.008814095 0.07889363 -0.02704394
0.027059019 0.015732473 0.025149608 0.00031207487 -0.0028966293 0.0067885015 0.0455724 0.025532842
0.01531183 -0.049067106 0.016007882 0.04884511 -0.0148526095 -0.026039928 0.00061789626 -0.006049377
0.020958541 0.047063943 -0.067000896 -0.045427777 0.016277699 0.013150568 -0.05773912 -0.001154674
0.026816394 -0.043576937 -0.013242359 0.011331116 0.09711177 -0.09669243 -0.028138453 -0.09668248
0.072853975 -0.033918593 0.04829957 0.008836135 -0.024861755 0.01510156 0.017579509 -0.030176431
-0.036421124 0.081123635 0.13874629 -0.00387323 -0.06669884 -0.049434587 -0.041962452 -0.09524005
-0.021752527 -0.04283235 0.01890538 -0.040034633 0.02937749 -0.02509656 0.027439313 -0.036309063
-0.001312423 0.06433895 -0.024690222 0.07535437 -0.07231513 -0.048117705 -0.07103881 -0.08476681
-0.11763925 0.041515436 -0.028914379 0.052314665 0.055745583 0.030870054 -0.025114262 0.07901713
0.08016363 0.011834843 -0.0026689214 0.015251863 0.036846437 -0.01318682 0.022913331 -0.047229856
-0.025834475 -0.04365563 -0.07892122 0.05036917 -0.004075429 -0.044681847 -0.011699047 0.0054014367
-0.07349552 0.009946775 0.08450244 0.0029993053 -0.019377887 -0.033678107 -0.077160224 0.036420505
-0.0068086265 0.0636842 -0.047961097 0.08988664 -0.00030739958 0.02962307 0.07172681 -0.027981222
0.09770418 0.060215455 0.033878557 0.037696075 -0.08090679 -0.05000986 0.019984309 0.03473015
0.057916507 -0.0002601501 0.065246314 -0.10935926 0.013054501 -0.032153815 -0.0021002013 0.041452166
0.07514127 0.009442506 0.06788999 -0.032294337 -0.0063956482 0.063481465 0.044438403 0.03711776
-0.044467684 0.0046514897 -0.029796297 -1.1935162e-05 -0.045898285 -0.03699684 0.023806017 0.11474624
0.054082576 0.03444846 0.031860907 0.08473881 -0.06901255 0.006150691 0.01615508 0.101435415
-0.010819065 -0.016317483 -0.018020215 -0.073892586 0.16747332 -0.06828194 -0.021570323 0.022637812
-0.111442916 -0.08279885 0.042784896 0.08818152 -0.030739916 0.05672562 0.054953933 0.010552623

a2c_network.actor_mlp.2.bias f4 [128]
00000000: 2278 8a3c 2d67 32bb 7d5a 963c db62 44bd
00000010: f072 cdbd 52dd 1f3d 473b a23c 4e17 6eba
00000020: f0bb 9d3b fb09 873b 9efd 013d 7784 2b3d
00000030: a012 dc3b a2e6 74bc 4b08 883d 2e73 6fbd
00000040: 4ccc 4fbc 55a4 09bc 344c 81bd 55e5 a23b
00000050: 6c4c 0fbd 1e5b 71bc bd5f b9bb ed21 47bc
00000060: ba15 28bd 11bd 6fbc 9090 b3bb 3374 63bd
00000070: 17f6 6abc ecf6 003d 8a2c 9abd 4547 f8bc
00000080: d9c5 433d bbb9 113c f8d3 65bc f98e d5bc
00000090: 382c debd cb4f babc 3f27 5dbd 51ec 59bd
000000a0: de0f 0a3b ba3e 823c 7140 923d 177d c33c
000000b0: 7239 70bd 4356 0fbc b48a 21bd 3081 95bd
000000c0: dc21 d23b fdc2 08bd 4f78 d63d efe0 85bc
000000d0: 281d e8bd afa4 623d 3046 00bd 99f5 923c
000000e0: 0ad0 233d 820c a23c 0bce 6e3c 5810 58bb
000000f0: b115 173c 89db 853d 41e3 a7bd b3ce 103d
00000100: 24bd e93c aa91 383a 816d 68bd 68b4 2e3d
00000110: 90f6 373c 5028 033d 75bd 893c 1c48 1a3d
00000120: d1b2 72bd 72d3 3d3d a186 41bd d361 f23c
00000130: 3b0e 173c 8e83 0c3c 87d3 813c 7599 7cbd
00000140: 1282 3a3b ead1 26bd f2ca 37bb bf77 803d
00000150: 6444 093d 9b92 173c 9e22 dcbc 9065 8abd
00000160: cfda e4bb 0b50 943c 45d6 7c3c e54a c5bb
00000170: 75b9 0cbd 97c9 c03b ee47 19bd d6d9 613c
00000180: a456 8d3d 6b45 2abc d040 1d3c 5aa1 ad3b
00000190: 0f35 adbb 82d8 78bc 71e1 c03b 11b7 063d
000001a0: 3a40 eb3b c085 3b3c b298 64bc f3f2 dcba
000001b0: 7eb7 213d b7e1 e3bd d7ea acbd e756 453d
000001c0: 7aa1 70bd 0eeb 4f3c 0f40 2a3d cbc0 103c
000001d0: 0d56 153c 2c76 f53c ea20 203c 8f4d efbc
000001e0: 7744 ed3c ce66 0b3d 6a85 fb3c 7a9e b13c
000001f0: b994 5fbd 43f9 593c 9188 ce3c c8a5 9ebd
0.016902987 -0.0027222142 0.018353695 -0.04794584 -0.10031688 0.039029427 0.019803656 -0.0009082452
0.0048136637 0.004121063 0.03173601 0.041874375 0.0067160875 -0.014947565 0.06642207 -0.058459453
-0.0126829855 -0.008400996 -0.06313363 0.004971186 -0.03498499 -0.014731197 -0.005657165 -0.012154085
-0.041036345 -0.014632479 -0.0054798797 -0.055530738 -0.014340899 0.031485483 -0.075280264 -0.030307421
0.047796104 0.008894379 -0.014027588 -0.026069151 -0.10848278 -0.022743126 -0.053992506 -0.053203885
0.0021066586 0.015899051 0.071411975 0.023863358 -0.058648534 -0.008748594 -0.03943892 -0.07300031
0.0064127278 -0.03338908 0.10472166 -0.016342608 -0.11333686 0.055332836 -0.031316936 0.017939376
0.039993323 0.019781355 0.014575492 -0.0032968726 0.00922148 0.06536014 -0.08197642 0.035353374
0.028532572 0.00070407486 -0.056745056 0.042652518 0.011228219 0.032020867 0.016813973 0.037666425
-0.059252564 0.046344228 -0.047247533 0.029587662 0.009219701 0.008576287 0.015847934 -0.061669786
0.0028458876 -0.040727533 -0.0028044549 0.0627284 0.033512488 0.009251262 -0.026871976 -0.06757653
-0.006984092 0.018104574 0.015431945 -0.006020891 -0.034356553 0.0058834064 -0.037422113 0.013784846
0.06901291 -0.010392527 0.009597972 0.0052987756 -0.005285866 -0.015188338 0.0058862497 0.03288943
0.0071792873 0.011445463 -0.013952421 -0.0016857072 0.039481632 -0.11127036 -0.0844323 0.04817858
-0.058747746 0.012690319 0.041564997 0.008835028 0.009114754 0.029963575 0.009773472 -0.029211788
0.02896331 0.03403359 0.030703265 0.021682013 -0.054585192 0.0133040575 0.025211604 -0.07746464

a2c_network.actor_mlp.4.weight f4 [64, 128]
00000000: 3d5a 483a 68a5 0c3d bce2 be3c 44ef 6dbd
00000010: 5412 2cbc c2ad dc3d 4849 1a3d 63b7 963d
00000020: b75b 7fbd dbf6 233c f036 fbbc 50a1 5cbd
00000030: f7e6 3c3c 808a cabc e966 c0bd f85e fdbc
00000040: 9e31 e5bd a78a 08bc 3291 48bd 9882 7a3d
00000050: 676b 43bd 33f0 6ebd db8e 46bd 8d5b 66bd
00000060: 761f e03d 7d25 a53d 6e66 82bd 3135 42bc
00000070: dd67 a6bd 6a69 db3a 23aa 75bc 12aa 96bd
00000080: 57b2 a73d 98b3 a63d b759 bdbd 74a0 503c
00000090: 6a15 d43d e594 2fbd 1b2f c93d e030 d0bd
000000a0: fa5c 6ebc 57da 47bd 0b0b d6bd 4ff3 dabb
000000b0: 91de 43bd 9588 ae3c d855 913c b816 913d
000000c0: 43d2 293c 7bf4 8d3d 7cf1 27bd f44c c73d
000000d0: 891d 913d 0201 863b 57bd d7bc d9b8 9c3d
000000e0: dc4a b83d 688c 72bd 3151 0f3d d4eb 0dbd
000000f0: 180d a3bc 8a34 193c 8e89 053d a72e 16bd
00000100: a9b9 a9bc 2181 88bd 3778 203e ac2d 773a
00000110: 1394 b53d 34e7 a93d 54a7 fabd 7afb a43d
00000120: 0ed7 d8bd fa82 dcbc e88d 65bc fecd d83d
00000130: 2ef2 6fbd e237 a43c 4ce5 6a3d 6af0 01bd
00000140: d7bc 983d 247f 873a 5155 94bd 49d0 d3bc
00000150: 8cdf 813d 3b5f 19be f76f 883d 21ff 24bc
00000160: 8f6b 623d fd09 163d 37e9 33bd 3fd6 a43c
00000170: 076a 323d 51e8 e3bd e513 2ebe 9c5e 173d
00000180: dd84 783c 0d5b 56bd cde5 84bd 0b5c 97bc
00000190: 4881 b73c cbcf 0b3d 0a5f 333d 492c aebd
000001a0: 3edb 83bd 55ac 033e e7aa 983d 4cdf 33bb
000001b0: 229d b53a 5f9d 1f3c 07ec 32bd 170d 1c3e
000001c0: a9ba bbbd 463d 9b3d 84c0 113d 5065 f13c
000001d0: fadf 863c 0129 d9bc e44a d73b 6360 d3bc
000001e0: 8108 943d 3807 95bd 9a88 a83d cf8d 21bc
000001f0: 8e21 983d b1d3 7f3d 8758 433d f8b4 01bd
00000200: 283c 76bd 2fa3 943d 0452 e23c 8469 0bbe
00000210: 8d27 89bc 4832 34bd b864 31bd 37b7 c43d
00000220: 3797 1cbd cb60 24bd 314a eebc f1df 3dbd
00000230: 715b 723d 2207 5abd 69d4 81bd 3455 9bbd
00000240: 8cd7 bfbd 3394 ca3c fd26 11bd 92af 2c3d
00000250: a3c7 05bc dea7 9abc 0d60 263d 48ee 1e3d
00000260: f86f 0b3e 9676 3abd 8d6b 95bd 2758 b0bc
00000270: ec16 153d f233 15bd 0b8e 3cbb 8298 b63d
00000280: 7e2f 073c ad41 cb3c f887 5a3d d86b 9fbc
00000290: b921 bdbb 650b 923d de2b 1cbd 8bc9 c83b
000002a0: eb57 033b 00aa 183d 74af 94bd 975b 4fbc
000002b0: e4f5 513c f10a b6bd f4f3 973c 3aac cc3d
000002c0: 3db5 523d e954 833d e058 2f3d 3f00 13bd
000002d0: 6451 7cbd 12e0 50bd ba6b e03d 0f48 e03c
000002e0: fc33 903d e8d4 e9bd 9e09 933d e547 d93d
000002f0: 7a2a a7bd 051f 90bd da49 203d f09f d4bd
00000300: ba06 39bd 1f45 e0bc 6636 47bc 084a 8fbd
00000310: 4ac0 aebd 8759 e1bd b60f b3bd 9293 d7bd
00000320: ce3e 45bd baec fcbb 65a4 07be 7731 763d
00000330: 4e75 803c 836a 5cbd 47d3 e0bb 8315 91bd
00000340: b281 983d 5f0a 4e3d a030 713c ca88 e6bc
00000350: 878d 8d3d bb15 1abd 6e77 243b c919 cebc
00000360: d091 b13c 5af6 7b3d eabf 72bd 1d80 babd
00000370: a50c 1dbd bc94 973c f79c 54bd 7f01 d0bd
00000380: 39c6 0bbd f3b8 453b bb86 7c3d 1aab b9bc
00000390: a066 63bd e66e 0ebd e03a f5bb ab53 a4bd
000003a0: bc0e c13d 3039 ef3c 2dc4 503d 47cb f33c
000003b0: a2ca 9d3c c4ff babd 4a6c 17be b672 bb3d
000003c0: d76f 413b 15da ad3b 897a 603d c447 ca3b
000003d0: cd52 d43d 638c 253d e1a1 eebd 9974 c1bd
000003e0: f65b c4bd 2628 323d ed05 963c 55c5 9eb9
000003f0: 173b 093b 6dc5 923d 8abe 3d3c 19d0 c13d
0.0007642841 0.03433743 0.023301475 -0.05808951 -0.010502417 0.10775329 0.037667543 0.07359197
-0.062343325 0.010007585 -0.030665845 -0.053864777 0.011529676 -0.024724245 -0.093946286 -0.030929074
-0.11191104 -0.008333839 -0.048966594 0.0611597 -0.04770985 -0.05833454 -0.04847608 -0.056239653
0.10943501 0.08063791 -0.06367193 -0.011853502 -0.08125279 0.001673979 -0.014994177 -0.07356657
0.081883125 0.081397235 -0.092456274 0.0127335675 0.10355647 -0.042866606 0.09823438 -0.10165572
-0.0145485345 -0.04879221 -0.10451325 -0.0066818367 -0.047819678 0.021305362 0.017741129 0.070844114
0.010365072 0.069313966 -0.04100178 0.097314745 0.070857115 0.0040894756 -0.026335401 0.076524444
0.08998653 -0.059215933 0.03498954 -0.03464873 -0.019903705 0.009350905 0.032601885 -0.036665585
-0.020718412 -0.066652544 0.15670858 0.0009429108 0.088661335 0.082960516 -0.122389466 0.08055778
-0.105878934 -0.026917923 -0.014010884 0.10586165 -0.05858057 0.020046178 0.05734758 -0.031723417
0.07457893 0.0010337573 -0.07242835 -0.025856154 0.06341466 -0.14977734 0.066619806 -0.010070593
0.055278357 0.03663062 -0.043923583 0.020121692 0.043558147 -0.11128295 -0.16999777 0.03695546
0.015168396 -0.052332927 -0.064891435 -0.018476507 0.022400513 0.034133714 0.04379181 -0.085045405
-0.064383015 0.12858708 0.07454472 -0.0027446328 0.0013856033 0.00974211 -0.043682124 0.15239368
-0.09166462 0.07580046 0.035583988 0.029467255 0.016464222 -0.02650881 0.006570207 -0.025802797
0.072281845 -0.072767675 0.0822918 -0.00986047 0.07428275 0.062457744 0.047691848 -0.031666726
-0.060115963 0.07257687 0.027626999 -0.1361447 -0.016742492 -0.043993264 -0.043308944 0.09605258
-0.038230147 -0.04013137 -0.029088112 -0.046356145 0.059169237 -0.05322946 -0.06339342 -0.075846106
-0.09367284 0.02472887 -0.035437573 0.042159624 -0.008165273 -0.018878873 0.040618945 0.03880146
0.13616931 -0.04552325 -0.07295904 -0.02152641 0.036398813 -0.036426492 -0.0028771188 0.08915807
0.008251069 0.02481159 0.053352326 -0.019460604 -0.0057718423 0.071310796 -0.038127773 0.0061275414
0.0020041417 0.0372715 -0.072600275 -0.012656114 0.012814973 -0.08888806 0.018548943 0.09993787
0.051442374 0.0641268 0.042809367 -0.035888907 -0.061601058 -0.05099494 0.10958047 0.02737811
0.07041165 -0.11417562 0.07179569 0.10609416 -0.08162399 -0.070371665 0.03913293 -0.10382068
-0.04517243 -0.02737671 -0.012158966 -0.06996542 -0.0853277 -0.11003404 -0.08743231 -0.10526194
-0.0481556 -0.0077186497 -0.13246305 0.060105767 0.015680935 -0.053812515 -0.0068611237 -0.07084181
0.074466124 0.05030286 0.014721066 -0.028141398 0.0691176 -0.03761838 0.00250956 -0.02515878
0.021675974 0.061514236 -0.059265055 -0.09106467 -0.038342137 0.01850354 -0.051907506 -0.10156535
-0.034124587 0.0030170053 0.061651926 -0.022664595 -0.055517793 -0.03477373 -0.007483825 -0.08023771
0.094266385 0.029202074 0.050968338 0.029760016 0.019261662 -0.09130815 -0.14787403 0.09152739
0.0029516125 0.0053055384 0.05480436 0.006173106 0.103673555 0.040417086 -0.1165197 -0.09446067
-0.09587853 0.04349532 0.018313373 -0.00030283132 0.0020939761 0.07166562 0.011581073 0.094635196

a2c_network.actor_mlp.4.bias f4 [64]
00000000: c4e1 b43b b977 80bd c9c9 353d 0df9 8d3c
00000010: 6cba d5bc d27e 29bd 5145 7ebd 4023 aabd
00000020: 5a52 71bc 976b 95bd dcbc b4bd 6f78 563d
00000030: bef6 0c3d e823 94bd c5a0 94bd 796e 8e3c
00000040: 15c9 54bd 3772 41bd 893e 883d a015 09bd
00000050: dd3c 83bd 1b54 c6bd 00f8 b5bd 56af 1dbc
00000060: 91d6 663d 65dc a4bc cb7c 5cbd aaf2 d23c
00000070: 33e7 853d bbc1 64bd 64c0 10be 7b4a a5bc
00000080: f6e1 40bd 0c15 173b 9567 3b3b 5ddd aabd
00000090: f83e a0bd b6d5 b83c 2418 71bc 6a5f fdbb
000000a0: ad48 c23c 634a ad3c 2d3e 77bd a483 b13b
000000b0: 3118 83bd 8c2e 14be 38a8 233d 9214 65bc
000000c0: 9405 b3bd 5bb3 6abd 7c4a 373d 6043 85bd
000000d0: 9c2e c03c ac51 9bbd b406 a53c 3990 74bd
000000e0: 2fc6 79bc 0374 253d 1c41 75bd c6fd 63bd
000000f0: 589d f83c 3985 93bd ed57 aebd d102 4ebd
0.0055200774 -0.06272835 0.04438189 0.01733067 -0.02608987 -0.04138071 -0.062077824 -0.08307505
-0.014729107 -0.07295912 -0.088250846 0.05236095 0.034415 -0.07233411 -0.07257227 0.017386662
-0.05194958 -0.047228064 0.06652553 -0.03346789 -0.06408093 -0.096840106 -0.08885193 -0.009624323
0.05635697 -0.020124624 -0.05382995 0.025750477 0.065382384 -0.05584882 -0.14135891 -0.020177117
-0.047090493 0.0023053316 0.0028595675 -0.08343003 -0.0782451 0.022562843 -0.014715228 -0.0077323215
0.023716295 0.021153634 -0.06036203 0.005417304 -0.064010985 -0.14470881 0.039955348 -0.013981955
-0.08741298 -0.057299953 0.04474877 -0.065069914 0.023459725 -0.07583937 0.020144798 -0.059707854
-0.015245005 0.04039384 -0.059876546 -0.05566194 0.030348465 -0.072031446 -0.08512864 -0.050295655

a2c_network.value.weight f4 [1, 64]
00000000: 7c58 993d 01a2 853b 98cc d53c fe62 f93d
00000010: 5d1e 62bd 364b da3b 4697 efba 0117 40bc
00000020: b837 edbc 0536 9dbd c061 3f3c 2b6a 4b3d
00000030: 632d cc3b 35c2 383a 485d 3fbd 8443 e1bc
00000040: 2a1c c6bd dc9f 92bd b479 9b3d 69a3 03bd
00000050: d7c6 00be 2f71 d9bc 7e91 b33b e801 05bc
00000060: c278 f2bc f752 fc3c 4cc8 89bd 2dfd ff3c
00000070: 9e2e 2a3c e2f8 b7bd 9a94 52bd df34 9dbc
00000080: 5472 c1bd 6288 8f3b 8951 eabc c62f 34bd
00000090: 44ed 24be 5a86 803d b3f5 db3c a20a b5bc
000000a0: bf03 6c3d 7077 ebbb aec9 43bd 60cf 3a3d
000000b0: 8aba 5f3d eb4c ec3b 184c 813d 7253 90bd
000000c0: 1262 88bd fbf7 d2bd 66f8 9b3c d7cf 9dbd
000000d0: b372 b63d 7c9d 06bd 09b2 e33c 9f5a 303b
000000e0: 01c9 743d 296e 513d a616 d4bc a852 01be
000000f0: 5636 e33d fad9 efbd 25f4 4d3c 7d82 3bbb
0.0748758 0.0040781503 0.026098534 0.121770844 -0.055204738 0.006661798 -0.0018279336 -0.011724235
-0.028957233 -0.07676319 0.01168102 0.049661797 0.0062309965 0.0007047982 -0.04671982 -0.027498014
-0.096733406 -0.07159397 0.075915724 -0.032138262 -0.12575851 -0.026543228 0.0054799905 -0.00811813
-0.029598597 0.03080128 -0.06727657 0.031248653 0.010387091 -0.089830175 -0.05141125 -0.01919025
-0.094456345 0.004380272 -0.028603332 -0.043990873 -0.16106135 0.062756255 0.026850557 -0.022099797
0.05762076 -0.007185869 -0.04779976 0.045607924 0.054621257 0.007211318 0.06313342 -0.07047166
-0.066593304 -0.10301205 0.019039344 -0.07705658 0.08908596 -0.032865033 0.027794855 0.0026909483
0.059762005 0.051130448 -0.025889706 -0.12629187 0.11094348 -0.117114976 0.012570416 -0.0028611713

a2c_network.mu.weight f4 [8, 64]
00000000: 422d 6a3c 2ccb c5bb 4fc7 0cbe 125c 6a3d
00000010: e6d1 423c 7d7b 063d c918 babd 791c be3c
00000020: 7e2f 8abd a509 193d 60e0 9ebd f133 893b
00000030: 234a bbbc 03b5 8abd f401 3b3e d61f 94bd
00000040: 6204 d13d 0c45 3f3d 0303 8a3c 2c0c efbd
00000050: 9128 963d 9854 163d d6bf 013e 4f8d 15be
00000060: 1a76 49bd 43bf 703d a6f1 7e3d d194 223e
00000070: 2327 cebd 387c 873d c34c dbbb 556c 75bd
00000080: 3d14 a8bd 5efe 1f3e c423 953d 5fb7 233e
00000090: ac2b 84bd 58f8 473d 7340 e23b 235e c1bd
000000a0: 3aea 723c e7eb d63d d341 f33d 34cb febc
000000b0: c486 4cbc 9df1 3b3d e535 08bc 83e5 f1bd
000000c0: 3dc3 5b3c 635d d83d 4080 58bd ad6e 253d
000000d0: 1444 133d 0a99 8b3c 077f b1bd 28b2 3a3d
000000e0: e1a0 2bbd 3867 26be 4c91 c23d 5c3c 2abe
000000f0: c691 f3bb 1ec2 533d e38a d9b9 ba43 d43d
00000100: 3279 cb3c 4fd3 59bd fe49 99bd aff9 df3c
00000110: 75c1 04bd d60b c8bd 5fc8 adbc 2b27 143e
00000120: abf4 89bd 7e95 a1bc 1ed7 91bc f52b 3ebd
00000130: c926 9bbd cf16 7fbd 1dd0 9b3c bb03 e5bc
00000140: 37e7 12be 9c87 9f3c c141 0cbd 83c7 523d
00000150: 8c48 fe3d 5a79 093e 9cd4 983d c05e 88bc
00000160: 10c2 22bd cc52 ed3d cceb 9ebd 2445 92bd
00000170: fc67 023e 54b6 293d 4e42 1d3d ba55 21bb
00000180: 1ca7 403d 328e 963d 81ed 883d ff6f 0cbc
00000190: 900b b2ba 5a81 ea3d 8648 7d3d c11f 8abd
000001a0: eaef 643c 01ca e3bc 2518 0bbe e32b 9c3d
000001b0: 3d8e 03bd 1146 ab3d 61f8 d7bd 3b6c 36bd
000001c0: 67b0 aabc 10e1 cb3d a9ae f73d 5d49 ebbb
000001d0: a4ee 03be 2a37 3e3d 0014 283e 7e3e 393e
000001e0: a1d8 b3bd 3a77 11bd 9ef1 913d 86a6 4cbd
000001f0: e89c 2b3d 3262 65bd 6ee0 513d bbfc da3d
00000200: 8e79 bc3c 3fd2 e23c 712a 70bd 1c6f 2fbd
00000210: 3186 4fbd 4763 0b3e 7955 ad3d 913d ae3d
00000220: 97eb 16bd cedc c7bc e37a 7eb9 58c5 f2bd
00000230: 3290 533d cfd2 c23d 5f57 78bd 4afa 32bd
00000240: 741c 65be 3b08 a6bd 8c03 afbd c71f 16bd
00000250: c2da 5f3d 84ce cc3c c73b fb3d 8afc 483d
00000260: 0d5f 0ebd 0db9 f73d e945 f73b 14e3 83bc
00000270: 0317 fdbd 244c 36bd aca1 e53d 01f3 33bc
00000280: 45a7 1bbe c945 69bd 25b0 a4bd 55b3 133e
00000290: 16bd 3bbd 7907 823d a824 983b fe11 27be
000002a0: 0f09 1fbd 20cd 85bc 7857 68bd 4101 513d
000002b0: f64e 023e d910 b83d 9830 cb3d 8003 b23b
000002c0: 618c e73d 4c24 a7bd f35f a3bd 53d4 a3bd
000002d0: 6320 a0bd 4da7 c83d b4c9 a9bc 4c8e a6bc
000002e0: 5465 da3d f403 a03d c853 82bd 7e49 a9bd
000002f0: a78a 553d f028 b83c 6028 8a3e ac63 b5bd
00000300: d5ea c3bd 501d 39bd 3caa b9bd f1f8 0bbd
00000310: 6b06 923d a2ed 863d 0f3f 81bd 8796 47bd
00000320: 1acd 59bd 4b49 28bd bea0 8ebd 13bb 963d
00000330: 11ba 403d 586e b6bd 26f4 7fbc 67f9 503d
00000340: 0b6d 22bd 9aab 0f3e 8d3c d23d 1c99 9dbb
00000350: 9fc0 013d 752c 5d3d d7ca 203c 98b6 6a3d
00000360: d409 c53c 752d 1c3d 1cd8 4c3d 008d 663d
00000370: 739d d73d 5fa8 163d e921 2abd 5a74 2dbd
00000380: 109b 08bd 750b fabd 2444 f0bd 3e20 343c
00000390: b82c 50bd 4036 533d 4188 933d da18 b63c
000003a0: dd1f 2ebc b899 c0bc 330f d53d 8c4a c33d
000003b0: 0769 aa3d 750c 4a3d 447c f53c f186 0c3d
000003c0: 688d c43c c1b2 b33c 9db5 333d 91c4 4c3d
000003d0: 2c1d 01be cede debd d5a5 cebc 09df dd3d
000003e0: 8a95 e83b 26d0 8c3d 3d01 50bd e164 79bb
000003f0: 9695 5d3d 0835 fabd 8e7b b1bc 4645 56bc
0.014293017 -0.006036183 -0.13747905 0.05721671 0.011890864 0.03283261 -0.09086759 0.023206936
-0.0674734 0.037362713 -0.0775764 0.0041871 -0.0228625 -0.067728065 0.18262464 -0.07232635
0.10205914 0.046696708 0.01684714 -0.116722435 0.07331956 0.03670177 0.12670836 -0.14604686
-0.049184896 0.05877615 0.062242173 0.15877081 -0.100660585 0.0661549 -0.0066925003 -0.059917767
-0.08206985 0.15624377 0.072822124 0.1598792 -0.06453642 0.048820823 0.0069046556 -0.09441783
0.014826352 0.104942136 0.11877789 -0.031102754 -0.0124833025 0.045884717 -0.008313631 -0.11811354
0.013413248 0.10564687 -0.052856684 0.04038875 0.035953596 0.017040748 -0.08666807 0.04558006
-0.041901473 -0.16250312 0.095003694 -0.16624588 -0.007433149 0.051698796 -0.00041492944 0.1036448
0.024838064 -0.053180035 -0.07484816 0.027340738 -0.032411058 -0.097678825 -0.021213708 0.14468066
-0.0673612 -0.019724604 -0.017802771 -0.04642864 -0.07575757 -0.06227761 0.019020135 -0.02795588
-0.14346014 0.019473843 -0.034242395 0.0514598 0.12416181 0.13425198 0.07462427 -0.016646743
-0.039735854 0.11588058 -0.077598184 -0.07142094 0.1273498 0.041433647 0.03839331 -0.0024617747
0.047034368 0.0735134 0.06685925 -0.008571624 -0.0013583768 0.11450453 0.061836742 -0.06744338
0.013973216 -0.027806284 -0.13583429 0.07625558 -0.03211807 0.083629735 -0.105454214 -0.04453681
-0.020836068 0.09955037 0.12093861 -0.0071803764 -0.12884003 0.046439327 0.1641388 0.18090245
-0.08781553 -0.035514094 0.07126163 -0.049963497 0.041897684 -0.05600185 0.051239423 0.10692736
0.02300718 0.027688144 -0.058634225 -0.04283057 -0.050665084 0.1361209 0.08463568 0.085078366
-0.03684577 -0.02439728 -0.00024269107 -0.118540466 0.051651187 0.09512865 -0.0606302 -0.043695726
-0.22374135 -0.081070386 -0.085455984 -0.0366514 0.054651983 0.025000818 0.12267261 0.049068965
-0.034758616 0.120958425 0.0075461757 -0.01609949 -0.12357905 -0.044506207 0.11212477 -0.01098323
-0.15200527 -0.056951318 -0.080414094 0.14423878 -0.045834623 0.063490815 0.0046430416 -0.16315457
-0.038827 -0.016333163 -0.05672404 0.051026586 0.12725434 0.089875884 0.09921378 0.005432546
0.11306072 -0.0816122 -0.07977285 -0.07999482 -0.07818677 0.09797535 -0.020726062 -0.020331524
0.10663858 0.07813254 -0.06363636 -0.08265971 0.052134182 0.022480458 0.2698393 -0.088569015
-0.09566275 -0.04519397 -0.09065673 -0.034172956 0.071301304 0.065882936 -0.063108556 -0.04872754
-0.053174116 -0.041085523 -0.06964253 0.073599 0.047052447 -0.08907765 -0.015622174 0.0510191
-0.039654773 0.14030305 0.102654554 -0.004809512 0.03167784 0.053997476 0.009813986 0.05730304
0.024052538 0.03812929 0.050010785 0.05628681 0.10528078 0.036781665 -0.041536245 -0.04234729
-0.033351004 -0.122092165 -0.11731747 0.010994015 -0.050823897 0.05156541 0.07203723 0.022228647
-0.010627714 -0.023510799 0.1040329 0.09535703 0.083208136 0.049328286 0.029966481 0.034308378
0.023993209 0.021935822 0.04387437 0.049992148 -0.12608784 -0.1088234 -0.02522556 0.10833556
0.0070979046 0.06875639 -0.05078243 -0.0038054513 0.054097734 -0.12217146 -0.02166536 -0.0130780395

a2c_network.mu.bias f4 [8]
00000000: 92b0 d7bd 5e77 bebd 015c 1cbd 16a2 793d
00000010: eded 86bd 8d05 663c 2998 06be 720e 44bd
-0.10531725 -0.09300111 -0.03817368 0.060945593 -0.065883495 0.014039409 -0.13143982 -0.04786534

exp_avg f4 [8]
00000000: 5910 113c 3c5d cb3b 60c6 3c3b b571 9f3b
00000010: e68f 173b 9c53 013c 15dd 813b bef1 a939
0.008853995 0.0062061828 0.0028804764 0.00486585 0.0023126542 0.007893469 0.0039631226 0.00032414304

exp_avg_sq f4 [8]
00000000: 1435 4c38 ee6b 9d38 e5bd 5c38 c6e9 5f38
00000010: ccf2 6d38 9b9a b338 3f2f 5a38 1798 8338
4.8686823e-05 7.506447e-05 5.262894e-05 5.338506e-05 5.6731325e-05 8.564183e-05 5.201925e-05 6.274896e-05
