runs/Ant_31-18-18-18/nn/last_Ant_ep_100_rew_2684.4556.pth (torch, 705735 bytes, 36 tensors)

value_mean_std.running_mean f8 [1]
000000 fe f5 ed ce 57 fe f7 3f
       1.4995954592881158

value_mean_std.running_var f8 [1]
000000 9f fd ac 3c 06 14 fa 3f
       1.6298887605806625

value_mean_std.count f8 []
000000 00 00 00 20 00 00 69 41
       13107201.0

running_mean_std.running_mean f8 [60]
000000 bf d8 1e 55 f3 0f e4 3f 71 cd d0 bf ff c8 f6 3f
       0.6269470846662201 1.424072026519607
000010 1e c7 9c 38 42 e6 c7 bf 02 ec 06 cf cb 5a bd bf
       -0.1867144371440696 -0.11466668896075308
000020 64 e0 ea 57 40 c0 91 3f 1a 79 b3 b2 e4 51 5d bf
       0.017334943166787645 -0.001789544427814932
000030 30 c4 b2 5d 2b f7 a7 bf 1e 74 6e a3 da d8 07 40
       -0.04680762785699988 2.9808857696612128
000040 45 ea a4 7c 94 4f 0d 40 00 4e c7 86 25 da 07 c0
       3.663857435019312 -2.981516888577744
000050 6c 1d ed 81 60 57 ea 3f c4 19 dd ee a1 71 e5 3f
       0.8231661355611499 0.6701211610132352
000060 fc 46 7b 45 18 a6 de bf 7e 83 58 a2 6c 81 e0 bf
       -0.47888762269313623 -0.5157988711181216
000070 22 93 ef 87 6a 7a d3 bf f7 c7 c4 e2 41 f6 df 3f
       -0.30434668803200016 0.499405356839929
000080 25 a3 8a 47 d8 93 aa bf 86 c6 74 73 62 d0 dc 3f
       -0.05190921662626228 0.45021878504767476
000090 fa 8a d3 b4 dd 78 c6 bf 8b 58 80 68 ed 4b e1 bf
       -0.1755635388318167 -0.5405184784929288
0000a0 a6 1c ca d0 0c 61 8f 3f 77 d7 67 d5 6f b3 b0 3f
       0.015321827050924174 0.0652379890451281
0000b0 ae 24 3b ac e5 85 a2 3f a9 45 8f c8 08 9e ad bf
       0.036177804254813636 -0.05784633110273358
0000c0 60 31 19 b6 28 d5 8e 3f f4 2f 0f 46 11 3e a9 bf
       0.01505500608177418 -0.04930166225639701
0000d0 70 a3 eb 27 f4 b9 82 3f 7d f5 64 1b 90 38 b1 3f
       0.009143741100574337 0.06726933163459665
0000e0 0f d2 e1 f1 49 e4 d3 bf 8f ce 5d 50 5b 13 a1 3f
       -0.31080864545154524 0.0333508048633152
0000f0 05 84 c2 6d a4 3e c1 bf 90 92 c2 c0 fe 1f a9 bf
       -0.13472419127813864 -0.04907222846057835
000100 11 e0 68 77 78 bf 61 bf 36 c8 08 cb 11 66 9e 3f
       -0.002166495595954395 0.029686239258986023
000110 11 8f 73 1d dc bb a1 bf 8e 64 bb b8 8c 68 a3 3f
       -0.03463638171686346 0.03790702586201987
000120 89 e2 04 83 17 be ce bf 18 05 f5 02 9a f2 a9 bf
       -0.2401761426679239 -0.050679028378463
000130 7b 52 65 c7 6b 54 4b bf 34 7d c7 17 53 01 88 3f
       -0.0008340383781538363 0.01172127643888974
000140 9b 1a 18 9c 95 49 a9 bf 1b 5c 3f 07 40 5e 7f bf
       -0.04938952951856842 -0.007658243284786283
000150 4e db 9c 54 3a 4e bb bf 2c 0c e1 3d 17 f0 9a 3f
       -0.10666241231670634 0.026306498672294662
000160 d8 a0 2f 2b 65 b5 45 3f 6d d6 ee 3f b4 aa 4e 3f
       0.0006624931323786732 0.0009358768582987239
000170 ce 67 40 67 d7 fa 79 3f c6 17 61 b7 d2 26 a5 bf
       0.006342736644024028 -0.041311821828045533
000180 c6 96 1a 1a dd 2d c6 bf 24 67 bc b6 67 34 ad 3f
       -0.17327464842417423 0.05704044442809522
000190 1f 6c ce c3 4d 33 46 3f 15 1d 0d a3 60 bf 7b 3f
       0.0006775026046058652 0.00677430867000985
0001a0 4a e2 51 9a 43 47 d2 bf 21 38 4c 14 3a f6 c5 bf
       -0.28559961386011834 -0.1715767478094117
0001b0 c4 4d f4 9f 91 55 c0 bf 61 c4 59 4a 8f 74 c7 3f
       -0.12761135397214052 0.18324462061312644
0001c0 98 a1 a9 df 3c 33 aa bf b5 9d fd 64 4e 4e b3 3f
       -0.05117216329819313 0.0754136082228943
0001d0 a8 f3 41 d3 7c 9e b6 bf 0d 20 3f 7b 37 e1 c9 bf
       -0.08835582883507576 -0.2021855689802127

running_mean_std.running_var f8 [60]
000000 56 cc 53 83 cc 64 94 3f 2c 5a 4c 73 48 e3 03 40
       0.019915767207703126 2.4859780318904736
000010 6a 42 9f cb 3e fe ee 3f 49 4d 19 7e 39 dd e4 3f
       0.9685358025545387 0.6520049536579019
000020 4b 83 e6 06 b8 d6 13 40 9b e6 f3 64 c0 c1 14 40
       4.959686382121457 5.189210488688015
000030 c9 53 33 f7 ba 1a 22 40 30 48 4f a2 13 80 1b 40
       9.052207684531725 6.875074897850979
000040 47 c4 d6 cc 6e 13 20 40 4c bb e8 6c 16 80 1b 40
       8.03795471307434 6.875085546212016
000050 cd 2e 85 e9 4d da c6 3f d8 7e 79 21 30 8b d0 3f
       0.17853711988788348 0.25849536198618983
000060 8e 4a 80 8b 77 b1 dd 3f 0f 9c bf e0 6d 4c d5 3f
       0.46395672438772173 0.33278986881345046
000070 a9 df 81 ad a9 9a de 3f 94 e0 82 bf 36 b9 df 3f
       0.47818986839365124 0.49567955686826193
000080 41 cb b0 63 69 6c df 3f 2a 69 47 46 85 49 dc 3f
       0.49099192366991323 0.4419873415296417
000090 f5 de de 90 47 48 e3 3f 83 0c d2 cd 09 ea d6 3f
       0.6025731877807333 0.35803456401499306
0000a0 d6 18 72 d5 4c 08 02 40 a3 11 e2 61 d8 80 06 40
       2.254052798790421 2.812912716590476
0000b0 f6 09 b6 d6 3c b7 0a 40 77 26 79 ab 4a de fd 3f
       3.339471509390246 1.8667704294370233
0000c0 6b 9f 41 bc b2 d6 11 40 5c d7 c3 8b 8e 85 02 40
       4.459666196351331 2.315213291086293
0000d0 f7 22 a6 cb 15 31 fe 3f 81 9b bd b5 ec 2e 04 40
       1.8869836764371806 2.5229124258507345
0000e0 4f fc d5 25 cd 3f f2 3f 01 79 2b f7 1d 92 c6 3f
       1.1405765035595044 0.17633413857306127
0000f0 e8 ab 7b d0 ef b1 f0 3f 70 85 4c aa 5b 31 99 3f
       1.0434415954466605 0.024602348584385536
000100 36 6a 90 b3 48 c0 10 3f fc 34 f5 f1 3c a0 76 3f
       6.390041097895861e-05 0.00552390867899288
000110 4b 78 cb 1d 04 96 f7 3f c7 4a 68 78 a6 fa c5 3f
       1.474125019441561 0.17171173934237613
000120 3c a8 72 4b 9d 7a f0 3f 3c f0 eb b2 4d 3e 98 3f
       1.0299351641829295 0.023675169034490504
000130 50 db 33 63 8c b5 14 3f d6 74 3e 1c 2a ad 7c 3f
       7.899922711716617e-05 0.007001080029934678
000140 d6 8d 92 a9 4c 52 fa 3f 6d ac bb 61 ba c7 c5 3f
       1.6450926422047494 0.1701577164852525
000150 2b 00 c8 88 7e a3 ef 3f 67 df 40 c4 cf 89 96 3f
       0.9887077971943702 0.022010084489209627
000160 e4 9d f4 31 1b 53 17 3f 0b 0f b7 49 ac 36 7e 3f
       8.897641645388244e-05 0.0073763589857127705
000170 ad af db 3e 6b 5a ef 3f f3 13 0e 5c bd ec c5 3f
       0.9797874667833547 0.17128722185967113
000180 86 e1 86 3b 82 90 f1 3f e6 86 aa 45 7a c7 99 3f
       1.0977804494160366 0.025175009252626966
000190 4f 49 7b 05 61 0f 0e 3f 25 ba f5 47 25 ea 72 3f
       5.733504138806749e-05 0.004617829922934057
0001a0 3c bd 30 ea ce 7d dc 3f af d6 a1 c3 5d 89 da 3f
       0.44517872686533955 0.4146341715307739
0001b0 24 d8 95 17 df ce dd 3f ad f4 4d ae 7a 63 da 3f
       0.46575143149618925 0.4123217298691298
0001c0 cc 12 32 9d a4 6d df 3f 3a 34 05 1a 65 fe d9 3f
       0.49106707907803293 0.4061520341973083
0001d0 52 03 02 26 d4 7f dc 3f 0d e3 77 ce 47 f0 da 3f
       0.4453020449801005 0.42091555750771265

running_mean_std.count f8 []
000000 00 00 00 40 00 00 59 41
       6553601.0

a2c_network.sigma f4 [8]
000000 5b 98 26 bf f3 ff 52 bf 6e 66 30 bf f2 f9 3b bf
       -0.65076226 -0.824218 -0.68906295 -0.7342826
000010 3c d3 25 bf 9f 3f 60 bf 38 64 24 bf ea 4d 40 bf
       -0.64775443 -0.8759708 -0.6421542 -0.7511889

a2c_network.actor_mlp.0.weight f4 [256, 60]
000000 71 c0 5f 3d 7d 73 18 be 8c 91 00 3d 2e 8f 67 bd
       0.054626886 -0.14887805 0.031388804 -0.05653303
000010 fb bf 00 3e 98 19 88 3c 1f 0d 76 3e 3a 4a b6 bd
       0.12573235 0.016613767 0.24028443 -0.08900876
000020 64 8e 04 be 73 18 84 bd bf cc c8 3d d9 ea 24 bd
       -0.12944943 -0.06449976 0.09804677 -0.04026303
000030 0e ce 72 3e c8 48 21 be f0 82 10 be 7f 75 d9 bd
       0.23711416 -0.1575042 -0.14112449 -0.10618114
000040 34 0b d8 bd 36 1d aa 3c 0f a6 3a 3d 6a 67 03 3e
       -0.10549012 0.020765882 0.045568522 0.12832418
000050 f5 0d ec 3c 52 0f 0d be 8a bd f2 3d 50 de 9b bd
       0.028815249 -0.13775375 0.11852558 -0.07610762
000060 5f b4 ab 3d 46 39 05 bd eb 25 fa 3d 5f fe 39 bd
       0.083840124 -0.032525323 0.122142635 -0.045408603
000070 be 0d a0 bd bf b5 1d 3d 0e a1 3d 3d 30 63 c0 bc
       -0.07815121 0.038503405 0.04629617 -0.023484796
000080 68 e8 2b 3d e3 05 21 3d dc 2b 94 bd ea 64 1d bd
       0.041969687 0.039312255 -0.07234928 -0.038426317
000090 ae cc a0 3d 57 58 84 bd 2f b7 04 bd cd 89 1a be
       0.078515396 -0.06462162 -0.03240126 -0.1509163
0000a0 ac 85 a8 bd 86 7d 51 3c 81 58 25 3c af 63 b4 bd
       -0.08228621 0.012786275 0.010091902 -0.08808076
0000b0 50 f5 8c ba 60 19 97 bd 9e 10 db bd 9f 0f e1 bc
       -0.0010754261 -0.07377887 -0.10696529 -0.027473269
0000c0 3b c3 00 be 6c 8d 60 bd cb 10 1c 3e 7d 03 5c 3d
       -0.12574475 -0.05482237 0.15240781 0.053714264
0000d0 1f 19 55 3d a9 2d fa bd 82 fe d5 bc 3e 40 66 bd
       0.05202591 -0.1221574 -0.026122335 -0.05621361
0000e0 92 35 5e 3a 12 7e ee bd ed 3c 61 bd 3e 1b 24 bd
       0.00084766105 -0.1164514 -0.054989744 -0.040065043
0000f0 fe 68 9a bc fe 92 f6 bd c2 86 3c 3d c8 90 6f 3c
       -0.018848892 -0.12039755 0.046026953 0.014621921
000100 1d 72 d3 bd 55 f4 c3 bd 4a 10 34 bd 28 65 fb bc
       -0.103245 -0.09568087 -0.043960847 -0.030687883
000110 ac 54 6b 3e 59 54 c6 bd fd 42 2d 3e 9c 36 f5 3d
       0.22981519 -0.09684057 0.16920085 0.119733065
000120 9d 0f 37 bd 73 4b b3 3d a5 43 e9 3c 58 ad 0b 3c
       -0.044692624 0.08754625 0.028474638 0.008525215
000130 78 c0 00 be 0b 46 49 be f1 26 20 3d dd 14 e7 3c
       -0.12573421 -0.19655626 0.039099637 0.02820819
000140 ff cd dc 3d 48 b1 b8 bd 6a e0 e2 3c 5e e7 e9 bd
       0.10781478 -0.09018189 0.0276949 -0.11421083
000150 f1 7f 69 bd 63 86 e8 3b 7c 50 f2 3d f8 01 e9 3d
       -0.05700678 0.0070960983 0.118317574 0.11377329
000160 05 b3 80 3d 03 4d b5 bd 7c 23 6a 3d ae d6 18 bd
       0.06284145 -0.088525794 0.057162747 -0.03731411
000170 b8 cd fb bc 96 70 02 be 39 85 00 3d ff ff 02 be
       -0.030737743 -0.1273826 0.03137705 -0.12792967
000180 01 8a 15 3d 49 67 de bc d1 24 58 3c 76 c1 41 bd
       0.036508564 -0.02714886 0.013192371 -0.04730364
000190 84 a3 28 3d 3b be 12 3e 1c 34 71 3c 95 00 8d bd
       0.041171566 0.1433038 0.0147218965 -0.06884877
0001a0 8f 07 8a 3d c0 f9 0e be fe 15 cf bd b7 2a 06 3e
       0.06739723 -0.1396246 -0.101116166 0.13102232
0001b0 b0 43 21 3c d6 d4 40 bd 46 48 d5 bd 42 1e 22 bb
       0.009842798 -0.047077976 -0.10414176 -0.0024737273
0001c0 9b 8a 57 bb 81 1a 99 3c 15 7c 88 bd a5 88 fb bc
       -0.0032889012 0.018689396 -0.06664292 -0.030704806
0001d0 e1 4c 95 bc 18 ac ff 3d 5c 69 82 3d 0b 85 9c bd
       -0.018225135 0.12483996 0.06367752 -0.076425634
0001e0 77 44 77 3d db 49 bd 3d 52 24 6a 3d 39 52 3f bd
       0.060368028 0.092426024 0.057163544 -0.046709273
0001f0 df 5a 95 3d 64 bf 19 3d 7f 1e a3 bc ac 79 e4 bc
       0.07292723 0.03753604 -0.019912003 -0.027890049
000200 95 38 0f be 1e ef 9b 3c d1 50 32 3d f8 34 bb bc
       -0.13986428 0.019034918 0.043534104 -0.022852406
000210 49 e7 2a 3e 42 f7 0e 3e 1d bf 23 bc e5 84 a1 ba
       0.16689791 0.13961509 -0.009994295 -0.0012322931
000220 6a 4a 93 bc 0d f7 e6 bc fb bd 2f 3d 12 13 a2 3c
       -0.01797982 -0.028193975 0.04290579 0.019784484
000230 c0 7b 35 be 63 55 89 bd 20 82 e3 3d 5e be d5 3d
       -0.17722988 -0.06705739 0.11108804 0.104367
000240 e5 7f 83 3d 5e b2 ce bc 02 43 90 bd 67 d3 b6 bd
       0.06420878 -0.025231536 -0.07044031 -0.089270405
000250 ed ed 10 bc d4 1c 82 3c ae 68 17 bc 3f 9a ec bb
       -0.008845788 0.015882887 -0.009241266 -0.007220536
000260 b0 39 e3 bd 6d 47 8c bd 8c 2d 11 bd 26 e2 be 3d
       -0.110949874 -0.06849561 -0.035443828 0.09320478
000270 72 ac 37 bb 72 5a 0a bd 94 89 5f 3d 49 4c 5c 3d
       -0.002802637 -0.03377766 0.054574564 0.05378369
000280 58 59 8a bc 3d 18 a1 3d 84 cf 40 bd c1 37 06 bc
       -0.016888306 0.07865951 -0.047072902 -0.008192004
000290 52 44 ee bd aa f4 75 3d 60 84 75 3d 1c 75 99 3d
       -0.11634125 0.060047783 0.059940696 0.0749304
0002a0 40 de 62 bd 44 c1 27 be 8c 8c 9d bd 3d 23 8d 3c
       -0.055387735 -0.16382319 -0.07692823 0.017228717
0002b0 e7 8f 9a 3c 2b c8 a2 3d dd 35 09 3d 36 2c b1 3d
       0.018867446 0.07948335 0.033498634 0.08651011
0002c0 13 2b 54 3d 92 eb f2 bc 5d 29 1a bd e3 ba 82 bd
       0.05179889 -0.029653344 -0.037637103 -0.06383302
0002d0 af 73 cb 3d c0 a4 aa bc c2 1d d1 3c 0a b2 90 bd
       0.09934174 -0.020830512 0.025526885 -0.07065208
0002e0 bd cb 16 b9 4a 63 1e be b7 86 bf bd d4 55 3f 3c
       -0.00014381013 -0.15467563 -0.09351867 0.011678178
0002f0 07 b3 02 be ad fd e2 3d b5 ea 9e bd 18 d3 f4 bd
       -0.12763606 0.11083541 -0.077596106 -0.119543254
000300 4f 34 8c 3d 32 7b 18 be 72 f9 80 bd 5a d6 26 be
       0.068459146 -0.14890745 -0.06297578 -0.16292706
000310 fb 8d 2c 3e 4f 11 8e bd 97 8e 09 3e 97 35 b4 3d
       0.16851036 -0.06936895 0.134333 0.08799284
000320 04 91 a5 3c 19 86 76 be ca 1a ac 3d ec 30 58 bd
       0.02021075 -0.24074592 0.08403547 -0.05278103
000330 3f 9a ad 3d fa 55 3d 3d 0d c0 df bd 6e 36 2e 3d
       0.08476686 0.04622457 -0.10925303 0.042532377
000340 45 9f 3d 3d e8 94 df bd f5 fe 57 3d 5b 02 db bd
       0.04629447 -0.109170735 0.05273338 -0.10693809
000350 91 dc 16 3e c9 a6 2e 3d 4c b0 bf 3d b5 86 a7 bd
       0.14732577 0.042639527 0.09359798 -0.0817999
000360 e0 78 ad bd cc c8 00 3d 05 d5 40 3d 54 e2 a5 bd
       -0.08470321 0.031441495 0.04707815 -0.08099809
000370 0b 49 2a bd 18 b5 ad bc 9f 22 8b bc 61 9f 12 bd
       -0.041573565 -0.021204516 -0.016984282 -0.035796527
000380 8e e9 48 bd 6b c6 23 be 14 8d 97 bd 12 0e 06 3e
       -0.04905086 -0.15993659 -0.073999554 0.13091305
000390 c5 8e f0 3d 4c 6b 60 bd 26 67 3d 3a 0c 2d bc bd
       0.11745981 -0.054789826 0.0007225148 -0.091882795
0003a0 00 4c 16 be 4f 38 85 bd f9 f2 96 3d 41 27 be bd
       -0.14677429 -0.06504881 0.07370562 -0.09284831
0003b0 ce 58 74 bd 85 a6 04 bc 56 26 98 bd 71 e9 85 bb
       -0.059655003 -0.008096342 -0.07429187 -0.0040866663
0003c0 e6 c7 97 bc 45 a6 2d 3c 6a 38 bd 3c 70 33 81 bd
       -0.018527936 0.010598724 0.02309819 -0.06308639
0003d0 d9 dc 02 be 18 20 e2 3d 21 c4 2f bd 7e 24 2b 3c
       -0.12779559 0.11041278 -0.042911652 0.010445712
0003e0 c1 11 b7 bd 90 4e 0c 3d 4f 71 77 3e 7c fe 2b 3e
       -0.08938933 0.03425461 0.24164318 0.16796297
0003f0 6b 76 eb bd b8 f1 6d b9 75 28 ba 3d 1a a6 c5 3b
       -0.11497196 -0.00022692129 0.09089748 0.0060317637

a2c_network.actor_mlp.0.bias f4 [256]
000000 bc 40 8c bc f7 a2 1b bd 0c 19 c6 bc a6 f8 07 3d
       -0.017120712 -0.037997212 -0.024181865 0.033196114
000010 49 e5 21 bc a8 fe 06 bd 64 aa 81 bc 43 ec 79 bd
       -0.009881326 -0.032957703 -0.015828319 -0.061016332
000020 96 7b 66 bd 1c e0 e9 bc a2 3b 37 3c cb 9b 05 3c
       -0.056270204 -0.028549246 0.011183651 0.00815482
000030 47 71 d4 3a 85 8e ae bc 38 a7 6f bd 31 5a 04 bd
       0.0016208076 -0.021308193 -0.05850908 -0.032312576
000040 d6 c3 8a bd 25 f6 1e 3d f8 ab 3a bd cc 29 0f 3d
       -0.06775634 0.03880896 -0.04557416 0.03495197
000050 63 bc 85 bd 96 47 30 bd ff e4 ae 3c 75 d7 24 3d
       -0.065300725 -0.04303702 0.021349428 0.04024454
000060 43 ef 26 bd f2 70 db bc e5 e4 e3 3c d6 36 a1 3d
       -0.04075552 -0.026787255 0.027819106 0.07871787
000070 be 39 64 bd ac 7e 9e 3d 3e 4d a2 bc 80 f9 39 3d
       -0.05571913 0.077390045 -0.019812223 0.045403957
000080 f8 c9 a1 bc c0 ce 4d bd 34 be 42 3c 16 89 45 3d
       -0.019749627 -0.050246 0.011886168 0.04822644
000090 c3 01 57 3c cd 46 3e bd f9 e8 12 bd b6 97 55 3d
       0.013122979 -0.04645424 -0.03586671 0.052146636
0000a0 d2 3b 32 3d 5f 66 a6 3d 8e 27 cf bc 1a 47 5c 3d
       0.04351408 0.081249945 -0.025287416 0.053778745
0000b0 53 e3 15 3b ae 04 d8 bc 09 f2 82 3c fb 95 09 3d
       0.0022871091 -0.026369419 0.015984552 0.0335903
0000c0 e1 d3 15 bd 49 89 2c bd d0 a2 51 bc ea a9 7a bd
       -0.036579017 -0.042123113 -0.012795165 -0.0611972
0000d0 4f 4c 0d 3c 97 51 39 3d ad ff 77 3d da 15 44 3d
       0.00862415 0.045243826 0.060546566 0.0478724
0000e0 7e 51 1c bd 2d 80 0c 3d c8 95 a7 3c a1 ad 40 3d
       -0.038163655 0.034301925 0.020457163 0.047040585
0000f0 a4 9a 42 3d 34 95 e1 3c f2 80 b8 bc 2f 44 5c bd
       0.047510758 0.027536966 -0.022522423 -0.053775962
000100 8f f8 92 bd e7 bb 26 bc 4d f7 96 bd 49 cc 03 bc
       -0.07176315 -0.010176635 -0.07371388 -0.008044311
000110 48 bc 29 3d 5c c3 c5 3c 44 b0 8e bd e7 e0 9b bb
       0.041439325 0.024141006 -0.06967214 -0.004757035
000120 2a 1d 87 3d 72 af 9f 3c 67 67 1c 3a fc 98 ea bc
       0.065973595 0.019492839 0.0005966336 -0.028637402
000130 45 17 44 bd b6 fb c5 3d cb 93 c4 bb 3f 7f ea bc
       -0.047873754 0.09667151 -0.0059990636 -0.028625129
000140 e2 88 b5 bc 45 89 12 bc 5f c8 3a bd dc bd c0 bc
       -0.022159997 -0.00894386 -0.045601245 -0.023528032
000150 cb a5 0f bd 9c f6 f5 bd f7 ca b6 bb cb d8 00 bc
       -0.035070222 -0.12009928 -0.0055783945 -0.0078641875
000160 56 99 d7 3c 79 c6 81 bc 8c 39 9c 3d ed 89 2e 3d
       0.026318233 -0.01584171 0.07628164 0.042612005
000170 71 53 75 bd 74 c9 50 3c 68 dc b1 bb 98 51 0a 3d
       -0.05989403 0.012743343 -0.005427886 0.03376922
000180 32 a1 72 bd 66 28 5f bd 82 eb be 3d 00 13 ec b9
       -0.05923576 -0.054481886 0.09322263 -0.00045027584
000190 f8 01 af bd 0a 9c a9 3d 90 0b 31 bd 57 1b f0 3a
       -0.085452974 0.08281715 -0.043223917 0.0018318695
0001a0 da 83 d8 bc e9 70 9c 3c f1 b5 20 bd 1e 1f 94 bd
       -0.02643006 0.019096809 -0.039236013 -0.07232498
0001b0 22 cc 67 bc de 45 6b bd 53 b2 0d bd ac f1 a1 bc
       -0.01414779 -0.057439677 -0.03459389 -0.019768558
0001c0 50 c6 61 bc cd 36 9b 3c 42 0b c0 3c fc 85 8d bd
       -0.013780192 0.01894703 0.023442868 -0.06910321
0001d0 62 d5 79 bc 3b a2 7e bd 6c d1 a9 3c a0 30 8f bc
       -0.015248628 -0.062166434 0.020729743 -0.01747924
0001e0 b0 cc 62 3b 5e c6 2f 3d 0e c1 42 3d 48 4a b2 bb
       0.0034606867 0.042913787 0.047547393 -0.005440984
0001f0 90 0c a0 bc e8 41 1f 3d 0d 0e 2b 3d 58 d3 8c 3c
       -0.01953724 0.038881212 0.041761447 0.01719062
000200 d9 c7 e8 3b e8 a0 5c bd 72 ff 28 bc 11 69 a4 3c
       0.007103902 -0.05386439 -0.010314809 0.02006963
000210 26 a3 24 3c 29 53 cc 3c 38 d9 28 bc 97 76 4d bb
       0.010048663 0.024941998 -0.010305695 -0.0031351203
000220 8d 22 d4 bd 0f 67 58 bd 35 6a 28 bd 9a 85 0f be
       -0.103581525 -0.05283266 -0.041116912 -0.14015809
000230 ed 57 27 3a 0e 89 7f 3c e1 92 be bb 69 cb 3d 3d
       0.00063836464 0.015596641 -0.005815849 0.046336565
000240 ff fc 84 3c 46 0a e5 3c f3 12 e8 3c 95 72 0b 3d
       0.01623392 0.027959 0.028329348 0.03404482
000250 5b 60 24 3c dc 92 04 3d a1 eb a3 bd 11 02 d7 3a
       0.010032739 0.03236662 -0.08003927 0.0016403814
000260 b7 7d 54 3d 62 8d bd bc 6b 77 df 3c 73 06 b2 3a
       0.051877704 -0.023138706 0.027278623 0.0013582244
000270 cb 79 89 3c e9 13 3f 3d fc eb 95 bb 19 96 ae 3c
       0.016781708 0.046649847 -0.0045752507 0.021311807
000280 38 a8 7d 3d 57 fb 65 3d af 24 a3 bd f6 01 86 bd
       0.061928004 0.0561479 -0.07965981 -0.06543343
000290 10 e9 f9 bc bd 68 af ba 71 69 84 bc 9f c4 9c bc
       -0.03050664 -0.0013382655 -0.01616356 -0.019136725
0002a0 1d c7 aa bb 5b 7e fe bb 50 5f 80 3c f0 2d c9 bc
       -0.0052117244 -0.0077665276 0.015670449 -0.024558038
0002b0 71 41 c2 3d 97 9d d9 3c 7b 70 73 3c 00 e9 1c bd
       0.09485138 0.026564403 0.01485836 -0.038308144
0002c0 98 20 05 3b 04 4c c3 3b 80 5f 53 3a ab c7 69 bd
       0.0020313617 0.0059599895 0.0008063242 -0.057075184
0002d0 b8 c9 9b 3d aa c5 19 bd b4 d6 ae bd c9 85 a6 bd
       0.07606834 -0.037542023 -0.08537045 -0.08130986
0002e0 c1 fd f9 bb 9f 0a 43 3d fd 9f 77 3c 39 8e 72 3b
       -0.007629127 0.04761755 0.015113828 0.003701104
0002f0 27 07 1d 3c d2 13 f1 bc aa f2 14 3b 3c 17 89 bd
       0.009584225 -0.029428396 0.0022727647 -0.06693885
000300 78 5c 74 bd d3 d9 a2 bc 6a 06 91 bd b6 b4 b9 3d
       -0.059658498 -0.019879257 -0.070813015 0.09067671
000310 62 25 af 3b 45 d3 42 bd af 3e 38 bd 17 1b ed bc
       0.0053450326 -0.047564764 -0.044981655 -0.028943582
000320 94 6f 92 ba c2 a0 c6 bc aa 7f 73 3a c7 33 0a bd
       -0.0011172169 -0.024246577 0.0009288738 -0.033740785
000330 5e c7 64 bd fa 79 62 3b f6 60 11 bd ab c7 e4 3b
       -0.055854194 0.0034557567 -0.03549286 0.00698181
000340 1f 06 da bc f4 01 ab 3d 04 a2 11 3c 0f c1 47 3d
       -0.026614247 0.08349982 0.008888725 0.0487681
000350 1e 3f 80 3c 46 02 49 bc 8d 04 e4 bc ea 55 41 bd
       0.015655097 -0.012268608 -0.027834201 -0.047201075
000360 3d 53 85 bd ea 04 a8 3b 9a 52 7e bd d4 c4 93 bc
       -0.06510017 0.005127539 -0.062090494 -0.01803819
000370 77 28 3a bd be d7 0f bd 74 a5 27 3d 04 73 77 ba
       -0.045448747 -0.035117857 0.040929273 -0.0009439441
000380 5e 73 f6 3d c0 08 d6 bb 25 7f b1 3d 29 a9 5f bc
       0.12033723 -0.006531805 0.08666829 -0.013651171
000390 0c 3b e9 bc 9b 3d ee bc a1 4c a4 3c 2c 07 94 bc
       -0.028470539 -0.02908211 0.02005607 -0.018069826
0003a0 4a e5 4c 3d 46 1d bd bc e8 2f 78 3d 39 b8 0b bc
       0.050023355 -0.023085248 0.060592562 -0.008527809
0003b0 fa e5 1c 3d 64 0a 6f bc 80 ad 10 bd 87 09 dd 3a
       0.03830526 -0.01458988 -0.035321712 0.0016863801
0003c0 d9 31 4e 3c 82 e3 5e 3c 41 0b 39 3d aa 2e 30 3d
       0.012585127 0.013604047 0.04517675 0.043013252
0003d0 5a 8d ef bc f6 c1 16 3d 42 e5 8e 3d b1 35 8a bd
       -0.029242206 0.03680607 0.06977321 -0.06748522
0003e0 34 f2 c3 3b dd 2d 60 bd f9 55 77 3c ae 9e 6b bc
       0.0059798006 -0.05473124 0.015096181 -0.014381094
0003f0 f7 0f 66 3c 9f 73 5c 3d 44 98 b6 3c dc ad 16 bd
       0.014041892 0.053821202 0.022289403 -0.0367869

a2c_network.actor_mlp.2.weight f4 [128, 256]
000000 c6 76 22 bd 50 60 4d 3d e5 cd 3d bd 06 bd 4a bd
       -0.039664052 0.05014068 -0.046338934 -0.049496673
000010 bc 66 a8 3c 31 4c 6b 3d de d0 f2 bc 09 af 9e 3d
       0.0205568 0.05744571 -0.029640611 0.07748229
000020 c0 e0 87 bc 24 dd 8c 3d 9b 58 95 3d b5 bb a1 bd
       -0.016586661 0.06878117 0.07292291 -0.078971304
000030 f5 58 8b bd f1 89 df 3c 5e 4d 0f bc 46 af 23 3d
       -0.068040766 0.027287455 -0.008746473 0.039962076
000040 6a 5e 2d bd ba 02 96 3d ed ae 29 bc af 7d 52 3b
       -0.04232637 0.07324739 -0.010356647 0.003211837
000050 41 10 19 bb 7c 4e 58 bb 13 97 91 bd 30 8e 68 bc
       -0.0023355635 -0.0033005765 -0.07108893 -0.014194056
000060 68 d9 11 bc 8a 99 1f 3d 1f 25 ee bb ae 15 e0 bd
       -0.008901931 0.038964786 -0.007267609 -0.10941635
000070 7c a2 1d 3d 19 98 d0 bd 76 05 b1 3c 17 7d 5e bd
       0.038485035 -0.1018526 0.02160905 -0.054318514
000080 c5 53 5d 3d 45 74 8d bc 1d 45 63 3d 03 66 a1 3c
       0.054034967 -0.017267356 0.055485833 0.019701963
000090 3c 64 9e bd 74 d0 35 bd de cb fa bc 22 75 87 bd
       -0.07733962 -0.04438825 -0.03061479 -0.06614138
0000a0 fb 63 81 bb 99 66 6d bb 41 16 a5 bc fa 0b c6 3c
       -0.003948686 -0.0036224483 -0.020152213 0.024175633
0000b0 34 66 b3 bd 49 80 09 bd 26 c3 e3 3c 55 7f 48 3d
       -0.08759728 -0.033569608 0.027803015 0.04894956
0000c0 1e 83 95 bc 72 f7 bc bc 6c ab a6 3d c9 b1 85 3d
       -0.018250998 -0.02306721 0.08138165 0.065280505
0000d0 b4 b4 07 3d 28 83 9a 3c fd 97 ac bd f0 79 07 3c
       0.033131316 0.018861368 -0.08427427 0.008268818
0000e0 80 aa 1f 3d 0e 1f d5 bd ef 4e 53 bd 8e f5 35 be
       0.03898096 -0.10406314 -0.05158895 -0.17769453
0000f0 4c c1 5c bd fb ac 3f bd 99 68 fb bc a5 53 5b 3d
       -0.05389528 -0.046795826 -0.030689524 0.053546567
000100 e3 dd ea 3c 98 de 09 3d e6 2e 83 bb a7 48 7d bd
       0.028670257 0.033659548 -0.0040033935 -0.061836865
000110 6a 85 19 3c aa 97 a2 bd 40 d0 2b 3d c4 f4 76 bd
       0.009370187 -0.07939084 0.04194665 -0.06029202
000120 2d 76 93 bd 21 e4 ae bc ca c9 1b bd 0c a6 ca 3d
       -0.072002746 -0.021349015 -0.038034238 0.09894952
000130 9e fa 24 3d 9c 15 04 bd 3f 01 5a bd 30 3a af ba
       0.04027807 -0.03224717 -0.053223845 -0.0013368782
000140 33 45 b6 3d 14 b4 6b bd 33 5f d6 3c 8e ca 6e 3d
       0.088999175 -0.057544783 0.026168441 0.05829864
000150 a9 8b 81 3d fb 9f ee ba 53 86 32 bc 35 9e 54 bc
       0.06325466 -0.0018205637 -0.010896283 -0.012977173
000160 6c 78 66 bd a2 67 6f bd 5b 57 44 bd 15 8e 2f bd
       -0.056267187 -0.05844844 -0.04793487 -0.04286011
000170 b0 01 4e 3d 01 c7 1b 3c 3a bc a1 3d 29 2d 37 bd
       0.050294578 0.009507895 0.078972295 -0.044720802
000180 31 67 d0 3c 2f 51 04 3c 48 71 b1 3c 60 67 c9 3a
       0.02543983 0.008075996 0.021660462 0.0015365891
000190 41 f2 19 bb 84 99 ac bb 3d f8 3b 3d a3 45 9d 3c
       -0.0023490342 -0.005267324 0.045891035 0.019198244
0001a0 f9 72 85 3c 7a b8 23 bd e5 ea 20 3d b0 3e 3e 3d
       0.016290175 -0.039970852 0.039286513 0.046446502
0001b0 90 c1 e2 bc f9 94 98 bc 15 bc ca bb c8 fc d1 bb
       -0.027680188 -0.018625723 -0.006186972 -0.0064083077
0001c0 65 b7 4c 3c 85 02 39 3d b3 b9 9e bd 6c 2b 2e bd
       0.012494897 0.04516842 -0.07750263 -0.04252188
0001d0 a8 d2 16 3c 9b ec b4 3c 69 de 7b bd 31 7e 32 bb
       0.009205498 0.022085479 -0.061491404 -0.002723586
0001e0 8b c3 e6 3c 95 35 54 bd f2 7b c2 bc aa 8e 5c 3c
       0.028169414 -0.051808912 -0.023740742 0.013461748
0001f0 db 70 d1 3d 06 05 c6 bd 5c 4f a5 bc 7e 08 b2 bd
       0.102266036 -0.09668927 -0.020179443 -0.08693026
000200 23 d0 98 3d a6 db fe bc bf 2e 4d 3d d5 65 4d 39
       0.07461574 -0.031110596 0.05009341 0.00019588259
000210 f4 82 ec bc ad ae 90 3c 02 f1 dc 3c 9f a4 27 bd
       -0.028871037 0.017661417 0.02697039 -0.04092848
000220 e0 36 0e bd d0 0e b4 3d 26 98 11 3e 17 ea 7d 3b
       -0.0347203 0.08791888 0.14218196 0.0038744265
000230 c9 64 a1 bd 45 11 3a bd 3d b8 18 bd 4a 5f dc bd
       -0.07880551 -0.045426626 -0.03728508 -0.107603624
000240 ad 11 dd bc d5 78 6e bd f5 61 a2 3c 55 8f 40 bd
       -0.026985968 -0.058220703 0.0198221 -0.047011692
000250 d8 c9 ea 3c b4 74 d7 bc 8a ce f8 3c 72 3a 1c bd
       0.0286607 -0.026300766 0.030371923 -0.038141675
000260 8d b2 08 bc bf 52 6b 3d a4 79 d5 bc f5 1e a0 3d
       -0.008343351 0.05745196 -0.02605898 0.078184046
000270 e5 1a 8b bd d0 d8 3c bd 81 10 90 bd 09 52 b1 bd
       -0.06792239 -0.046105206 -0.07034398 -0.08658225
000280 08 d8 c2 bd aa e2 3c 3d ab 77 d8 bc 21 e1 56 3d
       -0.09513861 0.0461146 -0.02642425 0.052460793
000290 5c 47 75 3d 76 15 ee 3c b7 da 16 bd 12 37 a6 3d
       0.059882507 0.029062968 -0.036829676 0.081159726
0002a0 02 b8 a6 3d c5 66 84 3b f0 2e 1a bc 58 b5 20 3c
       0.081405655 0.0040405714 -0.009410605 0.009808861
0002b0 b2 52 0e 3d 67 4e ed bc 7d 77 8a 3c 38 15 1b bd
       0.034746833 -0.02896805 0.01690268 -0.037862033
0002c0 3c 1b d0 bc 7c a2 35 bd 06 0d a1 bd ca c6 52 3d
       -0.025403611 -0.04434441 -0.07863812 0.05145911
0002d0 03 ba ac bb 94 df 25 bd 12 f0 5d bc 54 d1 0b 3c
       -0.0052711978 -0.040496424 -0.013546007 0.008533794
0002e0 02 e8 a4 bd d5 c9 9e 3b f8 a1 a1 3d 0f 51 07 39
       -0.080520645 0.0048458376 0.07892221 0.000129048
0002f0 6c 95 a4 bc 75 b2 1a bd 7b 77 a6 bd f7 26 1e 3d
       -0.020090781 -0.037767846 -0.08128258 0.03861138
000300 89 8d 81 bc 74 c7 99 3d 2c 46 45 bd bf cb b9 3d
       -0.01581456 0.07508746 -0.048162624 0.090720646
000310 7b 4c a2 ba 2b 9b 24 3d f9 fe 8a 3d 31 cd e8 bc
       -0.0012382412 0.040187042 0.067869134 -0.028418155
000320 cb 94 cd 3d 6d a4 83 3d a0 e6 ed 3c 49 51 05 3d
       0.10038146 0.06427846 0.029040635 0.032548223
000330 f2 28 9f bd 4f 06 43 bd 99 e9 df 3c 94 a4 e8 3c
       -0.077714816 -0.04761344 0.027333068 0.02839879
000340 20 23 7b 3d e2 65 b5 bb 58 5d 8d 3d e3 09 e7 bd
       0.061312795 -0.005535827 0.069025695 -0.112811826
000350 79 a4 d3 3b 6c b9 f1 bc 09 40 d5 b9 8c 2d 2d 3d
       0.0064588157 -0.029507361 -0.00040674236 0.042279765
000360 57 8e a2 3d e9 eb a7 3c 09 1f 8e 3d 51 e1 06 bd
       0.079373054 0.020498233 0.06939513 -0.032929722
000370 d7 49 30 bc ea 11 88 3d d1 3a 1a 3d 1c ea 01 3d
       -0.010759792 0.06644042 0.037653748 0.031717405
000380 06 64 50 bd 56 4e 75 3a 11 13 25 bd ca 23 90 3b
       -0.05087664 0.0009357681 -0.040301386 0.0043987976
000390 98 51 42 bd d4 8d 15 bd c3 fa c8 3c 23 a3 e5 3d
       -0.047441095 -0.03651221 0.024533635 0.112127565
0003a0 22 cf 55 3d 1e 6f 1b 3d d4 85 f8 3c ff 38 a1 3d
       0.05219949 0.037947766 0.030337252 0.07872199
0003b0 48 87 94 bd 6d bc 53 3c 9c 6f d5 3c 3d 7b c3 3d
       -0.07252365 0.012923342 0.026054196 0.0954499
0003c0 b4 8f 18 3b 1a d3 f2 bc 02 a2 6f bc c3 e8 96 bd
       0.0023279013 -0.029641677 -0.014626028 -0.073686145
0003d0 5e b0 24 3e 48 ca 7c bd 3b 7e 95 bc ff e3 5b 3c
       0.16082904 -0.061716348 -0.018248668 0.013421058
0003e0 ab 31 ec bd 40 2f a7 bd 95 f6 3d 3d fa 24 b6 3d
       -0.11532911 -0.08163309 0.046377737 0.088937715
0003f0 44 f4 16 bd d3 ba 7a 3d c0 0c 7b 3d 7a 60 87 3c
       -0.036854044 0.061213326 0.061291456 0.016525496

a2c_network.actor_mlp.2.bias f4 [128]
000000 7d e9 65 3c a7 39 77 bb 68 1f b6 3c 08 f8 24 bd
       0.014032719 -0.0037723572 0.022231773 -0.040275604
000010 6d 15 c4 bd 2c 57 11 3d be 2e a9 3c d1 83 d0 3b
       -0.09574399 0.035483524 0.020652171 0.00636337
000020 57 04 2c 3c ac ba 04 3a 76 0a f9 3c 57 c1 39 3d
       0.010499082 0.00050632167 0.030400496 0.0453504
000030 e8 f4 0b bb 8e 73 ca bb b0 af 9e 3d 0f 22 66 bd
       -0.0021355692 -0.006178326 0.077483535 -0.056184825
000040 d9 a2 43 bc 05 25 32 bc 84 5e 5b bd b3 06 58 39
       -0.011940681 -0.010873084 -0.053556934 0.00020601861
000050 6f 6b 02 bd bd f4 1d bc 4a a3 60 bb e9 18 16 bc
       -0.031840738 -0.00964087 -0.0034277015 -0.0091612125
000060 76 fd 29 bd 7e c9 41 bc 31 b8 ff bb e0 1c 65 bd
       -0.041501485 -0.011827825 -0.0078039397 -0.05593574
000070 7a 5b 40 bc ee 3f 07 3d 30 a5 98 bd d4 de 92 bc
       -0.01174056 0.033019952 -0.07453382 -0.017928518
000080 bb 59 44 3d cc 14 23 3c 7f 0e 31 bc f9 88 bd bc
       0.047937136 0.009953689 -0.010806679 -0.023136603
000090 0e d9 d6 bd 69 02 91 bc 45 a9 58 bd 51 d0 5d bd
       -0.10490619 -0.017701345 -0.052895803 -0.054153744
0000a0 9a 9d 30 3b c8 22 bd 3c 45 bc 93 3d 0d ae 08 3d
       0.0026949407 0.023087874 0.07213644 0.033369113
0000b0 e6 43 6c bd 89 32 ec bb 71 c0 12 bd cc bd 77 bd
       -0.05768194 -0.0072081727 -0.035828058 -0.06048374
0000c0 2a ce df 3b 9c a1 12 bd 82 16 dc 3d bd a2 9b bc
       0.0068299966 -0.035798654 0.107464805 -0.018998498
0000d0 3c c2 ea bd 19 75 8f 3d f2 68 c0 bc 1c 2f 86 3c
       -0.114628285 0.070047565 -0.023487542 0.016379885
0000e0 06 7f 09 3d db 81 bc 3c 64 af 5e 3c b9 17 06 bb
       0.033568405 0.023011139 0.013591621 -0.0020460917
0000f0 60 66 0d 3c 8e 9d 78 3d 76 ed aa bd 62 d9 17 3d
       0.008630365 0.06069713 -0.08346073 0.037072547
000100 f0 5f ef 3c c6 30 93 3b 97 14 4a bd 30 fe 17 3d
       0.029220551 0.004491898 -0.049336042 0.037107646
000110 4f 98 22 3c 06 65 00 3d fa 63 e2 3c 00 e7 1b 3d
       0.0099240085 0.031346343 0.027635563 0.038062096
000120 cf 4b 62 bd dd 40 3d 3d 18 85 44 bd fc 66 d1 3c
       -0.055248078 0.046204437 -0.04797849 0.025561802
000130 02 6c 12 3c 95 24 05 3c 72 ab 8d 3c e1 92 6e bd
       0.008936884 0.008126398 0.017293666 -0.058245543
000140 57 be eb 3a 88 91 1a bd 3c 3b 99 3a 31 28 77 3d
       0.0017985803 -0.037736446 0.0011690627 0.060341064
000150 59 35 f3 3c c4 48 20 3d a3 82 f3 bc 35 5f 8c bd
       0.029688524 0.039131895 -0.029725378 -0.06854097
000160 f7 d0 0b bc fa f1 37 3c 50 48 3f 3c 2a e6 14 3c
       -0.008533708 0.011227125 0.0116749555 0.0090880785
000170 65 15 03 bd a3 87 42 3c 5e 45 0d bd 7b 8f 99 3c
       -0.032002825 0.011873159 -0.03448998 0.018745175
000180 eb 60 87 3d 83 35 6e bb c6 d1 9e 3b 86 25 90 ba
       0.066102825 -0.0036347813 0.0048467843 -0.0010997511
000190 a3 3a 8f ba 79 7d 5a bc 70 08 0b 3c ec ed c1 3c
       -0.0010927509 -0.013335579 0.008485898 0.02367302
0001a0 ac 45 e8 3b 23 a9 16 3c 58 66 7c bc 9e 7c 78 bb
       0.0070883837 0.009195599 -0.01540526 -0.0037916075
0001b0 22 80 20 3d 3c 71 fb bd f8 86 85 bd 39 0f 2e 3d
       0.039184697 -0.12277457 -0.06519884 0.042494986
0001c0 96 98 4e bd bd fd 0e 3c cb b2 27 3d ef 41 c9 3b
       -0.050438486 0.008727488 0.040941995 0.006141893
0001d0 97 8a 94 3b d6 a2 fa 3c 5f 1c 2d 3c 1a 8d f1 bc
       0.0045331228 0.030595224 0.010565846 -0.029486228
0001e0 f5 0c a0 3c 4b a8 12 3d 39 f1 cc 3c aa 9a de 3c
       0.019537428 0.035805028 0.025017368 0.027173359
0001f0 68 e4 63 bd 8f 73 2d 3c b7 fb 97 3c 7d 22 96 bd
       -0.055637747 0.010586633 0.018552644 -0.07330797

a2c_network.actor_mlp.4.weight f4 [64, 128]
000000 75 8a 49 3b 55 22 0a 3d 0b 58 e0 3c bd 73 82 bd
       0.0030752693 0.033724148 0.027385732 -0.063697316
000010 14 dd bc 3b c3 72 d8 3d 08 93 43 3d 63 14 69 3d
       0.0057636593 0.10568764 0.04774764 0.056904208
000020 a5 11 88 bd ba f7 51 3c 8c 9c 11 bd 42 e8 6b bd
       -0.066439904 0.01281541 -0.035549685 -0.057594545
000030 03 5d 52 3c 22 57 bb bc 8a 20 bc bd bd 7b b7 bc
       0.0128395585 -0.022868697 -0.09185894 -0.02239787
000040 25 0f ea bd 2f 6a b2 bc ab 3a 4c bd d5 6e 6a 3d
       -0.1142867 -0.021779148 -0.049860638 0.057234604
000050 00 30 69 bd 8b 30 1d bd 9a 2e 6a bd f1 42 91 bd
       -0.056930542 -0.038376372 -0.05717335 -0.07092846
000060 8f 64 fe 3d 48 b0 97 3d 45 48 3d bd 6f 4f 75 bc
       0.12421524 0.0740667 -0.0462115 -0.014972552
000070 30 d4 a0 bd e7 9a 71 39 cf 63 bb b9 a2 d0 9a bd
       -0.078529716 0.00023041257 -0.00035741783 -0.07559325
000080 e4 2a a0 3d 0c a5 a5 3d 01 a5 99 bd 7f 9a d3 3c
       0.07820681 0.08088121 -0.07502175 0.025830505
000090 09 eb c7 3d 2b 4f 38 bd ce df cc 3d 79 f3 d4 bd
       0.09761626 -0.044997375 0.10003625 -0.10398001
0000a0 04 86 a1 bc f4 4a 0c bd fb f7 ff bd 01 1b 7c ba
       -0.019717224 -0.03425117 -0.124984704 -0.0009617061
0000b0 e8 b2 3e bd 67 eb 08 3d 8c 2f b6 3c 4e 27 ae 3d
       -0.046557337 0.033427622 0.022239469 0.085035905
0000c0 a2 90 1f 3c 8c ed 90 3d 67 d0 09 bd c1 e8 bc 3d
       0.009739073 0.070765585 -0.033646014 0.09224082
0000d0 e7 e6 8f 3d a3 c5 90 3c 68 f0 e7 bc fb 22 75 3d
       0.07026463 0.017672366 -0.028312877 0.059847813
0000e0 aa 0e b5 3d cb 2b 4c bd e1 1e 11 3d 91 d8 ec bc
       0.088406876 -0.04984645 0.03542984 -0.02891186
0000f0 3d 37 a7 bc 22 4c d7 3b 82 53 08 3d 5a ee 0b bd
       -0.020412082 0.006570355 0.033282764 -0.034162857
000100 7e dc f2 bb 71 5d 88 bd 65 d6 18 3e 46 73 ca ba
       -0.0074115386 -0.066584475 0.14925535 -0.0015445731
000110 81 d8 bc 3d de 3a 99 3d d4 fc f5 bd 69 1a 92 3d
       0.09220982 0.07481931 -0.12011114 0.071339436
000120 8b b3 d4 bd ba 13 e7 bc e4 06 aa bc 27 fc d2 3d
       -0.103858076 -0.028207649 -0.020755239 0.103020005
000130 82 d0 59 bd 02 b8 9b 3c f0 1b 74 3d dc ef 21 bd
       -0.053177364 0.01900864 0.059596956 -0.03953539
000140 53 57 91 3d ed c9 f8 3b d0 37 92 bd 6c cd 10 bd
       0.07096734 0.007592431 -0.07139552 -0.035352156
000150 e6 84 7c 3d d3 65 23 be 82 d3 98 3d 9a 6d 28 bc
       0.06165018 -0.15956812 0.07462217 -0.010280037
000160 29 89 4a 3d de e6 1d 3d a9 5b 65 bd a7 06 c5 3c
       0.049447212 0.03855025 -0.055995617 0.024051024
000170 2b 81 31 3d 4f aa 05 be bb 7c 1a be c4 0a f5 3c
       0.043336075 -0.13053249 -0.15086643 0.02991236
000180 d0 56 73 3c a9 ff 19 bd 2a 57 85 bd cf 91 52 bb
       0.014852241 -0.037597332 -0.06510766 -0.0032130366
000190 c5 16 fa 3c fc 50 21 3d a8 13 67 3d dd 7b bd bd
       0.030528435 0.039383873 0.05641523 -0.09252141
0001a0 1e 11 85 bd ac 83 01 3e d4 3e af 3d cc 96 44 3c
       -0.064974055 0.12647885 0.085569054 0.011998843
0001b0 0d da f9 3a ce 81 a4 3c 80 cb 5a bd 34 31 0a 3e
       0.0019062177 0.020081427 -0.05341673 0.13495332
0001c0 8d 8d af bd 68 bd 90 3d 4f e5 0e 3d 8a f3 43 3d
       -0.085719205 0.070673764 0.034886654 0.04783968
0001d0 10 11 31 3c 2b bc 16 bc 32 4a 35 3c 29 b1 46 bd
       0.010807291 -0.009200136 0.011065053 -0.048508797
0001e0 2c d9 a9 3d bd 76 ad bd f5 60 ab 3d ca 33 98 3a
       0.082933754 -0.08469913 0.083681025 0.0011612114
0001f0 17 13 ad 3d 0c 11 86 3d e4 70 21 3d b9 a8 0b bd
       0.08450907 0.0654622 0.0394143 -0.034096453
000200 b8 af 86 bd 2b 5a 9b 3d d6 e9 dc 3c 06 52 03 be
       -0.065764844 0.075855576 0.02696697 -0.12824258
000210 10 e4 81 bb cd d5 26 bd 12 fd 43 bd e7 99 bd 3d
       -0.0039639547 -0.04073124 -0.04784877 0.0925787
000220 ca 52 f2 bc 6b 39 31 bd 32 64 43 bd fe ca 44 bd
       -0.029580493 -0.04326765 -0.047702976 -0.04804515
000230 2c 2c 5e 3d 04 d7 55 bd 07 03 79 bd f6 e2 86 bd
       0.054241344 -0.052207008 -0.060793903 -0.06586258
000240 b7 61 bb bd bc 84 c3 3c 1b c7 0e bd 30 d5 26 3d
       -0.09149497 0.023867004 -0.03485785 0.040730655
000250 8f f5 6b bc 8d 08 b9 bc a0 4a 04 3d 11 93 0d 3d
       -0.014401807 -0.022587085 0.03229773 0.03456408
000260 4d 5a fa 3d e3 ec 45 bd f5 5e 9b bd ec 53 3b bd
       0.12224255 -0.048321616 -0.07586471 -0.04573433
000270 d9 74 36 3d a8 b5 18 bd 3b 50 c8 bc cc d3 b3 3d
       0.04454503 -0.037282616 -0.02445232 0.087806314
000280 d6 b1 1c 3c 65 5f ed 3c cd fd 44 3d 57 a9 99 bc
       0.009563884 0.028976152 0.048093606 -0.018757505
000290 87 f6 95 bc 11 2b 81 3d 5d bc ef bc aa 6d 20 3c
       -0.01830603 0.063070424 -0.029264623 0.009791771
0002a0 12 c6 68 3a de 1d be 3c c0 7f 9c bd e1 ec d3 bb
       0.00088796124 0.023207601 -0.07641554 -0.006467447
0002b0 19 f6 9c 3c 4a 69 be bd 1d 88 a6 3c 68 38 d2 3d
       0.019160317 -0.09297426 0.020328576 0.10264665
0002c0 7e 17 60 3d 46 59 6f 3d 86 0c 2b 3d f6 ff d8 bc
       0.054709904 0.058434747 0.04175999 -0.02648924
0002d0 98 e9 8c bd b1 4d 51 bd 63 b3 fb 3d 51 28 d0 3c
       -0.06880492 -0.051099483 0.12290075 0.02540985
0002e0 fd 92 88 3d 43 f4 b0 bd 82 93 8f 3d 71 94 cd 3d
       0.06668661 -0.08640339 0.07010557 0.100380786
0002f0 38 e6 96 bd 21 4e 97 bd 4f 9c 21 3d b2 e9 bc bd
       -0.073681295 -0.07387949 0.039455708 -0.09224261
000300 b6 d3 2f bd ca 70 01 bd 54 a5 cb 3c 1d a7 94 bd
       -0.042926513 -0.031601705 0.024859108 -0.07258437
000310 6b 48 ad bd d9 0d e2 bd d3 08 94 bd 15 1d bf bd
       -0.08461078 -0.110377975 -0.072282456 -0.09331719
000320 7c 87 04 bd 78 ab a6 bb 15 0a ee bd 86 8c 6e 3d
       -0.03235577 -0.0050863586 -0.11623017 0.058239482
000330 b8 79 ab 3c 6f a3 68 bd 8c dd 44 bc ab 44 8c bd
       0.020932063 -0.056796487 -0.0120157115 -0.06849035
000340 b5 fd 8e 3d 03 77 5f 3d d2 0e 5a 3c ac d1 d6 bc
       0.069819845 0.054556858 0.0133091975 -0.026223026
000350 e3 89 88 3d 56 91 fb bc 3b 06 fc 3b 27 d3 d4 bc
       0.06666925 -0.03070895 0.0076911724 -0.025979592
000360 72 2b 59 3c f0 5e 6c 3d a1 13 81 bd 03 74 85 bd
       0.013254987 0.057707727 -0.06302572 -0.06516268
000370 ea bd f7 bc 02 f7 1d 3c 0e bd 65 bd 5c 39 cf bd
       -0.030241925 0.009641411 -0.0560885 -0.10118362
000380 c4 83 0d bd 04 9d a5 3b b6 33 77 3d 20 25 c5 bc
       -0.03454949 0.005054118 0.06035205 -0.024065554
000390 7d ad 96 bd b0 fb 89 bc ef b8 73 bc 4a 83 85 bd
       -0.07357309 -0.016843647 -0.014875635 -0.06519182
0003a0 b7 8f bd 3d 21 be e8 3c bc d5 42 3d 50 8a 07 3d
       0.09255927 0.028410973 0.047567114 0.03309089
0003b0 fd d7 54 3c 13 ab b3 bd 0e d5 16 be f1 5b cc 3d
       0.012990949 -0.08772864 -0.14729711 0.09978474
0003c0 e0 d6 93 3b f1 8e e6 3b 73 57 5c 3d fb 0c ce 3b
       0.004511699 0.007036083 0.053794336 0.0062881685
0003d0 10 c1 c9 3d 13 20 09 3d da 88 d1 bd bf ae d0 bd
       0.09851277 0.033477854 -0.102311805 -0.1018958
0003e0 7e ac b8 bd 92 cd 2b 3d a8 d2 81 3c 9e 59 0f 3c
       -0.09017275 0.041944094 0.015847519 0.008749394
0003f0 6a 52 e4 38 bc da 91 3d d6 2e 71 3c c6 21 bc 3d
       0.00010887238 0.071217984 0.014720639 0.09186129

a2c_network.actor_mlp.4.bias f4 [64]
000000 6e 18 c8 39 ee 94 86 bd e1 23 37 3d 49 c4 68 3c
       0.00038165174 -0.06571375 0.04471195 0.014206954
000010 dc ad c9 bc 3d d6 16 bd 40 b3 4e bd ae b3 ad bd
       -0.024619035 -0.036825407 -0.050463915 -0.08481537
000020 2b de 88 bc 27 f7 90 bd a0 ea b7 bd d4 6a 66 3d
       -0.0167075 -0.070783906 -0.08980298 0.056254223
000030 a3 e3 1b 3d cd 6b 86 bd 01 49 8a bd fb 8a 5e 3c
       0.03805889 -0.0656353 -0.06752206 0.01358294
000040 8a 9f 48 bd 0f 78 54 bd 4b f3 7e 3d b3 53 21 bd
       -0.048980273 -0.05187231 0.06224374 -0.039386462
000050 ef ad 68 bd f8 58 c9 bd ea 0d c0 bd 75 3f 49 bc
       -0.0568065 -0.098314226 -0.09377654 -0.012283196
000060 e4 77 6d 3d de 21 ae bc 1c 53 56 bd 31 49 ea 3c
       0.057975665 -0.021256384 -0.052325353 0.028599354
000070 ee 15 83 3d d9 b5 6a bd 82 68 0b be d7 f3 ac bc
       0.06400667 -0.05730233 -0.13614085 -0.021112366
000080 1c 06 50 bd cf 1e 5f 3b 99 0f 39 3b 55 26 a7 bd
       -0.050787076 0.0034045463 0.0028238057 -0.08161608
000090 c4 51 9e bd fb ed c3 3c 35 e8 a8 bc ff 09 00 bb
       -0.07730439 0.023917189 -0.020618537 -0.0019537208
0000a0 e8 a5 a0 3c 04 15 87 3c 1c d5 62 bd a6 bf 87 3a
       0.01961036 0.016489513 -0.05537902 0.0010356798
0000b0 3a 10 73 bd d3 e6 0e be 75 ac 33 3d 49 c2 4f bc
       -0.059341647 -0.1395524 0.04386564 -0.012680599
0000c0 62 4b ae bd 35 e5 70 bd d8 b5 39 3d 5d 53 8c bd
       -0.08510472 -0.05881234 0.045339435 -0.06851838
0000d0 f6 33 99 3c d7 36 92 bd 5c 2c 9c 3c 96 71 66 bd
       0.018701535 -0.07139366 0.019064121 -0.056260668
0000e0 8b 4d 14 bc f0 b9 19 3d 08 cc 7a bd ca 32 62 bd
       -0.009051691 0.03753084 -0.061229736 -0.055224217
0000f0 ee 51 dc 3c 31 b7 8d bd 22 e0 b2 bd 46 9e 57 bd
       0.026894536 -0.069197066 -0.08734156 -0.052641176

a2c_network.value.weight f4 [1, 64]
000000 35 74 a0 3d 92 4e 26 3c e3 fb 18 3d 2d eb fd 3d
       0.07834665 0.010150569 0.037349593 0.12398372
000010 5b 7b 4f bd 68 93 99 b9 2c c7 b0 ba ba 8d e1 bc
       -0.05065475 -0.0002929226 -0.0013487092 -0.0275334
000020 ed 4f 23 bd 70 06 ba bd a5 08 ec 3b 5b 54 80 3d
       -0.039871145 -0.09083259 0.007203179 0.062660895
000030 32 19 85 3b 91 ad b8 3a 5a ff 5b bd 00 49 0d bd
       0.0040618414 0.0014089813 -0.05371032 -0.034493446
000040 06 2f dc bd 87 fe a6 bd d6 3e aa 3d b4 35 26 bd
       -0.107511565 -0.08154016 0.08312766 -0.04057856
000050 c0 bd 06 be 5c 40 0c bd 8c fc 11 3c e3 0d 5e 38
       -0.13158321 -0.034241065 0.0089103095 5.2941858e-05
000060 ca a2 aa bc 12 61 0f 3d a3 4f a6 bd 9b 0f e4 3c
       -0.020829577 0.035004683 -0.08120658 0.027839473
000070 7d 6b 99 3c 89 68 bf bd 08 4f 71 bd 87 46 05 bd
       0.018728012 -0.093461104 -0.05891326 -0.032537963
000080 9f a3 c5 bd 6d 47 f3 3b 66 a3 2f bd f0 09 40 bd
       -0.09650349 0.007424286 -0.04288044 -0.046884477
000090 d0 14 31 be bb c2 87 3d dd b7 e8 3c 76 45 12 bd
       -0.17293096 0.06628939 0.028407985 -0.035710774
0000a0 4b e9 6c 3d 91 dd 2c bc 53 0d 89 bd 7e 02 6e 3d
       0.057839673 -0.010550872 -0.066919945 0.058107845
0000b0 de a6 7b 3d 25 ea 02 3b 88 e1 8c 3d 79 01 84 bd
       0.061438434 0.0019975987 0.06878954 -0.064455934
0000c0 df 5f 8c bd 9b 0d de bd 8f 44 9e 3c 31 d3 a9 bd
       -0.068542235 -0.10842439 0.0193198 -0.08292235
0000d0 88 51 c2 3d 61 17 17 bd 21 e4 17 3d c9 2e c7 bb
       0.09488207 -0.03688753 0.037082795 -0.0060785753
0000e0 13 cf 57 3d 54 86 5c 3d 43 eb 07 bd aa a8 12 be
       0.052687716 0.053839043 -0.033183347 -0.14322153
0000f0 b3 9f ec 3d 91 9d ff bd ad 1c 2f 3c 77 79 0d bb
       0.11553898 -0.12481225 0.010687989 -0.0021587291

a2c_network.mu.weight f4 [8, 64]
000000 0a 98 6f 3c e7 e9 df b9 e1 51 0c be 6b eb 71 3d
       0.014623651 -0.00042708145 -0.1370311 0.059062403
000010 6c 16 33 3c 60 17 36 3d 74 3a b2 bd 4a 8a a6 3c
       0.010930639 0.044455886 -0.08702555 0.020329613
000020 9e b8 2e bd b3 21 08 3d eb 13 40 bd fc 85 98 3c
       -0.042656533 0.033235263 -0.046893995 0.018618576
000030 d5 4a c5 bc 3f 45 70 bd 64 5a 2f 3e b0 f7 86 bd
       -0.024083534 -0.05865979 0.17124325 -0.065902114
000040 61 62 c5 3d 15 32 27 3d 87 dd 9e 3c 26 bd dd bd
       0.09637905 0.040819246 0.019392742 -0.10827093
000050 e8 69 96 3d c7 ab 2b 3d a2 a5 d8 3d 27 d9 0e be
       0.07344419 0.041911867 0.10578467 -0.13950025
000060 00 37 81 bd cb 0d 44 3d 80 54 69 3d 2b 37 13 3e
       -0.063093185 0.047864717 0.05696535 0.14376514
000070 d9 9b d7 bd 15 da 87 3d 85 e9 33 bb 53 d4 43 bd
       -0.105277725 0.06633393 -0.002745242 -0.04780991
000080 54 ba bb bd c9 f3 0f 3e 44 35 8e 3d 1f 4c 23 3e
       -0.09166399 0.1405784 0.06943753 0.15947007
000090 9f 7f 79 bd 4b e8 40 3d f6 35 93 3c b2 93 c3 bd
       -0.060912725 0.04709653 0.017970067 -0.09549655
0000a0 cb 07 61 3c 40 73 b0 3d 1c 55 e7 3d 2d 0c 0c bd
       0.013734768 0.08615732 0.1129553 -0.0341913
0000b0 2e ac 82 bc bb 65 43 3d fd 5a c6 bb 89 c5 da bd
       -0.015951242 0.04770444 -0.006053327 -0.10682208
0000c0 db fe 63 3b dd c5 df 3d 6a a2 4c bd b9 91 32 3d
       0.0034789357 0.10926411 -0.049959578 0.043596003
0000d0 04 78 1c 3d 27 da 02 3d 9c c4 cd bd 35 f4 17 3c
       0.038200393 0.031946328 -0.10047266 0.009274532
0000e0 b5 1a 17 bd 9c 5d 21 be c3 e4 90 3d 91 db 20 be
       -0.036890704 -0.15758365 0.07074883 -0.15708758
0000f0 53 af da bb 66 bc 5c 3d a8 aa 9d b7 30 e8 c8 3d
       -0.0066737323 0.05389061 -1.8795326e-05 0.09809911
000100 4d 8e dc 3c da 6e 40 bd d3 28 95 bd 55 b7 ca 3c
       0.026923323 -0.046980716 -0.07283177 0.024745623
000110 28 75 fb bc 8c 74 b6 bd 96 9e ea bc 58 75 0b 3e
       -0.030695513 -0.08908948 -0.028640073 0.13618982
000120 a9 49 82 bd 6a 38 9d bc 7c 3d d3 bb ba b7 23 bd
       -0.06361706 -0.01919194 -0.0064465385 -0.039970137
000130 0e b0 a2 bd 6c a2 22 bd 60 d3 77 3c 69 6f eb bc
       -0.07943736 -0.03970568 0.015126079 -0.028739648
000140 4a fc 13 be 5c e4 2c 3c 9f 9d 0d bd 26 e1 31 3d
       -0.1445171 0.010552492 -0.034574147 0.04342761
000150 95 50 fe 3d 01 68 03 3e a5 93 78 3d 58 56 94 bc
       0.124177136 0.12832643 0.06068768 -0.018107578
000160 3b f3 22 bd 57 22 cc 3d dd 55 95 bd e4 e1 85 bd
       -0.039782744 0.09967487 -0.07291768 -0.06537226
000170 d9 c0 fc 3d f9 e0 30 3d 8d 1f 20 3d ec 4b f8 bb
       0.1234147 0.0431833 0.03909259 -0.00757741
000180 93 ab 2d 3d 69 c8 64 3d 78 21 82 3d c1 c5 4e bc
       0.042399954 0.05585519 0.0635404 -0.01262039
000190 67 5a 05 3b 14 6f e1 3d aa 1c 7d 3d 24 41 84 bd
       0.0020348073 0.110075146 0.061794914 -0.06457737
0001a0 b9 31 89 3c f2 2f 27 bd fe 9b 03 be 9d 97 a7 3d
       0.016747342 -0.04081721 -0.12852475 0.08183215
0001b0 75 43 f8 bc 1b 6c 9f 3d dc da e9 bd d1 4d 0b bd
       -0.030305604 0.07784291 -0.11418697 -0.03400976
0001c0 73 14 1c bd 9c 2b cb 3d b3 e5 f6 3d ae 58 86 bb
       -0.03810544 0.09920427 0.120555304 -0.004099927
0001d0 7d b7 ff bd 5a bd 54 3d 19 1c 14 3e 86 1a 20 3e
       -0.124861695 0.051938392 0.14463843 0.15635118
0001e0 fe a2 9d bd e6 11 15 bd 69 b5 9b 3d 2f a4 58 bd
       -0.07697104 -0.036394022 0.076029606 -0.052890953
0001f0 f7 d2 1e 3d 50 4b 67 bd 1f 10 64 3d e1 f9 ae 3d
       0.03877541 -0.056468308 0.055679437 0.08543754
000200 c3 f4 ab 3c 21 68 e2 3c be 1f 7e bd b8 48 3a bd
       0.020990735 0.027637543 -0.06204199 -0.045479506
000210 5a 5f 05 bd 26 ef fb 3d bb cd 97 3d 98 83 95 3d
       -0.032561637 0.12301473 0.07412287 0.0730049
000220 7b b7 55 bc bd 5d ae bc 22 3b 47 3c 98 2a dd bd
       -0.013044233 -0.021284932 0.012160094 -0.1079914
000230 70 e4 44 3d e2 7a a0 3d d1 51 51 bd bd a9 30 bd
       0.048069417 0.07835938 -0.051103417 -0.043130625
000240 66 bc 61 be c8 39 98 bd 8d 23 ad bd 0c 44 36 bd
       -0.22044525 -0.07432896 -0.084540464 -0.04449849
000250 80 c5 48 3d 5c 9d a7 3c ed bb d4 3d 9b 66 2a 3d
       0.049016476 0.020460777 0.103874065 0.04160176
000260 af 98 0c bd 7c 51 d6 3d a8 50 a2 3c 9d b3 c6 bb
       -0.034325298 0.10464761 0.01981385 -0.006063892
000270 5c 9d fb bd 6d 6c 25 bd e7 25 e0 3d 89 f3 3c 39
       -0.12285873 -0.040386606 0.10944729 0.00018019801
000280 98 54 16 be 61 81 5e bd 6e f9 83 bd 95 62 0f 3e
       -0.14680707 -0.054322604 -0.06444059 0.1400245
000290 b3 58 3d bd 47 24 59 3d b6 88 e8 3b b3 b5 1e be
       -0.04622717 0.053013112 0.0070963753 -0.15499
0002a0 a8 c1 31 bd e6 f5 4a bb f8 1e 30 bd b1 94 1c 3d
       -0.043397576 -0.003096932 -0.042998284 0.03822774
0002b0 d5 bc fd 3d c5 b5 a3 3d eb 51 ae 3d c5 e0 bd 3c
       0.123895325 0.07993654 0.08511718 0.023178468
0002c0 72 ba fb 3d a1 6f 9c bd f8 f4 a1 bd 6d 95 98 bd
       0.12291421 -0.07638479 -0.07908052 -0.07450376
0002d0 81 e7 a1 bd cc f3 d1 3d d5 a4 a4 bc cc a7 c8 bc
       -0.07905484 0.10251579 -0.02009813 -0.024494074
0002e0 84 0c d0 3d fd 5d 9b 3d e4 b3 8c bd 1c d0 ac bd
       0.10158637 0.07586286 -0.06870249 -0.08438131
0002f0 6d 32 41 3d 0f ad a0 3c 7b fe 7f 3e a7 1a bd bd
       0.04716723 0.01961377 0.2499942 -0.09233599
000300 ff c0 be bd 76 48 52 bd 0f 42 be bd 5c 81 12 bd
       -0.09314155 -0.051338635 -0.092899434 -0.035767898
000310 59 0a 7e 3d 7a 9a 6c 3d 0e 62 7b bd 3b 30 42 bd
       0.062021587 0.057764508 -0.06137281 -0.047409277
000320 f9 a1 3a bd 06 4b 1c bd b5 7b 87 bd c5 85 7f 3d
       -0.045564625 -0.038157485 -0.06615392 0.062383432
000330 03 67 53 3d 3a 99 a0 bd 1d 99 c2 bc 66 bb 2f 3d
       0.05161191 -0.07841726 -0.02375465 0.042903326
000340 6f c2 31 bd bb 60 0b 3e 89 ea d2 3d 30 86 15 ba
       -0.043398317 0.13611118 0.1029864 -0.00057038944
000350 df f1 06 3d 11 7f 46 3d 2c 7c 75 bb e2 eb 58 3d
       0.03294551 0.048461024 -0.0037458045 0.05295933
000360 64 f3 fb 3c 97 36 f1 3c 8e 13 43 3d 0e 8c 4f 3d
       0.030755706 0.029444976 0.04762607 0.050670676
000370 e6 be dc 3d 8e 88 ff 3c 82 49 50 bd ae db 70 bd
       0.107785985 0.031193044 -0.050851353 -0.058803253
000380 04 dc 56 bd 69 d8 03 be 33 d0 ee bd c1 ea 07 3c
       -0.052455917 -0.12875523 -0.116608046 0.008295716
000390 08 cb 55 bd 9d 07 53 3d 8a 13 a2 3d 79 43 bb 3c
       -0.05219558 0.051520932 0.07913883 0.022859322
0003a0 95 7d 65 bc 35 40 de bc 3f ca c9 3d f2 8b a4 3d
       -0.014006992 -0.027130226 0.098530285 0.08034505
0003b0 a8 b0 94 3d c7 dc 29 3d 7e 42 d8 3c 47 af e5 3c
       0.07260257 0.041470315 0.026398893 0.02803768
0003c0 e1 f1 8e 3c 3e 01 e5 3c 48 4b 40 3d 4e 9a 55 3d
       0.017449321 0.027954694 0.046946794 0.05214911
0003d0 f2 98 fd bd 2c 33 c8 bd a0 c1 b6 bc 38 5c bb 3d
       -0.12382688 -0.09775385 -0.022309124 0.09148449
0003e0 e2 66 81 3c d0 ca 9b 3d c2 ef 55 bd bc 72 2f bc
       0.015796129 0.07607043 -0.052230604 -0.010708507
0003f0 9c 82 68 3d ce 4f f1 bd 6e 17 0c bc a7 bb b6 bc
       0.056765184 -0.117828 -0.008550508 -0.022306276

a2c_network.mu.bias f4 [8]
000000 d8 b8 d8 bd 44 47 c1 bd 61 b3 0a bd 0d 28 77 3d
       -0.10582131 -0.09437421 -0.033862475 0.06034093
000010 c7 b2 8f bd 6a 60 7e 3c ce 3b 0d be 11 b3 4e bd
       -0.07016521 0.015525917 -0.13792345 -0.05046374

exp_avg f4 [8]
000000 cd 17 bf 3b 4b a8 cc 3b 98 a3 bb 3b 60 c8 53 3b
       0.0058316947 0.006245648 0.005726289 0.0032315478
000010 72 08 e9 3b c6 39 11 3c ce f2 88 3b 42 3a 49 3b
       0.0071116025 0.008863872 0.004179335 0.003070489

exp_avg_sq f4 [8]
000000 bb b3 21 38 3d bc 8a 38 f9 53 4e 38 f2 99 40 38
       3.855278e-05 6.615415e-05 4.9192433e-05 4.591974e-05
000010 e4 3d 4b 38 4d a7 99 38 e3 48 36 38 b3 e3 69 38
       4.845661e-05 7.326771e-05 4.3460062e-05 5.576359e-05
