runs/FrankaCubeStack_01-19-49-11/nn/FrankaCubeStack.pth (torch, 577583 bytes, 36 tensors)

value_mean_std.running_mean f8 [1]
000000 c4 60 12 6e 94 e6 14 40
       5.225175590392784

value_mean_std.running_var f8 [1]
000000 94 fa a8 84 19 a2 26 40
       11.31660093844156

value_mean_std.count f8 []
000000 00 00 00 02 00 10 a7 41
       193462273.0

running_mean_std.running_mean f8 [19]
000000 80 99 f2 bd 8b e5 6d bf bd 47 88 04 0a ac 8d 3f
       -0.0036494950614553434 0.01448829485255831
000010 ea a9 01 54 68 d9 ac bf 89 82 d5 24 fb 58 ec 3f
       -0.05634618783445318 0.8858619422354234
000020 8c 85 c8 4f de ea 7c 3f 42 fd 42 a7 c3 e7 7b 3f
       0.007059925465484961 0.006812824507675787
000030 11 66 4d 4f bf dd f0 3f fb 91 e4 90 27 76 64 bf
       1.0541375253436664 -0.002497746732063042
000040 6b 35 4a 15 24 20 79 bf 45 71 03 f4 a6 f8 79 3f
       -0.006134167623384239 0.0063406488045212915
000050 4b 88 8c b7 c1 5d 43 3f 97 fc a9 d6 eb 4e 7d 3f
       0.0005910106548052766 0.007155343288672309
000060 e9 e6 1a da e4 1c f1 3f 86 fe 69 b1 c0 b3 c5 bf
       1.0695541877489012 -0.169548117282819
000070 19 3a 42 16 29 51 af bf 79 19 26 07 d5 fc c2 bf
       -0.06116608044350275 -0.14834082459510592
000080 84 03 5f f9 8f 54 89 bf 9e 38 c1 4d f5 e9 95 3f
       -0.012368321225837205 0.021400292273306414
000090 f7 bc 3c 6f ce 79 96 3f
       0.021949029483207174

running_mean_std.running_var f8 [19]
000000 91 cf c6 ca 85 a6 a8 3f 45 0e 6d 99 bd 3a 98 3f
       0.04814546680736876 0.02366157769144041
000010 f9 23 03 31 6a b0 ba 3f 46 c4 65 f6 5b 3e a2 3f
       0.10425437637890402 0.035632013156722084
000020 98 eb 43 92 15 26 99 3f dd 64 a7 c5 c6 4d 9a 3f
       0.0245593424342406 0.025687318624339695
000030 d2 e4 2b ae d4 33 4a 3f 8b 63 8f 7c 0e f3 b0 3f
       0.0007996357420260397 0.06620874920862556
000040 2c 19 4c 7e 21 e1 b0 3f 10 5e 7f 2a 2d f8 77 3f
       0.06593522389821221 0.005851913861952621
000050 90 db 2d 2b 7a c6 95 3f b2 61 5d f3 d3 a1 97 3f
       0.021264943013615645 0.02307826207047165
000060 63 b0 f7 f5 aa b8 67 3f 69 e5 7d 69 e4 fa ea 3f
       0.002895673663934105 0.8431264934908259
000070 e9 55 28 dd 93 3a a9 3f ea ea dc 7d 28 2d a2 3f
       0.049275036570332116 0.035500779499178695
000080 33 b8 b8 79 49 be 91 3f 10 aa 09 5d 69 f8 11 3f
       0.01732744985036323 6.855147445043058e-05
000090 4d a2 8c b6 f9 8b 11 3f
       6.693565013605428e-05

running_mean_std.count f8 []
000000 00 00 00 04 00 10 97 41
       96731137.0

a2c_network.sigma f4 [7]
000000 7d 6c a4 bf c5 db 8a bf 3c 49 c9 bf e6 22 4d bf
       -1.2845608 -1.0848318 -1.5725474 -0.80131376
000010 ec d0 4c bf 93 2d 22 bf 7d 09 d6 bf
       -0.8000629 -0.6335079 -1.6721646

a2c_network.actor_mlp.0.weight f4 [256, 19]
000000 7f 68 22 3d 78 ff e6 bc 76 16 31 3c 50 0c 4a bd
       0.039650436 -0.028197989 0.010808578 -0.04932815
000010 05 e7 f5 3e 9d 99 f1 be eb e2 94 3d 26 75 e8 bd
       0.48027816 -0.4718751 0.07269844 -0.11350469
000020 c3 a2 fe bc fc bd aa bd de fd de be 8a a3 a5 3e
       -0.03108347 -0.08337018 -0.4355306 0.32351333
000030 2e c8 05 bf 6d 24 b4 3d 7a c1 c7 bc 4b b8 d8 bd
       -0.52258575 0.0879601 -0.024384249 -0.10582026
000040 a0 a4 11 3e 01 21 85 bc 40 71 f6 3d 5b e2 0f 3d
       0.14222956 -0.016251089 0.120333195 0.03512798
000050 01 0d a0 bd da b8 f3 38 77 17 9c bc 60 7f 75 3e
       -0.0781498 0.00011621574 -0.019054158 0.23974371
000060 a8 3a dd 3e 7f 28 54 3e 27 5d 6b bd b8 48 e1 3d
       0.43208814 0.20718573 -0.057461884 0.11000198
000070 6f 0d 6e 3c 9b 2c c9 bd 59 69 c4 be a5 8e 33 be
       0.01452957 -0.09822961 -0.38361624 -0.17534883
000080 ff 82 20 bd fc 45 af bd 0e cc 57 3e a4 14 9d 3d
       -0.039187428 -0.0855827 0.21073934 0.076699525
000090 0b 03 12 3e 69 25 75 3d ac 83 58 bd 2a 2f c0 bc
       0.14258973 0.05985013 -0.052859947 -0.02345999
0000a0 31 d2 24 3d 50 b8 85 3d 8f 20 23 be 59 e7 e3 3e
       0.040239517 0.065292954 -0.15930389 0.44512442
0000b0 09 02 ad bd 36 69 fc bc 03 63 82 bd 71 c2 89 3e
       -0.08447654 -0.030811887 -0.06366541 0.2690616
0000c0 65 a9 1d 3e e6 bb c9 be 7c 72 04 bf 42 88 00 3e
       0.1539665 -0.39401168 -0.5173719 0.12551978
0000d0 b9 b4 d8 bc 99 0f b0 bc 7b 67 97 bd 73 a9 72 ba
       -0.026453363 -0.021491813 -0.07392784 -0.0009256817
0000e0 2a 2b 6d 3c b8 5f f3 3c 86 20 58 bc fc f1 a6 bc
       0.014475623 0.029708728 -0.013191348 -0.020379059
0000f0 e1 6b 94 3d 8b 27 10 bf 11 f0 74 bd 4b f6 85 3e
       0.07247139 -0.5631034 -0.059799258 0.2616447
000100 f6 70 cc bd 88 7d a5 bd 65 62 1a be 26 eb f4 3e
       -0.09982483 -0.08080584 -0.15076597 0.47835654
000110 e1 2c 48 bd 62 97 b5 be 7f 07 7a 3b d0 94 d7 bd
       -0.048870925 -0.35467058 0.003815144 -0.105264306
000120 ef 1c 19 bd 39 90 cf 3d 99 32 23 3e 1a f5 0f be
       -0.03738111 0.1013493 0.1593727 -0.14058343
000130 e4 6e 1d bd 63 2a a5 3d 4d 06 04 be 24 d6 84 3d
       -0.03843583 0.08064725 -0.12893029 0.064861566
000140 15 1c f2 be 76 06 26 be 98 0f 17 3e 69 de dc bd
       -0.4728705 -0.16213402 0.14752042 -0.10784609
000150 ce 76 32 be ea bf 44 3e dd 4b 06 3e a9 4e ca bd
       -0.17428133 0.19213834 0.13114877 -0.098782845
000160 06 2a 0a 3c 67 85 c5 bd a9 1c 62 3d 5d 48 8d 3e
       0.008432871 -0.09644585 0.055203114 0.2759427
000170 8e bf ca 3b 18 f1 e3 3d 00 59 37 be 5f 8c 1b 3b
       0.006187386 0.11129969 -0.17905045 0.002373479
000180 77 c3 b4 3b a3 68 22 bd 30 a9 bb 3d d1 a8 8e 3c
       0.0055164653 -0.03965057 0.09163129 0.017414482
000190 ea b1 1c 3d 30 c4 5f 3d ce 46 0a be c7 7a 69 bd
       0.03825561 0.05463046 -0.13503572 -0.057001855
0001a0 f5 5f 49 be 01 57 68 be 72 db 8b bd 51 ae 05 bc
       -0.19665511 -0.2268944 -0.06828965 -0.008159236
0001b0 60 4d c2 bd 8e b3 80 3d 1b 3a b4 bd 9d 09 51 3d
       -0.09487414 0.06284247 -0.08800145 0.05103456
0001c0 b7 6a 45 3e 8e 7b f6 bd 2c 10 5a 3d dc 4a c1 3d
       0.1927899 -0.12035285 0.05323808 0.094381064
0001d0 58 16 be bd 1e 8f 38 be f3 4c a7 be ff f7 b1 3e
       -0.092816055 -0.18023345 -0.32675895 0.34759519
0001e0 68 f6 a4 bb d0 83 c2 3b 3b 6f 55 be d0 2e a3 3d
       -0.0050342567 0.0059361234 -0.20843212 0.07967913
0001f0 71 66 26 3e 0b c1 63 be 7a 54 f6 bd a6 fa 3f 3c
       0.16250016 -0.22241609 -0.120278314 0.011717474
000200 26 8d 66 3e 02 48 bc bd 47 24 f6 bd 2d c7 3c 3d
       0.22514781 -0.09193422 -0.12018638 0.046088386
000210 f3 f6 4c be 34 dc 71 bd c6 83 02 3d c3 3c 1b 3d
       -0.20016079 -0.059047893 0.03186395 0.037899744
000220 75 dc fa bd d3 ae 29 bd 13 9b 03 3f dd ae a1 3d
       -0.1224908 -0.04142649 0.514085 0.07894681
000230 07 6a c5 bc 0a ac 51 3e de 4c b5 3d 24 df ab 3d
       -0.02409841 0.20475784 0.08852552 0.0839217
000240 bb d8 13 bf ed 33 62 3e 9b ec c7 3c 11 86 71 bd
       -0.5775258 0.2209012 0.024404814 -0.058965746
000250 2a 4e 43 3e 47 4f 7b 3c 6f 7e 7d bd 8d 50 d6 bd
       0.19072786 0.015338725 -0.061888155 -0.104645826
000260 fa 5c 22 3c 8f 00 64 bc d3 07 5b bb 26 32 d7 bd
       0.009909863 -0.013916149 -0.0033421412 -0.10507612
000270 f7 82 ed be 45 ae cc be 50 27 e6 3d ba 72 14 3e
       -0.4638898 -0.39976707 0.11237967 0.1449689
000280 f0 6f 08 be ed cb c2 3d 8d c3 10 3f 32 1f 7a 3e
       -0.13323951 0.09511552 0.56548387 0.24425963
000290 26 82 8c be 6a 74 42 3d cf dd be 3c 45 18 3f 3d
       -0.27443045 0.047474302 0.023299126 0.046654005
0002a0 f9 cb db 3c cb 0d 58 bd 53 25 89 3d 14 3a 88 be
       0.02683066 -0.05274753 0.06696572 -0.2660681
0002b0 0d ef f9 3d cd e6 d9 3d 10 0f 8b 3f b1 5f a8 3e
       0.122037984 0.10639725 1.0863972 0.32885507
0002c0 64 2c 8d be c1 9f cc bd c6 4d 07 be fe f9 3b bc
       -0.2757293 -0.09991408 -0.13213262 -0.011473177
0002d0 dd e8 6f bd 28 d3 11 be 42 ed 2a 3e 60 d2 18 3f
       -0.058571685 -0.14240706 0.16692069 0.59696007
0002e0 39 be 8c bc ec dd b3 bd d5 27 79 be 05 7c 5b bd
       -0.017180549 -0.087825626 -0.24331601 -0.05358507
0002f0 4c 1b ab bd 6c 7d 10 3e 90 cb 45 bc 62 35 d6 bc
       -0.08354816 0.14110345 -0.012072459 -0.026148502
000300 3f 6f 56 3d bb 04 c9 3d 68 e6 92 be f4 cc 0a 3d
       0.052352186 0.098153554 -0.2869141 0.033886865
000310 e4 d2 ca 3d f9 ca c8 bd c2 92 60 bc 2f 01 1d 3e
       0.099035054 -0.09804339 -0.013706865 0.15332483
000320 1a 63 c0 3c 54 e7 09 be 9a c5 df 3e db 1d 86 bd
       0.023484755 -0.13467151 0.43705446 -0.06548663
000330 d9 99 32 bc 73 7c c8 be 6f df 0e 3e 7d 9b 64 3e
       -0.010900938 -0.39157447 0.1395242 0.22324939
000340 05 ee 16 3e 17 1a 17 be e4 f7 b8 be 17 10 9e bc
       0.14739235 -0.14756046 -0.36126626 -0.019294782
000350 5a b6 1d 3e 46 66 b0 3e 49 6e de 3e 3e c4 12 3e
       0.15401593 0.34453028 0.43443516 0.14332673
000360 af 8c 79 3c fa 54 0e 3e d8 c4 02 bd 1a 26 eb be
       0.0152312955 0.13899603 -0.031926006 -0.45927507
000370 9a ae fb be 35 01 94 bc c2 90 d7 bd 5c 30 11 bd
       -0.49156648 -0.018066982 -0.10525657 -0.03544651
000380 df f6 ed bd 94 82 b1 bc 2e ce 86 bc ce de 88 bc
       -0.116193525 -0.02166871 -0.016455736 -0.016707804
000390 f3 f0 2f 3d 74 34 91 3d 69 09 25 3d 5b b8 46 3d
       0.042954396 0.07090083 0.040292177 0.04851566
0003a0 55 55 43 bd f6 3a 65 be 69 0c 2d bf 4d 13 fc bd
       -0.0476888 -0.22385773 -0.6759706 -0.12308369
0003b0 ac 20 c3 bd 6e 6c 7d 3f 70 12 f4 bd 42 e0 2c 3e
       -0.09527716 0.98993576 -0.11917579 0.16882423
0003c0 41 de fb 3e 8c 9e d2 3d 29 57 a0 ba 7c e0 ce bd
       0.49193004 0.10284147 -0.0012233007 -0.10101411
0003d0 77 5b ca bc 46 91 af bd 12 3b e3 3d 7e 5f 25 3d
       -0.024701817 -0.085726306 0.11095251 0.04037427
0003e0 5c 20 ef bc 41 af e5 bd df 20 ce bd 3b fb a4 3e
       -0.029190235 -0.11215068 -0.100648634 0.32222924
0003f0 ff 56 00 bf 96 c0 65 3e 22 11 d4 3d 18 64 66 bc
       -0.50132746 0.22436747 0.1035483 -0.01406195

a2c_network.actor_mlp.0.bias f4 [256]
000000 2a fa 9f be 1c 4b 09 bd 09 0a 63 be 0f a0 11 be
       -0.31245548 -0.033518896 -0.22171797 -0.14221214
000010 05 8a 26 3e 98 69 26 3d 72 3f a4 be 06 83 dc 3c
       0.16263588 0.040628046 -0.32079655 0.026917946
000020 96 c9 08 be b9 dd e0 3d 23 28 5b 3d 5a 05 30 bd
       -0.13358149 0.1097979 0.053505074 -0.042973854
000030 d0 58 88 3e 0f 7e 6b be ad 0e 5a be 6e e8 a2 be
       0.2663026 -0.22997306 -0.21294661 -0.31817955
000040 14 23 a1 3d 54 ae d8 bb d9 f3 4f bd 4b 47 f1 be
       0.07868019 -0.0066125784 -0.05076966 -0.47124705
000050 52 04 39 bd b1 62 50 3d 88 ec b3 bd ac cf 88 be
       -0.045170136 0.05087537 -0.08785349 -0.2672094
000060 76 37 89 be a0 32 54 3e 6b 75 51 bc 6f 74 80 be
       -0.26800126 0.20722437 -0.012784342 -0.25088832
000070 05 50 7d 3d ae 81 55 be 7e 25 19 be 13 65 0c 3e
       0.06184389 -0.2085025 -0.14955708 0.13710432
000080 36 3f e0 bd fd c9 4c be 34 5c 22 3e e6 52 41 be
       -0.109495565 -0.19998927 0.15855485 -0.1887928
000090 38 a1 9a be 0f 1f 08 be db b4 91 3e fc a4 1a 3e
       -0.30201125 -0.13293098 0.28458294 0.15101999
0000a0 83 41 e6 be e4 e1 68 be 57 b6 ee bd ff a3 ba be
       -0.44971856 -0.2274242 -0.11655872 -0.36453244
0000b0 a0 bc a9 be d4 66 ee bd f3 1a d9 3d 49 67 94 be
       -0.33151722 -0.11640707 0.10600843 -0.2898505
0000c0 96 6f eb 3d 0e c1 d8 3d e8 b3 4f be 3a af 89 be
       0.11495893 0.10583697 -0.20283473 -0.268915
0000d0 87 52 55 3e 9b 4a 08 3f 91 bd 59 bd ee 80 c0 3d
       0.20832263 0.5323884 -0.0531593 0.093995914
0000e0 fc ce 3f be 72 38 aa 3d 9f b7 c2 bd ee a0 71 be
       -0.18731302 0.08311547 -0.09507679 -0.23596546
0000f0 75 f0 0c be c6 0d d7 bd cf 13 86 bd c4 e3 33 be
       -0.13763602 -0.10500674 -0.06546747 -0.17567354
000100 40 ab 9a be cc 46 d5 bd 9f d4 29 be bc 0e 27 be
       -0.30208778 -0.10413894 -0.16585015 -0.16314214
000110 a9 b6 91 3d 3c 01 22 be a4 44 2c be bd b3 8b be
       0.07114918 -0.15820783 -0.1682306 -0.27285567
000120 61 6f 09 3e c4 b3 b7 bd b9 42 6f 3d e0 45 5b be
       0.13421394 -0.089698344 0.05841324 -0.21413374
000130 43 cc 34 3d f8 95 4b 3d 5f a8 9f be 35 1b 9f bd
       0.04414011 0.04970357 -0.31183144 -0.07768861
000140 f7 0c 4e 3e fb 60 33 be a6 e1 e3 be 6a 33 63 be
       0.20122133 -0.17517464 -0.44508094 -0.22187582
000150 36 d6 2c bd dd c6 10 be 9b 68 8b bd 39 f1 81 3e
       -0.042196475 -0.1413836 -0.06807061 0.2537935
000160 2d 22 bf 3c 78 d2 d4 3d 9b 52 bf bd c7 98 34 3e
       0.023331726 0.10391706 -0.093419276 0.17636405
000170 21 28 b3 3d 42 1d 78 3e 66 cb 5b 3d 3f a4 0b 3e
       0.08747888 0.24229911 0.053660773 0.13636874
000180 4b df 66 3d 1d 7f 43 3e 8f 33 81 3d a1 40 72 be
       0.056365293 0.19091459 0.06308662 -0.23657466
000190 74 69 2f 3e 03 97 9a 3d 90 2f a0 3c 01 7d 2a 3d
       0.17130071 0.075483344 0.01955393 0.04162312
0001a0 a1 72 9d 3d 7e 43 81 3d 0a 46 22 3e 72 22 3f 3e
       0.07687879 0.06311701 0.1584703 0.18665484
0001b0 84 f1 1b 3e b1 b5 47 bc f8 d6 b2 bd 9c bf 2b bd
       0.1522885 -0.012189315 -0.08732408 -0.04193078
0001c0 04 9c 12 bc 6b d1 b3 3d f2 bb 3b be e0 b9 95 3d
       -0.00894833 0.08780178 -0.18333414 0.073108435
0001d0 15 b8 c8 be 46 ca b2 be d6 fc a9 bd 35 b6 59 3e
       -0.39202943 -0.34919947 -0.08300178 0.21260913
0001e0 fb 47 8b be d0 93 a4 be 68 bf ed bc 48 19 81 be
       -0.27203354 -0.32144022 -0.029021934 -0.252146
0001f0 99 d3 3f 3e aa ad a8 be 04 92 88 be ba 13 67 bd
       0.18733062 -0.32944995 -0.266739 -0.056415297
000200 de 75 11 be 74 a0 1b bc 13 55 3b 3e ab 9b 8b 3e
       -0.14205119 -0.009498704 0.18294172 0.27267203
000210 c3 f5 79 be dc e9 83 bd f3 61 d8 3d 90 a1 a9 be
       -0.24410157 -0.064410895 0.10565557 -0.33131075
000220 6d 8b 94 bd 0d d4 1c be 8e c2 e8 3d 24 6f e6 3d
       -0.07253156 -0.15315266 0.11365233 0.11251667
000230 ad b1 25 3c 46 8d 7a be 83 53 aa be c6 38 2f be
       0.010113162 -0.24467954 -0.3326684 -0.17111501
000240 8f 8d 19 be 7a 72 57 be d0 b0 dd 3d 1a 17 92 3d
       -0.14995407 -0.21039763 0.1082474 0.071333125
000250 05 0a 79 bd ee a9 e6 be dd 1f e1 bb 46 e9 02 3e
       -0.06080057 -0.4505152 -0.0068702535 0.12784299
000260 06 3f bc 3d 35 7f 15 be 96 05 65 be 0b 79 61 be
       0.09191708 -0.14599307 -0.22365412 -0.2201883
000270 64 bf 71 3c 41 e1 02 3e 63 1f 2b be 40 1a 9b be
       0.014755104 0.1278124 -0.16711192 -0.30293465
000280 a1 20 97 be 9b 34 b2 be 89 72 02 3e f8 36 95 bc
       -0.2951708 -0.3480576 0.12739004 -0.018214688
000290 b6 a2 99 bd 84 af 92 be 0e f8 81 bd f3 b7 31 3e
       -0.07501738 -0.28649533 -0.06346141 0.17355327
0002a0 50 cb 5f be 12 65 b7 bc 8a 2c 91 3d 28 54 19 ba
       -0.21854901 -0.022387061 0.07088573 -0.0005849027
0002b0 e8 6f f4 bd bc ad cb be 28 1c 91 bd 02 45 2d 3d
       -0.11935407 -0.39780986 -0.070854485 0.04230214
0002c0 c6 01 cd bc 29 64 81 3e 4e f6 2e be 63 8e 88 be
       -0.02502526 0.2527173 -0.17086145 -0.26671132
0002d0 ae 0b 03 3e 06 58 e1 bd 23 3c a7 3c eb 0b 34 be
       0.12797424 -0.11003117 0.020414418 -0.17582671
0002e0 a2 85 b7 3c e3 78 a1 3c 9f c0 52 be a3 49 ef 3c
       0.022402588 0.019710964 -0.20581292 0.029209917
0002f0 3e cd 8b 3e 64 09 08 be 4e d7 a8 3d b0 00 1d bf
       0.27305025 -0.13284832 0.08244191 -0.61329174
000300 c4 87 6b bd be 59 35 bc 84 64 df bc 0a dd 19 3d
       -0.057502523 -0.0110687595 -0.02726961 0.037564315
000310 5f 65 10 be f7 c7 8a bd aa ad 19 3d 64 3d d1 be
       -0.1410117 -0.067764215 0.037519135 -0.4086715
000320 cf ea a6 be ab 92 ed be c1 db 1f bd 13 51 94 be
       -0.3260102 -0.4640096 -0.039027933 -0.28968105
000330 30 fb 0e 3d d8 f1 86 3d 2a 5c 4b be 2f f2 f2 bb
       0.03490752 0.06589097 -0.19859377 -0.0074141244
000340 2a f2 0f 3e 19 fe f5 bd 74 08 8f be 5f e8 72 3e
       0.14057222 -0.12011356 -0.27936137 0.23721455
000350 53 19 66 be 87 0c 70 3e 74 2d ae bd 62 bd 32 bd
       -0.22470598 0.23442279 -0.08504763 -0.04363764
000360 b8 45 c2 3c 23 f7 2e 3d 6a 65 5a 3c 1f 22 40 bd
       0.023714885 0.042716157 0.013329843 -0.04690754
000370 f7 4a d6 3c 09 81 a1 3d 65 1d 19 be 14 ba 80 3c
       0.026158793 0.0788594 -0.1495262 0.015713729
000380 60 4a eb be ea 59 aa bd 67 1d f6 be ed b5 6c be
       -0.4595518 -0.08317931 -0.48069307 -0.23116274
000390 da 3f 02 be ae 98 4f be 0e 89 78 3d d7 b9 10 3e
       -0.1271967 -0.20273086 0.06067758 0.14133392
0003a0 fc 65 9e be 8a 18 99 be 6a 58 05 3d b4 c7 27 3e
       -0.30937183 -0.29901534 0.03255502 0.16384774
0003b0 97 27 31 3e 8a 18 66 be 02 bf b0 be 28 78 5f bd
       0.17300259 -0.22470298 -0.34520727 -0.05455795
0003c0 05 dd 5f bd 3e 38 13 bd ac 7c 7e be e6 74 35 be
       -0.05465414 -0.03594231 -0.24852246 -0.17720374
0003d0 ff 77 0d be 68 0a d0 be fe bf ef bd 42 8a b8 bd
       -0.13815306 -0.4063294 -0.117065415 -0.090107456
0003e0 de 2f 11 3e 40 af 7f be 5d 73 9e be b1 18 ca bd
       0.14178416 -0.24969196 -0.3094739 -0.09867991
0003f0 da a9 f6 3c 35 64 f0 be ca 4d 47 3e 92 86 75 bd
       0.030110288 -0.46951452 0.19463268 -0.05994279

a2c_network.actor_mlp.2.weight f4 [128, 256]
000000 ba 11 39 3b da 4a 8f 3d 25 cf 27 bc ee 3e c6 3c
       0.0028239326 0.06996699 -0.010242258 0.02419993
000010 68 c3 ee bd 36 97 1f be fe 03 80 bd 27 aa 3e 3e
       -0.116583645 -0.15585026 -0.062507614 0.18619595
000020 99 25 06 3e 5a ff 79 bd da 39 38 bd ce 44 13 bd
       0.1310028 -0.061034538 -0.044977047 -0.03595429
000030 b1 54 59 bc e5 58 84 bd 79 ca f1 bc 54 1c 82 3a
       -0.013264821 -0.06462268 -0.029515492 0.0009926655
000040 81 fd 54 3c 19 db b3 3d 20 a1 14 3e 28 02 24 3e
       0.012999893 0.08782024 0.1451459 0.16016448
000050 0f ea ee 3d 46 d9 46 bd d1 20 35 bc aa 17 81 3d
       0.11665737 -0.04854705 -0.011055187 0.06303342
000060 0e 35 05 3c 6a e6 9e 3d 86 2e ee 3d 09 b0 28 be
       0.008130325 0.07758792 0.116299674 -0.16473402
000070 45 3a cd bd 1c 41 86 3e 1d e3 19 3d 3c 4f 7b bc
       -0.1002088 0.2622155 0.037570108 -0.015338715
000080 28 80 2f b8 00 22 ae bd a0 25 cc 3c 65 c7 bb bd
       -4.1842606e-05 -0.08502579 0.024920285 -0.09168891
000090 7e f8 c5 bd 1c 98 44 bb 12 ff 8e 3d 18 c2 c4 3d
       -0.09666537 -0.002999789 0.069822446 0.09607333
0000a0 fd ae 03 bd 10 da 7b bd ec 1d 29 bc ee 3b 3a 3d
       -0.032149304 -0.061487257 -0.010322075 0.04546731
0000b0 ba 16 1f bc f3 a8 16 bd 6d ec 32 3d 37 39 cd bd
       -0.009710008 -0.036782216 0.043682504 -0.100206785
0000c0 76 d8 24 3a 13 86 e6 3c db 4c a8 3d 8c 33 3c bd
       0.00062883587 0.028140103 0.08217784 -0.045947596
0000d0 7c 0c 23 3c 93 96 24 3d 9e c0 dd bb 4e ca 0f be
       0.009951707 0.04018266 -0.0067673465 -0.14042017
0000e0 ad 1f c1 3d 72 37 a7 3d 24 43 a9 3d b1 54 1f 3c
       0.0942987 0.08164872 0.08264759 0.009724782
0000f0 2f db 9c 3c a4 ba 87 bd 07 de 2c 3c c1 68 d0 3d
       0.019147484 -0.06627396 0.010550982 0.1017623
000100 68 14 fb 3d 40 90 99 3d 75 d5 49 bd 5b 9b 48 3b
       0.122597516 0.07498217 -0.049275834 0.0030610177
000110 79 24 62 bd 03 b2 c4 bd 47 02 93 bc 79 e6 d9 3d
       -0.055210564 -0.096042655 -0.017945422 0.10639662
000120 8c e3 d6 3c 5a 96 a5 3d c6 69 9c bc 66 11 9a 3c
       0.02623155 0.08085318 -0.019093405 0.018807124
000130 f6 99 79 bc 73 37 5b 3d c0 be 06 be da f0 79 3d
       -0.015234461 0.053519677 -0.13158703 0.06102071
000140 59 0f f8 bd 0d 52 53 3e 07 c1 b3 bd c0 c2 68 3d
       -0.12112302 0.20636769 -0.087770514 0.056826353
000150 20 97 41 bc 9b 4f 36 3b a7 9c 46 bd 3b 22 74 3d
       -0.011815816 0.0027818445 -0.04848924 0.059602957
000160 34 88 a8 bc e2 db 62 3d 32 ff b9 bc 57 cb 6d 3b
       -0.02057276 0.055385478 -0.022704694 0.003628453
000170 54 51 38 3d 67 02 fb 3a 8f 35 39 3d 67 11 50 bd
       0.044999436 0.0019150496 0.045217093 -0.050797846
000180 52 64 cd 3c 0e 46 bf bd 4b 40 8e 3d 8e c7 13 bd
       0.02507225 -0.09339534 0.06945857 -0.036078982
000190 0b 8c 43 3d 5e 1b c9 3d f5 dc 8f 3d 23 a0 95 bd
       0.047740977 0.09819673 0.07024566 -0.07305934
0001a0 cd 28 10 bd 23 c9 12 bd 3c c2 a6 bd 67 34 99 3d
       -0.03519516 -0.03583635 -0.08142516 0.07480698
0001b0 80 83 2f 3e 92 8f ea bc ec e4 38 3c 02 0d 91 3d
       0.17140007 -0.028632913 0.011285048 0.07082559
0001c0 a7 e0 1b 3d 7b 0e ba 3d 4e 05 4d 3d a1 09 78 bd
       0.038056042 0.09084793 0.050053887 -0.060556058
0001d0 16 d4 18 3e f0 c2 46 bb bf bc 90 3d 34 3a df bd
       0.14924654 -0.0030328594 0.070672505 -0.10899773
0001e0 c9 2a 7d 3b c4 01 9d 3d 52 36 a3 3c 5c d9 e6 bc
       0.0038630238 0.076663524 0.019923363 -0.028179817
0001f0 9d 86 b7 bd 17 b9 0a 3c ac 5b 58 bd 24 19 17 3d
       -0.08961222 0.00846698 -0.0528218 0.03688921
000200 34 63 17 be ea ef e3 bc fc 2e 6f bc 69 37 a6 bd
       -0.14783937 -0.02782436 -0.014598604 -0.081160374
000210 f1 61 ba 3d 13 66 0f bd 92 e8 38 be a2 5c 4c 3e
       0.09100712 -0.035009455 -0.18057469 0.19957212
000220 45 ff aa bc 77 5f 44 3c ee 74 96 bc 11 2f c4 3d
       -0.020873675 0.011985651 -0.018366303 0.0957929
000230 0e 9c 61 bd b6 3e 11 3b 0b 56 49 3d 16 fa d3 bd
       -0.055080466 0.0022162623 0.049154323 -0.103504345
000240 52 85 1a bd 74 24 c2 bd 3c 44 83 3d ba df 20 3e
       -0.0377248 -0.09479609 0.06409499 0.15710345
000250 a5 d2 0d 3e 50 29 82 bb 6d d1 70 3d 20 b0 18 3d
       0.13849886 -0.00397221 0.058793474 0.03727734
000260 db 63 04 3e 70 c6 67 3d f2 23 79 3d e3 15 43 bd
       0.12928717 0.05658573 0.060825296 -0.047628295
000270 aa 8a 7b 3b 76 43 b4 bc 4d 96 14 bc 38 8b 24 bd
       0.003838221 -0.022004824 -0.009069038 -0.04017183
000280 b3 ed e9 bd b2 fe 3c bd b3 51 16 3d 34 90 97 3d
       -0.11422291 -0.046141334 0.03669901 0.074005514
000290 4c 12 13 3d 96 19 b5 bd d6 38 a9 3d 9c b2 4a 3d
       0.03590612 -0.08842771 0.08262794 0.04948674
0002a0 ad bd 6e 3d 67 54 4c bc bc 24 80 bd d5 8a 84 bc
       0.058286358 -0.012471295 -0.062570065 -0.016179482
0002b0 09 28 35 bd ec 36 7f 3d 4e d6 1f bd d9 1c be bc
       -0.044227634 0.062308237 -0.039022736 -0.023207115
0002c0 1e 7e 9e bc 71 31 1c 3d 98 77 e5 bc 2d 0c 9d 3d
       -0.019347247 0.03813309 -0.028011128 0.07668338
0002d0 77 04 e0 bd 25 a9 4b 3d 28 9e 86 bb 56 1b b3 bc
       -0.109383516 0.049721856 -0.004108209 -0.02186362
0002e0 de 5a 0a bd 03 67 cc bd 03 7b 28 3e 6e 13 af bd
       -0.033778064 -0.099805854 0.16453175 -0.08548628
0002f0 47 e2 5d 3c d2 b9 7c bd f4 ba c0 3c 72 c7 d2 bc
       0.013542718 -0.06170065 0.023526646 -0.025729869
000300 c3 88 e8 bd 50 bf 93 b9 c0 0e b8 bd c6 cb b8 3d
       -0.1135421 -0.00028180564 -0.08987188 0.09023242
000310 f3 54 61 bd 09 5c 18 be 55 29 37 3c 8b 86 03 3e
       -0.055012655 -0.14878859 0.011179288 0.12844293
000320 0a 1a 81 bd 63 23 e1 bd e3 ea c3 bd 2e 51 95 bd
       -0.06303795 -0.109930776 -0.095662855 -0.072908744
000330 ba fc 6d 3d 0a b6 e2 3c f3 6e 8a 3c 74 69 99 3c
       0.058102347 0.027674694 0.016898608 0.018727042
000340 c8 26 e7 bc 94 66 3c 3e 95 ad b2 3d 72 fb 25 3e
       -0.028216735 0.18398505 0.087245144 0.162092
000350 54 a6 20 be 61 45 5a bc 89 c0 f4 3d 7f 5b f0 3d
       -0.15688449 -0.013322205 0.11950786 0.117362015
000360 0a ef 12 3c 02 65 f0 ba bc 18 95 bd 50 9d 27 bd
       0.008968124 -0.001834065 -0.07280108 -0.04092151
000370 0b 9e 6f bd 00 eb fe bc dc 41 c8 bd 9a 0e 41 bd
       -0.05850033 -0.031117916 -0.09778187 -0.047133066
000380 74 6c 52 3d 1b 8f 10 bd 07 25 20 3e ec 39 55 bd
       0.05137296 -0.035292726 0.15639125 -0.05205719
000390 e4 2b a8 bd 1a 09 5b bd 4f 01 1d bd b6 ed a9 bc
       -0.082114965 -0.053475477 -0.038331326 -0.020743232
0003a0 3f 18 ca bd 92 52 22 3d 66 2d 8f 3c 2c 1c c0 3d
       -0.09867906 0.039629526 0.017477702 0.09380373
0003b0 16 4e 67 bd f0 3e 19 bd ee a3 48 3d 62 4b 6a 3d
       -0.056470953 -0.037413538 0.04898446 0.057200797
0003c0 a2 a3 ed 3d 8b bf 05 3d ef d9 89 3d 4b c8 a2 bd
       0.11603476 0.032653373 0.06731021 -0.07948359
0003d0 06 2a 00 be 21 73 c4 bd 93 3c c5 3d 2e ec b6 3d
       -0.1251603 -0.095922716 0.09630694 0.089317665
0003e0 19 41 2c bd 90 f5 57 bc 74 71 2a 3e 92 6d be bc
       -0.04205427 -0.013181105 0.16644841 -0.023245607
0003f0 13 07 52 3d a7 bc 7f 3d 49 18 9f bc 08 d2 9d bc
       0.051276278 0.062435772 -0.01942076 -0.01926519

a2c_network.actor_mlp.2.bias f4 [128]
000000 02 57 90 bd 5c 75 04 be b6 40 c7 be 17 63 98 be
       -0.070478454 -0.12935394 -0.38916558 -0.297631
000010 a3 dc 54 be fe 5c 6f be 15 6b b2 be 8b b7 73 bd
       -0.20787291 -0.23375317 -0.34847322 -0.059501212
000020 a4 78 6e bd 9b be 6d bd f4 dc bb bd b6 b0 02 bf
       -0.05822052 -0.058043104 -0.09173003 -0.5105089
000030 e4 90 fe bd 55 45 c6 be 1e 98 a5 be 60 31 0b bd
       -0.124299794 -0.3872477 -0.3234262 -0.033982635
000040 f1 4f 8a bd b6 aa f0 bc 8c 2d 7e 3d 32 5b 21 be
       -0.06753529 -0.029378276 0.062055156 -0.15757445
000050 0c f0 63 be 74 d9 16 3e 3f 92 73 3c be 75 4f be
       -0.2225954 0.1473139 0.014866411 -0.20259759
000060 13 d3 34 bd cf ee 6f be 63 7e c1 39 19 35 ce be
       -0.04414661 -0.23430942 0.00036905994 -0.40274885
000070 99 5e eb 3c 53 5b 3e 3d f4 d1 9f 3c 5c c3 76 be
       0.028731631 0.046473812 0.019509293 -0.24097961
000080 c8 be 8c be d6 14 ba 3d ac fd ac bd d3 57 37 be
       -0.27489305 0.090860054 -0.084468216 -0.17904596
000090 55 be b6 bd 30 2f bb be 24 49 97 3c e1 17 52 3d
       -0.08923022 -0.3655944 0.018467493 0.051292304
0000a0 ee 25 73 be 26 3f e0 3c 1c 60 1f be 7b cf 64 bd
       -0.23744938 0.027373862 -0.15564007 -0.05586193
0000b0 16 8d 17 be 9f f5 f4 be ea c3 19 be ef b5 6a bc
       -0.14799914 -0.47843644 -0.15016142 -0.014325603
0000c0 d7 bc a1 3b aa 91 dc 3c a3 1c 9e bc 84 e5 8f bd
       0.0049358415 0.026924927 -0.019300764 -0.070261985
0000d0 c9 ec b1 3c 6b 4c 14 be 52 12 b8 bc 3f 84 a2 be
       0.021719353 -0.14482276 -0.022469673 -0.3174152
0000e0 35 4e 1f bb 9b 0a 3a 3e fe 7b b5 bd 84 b1 8f bc
       -0.002430809 0.18168108 -0.0886154 -0.0175407
0000f0 45 77 9e be 6e e1 04 be 27 74 55 bc 0e 11 a6 be
       -0.3095037 -0.1297662 -0.013028181 -0.32434887
000100 5c c6 27 be 4e d4 9e be 07 6e 40 bb 0f 80 fb bd
       -0.16384262 -0.3102135 -0.0029362456 -0.122802846
000110 9c e1 e9 3d 42 11 42 bd ef e6 23 3d 02 64 90 be
       0.11419985 -0.04737974 0.040015157 -0.282013
000120 b1 90 25 be 8f b4 96 be 56 e2 f5 3d 7e 8b d7 be
       -0.16168477 -0.2943463 0.12006061 -0.42098612
000130 45 89 8d 3d b8 96 0c be 8c 45 c0 be 7e 4d 05 be
       0.06910948 -0.1372937 -0.3755306 -0.13017842
000140 c7 ba d5 bd 29 ff 75 be 6f 2f 06 be c7 9c 77 bd
       -0.104360156 -0.24023117 -0.13104032 -0.06045225
000150 95 7d 11 bd 09 39 0f bf e6 3a c7 bd 89 50 82 be
       -0.035520155 -0.55946404 -0.09728031 -0.25452068
000160 01 d4 63 be 6f 8d 08 3e 6a 05 57 bd 15 55 1e bc
       -0.22248842 0.13335203 -0.052495398 -0.00966384
000170 49 72 6f be 1f f4 a2 bc 0e da 0a bd 55 33 a0 be
       -0.2338344 -0.019891797 -0.03389936 -0.31289163
000180 b0 89 87 be f5 6e 27 be 22 a1 7c bd e9 a0 8b bd
       -0.26472235 -0.1635092 -0.061677106 -0.068178006
000190 c5 4c 0a be 12 81 0c 3e f9 1b e2 bd 39 ca 48 bd
       -0.13505848 0.13721111 -0.110404916 -0.04902098
0001a0 7d 74 a2 be 6b d0 89 be f5 91 ad be 97 50 84 be
       -0.31729499 -0.26916823 -0.3390042 -0.25842735
0001b0 97 02 48 be b2 ae 55 bd ec 8d 8f be 41 d0 9a be
       -0.19532238 -0.052168556 -0.28037965 -0.3023701
0001c0 fa 65 51 bd 79 1b 85 bd a9 04 5c be 37 15 61 bd
       -0.051122643 -0.064993806 -0.21486153 -0.054951873
0001d0 d1 67 27 be 23 58 4b 3d 63 39 d2 3d e6 9e b8 be
       -0.16348197 0.0496446 0.10264852 -0.3605873
0001e0 b9 49 10 bc 33 95 f9 bd 74 77 96 be 16 c8 32 3e
       -0.008806639 -0.121866606 -0.2938801 0.17459139
0001f0 6c 06 a0 be 19 00 d8 be 24 86 b1 be 7b 3c ba 3c
       -0.312549 -0.42187575 -0.34672654 0.022733917

a2c_network.actor_mlp.4.weight f4 [64, 128]
000000 6d 7d 1b 3c cc 6b 98 bd dd 44 54 3d eb ae 5d bc
       0.009490353 -0.074424356 0.051823486 -0.013530473
000010 79 27 20 3d d6 2c af 3d 4e b4 a4 bd f9 f4 39 bc
       0.039100144 0.08553474 -0.08042203 -0.01134991
000020 8d 03 04 bd 3b 9a 27 bd 72 f7 ad 3d 14 10 cb bd
       -0.03222995 -0.04091857 0.08494462 -0.09915176
000030 31 7d b8 bc 92 43 c8 3d df 8f b7 3d b0 8f 2b be
       -0.022520633 0.09778513 0.08962988 -0.16754031
000040 45 36 81 3d 34 00 23 bc 58 73 33 bd 07 06 93 3d
       0.06309179 -0.009948779 -0.043811172 0.07178884
000050 72 f7 f8 3c bc 1c 03 be 58 12 a9 bc 01 c1 1a 3e
       0.030391429 -0.1280393 -0.02063863 0.15112688
000060 f9 97 9d bc dc e1 34 3d 96 22 9c 3d 3e 97 ec 3d
       -0.019237505 0.04416071 0.07623784 0.11552285
000070 48 cb c1 bd ef 75 aa ba 95 fc 64 3c 93 8f 31 3e
       -0.09462601 -0.0013005118 0.013976236 0.17339925
000080 f3 42 19 be a0 54 88 3d f9 62 16 3d 1d fb 97 bd
       -0.14966945 0.06656766 0.03671548 -0.07420943
000090 09 e8 a9 3d 33 92 a6 bb e2 b1 23 3d ca d7 3d bd
       0.0829621 -0.0050833463 0.039964564 -0.04634837
0000a0 a9 ab 87 bd cf 4d 6b bd 02 7c 83 bd 9e b7 5d 3b
       -0.066245385 -0.05744725 -0.06420137 0.0033831368
0000b0 f0 70 c7 3c 1b 5a 03 be d9 f9 e2 bd 4d c9 7c bd
       0.024345845 -0.12827341 -0.11082811 -0.061715413
0000c0 34 97 57 bd dd e7 97 3d 02 da b8 bd 99 95 16 3d
       -0.052634433 0.07417271 -0.09025957 0.03676376
0000d0 b9 2d 76 3a 4f 65 11 bd c5 79 82 3b 17 5c 25 bd
       0.00093909685 -0.035497006 0.003981801 -0.040371027
0000e0 31 a7 09 bd b3 fc d2 3a 53 8d 29 3d 6b b9 c9 3d
       -0.03360671 0.0016097039 0.041394543 0.09849819
0000f0 e8 4f bd 3d d7 f6 66 bd 57 5f b7 3d f2 48 45 bc
       0.092437565 -0.05638775 0.089537315 -0.012041317
000100 df 19 03 3d 73 fd a6 bd a5 d1 67 3c 59 f0 97 bd
       0.032007094 -0.0815381 0.014149104 -0.074188896
000110 46 09 6f bc 31 21 6b bd 16 19 03 bc e7 73 33 be
       -0.014589613 -0.0574047 -0.008001586 -0.17524682
000120 2a 29 79 be 10 a0 04 3e 11 76 42 bd dd a5 f8 3d
       -0.24332109 0.12951684 -0.04747588 0.12141011
000130 57 45 cd bd 33 0c 7f bd 9d bb 1a 3d f3 ff cf 3d
       -0.10022991 -0.062267493 0.03777658 0.1015624
000140 85 d9 34 3b e4 cc 56 bb 50 2e 4b 3c 25 6a 4c 3c
       0.0027595472 -0.0032775933 0.0124011785 0.012476479
000150 d3 8d 68 3d 07 9a b8 bd 97 83 7c bc 84 0c d7 3d
       0.05677588 -0.090137534 -0.015412233 0.10500434
000160 3c 0b 00 3e 22 fd 91 3d 2f f5 f6 bc 07 a7 0c 3d
       0.12504286 0.071283594 -0.03014621 0.034338977
000170 67 33 37 bf 6c 7a 22 bd c0 30 a2 3d 1d c1 0b bf
       -0.7156281 -0.03966753 0.079194546 -0.5459154
000180 1d 95 60 3d 2a 37 fd 3c c3 dd 67 3d 12 e1 82 be
       0.054829706 0.030910093 0.056607973 -0.2556234
000190 e8 f2 07 3c 19 d5 1f bb 51 de 90 bd de 2d 34 bd
       0.008297659 -0.002438849 -0.070736535 -0.043989055
0001a0 d5 05 ee 3c e6 55 aa bd ed 80 1b 3d f1 1d cb be
       0.029055515 -0.08317165 0.03796475 -0.3967128
0001b0 19 84 3c bd 19 d3 0a bd e3 ce e7 3c 48 e9 7d bd
       -0.046024416 -0.033892725 0.028296893 -0.061990052
0001c0 4d 02 a2 3d 80 60 43 3d 6e d0 b9 3d 07 48 dc 3d
       0.07910595 0.04769945 0.09072958 0.107559256
0001d0 b0 6e 56 3d 1d 1f bd 3d 65 e2 0a 3c 8e ac e0 3d
       0.052351654 0.0923445 0.008476828 0.10970412
0001e0 a1 32 23 bd 4e 8f f4 bc 51 f5 a6 bd 51 15 41 3d
       -0.039843205 -0.02985349 -0.08152259 0.04713947
0001f0 da be 26 be dd c5 a4 3d fb ff 80 bd 6c 58 10 bd
       -0.16283742 0.08045552 -0.062988244 -0.035240576
000200 49 0c e1 3d de fc 75 be 6e f4 a0 3d 44 5a 93 be
       0.10988671 -0.24022242 0.07859121 -0.28779805
000210 59 1f 10 bd f0 d5 2c 3d 89 59 42 3d 8f f7 22 bd
       -0.035186145 0.042196214 0.04744867 -0.03978687
000220 ab eb 96 bd 85 ec ea bc b5 f0 97 bd 20 2c 95 bc
       -0.07369169 -0.028677234 -0.07418958 -0.018209517
000230 d0 48 08 3c a5 e3 7b 3d 71 c1 1d be 10 14 97 3d
       0.008318141 0.061496396 -0.15405823 0.073768735
000240 07 b7 27 3d a1 af 27 3e 07 41 c2 3c 4b 7a 77 be
       0.040946033 0.16375591 0.023712648 -0.24167745
000250 c2 ae 22 3d f3 d7 6f be d9 49 67 bd 6d c1 1f 3e
       0.039717443 -0.23422222 -0.05646691 0.1560113
000260 23 fe 1e 3d 30 e4 c5 bc 12 bc 02 3e 74 7c ef 3c
       0.038816582 -0.02415666 0.12767056 0.029234149
000270 a6 56 f0 3c 3f 77 6a bd 24 5e 6c b9 2a 9e 65 3e
       0.029338192 -0.05724263 -0.00022541784 0.22423616
000280 fb 6f 83 3c ca 16 42 bd c5 a5 c3 3d cb fc 34 3e
       0.016044607 -0.047385015 0.095531024 0.17674558
000290 f1 75 33 3e 01 0e 48 3d dd 54 2d 3d 9b c6 65 3d
       0.1752546 0.04884148 0.04231726 0.056097608
0002a0 f6 c2 8e bd 7a ba 27 be 24 bc 13 be 90 2a 27 be
       -0.069707796 -0.16379729 -0.14427239 -0.1632483
0002b0 e0 b6 f4 3d 5f 97 dd 3c b4 1d 9f bd 79 81 a2 bc
       0.11948943 0.027049718 -0.07769337 -0.019837128
0002c0 09 b8 99 3d 6a ec d3 3d 27 56 87 3c 7c 77 bf bd
       0.07505805 0.10347827 0.016520573 -0.09348962
0002d0 34 f7 1b bd 4d 5b 45 bd af 42 3c 3d 9d b8 64 3d
       -0.03807755 -0.048182774 0.045962032 0.055840123
0002e0 91 96 0f bc a3 9a b6 bc 35 32 cf bd ca 61 2b bd
       -0.008763925 -0.022290533 -0.10116998 -0.041841306
0002f0 76 2e 83 3e 5c 6e d1 3d ff fa 4c 3d 53 30 dc 3d
       0.25621384 0.102261275 0.050044056 0.107514046
000300 df 8b 47 3e 40 5f 40 bc a0 62 b7 bd 35 73 86 bc
       0.1948695 -0.011741459 -0.08954358 -0.016412357
000310 de 9a 25 3d 1a 9d cc bc 18 ba 0c 3e 05 47 41 bd
       0.040430896 -0.024977256 0.13742864 -0.04718687
000320 b9 53 10 be 86 33 30 3e 57 07 21 3d 5d 3b b3 3d
       -0.14094438 0.17207155 0.03931364 0.08751557
000330 66 56 68 3d e8 b1 fd bd 5f d0 56 3e 2c f2 a2 bd
       0.05672302 -0.123874485 0.20977925 -0.07956347
000340 df f1 ba 3d 98 5f 8c bc 4b a5 20 3c 18 27 c9 bb
       0.091281645 -0.017135426 0.009805034 -0.0061386935
000350 c9 c2 9a 3d 8e e6 19 be d1 ce c1 3d 07 d9 6c 3c
       0.075566836 -0.15029356 0.09463275 0.01445604
000360 0b 2a 21 3e 23 c8 a1 3d 67 68 11 be 9a f4 76 3c
       0.15738694 0.07899501 -0.14199983 0.015072966
000370 ac 23 57 bd 86 6e 93 3d cd 4c ce 3d 59 0b 28 3d
       -0.052524254 0.07198815 0.10073242 0.041026447
000380 e1 22 0d be 31 7c dc 3d 65 bd 2e bd 61 70 db bd
       -0.13782836 0.10765875 -0.04266109 -0.10714794
000390 2b 76 95 3d 81 19 b8 3c 79 86 d2 3c 18 c6 04 bf
       0.072979294 0.022473099 0.025698887 -0.5186477
0003a0 22 c4 ec bd a0 04 97 be 21 28 be bc 96 2e da bd
       -0.11560847 -0.29495716 -0.023212494 -0.10653417
0003b0 73 9a 9c bb b7 26 12 3d 50 05 10 3e c9 c6 8a be
       -0.004779154 0.035681453 0.14064527 -0.27104786
0003c0 ab 93 52 3e c9 cf 9b bc 51 cf 22 be 39 60 25 3e
       0.20564143 -0.019019978 -0.15899397 0.16149987
0003d0 68 76 70 bc ac b2 c0 bd 7b 2d a6 bd 8a 4d 82 3d
       -0.014676668 -0.09409079 -0.081141435 0.06362446
0003e0 ff 54 98 3c 28 83 ef 3c 92 b3 a1 be 94 c4 ca bd
       0.018595217 0.029237345 -0.31582314 -0.099007756
0003f0 c8 9e cd bd 22 b4 2c be b3 f8 29 3d a6 ed 32 3c
       -0.10040051 -0.1686559 0.041496944 0.010920918

a2c_network.actor_mlp.4.bias f4 [64]
000000 e2 18 02 3d 1a b0 61 3c 45 e8 14 3d 18 1f 5e be
       0.03176201 0.013774896 0.036354322 -0.21691549
000010 a8 de 0e bd 0a a0 8d bd 21 5a 9d be 3b 62 37 be
       -0.03488031 -0.06915291 -0.30732825 -0.17908566
000020 96 aa 1e be 79 44 3e 3e 60 f0 89 3d bc 34 9a be
       -0.15494761 0.18580808 0.06735301 -0.30118358
000030 7a 64 91 bd 4f 05 97 be 72 4b 60 3d ec ca 62 3d
       -0.070992425 -0.29496238 0.05475945 0.055369303
000040 c4 b6 85 be 23 6f e4 ba 65 55 77 bd 6e f9 83 3e
       -0.26116002 -0.0017428141 -0.060384173 0.25776237
000050 de 33 6b bd 16 82 9f bc 6a 47 65 be 85 dd d9 bd
       -0.05742251 -0.01947121 -0.22390524 -0.106379546
000060 e0 08 a5 be b9 75 c9 be 23 c4 00 be 76 b9 bb bd
       -0.32233334 -0.39347628 -0.1257482 -0.09166233
000070 da 2d 2c ba 93 dd 4e be 45 3b 5f 3d 35 df 1e 3d
       -0.0006568112 -0.20201711 0.054499883 0.038787086
000080 db 7b 3d be 47 78 95 3d 40 d1 39 be bb 5e 89 be
       -0.18504278 0.07298332 -0.18146229 -0.26830086
000090 bb f6 24 3d f8 d2 e2 bd 0a 9c 94 be 26 7e 9a 3c
       0.040274363 -0.11075395 -0.29025298 0.01885898
0000a0 8d aa 7d be 6c 2a c8 3d dd e0 75 be c5 33 29 3e
       -0.24772091 0.09773716 -0.2401156 0.16523655
0000b0 d1 44 c4 be f9 8f 12 3e d3 95 8c be 12 8b 73 be
       -0.38333753 0.14312734 -0.27458057 -0.2378352
0000c0 3d a9 80 3d 03 97 e8 bc cd e5 c6 bc 6e 06 0c be
       0.0628228 -0.02839232 -0.0242795 -0.13674328
0000d0 60 37 f7 bd 3b ec 84 bd bd de 2d be cd 05 0c bd
       -0.12071109 -0.0649037 -0.16979499 -0.03418522
0000e0 81 8e 03 3e 1f a8 90 3d 8e 47 83 be 0a 23 a1 be
       0.1284733 0.070633166 -0.2564053 -0.31472045
0000f0 be 8d be bd 2f c1 13 be 19 c1 51 be 84 a1 45 3d
       -0.09304379 -0.14429162 -0.20483817 0.048249736

a2c_network.value.weight f4 [1, 64]
000000 dd 0b bc bc 28 a0 bd bc 8d 30 82 bc cc 34 b5 bc
       -0.022954876 -0.023147658 -0.015892291 -0.022119902
000010 31 11 03 bc 13 79 4f 3e 0e c3 0b bd 16 f6 31 3e
       -0.007999704 0.2026103 -0.034121566 0.1737903
000020 e9 83 0a 3e a3 be ab 3d f8 64 bc 3c 81 ce d7 3a
       0.13526882 0.083859704 0.022997364 0.0016464741
000030 ba ee ab bc 88 dc 41 3b 3c 2f 36 bb 19 d6 83 3d
       -0.020987857 0.002958091 -0.002779915 0.0643732
000040 55 bf 6c 3d 0c f3 5f 3e 07 8c 03 bc 7e 89 9d bc
       0.057799656 0.21870059 -0.008028991 -0.0192306
000050 15 f3 32 3c c0 4b d4 bc 13 c1 89 3e be 20 bd 39
       0.010922213 -0.025915027 0.26905116 0.00036073284
000060 9e d1 8c 3e 98 b6 43 3b eb c6 d0 bb e7 25 a5 3c
       0.27503675 0.0029863473 -0.006371369 0.020159675
000070 08 ca 9e ba e0 4f f1 3c 81 5f 26 bd b9 b3 94 3b
       -0.0012114653 0.029457033 -0.040618423 0.004538026
000080 13 8f 46 3c dd f6 21 3c 80 e0 df 3d e1 0c 14 bd
       0.0121190725 0.009885517 0.10931492 -0.036145095
000090 27 1e 63 3a 94 b3 03 3e 8a cc 27 3c 5f 7b 08 bb
       0.0008663856 0.12861472 0.010241637 -0.0020825488
0000a0 98 a2 82 bd ca 32 9e bd 15 b3 1a 3e 59 0e 11 3d
       -0.063786685 -0.07724531 0.15107377 0.035414074
0000b0 b5 49 83 bc 9a db fb bb f4 a2 a7 3e 29 16 a5 3d
       -0.016026357 -0.0076860907 0.3274151 0.08060867
0000c0 f7 ad bf bc e0 58 95 3b c8 c9 db 3c 11 b5 26 3a
       -0.023398383 0.004557714 0.026829615 0.00063593785
0000d0 59 49 ac 3c 31 db 4c bb 69 8a b7 bb c0 e8 9f bb
       0.021031069 -0.0031258578 -0.0056012166 -0.004880041
0000e0 cc 11 26 3b a5 db 94 3c cd 86 ba bc 76 2b 21 bd
       0.0025340198 0.01817114 -0.022769356 -0.03934809
0000f0 51 3f 60 bc 26 65 f0 bc c2 bb 6c bb 01 71 92 bc
       -0.013686971 -0.029345106 -0.0036122655 -0.01787615

a2c_network.mu.weight f4 [7, 64]
000000 14 d5 62 be 02 84 9a bc 99 08 83 ba ee 3b 75 bc
       -0.22151595 -0.018861774 -0.0009997069 -0.014967902
000010 92 26 33 3d f5 1e d7 bb bb d1 9a bc d2 b3 8c bc
       0.043737955 -0.0065649697 -0.018898835 -0.017175589
000020 ad 93 9b 3c 26 ac b6 39 b4 d8 f1 bd 2f 93 5d bd
       0.018991316 0.00034842006 -0.11808911 -0.054095443
000030 9e 98 0c bc c5 af 91 bc 5b bf bd bc 2c ab 78 bb
       -0.008581309 -0.017784009 -0.023162534 -0.0037943823
000040 4e b2 56 3c 58 fc 36 bc 41 79 bd bc 63 96 91 bd
       0.013104035 -0.011168562 -0.023129107 -0.07108762
000050 6c 78 22 3c 09 ad bd 3d 7d 5e d2 bc 96 d5 9d bd
       0.009916406 0.092615195 -0.025679821 -0.07706754
000060 1f d4 80 3c 7e 8a 13 3d cd 78 4b 3c 33 9e 98 3d
       0.015726147 0.03602075 0.012418938 0.07452049
000070 16 1a b0 3d 84 60 1a 3c 5b 87 89 bc 3b e7 cd bd
       0.085987255 0.009422425 -0.016788175 -0.10053869
000080 ec 8b 05 3d 2f 46 98 bd b3 59 3b bb 6f a7 8e 3c
       0.032604143 -0.074352615 -0.00285874 0.017413823
000090 a6 ec 84 bd 2c 2b d8 bb d4 88 22 bd 7f ec 05 3d
       -0.064904496 -0.0065969434 -0.03968127 0.032696243
0000a0 20 ea 21 bd d6 22 0c ba 81 5c ba 3b 9d 34 77 3d
       -0.03952992 -0.0005345767 0.005687297 0.06035291
0000b0 23 f2 59 bd 3a 22 a1 3d 3d e0 4e bc 29 2d 88 3b
       -0.053209435 0.07867856 -0.012626705 0.004155774
0000c0 3e 6e 0d 3d ed bd b5 3c 9d b3 fe bb 1c 2b 11 3d
       0.034528963 0.02218529 -0.0077728764 0.035441503
0000d0 b2 59 d8 3c c6 6e 18 3d 4b 5c 7f 3d 26 36 f7 3c
       0.026409958 0.037215017 0.062343877 0.030177187
0000e0 b7 47 b0 3d 86 68 73 3e fe cd 94 bd 64 a0 a0 bc
       0.086074285 0.23770341 -0.072658524 -0.01960773
0000f0 ba 83 a5 3d 65 64 28 3d a9 4d 0d 3d 54 73 11 3e
       0.080817655 0.04111137 0.03449789 0.1420415
000100 02 0f f4 bd 87 02 72 3e bc 8d 0b be 01 fd e2 bb
       -0.11916925 0.23633777 -0.13628286 -0.006927133
000110 89 5b 24 be 16 88 b7 3c b0 eb 64 bd 5b 68 ff 3b
       -0.16050543 0.022403758 -0.05588883 0.0077944226
000120 33 26 be bb e5 26 d1 bc 15 40 cc bd 3b f5 94 3d
       -0.0058028935 -0.025531242 -0.0997316 0.072733365
000130 81 b8 53 bd 73 94 ac bc a0 67 07 3c 2a 9e a1 3c
       -0.05168963 -0.02106688 0.008264452 0.019728739
000140 bf 8a 0a bd 8a 62 6b 3d 57 c0 75 bc e7 80 80 bd
       -0.033823725 0.05746702 -0.014999471 -0.06274586
000150 09 06 d6 3a 58 f0 c6 3d 9b 3c b8 3b 22 5b d7 3c
       0.0016328703 0.09713811 0.005622459 0.026288573
000160 7f a2 34 3c ff 61 f7 bd 4d 95 35 bc 1b b6 1a 3d
       0.01102507 -0.12079238 -0.011082959 0.037771326
000170 bb 0d 11 bd 18 a4 48 3d 6a 58 21 bc e8 33 45 3d
       -0.035413485 0.048984617 -0.00984774 0.048145205
000180 f7 c5 b6 bd f8 a7 8b 3d 85 ba b3 bc 90 0e 6c 3d
       -0.089244775 0.06819147 -0.021939525 0.057631075
000190 2f d5 31 3d 01 92 a2 bc ac 82 8c bd d3 25 6b bc
       0.0434162 -0.01984501 -0.06860861 -0.01435228
0001a0 57 3b 50 3d 3f d3 ea 3b c2 43 cf 3b bd 5b a0 bc
       0.05083784 0.007166296 0.006325216 -0.019574994
0001b0 89 fe 55 3d 93 90 4f be 50 6d 07 bc 23 f9 4c 3c
       0.052244697 -0.20269994 -0.008265808 0.012510571
0001c0 26 a2 87 bc 0e d7 4e 3d 3e 51 fb bc 5a a9 1f 3d
       -0.01655681 0.05049806 -0.030678388 0.038979866
0001d0 5d e9 a5 bb 5e 3a 98 bc e4 db bb bc b3 f2 13 bd
       -0.0050632195 -0.01858252 -0.022932 -0.036120128
0001e0 c0 71 b9 bc 90 17 9a 3d 64 12 d1 bb 4e b3 79 3d
       -0.022637248 0.075240254 -0.006380366 0.060962014
0001f0 08 c0 1b be a5 4a 00 bd 71 db 16 bd e8 d6 f3 3c
       -0.15209973 -0.031321187 -0.03683037 0.029765561
000200 47 1e e2 bd 3f 28 89 bc c8 76 a3 3d 4b 07 f0 bc
       -0.11040931 -0.016742824 0.0798164 -0.029300353
000210 0a 00 8d bd a7 95 ae 3c 66 4b dc 3d 00 da d2 bb
       -0.06884773 0.021311594 0.107565686 -0.006434679
000220 59 3e 42 3c 4d 2b 11 bd 2a 13 17 3d 33 4b 2c 3d
       0.011855685 -0.035441685 0.03688351 0.042063903
000230 85 e2 45 bd 8f 10 a9 3c 2e 37 fa bc cd 7a 6c 3a
       -0.04831173 0.020637779 -0.03054389 0.0009020984
000240 b0 54 0e bd 50 34 2e 3a 70 ef 97 3b 8a cb 11 3d
       -0.034748733 0.00066453684 0.0046366975 0.0355945
000250 97 42 91 bc 88 e2 a9 3d 29 f2 1a 3d f4 71 7c 3d
       -0.017731948 0.082951605 0.0378286 0.06163211
000260 59 0a 07 3c 7b e7 9b bd 40 f4 34 bc 52 2e 46 bc
       0.008242213 -0.07612511 -0.011044562 -0.012096005
000270 3e b8 bb 3d 55 d2 12 bd 2a ac 0c bc c0 f5 96 3b
       0.09166001 -0.03584512 -0.008585969 0.0046069324
000280 f8 7e eb bd 9b d0 d9 3c 10 a9 19 bc a6 d3 8c 3c
       -0.11498827 0.026588729 -0.009378687 0.017190766
000290 9f 29 ac bd a5 1d 3d 3d a0 64 e8 3b 80 71 4e be
       -0.08406376 0.04617085 0.0070920736 -0.20160484
0002a0 38 c6 1a 3d c6 fa 8b bd ab 18 05 3c ce f3 6f 3c
       0.037786692 -0.068349406 0.008123557 0.01464553
0002b0 c6 54 ab 3c f0 cc be bc 85 ab 57 bc 93 69 a2 3b
       0.020914447 -0.023291081 -0.013163452 0.004956433
0002c0 07 bc 9e bd c0 f5 bf bc d6 a4 50 bc 29 0a 72 bc
       -0.07750707 -0.023432612 -0.012734612 -0.01477293
0002d0 a9 7b 05 bc 9e 11 45 bd c5 a3 09 be 4f a5 be bc
       -0.008147159 -0.048112504 -0.1344138 -0.023272185
0002e0 d4 8a 3c 3e 93 23 0a 3c d4 40 c8 3d cd 77 d3 3b
       0.18412334 0.008431333 0.0977799 0.0064534904
0002f0 91 bb 39 be 80 f9 50 bd 8a 37 af 3c 8c b4 f4 3c
       -0.18137957 -0.05101919 0.021388788 0.029871248
000300 dd 8c 03 3d a1 be 6f bd 15 ef 11 3d 31 41 b8 3d
       0.03211676 -0.058531407 0.035628397 0.08996809
000310 cf 05 1f 3e 96 c1 26 bd 61 20 9f 3d a5 96 8c 3c
       0.1552956 -0.04071196 0.07769848 0.017161677
000320 4b d7 98 3c 84 0b 15 3d 09 a9 fc bd 6d 7c b4 3c
       0.018657347 0.036387935 -0.123369284 0.022031987
000330 82 21 12 3e 6b 55 5b 3d a8 87 43 3d f8 c9 24 3d
       0.14270595 0.053548258 0.047736794 0.040231675
000340 69 64 a3 3d 83 d0 b2 bb 25 50 ca 3d fe 64 d9 bc
       0.07978136 -0.0054569854 0.098785676 -0.026537415
000350 4f 4d eb 3c 5a 04 d7 3d 66 3f 44 3d 35 4d 6c bd
       0.028723387 0.10498877 0.047912024 -0.057690818
000360 83 9d 02 bd 00 36 86 3b e3 98 b9 bd c9 fb 1b ba
       -0.031888496 0.004095793 -0.09062364 -0.00059502997
000370 1e 57 dc 3d 10 94 73 3c fa 91 03 3a 99 47 20 bd
       0.10758804 0.014866844 0.00050190056 -0.03913078
000380 01 c0 8c bd e6 4d d4 3d 31 0b 3b 3d 7a ba 23 be
       -0.06872559 0.103664204 0.04566497 -0.15989104
000390 9b 96 32 be df cb d3 bc d5 e7 a8 3c 39 eb 54 3c
       -0.17440264 -0.02585405 0.020618359 0.012995535
0003a0 34 5a 6a 3c 9e 6b c9 bc a6 e6 34 bc 6a 83 0b bd
       0.014303733 -0.024587449 -0.011041319 -0.034060873
0003b0 23 22 39 be 99 82 35 bd fe 70 19 3d ab 82 69 3d
       -0.18079428 -0.044314 0.037461273 0.05700938
0003c0 ad 06 01 3e 8f be f3 bc 09 ae 1a bd 49 8a e9 3d
       0.12600203 -0.029753951 -0.03776363 0.11403329
0003d0 77 e1 1c bd 7f c0 b0 3d 47 be fa 3c 8d b3 3c 3e
       -0.038300958 0.08630466 0.03060831 0.18427868
0003e0 c7 85 ca bd 76 0c 44 3c 1f b8 d6 bc 21 44 7d bd
       -0.09888797 0.011965862 -0.026210843 -0.06183255
0003f0 d8 d6 0b be 37 47 be bc da 84 74 be 76 fb 54 bb
       -0.13656175 -0.023227317 -0.23878804 -0.0032498515

a2c_network.mu.bias f4 [7]
000000 63 01 78 3d 7e 6d de bc 6e 13 7d be b9 0e 39 bd
       0.060548197 -0.02715182 -0.24714443 -0.045180056
000010 94 5f ef bd 2c cc fa 3d 3a 60 8e bc
       -0.11688152 0.12245974 -0.017379869

exp_avg f4 [7]
000000 d2 25 d1 b8 9b a1 91 39 65 b8 07 ba 7d 6a 5c 39
       -9.972941e-05 0.0002777696 -0.0005177318 0.00021020505
000010 bb a4 d3 b8 4d af 25 3a 4a 7e ff 39
       -0.000100919475 0.00063203723 0.00048731483

exp_avg_sq f4 [7]
000000 c8 a0 57 37 54 44 59 37 d8 45 5b 37 94 9a 57 37
       1.2852433e-05 1.2950117e-05 1.3069679e-05 1.2850989e-05
000010 33 d7 55 37 f5 7c 4b 37 f8 49 5c 37
       1.2745894e-05 1.2128837e-05 1.3130244e-05
