runs/FrankaCubeStack_01-19-49-11/nn/last_FrankaCubeStack_ep_300_rew_0.0.pth (torch, 578687 bytes, 36 tensors)

value_mean_std.running_mean f8 [1]
0	0x40193f618a55e11f	6.311895524493848

value_mean_std.running_var f8 [1]
0	0x401ce8bb2f232f4d	7.227276550791271

value_mean_std.count f8 []
0	0x41a2c00002000000	157286401.0

running_mean_std.running_mean f8 [19]
0	0xbf6e5662162cfe06	-0.0037033000711799184
1	0x3f865b8e7df6b6df	0.010916817874057681
2	0xbfa2bf9d333a373c	-0.036618149283738494
3	0x3fecba528edbaa1d	0.8977444448658535
4	0x3f721e2b2cbf89a3	0.004423302318146946
5	0x3f84c2ac445a18b4	0.010136934123931553
6	0x3ff0d673cf9d57e1	1.0523565397211245
7	0x3f30d85460e2e858	0.0002570348741631804
8	0xbf82c27b69dce918	-0.009160007637195863
9	0x3f806c2307fce0ad	0.008018754655140315
10	0xbf673624726b4692	-0.002833434281776467
11	0x3f8516b30e124dd7	0.010297201983383282
12	0x3ff11c6a31d4642d	1.069437212607464
13	0xbfd3699d164d9da3	-0.3033211438946301
14	0xbfafe0eaf1bfc039	-0.06226286126172948
15	0xbfc1d662b14e1aac	-0.13935502679324452
16	0x3f73f214fcab8e40	0.00486953924221073
17	0x3f95b6115300698a	0.02120234555341364
18	0x3f9697f2c79f9598	0.022064011987728088

running_mean_std.running_var f8 [19]
0	0x3fa5a214a4743591	0.04225220210546888
1	0x3f94f017bd4c9934	0.020447131089121842
2	0x3fb98acb2d17b178	0.09977407313244224
3	0x3f9ea0ef0f7e600f	0.029910788841874644
4	0x3f98c419eaa57597	0.024185566851306097
5	0x3f983522b15c9b1e	0.023640195918370847
6	0x3f47ba767ed676a0	0.0007241324034798664
7	0x3fb0cabc285cdd42	0.0655934904615281
8	0x3fb01607890ba511	0.06283614250027748
9	0x3f76938c7d4423d3	0.005511807238016214
10	0x3f95364a7d50ade0	0.020714916132574035
11	0x3f953da86400375a	0.020743018249098945
12	0x3f69780db94a3756	0.0031090038340328236
13	0x3fe9cd6bd21bdb32	0.8063258269965898
14	0x3fa64bb8b0b37b54	0.04354645878787858
15	0x3f9ceb3094da6160	0.028240927777546943
16	0x3f7a35e798160883	0.006399063743972036
17	0x3f12179b7ae523bd	6.901632761925534e-05
18	0x3f1154a806625f3c	6.611133139455561e-05

running_mean_std.count f8 []
0	0x4192c00004000000	78643201.0

a2c_network.sigma f4 [7]
0	0xbf92ae20	-1.1459389
1	0xbf7d7d91	-0.99019724
2	0xbfbabf67	-1.4589661
3	0xbf2a3a5c	-0.664953
4	0xbf30e556	-0.6909994
5	0xbefa905d	-0.48938265
6	0xbfc29fe6	-1.5205047

a2c_network.actor_mlp.0.weight f4 [256, 19]
0	0x3d1c16d5	0.03810771
1	0xbcba2681	-0.022723438
2	0x3c097b2f	0.008391186
3	0xbd514efd	-0.05110072
4	0x3ef6cd5f	0.4820356
5	0xbeec8785	-0.46197143
6	0x3d85b98a	0.065295294
7	0xbde98e01	-0.11404038
8	0xbd2ea27f	-0.042635437
9	0xbd9b7c82	-0.07592107
10	0xbede0717	-0.43364784
11	0x3eaa3f28	0.3325131
12	0xbf07009d	-0.5273531
13	0x3dac9705	0.08427242
14	0xbcaf5829	-0.021404343
15	0xbdc7f228	-0.097629845
16	0x3e0c9ba0	0.13731241
17	0xbc53d69c	-0.012929585
18	0x3df2ab65	0.11849097
19	0x3ca46361	0.020066919
20	0xbd9c499c	-0.076312274
21	0x3c18a437	0.009316496
22	0xbbf8a88b	-0.0075884513
23	0x3e66e98d	0.2255003
24	0x3ee5a07b	0.44849
25	0x3e3cafe8	0.18426478
26	0xbd53175a	-0.05153594
27	0x3db3711d	0.08761809
28	0x3d43fbfe	0.04784774
29	0xbde246d0	-0.11048663
30	0xbebbed33	-0.36704406
31	0xbe438152	-0.190923
32	0xbcf082e8	-0.029359296
33	0xbd61234e	-0.05496531
34	0x3e530940	0.20608997
35	0x3dc4f88f	0.09617721
36	0x3dee041d	0.11621878
37	0x3d213106	0.039353393
38	0xbd508498	-0.0509077
39	0xbcebe3b7	-0.028795106
40	0x3d08b470	0.033375204
41	0x3d48e7af	0.049049076
42	0xbe2be16a	-0.16785207
43	0x3edd76f5	0.4325482
44	0xbdbc09e8	-0.09181577
45	0xbc310e62	-0.010806652
46	0xbd671961	-0.056420688
47	0x3e892947	0.26789305
48	0x3e125690	0.14290833
49	0xbece010e	-0.4023518
50	0xbf05a794	-0.5220883
51	0x3df2614a	0.11834963
52	0xbcdae6f2	-0.026721451
53	0xbccb735f	-0.024835287
54	0xbd94ab9f	-0.072592966
55	0x3be3783f	0.0069418247
56	0x3caf6fa8	0.021415547
57	0x3cc21af7	0.023694498
58	0xbbacb9a7	-0.005271155
59	0xbc62fa6a	-0.013853649
60	0x3daaf112	0.08346762
61	0xbf1111e0	-0.566679
62	0xbd7657a9	-0.060142193
63	0x3e7f7c01	0.24949647
64	0xbdc9675c	-0.09834167
65	0xbdabd834	-0.08390847
66	0xbe33f94f	-0.17575572
67	0x3ef2a3ac	0.47390497
68	0xbd541e96	-0.05178698
69	0xbeb2f984	-0.3495599
70	0x3b5313a0	0.0032207742
71	0xbdbef760	-0.09324527
72	0xbd0ec10d	-0.034852076
73	0x3dc4f528	0.09617072
74	0x3e11b19a	0.14227906
75	0xbe1f327e	-0.15546605
76	0xbd1b7591	-0.037953917
77	0x3df197de	0.117965445
78	0xbe0a4876	-0.13504204
79	0x3d2c40fd	0.042054165
80	0xbeea62db	-0.45778546
81	0xbe254052	-0.16137818
82	0x3e25bb72	0.16184786
83	0xbe15ac71	-0.14616562
84	0xbe3519af	-0.17685579
85	0x3e26a62f	0.16274332
86	0x3e160276	0.14649376
87	0xbdce8c7b	-0.10085388
88	0x3ce16cf9	0.027517783
89	0xbdb21e48	-0.08697182
90	0x3cb814fe	0.022470947
91	0x3e866f4d	0.2625679
92	0x3b7ed958	0.0038886871
93	0x3da7419f	0.08166813
94	0xbe6045ed	-0.21901675
95	0x3cc67679	0.024226414
96	0x3c2aaf7d	0.010417816
97	0xbb89bfd9	-0.004203778
98	0x3d8e2a2d	0.06941638
99	0x3d3944e6	0.045231722
100	0x3ce5331d	0.027978474
101	0x3cea6987	0.028614772
102	0xbe2e69c6	-0.17032537
103	0xbd5d7136	-0.054063044
104	0xbe5734b6	-0.21016201
105	0xbe4801b8	-0.19531906
106	0xbda858e5	-0.0822008
107	0x3c457961	0.012052865
108	0xbd707063	-0.05870093
109	0x3d1b0b85	0.037852783
110	0xbd3ae51b	-0.04562865
111	0x3d4f22db	0.05057035
112	0x3e073484	0.13203627
113	0xbe2bca14	-0.16776305
114	0x3d836352	0.06415428
115	0x3d80b99e	0.06285404
116	0xbdbaa35f	-0.09113192
117	0xbe2d1950	-0.16904187
118	0xbea070e3	-0.31336126
119	0x3eaf23fd	0.34207144
120	0xbd3ed215	-0.04658707
121	0xbc16db5c	-0.009207573
122	0xbe53e5ee	-0.2069318
123	0x3ddef62a	0.10886796
124	0x3e349768	0.17635882
125	0xbe64c897	-0.22342144
126	0xbe1e6c96	-0.1547111
127	0x3aaead02	0.0013326707
128	0x3e4db1f1	0.2008741
129	0xbd8f3694	-0.06992832
130	0xbddd9b85	-0.108206786
131	0x3d4a250d	0.04935174
132	0xbe3904f8	-0.18068302
133	0xbd61a82e	-0.05509203
134	0x3c7a7e5f	0.015288918
135	0x3d2f8978	0.04285571
136	0xbdf5f2bb	-0.12009188
137	0xbd3d41b8	-0.046205252
138	0x3f0431bc	0.5163839
139	0x3db2bb28	0.087271035
140	0xbd023214	-0.03178604
141	0x3e4fdb17	0.2029842
142	0x3da9833c	0.08276984
143	0x3da66b6f	0.0812596
144	0xbf12d5c8	-0.57357454
145	0x3e5f47ce	0.21804735
146	0x3cb3d59b	0.021952441
147	0xbd52954a	-0.051411904
148	0x3e40c7a6	0.1882616
149	0x3c7e5964	0.015524242
150	0xbda2508c	-0.07925519
151	0xbde64b1e	-0.11244796
152	0x3b9b1406	0.0047326116
153	0xbc5a6ffa	-0.013332361
154	0xbbf54421	-0.0074849282
155	0xbdd123b6	-0.102118894
156	0xbeedf8fb	-0.4647902
157	0xbece7845	-0.40326133
158	0x3e024b10	0.12723947
159	0x3e138964	0.14407879
160	0xbe056062	-0.13025048
161	0x3dbe15cc	0.09281501
162	0x3f1014ab	0.56281537
163	0x3e7482ed	0.23878069
164	0xbe8975b6	-0.2684762
165	0x3d2f8528	0.042851597
166	0x3ccc4cb9	0.024938928
167	0x3d41e393	0.047336172
168	0x3ca5eed6	0.020255487
169	0xbd5187ef	-0.051155027
170	0x3d854611	0.06507505
171	0xbe8f5850	-0.27997065
172	0x3dc4651e	0.09589599
173	0x3deaf2b8	0.11472076
174	0x3f8e987c	1.1140285
175	0x3ea9a4f5	0.33133665
176	0xbe88a6a4	-0.26689637
177	0xbd898031	-0.06713904
178	0xbe06fb1d	-0.1318173
179	0xbcaa3858	-0.02077882
180	0xbd5f3367	-0.05449238
181	0xbe0caea3	-0.13738494
182	0x3e3785a3	0.17922072
183	0x3f1b313c	0.60622
184	0x3c331e97	0.010932586
185	0xbd9c18a2	-0.07621886
186	0xbe83be0e	-0.25730938
187	0xbd8e51be	-0.06949185
188	0xbda2f889	-0.079575606
189	0x3e0e88bb	0.13919346
190	0xbc78cc0d	-0.015185368
191	0xbd0ce2f6	-0.034396134
192	0x3c9b0603	0.018923765
193	0x3da6730f	0.081274144
194	0xbe926f2e	-0.28600448
195	0x3c899045	0.016792426
196	0x3dd79bfa	0.10527797
197	0xbdd9f01b	-0.106414996
198	0xbcbd1690	-0.023082048
199	0x3e1a892b	0.15091388
200	0x3ccd131d	0.025033528
201	0xbe1c271d	-0.15249296
202	0x3edf1d15	0.43576875
203	0xbd7d2436	-0.06180211
204	0xbc68fbce	-0.014220191
205	0xbebd90fb	-0.37024674
206	0x3dfc9427	0.12332945
207	0x3e46584b	0.19369619
208	0x3e0b4052	0.13598755
209	0xbe180911	-0.14847209
210	0xbebb573e	-0.36589998
211	0xbc9858ce	-0.018597033
212	0x3e174f9a	0.1477646
213	0x3eb4982e	0.35272354
214	0x3edeed03	0.435402
215	0x3e17f8f0	0.14841056
216	0x3c1083b1	0.00882046
217	0x3e0fe580	0.14052391
218	0xbd5aa2cd	-0.053377915
219	0xbee743a6	-0.451688
220	0xbefa5526	-0.48893088
221	0xbc3a68f8	-0.011377566
222	0xbdc602f5	-0.09668533
223	0xbd36de4c	-0.044645593
224	0xbdf67add	-0.12035153
225	0xbc702471	-0.014657126
226	0xbcd610ae	-0.026131
227	0xbcbecfff	-0.02329254
228	0x3cd874c3	0.026422864
229	0x3da12e54	0.078701645
230	0x3d5bb725	0.053641457
231	0x3d890cca	0.066918924
232	0xbd421031	-0.047378723
233	0xbe6ec562	-0.23317483
234	0xbf263f4b	-0.6494033
235	0xbe07e0ad	-0.13269301
236	0xbda89496	-0.082314655
237	0x3f77659a	0.96639407
238	0xbdf278f2	-0.11839475
239	0x3e2321ae	0.15930817
240	0x3efcee7f	0.49400708
241	0x3db9d3f2	0.090736285
242	0xbc2d8b85	-0.010592346
243	0xbddb606a	-0.10711749
244	0xbcce4bc9	-0.025182622
245	0xbd982876	-0.07429592
246	0x3e060fff	0.1309204
247	0x3d135620	0.035970807
248	0xbcb5466f	-0.022128312
249	0xbddd7226	-0.10812788
250	0xbdd715ee	-0.1050223
251	0x3ea5bb78	0.3236959
252	0xbeff6f35	-0.49889532
253	0x3e6a7033	0.22894363
254	0x3def6e84	0.11691001
255	0xbc8c432d	-0.017121876

a2c_network.actor_mlp.0.bias f4 [256]
0	0xbea0f02a	-0.3143323
1	0xbd1b22bb	-0.03787492
2	0xbe62b8c5	-0.22140796
3	0xbe13b852	-0.14425781
4	0x3e22a65c	0.15883774
5	0x3cab702e	0.020927515
6	0xbea98efe	-0.33116907
7	0x3cefed85	0.029288063
8	0xbe09dd82	-0.13463405
9	0x3de1bc7e	0.1102228
10	0x3d5cd440	0.053913355
11	0xbd33d151	-0.04390079
12	0x3e82179a	0.25408632
13	0xbe70bba0	-0.23509073
14	0xbe581420	-0.21101427
15	0xbea1aa5d	-0.3157529
16	0x3d8e7b4e	0.06957112
17	0xbc3411ac	-0.010990541
18	0xbd3fd29c	-0.046831712
19	0xbeeefb4a	-0.46676093
20	0xbd3ce2b0	-0.046114624
21	0x3d50eafb	0.051005345
22	0xbdb3eeca	-0.0878578
23	0xbe8d9d83	-0.27659234
24	0xbe8c672d	-0.27422467
25	0x3e504014	0.20336944
26	0xbc85b7fa	-0.016323078
27	0xbe8170bb	-0.2528132
28	0x3d6f628a	0.058443584
29	0xbe4fc46d	-0.20289774
30	0xbe0a5a92	-0.13511112
31	0x3df816f3	0.12113752
32	0xbde51f97	-0.11187666
33	0xbe4c1fe0	-0.19934034
34	0x3e223ab4	0.15842706
35	0xbe3e0a4f	-0.1855862
36	0xbe99506f	-0.29944178
37	0xbe0bc32e	-0.13648674
38	0x3e8eebc1	0.2791424
39	0x3e18c2e2	0.14918092
40	0xbed9eb5f	-0.42562386
41	0xbe668231	-0.22510602
42	0xbdfbc2ac	-0.1229299
43	0xbeb50324	-0.3535396
44	0xbe9c11c8	-0.30482316
45	0xbde9d040	-0.11416674
46	0x3ddcf964	0.10789755
47	0xbe8ef477	-0.27920887
48	0x3de3da8b	0.11125668
49	0x3dccac17	0.09993761
50	0xbe51ecb5	-0.20500453
51	0xbe8879b7	-0.2665536
52	0x3e51e190	0.20496202
53	0x3f069748	0.52574587
54	0xbd51b2c7	-0.051195886
55	0x3dc79bd8	0.09746522
56	0xbe46ec96	-0.19426188
57	0x3d93daf2	0.07219495
58	0xbdc9076e	-0.0981587
59	0xbe73aa96	-0.23795542
60	0xbe0fc29e	-0.14039084
61	0xbde281e1	-0.11059929
62	0xbd900242	-0.07031681
63	0xbe313b8a	-0.17307869
64	0xbe993e94	-0.29930556
65	0xbddcd5a9	-0.1078294
66	0xbe283023	-0.16424613
67	0xbe2c40e4	-0.16821629
68	0x3d95b2d6	0.07309501
69	0xbe1f898d	-0.15579815
70	0xbe2c56e5	-0.16830023
71	0xbe8f1c58	-0.27951312
72	0x3e049c83	0.1295033
73	0xbdba9fec	-0.09112534
74	0x3d853ec5	0.06506113
75	0xbe5c5873	-0.21518116
76	0x3d2deccf	0.042462166
77	0x3d726a69	0.059183512
78	0xbe9e5763	-0.30926046
79	0xbda8d9b4	-0.082446486
80	0x3e484bd0	0.1956017
81	0xbe33aa59	-0.17545451
82	0xbedf114a	-0.43567878
83	0xbe64ec51	-0.22355773
84	0xbd3fff34	-0.04687424
85	0xbe0849c4	-0.1330939
86	0xbd8b9306	-0.06815152
87	0x3e7e4693	0.2483161
88	0x3cc6f639	0.02428733
89	0x3dc5855c	0.09644577
90	0xbdb18374	-0.08667651
91	0x3e371fb4	0.17883188
92	0x3da5be9c	0.080929965
93	0x3e67f4c6	0.22651967
94	0x3d57a3e4	0.052646533
95	0x3e03a72e	0.12856743
96	0x3d7489fe	0.059701912
97	0x3e3a5b60	0.1819892
98	0x3d8cdeac	0.06878409
99	0xbe725a40	-0.2366724
100	0x3e3355fb	0.17513268
101	0x3d717b3b	0.058955412
102	0x3c3b6f0b	0.011440049
103	0x3d19f61b	0.03758822
104	0x3d8baf85	0.06820587
105	0x3d64c7a8	0.05585447
106	0x3e16bb27	0.1471983
107	0x3e2d534b	0.16926305
108	0x3e10a0a1	0.14123775
109	0xbc29b3fd	-0.010357854
110	0xbda19daa	-0.078914
111	0xbd47a735	-0.048743445
112	0xbc0f07fb	-0.00872993
113	0x3d9d1ba8	0.07671291
114	0xbe3fd02f	-0.1873176
115	0x3d8e0431	0.06934393
116	0xbeca8142	-0.3955174
117	0xbeb30e13	-0.34971675
118	0xbdacc7e8	-0.084365666
119	0x3e4966f4	0.1966818
120	0xbe897d2e	-0.26853317
121	0xbea08c46	-0.3135702
122	0xbcf1ff09	-0.029540556
123	0xbe80f86c	-0.2518953
124	0x3e339459	0.17537059
125	0xbea29047	-0.317507
126	0xbe87cca5	-0.2652332
127	0xbd4fcc5a	-0.050731994
128	0xbe0ff467	-0.14058076
129	0x3bcbfdf8	0.006225344
130	0x3e355961	0.17709877
131	0x3e8ed1a9	0.27894333
132	0xbe79db00	-0.24399948
133	0xbd81f160	-0.06344867
134	0x3dd2f8f3	0.103013895
135	0xbea6e6d2	-0.32597977
136	0xbda2d48c	-0.07950696
137	0xbe21c898	-0.15799177
138	0x3de3dfe6	0.111266896
139	0x3ddf108f	0.1089183
140	0x3c3c6592	0.011498826
141	0xbe7035a6	-0.23457965
142	0xbea95952	-0.33075958
143	0xbe3273b7	-0.17426954
144	0xbe1dc665	-0.15407713
145	0xbe58055f	-0.21095799
146	0x3dd9c335	0.10632936
147	0x3d7da8f8	0.06192872
148	0xbd836669	-0.064160176
149	0xbee37b1b	-0.4442986
150	0xbcafefca	-0.021476645
151	0x3e022ae9	0.12711681
152	0x3db60dea	0.08889373
153	0xbe108467	-0.14113007
154	0xbe670cc9	-0.22563471
155	0xbe5fabca	-0.21842876
156	0x3c7e4424	0.015519176
157	0x3dfef94c	0.12449893
158	0xbe2ad2ae	-0.1668193
159	0xbe9bdf99	-0.3044403
160	0xbe912c52	-0.28354126
161	0xbeb15685	-0.34636322
162	0x3dedee13	0.11617675
163	0xbcbdd7e8	-0.023174241
164	0xbda0224e	-0.07819043
165	0xbe9212e5	-0.2853004
166	0xbd8b4118	-0.06799525
167	0x3e1b0783	0.15139584
168	0xbe61c46a	-0.22047582
169	0xbcc430c1	-0.023949029
170	0x3d7c4923	0.061593186
171	0xbbe0bfb0	-0.0068587884
172	0xbde975ca	-0.113994196
173	0xbecc6265	-0.3991882
174	0xbd8b6c44	-0.068077594
175	0x3cfcad04	0.030844219
176	0xbce34ce3	-0.027746623
177	0x3e6a6770	0.22891021
178	0xbe2d5489	-0.16926779
179	0xbe8ab5ba	-0.2709177
180	0x3e02d099	0.12774886
181	0xbde6c0a8	-0.11267215
182	0x3c9dc3fb	0.01925849
183	0xbe3338b4	-0.175021
184	0x3ca6cdb2	0.020361755
185	0x3ca32577	0.019915326
186	0xbe56219b	-0.20911257
187	0x3ce6651c	0.028124385
188	0x3e85134c	0.25991285
189	0xbe07d33b	-0.13264172
190	0x3daee5f9	0.085399576
191	0xbf19c552	-0.6006671
192	0xbd6a0df2	-0.057142206
193	0xbc8a4096	-0.0168765
194	0xbc4ce942	-0.012506785
195	0x3d138e19	0.036024187
196	0xbe0ca6f8	-0.13735569
197	0xbd9d2d19	-0.07674617
198	0x3d0db99e	0.034600846
199	0xbecb9af2	-0.3976665
200	0xbea496d9	-0.32146338
201	0xbee6a1ae	-0.45045227
202	0xbd390218	-0.045168012
203	0xbe9196f1	-0.28435472
204	0x3c9766d4	0.01848165
205	0x3d77ccfe	0.06049823
206	0xbe50f025	-0.20404108
207	0xbcbc4629	-0.022982674
208	0x3e0dfcaa	0.13865915
209	0xbdf31979	-0.11870093
210	0xbe94d7e6	-0.29070967
211	0x3e6e1499	0.23250045
212	0xbe6892b7	-0.22712217
213	0x3e67d4c5	0.22639759
214	0xbdb62865	-0.088944234
215	0xbd86b2d5	-0.06577078
216	0x3cad01fc	0.02111911
217	0x3d225ef7	0.039641347
218	0x3c0bb8da	0.008527959
219	0xbd3db8ea	-0.046318926
220	0x3c47981f	0.012182265
221	0x3d984280	0.07434559
222	0xbe212981	-0.15738489
223	0x3be15a38	0.00687721
224	0xbeebe534	-0.46073306
225	0xbdb2651e	-0.08710693
226	0xbef39114	-0.47571623
227	0xbe67ab52	-0.22623947
228	0xbe012c01	-0.12614442
229	0xbe536c7d	-0.20646854
230	0x3d8a8575	0.06763736
231	0x3e11b837	0.14230429
232	0xbe9c331a	-0.30507737
233	0xbe917b41	-0.28414348
234	0x3cf9b6c7	0.030482663
235	0x3e25a087	0.16174518
236	0x3e257a39	0.16159905
237	0xbe5a087a	-0.21292296
238	0xbead4d73	-0.33848152
239	0xbd85d380	-0.06534481
240	0xbd4146e7	-0.04718676
241	0xbd12555c	-0.035725936
242	0xbe7afa63	-0.24509577
243	0xbe2a8557	-0.16652428
244	0xbe0bae74	-0.13640767
245	0xbec9854a	-0.39359504
246	0xbdf51a86	-0.119679496
247	0xbdb91aca	-0.09038313
248	0x3e07ff33	0.13280945
249	0xbe80770a	-0.2509082
250	0xbea2c866	-0.31793517
251	0xbdd4a1fe	-0.1038246
252	0x3cd7bebc	0.026336066
253	0xbeef74f3	-0.46768913
254	0x3e40d0e6	0.18829688
255	0xbd805a42	-0.06267215

a2c_network.actor_mlp.2.weight f4 [128, 256]
0	0xbc23c42a	-0.0099955
1	0x3de044a5	0.10950593
2	0xbc4d4a4e	-0.012529923
3	0x3d305e60	0.043058753
4	0xbdc58e6a	-0.09646304
5	0xbe419d12	-0.18907574
6	0xbdbf5391	-0.09342111
7	0x3e3c940f	0.18415855
8	0x3e05fa06	0.13083658
9	0xbd59ef65	-0.05320682
10	0xbd615b39	-0.055018637
11	0xbcd6fa9f	-0.026242552
12	0xbd02003b	-0.0317385
13	0xbd5e27ae	-0.05423706
14	0xbd0e05d7	-0.034673538
15	0xbc097056	-0.008388599
16	0xbc471ea3	-0.0121533
17	0x3d9fbc84	0.077996284
18	0x3e068fe4	0.13140827
19	0x3e0cd96f	0.1375482
20	0x3daa43bf	0.08313703
21	0xbd00393b	-0.03130458
22	0x3d250936	0.040291987
23	0x3ab0d6b6	0.0013491723
24	0xbc8a3c0c	-0.016874336
25	0x3d83ec82	0.06441595
26	0x3e0bf600	0.1366806
27	0xbe1b7aa9	-0.1518351
28	0xbdceb4fe	-0.10093115
29	0x3e8058c2	0.25067717
30	0x3c23fc02	0.010008814
31	0x3c9e363d	0.019312972
32	0x3cb37949	0.02190842
33	0xbd5e21a9	-0.05423132
34	0x3d2b070c	0.041754767
35	0xbda5115c	-0.08059952
36	0xbda086c7	-0.07838207
37	0xbcb576ed	-0.022151435
38	0x3d78d08a	0.060745753
39	0x3dc717de	0.09721349
40	0x3b210d31	0.0024574513
41	0xbd46ad68	-0.048505217
42	0xbc9f26fa	-0.019427765
43	0x3d34da14	0.044153288
44	0xbb8d5280	-0.0043128133
45	0xbd35d014	-0.044387892
46	0x3d378323	0.044802796
47	0xbdc86aec	-0.09786019
48	0x3c743fae	0.014907761
49	0x3c731346	0.014836138
50	0x3dafe374	0.08588305
51	0xbd690e28	-0.056898266
52	0xbae9d40d	-0.0017839685
53	0x3ca790a6	0.020454716
54	0x3a66e527	0.000880795
55	0xbddda5be	-0.108226284
56	0x3db904bf	0.09034108
57	0x3d84d61f	0.06486153
58	0x3de0611f	0.109560244
59	0xbc58d566	-0.013234472
60	0x3d382440	0.044956446
61	0xbd6949cc	-0.056955144
62	0x3c690cc4	0.014224235
63	0x3dd2591d	0.10270903
64	0x3e0a0073	0.13476734
65	0x3d774860	0.060371757
66	0xbcb06895	-0.021534244
67	0x3c99902a	0.0187455
68	0xbd53f331	-0.051745597
69	0xbda83f05	-0.08215145
70	0x3a5c56ca	0.00084052666
71	0x3d09fdd4	0.033689335
72	0x3c73324c	0.014843535
73	0x3dc37266	0.09543304
74	0xbd19210c	-0.03738503
75	0x3c355630	0.011067912
76	0x3bb13598	0.005408
77	0x3d8653e2	0.06558968
78	0xbe02e9b7	-0.12784468
79	0x3d874522	0.06604983
80	0xbdd13423	-0.102150224
81	0x3e305e9a	0.17223588
82	0xbd9bfe4f	-0.07616865
83	0x3d93904c	0.07205257
84	0xbc941f6d	-0.018081391
85	0xbc9122b5	-0.017716745
86	0xbd4a7a0c	-0.0494328
87	0x3cd728f3	0.026264643
88	0xbc0a33e8	-0.008435227
89	0x3da92668	0.082592785
90	0xbb87dd68	-0.0041462667
91	0x3c3cc9ca	0.01152272
92	0x3d4742ee	0.048647813
93	0xbcb053e9	-0.021524386
94	0x3d3a0890	0.045418322
95	0xbd58b08c	-0.052902743
96	0xbb91bf46	-0.0044478504
97	0xbd986ad2	-0.07442249
98	0x3d9949e5	0.074847974
99	0xbcf7116a	-0.03015967
100	0x3cde6437	0.027147396
101	0x3dbbbfa9	0.09167416
102	0x3db2e8ee	0.08735834
103	0xbd5320aa	-0.051544823
104	0xbdd17c24	-0.10228756
105	0xbcae4492	-0.021272931
106	0xbd9b8dcb	-0.07595404
107	0x3d1ad86d	0.037804056
108	0x3e3030b7	0.17206083
109	0xbc690c57	-0.014224133
110	0x3c0f141e	0.008732824
111	0x3d4ffe35	0.05077954
112	0x3d07afa6	0.033126496
113	0x3d971584	0.07377151
114	0x3d8998db	0.06718608
115	0xbd6be2dd	-0.0575894
116	0x3de74c66	0.11293869
117	0xbc91ccf7	-0.01779793
118	0x3d1123a8	0.035434395
119	0xbdd2019e	-0.10254215
120	0x3b5433ab	0.003237943
121	0x3db36676	0.08759777
122	0x3b4ce54a	0.0031264597
123	0xbb8a5eac	-0.0042227115
124	0xbdb36c66	-0.0876091
125	0x3c42abc5	0.011881773
126	0xbd519f83	-0.051177513
127	0x3d3129b9	0.04325268
128	0xbe0f1639	-0.13973321
129	0xbd29eddf	-0.041486617
130	0xbcf0f80c	-0.029415153
131	0xbd56e940	-0.05246854
132	0x3dbe44ed	0.0929049
133	0xbd46aa46	-0.04850223
134	0xbe1c6f59	-0.15276851
135	0x3e4b8a10	0.19876885
136	0xbd816405	-0.06317905
137	0x3cb08409	0.021547334
138	0xbc8a98d6	-0.016918581
139	0x3db4e21e	0.08832191
140	0xbd8317ce	-0.06401025
141	0x3c823e46	0.015898835
142	0x3d169ed7	0.036772575
143	0xbd97e6d8	-0.07417077
144	0xbc741d5e	-0.01489958
145	0xbdcbd94d	-0.09953556
146	0x3d893628	0.066997826
147	0x3e1dd782	0.15414241
148	0x3dcbbe8e	0.09948455
149	0xbc5d4d35	-0.013507177
150	0x3d0f4a2f	0.034982856
151	0x3c315217	0.010822794
152	0x3dea675e	0.11445497
153	0x3d98f0a2	0.07467772
154	0x3d8f14d8	0.069863975
155	0xbcae7d04	-0.021299846
156	0x3ad1267e	0.0015956906
157	0xbd47ff50	-0.04882747
158	0xbc050df2	-0.008121001
159	0xbd1aa499	-0.03775463
160	0xbd287c8e	-0.04113441
161	0xbd13a3d7	-0.03604492
162	0x3d3c94bf	0.046040293
163	0x3d791582	0.060811527
164	0x3d117542	0.035512216
165	0xbdd124b0	-0.10212076
166	0x3e07bbe5	0.1325527
167	0x3d33cf4f	0.043898877
168	0x3db516ce	0.0884224
169	0x3c9a0613	0.018801725
170	0xbd27ff32	-0.041014858
171	0xbd8ef7ef	-0.06980883
172	0x3b48ca45	0.003063814
173	0x3d605298	0.054766268
174	0xbd4e74d1	-0.050404374
175	0x3b023a67	0.0019871236
176	0xbd146676	-0.036230527
177	0xbad66c7a	-0.0016359233
178	0xbb8e6c2f	-0.0043463926
179	0x3da59e5f	0.080868475
180	0xbdc31720	-0.09525895
181	0x3d48620a	0.048921622
182	0xbca338a4	-0.01992447
183	0xbcb22431	-0.021745773
184	0xbd310d2a	-0.043225445
185	0xbde1acfa	-0.11019321
186	0x3e01dd05	0.12681969
187	0xbd861126	-0.065462396
188	0x3c1ec1d8	0.009689771
189	0xbd2ba6ba	-0.04190705
190	0x3cfe7d82	0.031065706
191	0xbca33bbf	-0.01992595
192	0xbe05fb12	-0.13084057
193	0x3c50b6b9	0.012738877
194	0xbd8e82c5	-0.06958536
195	0x3dfdee36	0.12398951
196	0xbd4d9b46	-0.05019691
197	0xbe05ca3b	-0.13065426
198	0x3c181c61	0.00928411
199	0x3df53f64	0.119749814
200	0xbd01a81b	-0.03165446
201	0xbde32915	-0.1109182
202	0xbd8877f6	-0.06663506
203	0xbd56a1f3	-0.05240054
204	0x3bfb3794	0.0076665375
205	0xbc95e3cd	-0.0182971
206	0xbc19716c	-0.009365421
207	0xbcd334fa	-0.025782097
208	0xbc8c00ad	-0.017090166
209	0x3e594a95	0.21219857
210	0x3cf502a4	0.029908486
211	0x3e0689cf	0.13138507
212	0xbe3600ad	-0.17773695
213	0xbc3ac49d	-0.011399415
214	0x3dff1ec0	0.12457037
215	0x3d919a11	0.07109464
216	0xbc855caa	-0.016279537
217	0xbc8b2c7b	-0.016988983
218	0xbdbae4e4	-0.09125689
219	0x3a9b57e9	0.0011851761
220	0xbd89862e	-0.06715046
221	0xbda19651	-0.07889999
222	0xbd95785f	-0.072983496
223	0xbcfb01a0	-0.030640423
224	0x3bf627ce	0.0075120693
225	0xbc5fa63e	-0.013650475
226	0x3e0d30d1	0.13788153
227	0xbd4d8893	-0.050179075
228	0xbd8bde89	-0.068295546
229	0xbd2635de	-0.040578716
230	0xbc90f834	-0.017696477
231	0x3c4a6ef9	0.0123555595
232	0xbde51e04	-0.11187366
233	0x3ca7088b	0.020389816
234	0x3d04395d	0.03228127
235	0x3d909a8d	0.07060728
236	0xbd6bc950	-0.057565033
237	0xbd39f39a	-0.045398332
238	0x3d06b36a	0.032885946
239	0x3d3feae8	0.046854883
240	0x3dcae1e9	0.0990637
241	0x3b15b937	0.0022845992
242	0x3daabad3	0.08336415
243	0xbdb0f9fc	-0.08641431
244	0xbe087089	-0.13324179
245	0xbd99422d	-0.07483325
246	0x3e0ce138	0.13757789
247	0x3da33b76	0.07970326
248	0xbd12d0ba	-0.03584359
249	0x3b7f04f9	0.0038912876
250	0x3df5a4c5	0.11994318
251	0xbc81ec3a	-0.015859712
252	0x3d73a803	0.0594864
253	0x3d4c973e	0.049948923
254	0xbcbce5de	-0.023058828
255	0xbceccf10	-0.028907329

a2c_network.actor_mlp.2.bias f4 [128]
0	0xbda04a1b	-0.078266345
1	0xbe02c8f3	-0.12771969
2	0xbec3321c	-0.38124168
3	0xbe9aa0e2	-0.3020087
4	0xbe5034ea	-0.20332685
5	0xbe64e632	-0.22353438
6	0xbeb3dd14	-0.35129607
7	0xbd0431fa	-0.032274224
8	0xbd80f895	-0.06297413
9	0xbd2504d4	-0.040287808
10	0xbdc22bf3	-0.09481039
11	0xbf038de3	-0.51388377
12	0xbe08fd36	-0.13377842
13	0xbec572a3	-0.38564023
14	0xbea0b0a3	-0.31384763
15	0xbd07da03	-0.033166897
16	0xbd29d619	-0.041463945
17	0xbc7d8441	-0.015473426
18	0x3d9249fd	0.071430184
19	0xbe2d3378	-0.16914165
20	0xbe584a7a	-0.2112216
21	0x3e195107	0.14972316
22	0x3cbef973	0.023312306
23	0xbe5e90d4	-0.21734935
24	0xbcc07304	-0.023492344
25	0xbe6e9974	-0.23300725
26	0x3c4586ae	0.012056036
27	0xbed03796	-0.4066741
28	0x3d32ab4d	0.043620396
29	0x3d5313c7	0.051532533
30	0x3c6710c6	0.01410312
31	0xbe6903d6	-0.2275537
32	0xbe841073	-0.257938
33	0x3da6b6bf	0.08140325
34	0xbdafabfa	-0.08577724
35	0xbe49a47c	-0.19691652
36	0xbdb33508	-0.08750349
37	0xbeb5babb	-0.35494027
38	0x3caf7b65	0.021421144
39	0x3d49e7bb	0.04929326
40	0xbe5fc4b6	-0.21852383
41	0x3d2f4f0f	0.042800006
42	0xbe196970	-0.14981627
43	0xbd4daed5	-0.05021556
44	0xbe0341d8	-0.12818086
45	0xbef4e85f	-0.47833535
46	0xbe23c577	-0.15993296
47	0xbc0ba2ab	-0.00852267
48	0x3c7790ea	0.015110234
49	0x3cc26d3d	0.02373373
50	0xbd02fee9	-0.031981383
51	0xbd86f05d	-0.065888144
52	0x3cdeb78f	0.027187137
53	0xbe028f4d	-0.12749977
54	0xbc92ba26	-0.017911028
55	0xbea2466f	-0.31694362
56	0xbac40941	-0.0014956371
57	0x3e3f40e9	0.18677105
58	0xbd9ed31a	-0.07755108
59	0xbd062b0a	-0.03275589
60	0xbea298a6	-0.31757087
61	0xbe0bb39e	-0.13642737
62	0xbc636fe9	-0.013881662
63	0xbea5cc28	-0.3238232
64	0xbe181ff7	-0.14855944
65	0xbea11d7b	-0.31467804
66	0xbba30f1b	-0.004976166
67	0xbe036084	-0.12829787
68	0x3dfa9fe5	0.12237529
69	0xbd39c312	-0.04535205
70	0x3d33bc41	0.043880705
71	0xbe8b93a2	-0.27261072
72	0xbe23af8f	-0.15984939
73	0xbe97a082	-0.29614645
74	0x3dc3e1e9	0.09564573
75	0xbece775b	-0.40325436
76	0x3d957bc8	0.07299
77	0xbdf4c596	-0.11951749
78	0xbec140ab	-0.3774465
79	0xbe0793ca	-0.13239971
80	0xbde91a78	-0.11382002
81	0xbe7241c8	-0.23657906
82	0xbde5e714	-0.11225715
83	0xbd826744	-0.063673526
84	0xbcb9bebf	-0.022673963
85	0xbf113d0a	-0.56733763
86	0xbdc07fb4	-0.093993574
87	0xbe811e7a	-0.25218564
88	0xbe60e3b5	-0.21961863
89	0x3e12df4b	0.14342992
90	0xbd33b410	-0.043872893
91	0x3bd2c091	0.006431647
92	0xbe698fce	-0.22808763
93	0xbc97e4de	-0.01854175
94	0xbc9ad7aa	-0.018901665
95	0xbe9d2f0e	-0.30699962
96	0xbe81351c	-0.25235832
97	0xbe14bc2b	-0.14524905
98	0xbd5af6e7	-0.05345812
99	0xbd85264b	-0.065014444
100	0xbdde00a7	-0.10839968
101	0x3e0c10c7	0.13678275
102	0xbdc34ad3	-0.09535756
103	0xbd6fa1f4	-0.05850406
104	0xbea11d03	-0.31467447
105	0xbe8b5c7f	-0.27219006
106	0xbea78fae	-0.32726806
107	0xbe83272f	-0.25615832
108	0xbe3ff891	-0.18747164
109	0xbd46a316	-0.048495375
110	0xbe9478d2	-0.2899843
111	0xbe992521	-0.2991114
112	0xbd7f0e3a	-0.062269427
113	0xbd7b4609	-0.061346088
114	0xbe44f306	-0.19233331
115	0xbd364586	-0.044499896
116	0xbe194ea2	-0.14971402
117	0x3cc2f45e	0.023798164
118	0x3dfbd63c	0.12296721
119	0xbeb07df3	-0.34471092
120	0xbcceea8b	-0.025258323
121	0xbde9bf8c	-0.11413488
122	0xbe9251cb	-0.28578028
123	0x3e15f791	0.1464522
124	0xbea1f19a	-0.3162964
125	0xbecc4b5e	-0.3990125
126	0xbeb55759	-0.35418203
127	0x3c70a032	0.014686631

a2c_network.actor_mlp.4.weight f4 [64, 128]
0	0x3cbfbbb8	0.023404941
1	0xbd99b7f5	-0.0750579
2	0x3d219eb0	0.039457977
3	0xbc76dfbb	-0.01506799
4	0x3d43995d	0.04775368
5	0x3dc56ebc	0.096402615
6	0xbdad9ecc	-0.08477554
7	0xbbf67181	-0.007520855
8	0xbd044b4d	-0.032298375
9	0xbd12c25b	-0.035829883
10	0x3d9e7b80	0.077383995
11	0xbde1642f	-0.11005437
12	0xbce0574d	-0.027385378
13	0x3dbf68db	0.093461715
14	0x3db6162a	0.08890946
15	0xbe2e3f91	-0.17016436
16	0x3d6c73f1	0.057727758
17	0x3c82a990	0.015949994
18	0xbd6609f8	-0.05616185
19	0x3d8349de	0.064105734
20	0x3d060742	0.032721765
21	0xbe0ac3f8	-0.13551319
22	0xbbd6bc3c	-0.006553201
23	0x3e063c3d	0.13108917
24	0xbc6ff6b2	-0.014646219
25	0x3d43d5c6	0.047811292
26	0x3d88a318	0.06671733
27	0x3df055a5	0.117350854
28	0xbdb783a5	-0.08960656
29	0x3c790d52	0.01520093
30	0x3c691e64	0.014228437
31	0x3e353b96	0.17698511
32	0xbe1b8d1c	-0.15190548
33	0x3d7f0e44	0.062269464
34	0x3c730124	0.014831815
35	0xbd90306f	-0.07040488
36	0x3d9959e4	0.074878484
37	0x3bf639f8	0.0075142346
38	0x3d1fd7bf	0.03902411
39	0xbd1f46d4	-0.038885906
40	0xbd88fb29	-0.0668853
41	0xbd8c9662	-0.06864621
42	0xbd779bb1	-0.060451213
43	0xbc347fa5	-0.011016761
44	0x3bdef09d	0.0068035857
45	0xbe0a00ae	-0.13476822
46	0xbde679b5	-0.112536825
47	0xbd5c8f93	-0.05384786
48	0xbd295448	-0.041340142
49	0x3d68fbb0	0.056880653
50	0xbdf4c4a2	-0.11951567
51	0x3d305897	0.043053236
52	0x3c7e1815	0.015508671
53	0xbd0931fd	-0.03349494
54	0xba005773	-0.00048958434
55	0xbd660867	-0.056160357
56	0xbcb242fd	-0.021760458
57	0xbb8361a7	-0.004009444
58	0x3d1d378e	0.03838306
59	0x3dc844de	0.097787604
60	0x3db0315f	0.08603167
61	0xbd801af0	-0.06255138
62	0x3db0249d	0.086007334
63	0xbc4e6cc6	-0.012599176
64	0x3ce80d3c	0.028326623
65	0xbdc7231d	-0.09723494
66	0x3bcdbbbc	0.006278483
67	0xbd9cf994	-0.07664791
68	0xbca88313	-0.020570314
69	0xbd602d52	-0.05473072
70	0xbc8040e4	-0.015655942
71	0xbe298ee0	-0.16558409
72	0xbe6e5ae9	-0.23276867
73	0x3e16d4c5	0.14729603
74	0xbd292908	-0.041298896
75	0x3deed47e	0.116616234
76	0xbdea7397	-0.11447828
77	0xbd6aee8f	-0.057356413
78	0x3d1fe5aa	0.039037384
79	0x3dc80991	0.0976745
80	0x3a924c24	0.0011161608
81	0x3cd82d9d	0.026388938
82	0x3d1443e1	0.036197547
83	0x3b9838e8	0.0046454556
84	0x3d62929b	0.055315595
85	0xbdb55049	-0.08853204
86	0xbc7f6ea5	-0.015590345
87	0x3deb8cbd	0.11501453
88	0x3dea143d	0.114296414
89	0x3d80cef8	0.06289476
90	0xbd2a849a	-0.041630365
91	0x3d190553	0.037358593
92	0xbf3651b5	-0.71218425
93	0xbd2e88a3	-0.042610776
94	0x3da319c4	0.07963899
95	0xbf0ba015	-0.5454114
96	0x3d64345c	0.055713996
97	0x3d0a6453	0.033787083
98	0x3d215974	0.03939195
99	0xbe7fe405	-0.24989326
100	0x3c0e5fac	0.008689802
101	0x3b3d75dd	0.0028909363
102	0xbd8ea29d	-0.0696461
103	0xbd1bf0b0	-0.038071334
104	0x3d2fbe6b	0.042906206
105	0xbdb8ebc4	-0.09029344
106	0x3d36efca	0.044662274
107	0xbecab6de	-0.39592642
108	0xbd225c77	-0.039638963
109	0xbd05ecb0	-0.032696426
110	0x3cdcecdd	0.026968414
111	0xbd89bacd	-0.067250825
112	0x3d9d554b	0.07682284
113	0x3d8160c2	0.06317283
114	0x3daee17e	0.08539103
115	0x3dd3040e	0.10303508
116	0x3d73ea94	0.059549883
117	0x3dbbe51b	0.09174558
118	0x3c841e1d	0.01612764
119	0x3dd90129	0.105959244
120	0xbd3f3ac7	-0.046686914
121	0xbcecea01	-0.028920176
122	0xbda2648c	-0.07929334
123	0x3d7beaf9	0.061503384
124	0xbe3dbc5e	-0.18528888
125	0x3d9f9019	0.07791156
126	0xbd791454	-0.060810402
127	0xbce2e700	-0.02769804
128	0x3dc97a56	0.09837787
129	0xbe74509a	-0.23858872
130	0x3da62d0c	0.08114061
131	0xbe8afd26	-0.27146262
132	0x3b8a4308	0.0042194165
133	0x3d24e93b	0.04026149
134	0x3d1cb36c	0.038257048
135	0xbc559af3	-0.013037431
136	0xbdb6b7aa	-0.0892175
137	0xbc4de940	-0.012567818
138	0xbd963ac9	-0.07335431
139	0xbc73aeb0	-0.014873192
140	0x3c5d4b20	0.013506681
141	0x3d4992de	0.04921233
142	0xbe1d0a37	-0.15335928
143	0x3d936ba0	0.07198262
144	0x3d1d6c26	0.038433217
145	0x3e0f014b	0.13965337
146	0x3cfa2e01	0.030539514
147	0xbe6fa662	-0.23403314
148	0x3c962bf8	0.018331513
149	0xbe59ded4	-0.21276408
150	0xbd3c0f0a	-0.04591278
151	0x3e08fc17	0.13377415
152	0x3d05eacf	0.032694634
153	0xbd1347b3	-0.03595705
154	0x3e051c62	0.12999108
155	0x3d033860	0.032036185
156	0x3d22b6cf	0.03972512
157	0xbdb1d1b4	-0.08682576
158	0xbc678112	-0.014129894
159	0x3e6b368f	0.22970031
160	0x3ce11b6c	0.027478896
161	0xbd34d689	-0.04414991
162	0x3dd71482	0.105019584
163	0x3e319c7e	0.17344853
164	0x3e25d69c	0.16195148
165	0x3d2e9c0f	0.042629298
166	0x3c1c3b95	0.00953569
167	0x3d5a9f21	0.053374413
168	0xbd99d5a9	-0.075114556
169	0xbe2b8aae	-0.16752121
170	0xbe082c9a	-0.13298264
171	0xbe216e61	-0.15764762
172	0x3dbd9fc6	0.0925899
173	0x3cdb0726	0.026736807
174	0xbda059b5	-0.0782961
175	0xbc53a339	-0.012917333
176	0x3db7cd55	0.08974711
177	0x3dc96357	0.09833401
178	0x3c4a0727	0.012330807
179	0xbda7728d	-0.08176146
180	0xbcf07580	-0.029352903
181	0xbd1091cb	-0.03529529
182	0x3d4a1f49	0.049346242
183	0x3d72317a	0.059129216
184	0xbd23d58f	-0.039998587
185	0xbccbda79	-0.02488445
186	0xbdc8ff2e	-0.09814297
187	0xbd21a22f	-0.03946131
188	0x3e81721b	0.25282368
189	0x3ddc688c	0.10762128
190	0x3d635c14	0.055507734
191	0x3da3d3d7	0.079993896
192	0x3e468919	0.19388236
193	0xbbcb5213	-0.0062048524
194	0xbdda4145	-0.106569804
195	0xbcd566e7	-0.026050044
196	0x3d3529d3	0.04422934
197	0xbd817616	-0.06321351
198	0x3e0d6b2b	0.13810413
199	0xbd4087e3	-0.04700459
200	0xbe30d098	-0.17267072
201	0x3dfd71cc	0.12375221
202	0x3ce13368	0.027490333
203	0x3dc41612	0.09574522
204	0x3d190a12	0.03736312
205	0xbe11af16	-0.14226946
206	0x3e5ad60e	0.21370718
207	0xbd9c7966	-0.076403424
208	0x3db490e7	0.088167004
209	0xbd01398b	-0.031549018
210	0x3ce44682	0.027865652
211	0xb88f7b4a	-6.841736e-05
212	0x3db617e5	0.08891276
213	0xbe0fe542	-0.14052299
214	0x3daac0d4	0.0833756
215	0xbc43e24e	-0.011955811
216	0x3e20b483	0.1569386
217	0x3d940461	0.07227398
218	0xbe10be92	-0.14135197
219	0x3b9ed00b	0.004846578
220	0xbd4f22e6	-0.05057039
221	0x3d9c7809	0.076400824
222	0x3de6ac0c	0.11263284
223	0x3d32927a	0.043596722
224	0xbdd7102a	-0.1050113
225	0x3db2f453	0.087380074
226	0xbd2c8d88	-0.042127162
227	0xbde775ef	-0.11301791
228	0x3db886e8	0.09010106
229	0x3ceec56f	0.029146878
230	0x3d0c379b	0.034232717
231	0xbf03478b	-0.5128104
232	0xbe00c69c	-0.12575763
233	0xbe995165	-0.29944912
234	0xbcbc08c7	-0.022953404
235	0xbdcd61b9	-0.10028405
236	0x3a5ddab8	0.00084630726
237	0x3d3bf659	0.045889232
238	0x3e09e98d	0.13467999
239	0xbe88b2a2	-0.26698786
240	0x3e2e636f	0.17030118
241	0xbd02568e	-0.031820826
242	0xbe1bcca4	-0.15214783
243	0x3e2774d7	0.16353165
244	0xbd0e78c8	-0.034783155
245	0xbdb44cc7	-0.088037066
246	0xbdbb66d4	-0.09150472
247	0x3d8d96c8	0.06913525
248	0xbcd2c8a9	-0.025730448
249	0x3cb63ade	0.022244867
250	0xbea564b9	-0.32303408
251	0xbdd0e792	-0.102004185
252	0xbde03d30	-0.109491706
253	0xbe242da6	-0.16033038
254	0x3d3f8ac6	0.046763204
255	0x3c9a4c87	0.01883532

a2c_network.actor_mlp.4.bias f4 [64]
0	0x3d1019bb	0.03518079
1	0x3b969751	0.004595675
2	0x3d1f0f12	0.03883273
3	0xbe51d089	-0.20489706
4	0xbce5a30a	-0.028031845
5	0xbd6d1437	-0.057880607
6	0xbe975b7f	-0.29561993
7	0xbe49baeb	-0.1970021
8	0xbe28c8cf	-0.16482852
9	0x3e365cad	0.1780879
10	0x3d8e60e2	0.06952073
11	0xbe9bab8d	-0.3040432
12	0xbda3c2cc	-0.07996139
13	0xbe9458c6	-0.2897398
14	0x3d85be8b	0.06530484
15	0x3cbd38cb	0.02309837
16	0xbe8665a3	-0.26249418
17	0x3d214c9d	0.039379705
18	0xbd872e6c	-0.06600651
19	0x3e883c20	0.26608372
20	0xbd7a4cb4	-0.061108306
21	0xbc57e205	-0.013176446
22	0xbe2a0ef6	-0.1660727
23	0xbdbd7fee	-0.09252916
24	0xbe94fdc3	-0.29099855
25	0xbec41b62	-0.3830214
26	0xbde73c6f	-0.11290824
27	0xbdb29f7d	-0.08721826
28	0x3c03e2a0	0.008049637
29	0xbe5a7e2c	-0.21337193
30	0x3da6e598	0.0814926
31	0x3d0b8f04	0.034071937
32	0xbe38c795	-0.18044885
33	0x3d9e2dce	0.0772358
34	0xbe24f5b1	-0.16109349
35	0xbe84b598	-0.25919795
36	0x3d3201e1	0.043458823
37	0xbe06bc68	-0.13157809
38	0xbe94dbf0	-0.2907405
39	0x3cc4ce5b	0.02402418
40	0xbe6ac195	-0.22925408
41	0x3e06884e	0.13137934
42	0xbe769aab	-0.24082439
43	0x3e238d41	0.15971853
44	0xbec26d4f	-0.3797402
45	0x3e0dd7fe	0.13851926
46	0xbe61e259	-0.22059001
47	0xbe84df56	-0.25951642
48	0x3d7730b9	0.0603492
49	0xbcd15efd	-0.02555799
50	0xbd044f7d	-0.03230237
51	0xbe10d13c	-0.14142317
52	0xbdf52cc1	-0.11971427
53	0xbd8b92c9	-0.068151064
54	0xbe351f44	-0.17687708
55	0xbd064d09	-0.03278831
56	0x3e096cfb	0.13420479
57	0x3d92583d	0.07145736
58	0xbe7f2537	-0.2491654
59	0xbe9eacaa	-0.30991107
60	0xbdc57add	-0.09642575
61	0xbe05a612	-0.13051632
62	0xbe5711ab	-0.21002834
63	0x3d54a402	0.051914223

a2c_network.value.weight f4 [1, 64]
0	0xbb733705	-0.0037111652
1	0x3c0c2048	0.008552618
2	0xbca5f8d3	-0.02026025
3	0x3b9185e8	0.0044410117
4	0x3d80d039	0.06289715
5	0x3e12cca1	0.14335872
6	0x3ce3d083	0.027809387
7	0x3e290743	0.16506676
8	0x3e0c6810	0.13711572
9	0x3e041edf	0.12902401
10	0xb920214f	-0.00015271197
11	0xbc419973	-0.01181637
12	0x3cc67911	0.02422765
13	0xbc9f9615	-0.019480744
14	0xb9a640d8	-0.000317103
15	0x3c20b84b	0.009809564
16	0x3e137f53	0.14404039
17	0x3e080390	0.13282609
18	0xbb42315d	-0.0029631474
19	0xbd06363f	-0.032766577
20	0xbd8bb5a7	-0.06821757
21	0xbc5e8044	-0.013580386
22	0x3e0b9375	0.13630469
23	0x3c2d71dd	0.010586229
24	0x3e4a55b6	0.19759259
25	0xbc8b49b4	-0.017002918
26	0x3d91673d	0.07099769
27	0xbce0fc0e	-0.027463939
28	0x3b6c0646	0.0036014481
29	0x3d808eb3	0.06277218
30	0xbd2beaa5	-0.04197182
31	0x3d2d6d1d	0.042340387
32	0x3c93f4cd	0.018061066
33	0x3b1077c4	0.0022044042
34	0x3df343b9	0.118781514
35	0x3d4110da	0.04713521
36	0xbc8d2e08	-0.017233863
37	0x3e3afcfc	0.18260568
38	0xbb7c60c7	-0.0038509832
39	0x3bdd67d2	0.006756761
40	0xbd52ca6b	-0.051462572
41	0xbe13a28f	-0.1441748
42	0x3e1e54d2	0.15462044
43	0x3d8e7155	0.0695521
44	0x3ca567b8	0.020191059
45	0xbd019848	-0.031639367
46	0x3e0129e3	0.12613635
47	0x3e0140ca	0.12622371
48	0xbcd550a6	-0.026039433
49	0xbd22375f	-0.039603587
50	0x3cfc4299	0.030793475
51	0x3d6dcef1	0.058058683
52	0xbce67f53	-0.028136885
53	0x3a45d70b	0.00075469975
54	0x3cce8cc0	0.0252136
55	0xbd65a336	-0.056063853
56	0xbcbf19fe	-0.023327824
57	0xbaf5324a	-0.0018707004
58	0x3d9dd6eb	0.07707008
59	0x3ba8bd7d	0.005149542
60	0xbc6b6021	-0.014366181
61	0xbc28e7ca	-0.010309169
62	0xbc23c729	-0.009996214
63	0x3c525e91	0.012839929

a2c_network.mu.weight f4 [7, 64]
0	0xbe853402	-0.2601624
1	0xbc384f5b	-0.011249389
2	0x3ac9eaeb	0.0015405094
3	0xbc4f09ab	-0.012636582
4	0x3d4ce1e2	0.050020106
5	0xbc8819ef	-0.016613929
6	0xbc738374	-0.014862884
7	0xbca3e679	-0.020007359
8	0x3c71fa04	0.014769081
9	0xbb8bd344	-0.004267128
10	0xbde39c26	-0.11113767
11	0xbd53309f	-0.05156004
12	0xbbb25c18	-0.0054431073
13	0xbccb6cd3	-0.024832165
14	0xbcec59f2	-0.028851483
15	0x3c26d904	0.0101835765
16	0x3cbaea2b	0.022816738
17	0xbc246d98	-0.010035895
18	0xbcb8248c	-0.022478364
19	0xbd6becf3	-0.05759902
20	0x3c2b6223	0.010460409
21	0x3dcb8809	0.09938056
22	0xbc9cc76c	-0.01913806
23	0xbdaf4e09	-0.08559806
24	0x3cd76d6d	0.026297295
25	0x3d13ca34	0.036081508
26	0x3cbe5a43	0.0232364
27	0x3d036464	0.03207816
28	0x3db1c065	0.086792745
29	0x3c5950a0	0.013263851
30	0xbc258c33	-0.010104227
31	0xbdcbf4cb	-0.099588
32	0x3d0151d8	0.031572193
33	0xbd8e81cd	-0.06958351
34	0x3b4537d2	0.0030093086
35	0x3cb4553e	0.022013303
36	0xbd95958b	-0.07303914
37	0xbb8061c3	-0.003917904
38	0xbd1fd6c8	-0.03902319
39	0x3d1d3f89	0.03839067
40	0xbd31d89c	-0.043419465
41	0xbb90731f	-0.0044082548
42	0x3c3cc92f	0.011522575
43	0x3daba52c	0.083811134
44	0xbd3e56c3	-0.04646946
45	0x3da6134a	0.08109148
46	0xbc8550b8	-0.016273841
47	0x3baac7dc	0.0052118134
48	0x3d00b7f9	0.03142545
49	0x3c87bb36	0.016568761
50	0x3ac5ffc3	0.001510613
51	0x3cc7fe3a	0.024413217
52	0x3b8ccddd	0.0042970018
53	0x3ceb073c	0.028689973
54	0x3d97a4d6	0.07404487
55	0x3d1c1ab5	0.038111407
56	0x3dd6be94	0.10485569
57	0x3e813d7c	0.2524222
58	0xbd852799	-0.06501693
59	0xbcd5d5ab	-0.026102861
60	0x3da38a58	0.07985371
61	0x3d6b8d25	0.057507653
62	0x3cda661f	0.026660023
63	0x3e0ed29a	0.13947526
64	0xbdf8ac72	-0.12142266
65	0x3e6373d9	0.22212161
66	0xbdec7e0d	-0.1154748
67	0xbc2f86da	-0.010713303
68	0xbe2e32d9	-0.17011584
69	0x3cd237ca	0.025661368
70	0xbd461f91	-0.048369948
71	0x3c6ad6d3	0.014333445
72	0xbc88abb4	-0.016683437
73	0xbcf39db2	-0.02973828
74	0xbdd43ac0	-0.10362768
75	0x3d918b9b	0.07106706
76	0xbd258a26	-0.04041495
77	0xbca28507	-0.019838823
78	0xbc11a298	-0.008888863
79	0x3a9d8495	0.0012017662
80	0xbd125306	-0.03572371
81	0x3d62322c	0.05522363
82	0xbcac661e	-0.021044787
83	0xbda718fb	-0.081590615
84	0x3c63984c	0.013891291
85	0x3df6bb70	0.120474696
86	0x39d68909	0.0004091936
87	0x3cd895de	0.02643865
88	0x3b147e05	0.0022658121
89	0xbdf0a137	-0.11749499
90	0xbc91904a	-0.017768998
91	0x3c1b7c35	0.0094900625
92	0xbd520e0c	-0.051282927
93	0x3d1a4dbb	0.037671786
94	0xbb9d90ff	-0.0048085446
95	0x3d24fefe	0.040282242
96	0xbdbf93c1	-0.09354354
97	0x3d3f150a	0.046650924
98	0xbd020775	-0.031745393
99	0x3d334f8c	0.043777034
100	0x3cb22ef1	0.021750899
101	0xbce0bd44	-0.027433999
102	0xbd899bba	-0.067191556
103	0xbc87142e	-0.016489115
104	0x3d87b6fb	0.06626698
105	0xbb978b6d	-0.004624775
106	0xbbe0cee6	-0.0068606017
107	0xbca527b1	-0.020160528
108	0x3d34788f	0.044060286
109	0xbe504f65	-0.20342787
110	0xbc80d1ec	-0.015725099
111	0x3bdb460a	0.006691699
112	0xbc75d734	-0.015004922
113	0x3d2b5335	0.0418274
114	0xbc96e60f	-0.018420247
115	0x3d4348d1	0.047676865
116	0xbbe535cf	-0.00699494
117	0xbb9d75d0	-0.004805304
118	0xbca4e1a4	-0.020127125
119	0xbcf9cb1a	-0.030492354
120	0xbc410e5f	-0.0117832115
121	0x3da4395a	0.080187514
122	0xbc9ae330	-0.01890716
123	0x3d3013d1	0.04298765
124	0xbe1bb6a5	-0.15206392
125	0xbbf6c00d	-0.0075302185
126	0xbc78ec5a	-0.015193069
127	0x3c95a3e3	0.018266624
128	0xbe040e10	-0.1289599
129	0xbcc53032	-0.024070833
130	0x3d95645a	0.07294531
131	0xbd11577e	-0.03548383
132	0xbd99c778	-0.07508749
133	0x3cfbf62c	0.030757032
134	0x3dd63756	0.10459773
135	0xbb05217f	-0.0020314155
136	0x3c3d12fa	0.011540169
137	0xbd17a639	-0.037023757
138	0x3d34e566	0.044164084
139	0x3d0a6aad	0.03379314
140	0xbd7fca30	-0.06244868
141	0x3c899827	0.016796185
142	0xbd14d3c5	-0.03633477
143	0x3accfe5d	0.0015639771
144	0xbd2b4c7c	-0.041820988
145	0xbc6d9dda	-0.014502967
146	0x3ca58155	0.020203272
147	0x3d18465c	0.037176475
148	0xbcb9fe16	-0.022704165
149	0x3daa8805	0.08326725
150	0x3cbe85e3	0.023257202
151	0x3d55ac75	0.05216642
152	0xb9a2398c	-0.00030941924
153	0xbda7ed96	-0.08199613
154	0xbc5c7918	-0.013456605
155	0xbbd1e72c	-0.0064057317
156	0x3dd2c187	0.10290819
157	0xbd4b39fd	-0.04961585
158	0x3b59ef33	0.0033254146
159	0x3b98cb53	0.00466291
160	0xbdf2f48c	-0.1186305
161	0x3cc68502	0.024233345
162	0xbc4fbc84	-0.012679223
163	0x3c8a77f4	0.016902901
164	0xbdac7cc2	-0.08422233
165	0x3d21330c	0.039355323
166	0x3bf48648	0.0074622966
167	0xbe56895b	-0.20950834
168	0x3ce177f3	0.027523017
169	0xbd85a57b	-0.065257035
170	0x3c0c4511	0.008561389
171	0x3c91d3de	0.017801221
172	0x3cabf602	0.02099133
173	0xbcbc380c	-0.022975944
174	0x3834e16e	4.3125292e-05
175	0xbaaa5a43	-0.0012996871
176	0xbdb83fed	-0.08996568
177	0xbcd7507c	-0.026283495
178	0xbb12a744	-0.002237753
179	0xbb384af8	-0.0028120857
180	0x3c409423	0.011754069
181	0xbd5bf45e	-0.053699844
182	0xbe1624d1	-0.14662482
183	0xbcbe2c5c	-0.023214512
184	0x3e3dabe0	0.18522596
185	0x3ce96675	0.028491238
186	0x3db9c79f	0.09071278
187	0x3c04a605	0.008096223
188	0xbe3d078a	-0.18459907
189	0xbd447940	-0.047967196
190	0x3cc6fc23	0.02429015
191	0x3cf2534a	0.029580731
192	0x3d4748c8	0.048653394
193	0xbd826aee	-0.063680515
194	0x3d227ee3	0.03967179
195	0x3d94d1fc	0.07266614
196	0x3e107f95	0.14111169
197	0xbd14c55a	-0.03632102
198	0x3d8cadc7	0.06869083
199	0x3cb297f6	0.021800976
200	0x3cbb6562	0.022875492
201	0x3d21a1bd	0.039460886
202	0xbe1d15fc	-0.15340418
203	0xbb24a403	-0.0025122173
204	0x3dedf0ab	0.116181694
205	0x3d9ffb01	0.07811547
206	0x3d3280d3	0.043579888
207	0x3d1120b2	0.03543157
208	0x3d9954fa	0.07486911
209	0xbcb553b6	-0.022134643
210	0x3debd31a	0.11514874
211	0xbced4479	-0.028963314
212	0x3c3cef6a	0.01153169
213	0x3dbaf190	0.09128106
214	0x3d08cf1b	0.033400636
215	0xbd5acba0	-0.05341685
216	0xbd24e6d2	-0.04025919
217	0xbb33fa6c	-0.0027462495
218	0xbdb9b97f	-0.09068584
219	0xbc410287	-0.011780388
220	0x3dcd7a97	0.10033148
221	0x3c50c393	0.012741941
222	0xbc94b580	-0.018152952
223	0xbd142f84	-0.036178127
224	0xbda2845b	-0.07935401
225	0x3ddf2f95	0.108977474
226	0x3d626e5b	0.055281024
227	0xbe196f6d	-0.14983912
228	0xbe4fd3ff	-0.20295714
229	0xbd0acaf4	-0.033884957
230	0x3c6c66c8	0.014428802
231	0x3ca8dd01	0.020613195
232	0x3d69a99b	0.057046514
233	0xbc8f498b	-0.017491123
234	0xbbbd2ddd	-0.0057732896
235	0xbcb17e4d	-0.02166667
236	0xbe4e1bdb	-0.20127814
237	0xbd2f5776	-0.04280802
238	0x3c8f810f	0.017517595
239	0x3d6db6b7	0.05803558
240	0x3da3d62a	0.07999833
241	0xbcf9cd90	-0.030493528
242	0xbcf3e380	-0.029771566
243	0x3dec2426	0.11530332
244	0xbd502de8	-0.05082503
245	0x3d89d9a5	0.067309655
246	0x3c761f3d	0.015022096
247	0x3e1b0ce2	0.15141633
248	0xbdc43e3f	-0.09582185
249	0xbc1063da	-0.008812869
250	0xbcbd4381	-0.023103477
251	0xbd52b7fb	-0.05144499
252	0xbe0fe423	-0.14051871
253	0xbd5f18ab	-0.054466885
254	0xbe82d948	-0.25556397
255	0x3b2433b9	0.0025055243

a2c_network.mu.bias f4 [7]
0	0x3d6ad421	0.05733121
1	0xbcc33bdf	-0.02383226
2	0xbe762d3f	-0.24040698
3	0xbd3373e2	-0.043811686
4	0xbdea92ec	-0.114538044
5	0x3e0d3cf4	0.13792783
6	0xbc6e959e	-0.014562039

exp_avg f4 [7]
0	0xb9ba025a	-0.00035478437
1	0x3aef9250	0.0018277857
2	0x3a631cf3	0.00086636766
3	0xb8f7aae4	-0.00011809709
4	0xba1f3d48	-0.00060745
5	0xb99c2502	-0.00029782212
6	0xb9405b9a	-0.00018344671

exp_avg_sq f4 [7]
0	0x3815d4ee	3.5722675e-05
1	0x3812c216	3.498987e-05
2	0x38183ea8	3.6297977e-05
3	0x381e0f24	3.7684236e-05
4	0x381f9263	3.8044887e-05
5	0x3814fa7e	3.551924e-05
6	0x3819d400	3.6675483e-05
