runs/FrankaCubeStack_31-15-47-05/nn/FrankaCubeStack.pth (torch, 577583 bytes, 36 tensors)

value_mean_std.running_mean f8 [1]
000000 58 37 22 5c b8 49 17 40
       5.821992339695349

value_mean_std.running_var f8 [1]
000000 b1 b4 48 c0 7f d6 fb 3f
       1.73986792670193

value_mean_std.count f8 []
000000 00 00 00 04 00 e8 95 41
       91881473.0

running_mean_std.running_mean f8 [19]
000000 7c 04 62 7f 9a 00 3c bf 63 85 a4 33 bf 9a 3d bf
       -0.000427282065523178 -0.000451728515729574
000010 2d d3 5a 9d 4b 84 7b bf 84 db 7a d8 94 7f ee 3f
       -0.006717963571351499 0.9530739048121721
000020 f9 e1 5b 87 66 80 7b 3f 40 93 fa ec da f5 69 bf
       0.006714249136841926 -0.0031689906971500703
000030 6b f6 44 23 29 cc f0 3f 25 36 32 ec 80 66 66 bf
       1.0498439195356706 -0.002734424402268914
000040 8a b5 ae ec 98 57 70 3f 3d 18 92 ad f3 8e 86 3f
       0.0039897893538357685 0.011014846548516139
000050 1b 25 cf 7d c7 95 62 bf bd 12 00 af cc c2 71 bf
       -0.0022686859433390777 -0.004336165948193024
000060 85 af 5b 57 f0 81 f1 3f af 63 83 1a 18 f3 d4 bf
       1.0942233478953949 -0.3273372897070272
000070 9e 4b d4 2a dd 2d b3 3f b5 02 7e a1 02 7d c5 bf
       0.07491857810627642 -0.16787751088488326
000080 a2 de 2c 47 22 ab 9a bf b7 d5 37 e8 1b c5 7a 3f
       -0.02604344901484857 0.006535634052388265
000090 23 64 a7 c3 a2 77 7a 3f
       0.00646174983781925

running_mean_std.running_var f8 [19]
000000 d1 a6 4f 10 9e 81 71 3f 38 31 da 02 79 f1 73 3f
       0.004274003445041878 0.004868958186886645
000010 3e f8 04 21 a5 eb b1 3f 09 4f 81 bd 05 24 89 3f
       0.07000190788400659 0.012275738569008892
000020 e7 6a fc 28 34 b1 9e 3f 6e 60 cb d7 93 5a 99 3f
       0.029972853662097256 0.024759588285491345
000030 57 09 1e ed 13 c9 43 3f 9b a6 71 c2 67 15 b3 3f
       0.0006038043304530766 0.07454536912123404
000040 a2 48 ee 23 77 c2 b1 3f 42 b5 b2 f9 c7 43 7f 3f
       0.06937355639664358 0.00763300052055388
000050 7b a4 59 08 fb e8 9a 3f 8b 1d a3 06 a3 69 97 3f
       0.026279375443128288 0.022863909988499336
000060 da 19 07 91 53 be 84 3f 5a 83 df 1b 49 83 e8 3f
       0.010128643859286624 0.7660260719677396
000070 06 5a 28 90 73 1e a6 3f 1c 1b 28 95 22 a3 a2 3f
       0.043201075885168236 0.036400871951675934
000080 24 dc 75 55 a2 ce 89 3f e5 08 f2 33 ae 51 22 3f
       0.012601154549640788 0.00013976336956395618
000090 87 e5 c8 e1 e4 2c 21 3f
       0.00013103765458470312

running_mean_std.count f8 []
000000 00 00 00 08 00 e8 85 41
       45940737.0

a2c_network.sigma f4 [7]
000000 90 cd b1 bf 04 fc b1 bf c9 fd 57 bf 9a 74 42 bf
       -1.3890858 -1.3905034 -0.8437162 -0.7595917
000010 7d b5 38 bf 61 27 0a bf 79 8b c5 bf
       -0.7215193 -0.5396634 -1.5433189

a2c_network.actor_mlp.0.weight f4 [256, 19]
000000 17 0a 04 3e 2e 47 05 be 44 c9 0d 3d b2 96 0b 3c
       0.12894474 -0.13015434 0.03461577 0.008519815
000010 fd 00 f4 3e 1d 16 a0 be 3b 32 c0 bd 6a 5b 70 bd
       0.47657004 -0.3126687 -0.09384581 -0.05868093
000020 eb df df bd 2b e7 61 3d eb d7 fd be 1c b5 54 3e
       -0.10931381 0.0551521 -0.49578795 0.20772213
000030 59 37 03 bf 27 0a c2 3d 15 38 bd bc 10 e9 06 be
       -0.5125633 0.09474593 -0.023098031 -0.13174844
000040 10 6d f0 3c 36 32 70 bd b9 fc 12 3d 15 16 da bc
       0.02934888 -0.058641635 0.035885546 -0.026621858
000050 9e 85 15 be 10 0a 5b bc 79 4f 17 bd 5b 7c 36 3e
       -0.14601752 -0.013369098 -0.036941025 0.17820875
000060 1e da 83 3e 80 54 2a 3e a8 fd 93 bd 22 b2 3b 3e
       0.25752348 0.16633797 -0.072261155 0.18329671
000070 c8 a4 19 be 06 6b 6d 3d 85 0e 45 be 72 14 7c be
       -0.15004265 0.057963394 -0.1924382 -0.24617174
000080 fd 84 24 be b9 42 96 bd 28 83 51 3e 8c ef 41 3d
       -0.16066356 -0.07336945 0.20460188 0.04734759
000090 5d 46 7c 3d 0f c3 40 3d 5c b5 bc bc 44 41 1b 3e
       0.06159054 0.047061022 -0.023035698 0.15161616
0000a0 a5 76 ff bd ad ff 3f bd 47 bd 91 bd 0c 9e 03 3e
       -0.124738015 -0.04687469 -0.0711618 0.12853259
0000b0 94 25 30 3d dc 31 d7 bc b0 22 a3 bc 3f 7f 55 3e
       0.043004587 -0.026268892 -0.019914001 0.20849322
0000c0 51 f7 7f bc b7 fb 38 be e9 9a 38 be 2d 64 09 3e
       -0.01562293 -0.18064772 -0.18027844 0.1341712
0000d0 fd e8 55 3d 31 7b 79 3e ec 8b 3a be b1 b2 7d bd
       0.052224148 0.243634 -0.18217438 -0.06193799
0000e0 23 ac 98 bd 5a 9c 61 be da 0e 0a 3e 79 c0 ce bb
       -0.074547075 -0.220323 0.13482228 -0.0063095656
0000f0 ad 10 65 3d 6f 49 aa be 31 ef 91 bd 5c 3a b1 3e
       0.055924106 -0.3325915 -0.071257 0.34614837
000100 e2 91 ce bd c7 87 0b 3c 68 9b 94 bd 0c 16 98 3e
       -0.10086419 0.008516259 -0.07256204 0.2970432
000110 b2 7c b2 bd 83 fa 98 be 0a 43 af 3d be ab 73 bc
       -0.0871519 -0.29878625 0.085577086 -0.0148724895
000120 c8 60 78 3c ed de 80 3e 1c 3e 0d 3e 99 8f 3c be
       0.015159793 0.2517008 0.13793224 -0.18414153
000130 91 b2 1b 3c 78 0a 03 3e 66 6d 7d bd 59 8e ec bc
       0.009503023 0.12796962 -0.06187191 -0.02887647
000140 1e 04 ae be 9e ca e1 bd 4c 19 c8 3d 74 da 0b be
       -0.33987516 -0.11024974 0.0977045 -0.13657552
000150 ee 5c 1f be ff f4 0c 3d 96 a5 ad 3d 0d 49 2b be
       -0.15562794 0.034413334 0.08478849 -0.16727085
000160 e3 b4 30 be fe d4 20 be 99 e3 ea bd b8 a6 49 3e
       -0.17256503 -0.1570625 -0.11469192 0.19692504
000170 2f 2d 31 3c 65 b5 b9 3d 90 41 59 be 22 91 e2 bd
       0.010813995 0.090678014 -0.21216416 -0.11062838
000180 e3 e3 52 bd c8 3b d8 3c c8 b2 55 be 44 6f 0b 3d
       -0.05148686 0.026395693 -0.20868981 0.034041658
000190 1b c7 93 bd b6 e3 2d be 0a fb 24 be 90 ca 73 bd
       -0.07215711 -0.16981396 -0.16111389 -0.05951935
0001a0 82 1f 7f be a9 6a 5e be f7 74 1d be 29 c2 ab bd
       -0.24914363 -0.21720375 -0.1537665 -0.083866425
0001b0 6e 6a 0e be 8a 4c 19 3e 80 44 a1 bc 82 f0 85 3e
       -0.13907787 0.14970604 -0.019685984 0.26160055
0001c0 54 d3 d5 3d 34 a2 36 be 12 c4 56 3e 09 ad 3c be
       0.10440698 -0.17835313 0.20973232 -0.18425383
0001d0 9d be 6a bd 42 ee f2 bd 4c f5 a9 bd b6 3d 17 bd
       -0.05731069 -0.1186185 -0.0829874 -0.036924087
0001e0 5b 37 05 bd 65 64 c7 3c b6 f3 bf bc 86 fa 79 3e
       -0.032523494 0.024339864 -0.02343164 0.24411973
0001f0 57 92 f1 bc 46 36 bd bd e0 31 a4 3d f1 f3 d1 bc
       -0.029488726 -0.092388675 0.080173254 -0.025629016
000200 bb 69 4e 3e 17 23 a4 3e d5 36 91 be 59 49 44 3e
       0.2015752 0.3205802 -0.28362146 0.19168605
000210 71 67 a2 3d 48 2d 25 be de a6 78 be fb 10 6c 3e
       0.07929886 -0.16130555 -0.24282405 0.23053353
000220 53 ff a9 be 69 81 66 3d c5 88 b9 3e 99 a8 9f bb
       -0.3320261 0.05627576 0.3623716 -0.0048723933
000230 05 6d 25 bd 1a 45 7a 3e cd c9 46 bc 85 a6 9c bd
       -0.040387172 0.24440423 -0.012133074 -0.076489486
000240 a9 1f c5 be 31 3f 1f 3e 48 b4 f1 bc 1d da a4 bd
       -0.38500717 0.1555145 -0.02950491 -0.08049414
000250 18 c6 16 3e 5b 81 91 3c 68 fb 05 be 56 98 de bd
       0.14724004 0.017761877 -0.13084185 -0.108688995
000260 ec 20 c1 3c aa 82 93 3d 4a 46 a5 bb 33 44 a7 bd
       0.023575269 0.072026566 -0.0050437795 -0.08167305
000270 3d 46 a3 be 8a ac f7 be fb 7a e1 3d 0a 6a f8 3d
       -0.31889525 -0.48373824 0.11009785 0.121296
000280 6c b0 47 be 49 39 3a 3c d9 3d da 3e 31 88 8f 3e
       -0.19500893 0.011366197 0.4262531 0.28033593
000290 5c be ec bd af 2b 0a bd a1 df 22 3d aa e0 2a bb
       -0.11559746 -0.033733066 0.03976405 -0.0026073852
0002a0 6e 15 8b bb 81 1b 8a bd da 57 7e 3d d3 c4 13 3e
       -0.004244498 -0.06743527 0.0620955 0.14430551
0002b0 e8 f5 7c be 1a ba 5b 3d 4a f7 87 3e d9 6d 2a 3d
       -0.24703181 0.053644277 0.26555854 0.041608665
0002c0 98 26 31 be d1 74 0d bd 49 4c 26 bd cd fa 0c 3d
       -0.17299879 -0.034535233 -0.040600095 0.03441887
0002d0 38 e8 14 3e 56 6e 6d be 69 b9 25 3e ba 58 a5 3e
       0.1454171 -0.23186621 0.1618401 0.32294255
0002e0 ca e4 b9 3b e2 80 a1 bd 48 85 ad bd 75 9f d5 bd
       0.0056730257 -0.078859106 -0.08472687 -0.10430805
0002f0 8a ba f5 bd 60 97 a9 3c 76 80 30 3e 8c 21 0a 3e
       -0.1199847 0.020702064 0.17236504 0.1348936
000300 a9 17 87 3c 49 93 29 be 30 ae 4b be 80 b4 1f 3d
       0.016490774 -0.16560091 -0.19890666 0.038990498
000310 3f b2 0b 3e 6f 1d a0 bd 84 91 16 be 04 d0 21 3d
       0.13642214 -0.07818114 -0.14703947 0.03950502
000320 fc f9 dc 3d 1d 11 32 be 04 2e 25 3e 93 fe cb bd
       0.10789868 -0.1738934 0.16130835 -0.099606656
000330 d7 6c 66 3d e1 26 23 be e8 b2 89 3e 3e f5 99 3d
       0.05625614 -0.159328 0.26894307 0.07517479
000340 a1 ca 9b 3c d5 72 46 3d b3 d0 6a be b2 ba b9 bd
       0.01901752 0.048449356 -0.22931175 -0.090688124
000350 f2 0f 97 3d e1 59 82 3e 12 83 b1 3e 2f 3c ef 3d
       0.07376088 0.25459197 0.3467031 0.11681401
000360 70 2d 40 3d 69 6e d5 3d 70 9c 90 be 59 af 99 be
       0.046918333 0.1042145 -0.28244352 -0.30016592
000370 34 75 9c be bb 74 b8 bd d6 4f c7 bd 35 b3 8a bd
       -0.3055817 -0.090066396 -0.09732024 -0.06772462
000380 75 04 ad bd a6 83 00 bd 55 40 88 bc a3 70 13 bd
       -0.08448116 -0.03137555 -0.016632238 -0.03599609
000390 dd bd 09 3e 83 b5 f4 bd d4 89 4d 3d ff d5 ad bd
       0.13451333 -0.11948683 0.05018027 -0.08488082
0003a0 0b 01 4f be 54 a5 b4 bd 9a 76 74 3c 9b 36 3c bc
       -0.20215242 -0.08820596 0.014920855 -0.011487628
0003b0 89 67 46 be 82 ca a2 3d 4a d0 44 be f5 e6 7d 3e
       -0.19375433 0.079487815 -0.19220081 0.24795134
0003c0 11 6c 21 3e d3 11 91 3e a1 a9 fe bd d4 90 a0 3e
       0.1576388 0.2833391 -0.12434698 0.31360495
0003d0 2f e7 44 bd 2c 71 c2 3d 2a b3 63 3e 3b d8 15 3d
       -0.048072036 0.09494242 0.22236314 0.036583167
0003e0 b9 97 81 3d 50 55 be bc fc 05 74 be 60 66 37 3e
       0.06327767 -0.02323404 -0.23830408 0.17910147
0003f0 68 eb ec be 8c c4 7a 3d 93 89 c6 3d bb 20 9c 3d
       -0.4627335 0.061222598 0.09694209 0.0762343

a2c_network.actor_mlp.0.bias f4 [256]
000000 af c7 4f be 16 a8 11 3e 10 76 9c bd 41 00 3f be
       -0.20291017 0.14224276 -0.07639706 -0.1865244
000010 0a 28 7e 3d 60 b7 b3 3d 18 57 72 be ea bf 90 3e
       0.062049903 0.087752104 -0.23666036 0.2827142
000020 44 f8 c1 3c c4 36 32 3e 61 71 ac 3d 29 1d a7 3c
       0.023677953 0.17403704 0.08420063 0.020399647
000030 4b c6 86 3c a2 37 06 bd 43 5b 16 be 56 ed 37 bd
       0.016451975 -0.0327679 -0.14683251 -0.044904076
000040 f8 7d 0a 3d 60 78 51 3e 02 26 a0 3e 93 eb 51 be
       0.03381154 0.20456076 0.31278998 -0.2050002
000050 59 e7 28 3d ae 67 8e bd e9 fd ac bd 8d 29 64 bd
       0.041236255 -0.06953369 -0.08446867 -0.05570369
000060 92 b9 74 bd 27 2a 89 3e e0 2c da 3c 17 83 41 be
       -0.059747286 0.26789972 0.026632726 -0.18897663
000070 77 1a c8 3c 7b 81 4a bd 70 81 ba 3d d0 e7 bd 3d
       0.024426682 -0.04943989 0.091067195 0.0927273
000080 bd 14 80 bd 4a e8 d7 3d 0a 30 21 3c 41 00 20 be
       -0.062539555 0.105423525 0.009838114 -0.15625097
000090 51 f3 27 bd ae 8e 35 be 8f c9 22 3e bd 5d b7 3d
       -0.04100353 -0.17730209 0.15897201 0.08953426
0000a0 da 91 6c 3e 44 15 b1 bd 8c c2 4e 3e 76 ce 2d 3e
       0.23102513 -0.08646634 0.20191401 0.1697329
0000b0 39 40 16 3d 84 b6 ce 3d 04 17 91 bc 76 0e 9f bd
       0.03668234 0.10093406 -0.01771117 -0.0776643
0000c0 e6 db ea 3d fc dc b3 3d 0c 04 c7 3b f8 3b 2b 3e
       0.114677235 0.08782384 0.0060734805 0.16722095
0000d0 9d 61 65 bc c2 06 80 3e ae 73 da 3d 53 20 16 3e
       -0.014000324 0.25005156 0.106665954 0.14660768
0000e0 e2 53 3b be 01 86 2d be 87 fe 18 3e 55 00 ca bd
       -0.18293718 -0.1694565 0.14940844 -0.098633446
0000f0 b3 da 2e be 09 39 49 3e d0 09 cb bd 5c 6d 31 be
       -0.17075615 0.19650663 -0.09913981 -0.17326874
000100 4f 23 b3 3c f2 87 2b bd df ae f7 3c 54 73 0c b9
       0.021867422 -0.041877694 0.030234752 -0.00013394404
000110 57 73 bb 3d 94 5e ff bd 9f 63 44 bd 58 3b 01 be
       0.09152859 -0.12469211 -0.04794657 -0.12620294
000120 ad 58 12 3e 6e 8e 0f bc b6 13 71 3d b2 9f c9 3d
       0.1429164 -0.008761985 0.05885669 0.098449126
000130 e9 ac 48 39 b8 d1 0a 3d 59 7a 4a be 64 54 dd bc
       0.000191379 0.03389141 -0.19773234 -0.02701778
000140 13 3f b2 3e 5a e7 dc 3c e5 2e 1a be 0f 99 b1 be
       0.34813747 0.026965786 -0.15056951 -0.34687087
000150 78 7c 94 bc f0 03 0c 3d a0 43 01 be 18 1d 88 3e
       -0.018125758 0.034183443 -0.12623453 0.26584697
000160 7b 00 82 bd 90 88 cc 3d b8 2a 7a bd 16 d5 d3 3d
       -0.06347748 0.09986985 -0.061075896 0.10343377
000170 e9 33 15 3d 5b 72 53 3e be 16 55 3e 95 6c 82 3e
       0.03642646 0.20649092 0.20809457 0.25473467
000180 eb 5c ba 3b b7 4a 8b 3d 0d ce e7 3d 03 3d e0 bd
       0.005687346 0.0680136 0.11318598 -0.10949137
000190 67 4b 0d 3e de ae 83 3e 8b 06 49 3e 6b af f3 3d
       0.13798295 0.2571935 0.19631402 0.11898693
0001a0 1f bf 3f 3d 08 52 15 3c 65 4b c2 ba 77 1d 8d 3e
       0.046813127 0.009113796 -0.0014823495 0.27561542
0001b0 e4 fd 1e 3e 4c 9e 2c 3d 40 0a a9 bd 56 ec 7c bc
       0.15526539 0.04214315 -0.08253908 -0.015437206
0001c0 c4 75 0d 3c 80 41 4b 3e a6 75 02 be 64 d3 e1 3c
       0.008634035 0.19849205 -0.12740192 0.02756662
0001d0 1e c5 23 3e 78 30 1b be be 33 a9 3d da b9 87 3e
       0.15993163 -0.15155208 0.08261822 0.2650898
0001e0 81 87 59 bd 5d d6 31 3d fc de 00 3d a9 be 0a be
       -0.053107742 0.043417323 0.031462654 -0.13549294
0001f0 bb 5d 86 3e 9f 47 84 3d e8 d3 9d bb 65 2e b7 bc
       0.26243386 0.06458973 -0.004816521 -0.02236099
000200 72 40 04 be 49 39 dc bd ac 5d 8b ba a1 a1 93 3d
       -0.12915209 -0.10753114 -0.0010632775 0.07208563
000210 ad 1b 81 3d 45 b9 3d bb a8 d0 8d 3d 5d 93 0b 3e
       0.06304107 -0.002894954 0.06924564 0.13630433
000220 7f 2c 1f 3e 04 f4 d8 bd 34 66 d4 3d 16 cd 35 3d
       0.15544318 -0.10593417 0.10371056 0.04438504
000230 f1 e4 4f 3d 09 25 c4 be eb c1 98 3d 6f fd 1b be
       0.050755445 -0.38309506 0.07458862 -0.15233396
000240 0f a2 e0 bd 5c bd ab 3c f1 eb 81 3d ad 22 21 3e
       -0.1096841 0.020964317 0.063438304 0.15735884
000250 e8 31 b4 bd 81 bb fd bd 38 66 30 bd df 59 a9 3d
       -0.08798581 -0.12389279 -0.043066233 0.08269095
000260 9d 49 84 3e 64 d3 4d bd cb 48 e3 bd 9e a2 2b be
       0.25837412 -0.050250426 -0.110978685 -0.16761252
000270 f5 ad 99 3d 3c d9 32 3e 20 d7 41 3e dd 29 12 be
       0.07503883 0.17465681 0.1892972 -0.14273782
000280 46 6d 3b 3e 3e d4 5d be 35 c9 30 3e 63 5e 2e be
       0.18303403 -0.21662995 0.17264254 -0.17028193
000290 61 a1 46 bc c4 17 87 bd 57 48 05 3d b5 8b 20 3d
       -0.012123437 -0.0659633 0.03253969 0.039195735
0002a0 d8 25 3c 3d fe d7 4e 3c cd 03 00 3e ec 46 0f be
       0.045934528 0.012624739 0.1250145 -0.13991898
0002b0 7c 98 6b bd 1c 19 a6 bd 36 95 45 bd 54 18 97 3d
       -0.057518467 -0.08110258 -0.048238 0.07377687
0002c0 08 46 3b bd 6d 3f 66 3e c7 2a 56 bd 51 d0 42 3e
       -0.045721084 0.22485133 -0.05228689 0.19024779
0002d0 28 4d 6b 3b 56 19 1e 3e 21 07 cd bd 70 1c 58 bd
       0.0035904143 0.15439352 -0.10011125 -0.052761495
0002e0 e2 96 5a 3e b2 13 75 3e ff 25 15 3e 4e e8 cd 3b
       0.2134662 0.23933294 0.14565276 0.0062837964
0002f0 b6 64 72 3e 03 4c 32 3d a8 ac 40 3d 65 a1 62 3d
       0.2367123 0.04352952 0.047039658 0.0553297
000300 32 52 d3 bd 17 90 be 3d 8a 9a 8b 3b ad 35 4f 3e
       -0.10318412 0.09304827 0.004260366 0.2023532
000310 47 ea d1 bd ff 46 14 3d 86 a7 96 3d d0 69 15 be
       -0.10249763 0.03620052 0.07356171 -0.14591146
000320 00 07 b0 bd cc 57 67 bd 82 5b 44 3e 1e 2c 00 be
       -0.08595085 -0.056480214 0.19175532 -0.1251683
000330 b6 0f 0f 3d 90 9e b4 3c ed 76 15 be 12 a8 76 3d
       0.034927092 0.022048265 -0.14596148 0.060218878
000340 40 69 d4 3d 3c 3f 3c 3e 1c 30 61 3d 04 f7 6f 3d
       0.10371637 0.18383497 0.05497752 0.05858518
000350 b2 47 88 bd 57 e0 12 3e 0a 55 b4 3d 61 db f1 3d
       -0.066543 0.14343391 0.088052824 0.11809421
000360 da 55 7a 3e aa d5 d8 3d cf b0 18 3e a8 58 37 3d
       0.24446812 0.10587628 0.14911197 0.044762284
000370 20 cd 82 3d 13 eb df 3d 54 0c 3e 3d 5c 31 9b 3d
       0.06386781 0.10933509 0.046398476 0.07577774
000380 f3 6d 8c 3e 42 1b 1a 3d b3 e5 ef bc 60 b7 75 3d
       0.27427635 0.03762365 -0.029284334 0.059989333
000390 41 d5 19 be 77 c4 1f bd e2 dc 84 3d 8e a7 07 3e
       -0.15022756 -0.039005723 0.064874426 0.13247511
0003a0 fc 29 c0 bd 06 80 06 bd 87 94 02 3e 84 96 7f 3d
       -0.09383008 -0.032836936 0.12751971 0.062399402
0003b0 54 8d 30 3e 33 36 f4 bd f9 88 ce bd b1 3e d7 3d
       0.17241412 -0.119244 -0.10084719 0.10510004
0003c0 d1 ce f3 bd 81 25 53 bc 8d ac 8e bd 9f 43 05 bc
       -0.119046815 -0.01288736 -0.06966505 -0.008133798
0003d0 4c 8e 15 3e ae 2d a8 3a 41 d4 00 3e 8d c1 b6 3d
       0.14605063 0.0012830996 0.12580968 0.08923636
0003e0 0b a8 04 3d 9e 5f be bc 07 5f b2 3d de 5f e1 3c
       0.03238682 -0.023238953 0.08709531 0.027511533
0003f0 43 5d 15 bb eb 59 18 3e 9b ef 12 3e 76 87 fa b9
       -0.0022791184 0.14878051 0.14349215 -0.00047784642

a2c_network.actor_mlp.2.weight f4 [128, 256]
000000 45 0b 97 3d b6 74 5c bb cb 32 c1 bd c9 f6 d7 3d
       0.07375196 -0.00336389 -0.09433516 0.105451174
000010 3e ee 31 3d 9e 79 22 bd e9 33 94 3c 8e 96 72 bd
       0.043440096 -0.039666764 0.018091159 -0.05922561
000020 f4 d5 82 bd 4d 86 54 3d 40 3c 2b 3d c8 08 e0 3d
       -0.063884646 0.05188589 0.041805506 0.10939175
000030 a2 fc 12 3d 29 4d e0 bb 09 3f f9 bc 20 5d 07 bc
       0.03588546 -0.0068451357 -0.030425565 -0.008261949
000040 1b 5b b0 3d 4e 81 0d be 69 b2 37 be 4e 72 78 3d
       0.08611127 -0.13818857 -0.17939152 0.060655884
000050 6a d5 b1 bd 2c 50 41 3d 9e 70 90 bc 55 00 43 3d
       -0.086832836 0.0471956 -0.017631825 0.04760774
000060 23 1a c0 bc 9d f3 39 be 4c 50 2e bd 83 bc d5 3c
       -0.023449963 -0.18159337 -0.042557046 0.026090866
000070 57 82 d6 bd 95 6a 04 3d cb e7 a7 bd 9e 06 03 3e
       -0.10474079 0.032328207 -0.08198508 0.12795493
000080 2b d4 eb 3d 73 3e 32 bd c5 2a b7 bd 2a 81 c3 bb
       0.11515077 -0.043516587 -0.089437045 -0.0059663253
000090 04 f0 d3 3c 73 31 07 3e c7 3c 0c bd f3 1c f9 bc
       0.025871284 0.13202457 -0.03423765 -0.030409312
0000a0 d1 cc 39 be 38 de 4f 3c b0 46 1b be fc f3 b8 bc
       -0.18144538 0.012687258 -0.15163684 -0.022577278
0000b0 34 5e 69 bc 92 66 8a bd bb 75 af bd 44 6b 88 3c
       -0.014243651 -0.06757845 -0.08567377 0.01665271
0000c0 4f 07 10 3d 18 8e 4c bd b9 db 51 bd 40 66 82 bd
       0.03516322 -0.0499402 -0.051234934 -0.06367159
0000d0 4c 79 03 bd a4 0f de bd 1c be 60 3d a4 0a 97 bd
       -0.0320981 -0.10842827 0.054868802 -0.073750764
0000e0 9a 31 06 bb 26 65 d0 3d 9a df 5f bd 73 6b 78 3d
       -0.0020476342 0.101755425 -0.054656602 0.060649347
0000f0 0b 93 01 3e 31 35 3c be 48 d6 d6 3d e5 58 85 3d
       0.12653749 -0.18379666 0.1049009 0.06511096
000100 5b 73 60 bd eb 90 ac bb d4 98 0a 3d e2 10 88 bd
       -0.05479751 -0.005266299 0.033837155 -0.06643845
000110 0d 32 8f bd 1f 58 71 3d 1a 53 19 bd 9f 7a 05 bd
       -0.06991968 0.05892193 -0.037432767 -0.032587644
000120 ed ac 97 bd 6c b8 fe 3d 8e 65 a1 bd 5a ec 54 bc
       -0.0740603 0.124375194 -0.07880698 -0.012995804
000130 d0 ac d0 3d 22 e7 f3 3d b0 eb e8 bc 3e a1 e8 bd
       0.10189211 0.119093195 -0.028432697 -0.113588795
000140 61 08 b1 bd cd 3f 13 bb 58 cd 66 bd fe 24 3e 3e
       -0.08644176 -0.0022468448 -0.056348175 0.18568799
000150 83 7b c4 bd 89 9e ae bd c2 bb 0a 3d de c7 b3 bd
       -0.095938705 -0.08526332 0.033870466 -0.08778356
000160 59 bd 0d bb 09 59 39 3c 35 ff 66 3c 4e 03 61 bd
       -0.0021627753 0.011312732 0.014098932 -0.054934792
000170 d8 e5 73 3c 06 45 d1 bd f0 5a 20 be df 6f f6 bd
       0.014886342 -0.10218243 -0.1565969 -0.120330565
000180 e1 7a 94 3c 4a ea 4c bd e8 b9 36 bd 7d f8 89 3d
       0.018125 -0.050028123 -0.044610888 0.067368485
000190 e5 61 21 be 97 45 8a bd f5 0e 0d be 39 8f f5 3a
       -0.1576 -0.067515545 -0.13775237 0.00187347
0001a0 22 38 df bc 66 05 49 bd 3c 90 48 3c d9 38 54 bb
       -0.027248446 -0.049077414 0.012241419 -0.0032382517
0001b0 c6 2a f4 bc 8d 94 b9 bc 68 49 d9 3d a8 e0 8b 3d
       -0.029805552 -0.022653842 0.10609704 0.06829959
0001c0 07 18 f5 bc 38 a3 c2 bd 7b 5f 9f 3d c9 99 8f 3d
       -0.029918684 -0.09503788 0.07781883 0.07011754
0001d0 a3 4d d9 bd b1 9e 6c 3d 69 9e 07 be f6 ae 3d be
       -0.10610511 0.057768527 -0.13244022 -0.18523774
0001e0 40 f8 fe bd b9 55 c0 3d 29 a7 2b be ec 2c bf bd
       -0.12449694 0.0939135 -0.16762985 -0.0933474
0001f0 a7 2c 81 be 9c 4f a4 bd 83 f8 f6 bc 02 00 88 3d
       -0.2522938 -0.08022997 -0.030147796 0.066406265
000200 1f dd 8a 3d 65 8e af 3d 27 ef 6d bd 57 bb ba 3a
       0.06780457 0.085720815 -0.0580894 0.0014246505
000210 07 c1 3a bc 93 02 9c 3c 24 f3 ac bb eb 6a 6b bd
       -0.01139856 0.019044196 -0.005278008 -0.05747501
000220 7b 56 49 bd e6 26 9b 3b 62 14 ae bd 2b 57 3d 3c
       -0.04915474 0.0047348617 -0.084999815 0.011556427
000230 6e e8 45 3d 63 a1 dc 3d b0 65 4c 3c f6 e7 fe 3d
       0.048317365 0.107729696 0.012475416 0.12446587
000240 34 9c 02 3e 94 88 38 be fe 0a 12 bd 26 af 4d bd
       0.127549 -0.1802085 -0.035655014 -0.050215863
000250 66 c2 c1 3d b9 38 b1 3b 7a 29 47 3d df 25 35 be
       0.09460907 0.005408373 0.04862354 -0.17690228
000260 c7 b0 07 be 32 ed e9 3c aa 04 28 3c 6c 8e 6b 3d
       -0.13251029 0.028555486 0.010255018 0.05750887
000270 51 03 d3 bc 58 5c 3d 3d 60 d1 ea bc 26 76 e1 bb
       -0.025758417 0.046230644 -0.02866429 -0.0068805395
000280 d9 85 a9 bd c1 86 91 3b 73 18 1e be 54 cd 44 3d
       -0.082774825 0.0044411127 -0.15439014 0.04804738
000290 ff 88 1b be 01 d9 81 3d 29 6b 7f bb 61 b0 7c bd
       -0.15188979 0.06340218 -0.0038973785 -0.061691646
0002a0 4c 9c c0 3c 3c 2f 21 3d d3 e5 62 3b 40 59 15 bc
       0.023512028 0.039351687 0.003462185 -0.009115517
0002b0 33 42 d0 3c 7b 67 af 3b ed 6c d5 bb 5b 68 24 3d
       0.025422191 0.005352912 -0.006513229 0.040138584
0002c0 e3 39 ca 3d 26 07 f2 bd 4f 16 00 be 1f ce 9c bd
       0.09874322 -0.1181777 -0.1250851 -0.07656502
0002d0 de ea cb 3d 56 86 88 3d 9b c1 b2 bd ac d3 5a 3c
       0.09956907 0.066662475 -0.087283336 0.013356131
0002e0 bc 42 0d bc d3 9a 0a be 48 aa 7d bd 2d 5a ab 3c
       -0.008621868 -0.13535623 -0.06192997 0.020917023
0002f0 2b c2 56 bd 15 14 9b 3d 5c 62 c8 bd 91 0c 77 3a
       -0.052431267 0.0757219 -0.097843856 0.0009424175
000300 75 91 93 bb 94 55 51 3d 2b 02 32 bd 44 37 a8 3d
       -0.004503424 0.051107004 -0.0434591 0.08213666
000310 60 d9 61 3d 89 52 52 bd fe bb a4 bb 49 26 81 bc
       0.055138946 -0.051348243 -0.005027293 -0.015765326
000320 7f 66 dd bc ff 22 61 bd 95 e9 a1 bc ce 74 dc bc
       -0.027026413 -0.054965016 -0.0197647 -0.026911166
000330 f7 28 60 bc 25 6f 96 bd d7 55 1b 3e bd 2d 20 3d
       -0.013681642 -0.07345418 0.15169464 0.03910612
000340 5d e1 c0 3c fe 8d ec 3c 10 0b 96 3d ed 56 23 bd
       0.023544962 0.0288763 0.07326329 -0.03987782
000350 2f 72 97 bc 28 95 b9 bd 44 16 8d bc 4f 2d d2 38
       -0.018487064 -0.090616524 -0.017222531 0.0001002202
000360 49 92 06 be 20 4b 0c 3d 10 d9 fd bd 0b df 6b bd
       -0.13141741 0.034251332 -0.12394917 -0.057585757
000370 1e cd 08 bd c2 23 8b bd 33 85 be bc a4 99 42 bc
       -0.03339874 -0.0679393 -0.023256874 -0.011877451
000380 41 04 f6 bd 65 e9 81 3d b8 15 31 3d 61 7d 0e be
       -0.1201253 0.063433446 0.043233603 -0.13915016
000390 3b 41 fb 3d 9d 5b f9 bc ba 0c af bc 03 f5 41 3d
       0.12268301 -0.030439192 -0.021368373 0.047352802
0003a0 2a 32 a1 bb 0c 43 c4 3d ed a6 0c bd 6a 69 f8 3c
       -0.00491931 0.09583101 -0.03433888 0.030323703
0003b0 11 c8 2a be a8 4a ad bb 3d e1 02 3d a2 71 2d be
       -0.16677882 -0.0052884407 0.031953085 -0.16937879
0003c0 c0 97 05 3d b0 65 64 3d e8 48 0d 3d 90 d4 d4 3d
       0.032615423 0.05576104 0.034493357 0.103921056
0003d0 6e a2 89 bb 41 b0 23 bb 33 f6 d1 3a 86 5a ca bc
       -0.0042002713 -0.0024976882 0.0016018808 -0.024701368
0003e0 50 65 6f 3d 5f 33 91 3b da cf 37 bd ca 80 13 3e
       0.05844623 0.0044311727 -0.044875957 0.14404598
0003f0 ee af 7d 3d a0 73 93 bd dd c3 fd bd 00 3a bb 3d
       0.061935358 -0.07199788 -0.123908736 0.09141922

a2c_network.actor_mlp.2.bias f4 [128]
000000 31 45 87 bd 7d 6b 8c be b9 65 a5 bd db f2 42 be
       -0.06604994 -0.27425757 -0.08076043 -0.19037955
000010 f6 ba a3 be 5d d7 6d be be 35 97 bd 4e c3 ca bd
       -0.31978577 -0.23226686 -0.073832974 -0.09900533
000020 d5 06 14 be 11 5a e5 bd 63 83 a5 bc ee e3 75 be
       -0.14455731 -0.111988194 -0.020204252 -0.2401273
000030 e2 94 36 bd a7 d6 02 be c7 03 82 be 56 04 0c 3e
       -0.04457558 -0.12777196 -0.25393507 0.13673529
000040 57 d9 1b 3d 68 6d 07 3c 67 6b ad 3d b0 ea 3e be
       0.03804907 0.008265831 0.08467751 -0.18644214
000050 fb 82 4b be 51 bf 40 bc aa 9c f5 3d d4 d7 05 be
       -0.19874184 -0.011764363 0.11992772 -0.13070613
000060 f0 00 ed 39 a0 3b 0e be 1c 7f a1 bd e1 5c 2d bc
       0.0004520486 -0.13889933 -0.07885572 -0.010581226
000070 2b 6e b1 bd e8 36 be bc b8 a7 c5 3d c4 75 65 be
       -0.08663591 -0.02321954 0.096511304 -0.22408205
000080 c6 71 52 be 51 18 a4 3d 76 75 46 be cc c5 3f bc
       -0.20551214 0.080124505 -0.19380745 -0.011704873
000090 eb b5 32 3e 7e 67 2d be c9 20 22 3e 91 e3 b6 3c
       0.17452209 -0.1693401 0.15832819 0.022325309
0000a0 fb 95 09 3d 8b 3b 0d 3e 8b 49 1a 3e 5a 28 f9 bd
       0.0335903 0.13792245 0.15067117 -0.121658996
0000b0 b2 1e 3d be 70 18 9b be 50 33 a6 bd 5f 9d d2 3d
       -0.1846874 -0.30292082 -0.08115256 0.102839224
0000c0 c3 02 3b bd b1 07 e6 bb b8 3f 31 3d f4 33 b5 bd
       -0.04565693 -0.00701996 0.043273658 -0.088478
0000d0 13 e8 b3 bd 5c d9 a0 bd 70 67 8e 3c 5f 8b 64 bc
       -0.08784499 -0.07853958 0.017383307 -0.013949244
0000e0 49 1e f1 3c f9 56 81 3e 19 24 f1 bd 3c 25 8e be
       0.029433386 0.25261667 -0.11774463 -0.27762783
0000f0 ad 64 02 be c1 39 ab bd 70 54 06 3e 0d 88 ab bd
       -0.12733717 -0.08360625 0.13118148 -0.08375559
000100 6d 5b 82 3d 8a d6 a5 bd 61 eb 8c bd 17 90 e9 bd
       0.06365094 -0.08097561 -0.068808325 -0.11404436
000110 b0 e7 42 3e dd ca aa be 70 50 89 bd c0 36 30 be
       0.19033694 -0.33357897 -0.06704795 -0.17208385
000120 10 04 71 be 15 6c 5d 3d 09 cc cb 3c 8f e5 5b 3d
       -0.23536706 0.054058153 0.024877565 0.05368572
000130 39 2c 44 3c d9 c7 02 be a0 e2 fb 3d 9d 63 29 be
       0.011973434 -0.12771548 0.12299085 -0.16541906
000140 03 68 7d be a5 9f 4f 3c 30 96 1c bd 63 71 45 be
       -0.24746709 0.01267234 -0.038229167 -0.19281535
000150 13 10 ac bd 66 76 12 be 0b 35 12 3d 0f b4 ee bd
       -0.084015034 -0.14302978 0.035695117 -0.11655437
000160 d4 f4 9e bd 32 73 c6 bc cb 8e 92 3d 03 96 a2 3b
       -0.07761541 -0.024224851 0.07156142 0.0049617304
000170 11 29 8d be df 84 93 3b 9b f1 38 3d b7 4a fa 3d
       -0.27570394 0.0045019235 0.045152288 0.12221282
000180 b2 54 8a be ff 65 01 be 55 13 d9 bd 82 ec 67 3c
       -0.27017742 -0.12636565 -0.105993904 0.014155509
000190 ad b3 e6 3d dd 7c 71 bd 98 d3 8e bd 6c 33 e7 bd
       0.11264739 -0.05895697 -0.06973952 -0.11289105
0001a0 f7 73 0c be 94 35 1e be e1 6e b9 bd 4f 6f 99 be
       -0.13716112 -0.15450126 -0.090543516 -0.29967734
0001b0 e1 93 89 be 6b b0 1f 3d 78 ea 82 3d 6a 04 7e be
       -0.26870635 0.038986605 0.063923776 -0.24806371
0001c0 a2 80 21 bd fe 75 50 be c0 e9 b7 bd 32 46 8a 3d
       -0.039429314 -0.2035751 -0.08980131 0.0675167
0001d0 0e c0 60 be 71 1e 0e bd 98 57 0c 3e 9f 45 cd be
       -0.21948263 -0.034697 0.1370529 -0.4009218
0001e0 c1 e8 26 be f5 ac 6a 3d 5b bc 89 bd e4 4b 0f 3e
       -0.16299726 0.05729385 -0.06725379 0.13993794
0001f0 b5 08 2b be 79 48 a5 be fc 32 29 be b0 79 b9 3b
       -0.1670254 -0.32281855 -0.16523355 0.0056602582

a2c_network.actor_mlp.4.weight f4 [64, 128]
000000 92 55 74 3c b7 91 cc bc 0c 76 c4 3d 5b e9 c8 bd
       0.01491298 -0.024971826 0.09592828 -0.09810134
000010 7c ed e3 3d 78 b7 11 bd ec 69 5f be 36 18 55 3d
       0.11129281 -0.03557536 -0.2181775 0.052025042
000020 f3 f3 f4 3c 80 90 b3 3d af 80 04 3d 98 10 8a be
       0.02990148 0.087677956 0.032349285 -0.26965785
000030 44 74 c4 3d a0 e6 31 3d 8d b8 3a 3c 30 98 0d be
       0.095924884 0.04343283 0.011396539 -0.13827586
000040 19 68 9b 3d 94 17 83 bd 74 08 14 be a5 cb 96 3d
       0.075882144 -0.064009815 -0.1445635 0.07363061
000050 ee 7a b2 3b c7 48 6a bd 5f a3 40 bd a0 1b 45 be
       0.0054467833 -0.057198312 -0.047030803 -0.1924882
000060 ff d4 b0 3d e1 44 3b 3d 41 4e a6 3d 7c e7 c4 bc
       0.08634376 0.045719985 0.081203945 -0.024036162
000070 02 12 cf bd 25 07 08 3d 49 db a5 3d 38 fa 95 bc
       -0.101108566 0.03320994 0.08098466 -0.01830779
000080 54 d6 3b be 46 62 85 bc 9f 62 79 bd c0 97 bb 3c
       -0.18343478 -0.016282212 -0.060885068 0.022899508
000090 d7 cf 78 bd 78 d2 fb bd e3 2f 3f 3c 01 78 97 3d
       -0.060745087 -0.12296003 0.011669132 0.07395936
0000a0 53 9e cf 3d 01 5a a4 3a 6a 43 2f bd 59 cf e3 3c
       0.1013762 0.001253903 -0.0427889 0.027808832
0000b0 c3 df f0 3d 94 24 68 be 52 38 b8 be c0 03 5f 3d
       0.11761429 -0.22670203 -0.3598047 0.054446936
0000c0 8d 7c 54 bd 23 21 bb bd af 92 f2 3a 2c 6a a3 3d
       -0.051876593 -0.0913718 0.001850685 0.07979235
0000d0 2e 62 76 3d 1f a1 a8 ba 12 45 d4 3c 64 cb 34 be
       0.060152225 -0.0012865401 0.025911842 -0.17655712
0000e0 e4 29 c0 bd d1 c2 95 bd 82 a8 4c bc dc ae 40 bd
       -0.0938299 -0.07312549 -0.012491347 -0.04704176
0000f0 10 c3 96 bc 92 73 a1 3d 27 cd 32 bd 6c 72 46 be
       -0.01840356 0.078833714 -0.04365268 -0.19379586
000100 a9 7f d4 3c bd c4 d8 bc 4b 36 19 3d 97 46 06 3d
       0.02593978 -0.026461 0.037405293 0.032782163
000110 6e 4b af bd 3a ec a9 bd 8e cc 01 bd 46 e3 f6 bd
       -0.08559309 -0.0829701 -0.03168922 -0.12055068
000120 da ed 8b bd c6 88 12 3d ea 9b 0e be 1b f0 1c 3d
       -0.06832476 0.03577497 -0.13926664 0.03831492
000130 87 48 84 bd 2f 53 3c bb 81 fc 80 bd 35 58 5d bc
       -0.06459146 -0.0028736105 -0.06298161 -0.0135098
000140 13 7d b8 3d 2f 9c 30 3b d7 e4 28 3d bb d3 1a bd
       0.09008231 0.0026948561 0.041233864 -0.03779958
000150 f5 6e 9b bb cb b3 18 3d e6 30 ad bc e4 4f f7 3c
       -0.0047434517 0.03728084 -0.02114148 0.030189462
000160 bb 3d 99 bd 4a 30 f9 3c fe 0b 84 bd eb 93 67 3d
       -0.07482477 0.030418534 -0.064476 0.05653755
000170 d6 6d a1 bd 47 88 24 bd be 27 a5 bd 49 85 19 bd
       -0.07882278 -0.040169027 -0.08064221 -0.037480626
000180 77 0c 38 3d c6 e2 cc be 54 a1 24 bc d8 a5 33 bd
       0.044933762 -0.40016764 -0.010048229 -0.043859333
000190 ae ea 46 bd b5 e8 07 be 78 e9 43 bd 21 17 10 be
       -0.04856365 -0.13272364 -0.047830075 -0.14071323
0001a0 2d cc 02 be 11 76 c7 3d 20 a2 93 3c 14 39 a8 bd
       -0.127732 0.09739316 0.018021643 -0.08214012
0001b0 b6 e4 0f 3d 57 85 9c bd 5a c1 99 3d a0 5c 95 3c
       0.035130225 -0.0764262 0.07507582 0.018232644
0001c0 79 81 05 3d 4b be ec 3d d8 77 1a 3c e3 5f 69 3c
       0.032594178 0.11559733 0.009427987 0.014244053
0001d0 7c 9b cc 3c 8c 6f 8d 3d 4d 89 31 bd 1a f3 6c 3d
       0.024976484 0.069060415 -0.04334383 0.057849027
0001e0 8a ad 33 bd de 5b 19 bd 0c f9 3d 3c 2c 91 35 bd
       -0.04386667 -0.037441127 0.011595022 -0.0443279
0001f0 af 4c 23 be d7 fa 91 3c 0d d4 2a be af 65 ef bd
       -0.15947221 0.017819805 -0.16682453 -0.116893165
000200 88 e8 6e 3c 14 e0 5d bd eb a5 71 bd 9f a7 2c be
       0.014581807 -0.054168776 -0.058996122 -0.16860817
000210 69 eb f1 bc 0d b6 39 bd 2b ec 02 bd b7 0d 0a 3c
       -0.029531198 -0.045339633 -0.03196351 0.008426121
000220 cd 3a e5 3c c4 a0 9b bd df 05 a1 3b 56 c1 5c be
       0.02798214 -0.07599023 0.00491403 -0.21558127
000230 88 a7 2a 3d a9 09 21 bc 46 1b df bd 90 98 04 be
       0.041663677 -0.009828963 -0.10893874 -0.12948823
000240 85 31 c8 bd 52 db 2e bd 07 9d c4 bd 4c 11 1c 3d
       -0.0977507 -0.04268963 -0.09600263 0.038102433
000250 af 4f 30 3d f4 38 5c bd ee 3d b9 bd 36 6d d5 3d
       0.043044742 -0.053765252 -0.09045015 0.10421221
000260 66 64 9b bd 92 9a c4 3d 95 a5 12 be 21 34 c3 3d
       -0.07587509 0.095997944 -0.14320977 0.09531427
000270 51 28 ac 3c 88 df 62 3b dc 6f 23 be 23 34 4a 3d
       0.021015318 0.0034618098 -0.1596064 0.049366128
000280 bc 7f 3b bd f2 ed b3 bc 1b 0d 29 bd 56 b8 55 3d
       -0.045776114 -0.021964047 -0.041272264 0.05217775
000290 c7 a0 1f be bc 8e e7 bb 7f fd 09 be 17 85 b5 bd
       -0.15588675 -0.007066576 -0.13475607 -0.088632755
0002a0 4d 91 59 3d c8 6e 5a 3d 0b c2 03 be 70 f5 24 bb
       0.053117085 0.053328305 -0.1286699 -0.0025170706
0002b0 3a b5 93 3d a4 1a 82 bd 52 67 c0 be 6d a4 8f bd
       0.072123006 -0.063527375 -0.37578827 -0.070137836
0002c0 8b f5 62 3b ae 83 86 3d 8a 90 a0 bd 20 0f 63 bd
       0.0034631218 0.06568085 -0.07840069 -0.055434346
0002d0 29 34 a1 bd 4d 50 8d bc 39 33 36 be 5d db bf 3d
       -0.07871277 -0.017250204 -0.17792977 0.09368012
0002e0 2a f0 93 3d 4a f6 2a be c1 36 0d 3d e9 0f c3 ba
       0.07223542 -0.16695514 0.034476046 -0.0014882061
0002f0 03 b6 b5 3d cc 69 d0 bd 0b 12 9b bd fd ff 92 bd
       0.088726066 -0.10176429 -0.07571801 -0.07177732
000300 82 ea 9b 3d 7d ed 45 bd 9f 03 00 bd 00 ff 54 3d
       0.07613088 -0.04832219 -0.031253453 0.052001
000310 c7 12 cc bd 86 fc 87 bb 61 54 e0 3d e7 ab 29 be
       -0.09964519 -0.004149976 0.10953594 -0.16569482
000320 bc fa 07 bd 70 13 31 be bc 3d e3 bd d2 bd 1e bd
       -0.033198103 -0.17292571 -0.11095759 -0.038755246
000330 f8 92 d5 bc d2 e8 76 bd 58 99 b3 3c 83 69 15 be
       -0.026071057 -0.06028063 0.021923706 -0.14591031
000340 01 a2 e0 3d 38 62 f1 bd 1b 87 57 be c6 b1 0f 3d
       0.109684 -0.11786312 -0.21047632 0.035081647
000350 e2 4c 38 3b 05 a2 17 bd 09 1e 73 be 12 fa 48 bd
       0.0028121998 -0.03701975 -0.23741926 -0.04906661
000360 6c 1f 8a bd 36 c1 85 3d 75 b3 6f bc 15 fd 4d 3d
       -0.067442745 0.06530993 -0.014630188 0.050290186
000370 83 f3 db bd cc e2 af bd 0a ba cc 3d 57 16 a2 3d
       -0.107398055 -0.0858818 0.09996422 0.07914417
000380 19 5b 09 bd 94 af 9e 3c b6 59 59 3d 15 9e ff bd
       -0.033534143 0.019370832 0.05306407 -0.12481324
000390 59 f6 e0 bd 51 85 02 3d 08 2e 46 3c f5 dc 06 bf
       -0.10984487 0.03186542 0.012095936 -0.52680904
0003a0 54 0c 06 be ec 2a 23 3c c6 b0 12 be 42 88 92 bd
       -0.1309064 0.009958964 -0.14325246 -0.07154895
0003b0 f4 72 4a 3b 17 5c 27 bc 0e 3a d1 3c 56 cb e3 bd
       0.0030891271 -0.010214827 0.025540378 -0.111227676
0003c0 7b 35 36 3d 6d db 18 3b 54 09 b7 bd 80 67 39 be
       0.044484597 0.0023324147 -0.08937326 -0.18105888
0003d0 86 02 fa bc 0c 21 85 bd a6 f0 10 be 10 1f 5b 3d
       -0.030518781 -0.06500444 -0.141543 0.05349642
0003e0 7c 5a a8 3c ec 33 03 bc cf f6 ee bd 7f 74 5a be
       0.020550959 -0.008007985 -0.11668169 -0.21333502
0003f0 b2 0d 34 bc 48 f3 7e bd df 4a 30 be 97 67 9e bd
       -0.010989593 -0.06224373 -0.17216061 -0.07734602

a2c_network.actor_mlp.4.bias f4 [64]
000000 49 c6 f9 3d be a5 ae 3d f6 b5 ae bd 00 57 88 be
       0.12196023 0.085277066 -0.085308 -0.26628876
000010 6c b1 dc 3d 84 db 73 3d f9 f5 ae be 00 6d dd bc
       0.10776028 0.05953552 -0.34172037 -0.027029514
000020 1f 9d 45 bb 79 aa 31 3e 1b 24 33 3e b4 69 1d be
       -0.0030153466 0.17350186 0.17494242 -0.15372354
000030 38 c9 78 3d 05 a3 34 be 96 5f 0f 3e 44 10 08 bd
       0.060738772 -0.17640312 0.14001307 -0.033218637
000040 85 58 1c be 54 35 b6 3d 03 99 96 3d c2 8b 24 3e
       -0.15268143 0.0889689 0.073534034 0.16068938
000050 ad 18 63 be a8 ec 6f 3d 4d d0 ea bc 41 59 28 be
       -0.22177382 0.058575302 -0.028663779 -0.16440298
000060 1c a2 96 be 32 51 63 be f9 4e 4f 3c 86 52 2b be
       -0.29420555 -0.22198942 0.012653106 -0.16730699
000070 9d 53 ca 3d ba 8a 4b bc d0 dd 77 3d c4 82 a1 3d
       0.09879229 -0.012423212 0.06051427 0.0788627
000080 d1 dc 70 be 42 9e a4 3d 88 88 9f 3d f1 94 81 be
       -0.23521735 0.08037998 0.07789713 -0.25308946
000090 9e 58 9c 3d 29 95 51 3e 14 f1 95 be 7c 73 1a 3e
       0.0763409 0.20467056 -0.2928549 0.15083116
0000a0 25 41 cb bd 88 76 77 bd 81 eb 20 be 42 45 e2 3d
       -0.09924535 -0.060415775 -0.15714838 0.11048366
0000b0 37 ff 62 be 0a 78 03 3e ec 24 23 be 84 53 81 be
       -0.22167669 0.1283876 -0.15932053 -0.2525903
0000c0 90 d0 5a 3d 6c dd 96 3d 0e 9f 83 3d 4b 21 94 bd
       0.053421557 0.073664516 0.06426822 -0.07232913
0000d0 ad 3b 07 be 43 46 b3 bb b0 c5 25 be c7 de 91 be
       -0.13206358 -0.0054710223 -0.16188693 -0.28490278
0000e0 6d 81 bb 3d e0 e7 1c 3e 06 15 5a be 4b 21 8a be
       0.091555454 0.15322828 -0.21297082 -0.26978526
0000f0 5a 93 51 bc 15 98 3a bd b5 0f 4e be 01 f0 c1 3d
       -0.012791479 -0.045555193 -0.2012318 0.09469605

a2c_network.value.weight f4 [1, 64]
000000 36 c5 c7 3d 5a ba 2a 3d 1a ca d5 bc 53 13 e0 bb
       0.09754412 0.041681625 -0.026097346 -0.006838241
000010 49 8a 91 bb bf cd d1 3d 3c 4c b5 bd af c6 0c bd
       -0.0044415337 0.10244321 -0.08852431 -0.034369167
000020 b5 86 75 bc b0 32 8d 3d 50 c8 34 3e 25 ff 61 3d
       -0.01498573 0.068944335 0.17654538 0.055174965
000030 9f 37 17 bd be e2 65 bd 2f a0 3c 3c bb 01 03 be
       -0.03691828 -0.05612444 0.0115128 -0.12793629
000040 83 38 e7 3d 11 2f 8d 3e a3 d2 0d 3d a9 2c 84 3b
       0.11290076 0.2757497 0.034624707 0.004033644
000050 95 34 fb bc 37 a7 e9 bc d8 d0 0a 3e d9 c3 67 bb
       -0.030664722 -0.028522117 0.1355623 -0.0035364537
000060 de 92 b0 3c d5 2c 0a be e8 63 d9 bd 24 32 c3 ba
       0.021554407 -0.13493665 -0.10614759 -0.0014892262
000070 2e 5b 14 3c c8 8d 7a bd ab bd 2d 3b 8a 3b 65 bc
       0.009054942 -0.06117037 0.0026510756 -0.013991246
000080 1d 26 a1 3b 2c 4c 1a 3e 29 35 d7 3d c2 c7 4e be
       0.0049178735 0.1506812 0.10508186 -0.20193389
000090 10 ec eb bc db 14 2d bc 16 ab bb bc b0 44 08 bc
       -0.028799087 -0.010564054 -0.022908729 -0.008317158
0000a0 bb 59 86 bc b2 d9 46 3d 72 0a e0 ba 39 f8 2e 3e
       -0.016400209 0.048547454 -0.0017092957 0.17086877
0000b0 f9 9e ed bc 7e 52 30 3e 45 f1 57 bd 5c e6 98 bb
       -0.029006468 0.17218968 -0.052720327 -0.004666133
0000c0 d4 bf 3b 3e 41 fd 5d bd 2e 97 13 3d ed dc 88 bc
       0.18334895 -0.0541966 0.036032848 -0.016706908
0000d0 f1 0a 86 3d 09 78 12 3d c2 5a 63 3d a4 4d 8e bd
       0.06545056 0.035759006 0.055506475 -0.069484025
0000e0 14 0d cd 3d 47 36 03 3e 86 c1 c9 3d fb 8f c8 bd
       0.1001226 0.12813674 0.09851365 -0.09793087
0000f0 5e 05 95 3d 99 bd 3b 3c a8 07 73 bd 6c 70 72 bc
       0.07276414 0.011458778 -0.059333473 -0.014797311

a2c_network.mu.weight f4 [7, 64]
000000 05 34 2d be ca 18 cd bc a4 5f 36 bc eb cd eb 3c
       -0.16914375 -0.025036234 -0.011131201 0.028784713
000010 3e 5e 26 bd 1a 4a 25 bb f8 8e 45 3d 0c 55 45 3c
       -0.04061722 -0.002522117 0.04823205 0.012044203
000020 83 86 63 3d 2b 43 2c bc 25 fd 63 bc 3a f4 91 bd
       0.055548202 -0.010514061 -0.013915335 -0.07126661
000030 fc a8 74 3c 10 c6 4b bc a7 b6 2a be 61 97 4a bd
       0.014932867 -0.0124373585 -0.16671239 -0.049460772
000040 3a e6 ad 3c 60 d3 89 bd 5e 75 6c 3b 84 33 96 3c
       0.021227945 -0.0672977 0.0036080698 0.018335111
000050 46 64 17 3d 8b c9 a0 3d 8b 71 df 3b af 10 52 3d
       0.036960863 0.07850941 0.0068189553 0.051285442
000060 4d ab 92 bc e4 e1 0a 3d 7c 07 70 bd 38 a7 62 3e
       -0.017903948 0.033906832 -0.058600888 0.22134101
000070 b0 f2 af bd b3 cb 6e bd 5c ab 59 3b 24 c9 87 3d
       -0.08591211 -0.05829973 0.003321371 0.066301614
000080 04 35 17 bd 31 74 f8 3b aa 7d ae 3a 22 a7 52 bc
       -0.036915794 0.0075822105 0.0013312597 -0.01285723
000090 2d 51 33 bc 1c a8 f8 3a 7f 04 31 3d ea a0 8f 3c
       -0.010944647 0.0018970999 0.04321718 0.017532784
0000a0 5d f6 bb bd a1 6b 7c bb 29 22 6d 3d c5 74 b3 3d
       -0.091778494 -0.00385163 0.057893906 0.087625064
0000b0 97 75 bc bc 35 52 8b 3d d1 b9 28 be 1d 13 88 bc
       -0.02300529 0.06802789 -0.16477133 -0.016610676
0000c0 59 6e f8 3b ca b0 8b 3c 6e 50 ca bd 1d 9d 65 3d
       0.007581514 0.017052073 -0.09878622 0.056058038
0000d0 ac d8 89 bb c1 54 c0 bd bd ba b1 bc 82 fc ba 3b
       -0.0042067375 -0.093911655 -0.021695489 0.005706371
0000e0 d0 20 dc bc 4e 43 e5 3d f9 b1 36 bc e3 66 78 3d
       -0.026871115 0.11194478 -0.01115083 0.060644995
0000f0 58 16 87 3b aa e2 1d bd 12 86 4e bc 9f ee 5c 3d
       0.0041225366 -0.03854624 -0.012605207 0.053938504
000100 7a b3 4a bd b3 13 ea 3d f9 97 4f bb 57 8b 2e bd
       -0.04948757 0.114295386 -0.0031676276 -0.042613354
000110 17 0f 79 be 46 72 25 3d 3b 0f e0 3c a3 39 eb bd
       -0.24322163 0.040392183 0.027351012 -0.11485603
000120 15 35 56 bc bc 39 a1 bd 84 de c2 bc e7 e2 09 3c
       -0.013074179 -0.0787234 -0.023787744 0.008415914
000130 1b 63 25 3c 57 24 ba bc bf 03 7b bd f0 3c 2e 3c
       0.010094429 -0.022722406 -0.06128287 0.010634646
000140 e2 0f 56 3c a7 5f 23 3e b7 90 8e bb ad fa 3d 3d
       0.01306531 0.15954457 -0.0043507474 0.04638164
000150 38 a5 39 bd d2 89 37 3e a4 66 49 37 eb 76 64 bc
       -0.04532358 0.17923668 1.20044315e-05 -0.013944368
000160 54 49 a3 bd 0d e7 69 bd 51 cf 43 3d 71 ca 8f 3c
       -0.079729706 -0.057105113 0.047805134 0.017552586
000170 f5 18 7f bd 7a 93 51 3d 2d c8 35 3a 86 80 d9 bb
       -0.06227966 0.051166035 0.00069344306 -0.0066376356
000180 6f 7f 0e 3d 83 f5 89 3c 6d dc 01 bd 97 61 bf bb
       0.0347895 0.016840702 -0.031704355 -0.005840491
000190 50 1b 81 3c 54 67 ab bc b0 64 72 bd ac 8e 0b bd
       0.015760094 -0.020923294 -0.059178054 -0.03407161
0001a0 2c e3 57 3d 3d 80 d3 3b 98 0e 34 3d b8 4f cb bd
       0.052706882 0.006454496 0.04395923 -0.099273145
0001b0 ea af 48 bc 7d f2 d7 3b 82 19 79 3d 28 5a a3 bd
       -0.012248972 0.006590186 0.06081534 -0.0797618
0001c0 e3 17 83 3c eb 94 09 bd b6 04 08 bd ff d1 e1 bc
       0.016002601 -0.033589285 -0.033207618 -0.027565954
0001d0 04 60 98 3c 67 cd 12 bd 56 db 6d 3b 9e dd 18 bc
       0.018600471 -0.03584042 0.0036294064 -0.009330181
0001e0 b9 b0 c9 39 58 6f a7 bc b8 72 87 3c 01 b8 d5 3c
       0.00038469376 -0.020438835 0.016534194 0.026088716
0001f0 53 25 e4 bb f4 a5 b4 bb 63 3d c6 bd 39 c3 89 bd
       -0.006962457 -0.005512947 -0.09679677 -0.06726689
000200 29 ce 91 bd 08 8b 16 be 0e f7 94 bd 92 58 b7 3c
       -0.071194 -0.14701474 -0.072736844 0.0223811
000210 5e 45 67 3c bf 35 8a 3d 09 6f 16 3e 8d c1 00 3e
       0.0141156595 0.067485325 0.14690794 0.12573834
000220 95 e8 70 3d 3c 0a 84 bd 38 28 aa 3c 0b 51 33 3c
       0.058815558 -0.064472646 0.02077113 0.010944615
000230 09 d5 8f bd 3d 13 22 bd f0 9e 09 bb 74 2b 24 bd
       -0.07023055 -0.03956913 -0.0020999275 -0.040080503
000240 0e 5b 7e bd 66 3e 42 bd 41 55 b3 3b c2 a8 9f bd
       -0.062098555 -0.04742279 0.0054728095 -0.0779586
000250 e9 3c bd 3c db 70 0b 3e c1 37 62 bc 42 4d 8f 3d
       0.023100333 0.1361727 -0.013807238 0.06997158
000260 86 20 87 3d c2 0d 80 3d e8 fd e3 3c fd 9d 8b 3e
       0.06598 0.06252624 0.027831033 0.27268973
000270 93 bb 0b be ad 77 d9 3d b1 de a3 bd 72 fb 77 3d
       -0.13645773 0.106185295 -0.080014594 0.06054253
000280 5b 94 00 3d 5f 11 cb 3c 35 ee d6 3b c5 16 38 bb
       0.031391483 0.024788557 0.006559158 -0.0028089744
000290 6a 5e bb bd cf 60 0a bd ae 2e 10 3d a0 90 2f be
       -0.091488674 -0.03378373 0.035200767 -0.17145014
0002a0 d0 b4 4b bd d5 b5 95 bc 45 83 f4 bd 3e c8 d6 bd
       -0.049732983 -0.01827518 -0.119391 -0.10487412
0002b0 e7 1e 6c 3e fb 2f 9b bd e0 4e a5 3d 96 12 dd bd
       0.23058663 -0.07577511 0.08071685 -0.107945606
0002c0 cc 89 7e 3c 33 00 86 bd 03 ba f3 3d 59 48 5b 3c
       0.015535783 -0.06543007 0.11900713 0.013383948
0002d0 2f 34 a4 3d 10 99 5b 3e d0 e3 f7 3d 53 d2 e5 bd
       0.08017766 0.21445107 0.12103999 -0.11221757
0002e0 05 df 07 3d 82 21 a4 bd 52 bd 23 3e a5 7e 5f 3d
       0.033171672 -0.080142036 0.15990189 0.054564137
0002f0 1c d3 3f bd 1c c8 92 3d b4 9b 18 bc 51 29 e7 ba
       -0.04683219 0.07167074 -0.009314466 -0.0017636215
000300 9f 61 95 3d 04 ab 33 be 6e fe dc 3d 8a bf 41 3b
       0.0729401 -0.17545706 0.10790716 0.002956363
000310 5b 46 d2 bd de d2 42 be ad 15 f2 3d cc f5 a6 bd
       -0.102673255 -0.19025752 0.118205406 -0.08152351
000320 c6 8e a4 3b fc 6f 11 bd 48 a2 cb bc fb b0 11 be
       0.0050219027 -0.035507187 -0.024857655 -0.14227669
000330 6f f0 da 3d 03 cd 14 3e 75 3b fd bc da 07 03 3c
       0.1069039 0.14531331 -0.03091214 0.007997477
000340 96 51 9c 3d c2 b2 99 3b a3 7c a2 bb 1e 2d 03 be
       0.07632749 0.004690499 -0.0049587055 -0.1281018
000350 fd 40 a1 3d f4 2b 0f 3e 19 c9 b0 3d df 01 00 3c
       0.07873724 0.1398161 0.08632106 0.007812946
000360 9e c5 3a 3c 1a 11 b2 bd 7f 26 c6 3b 78 03 fe bd
       0.011399655 -0.08694668 0.0060470696 -0.12403005
000370 b3 aa 34 3e 38 d7 a7 bd 1a 56 8b bc c0 1e b1 3e
       0.17643242 -0.081953466 -0.01700883 0.34593773
000380 76 4b 3f bd 84 05 19 3d d4 4d c3 3c 6c 86 d7 3c
       -0.046702825 0.037358776 0.023840822 0.026309215
000390 94 cc 48 be 10 1e 69 bd bc fa ff bd 0b 00 a5 3c
       -0.1960929 -0.056913435 -0.12498996 0.020141622
0003a0 a3 49 34 bd 92 9f dd bd 09 05 58 3d de cb 63 3c
       -0.044015538 -0.10821451 0.052739177 0.013903586
0003b0 52 6a 91 3d 6b ae 53 3d e2 b4 3f b8 99 83 a2 3d
       0.07100357 0.05168001 -4.570641e-05 0.079352565
0003c0 95 ce a8 3d 31 7f f5 bc fe 42 c0 bd f6 42 42 be
       0.082425274 -0.029967876 -0.09387778 -0.18970856
0003d0 ba d3 4d 3d 2a 6f da bb 26 47 d6 3d be 25 5e 3d
       0.050250746 -0.006666084 0.10462789 0.054235213
0003e0 ce 84 28 bd 0f 2d ec bd bc e9 80 bb da fd 1f 3d
       -0.041142277 -0.11532032 -0.0039341133 0.03906045
0003f0 08 fb 7e bd 48 28 8a bd 88 ba 61 3d 7d 7a cb bd
       -0.06225112 -0.06745964 0.05510953 -0.09935472

a2c_network.mu.bias f4 [7]
000000 8c 15 25 bd 95 fa c6 bc 19 6e 81 be f3 c3 48 3d
       -0.04030375 -0.024289409 -0.2527931 0.049014997
000010 e4 60 6e bd 70 75 f4 bc 64 8e 75 be
       -0.05819787 -0.029841155 -0.23980099

exp_avg f4 [7]
000000 9d d8 3a 3b 4f 32 99 b9 d4 f1 2f 3a 3f a0 6e ba
       0.002851046 -0.00029219917 0.00067117554 -0.0009102858
000010 bd 3d 03 ba 81 47 27 bb 7f e0 82 ba
       -0.0005006453 -0.0025524797 -0.0009985118

exp_avg_sq f4 [7]
000000 12 bd 3b 38 aa 4c 3b 38 61 5f 36 38 bf bc 32 38
       4.476036e-05 4.4655673e-05 4.348101e-05 4.261429e-05
000010 d4 46 4c 38 0d 46 4f 38 18 13 4b 38
       4.8703354e-05 4.9417886e-05 4.8416754e-05
