runs/FrankaCubeStack_31-15-47-05/nn/last_FrankaCubeStack_ep_200_rew_17.50213.pth (torch, 578819 bytes, 36 tensors)

value_mean_std.running_mean f8 [1]
00000000: 802f fec1 21bf 1540
5.436652213229422

value_mean_std.running_var f8 [1]
00000000: feb3 2688 d228 0040
2.01993280761826

value_mean_std.count f8 []
00000000: 0000 0008 0090 8a41
55705601.0

running_mean_std.running_mean f8 [19]
00000000: 7307 e9b4 a2c6 61bf 0525 0397 d761 52bf
00000010: 29a4 1d79 ca6c 87bf 3067 aeaf 766f ee3f
00000020: 24d6 d582 3ffc 913f f893 2d5b 553a 75bf
00000030: b761 17b5 2ecc f03f 37f4 096f 792a 8bbf
00000040: c669 466e 1a7d 783f 386d 80ac ca3a 863f
00000050: 8ac1 75a1 8171 683f bee0 f5e2 cd0f 80bf
00000060: d8c6 25ca 4897 f13f c235 a3c6 2b45 dbbf
00000070: f027 34ca 2986 b63f 82e3 8648 60bc c9bf
00000080: 1485 f520 e62b 9dbf 20d9 8488 7301 733f
00000090: d771 fd01 3e8b 733f
-0.00216991213463385 -0.0011219601984058813 -0.011437970944557634 0.9511063987040185 0.01756381259970942 -0.005182584211842027 1.0498492311363472 -0.013264607144487168
0.005978682751811742 0.01085432375844296 0.002983811554877207 -0.007842644203933321 1.0994346519841454 -0.42609686277577563 0.08798466860403642 -0.20106128255227068
-0.028487773667966357 0.004640055944312743 0.004771463601937551

running_mean_std.running_var f8 [19]
00000000: 2f17 77d1 7c77 743f 14e9 1f61 e693 753f
00000010: 75df 0405 e0bb b23f 2b8d 452e 0592 873f
00000020: e0ed a185 9576 9d3f 6e18 db87 f105 9a3f
00000030: f6b6 cb97 c5cb 3f3f a8e9 01fb 52bf b23f
00000040: 2eac daa1 e8df b13f 84a8 2412 d56d 7d3f
00000050: 5be0 7801 4901 9a3f 5ea3 8284 7337 983f
00000060: 0199 1a77 8672 8b3f 3f59 e3a0 9837 e53f
00000070: e486 2b06 990b a93f 9fce 2540 8553 a43f
00000080: 8c8c 346c 59f4 913f e4b8 82ab 4ed1 1c3f
00000090: f8ef 52cf 6a4e 1c3f
0.00499676472776915 0.005268001479630042 0.07317924616370226 0.011508980249976894 0.028772674828798972 0.0254132975740266 0.00048516820952114405 0.07323187473404025
0.06982282592314057 0.007184822376340109 0.025395527567724546 0.023649029696261585 0.013402033338320242 0.6630366461129497 0.04891660881345475 0.039699710922744595
0.017533681134534393 0.00010993044532156857 0.00010798003116269095

running_mean_std.count f8 []
00000000: 0000 0010 0090 7a41
27852801.0

a2c_network.sigma f4 [7]
00000000: e216 92bf 9441 9cbf 19c8 28bf 8fed 01bf
00000010: 5d22 01bf fb1c ecbe 296f b0bf
-1.1413233 -1.2207513 -0.65930325 -0.5075311 -0.5044306 -0.4611586 -1.3783923

a2c_network.actor_mlp.0.weight f4 [256, 19]
00000000: dfa1 093e 7165 f9bd e939 143d 45bd 93bc
00000010: 0c83 f13e 021e 9cbe 0f7e cabd 354e 7bbd
00000020: 763b ebbd 5f65 823d dab1 edbe a998 4c3e
00000030: 6dd2 e1be 77d9 e43d b2de 51bb b603 15be
00000040: 5b50 e73c 5654 98bd 91b4 d73c 25ef df3b
00000050: ae02 05be 9f75 53bc 6be8 6bbd 57e9 383e
00000060: d17d 7f3e 1baa 103e 6f5d adbd 448d 333e
00000070: 4aa8 cabd b076 963d 47b4 3abe 685f 6fbe
00000080: 1a18 20be e264 97bd bfb8 593e cf4b 393d
00000090: f72b 743d f4db 183d ab38 0fbd 89ab e83d
000000a0: 6588 febd 44fb 9abc f0e4 7fbd 17af f93d
000000b0: 5c7d 2b3b 33bd 74bd bd63 69bc 3031 7e3e
000000c0: df45 83bc 8875 33be b456 31be cd59 f53d
000000d0: f2f7 533d 981f 6c3e bc62 46be d57f 2cbd
000000e0: ddc7 92bd 0231 6dbe 9da1 093e 46f2 c4bb
000000f0: 94f4 4e3d c6c3 9dbe c690 a5bd b0c0 a73e
00000100: 50d9 cdbd 6de2 5dba 291c 67bd acec 943e
00000110: 6bea bcbd a9d9 92be d05b ca3d cd23 9a3c
00000120: 859f 3d3c 5e25 8a3e b64d f63d 4e18 52be
00000130: 7ec7 c0ba 8531 023e a8dd 5dbd 787a 13bd
00000140: 54cf a9be 17eb f3bd a26d b63d 8423 0abe
00000150: 7c5b 20be 5fd3 853d ba8a 883d fa60 2ebe
00000160: c6c2 2cbe 7917 24be 0773 f3bd 60e2 3c3e
00000170: 7a22 c73c 4861 d33d 98ba 4abe 9c88 f7bd
00000180: d80d 6bbd ddc1 d83c 1ae5 50be e768 833c
00000190: cb99 8dbd f26c 23be f3a0 0cbe 335e 6ebd
000001a0: 46b6 6fbe 422c 56be c05f 25be ebad 76bd
000001b0: 8420 1bbe 0989 093e 73d8 04bc 4af2 913e
000001c0: 2c93 de3d b40c 2ebe d20d 4f3e 7529 59be
000001d0: aebc 76bd 791a e1bd ec62 a3bd cbe2 09bd
000001e0: f812 e0bc a368 773c 3218 32bc e179 843e
000001f0: b5d2 ffbc 9bed bebd 178e 8c3d f5ea 36bd
00000200: b116 513e 6d5e 963e 1e1a 97be 4a06 483e
00000210: b536 aa3d bc92 30be f836 6bbe 93c0 573e
00000220: ae41 a7be a6bf 5e3d 262c af3e 71b9 24bd
00000230: b071 72bd f80d 783e 1ba9 acbc c2e1 94bd
00000240: 1aad c6be c6db 113e 0973 87bc 59ac babd
00000250: 47e3 083e 5e4d ae3c 5b37 fabd f96f d7bd
00000260: f8ed cc3c c762 a43d e949 90ba 3ccb aebd
00000270: b091 9fbe 00b0 f4be 4b0a fc3d a64c 043e
00000280: dad0 4cbe 3e52 383a 9d2d d23e 6d69 8e3e
00000290: 09ad d4bd 103a 04bd a4f3 213d 7442 73ba
000002a0: f480 3e3b 6a82 8dbd bd1b 853d 7a75 ee3d
000002b0: dd93 7fbe 4220 993d ef26 8b3e 5549 363d
000002c0: 025d 29be 0b49 84bd 46bb 4bbd bcbd bc3c
000002d0: 3913 203e dcf9 55be d734 1c3e fe01 9f3e
000002e0: 477f 3e3c 03f1 6fbd fd81 c1bd b610 e1bd
000002f0: e743 e9bd a930 073d b700 373e b687 093e
00000300: 6b4e 223c 28e4 30be 1d85 4ebe 834b 0a3d
00000310: 7253 223e a110 4fbd dee7 0ebe cd9b ed3c
00000320: b2bf a43d 483c 35be 04af 163e fab1 d3bd
00000330: 4a83 4c3d bcc9 43be 686f 8c3e 3a9d 5b3d
00000340: 21f4 633c b556 323d ab44 54be 2b3a debd
00000350: dda2 703d e2fa 723e b066 ad3e 4947 f13d
00000360: ad25 543d 54bc c33d b3e3 6ebe 9ec6 95be
00000370: 6fae 9abe 6907 90bd ef37 b8bd f591 7cbd
00000380: 6f2c a0bd a760 9dbc a77d 51bc 3d42 14bd
00000390: 61bf 083e fe57 fbbd 9785 493d 37ea 6cbd
000003a0: 9378 42be ce69 a6bd 2701 3fbc f046 c6bc
000003b0: 07a6 37be 2246 bc3d da32 40be 26c1 713e
000003c0: 9d69 fc3d 7cb5 8b3e 5b66 15be 4610 973e
000003d0: 9323 4bbd 9fa4 cc3d 34f7 693e 664b 323d
000003e0: 5dad 8e3d 1b6d bebc 2ae5 7abe 0b72 383e
000003f0: 6765 eebe e2e9 763d d0e7 b73d ce11 c73d
0.13440655 -0.121775515 0.03618804 -0.018034587 0.47170293 -0.30491644 -0.09887325 -0.06135388
-0.11485951 0.06366991 -0.46424752 0.1998011 -0.44105855 0.111742906 -0.0032023606 -0.14552197
0.028236559 -0.07437961 0.026331218 0.006833928 -0.12989303 -0.012906461 -0.057594698 0.18057762
0.24950339 0.1412739 -0.08465087 0.17534357 -0.0989538 0.073468566 -0.18232833 -0.23376238
-0.15634194 -0.07392289 0.21261881 0.045238312 0.05961224 0.03731914 -0.034966152 0.11360843
-0.12428359 -0.01891864 -0.06247419 0.12191599 0.002616725 -0.059750747 -0.014244971 0.24823451
-0.016024528 -0.17525303 -0.17318231 0.11980019 0.05175013 0.23058927 -0.19373602 -0.042114098
-0.07167027 -0.23163226 0.13440557 -0.0060103266 0.050526217 -0.30813426 -0.08084254 0.32764196
-0.10051215 -0.0008464221 -0.05642334 0.29086816 -0.09224399 -0.28681687 0.09880793 0.0188159
0.011573677 0.26981634 0.12026541 -0.20517084 -0.0014707891 0.12714203 -0.054166466 -0.036005467
-0.3316599 -0.11910074 0.089076295 -0.1349011 -0.15659899 0.065344565 0.06667085 -0.17029181
-0.16871175 -0.16024579 -0.11887174 0.1844573 0.024308432 0.10321289 -0.19797742 -0.12086603
-0.05738625 0.026459629 -0.20399895 0.016041232 -0.06914099 -0.15959528 -0.13733272 -0.058195304
-0.23409376 -0.2091532 -0.16149807 -0.060224455 -0.15149122 0.13431181 -0.008108246 0.28505164
0.108679146 -0.16997033 0.20220116 -0.21207221 -0.060238533 -0.109913774 -0.07977852 -0.033663552
-0.027352795 0.015100631 -0.010870026 0.25874236 -0.031228403 -0.093226634 0.06863039 -0.044657666
0.20418812 0.29368916 -0.29512113 0.19533649 0.08311216 -0.17243475 -0.22970188 0.21069555
-0.32667297 0.05438199 0.3421337 -0.040215913 -0.059190452 0.24224079 -0.02107673 -0.072696224
-0.3880394 0.14243993 -0.016534345 -0.09114904 0.1336795 0.021277126 -0.122175895 -0.10519404
0.025015816 0.08026653 -0.0011008355 -0.08534858 -0.31165838 -0.47790527 0.12306651 0.12919864
-0.20001546 0.0007031298 0.41050425 0.27814808 -0.10384566 -0.032281935 0.039538994 -0.00092796166
0.0029068561 -0.0690964 0.06499431 0.116435006 -0.24958749 0.07476856 0.2717814 0.04450353
-0.16539386 -0.06459244 -0.049739145 0.023039691 0.15632333 -0.20896095 0.15254532 0.31056207
0.011627025 -0.058579456 -0.094486214 -0.109895155 -0.113899045 0.03300539 0.17871366 0.13430676
0.009906392 -0.17274535 -0.20167966 0.03376342 0.15852144 -0.050552968 -0.13955638 0.029004956
0.080443755 -0.17698777 0.147152 -0.10336681 0.049929895 -0.19119924 0.27428746 0.05361674
0.013913185 0.04353972 -0.2072932 -0.108509384 0.05874907 0.23728517 0.33867407 0.11781175
0.051793743 0.09557405 -0.23329048 -0.29253095 -0.30211207 -0.070326634 -0.089950435 -0.061662633
-0.07820975 -0.019211126 -0.0127863055 -0.036195982 0.13354255 -0.122726426 0.049199667 -0.057840552
-0.18991308 -0.081256494 -0.01165799 -0.024203748 -0.17934428 0.09193064 -0.18769398 0.23608837
0.12324832 0.272869 -0.14589827 0.29504603 -0.049594473 0.099923365 0.22848207 0.043528937
0.0696666 -0.023245385 -0.24501482 0.18012254 -0.4656174 0.06028164 0.089797616 0.09720193

a2c_network.actor_mlp.0.bias f4 [256]
00000000: 6318 63be 8191 133e 612c 9ebd fd43 42be
00000010: fc60 803d 47a0 c53d 869c 6dbe 3037 913e
00000020: 8bc7 953c f7f2 223e adb3 af3d 0692 bc3c
00000030: 83b3 973c b94c 12bd 4b09 0fbe 8d73 57bd
00000040: 14af 043d 31cf 513e 245e a03e a498 46be
00000050: 236f 223d b3d9 8ebd c169 a9bd e9f8 68bd
00000060: 5bc1 53bd 9d40 833e 999c 933c dbef 53be
00000070: 039d 2a3c 6413 25bd 36c5 a73d 860a 9d3d
00000080: e9ef 88bd 6f9c cf3d f3ef 933a ad74 34be
00000090: 53b4 4fbd 7834 42be 175b 133e 52fc c23d
000000a0: d08f 5f3e cb6a b8bd 1dec 3e3e 4176 2a3e
000000b0: 7a69 1f3d 77bb b73d 14a4 d7bc e844 8cbd
000000c0: 4d1a df3d 7e24 b53d cf97 143b 29ef 2c3e
000000d0: 7dee 59bc 0b1b 773e 1443 e73d f72d 1d3e
000000e0: ca95 3bbe abfe 32be dfd2 073e e1b9 d6bd
000000f0: f63a 31be 2a7c 3c3e 59d1 d3bd c024 39be
00000100: 3571 df3c 5975 4bbd 0f89 113d df22 17bc
00000110: 4c53 ad3d f129 f3bd ac64 3abd 53b9 f9bd
00000120: 183b 0d3e 718e d8ba 123d 713d 60b3 c03d
00000130: ae2a 8aba 3610 203d ce84 59be 58eb 09bd
00000140: 8acf af3e 9ad9 aa3c 2bc2 1bbe 74b2 b1be
00000150: a86b f6bb d24b 433d d595 02be b9d1 883e
00000160: 88fb 80bd 7482 d13d 7ac8 7bbd d612 d93d
00000170: 76dd 1b3d 7582 4e3e fbab 433e 10ba 803e
00000180: 7f2f 9e3a 41cd a03d cb94 e63d 9d75 d0bd
00000190: 1015 0c3e cea5 813e b7d9 3b3e 53e7 e83d
000001a0: 7dc5 383d 0c0b 383c 31f2 66bb 3a13 8b3e
000001b0: 3a2b 193e 7ef7 1a3d a935 9cbd 52fa afbc
000001c0: ed99 383c 25fa 343e 5532 02be 7e7f 0a3d
000001d0: 1083 1e3e 6ff0 13be 9892 9c3d 2a7c 833e
000001e0: 0cd9 83bd 22c0 473d 3cab f43c f8cc 14be
000001f0: 3539 803e 4695 843d c35b 57bc 1fe9 82bc
00000200: 67f0 11be accf d7bd ba1a 4bbc 285e 983d
00000210: bb12 743d 5d9e 9db5 dae6 983d 33f4 033e
00000220: a5f7 163e c4a3 c9bd 2497 d53d 2117 3c3d
00000230: fe15 673d 4a34 c4be ee64 9f3d e719 24be
00000240: 7875 c7bd 4c6f 403c 5c29 913d 1667 1a3e
00000250: 09cd aebd ba94 01be 4744 febc 51c5 9b3d
00000260: 70d1 6d3e 5023 46bd 77cc dfbd 8601 31be
00000270: 8eff a23d 248b 2b3e 70e6 323e fef1 32be
00000280: fb0c 433e 76d2 63be 8be9 1f3e 12f9 26be
00000290: 03d0 6dbc 231a 6dbd 012b ae3c b583 2b3d
000002a0: 2647 3d3d 720f 473c e7dc ef3d ecb0 0cbe
000002b0: 8072 49bd efa3 a8bd 2455 f8bc 605c 8d3d
000002c0: 37fb 02bd 0647 5e3e 501d 45bd c3f1 323e
000002d0: 3503 393c adf2 163e 0108 acbd 303a 43bd
000002e0: 4210 5b3e 718c 703e 76b2 103e 7bc4 a739
000002f0: 413f 6e3e 6647 223d a5a2 1c3d dc48 553d
00000300: db10 c5bd 7e82 bc3d e0e1 013d ab7a 593e
00000310: b81f bebd b9f4 f03c 139e 8b3d 1311 23be
00000320: 0520 c6bd 1564 67bd e64e 483e 14ce 03be
00000330: a208 073d 69c4 bb3c 0d49 0dbe f407 363d
00000340: dd7e db3d c9ea 333e b034 813d 7164 803d
00000350: 8ed4 86bd ee94 0d3e 17fb a83d f490 d73d
00000360: 5045 763e 593c dc3d 216f 163e 7dd7 093d
00000370: b6cb 7a3d 69d1 dc3d 799d 0b3d 89d2 7d3d
00000380: 441c 8d3e 15f6 033d b04c e2bc d166 5c3d
00000390: ea68 15be 5ca0 4dbd f873 7d3d da3d 093e
000003a0: 5ef2 b7bd d898 e9bc fc79 0a3e 68b8 6a3d
000003b0: ab42 1f3e 2da4 e9bd 93bd d1bd 6411 e13d
000003c0: a353 a9bd 0926 86bc eeb5 90bd e47a 213b
000003d0: 8544 1b3e 4cde 43b9 241f ec3d 8c2c b63d
000003e0: 61d5 363d 07aa e4bc dbc7 a23d bc4f df3c
000003f0: 5dac 43bc 6461 163e e169 0f3e 8f5e 69bb
-0.22177272 0.14410974 -0.07723308 -0.18971248 0.06268498 0.09649711 -0.2320424 0.28362417
0.018283626 0.15912996 0.08579192 0.023018848 0.018518215 -0.0357177 -0.13968389 -0.052600432
0.03239353 0.20489193 0.31321824 -0.19394165 0.03965677 -0.069751166 -0.08272124 -0.056878004
-0.05169807 0.25635234 0.018019008 -0.20696966 0.010413411 -0.040301695 0.08191912 0.07668023
-0.06686384 0.10137259 0.001128672 -0.17622633 -0.05070908 -0.18965328 0.14390217 0.095207825
0.21832204 -0.09004744 0.18644758 0.16646673 0.03891895 0.08971303 -0.026323356 -0.0684908
0.10893688 0.08844851 0.0022673493 0.16888107 -0.013301489 0.2413141 0.11292091 0.15349565
-0.18318859 -0.1747996 0.13264035 -0.10484672 -0.17307648 0.1840674 -0.10342664 -0.18080425
0.027275661 -0.04967246 0.0355311 -0.0092246225 0.08463153 -0.11873234 -0.045506164 -0.12193551
0.13792074 -0.0016521943 0.05889613 0.09409213 -0.0010541284 0.03907796 -0.21242067 -0.033671707
0.34338027 0.020855714 -0.15210788 -0.3470646 -0.007520158 0.04767973 -0.12752469 0.26722506
-0.06297976 0.1022996 -0.061470486 0.10599296 0.038053 0.20166953 0.19108574 0.25141954
0.0012068598 0.07851649 0.11258849 -0.10178683 0.1367991 0.2532181 0.1834477 0.113722466
0.045110215 0.0112331025 -0.0035239572 0.27163106 0.14957896 0.037833683 -0.07627422 -0.021481667
0.0112671675 0.17673548 -0.12714513 0.033812992 0.15479684 -0.14447187 0.07645148 0.25680667
-0.06437883 0.048767217 0.029866807 -0.14531314 0.25043646 0.06473784 -0.013144436 -0.015980301
-0.14251862 -0.10537657 -0.012396509 0.07439834 0.059588175 -1.1743501e-06 0.074659064 0.12886123
0.14742906 -0.09845689 0.104292184 0.045920495 0.056417458 -0.38321143 0.07782923 -0.16025506
-0.09739202 0.011745285 0.07087967 0.15078387 -0.08535201 -0.12654391 -0.031038417 0.076059945
0.23224425 -0.04837352 -0.109276704 -0.17285737 0.079588994 0.16752297 0.17470717 -0.17475125
0.1904792 -0.22248253 0.15616433 -0.1630595 -0.014514926 -0.057886254 0.02126074 0.041873652
0.04621043 0.012149679 0.11712056 -0.13739365 -0.04918146 -0.08234393 -0.030314036 0.06902385
-0.03197786 0.21706781 -0.048123658 0.17475037 0.0112922685 0.14741011 -0.08399964 -0.047662914
0.2139292 0.23491074 0.14130577 0.00031999112 0.23266317 0.039618872 0.038241047 0.052071437
-0.096223556 0.09204577 0.03170955 0.212382 -0.092833936 0.029413568 0.0681726 -0.15924482
-0.09674076 -0.05649193 0.19561347 -0.12871581 0.032967217 0.022920804 -0.13797398 0.04444118
0.107175566 0.17570032 0.063088775 0.06269158 -0.0658351 0.13826343 0.082510166 0.105256945
0.24049878 0.10753698 0.1469083 0.03365277 0.06122943 0.10782129 0.034085725 0.06196836
0.27560627 0.032217104 -0.027624458 0.05380899 -0.14590803 -0.05020176 0.061878175 0.13402501
-0.08981775 -0.028515264 0.13523096 0.05730477 0.15552776 -0.11408267 -0.102412365 0.10989645
-0.082679056 -0.016375558 -0.0706595 0.00246399 0.15162857 -0.00018679461 0.11529377 0.088952154
0.044637088 -0.027913107 0.07948276 0.0272597 -0.01194295 0.14685589 0.14005233 -0.003560934

a2c_network.actor_mlp.2.weight f4 [128, 256]
00000000: 1ad2 db3d fab9 98bc e7fc 7dbd d69f a73d
00000010: af65 be3c 2431 76bd d089 973c 8f3c abbd
00000020: a8ed 08bd bdae 0e3d 8a76 efba 63b7 3d3d
00000030: ab44 c23c 002a d7bc beb6 01bc 2293 67bc
00000040: c148 953d ae54 ebbd 8c2f 45be e97d 823d
00000050: 032a 89bd 9004 dd3c e15b 29bd 96a0 943c
00000060: d21f bebb 51de d0bd 5ecf 453c d361 193c
00000070: 1eb3 85bd 886d d03b e219 81bd 801b da3d
00000080: 08c4 9d3d 4477 7ebd c9f0 6fbd c07b 2ebc
00000090: 764b 80bb 6981 163e f13c b2bc adb9 b5bc
000000a0: 8614 20be 2c29 8a3d 032b abbd 38f0 51bd
000000b0: 63a7 0bbd ea5b a9bd ef46 12bd e055 d93c
000000c0: 62fb 7e3c 3fdc 22bd a06b 393c bdca cebd
000000d0: 9776 51bd d733 f2bd a7ac 663d 2287 b3bd
000000e0: 40ec 313d 26bf d33d 3027 52bd a866 213d
000000f0: f70c af3d 677c 0dbe 8ec5 9b3d 7e97 903d
00000100: 3238 46bd 2dfc 7bbc d216 0cbd 1324 d5bc
00000110: 5768 1fbd a0d5 9d3c 9061 04bd 520e c1bc
00000120: 3a22 47bd 8b51 cc3d 9251 adbd 0997 dfbc
00000130: 7249 6b3d bb36 de3d b83b dfbc bb79 1dbd
00000140: d765 0cbe 86d6 883c a3c1 56bd 5ea6 7a3e
00000150: 58d2 7dbd c007 cbbd 376b 913d 3403 f7bd
00000160: b5ba a7bb 63dd 013d 31e6 e33b aade dbbc
00000170: 2c98 3d3b 9102 d6bd 02c2 06be 0e27 15be
00000180: 0f03 593c 6153 12bd ce5b fbbc e1c8 773d
00000190: b89c 2ebe 2711 b4bd 6206 12be 54b2 6bbc
000001a0: 9370 a6bc 9fe9 83bd 5d06 2fbd d0e8 fcbc
000001b0: 4343 99bd 5e41 b9bc c2cb a03d 2338 8e3d
000001c0: d1fe ed3b 6b67 0bbd 3a64 a33d 848d a63d
000001d0: 1ef2 68bd d66c d93b d2bd 93bd 1502 37be
000001e0: ce8f 99bd 5503 a83d e045 e2bd 5b38 78bd
000001f0: 0078 53be 6551 53bd 449c 32bd 7bb0 253d
00000200: b739 f83c c945 2f3d 4f12 36bc 7e95 c0bc
00000210: 69f7 5e3c 808e 85bc 8e04 efbc 1b6d ccbc
00000220: 9303 90bd 3bbc d13c 27db 82bd 0db6 0a3d
00000230: 049f 88bb af46 fe3d 760d 073d ad78 fe3d
00000240: cfa4 9a3d 799a 00be 07ce efbc 6d60 21bc
00000250: 7fcf e93d 1841 c7bb 3130 0a3d 8edb 05be
00000260: 47a7 d8bd 7d8a a33d c2fd 073d bfa9 ed3b
00000270: c9d6 92bb 871b 1f3d e09b fabc aee6 94bc
00000280: 5fd6 9cbd 9e0d 913c 1558 e0bd c1bc 233d
00000290: 86fd 51bd 8251 7a3d bbac 6e3d a894 28bd
000002a0: 1973 e73b 5733 cc3c ee06 f6bc 17b9 143d
000002b0: dc47 583c 4277 83bb b729 653b 18b2 d73c
000002c0: 7861 643d f92f f3bd d7fa c3bd 878f e9bd
000002d0: f87d 8f3d e5ef 113c 5cb6 28bd ac9b fe3b
000002e0: 5e75 1dbd 4150 1bbe f859 41bd 6e62 083d
000002f0: f272 a1bd 273c 7f3c 9421 5abd 5740 1dbd
00000300: a1dc cb3b 8cfa 993d 0ea8 44bd 0041 1d3d
00000310: 4bf9 56bc 0c94 a0bd a030 2e3c e12e fa3b
00000320: 4e9b 86bc 4072 98bd 0946 63bd b304 b9bc
00000330: e567 0cbc 1ccd 32bd 810d 073e de53 be3c
00000340: d174 b5bb 89e0 d13a 452f 3a3d 181e 7abd
00000350: dc66 52bd 6035 c5bd 8395 84bd 5663 6fba
00000360: c1d6 0ebe 041f 933c 370e c8bd 1d8b 8dbd
00000370: 34ec a8bd 1a4a cabd aafc fabc dcb4 db3c
00000380: 5622 f7bd 2444 6a3d d5a2 ee3c f763 0bbe
00000390: 4e76 a63d efc0 a2bc 65a9 12bd 02d3 0b3d
000003a0: 70a2 99bc dbd7 873d e215 f4bc 378b 313d
000003b0: cfb3 23be 5e36 52bc 4b4f 8f3c 4886 12be
000003c0: 263b 363d 1c7e 7a3d 8873 b43d 5cf5 0e3d
000003d0: 7746 0bbd ae62 a7bb a6e3 ddbb 1c52 cdbc
000003e0: b7ef 893d 5b3d 943c 256e 64bd 8976 043e
000003f0: 26b8 333d a0ab 7ebd 2782 03be b74a 843d
0.10733433 -0.018643368 -0.062008765 0.08184783 0.023241846 -0.060105458 0.018498331 -0.0836116
-0.03342977 0.034834612 -0.001826958 0.04631747 0.023714384 -0.026265144 -0.007917104 -0.0141342
0.07289267 -0.11490761 -0.19256419 0.06371672 -0.06697466 0.026979715 -0.04134739 0.01814298
-0.005802133 -0.101986535 0.012073366 0.009361702 -0.065283045 0.0063607134 -0.06303765 0.106497765
0.077034056 -0.06212546 -0.05857924 -0.0106496215 -0.0039152456 0.14697804 -0.021757575 -0.022183264
-0.15632829 0.06746134 -0.08357813 -0.05125448 -0.03409518 -0.08269484 -0.03571218 0.026530206
0.015562864 -0.039760824 0.011317164 -0.10097263 -0.051138487 -0.11826294 0.056316998 -0.08766009
0.043438196 0.10339193 -0.051306903 0.03940454 0.08547395 -0.13816987 0.0760604 0.07060145
-0.048393436 -0.015379948 -0.03420145 -0.026018178 -0.038917866 0.019266903 -0.032319605 -0.023566399
-0.048616625 0.099764906 -0.08462824 -0.027293699 0.05744309 0.10850283 -0.027250156 -0.03844617
-0.13710724 0.016703855 -0.05243076 0.24477527 -0.061968178 -0.099135876 0.07100528 -0.12061158
-0.0051186928 0.03170527 0.006954931 -0.026839573 0.0028929813 -0.10449708 -0.13159946 -0.1456568
0.013245358 -0.035724048 -0.030683424 0.060494307 -0.17051971 -0.08792334 -0.14260247 -0.014385778
-0.020317351 -0.06441044 -0.042730678 -0.030872732 -0.07483532 -0.022614177 0.07851364 0.06944301
0.0072630425 -0.034034174 0.07978101 0.08132461 -0.056871526 0.0066352887 -0.0721394 -0.17871888
-0.07498132 0.082037605 -0.11048484 -0.06060062 -0.20651245 -0.051591296 -0.043606058 0.040451508
0.030300958 0.04279116 -0.011112764 -0.023508783 0.013608792 -0.0163033 -0.029176977 -0.02495437
-0.07031932 0.02560245 -0.06389456 0.033865023 -0.0041693468 0.124158256 0.03297182 0.12425361
0.07550966 -0.12558927 -0.029273046 -0.00984965 0.1141653 -0.006080758 0.033737365 -0.13072035
-0.105787806 0.07985399 0.033200987 0.0072529013 -0.004481171 0.03884461 -0.030591905 -0.018176403
-0.076580755 0.017706688 -0.109543 0.03997493 -0.05126717 0.06111289 0.058270197 -0.041157395
0.0070632813 0.024926824 -0.030032601 0.036309328 0.013200726 -0.0040120194 0.003496749 0.026330039
0.055757016 -0.118743844 -0.09569328 -0.11404329 0.070064485 0.008907293 -0.041189536 0.0077700224
-0.03844201 -0.15167333 -0.04720494 0.033296995 -0.07883252 0.015578306 -0.05325468 -0.038391437
0.0062213694 0.07518491 -0.048011832 0.038392067 -0.0131209595 -0.07840738 0.01063171 0.007634983
-0.016431477 -0.074436665 -0.055486713 -0.022585249 -0.008569692 -0.04365264 0.13188745 0.02323335
-0.0055376072 0.0016012351 0.045455236 -0.061063856 -0.051367626 -0.09629321 -0.064738296 -0.00091319287
-0.1394911 0.017959125 -0.09768336 -0.069112994 -0.08248177 -0.09877415 -0.030638058 0.026819639
-0.12067096 0.05719389 0.029130379 -0.13612352 0.081280336 -0.019867389 -0.03580608 0.03413678
-0.018754214 0.06632968 -0.02979559 0.043345656 -0.1598656 -0.012830345 0.017493865 -0.14309037
0.044490002 0.061155424 0.08811098 0.03490196 -0.034002747 -0.005108199 -0.0067715226 -0.025063567
0.06735175 0.018095663 -0.055769105 0.12935843 0.04387679 -0.062175393 -0.12842618 0.06459563

a2c_network.actor_mlp.2.bias f4 [128]
00000000: 1671 92bd 7f26 82be ad97 31bd aba8 48be
00000010: d7d0 a6be e235 6dbe da31 86bd ae0b bbbd
00000020: 942f 10be 8712 f0bd 4e38 76bc 1766 71be
00000030: f302 53bd ea7b 0bbe 3f0f 73be bb40 003e
00000040: 48db 3a3d 5a69 1dbc 5ead a73d e930 32be
00000050: fa80 69be 8c4c 1fbc b9c5 e33d 39e0 04be
00000060: 0a0f 623c 7028 f1bd b9da 25bd 0c83 49bc
00000070: f034 ccbd efda a2bb 04c2 bb3d c078 61be
00000080: 09bc 4ebe ad44 823d 0bca 24be 639d 0abb
00000090: 6d10 273e 27e5 26be 8825 0c3e b68c 573d
000000a0: 601b 0e3d b265 043e 3a4c 283e 7b3a ebbd
000000b0: dceb 56be d727 93be d98d b8bd 916c e13d
000000c0: bf8a d6bc 890f cc3b 50cb 823d a17f b2bd
000000d0: 31f8 93bd f098 8ebd e969 263c 37a6 6abc
000000e0: f0f6 173d 6142 5d3e 5724 dbbd a19f 8cbe
000000f0: ce33 ddbd 67a5 acbd 8cdc 063e 93eb c1bd
00000100: a632 a33d 4782 87bd 1d66 8cbd 3fb4 e5bd
00000110: 2ffb 343e fa1b 91be a9e7 6dbd be9a 36be
00000120: 8a45 7dbe 0616 6c3d cf4b 973c 7b4f 683d
00000130: c1a1 ac3c 0e3b c7bd 14eb e73d 862e 1ebe
00000140: 7c3c 76be a697 9a3c a115 a3bd 0b90 43be
00000150: 3d6c 82bd 081a 1ebe 040f 103d bd8f e1bd
00000160: fe43 9fbd d15c ebbc 3fd2 783d 5162 a33c
00000170: d947 8dbe 1b3c d43c f307 663d 490f ce3d
00000180: f51a 8abe e619 edbd 3489 e0bd cd05 103d
00000190: 1eb0 043e 978d 38bd 403e a9bd 66f4 f7bd
000001a0: 542f 0abe 7f2a 1fbe 765c c5bd 676d 7ebe
000001b0: c2c3 8cbe e1ea 543d ac6e 9c3d 9fbf 6ebe
000001c0: 31fc fbbc 36d0 31be 179e 94bd 0218 803d
000001d0: 769b 50be 979b babc 6770 0f3e b3bd b9be
000001e0: 12b7 27be c7b2 8f3d 3d3d 82bd 3965 113e
000001f0: 26e4 39be a4cd 8dbe 8507 41be 43bb 713c
-0.07150476 -0.25419995 -0.04335754 -0.19595592 -0.32581207 -0.23165086 -0.06552477 -0.09133087
-0.1408065 -0.11722284 -0.0150280725 -0.235741 -0.051516484 -0.13621488 -0.23736285 0.12524693
0.04561928 -0.009607637 0.08187364 -0.1740147 -0.22803107 -0.00972284 0.11121697 -0.12976159
0.013797531 -0.11775291 -0.040491793 -0.01229931 -0.099710345 -0.0049699466 0.09167865 -0.22018719
-0.20188917 0.06360755 -0.16092698 -0.0021150939 0.1631486 -0.16298352 0.13686192 0.052624427
0.034694076 0.12929419 0.16435328 -0.11485764 -0.2098841 -0.28741333 -0.0901143 0.110070355
-0.026189206 0.006227438 0.06386435 -0.087157495 -0.07225073 -0.06962764 0.010157087 -0.014321855
0.037100732 0.21607353 -0.10700291 -0.27465537 -0.108008966 -0.084299855 0.1317007 -0.0946876
0.07968645 -0.06616645 -0.06855414 -0.1121602 0.17673944 -0.28341657 -0.058082256 -0.17832467
-0.24733558 0.05763819 0.018468766 0.056716423 0.021073224 -0.09728061 0.113241345 -0.15447435
-0.2404651 0.01887114 -0.0796311 -0.19097917 -0.06368301 -0.15439618 0.03517057 -0.11013744
-0.0777664 -0.028730782 0.06074738 0.019944342 -0.27593878 0.025907567 0.056159925 0.10061509
-0.26973692 -0.11577205 -0.109636694 0.035161782 0.12957808 -0.045056906 -0.08263826 -0.12107162
-0.13494617 -0.15543555 -0.09636776 -0.24846421 -0.274931 0.05198181 0.076382965 -0.23315285
-0.030759903 -0.17364582 -0.07256716 0.06254579 -0.20371804 -0.02277927 0.14007722 -0.36277542
-0.1637843 0.07016521 -0.063593365 0.1419877 -0.18153438 -0.27695954 -0.18850525 0.014754119

a2c_network.actor_mlp.4.weight f4 [64, 128]
00000000: 5354 983c f5c0 b4bc 84c8 c03d 5fe6 e0bd
00000010: 7d88 da3d 9f0d 08bd 2418 5fbe 0e0d 523c
00000020: d8e5 023d 481a b43d 0cd2 263d f06b 73be
00000030: 013f 943d 9aac 633d 2a99 aeba 3a86 e0bd
00000040: 31c0 733d 2b39 98bd cbf3 22be 9df2 833d
00000050: b6bd 08bd 915d 71bd 3318 87bd 6fb4 45be
00000060: b74f 913d 2ab2 323d 0fab a33d 96c3 9cbc
00000070: 74c1 cbbd 27aa 233c 7f0f 853d 436b 05bd
00000080: bf60 41be 38e0 8abc 730c 7abd 563e db3c
00000090: f4bb 7abd 129a acbd 79c3 c13c a2ee ad3d
000000a0: 10c9 f13d 5325 24bb 356d 3dbd a80e 1fbb
000000b0: 36fe 173e d1a0 2fbe 45df b6be 9e6a 883d
000000c0: 6384 22bd e331 d3bd eb3e 233b 2c89 d23d
000000d0: 2efb 9d3d 7b2e a7bb a979 e83a 7d38 14be
000000e0: 471a c5bd 354d 75bd 425f d1bc da17 06bd
000000f0: 3ae8 b8bb 2caf d53d be56 0ebd fbdc 49be
00000100: f58d 3f3d 358a c1bc 5acc f33c a7d6 0bbb
00000110: a198 c0bd 31ba a1bd 91b4 44bd ab92 17be
00000120: 26b3 b0bd 5f9b 613d 9a65 11be d857 383d
00000130: 46a2 99bd 1a46 433c b1d0 00bd 368a 593c
00000140: 8df5 b63d bb7e 0dbc 28e3 493d 2ec7 fabc
00000150: 5b97 21bc de1b c33c f0fb 4ebb 25fb 2e3d
00000160: d030 64bd eedb b53c 5c15 3dbd 57c3 0c3d
00000170: 2413 a7bd 3fa8 cdbc 71e7 cfbd ed3e 43bd
00000180: b208 143d 2022 cbbe 7f0d b7bc 76c9 80bd
00000190: 6b9a a6bc b9ff f3bd bd8a 85bc 8095 15be
000001a0: ff8c 04be 8431 e03d 3877 243d 6496 c0bd
000001b0: b196 0a3d 4339 adbd dcb2 a23d 7004 0e3d
000001c0: c9a3 8b3c a85a 123e e375 6dba 5d79 3e3c
000001d0: 7c72 113b 84af 603d 632e 55bd 544c 5d3d
000001e0: 4740 25bd 07cc 00bd 3f3f 1b3b c8aa 99bd
000001f0: 9e54 0fbe 0bbf 533c 98c9 08be 5611 f6bd
00000200: 12f0 cf3c 0c70 28bd 7359 60bd 3597 20be
00000210: 2722 9bbc be9b 7abd 3cd4 1abd c1e6 3bba
00000220: 0fd5 a93c e033 abbd 08d9 3fbc ffd1 12be
00000230: 2c07 edbb d6db bd3b 8e14 e3bd 7bf2 05be
00000240: d49f a4bd 402f 55bd 5041 b6bd 7b07 dfba
00000250: 2759 f93c efc5 69bd 4c22 8bbd 53b1 9c3d
00000260: 4256 81bd 6863 b83d 6c63 29be e350 ad3d
00000270: fc62 d33c 5510 573c 054a 41be 2ba4 4c3d
00000280: 1599 19bd f6b4 01bd d9cb 04bd 8047 4b3d
00000290: 609b 2fbe b0c0 b6bc 40a2 b9bd ab45 11bd
000002a0: 2fce 733d 3186 503d 841f cfbd f6a6 8bbb
000002b0: 037a b03d 0de4 b9bd ef70 bcbe 0552 82bd
000002c0: 0b07 c43b 1883 173d 03d1 0bbe 5f21 1abd
000002d0: d874 83bd 026c 9cbc ee9b e3bd bf5c 143e
000002e0: 7851 823d 0977 39be 531f 2b3d b3be 38bd
000002f0: 5a75 053e e880 f2bd 2287 80bd aad1 85bd
00000300: a91c 683d de4d 58bd 5f39 3fbd 96d3 dd3d
00000310: 00cb d3bd 7992 f3bc 5a19 ba3d e3d2 0abe
00000320: 62e0 07bd 5c32 c4bd 20f4 82bd f7cd 82bd
00000330: a9b2 1bbd 52f3 7bbd a116 7d3c b77e 0fbe
00000340: a385 e43d c4e4 84bd d005 48be 0681 2d3d
00000350: cb0a b53c defd 6dbd 3321 94be 922d dabd
00000360: 7082 61bd f5f8 5a3d a474 363c 3481 783d
00000370: 9b50 a9bd c718 37bd 0cbf 103d 2a37 853d
00000380: 893f 0abd 75d3 bb3c a605 da3c ef30 babd
00000390: 1030 bdbd e093 4c3d 5f47 74bc d1ef 09bf
000003a0: 04c5 febd a91c 883d f48b 46be 259c a2bd
000003b0: 065d fabc 8da0 8fbc 4942 f63c 5ffb fdbd
000003c0: f28b 8f3d cc6e 8039 2f80 c6bd 8b0e 3cbe
000003d0: 64c8 473b 7162 59bd 2e1a 18be eaf9 563d
000003e0: ac87 03bc 6e1c 45bc 666b 0abe 5eec 35be
000003f0: 97da 9abc 155f 5ebd cf3c 7bbe 1032 b5bd
0.018594896 -0.022064665 0.09413245 -0.1098144 0.10670564 -0.033216115 -0.21786553 0.012820495
0.031957477 0.08794075 0.04072766 -0.23771644 0.072385795 0.055584528 -0.0013320793 -0.10963102
0.05950946 -0.07432779 -0.15913312 0.06442759 -0.033384047 -0.058927123 -0.065964125 -0.19307111
0.070952825 0.04362694 0.07991611 -0.019136231 -0.09949008 0.009989298 0.06497096 -0.032572996
-0.18884562 -0.016952619 -0.06104703 0.026763123 -0.061214402 -0.08427824 0.023652779 0.08492781
0.11805928 -0.002504666 -0.046246726 -0.002427021 0.14843068 -0.1715119 -0.35717216 0.066609606
-0.039677035 -0.103122495 0.0024909328 0.1028007 0.07713924 -0.0051019765 0.0017736453 -0.14474674
-0.09624153 -0.059888083 -0.025558118 -0.03273759 -0.005642918 0.10433802 -0.034750693 -0.19713204
0.04676624 -0.023625473 0.029760528 -0.002133766 -0.09404112 -0.07896841 -0.048023764 -0.14802043
-0.0862792 0.055079814 -0.14198914 0.04500565 -0.07501654 0.011918569 -0.031449024 0.013277581
0.08933554 -0.008636172 0.0492889 -0.030612554 -0.009862746 0.023816999 -0.0031583272 0.04271998
-0.055710614 0.022199597 -0.046162948 0.034365978 -0.08157948 -0.02510464 -0.10151566 -0.047667433
0.036141105 -0.39674473 -0.022345303 -0.062884256 -0.020337304 -0.119140096 -0.016301507 -0.14607811
-0.1294441 0.10946944 0.04015276 -0.09403685 0.033835117 -0.084581874 0.07944271 0.0346722
0.017045872 0.14292395 -0.0009058399 0.011625615 0.0022193482 0.054854885 -0.05204619 0.05402787
-0.040344503 -0.031444576 0.002368882 -0.07503277 -0.13997123 0.012923966 -0.13358152 -0.12015025
0.02538303 -0.04112248 -0.054772805 -0.15682681 -0.018937184 -0.061183684 -0.03780006 -0.0007167869
0.020731477 -0.08359504 -0.011709459 -0.1433792 -0.007233521 0.0057940288 -0.11087905 -0.1308078
-0.08038297 -0.052047014 -0.08899176 -0.0017015779 0.030438019 -0.05707353 -0.06793651 0.076510094
-0.063152805 0.09003335 -0.16541833 0.084626935 0.025804035 0.013126452 -0.18875892 0.04996125
-0.037499506 -0.03166672 -0.032420967 0.049628735 -0.17149115 -0.022308677 -0.0906415 -0.03546683
0.059522804 0.050909225 -0.10113433 -0.0042618467 0.08617022 -0.090767 -0.36804911 -0.063633
0.005982285 0.036990255 -0.1365395 -0.03762948 -0.064187706 -0.01909447 -0.111137256 0.14488505
0.06363195 -0.18111815 0.04177792 -0.04510374 0.13033047 -0.11840993 -0.062757745 -0.06534131
0.056667957 -0.052808635 -0.046685573 0.108313724 -0.103414536 -0.02973293 0.09086867 -0.1355701
-0.033172973 -0.09579918 -0.063942194 -0.06386941 -0.03801218 -0.061511345 0.01544729 -0.14013182
0.11158302 -0.06488946 -0.19533467 0.042359374 0.022099873 -0.058103435 -0.2893158 -0.10653223
-0.055056036 0.05346008 0.011136208 0.060670093 -0.082673274 -0.044701364 0.035338446 0.06504662
-0.033751998 0.022927979 0.026614022 -0.090913646 -0.09237683 0.049945712 -0.014909594 -0.53881556
-0.124399215 0.066460915 -0.19389325 -0.079399385 -0.030561935 -0.017532611 0.030060904 -0.12401461
0.07009114 0.00024496613 -0.09692418 -0.18364923 0.0030484432 -0.053072397 -0.14853737 0.05248443
-0.008027952 -0.012030704 -0.13517532 -0.17765948 -0.01890306 -0.054289896 -0.24534915 -0.08847439

a2c_network.actor_mlp.4.bias f4 [64]
00000000: 13ca 003e 7a9b b33d 819b aebd 605e 84be
00000010: f939 e53d e1c5 a13d 8c57 a3be 62d3 f4bc
00000020: ee65 3b3c 2b0b 2d3e cc6c 2e3e c9a7 1ebe
00000030: 02bf 813d f6a5 44be 92ca 093e ccbb 56bc
00000040: 19b6 0fbe b0ec d33d f818 b33d 6ffa 283e
00000050: e624 5dbe 3be2 4e3d 4840 14bd 2a6f 12be
00000060: 8dda 93be ac7a 54be 6a90 173d e8cb 25be
00000070: dcb3 d43d 91b7 96bc 5102 993d 2e2b a03d
00000080: 652a 58be 2cde a93d 324e 973d 2e15 6bbe
00000090: b238 bc3d b801 5b3e 8f68 8fbe e376 193e
000000a0: 2b1c f6bd 955f 57bd 89fc 27be 4823 013e
000000b0: 8f59 4dbe 75b5 0b3e 5928 24be 5d83 7abe
000000c0: d51d 973d 3557 9a3d aace 803d 87d7 75bd
000000d0: ead3 07be 86d8 bcbb 74c2 19be 4cd5 8fbe
000000e0: 04ec bf3d 0ebb 293e c67f 46be 3cc3 81be
000000f0: eb22 18bc 8e46 dabc 26f4 4cbe 5a04 d83d
0.12577085 0.08769889 -0.08525754 -0.25853252 0.11192698 0.078990705 -0.3190273 -0.029885951
0.011437876 0.16898791 0.1703369 -0.15493692 0.0633526 -0.19203934 0.1345618 -0.013106298
-0.14034308 0.10347879 0.08744997 0.16501783 -0.21596107 0.05050872 -0.036194116 -0.14300218
-0.2887768 -0.2074992 0.03700296 -0.16191065 0.10385868 -0.018398078 0.07471145 0.07820736
-0.21109922 0.08294329 0.073879614 -0.22957298 0.09190501 0.21387374 -0.2800946 0.14986758
-0.12017091 -0.05258139 -0.16404928 0.12611115 -0.20053695 0.13643439 -0.16031016 -0.24464174
0.07378737 0.07536165 0.06289418 -0.060019996 -0.13264433 -0.0057631163 -0.15015584 -0.2809242
0.09371188 0.16575262 -0.19384679 -0.25344265 -0.009285669 -0.026644971 -0.2001501 0.10547705

a2c_network.value.weight f4 [1, 64]
00000000: 56bf af3d 7775 c53c 0a33 12bc 156b 05ba
00000010: 2f32 d23c d558 b13d 807e 73bd f0e9 debc
00000020: a326 09bd 7996 863d a891 903d 0bda 893c
00000030: a15a 11bc 81f4 34bd a868 043d 25c5 e2bd
00000040: 2eff 243d 5d37 0f3e eda3 4b3c 5c16 b83c
00000050: 6a2d e9bc d4e2 07bd 62a5 903d f6f7 b33a
00000060: ff77 3c3c add9 00be f019 b5bd f738 21bd
00000070: 9b9c 4b3c 1d26 44bd 1d1f acbc ae6e 07bc
00000080: d68b 04bb 30c2 c03d af17 383d 7cd2 22be
00000090: 348c 84bc 6316 dbbc 1904 3dbd bd18 56bc
000000a0: fe99 40bd fdb9 cf3c dffd ec3c 3efd fe3d
000000b0: ca68 28bd 7266 043e 5789 c5bc 5446 a3bb
000000c0: 37ba cd3d b0db 1fbd d5db ea3b fb64 963b
000000d0: 8dd2 f63c 2c64 7e3b 3abb 263d 943c a2bd
000000e0: 8a68 ad3d e3da eb3d 4001 be3d cf7a b9bd
000000f0: 997f 3f3d cd46 d73b 6b89 34bd c7db 91bc
0.08581416 0.024103863 -0.0089233015 -0.0005089504 0.025658695 0.086595215 -0.05944681 -0.02721116
-0.033484112 0.06571669 0.07059032 0.016827604 -0.008871705 -0.04417849 0.03232637 -0.110727586
0.04028242 0.13985963 0.01242922 0.0224716 -0.028464038 -0.033175305 0.07062794 0.0013730514
0.011503219 -0.12583037 -0.08842838 -0.039360967 0.012427474 -0.04788791 -0.02101093 -0.008266134
-0.002022495 0.09412038 0.04494446 -0.15900606 -0.016180135 -0.026744073 -0.046146486 -0.0130674215
-0.04702186 0.02535724 0.028929649 0.12450646 -0.04111556 0.12929705 -0.02411334 -0.004982749
0.10045283 -0.03902787 0.0071673193 0.0045896745 0.030129695 0.0038817031 0.040705897 -0.079217106
0.08467205 0.11516359 0.09277582 -0.09056627 0.046752546 0.0065697194 -0.044076364 -0.017804993

a2c_network.mu.weight f4 [7, 64]
00000000: 661e 46be 6de0 88bc 2ee3 62bb 9364 0b3d
00000010: 0f39 d2bc f446 00bc 8668 4e3d caec 3b3c
00000020: e040 6b3d 83a2 b8ba 34eb ecbc 2d15 a7bd
00000030: ec48 ae3c e956 1bbb e0cf 18be 0aa8 9ebc
00000040: 57ae 203d 79eb 3fbd 64c7 b4bb e073 333d
00000050: f254 1d3d 5a2e e43d fae2 fe3c 9d2e 013d
00000060: 1508 b4bc abb6 263d a5fe 3ebd 69ba 663e
00000070: d5ea a3bd 4ba0 8bbd e338 ab3c 6d3b b03d
00000080: dff1 1ebd 6a9f ec3c e94b 293c 25ba 8b3c
00000090: 6e7a e9bc dcab b13a 2633 3b3d 6d52 c93c
000000a0: 86a0 c4bd aa12 ecbb 7b9a b13d f922 863d
000000b0: 3ffc 3bbd 4bdd c23d 1aec 2bbe fd87 3fbc
000000c0: 3ce6 c23c bd47 043c 073f d7bd e0ba 233d
000000d0: 577b 98bc 0da5 b8bd fc84 d2bc 5466 e53c
000000e0: 3c21 abbb e248 f53d 24cd 30bd f951 863d
000000f0: 2ea0 df3a c356 ccbc ef2c 03bb da94 343d
00000100: 21bf 5dbd 1bad 043e 21db 3b3b ecc4 36bd
00000110: 966c 79be 61e6 303d 7896 e73c 6b9b e6bd
00000120: ab2d 8abb 9666 87bd e98f c5bc 45b4 f73b
00000130: acd6 713c a1b4 cebc b7bd 08bd f6a7 a73b
00000140: 86d9 123c 815b 333e 3976 ccbb 8f78 db3c
00000150: a4fa 48bd 55d7 183e 2b1d 9ebb 4357 a8bc
00000160: 7e11 a3bd d437 31bd d969 083d e28c 9e3c
00000170: fe27 81bd 43b4 3d3d 46e4 45bc 746e 7cbc
00000180: 1f3c 073d 6031 973c 539c d7bc 8926 2aba
00000190: d170 f13c 34c1 53bb 52a1 49bd 122f 91bc
000001a0: d138 103d 2883 aabb b02b 633d d9f9 bdbd
000001b0: 295c a2bc cd95 ef3c 6488 4a3d f1c9 8ebd
000001c0: 662a 073d c0f6 0bbd bf51 dcbc 8f3a b1bc
000001d0: 88c9 c03c 5f4b 57bd e362 17bc 830c d93a
000001e0: 1edc 8b3c 7f4e 4fbc 332f af3c 4432 2d3d
000001f0: dc07 b339 8424 cfbc b30f a5bd c112 88bd
00000200: 64a1 d3bd c21a 15be 8635 74bd 2063 4a3d
00000210: d2af 19bb a2db 813d 217b 253e 2553 ed3d
00000220: 3bd1 9d3d 2bdd bdbd bf1e fabb f31d e2bb
00000230: 51e5 84bd 852e 63bc 0b76 8f3b 9eaf 56bd
00000240: 14e4 82bd 1f48 a4bd c206 43bb ab37 9fbd
00000250: 5c4c 7a3c 615b e53d 0fdc cebc fba3 8e3d
00000260: 7931 dc3d 9d42 913d 6aea 073d 8808 953e
00000270: 62d0 0abe 79ac d93d d0c0 c2bd 9e0d 1d3d
00000280: 7a22 ed3c c5c4 513c 1be1 393c d5e1 90bc
00000290: 8779 95bd b1cd 0fbd 105f 2c3d 6091 31be
000002a0: 9f65 aebc f710 0ebd 7a69 fcbd f441 c7bd
000002b0: 654a 5f3e b1df bcbd a84c af3d 9185 e1bd
000002c0: 1e4e 863b d5aa 02bd 6a3b b33d 7392 a33c
000002d0: 7790 df3d 2a5e 683e 30a0 063e d7b6 febd
000002e0: 4a08 fe3c 695d 85bd 85bd 1c3e 6037 943d
000002f0: 3f1f 64bd b16b b83d fbc6 603a 20e6 9ebc
00000300: 2a98 a13d 14d1 38be 47be e13d 2dbf 8dbc
00000310: cfd3 d0bd 7f7c 24be 1e9f 003e 4afa 80bd
00000320: d8dc b4bc 4fcb adbc 5c30 7bbc fffa f8bd
00000330: df7d b63d 2caf 133e 3967 16bd 15b0 5ab9
00000340: 386c b63d f88f 46bd 410e 8d3c b246 e1bd
00000350: d40d ac3d 7f60 073e de6b c33d b3d9 003d
00000360: 053a 5bbc 1ca4 c5bd ebf0 5bbb 7a64 ecbd
00000370: 69e8 2b3e fbba 11bd 61e7 0a3c 836f 943e
00000380: f2c5 2bbd 10d8 fd3c 36cf 033d 749b 36bc
00000390: c618 4dbe f161 92bd ce2b f9bd 53bb bb3c
000003a0: f118 88bb 5dcb dbbd 62a8 523d 88d4 0ebd
000003b0: 9ee1 103d b153 a93c c717 443b 6e82 993d
000003c0: 2007 283d 1e2e 07bd c8d2 57bd 9f53 44be
000003d0: 9fc7 013d f35f fdbb 1160 8e3d 498a eb3c
000003e0: 7ccc 83bd 6077 18be 6586 893c 69d5 c03c
000003f0: af6f 87bd 7dec 92bd 1f5f f73c cce3 babd
-0.19347534 -0.016708577 -0.0034620273 0.034031462 -0.025661973 -0.007829417 0.05039265 0.011470029
0.057434916 -0.0014086518 -0.028920747 -0.08158336 0.021275006 -0.0023702926 -0.14923048 -0.019367237
0.039228763 -0.046855424 -0.0055169333 0.04381168 0.03841109 0.11141653 0.03111409 0.031538595
-0.02197651 0.04070155 -0.046629567 0.22532047 -0.08003775 -0.06817683 0.02090115 0.086050846
-0.038804885 0.028884608 0.01033304 0.017056534 -0.028500762 0.0013555246 0.045703076 0.024575436
-0.0960093 -0.0072043734 0.08672043 0.06549639 -0.045894857 0.095148645 -0.16789284 -0.011690137
0.023791425 0.008073744 -0.105100684 0.03997314 -0.0186135 -0.09015856 -0.025698178 0.028002895
-0.0052224677 0.11976792 -0.043164387 0.06558604 0.0017061287 -0.024943715 -0.0020015796 0.04408727
-0.054137353 0.1295666 0.0028664547 -0.044621393 -0.24357828 0.043188456 0.028269991 -0.112601124
-0.00421687 -0.066113636 -0.024116473 0.0075593316 0.014760654 -0.025232615 -0.03338405 0.005116458
0.008962994 0.17515375 -0.006239679 0.026790885 -0.049067155 0.14925893 -0.0048252544 -0.020549422
-0.07962321 -0.043266132 0.03330407 0.019354288 -0.06306456 0.04631449 -0.01207835 -0.015407193
0.03301632 0.018456161 -0.026319658 -0.00064907275 0.02947274 -0.0032311203 -0.049226113 -0.01772264
0.035210434 -0.0052036233 0.055461586 -0.0927617 -0.019819336 0.029246235 0.04944648 -0.06972111
0.03299942 -0.034170866 -0.026894448 -0.021634368 0.023533598 -0.052562114 -0.009239885 0.0016559515
0.017072733 -0.012652992 0.021384811 0.042284265 0.00034147396 -0.025285967 -0.08059635 -0.06644202
-0.10333517 -0.14560989 -0.059621356 0.04941094 -0.0023450744 0.0634072 0.16160251 0.11588124
0.07705923 -0.092707 -0.0076330598 -0.006900543 -0.06489051 -0.013866072 0.0043780855 -0.052413575
-0.06391159 -0.080215685 -0.0029758667 -0.0777429 0.015276995 0.1119907 -0.025251416 0.069648705
0.10751624 0.070927836 0.03318254 0.2910807 -0.13556054 0.106286 -0.09509432 0.038343064
0.028947104 0.012803261 0.011345173 -0.01768581 -0.0729857 -0.035108272 0.042082846 -0.17340612
-0.021288691 -0.034684148 -0.123248056 -0.097293764 0.21805723 -0.09222353 0.08559543 -0.11011804
0.0040986678 -0.0319012 0.08751567 0.019967293 0.10916226 0.2269217 0.13147044 -0.12437218
0.031009812 -0.06511957 0.15306671 0.072371244 -0.05569386 0.090049155 0.0008574572 -0.019396842
0.07890351 -0.18048507 0.11022621 -0.017303074 -0.10196649 -0.16063116 0.12560698 -0.06297739
-0.022077963 -0.02121511 -0.015331354 -0.12157249 0.08910727 0.14422292 -0.036719535 -0.00020855696
0.0890736 -0.048477143 0.01721871 -0.10999812 0.08401075 0.13220404 0.095420584 0.031457614
-0.013380532 -0.09650442 -0.0033560346 -0.11542602 0.16787876 -0.03557871 0.008478017 0.28991327
-0.041936822 0.030986816 0.032180034 -0.011145461 -0.20028982 -0.07147587 -0.12166558 0.022916472
-0.004153364 -0.10732148 0.051430114 -0.034870654 0.035371415 0.02066979 0.00299214 0.074955806
0.04102242 -0.033002965 -0.05269125 -0.19172524 0.031684514 -0.0077323853 0.06951917 0.028752463
-0.06435487 -0.14889288 0.016787717 0.023539262 -0.06613099 -0.07174013 0.030196724 -0.0912548

a2c_network.mu.bias f4 [7]
00000000: 0641 2abd 110f d9bc 0cc4 82be 656c 273d
00000010: f65b 6fbd 151d 31bd adaa 6dbe
-0.041565917 -0.026496442 -0.25540197 0.040874857 -0.05843731 -0.043240625 -0.23209639

exp_avg f4 [7]
00000000: 4135 9c3a 605a 353b 54c5 163b a097 21ba
00000010: 9a32 173a c496 f7b9 7d3e dc39
0.0011917726 0.0027672276 0.00230058 -0.00061642565 0.0005767733 -0.0004722384 0.00042008227

exp_avg_sq f4 [7]
00000000: 88d2 b638 c871 b038 0582 c038 ff87 b438
00000010: f36d af38 a467 9938 11f2 bc38
8.717651e-05 8.4135274e-05 9.1794915e-05 8.6084e-05 8.36513e-05 7.314913e-05 9.009627e-05

exp_avg f4 [256, 19]
00000000: e775 7038 54a9 993a ac7f bd3a 3246 1f3b
00000010: 1376 d638 6b86 ffba 087c b838 c530 31ba
00000020: 63f0 ad3a 6d09 ecb8 fd97 d837 f4e3 fcba
00000030: 3ab7 13ba fc1a 1dba 8ba1 e239 e3cb 8039
00000040: 4155 6cb9 2e98 de3a 0e51 7f3a 1d74 223a
00000050: ec28 bdb9 d0ea 5d3a 058c e2b9 1dae 7fba
00000060: afb2 09ba 3ccd 99b8 a1e0 253a f881 003a
00000070: 7374 2738 9afa 75ba 3d29 04ba 68c1 36b9
00000080: 936e 4aba 7d25 783a 476e 013a fbfd 83b9
00000090: 8bf1 61ba b979 0aba e8d9 bf39 76fb 8e38
000000a0: 3350 23b9 4c6e 3439 5035 a2b9 890e efb9
000000b0: b4fd 3e39 b713 3639 324e a339 c0bd ecb6
000000c0: 6f7c 7db9 1624 e9b9 b916 1eb9 5c16 473a
000000d0: 1317 87b9 1ead 9739 4722 053a 35e1 82b9
000000e0: 5d42 1cb9 b31b 69ba 3c6a e7b9 4106 27ba
000000f0: 91c3 de38 74bf a93a d32b ae3a 459d b438
00000100: 542f 7dba b7a8 34ba d4a6 f2b8 78b2 a33a
00000110: f9bf 9f3a d948 583a db24 f63a 058c 05b9
00000120: 0261 17b9 ea98 8c39 ae78 97ba 5ab9 34b9
00000130: 35bc b0b9 2abb aeb9 089b 28ba 9bed 7c38
00000140: 9b11 6c39 45ac 393a c0da e636 6ab9 21b9
00000150: 8fb4 04ba 31db cc37 e6f0 8739 8e66 363a
00000160: 7c47 2139 09fa 643a 1e13 5fb9 74eb 40b9
00000170: 914d 3539 65c6 1dba c6a5 2ab9 97e7 0439
00000180: bb0b f6b8 fbc0 453a 93ee a337 d9da 94b9
00000190: 3b76 10b9 16e1 50b9 5e08 fd38 ffbe 6337
000001a0: 0c73 1139 11f2 87b9 8a09 17b9 9ea3 ceb8
000001b0: 8605 8cba 552c 2f3a eb2e 13b9 2479 c6b9
000001c0: d0ec c238 5f2d a2b8 1605 e037 cf12 c238
000001d0: 38a1 93ba 54ba ea3a cf9b d53a 33eb 19ba
000001e0: 998c 5039 17d0 8aba 6942 0e3a 9da1 04b8
000001f0: 6011 cb3a a577 28ba 056a 2039 91c0 363a
00000200: 80b9 33b9 0fcc d4b9 ae88 4b3a 327a 69b7
00000210: 007e f938 7595 6c3a 795a feb9 2e8d dc3a
00000220: 0a07 25bb f426 3fbb aede 08b8 bf60 d4b8
00000230: 095a 083b 5de8 9c38 ee4e 9038 078c 36bb
00000240: 50e3 1739 0049 21ba fb72 caba 006c 153a
00000250: 6c37 433a dc83 4aba 0ec5 07ba 1cb7 10ba
00000260: 4e56 11bb 2512 17b8 8189 b4bb b2c3 a53a
00000270: 1967 b03b 63a6 6c3b 5f05 0eb8 b94f 7fbb
00000280: f9ff 22bb 51fe 40b9 0ea0 ac3b 5bd7 563b
00000290: 20a5 f53a fecc 8d3b c307 35bb 01a9 25bb
000002a0: e731 963a 7288 54b9 d647 5939 d3fc b239
000002b0: 1ba2 b639 8976 e2b9 07db 1a39 7fa2 a738
000002c0: b27c 8cb9 8396 dab8 a7b5 d735 4cb9 ee38
000002d0: 1c37 5c38 8d9b 9738 803e 5bb9 5642 6cb9
000002e0: 6d43 b2b9 3240 b7b9 af5f b5b9 9d92 72b8
000002f0: 91b4 873a 780e e339 d4a2 1fb8 f44d 6ab8
00000300: d6d6 feb8 7132 54ba d41b 0b3a 258d 483a
00000310: d4f3 82b8 6575 41b9 57bc 27ba e3e9 87b7
00000320: 88f5 073a 28ef 423a 24ca 1b39 93a0 13ba
00000330: 7e33 f539 397d fab9 73db 61b9 580a d3b9
00000340: 50c3 9bb9 98f9 323a 2ca3 98b8 d543 253b
00000350: 1bb3 49ba 7f7e 3fbb 876a a0ba 3f67 4db6
00000360: ed79 0c3b fe35 753a 6abe 3c38 767e 3abb
00000370: 147b 8bba 9c76 51ba 431e 30bb 3559 f53a
00000380: 6b54 be3a d824 98ba 0e4e 21b9 fc5a aab9
00000390: 95ad 6939 f994 8539 d445 ccba 3886 063b
000003a0: 0e2b 0a3b 8aa9 51ba 41f2 e938 8c36 d3ba
000003b0: 778f 293a 854c 33b8 9eb3 043b 5a09 78ba
000003c0: bf0b 4b39 8565 c03a 4147 50ba 4a6b 22ba
000003d0: ad36 9f3a 4817 293a b389 bb39 58e1 18b9
000003e0: 3013 303a e648 96ba 4146 883a 129b d43a
000003f0: 940f 86b9 e2d6 50b9 14de bbba 54d3 9038
5.7330264e-05 0.0011723437 0.0014457605 0.0024303314 0.00010226308 -0.0019495016 8.796906e-05 -0.00067592814
0.0013270493 -0.000112551126 2.5819982e-05 -0.001929401 -0.0005634908 -0.00059930957 0.00043226438 0.0002456597
-0.00022538473 0.0016982609 0.0009739556 0.0006197112 -0.00036079378 0.0008465471 -0.00043210402 -0.0009753423
-0.0005252761 -7.3338364e-05 0.0006327723 0.00049021794 3.9924354e-05 -0.0009383351 -0.00050415454 -0.00017428922
-0.00077221653 0.00094660354 0.0004937392 -0.00025175497 -0.00086190616 -0.00052824203 0.00036592712 6.817926e-05
-0.00015574768 0.00017207226 -0.0003093877 -0.00045596462 0.00018214324 0.00017364217 0.00031148043 -7.055438e-06
-0.00024174315 -0.0004446811 -0.00015076519 0.00075945794 -0.00025766398 0.00028929947 0.0005078655 -0.00024963325
-0.00014902042 -0.0008892372 -0.00044138904 -0.00063714763 0.00010622212 0.0012950734 0.0013288207 8.6123626e-05
-0.00096582365 -0.00068915955 -0.000115705334 0.0012489101 0.001218795 0.0008250601 0.0018779294 -0.0001273603
-0.0001443662 0.0002681681 -0.0011556351 -0.00017235187 -0.0003370956 -0.00033327314 -0.0006431793 6.030277e-05
0.00022513272 0.000708286 6.88e-06 -0.00015423229 -0.0005062306 2.4420764e-05 0.0002592869 0.0006958031
0.00015380786 0.0008734768 -0.00021274059 -0.0001839826 0.00017290401 -0.0006018638 -0.00016274219 0.00012674775
-0.00011732379 0.000754371 1.9542209e-05 -0.00028391814 -0.00013776954 -0.00019920277 0.000120655386 1.3574724e-05
0.00013871136 -0.0002592956 -0.00014404036 -9.8533215e-05 -0.0010682798 0.0006682326 -0.00014036491 -0.0003785576
9.2947506e-05 -7.733213e-05 2.670525e-05 9.254144e-05 -0.0011263257 0.0017908313 0.0016297045 -0.0005871534
0.00019888802 -0.001059058 0.0005426766 -3.1621767e-05 0.0015492849 -0.000642652 0.00015298284 0.00069714437
-0.00017139874 -0.00040587827 0.00077642023 -1.3916333e-05 0.000118967146 0.00090249564 -0.00048514063 0.0016826743
-0.0025181198 -0.0029167505 -3.2632313e-05 -0.00010126968 0.0020805618 7.481941e-05 6.881157e-05 -0.002785446
0.00014485163 -0.00061525404 -0.0015445644 0.0005699992 0.0007446918 -0.0007725337 -0.0005179205 -0.00055204495
-0.0022176686 -3.6018104e-05 -0.005509556 0.0012646823 0.005383384 0.0036109916 -3.386044e-05 -0.003895743
-0.002487181 -0.00018405287 0.0052681034 0.003278217 0.0018741228 0.0043274155 -0.0027623035 -0.0025277736
0.0011458964 -0.00020268725 0.00020721494 0.00034139174 0.00034834523 -0.00043194395 0.00014768179 7.993448e-05
-0.00026795786 -0.00010423085 1.6071616e-06 0.000113832386 5.2503412e-05 7.229215e-05 -0.0002090875 -0.00022531426
-0.00034001042 -0.0003495231 -0.000345943 -5.783384e-05 0.0010353496 0.00043307594 -3.80602e-05 -5.5862547e-05
-0.0001215168 -0.00080946746 0.0005306576 0.00076504267 -6.2442996e-05 -0.00018449647 -0.0006398609 -1.6202166e-05
0.00051864283 0.000743615 0.00014857255 -0.00056315324 0.00046768406 -0.00047777014 -0.00021539423 -0.00040252763
-0.00029709423 0.00068273535 -7.278318e-05 0.0025217433 -0.00076942303 -0.0029219685 -0.0012238779 -3.0607478e-06
0.0021434978 0.0009354054 4.500003e-05 -0.0028456724 -0.0010641539 -0.00079903915 -0.0026873506 0.0018718602
0.0014521008 -0.001160766 -0.00015383234 -0.00032492715 0.00022285276 0.0002547873 -0.0015584775 0.0020526778
0.0021082791 -0.00079979806 0.00011155429 -0.0016114279 0.00064682163 -4.274819e-05 0.0020248662 -0.0009461843
0.00019363964 0.0014678693 -0.0007945188 -0.0006195797 0.0012147032 0.00064503076 0.00035770013 -0.00014579797
0.00067167263 -0.0011465817 0.0010396914 0.0016220531 -0.00025570078 -0.00019916476 -0.0014333152 6.905818e-05
