runs/FrankaCubeStack_01-19-27-52/nn/FrankaCubeStack.pth (torch, 577583 bytes, 36 tensors)

value_mean_std.running_mean f8 [1]
00000000: 60c9 553e 1f56 1b40
6.834103559480667

value_mean_std.running_var f8 [1]
00000000: 79cf 790f 4ad2 1540
5.455360643205375

value_mean_std.count f8 []
00000000: 0000 0002 0060 a041
137363457.0

running_mean_std.running_mean f8 [19]
00000000: 8392 cc77 f693 563f 8016 b48f abc0 8a3f
00000010: c874 f4db 413a 9fbf 7e45 e79d 3bbd ec3f
00000020: a51f 8cf4 5e69 7a3f f463 c0d9 66d6 7d3f
00000030: cc80 58b3 b0d5 f03f fc91 2010 ada2 58bf
00000040: f3d1 509e 2461 79bf 6350 72f1 8607 813f
00000050: 4e58 c205 6536 53bf 4241 dfce 0c6b 7e3f
00000060: 314c fada 571f f13f 548b a1b4 9dd8 d8bf
00000070: 3391 fa90 fde0 b1bf dda7 bd98 1800 c2bf
00000080: 2380 c849 7328 753f 5657 5c99 faad 953f
00000090: e223 3b28 e5a1 963f
0.0013780505098079105 0.013062801669103452 -0.03049567131994449 0.8980997165728437 0.0064481457891431325 0.007284547577023116 1.0521704679195407 -0.0015036287372903736
-0.0061961584479388486 0.008315138095248814 -0.0011726366565532223 0.00742630961572416 1.0701521447961222 -0.38822119369267694 -0.06983933248063039 -0.14062793214844663
0.005165529579727521 0.021171489344019655 0.02210195596743237

running_mean_std.running_var f8 [19]
00000000: 062c dca2 d26c a53f b7c9 9b83 a8fb 943f
00000010: 07b2 da10 f49b b93f 61cb 3536 aa8c 9e3f
00000020: ccea ac34 f3e1 983f 2a0d 99dc ac1e 983f
00000030: adcb 2a55 8d96 453f d6ba 8c00 95f1 b03f
00000040: 6252 3b7a 533f b03f c0ac b49c 6fbf 773f
00000050: 037d bc1d 0234 953f 6911 4250 0e07 953f
00000060: 6c5e 2b48 2303 6a3f 385a 2835 affb e73f
00000070: 3112 0ba4 dafd a53f d665 5def fabe 9a3f
00000080: bae5 1286 a881 783f 1431 2e89 8b90 123f
00000090: f203 1444 65bf 113f
0.04184587705648117 0.0204912500693781 0.10003590976220532 0.029833468970035585 0.02429943093305091 0.023554516758179357 0.000658816347217308 0.06618624938412707
0.06346627935574525 0.005797801957025672 0.020706208291014338 0.020534728668751088 0.003175324354156397 0.7494731939539809 0.04295237781983408 0.02611915670363437
0.0059830267866173795 7.081844004925105e-05 6.770186975658935e-05

running_mean_std.count f8 []
00000000: 0000 0004 0060 9041
68681729.0

a2c_network.sigma f4 [7]
00000000: d7c1 87bf 19ed 6abf c6c0 afbf bc09 09bf
00000010: 3adc 17bf c25a e0be a352 b5bf
-1.060603 -0.9176803 -1.3730705 -0.5353048 -0.59320414 -0.43819243 -1.4165844

a2c_network.actor_mlp.0.weight f4 [256, 19]
00000000: 9e9f 043d 812f cabc d53b e93b e19d 42bd
00000010: e484 f33e d42a eabe 6d81 553d 3f5e e3bd
00000020: 68cd 35bd 3e79 aebd 1e42 e0be a835 ac3e
00000030: 9b85 04bf 6e09 a93d ab13 88bc 223d c8bd
00000040: 6a66 113e 145c f0bb e527 f73d 27bd 7c3c
00000050: ef26 85bd e3da 1c3c 9335 ef38 8868 6b3e
00000060: 4192 e53e b46f 363e f5cd 6dbd fa08 b83d
00000070: cbee b83d cfab d3bd 9921 bcbe 2b5d 38be
00000080: d494 f3bc ccba 5fbd 388b 593e 1172 cc3d
00000090: 0116 fd3d 28f5 533d 4352 5bbd 0de5 c2bc
000000a0: f897 d93c 9881 353d 38d8 31be 50a1 e13e
000000b0: 8dc5 c5bd 7f7c e4bb 19a1 7cbd 37f5 7d3e
000000c0: de8c 0e3e 5066 c9be 6671 08bf 494e f63d
000000d0: be52 85bc ab78 b6bc 878f 7cbd 4d5e 03bb
000000e0: 19f3 2f3c 80ca 883c 915b da3a 9dbd 53bc
000000f0: 44f4 ac3d 738b 11bf c960 6ebd 93ec 7a3e
00000100: 10b1 cebd 2533 afbd e82b 29be adff f03e
00000110: 4762 49bd 2429 b5be 4d57 023c 166c b5bd
00000120: 46cd f3bc a0c4 ce3d 4e52 133e 85b5 21be
00000130: 299a 1bbd 27d5 0a3e 37e4 05be f83f 493d
00000140: efcb ebbe bb77 25be e7e9 1f3e 5eef 0ebe
00000150: 4728 3fbe a7d5 3d3e e151 173e f9f3 c7bd
00000160: 95e9 0e3d ac3a b9bd 432a c23c a16a 873e
00000170: 78a0 a33c 8641 a53d b046 56be 369d bd3c
00000180: ab84 da3c 3948 3dba 4de6 863d bbed 3d3d
00000190: 6809 813c dfc7 a93c e2a8 34be 2b61 6bbd
000001a0: 974b 59be d804 44be 4e54 c3bd 6c7e c03c
000001b0: 9802 53bd 8d34 0f3d 08d5 cebc 23fc 483d
000001c0: 62a7 f63d d4d2 3fbe 74c6 7e3d b2e5 9e3d
000001d0: 4a5d 89bd 9abc 1ebe 2e2c a5be e8c3 ae3e
000001e0: 9502 96bd 0800 273c a2d7 53be dc2e d33d
000001f0: 23ed 2d3e 4cfe 64be 1d46 2abe 88e7 283c
00000200: ab08 5d3e 1834 89bd 5987 fcbd 5165 823d
00000210: 59b8 3abe 5d7e 42bd 52ff 9e3c 6c44 353d
00000220: f4c7 fdbd 2c8f 21bd fc8e 043f 4890 ad3d
00000230: c54d 0bbd fc25 4e3e db8c b73d 554d ba3d
00000240: 9af1 11bf dd7c 593e df6d 893c 4fdf 56bd
00000250: 07b4 403e d240 5c3c 4ef2 aebd 3929 dcbd
00000260: e032 833a 5178 4cbc 08ab e7bb bdec ccbd
00000270: f2c9 ecbe bc37 cdbe 3e99 023e bb2d 133e
00000280: 70e4 08be 828e af3d 3fe7 0f3f 2e05 783e
00000290: 0358 89be bfb4 313d a729 b83c b8d5 4d3d
000002a0: f60b b93c ac92 52bd ec14 813d 91ab 99be
000002b0: f283 8e3d 9919 a73d 4a4f 8d3f 47f7 a03e
000002c0: 77e4 8bbe 1051 8cbd a203 03be d6ad 08bc
000002d0: 431a 63bd 6987 1dbe c28b 323e ea26 193f
000002e0: 5e54 d83b fac2 afbd 80ac 8cbe f56d b3bd
000002f0: 8c96 a9bd 1581 0d3e 2182 8bb9 2c98 17bd
00000300: 8f6c b03c 4968 973d eaae 96be ba50 dc3b
00000310: 8b82 da3d b37a d4bd fe0d 84bc 1a4b 0f3e
00000320: 009e 763c 7c5d 26be 3564 e43e 0672 81bd
00000330: 285a 35bc edea bdbe da91 fe3d 5831 443e
00000340: 140b 023e 3dff 0cbe 51ce bdbe d22a bcbc
00000350: 9aff 183e 8ceb b53e 3de4 e03e bf2e 1e3e
00000360: 44b2 373c 1c00 0e3e f48a 37bd 61aa e4be
00000370: f007 f8be ef1d 6ebb 6c1e cabd 8b3d 08bd
00000380: c853 febd 9c0f 48bc d179 17bd acf5 06bd
00000390: 7a05 6f3c 8bcf a33d 74d8 683d 280d 933d
000003a0: 2a7c 58bd c69d 69be e4e7 1abf 1ea8 02be
000003b0: 11ff a6bd e81d 7b3f ac76 00be e2f6 293e
000003c0: 8364 003f 877b b83d 3052 1bbc ab36 d0bd
000003d0: 680e c7bc a5ea aabd 92b0 fd3d 1f80 4b3d
000003e0: 7381 0dbd 0070 f1bd 76dd c9bd e3e4 a63e
000003f0: 791e 02bf 7401 713e 7bcb e93d dd1f 6abc
0.032378785 -0.024680855 0.0071177282 -0.047513846 0.47562325 -0.457358 0.052125383 -0.111019604
-0.044385344 -0.08519219 -0.43800443 0.33634686 -0.51766366 0.08253752 -0.01661094 -0.09777285
0.14199224 -0.0073351953 0.12068156 0.015425957 -0.065015666 0.009573671 0.00011406387 0.22989094
0.44838145 0.17816049 -0.058057744 0.08986087 0.09029921 -0.10335504 -0.36744383 -0.18004291
-0.029734053 -0.054621503 0.21244514 0.09982694 0.123577125 0.05174747 -0.053545248 -0.02379086
0.026561722 0.044313043 -0.17367637 0.44068384 -0.096568204 -0.006972849 -0.061677072 0.24800573
0.13920924 -0.3933587 -0.5329803 0.120266505 -0.016274806 -0.022274336 -0.061660316 -0.0020045221
0.010739111 0.016698122 0.0016659369 -0.012923625 0.084450275 -0.5685341 -0.05819777 0.24504308
-0.10092366 -0.08554677 -0.16520655 0.47070065 -0.04916599 -0.3538295 0.007955384 -0.088585064
-0.029760968 0.10096097 0.14386865 -0.157919 -0.037988815 0.13557874 -0.13075338 0.04913327
-0.46054026 -0.16158955 0.1561657 -0.13958499 -0.18667708 0.18538533 0.14777328 -0.09763331
0.03489073 -0.09044394 0.023701793 0.2644854 0.019973978 0.08069138 -0.20925403 0.023146253
0.02667459 -0.000722054 0.06586895 0.046369296 0.015751556 0.020725189 -0.17642549 -0.057465713
-0.21220241 -0.19142473 -0.09537564 0.023497783 -0.051516145 0.034962226 -0.025248066 0.04906858
0.120436445 -0.18732768 0.06220098 0.07758655 -0.067072466 -0.15501633 -0.3226027 0.3413384
-0.07324711 0.010192879 -0.20687726 0.10311672 0.16984992 -0.22362632 -0.16628309 0.010309108
0.21585338 -0.06699389 -0.12330503 0.06366981 -0.18234386 -0.04748379 0.019408856 0.044254705
-0.12391654 -0.03944318 0.51780677 0.08474785 -0.034009714 0.20131677 0.08962413 0.09096781
-0.5700928 0.21239038 0.016776023 -0.052459057 0.18818675 0.013443189 -0.0854231 -0.1075005
0.0010009669 -0.012479858 -0.007069949 -0.10006092 -0.46247822 -0.40081584 0.1275377 0.14372914
-0.13368392 0.08572103 0.5621223 0.24220726 -0.2682496 0.043385264 0.022480799 0.050252646
0.022588711 -0.05140941 0.06302819 -0.30013707 0.0695876 0.08159179 1.1039822 0.31438658
-0.27322742 -0.06851399 -0.12794355 -0.008342227 -0.055444967 -0.15383686 0.17436126 0.59825003
0.006601854 -0.08582111 -0.27475357 -0.08761207 -0.08280668 0.13818772 -0.000266091 -0.037010357
0.02153614 0.07392938 -0.29430324 0.0067234905 0.1066943 -0.103749655 -0.016119953 0.13993493
0.015052319 -0.16246599 0.44607702 -0.06320576 -0.011068858 -0.37093297 0.12430163 0.19159448
0.12699538 -0.1376924 -0.3707147 -0.022969637 0.14941254 0.3553127 0.43924132 0.1544752
0.011211935 0.13867229 -0.04481025 -0.4466124 -0.48443556 -0.003633376 -0.09869084 -0.033261817
-0.12418324 -0.012210753 -0.036981408 -0.032949135 0.014588708 0.0799857 0.05684705 0.07180244
-0.052852787 -0.22814092 -0.60510087 -0.12759444 -0.08154119 0.9809251 -0.1254527 0.16598085
0.5015337 0.09007936 -0.009480044 -0.10166677 -0.024298862 -0.08345536 0.12387194 0.049682733
-0.03454728 -0.117889404 -0.098566934 0.32596502 -0.5082775 0.2353571 0.11415764 -0.014289823

a2c_network.actor_mlp.0.bias f4 [256]
00000000: 4b0f a2be 996f 2dbd 8037 5abe 9a71 16be
00000010: 0d53 113e 15fd ff3b 449b a4be c1fe 0c3d
00000020: 368a 0bbe b692 e03d 3c93 0e3d 95d2 3bbd
00000030: 2a37 773e 81e1 6dbe f1d2 54be e961 9ebe
00000040: 2210 4c3d 9a64 7ebc b976 42bd 79eb e5be
00000050: 3af9 0bbd 5c7b 303d 0d2d cabd ed5d 8ebe
00000060: c9f3 87be 8aae 453e 8e27 afbc c3f0 7cbe
00000070: cadc 5d3d b483 3dbe 517f e4bd 7042 c73d
00000080: 33de f1bd ee61 4cbe 2451 1b3e b6f9 3fbe
00000090: d3ce 96be 0daf 12be 7ccf 843e ab29 0e3e
000000a0: 5f10 dabe a1ef 68be bc6e 02be 4c4f a7be
000000b0: f1be 8abe c583 e4bd 957d ca3d 20d6 8bbe
000000c0: 9379 b93d 34c1 c23d 6559 51be 5770 81be
000000d0: a990 443e c45d 043f c9f5 5cbd eca2 ac3d
000000e0: 8f05 3ebe 0a2e 873d 7ba6 d6bd 7d24 75be
000000f0: 07cf 16be a907 f1bd 0136 a9bd 425e 2ebe
00000100: 8b0e 96be 3041 e8bd 1eda 2dbe a62f 33be
00000110: 769a 883d 882e 1ebe 08bf 27be ea92 8fbe
00000120: 8a35 f93d 9022 b9bd ab9e 7d3d 8fbc 57be
00000130: ea97 0d3d 1e7d 3e3d 624b 9abe 71c8 b0bd
00000140: c663 423e ed2d 34be 5d75 dabe 8e97 55be
00000150: 175e 57bd f84d 01be b538 8ebd d850 753e
00000160: 3132 a53c 8c63 ac3d 6196 a6bd beda 263e
00000170: 0aee 673d d55a 573e 0406 533d 092d dc3d
00000180: a1be 773d 677e 1c3e 1fe6 873d 297b 66be
00000190: 9d77 283e c711 f13c 5391 db3b ca47 033d
000001a0: cf44 793d 617a 343d 309e ff3d 43b9 203e
000001b0: cd50 ff3d ef47 52bc ea60 89bd 79ef 6dbd
000001c0: c92a 5ebc a71a 813d 1da0 3fbe b607 823d
000001d0: 70d9 c9be 7143 b2be d926 afbd 776d 383e
000001e0: 253d 88be 60f8 a0be 0589 aebc 7964 80be
000001f0: ae6f 213e ce7c 9abe bde9 83be 777e 4cbd
00000200: 0c90 14be a232 3e3a 6358 2a3e 99f1 8f3e
00000210: 8cf6 7bbe 3f4d 6fbd 5e86 a83d e51c a6be
00000220: 21f1 a1bd 78cf 1abe 2d66 c53d c588 cd3d
00000230: ddb2 253c 1051 67be 634a a9be ef37 38be
00000240: 5a6c 1fbe cf68 5ebe 82e6 d53d 307b 443d
00000250: 191e 65bd eaee dabe c685 e5bc d219 f73d
00000260: a234 b03d 947d 0cbe f912 69be f377 5ebe
00000270: c009 833c 3902 033e 6e56 26be a566 96be
00000280: ff1f 88be d067 abbe 8da6 d63d 9e1e 15bd
00000290: dcda adbd 05bd 93be 2f96 8bbd bfc5 043e
000002a0: 13f3 68be 04ba 05bd 4eff 363d 15b8 4bbb
000002b0: b63b e2bd 700c c9be 0103 7bbd 4654 8c3c
000002c0: a1c8 02bd 2847 633e ff75 28be e589 8dbe
000002d0: 0cf6 cc3d 019c ecbd 4f4f a73c c8c4 33be
000002e0: 13f0 273b 9486 943c 3631 58be cbd5 9d3c
000002f0: fd22 7e3e 6a3c 06be 41ab a43d efb8 18bf
00000300: 6d74 6cbd 637f a4bc a3af 2ebc 2c4c dd3c
00000310: 0bd7 09be 7832 aebd 0dea f63c a274 c4be
00000320: 3767 a3be 402d debe 108d 66bd 86c0 8fbe
00000330: f463 393c 89e8 5b3d 7742 4ebe b1bc 13bd
00000340: e059 053e aaec e2bd e6a8 9abe 3e63 613e
00000350: fd1d 63be cd1b 543e da7e c4bd 65f0 8ebd
00000360: 35b9 b13c c8a5 0f3d add7 fdba efef 40bd
00000370: 03d8 503c 83f7 903d b7d6 23be 71cd 7b3c
00000380: d982 e8be c29c c1bd 0974 e6be 06dd 64be
00000390: 6c35 f9bd bb81 57be c810 5a3d bdc2 053e
000003a0: fe0f 9bbe 5b62 86be eaf4 e83c ccd0 1c3e
000003b0: 68f2 133e 5a1e 50be d75b a7be a635 92bd
000003c0: 7179 fabc 5552 1cbd 840b 76be 162a 20be
000003d0: 782c 0dbe c4ba cebe 6f8f f6bd 393e bfbd
000003e0: d7b6 f23d dce0 7ebe 26b7 a0be beaa d9bd
000003f0: 0824 d53c 50c4 e8be dc1f 2f3e c4d1 96bd
-0.31652293 -0.042342756 -0.21310234 -0.14691773 0.14191838 0.007812152 -0.32149708 0.03442264
-0.13626942 0.10965483 0.034808382 -0.045855124 0.24142137 -0.23230554 -0.20783593 -0.30934075
0.049820073 -0.015526915 -0.047476504 -0.44906214 -0.034173228 0.043086395 -0.09871874 -0.27806035
-0.2655318 0.19304863 -0.021381166 -0.24701218 0.05416564 -0.18507272 -0.11157096 0.09729469
-0.11809959 -0.19959232 0.15167671 -0.18747601 -0.2945467 -0.14324589 0.25939548 0.13883083
-0.42590615 -0.22747661 -0.12737554 -0.32677686 -0.27098802 -0.111579455 0.09887234 -0.27311802
0.090563916 0.09509507 -0.20444258 -0.2528102 0.19195808 0.51705575 -0.053945336 0.084295124
-0.18556808 0.06600578 -0.104809724 -0.239397 -0.14727412 -0.11769039 -0.082622536 -0.17028144
-0.2930797 -0.113405585 -0.16977736 -0.17498645 0.06670086 -0.15447438 -0.16381466 -0.28041774
0.12168415 -0.090397954 0.061918896 -0.21068023 0.034568705 0.04650604 -0.30135638 -0.08631981
0.18983373 -0.17595644 -0.42667666 -0.20858595 -0.052579965 -0.12627399 -0.0694441 0.2395662
0.020165535 0.084174246 -0.08134151 0.16294381 0.056623496 0.21030743 0.05151941 0.10750777
0.060484532 0.15282594 0.06635689 -0.2250792 0.16451879 0.029427422 0.0067006736 0.032050885
0.060856637 0.044062022 0.12481344 0.15695672 0.124665834 -0.012834533 -0.06707938 -0.058089707
-0.013560005 0.06303912 -0.18713422 0.06349127 -0.39423704 -0.3481708 -0.085523315 0.18010508
-0.2660915 -0.31439495 -0.02130557 -0.25076655 0.15765259 -0.30173343 -0.25764266 -0.049925294
-0.14508075 0.00072554697 0.1663528 0.28114012 -0.24605769 -0.058423277 0.082287535 -0.3244392
-0.0790732 -0.15118206 0.09638629 0.10035852 0.010113445 -0.22589517 -0.33064565 -0.17990087
-0.15568677 -0.21719669 0.104443565 0.047969043 -0.055936906 -0.42760402 -0.02801789 0.12065472
0.08603789 -0.13719779 -0.22761144 -0.21725444 0.01599586 0.12793817 -0.16243908 -0.29375187
-0.2658691 -0.3347764 0.10480986 -0.036406152 -0.0848901 -0.28855148 -0.068157546 0.12966059
-0.22748975 -0.0326481 0.04467707 -0.0031085063 -0.11046545 -0.39267302 -0.06128216 0.017130028
-0.031929616 0.22195113 -0.16451262 -0.27644268 0.10007867 -0.11553193 0.02042356 -0.17555535
0.0025625273 0.018130578 -0.21112522 0.019266983 0.24818034 -0.13108984 0.080404766 -0.59657186
-0.05772822 -0.020080274 -0.010661992 0.02701386 -0.13460939 -0.0850572 0.030140901 -0.38370234
-0.31914684 -0.43393898 -0.05628687 -0.2807657 0.011315335 0.05368856 -0.20142542 -0.036068622
0.13022566 -0.11080296 -0.30206984 0.22010514 -0.22179408 0.2071373 -0.095945075 -0.06979445
0.021694759 0.03507021 -0.0019366645 -0.04710382 0.012746814 0.07078459 -0.15999876 0.015368805
-0.4541233 -0.09453727 -0.45010403 -0.22349939 -0.121683925 -0.21045582 0.05323866 0.13062568
-0.3028564 -0.26246914 0.028437097 0.15314025 0.1444794 -0.20324078 -0.32687256 -0.07139139
-0.030575486 -0.038164455 -0.2402783 -0.15641055 -0.13786495 -0.40376866 -0.120390765 -0.0933804
0.1185128 -0.24890465 -0.3138973 -0.106282696 0.026018158 -0.45462275 0.17101997 -0.07364228

a2c_network.actor_mlp.2.weight f4 [128, 256]
00000000: 3642 e1bb c96c 903d aec1 c0bc 218c 493d
00000010: b737 d3bd d70a 3abe c58d abbd dee4 233e
00000020: a63e fd3d 2153 75bd a828 20bd ab08 a5bc
00000030: 56bb f9bc 9598 21bd 940b 0ebd a4c6 68bc
00000040: 3a60 9eba 9b2b 8b3d 4cab c53d 6966 193e
00000050: 1f55 883d 417d d7bc d89e 063d c4c6 9abb
00000060: 1759 f2bc bf39 423d f3cd eb3d dbda 08be
00000070: 2f95 e9bd 1751 873e 6666 bb3c 15f5 f23b
00000080: cce8 be3b d83c 85bd 7fdd ce3c ce03 b5bd
00000090: eeee 6dbd e8cc a2bc c45a 493d f4f7 9e3d
000000a0: d6f2 373c 3b75 48bd 6624 28bc ea17 7e3d
000000b0: 9403 7b3c 3379 5bbd 7bff 133d bac0 9bbd
000000c0: 1080 863c 7365 84bc 8470 b63d 585a 59bd
000000d0: b652 af3b 545f 403c 1738 16bc 6642 febd
000000e0: 8885 963d 8fe1 533d 450c ca3d 79c2 11bd
000000f0: 758e 2b3c 8cfb 34bd cb92 c7bb f3d3 f03d
00000100: 2293 1c3e 471d 8a3d 76c3 42bd f777 f93c
00000110: 2fde 48bd 36fe bcbd 130e 7abc 1742 253d
00000120: 9d9a 153c 21ce 9e3d 80fe d7bc a20a 823c
00000130: deab 90bc f75f 683d dc1a 03be f9ac 6a3d
00000140: 4747 f3bd e03a 223e 1f90 56bd a174 723d
00000150: 2389 12bd 7875 1eba 5030 4bbd 186f c13c
00000160: 28ae 9bbc 82e5 143d 9f02 c5ba 3a27 c3bc
00000170: 41c8 593d 828e 1fbc 471d 4a3d 9aac 85bd
00000180: e49c 713c 26cc d9bd 0ef4 813d a107 17bd
00000190: 7ee5 dc3c b76b ab3d 4b31 a63d b499 78bd
000001a0: 2c35 c8bd f533 26bd c5e6 c2bd ef24 4d3d
000001b0: f4c5 243e 5a33 9fbc 6821 683b 3c6e 633d
000001c0: a7b6 103c 3af7 783d 2c43 763d db1d 9dbd
000001d0: 66e2 e83d da1c 39bc 7c30 513d 4a6d e8bd
000001e0: f3c7 943c ae74 683d 7925 91bc f64f 33bc
000001f0: b6ec b9bd 358e 013d c951 97bd 2f42 fc3c
00000200: a465 1abe 6040 d9bc b938 02bd 184e 63bd
00000210: ef46 df3d 74e1 3ebd c217 29be 349e 4e3e
00000220: 7d22 93bd ab1c a93b ed95 0bbd d447 8c3d
00000230: 8346 69bd f3f8 c93c ce0e c93c a2e0 cabd
00000240: 3087 4abb 350d c3bd 1155 283d 5aa5 0c3e
00000250: dc8d a33d 8869 e8bc fee0 393d 216c 27bc
00000260: 432b cd3d 0c11 a73d d833 903d 54ec 90bc
00000270: 9a5c 173b b299 51bd 1ffb 75bc fcb4 72bd
00000280: 7da4 4cbc 10fa 9dbc 9a45 313d da8b 7e3d
00000290: 4cd0 173c 8f56 c7bd e49b e23d 4ccd 7c3c
000002a0: ac14 8e3d 9397 453b ec86 10bd 4f48 98bd
000002b0: 51a1 2cbc 2f75 723d ff33 5ebd b5cd 70bc
000002c0: 88fd 5ebd ec92 6bba ae80 1ebc ce16 cf3d
000002d0: 7f65 c7bd 2b24 1b3d 285a 27bd 8327 77bc
000002e0: 4ecd 1bbd 42a2 09be 3a3b da3d bd6a 6dbd
000002f0: 5102 c2bc e9b1 69bd 573e c93c 2296 f2bb
00000300: c73d 00be e5a5 01bc 2f4f 74bd 6767 d93d
00000310: 5094 5fbd 4382 1fbe 98cd 46bc 8fed d83d
00000320: 9ddf 14bd 623d a9bd 3ffe 93bd 4db8 3bbd
00000330: 1ba6 243b fdf7 e7bc 1454 d3ba d0ef d2bc
00000340: 898f d9bc 45cb 443e 89d5 153d 4210 f73d
00000350: 6274 37be 7945 c2bc 9e55 123e a406 a53d
00000360: 06ae 0bbd 1e53 a8bc f1bc dabd cfe0 58bc
00000370: 8c2d a7bd e2c8 b3bd b481 9ebd eca0 9cbc
00000380: 6902 7a3c df61 a0bb 19b9 133e 84e4 2bbd
00000390: 8e04 b1bd 6c94 e7bc 4c59 9dbb 6c3b d5bc
000003a0: fc51 ddbd cc23 263d ddd2 d33c 45a7 523d
000003b0: d192 62bd 0945 03bd 563a 3b3d 5f16 8f3d
000003c0: 516e d73d 3c30 7abc 5506 bb3d 8fa2 93bd
000003d0: 7d92 14be 9fca 83bd 159e 0c3e 2eb6 803d
000003e0: f97b 01bd 4a0f 933c a72a b43d d65a 0bbd
000003f0: b16a 9f3c 4adf 513d dcae 17bd b8ef 3dbd
-0.006874348 0.07051999 -0.023529854 0.049205903 -0.10313361 -0.18168198 -0.0837665 0.16005275
0.12365465 -0.05989373 -0.039101273 -0.020145735 -0.030484837 -0.039452154 -0.03467901 -0.014207516
-0.0012083121 0.067954265 0.09651813 0.14980473 0.066568606 -0.026304843 0.03286633 -0.0047234017
-0.029583497 0.047418352 0.11513891 -0.13364737 -0.11405408 0.26429054 0.022875976 0.00741447
0.0058260914 -0.06505746 0.025252102 -0.08838616 -0.05808919 -0.019873098 0.049158826 0.07762137
0.01122733 -0.048939925 -0.010262584 0.062034525 0.015320677 -0.05358238 0.036132317 -0.07605119
0.016418487 -0.016161656 0.089081794 -0.053064674 0.005350436 0.011741478 -0.009168646 -0.12415008
0.07349688 0.05172878 0.098656215 -0.035585854 0.010470976 -0.044185206 -0.006090497 0.11759176
0.15290502 0.067438655 -0.047549687 0.030452712 -0.049040016 -0.092281744 -0.015262145 0.04034623
0.009131101 0.0775416 -0.026366472 0.01587421 -0.017660078 0.056732144 -0.12803215 0.057293866
-0.118788294 0.15842772 -0.05238354 0.059193257 -0.035775315 -0.0006044726 -0.04960662 0.023612544
-0.019003943 0.03635169 -0.0015030688 -0.023822416 0.053169493 -0.009738566 0.049344327 -0.06527062
0.014746878 -0.10634641 0.06345378 -0.03687251 0.0269649 0.08370154 0.08114871 -0.060693458
-0.09775767 -0.040576894 -0.09516672 0.05008405 0.16091138 -0.019433666 0.0035420302 0.05552505
0.00883261 0.06078265 0.060122654 -0.0767171 0.11371307 -0.011298383 0.05107163 -0.1134897
0.01816175 0.0567519 -0.017718064 -0.010944357 -0.09078352 0.03162976 -0.07388646 0.030793278
-0.15077835 -0.026519954 -0.031792376 -0.055494398 0.109022014 -0.046601728 -0.16512969 0.20177537
-0.071843125 0.005160888 -0.034078527 0.06849638 -0.05695201 0.024654841 0.024543192 -0.099061266
-0.0030903332 -0.095240034 0.04109675 0.13734952 0.07986042 -0.028370634 0.045380585 -0.010218651
0.10018017 0.08157548 0.070411384 -0.017690815 0.0023095966 -0.051171966 -0.015013485 -0.05925463
-0.012490389 -0.019284278 0.043279268 0.06214509 0.00926597 -0.097333066 0.1106489 0.015429806
0.069375366 0.003015016 -0.03528492 -0.07435667 -0.010536508 0.059193786 -0.054248806 -0.014697482
-0.054441005 -0.00089864316 -0.009674234 0.101117715 -0.09736156 0.03787629 -0.040857464 -0.015085104
-0.03803759 -0.13440803 0.10655828 -0.05796312 -0.023682745 -0.057054434 0.024565859 -0.007403151
-0.12523566 -0.0079130875 -0.059645828 0.106154256 -0.0545848 -0.15577035 -0.012133978 0.10592186
-0.036346067 -0.08263661 -0.07226228 -0.04583006 0.002512342 -0.028316492 -0.001612308 -0.025749117
-0.0265577 0.19218166 0.036580596 0.12063648 -0.1791549 -0.023714768 0.14290473 0.08057907
-0.03410151 -0.020547446 -0.10680569 -0.013237192 -0.08162984 -0.0877855 -0.07739583 -0.019119702
0.015259364 -0.0048944796 0.14426078 -0.041965976 -0.08643447 -0.028269015 -0.004801905 -0.026029311
-0.10806653 0.040561482 0.025857383 0.051429052 -0.055315796 -0.03204826 0.04570993 0.06986689
0.10519088 -0.015270289 0.09132067 -0.0720874 -0.14509006 -0.06435131 0.13732179 0.06284748
-0.03161237 0.017951626 0.08797198 -0.034022175 0.019460054 0.051238336 -0.037031993 -0.04637119

a2c_network.actor_mlp.2.bias f4 [128]
00000000: 5216 d9bd 926e e9bd 34a2 c0be 2235 9bbe
00000010: 8929 5dbe 23ac 5fbe 1550 a8be 45e6 173c
00000020: a70e 92bd f5ce 1bbc 195c c5bd 95a3 03bf
00000030: 9670 f3bd 32f5 c5be 0c7c 9cbe 1962 04bd
00000040: ca86 e9bb 1635 51bb 9619 a83d e7ab 29be
00000050: 6031 4bbe a807 103e 7b05 cc3c b277 4ebe
00000060: c08b 413a ead1 69be e3a7 163d 0437 cfbe
00000070: 0dc8 853d 81f2 3f3d ae0d 943c b937 5abe
00000080: 1876 84be 84f3 493d 2691 e1bd e7ca 45be
00000090: d8f0 8fbd c184 afbe 0d8b 863d 9c3a d73b
000000a0: 6d6a 54be 5732 443d 0053 10be 562c 6cbd
000000b0: 6be1 14be 7ca2 f0be 0f8f 2fbe e168 113b
000000c0: 2330 323c 8196 fd3c 1ab9 17bd 036e abbd
000000d0: 608b 9a3b 1d59 f1bd 2f54 97ba 51d4 aabe
000000e0: ca53 56bc e0a5 2f3e be3a 94bd d7b3 3abd
000000f0: 2438 9bbe 6606 62bd fdaf 903c 5744 a6be
00000100: ed83 00be 4f0d 97be 94e7 803c ab5f e9bd
00000110: b42f 163e efd4 33bd a377 703d ea2c 89be
00000120: bf1b 38be 4661 88be 05c4 813d 3242 c5be
00000130: ef10 bf3d 75ce acbd 7299 babe a7b4 14be
00000140: 51af babd 858c 74be 4ccf b9bd 4e11 7cbd
00000150: 7c95 913c b9af 0cbf d09a 8ebd 81ab 7bbe
00000160: ba73 62be 83b9 173e be60 15bd c07f cabb
00000170: c824 66be a954 183c 5ce0 b7bc 14df 99be
00000180: af91 59be 14f7 11be a224 33bd 1d7a 68bd
00000190: d263 4ebd 6dcd e83d 0c77 adbd a1c5 9bbd
000001a0: 014f abbe de39 87be 1848 a6be dbd0 81be
000001b0: a0eb 33be d037 11ba 3e3c 9abe 7939 99be
000001c0: aefc 8bbd 7232 9fbd 9021 1fbe 5b04 2abd
000001d0: f293 12be 81a5 5ebb 4014 fb3d 7e7e 8abe
000001e0: eaa3 1ebd 0381 e3bd 2ac8 8ebe 3100 073e
000001f0: 1765 a6be 9a04 b3be 303d b7be fce8 3abc
-0.105999604 -0.11398043 -0.3762375 -0.30313975 -0.21597876 -0.21843009 -0.32873598 0.009271209
-0.07131701 -0.009509792 -0.09636707 -0.5142148 -0.118867084 -0.38663632 -0.3056339 -0.032320116
-0.007126664 -0.003192251 0.08208005 -0.16569482 -0.19843054 0.1406542 0.024904957 -0.20162848
0.000738319 -0.22833982 0.036781203 -0.4047166 0.06532297 0.04686213 0.01807293 -0.21310319
-0.25871348 0.0493045 -0.11014013 -0.19315682 -0.07028359 -0.3428097 0.065694906 0.006568266
-0.20743723 0.04789957 -0.14094162 -0.05765947 -0.14539115 -0.46998966 -0.17144416 0.0022187757
0.0108757345 0.030955555 -0.03704176 -0.083705924 0.004716322 -0.11784575 -0.0011545474 -0.3336511
-0.0130815 0.1715312 -0.07237767 -0.045581665 -0.3031627 -0.055181883 0.017662043 -0.32474014
-0.12550326 -0.2950234 0.015735425 -0.113952 0.14666635 -0.04390424 0.058707844 -0.2679208
-0.17979334 -0.26636714 0.06336216 -0.38527066 0.09329402 -0.08437816 -0.36445194 -0.14522038
-0.0911547 -0.23881729 -0.09072742 -0.06153994 0.017771475 -0.5495563 -0.06963122 -0.24577142
-0.22114459 0.14816861 -0.036469214 -0.00617978 -0.22474968 0.009297528 -0.02244585 -0.30053008
-0.2124698 -0.14254409 -0.043736108 -0.05675708 -0.050388165 0.11367307 -0.08469972 -0.07606054
-0.33458713 -0.26411337 -0.32476878 -0.25354657 -0.17570353 -0.0005539628 -0.30124086 -0.2992666
-0.06835304 -0.077732936 -0.15540147 -0.04150806 -0.14314249 -0.003397316 0.12259722 -0.2704963
-0.03873054 -0.111085914 -0.27887088 0.13183667 -0.32499 -0.34964448 -0.3578887 -0.011408087

a2c_network.actor_mlp.4.weight f4 [64, 128]
00000000: 4fc8 813c 5e82 9bbd 26d2 023d 1caf bdbb
00000010: aebc 783d 859d c53d bf24 aebd 71fe f8bb
00000020: b1e8 f9bc e0c2 d7bc 4332 c63d fc67 f9bd
00000030: f2c0 28bd be07 993d cf3c b83d 6b53 33be
00000040: 1aab 493d 56a3 b83b 836c 52bd 08a1 813d
00000050: e527 063d 84e2 0abe b442 dcbb 05b7 f03d
00000060: 752d 05bc 9e58 4e3d 135f 743d 8dab ee3d
00000070: 9df8 d8bd 3a25 433a 3b7d 8f3c 7345 2e3e
00000080: 6288 1cbe ebf4 743d 0a61 063b 3746 90bd
00000090: 832f 943d f89a 553b aaac e23c 692b 08bd
000000a0: a0c6 8bbd 242a 87bd b4cb 5dbd ffcf 8fbc
000000b0: 325a 133c a941 0ebe 6eab f4bd 98f7 67bd
000000c0: b2d9 06bd 5ded 813d bffb 02be a037 383d
000000d0: a7be b63c ec9b babc 1a61 b53b bd3f 53bd
000000e0: e76d 6fbc 05e3 9bbb 137a 1c3d fa6c c33d
000000f0: cbfd aa3d 2edd 80bd 460c a23d 01db 85bc
00000100: 8f98 e33c 5c73 d0bd 4b7d 0a3c de83 dabd
00000110: 7110 04bd aeb6 8abd 9daa f7bc 41bb 27be
00000120: 2051 5ebe f426 253e 5c68 33bd 97bb c73d
00000130: 0118 03be 9b6e 80bd 8053 4d3d 5902 b73d
00000140: d604 cf3b 5671 033d 3806 2c3d 5044 abbc
00000150: 287a 6e3d c39c b7bd 722d 80bc 6249 f33d
00000160: 4c12 b73d f921 603d 5935 0cbd 87a6 0d3d
00000170: 0dd1 33bf c931 30bd dad5 863d 7de3 0bbf
00000180: 0aa2 623d 9f9c fe3c 3dbb bd3c e0a0 7cbe
00000190: 13be 533b bde2 85bb 9f55 92bd 9cc9 edbc
000001a0: afc3 443d a466 cdbd 2268 423d cf11 c9be
000001b0: 7d84 34bd 8a83 e5bc 2a7b 123d e558 bcbd
000001c0: 2fc3 8e3d 5fd1 603d 5428 af3d 5366 b63d
000001d0: 8935 443d ac75 ba3d 0f5a ac3c 7c14 d13d
000001e0: 821e 4bbd 5ba0 e6bc d72a aebd fc06 7a3d
000001f0: 9dcf 4bbe b6f2 923d 09e4 75bd e683 d7bc
00000200: 6c2a b73d 3356 6cbe 0ba3 823d 48c6 8cbe
00000210: bc32 d93c 2f9b b93c 4460 e03c 0391 4bbc
00000220: 1672 90bd efe8 c3bc a13a 95bd 46bd 91bc
00000230: 842e 853c 10b4 d43c 0bf7 26be f122 873d
00000240: 1cdf e93c 14af ca3d f1a1 cc3c e169 6bbe
00000250: 81af ccbb 268b 50be 291f 58bd f3be e93d
00000260: dc13 4f3d 1028 1abd 7d76 ec3d 41cd b83c
00000270: 7dec e53c b7d0 b1bd 4902 a53c 3f78 5c3e
00000280: 819c 0a3d 3c4b 93bb 4e06 fc3d 6540 1e3e
00000290: 86f5 0d3e 73e8 b63c c6e7 68bb d011 563d
000002a0: da51 67bd 3bdc 0dbe 6f61 10be 17c2 13be
000002b0: fe6a b43d 88e6 603c 9b16 ccbd de7a 35bb
000002c0: 4a97 9b3d 1e88 cc3d 33b0 5f3c 911c d8bd
000002d0: b9b5 a8bc 0dac 11bd b94d 363d a264 7d3d
000002e0: e4ee 25bd bf73 55bd d2ce aebd 5699 7fbd
000002f0: c24d 7f3e 1797 c83d 5ecd 443d 5a86 283d
00000300: c6b5 2a3e ae61 3dbc 6c42 f2bd ba9e d9bb
00000310: b9a5 d23c 1e9a 8dbd c680 0b3e 0b77 44bd
00000320: 1b2f 55be d0d2 0d3e 7706 cf3c 72ef f23d
00000330: 43b7 cb3c 84b5 0fbe 674c 403e 1ded 97bd
00000340: 1ed4 bc3d 1181 44bd 493c f93c c9f5 7f3c
00000350: 1822 a53d 40e7 09be 7122 663d 2bae c5bc
00000360: 1425 f23d 24f0 803d 28a2 01be 2dfc d53c
00000370: b2db 61bd da66 b53d 7e5a e13d eab3 343d
00000380: a46c d5bd e721 963d c8f3 09bd 5e46 09be
00000390: 9a88 a33d 6d51 d53c 564e 7b3d 1ae0 fdbe
000003a0: d507 1ebe a7e9 9abe 923d c4bc 5d60 e0bd
000003b0: 8341 bfbb ce87 613d 6216 063e b361 7dbe
000003c0: fc16 213e fd43 52bd 16ee 1bbe 7890 133e
000003d0: d5dd 1ebd f8c9 b2bd 8759 afbd 4a80 8f3d
000003e0: aa22 073a e1e8 4a3d c76e acbe ed23 03be
000003f0: e1b7 f5bd dab9 26be 836d 6c3d 6c03 f63c
0.015842585 -0.07593225 0.031938694 -0.005788697 0.060726814 0.09649185 -0.085031025 -0.007598691
-0.030506464 -0.02633804 0.096775554 -0.121780366 -0.041199632 0.0747218 0.08995973 -0.1751229
0.04923544 0.0056347055 -0.051373016 0.063295424 0.03275289 -0.13562971 -0.006721819 0.11753658
-0.008128514 0.05037748 0.059660982 0.116538145 -0.10594294 0.0007444207 0.01751577 0.1701868
-0.15286401 0.059803884 0.0020504617 -0.070446424 0.07235625 0.003259359 0.027670223 -0.033244524
-0.06824994 -0.065998346 -0.054149345 -0.017555235 0.008993672 -0.13892235 -0.1194676 -0.05663261
-0.032922454 0.063441016 -0.12791346 0.044974923 0.022307707 -0.022779427 0.005535257 -0.051574457
-0.014613605 -0.0047572874 0.038202357 0.0954227 0.083491884 -0.06292187 0.07912497 -0.01633978
0.027782707 -0.10178253 0.008452724 -0.10669683 -0.032242242 -0.06773125 -0.030232722 -0.16380025
-0.21710634 0.1612814 -0.043800697 0.09752577 -0.12802126 -0.06271096 0.05012846 0.08935995
0.006317715 0.032090507 0.04199812 -0.020906597 0.058221966 -0.08965447 -0.01564667 0.11879231
0.08939037 0.0547199 -0.034230564 0.03458264 -0.7024086 -0.04301623 0.06583758 -0.54643995
0.055330314 0.031080542 0.023160571 -0.24670744 0.0032309338 -0.004085867 -0.07145237 -0.029026799
0.04803818 -0.10029343 0.04746259 -0.392714 -0.044071663 -0.028016824 0.03576199 -0.09196643
0.06970822 0.05488717 0.08552614 0.089062355 0.047902618 0.091044754 0.021039037 0.10208985
-0.04958964 -0.028152635 -0.08504265 0.061041817 -0.19903417 0.071752 -0.060031924 -0.026308011
0.08943638 -0.23079757 0.06378754 -0.27495027 0.02651345 0.022657005 0.027389653 -0.01242471
-0.0705301 -0.023914782 -0.07286573 -0.017790448 0.016257532 0.025964767 -0.16305177 0.065984614
0.02854877 0.09896675 0.024979563 -0.22989608 -0.0062465076 -0.20365581 -0.05276409 0.11413374
0.05055605 -0.037635863 0.11546037 0.02255881 0.028066868 -0.08682387 0.020142691 0.21530245
0.03384066 -0.0044950526 0.1230589 0.15454252 0.13863191 0.022327637 -0.0035538538 0.05226308
-0.056474544 -0.13853543 -0.14099668 -0.14429508 0.0880947 0.013726838 -0.09965249 -0.0027691643
0.075972155 0.099869 0.013652849 -0.105523236 -0.020594465 -0.03556447 0.044507716 0.06186355
-0.040511027 -0.052112337 -0.085355416 -0.062402092 0.24932006 0.09794443 0.048047416 0.041143753
0.16670904 -0.011558933 -0.11829075 -0.006641236 0.025713788 -0.06914161 0.13623342 -0.04796509
-0.2081875 0.1384995 0.025271637 0.11862077 0.02486766 -0.14034086 0.18779145 -0.07418273
0.09220146 -0.04797465 0.030424254 0.015622565 0.080631435 -0.13467121 0.05618519 -0.024130901
0.11823478 0.06295803 -0.12659514 0.026121223 -0.05514116 0.08857508 0.11003588 0.044116892
-0.10421112 0.07330685 -0.033679754 -0.13405749 0.07985039 0.026039803 0.061354004 -0.49585038
-0.15432675 -0.30256388 -0.02395514 -0.1095588 -0.005836667 0.055061154 0.13094476 -0.247443
0.15731424 -0.05133437 -0.15227541 0.14410579 -0.038785774 -0.08729929 -0.08561998 0.07006891
0.00051550067 0.049538497 -0.33678266 -0.12806673 -0.11997963 -0.16281834 0.057721626 0.030030929

a2c_network.actor_mlp.4.bias f4 [64]
00000000: 4d84 1a3d 07e9 9c3b 7a22 1e3c a6a5 35be
00000010: f4e0 3dbc 02f8 a73c 2286 96be 71af d3bd
00000020: 481f afbd 6ec0 793e 88d7 c83d fa45 9fbe
00000030: a015 94bd 526d 9bbe 7457 9c3d 830b 053d
00000040: fdbe 55be 3614 fa3d 2388 8bbd e78c 833e
00000050: 4a2f dbbd d19c 90bc 4e85 9cbd 1a66 b4bd
00000060: 26d8 60be e6b1 c5be b098 44bd a561 e4bd
00000070: a861 223a ee4d 32be 4bc3 333d a31f 4e3d
00000080: c9f6 36be 88ec e53d ab4d c6bd 2920 59be
00000090: f315 c43c 4c8e 4abd fd3d 98be f09d ca3c
000000a0: 346e 85be b9de c23d 0f5c 16be 4c53 5e3e
000000b0: 4718 bfbe aab3 043e 5d1d 04be a62a 4bbe
000000c0: a890 3a3d f827 0abd 336b 0f3c 23cc f7bd
000000d0: 382f 15be 2617 93bd d901 2bbe 9b62 81bd
000000e0: 6d60 023e 38ab 833d a5b0 6abe 77b3 a1be
000000f0: fc39 c9bd d94b 02be 889b 62be a6a8 5b3d
0.037723828 0.004788521 0.009651775 -0.17738971 -0.011589278 0.020504002 -0.2939921 -0.10336197
-0.08550888 0.24389812 0.09806734 -0.31108075 -0.07230687 -0.30356842 0.07633868 0.03248168
-0.20873637 0.12210886 -0.068130754 0.25693437 -0.10702379 -0.0176529 -0.07642613 -0.08808537
-0.21957454 -0.38612288 -0.047997177 -0.11151437 0.00061943615 -0.1741254 0.043887418 0.05032314
-0.17867579 0.112267554 -0.09682783 -0.21203674 0.023936247 -0.04945211 -0.29734793 0.024733514
-0.2606064 0.09515137 -0.14683555 0.21711463 -0.3732321 0.12959161 -0.12901826 -0.19840488
0.04554811 -0.033729523 0.008753586 -0.12099483 -0.14568794 -0.071821496 -0.16699924 -0.063176356
0.12732096 0.06429142 -0.22918947 -0.31582233 -0.09825513 -0.12724246 -0.22129643 0.053627633

a2c_network.value.weight f4 [1, 64]
00000000: 9161 8d3c 3c6d 7d3b e8d9 98bd bd35 ea3c
00000010: f556 dc3c e72a a03d 944e 0c3b f0f6 a13d
00000020: e066 a33d 6b7f 363e 5067 483d 4ca5 d0bc
00000030: 8c5c 9ebb 3c4c fbbc 5f43 1d3c 55e6 56bb
00000040: 007f f93d 8348 bd3d 7991 87bb 1e19 e7bc
00000050: 40ec 28bd d16a 08bb 3161 863d b275 07ba
00000060: 33c8 033e 2ac7 81bd 45fb b13c 37ce fabc
00000070: 2876 43bc 361e 3c3d 8594 aebc 9311 103d
00000080: bfca 0fbb 8d35 623d 6ed2 8b3d f606 f03a
00000090: 2fba e9bb 557f e43d 7bbc 963b a7bd 953b
000000a0: 8484 4dbd b980 0bbe a52e 923d 3af4 023e
000000b0: 4f4b f13c 55b5 3aba 8e13 3d3d 4076 5c3d
000000c0: 0322 b0bc f6d7 a0bb 2520 693c 8326 0d3e
000000d0: d1ec 25bd e0b8 d1bb 464e e03c 1afa 35bd
000000e0: 0449 4b3b 548a f2bb 3ab5 133d 1b44 8fbc
000000f0: d0c6 b1bc 6211 853c 5f46 4abc 6fcb 5fbb
0.017258437 0.0038669845 -0.07463437 0.028590078 0.026896933 0.07820683 0.002140914 0.07908428
0.07978606 0.17822044 0.04892665 -0.025469445 -0.00483281 -0.030676 0.009598582 -0.0032791097
0.121824265 0.09242346 -0.0041372147 -0.028210219 -0.04124093 -0.002081562 0.065615065 -0.0005167379
0.12869339 -0.06336816 0.02172626 -0.030615909 -0.011930026 0.04592725 -0.021311054 0.03517301
-0.0021940914 0.05522685 0.06827246 0.0018312621 -0.0071327905 0.11157099 0.0046001053 0.0045697275
-0.050175205 -0.13623323 0.07137803 0.12788478 0.029454855 -0.00071223575 0.046161227 0.05382371
-0.021500593 -0.004908557 0.014228855 0.13784222 -0.04050905 -0.0064002126 0.027381074 -0.04442797
0.0031018863 -0.007401744 0.036061503 -0.01748853 -0.021701247 0.01624364 -0.012345879 -0.0034148355

a2c_network.mu.weight f4 [7, 64]
00000000: 6312 8fbe d57e 0c3c 2a18 eebb 151b 153c
00000010: 4bd7 563d 55ed 1cbc 27fa cebc bdbf 5ebc
00000020: 214b 553c b632 2dbc 9580 c7bd fab7 54bd
00000030: becb f3bb 7a07 ebbc c329 f6bc d0a6 083c
00000040: 2606 093d 452c afbb 5f77 01bc d2fc 71bd
00000050: 518d 313c 6720 da3d 7bc1 5ebc 73d7 c5bd
00000060: 877d 073d 356e fc3c 2e6c c83c 4bfb 393c
00000070: 9afd b63d c167 233d 95f9 84bc 7d9d bebd
00000080: a5d9 da3c 2b70 96bd 9a2b 5f3b af10 c43c
00000090: 3c98 a0bd 6413 c8bb 35c6 22bd d4f7 0e3d
000000a0: 130f 20bd eb5d 9dbb e968 603c 3724 bb3d
000000b0: 1581 56bd ba22 c13d ec7d 0ebc bece 6f3c
000000c0: 0cfa ab3c a05f de3b d969 07bb b143 6f3c
000000d0: 84ab 3bba e94c de3c 398d 913d 00a7 233d
000000e0: 3094 df3d fedb 8b3e 91bd 5abd 34a1 01bd
000000f0: ca28 ab3d 7e23 373d 965b 103c 86dc 0e3e
00000100: 91cd 06be 12ce 593e b3b7 cbbd 2c9e 3cbc
00000110: a9a3 25be 2333 0a3d 5c6b 5abd 6d0f 903c
00000120: e27c 58bc 7ab0 febc 3095 eebd 830d 8e3d
00000130: 20c2 a2bc a28b edbc 4d49 b3bc 9b27 2c3c
00000140: 7678 c0bc 1ade 523d 1b97 d8bc 69a9 b0bd
00000150: dd66 6f3c 10af fe3d 4a90 903b 9203 063d
00000160: ea7f 1c3c 0c94 e8bd 01c5 b2bb f088 493c
00000170: 5f88 53bd 75b8 cb3c 6982 c7bb bc1e 353d
00000180: a4b9 b6bd 2962 dd3c 5ff4 b0bc f103 203d
00000190: 6a2b 963c 3eee babc c788 53bd 6514 aebc
000001a0: 72d4 913d 6857 163b ac2a 2dbc f302 a3bc
000001b0: 15d6 583d ad4a 54be 261a 6abb d5f2 2b3c
000001c0: 70c2 2bbc 7b22 e53c 9ad9 0fbc 17c4 2a3d
000001d0: 64f9 adbc d050 f43c 29ba c1bc 1800 b0bc
000001e0: 9b7d b8bc 2853 9a3d c9f8 a4bc 8095 253d
000001f0: d326 12be 3276 2cba 2282 113b abf9 a83b
00000200: d64d 07be 17d7 efbc 435e a83d a45d 0bbd
00000210: b7f5 90bd 9871 d13c 55fc e73d a052 89bb
00000220: f8f3 6b3b c5d5 16bd 54ff 0c3d d95e 213d
00000230: 4336 53bd 2e02 963c 5a35 14bd 766a dd3b
00000240: efa9 11bd 963a 7abc fac4 de3c 060a 493d
00000250: fa58 bbbc 1641 c43d e3c3 763c 7d7b 5f3d
00000260: b0e7 debb d37d b4bd bac8 d1bb 8078 3b3b
00000270: 578c d73d bf96 60bd b899 423c 6803 84bb
00000280: bb6b febd 2c5c c83c 9ce9 a1bc 1365 863c
00000290: e924 d1bd 05d5 0b3d 4c66 df3b dc52 57be
000002a0: fb33 dd3c ed99 72bd 7065 e93b d5c4 b23c
000002b0: a54f 1a3d 97d6 d3bc 48b6 5ebb f6e2 53ba
000002c0: 7906 d2bd f57d babc a7b3 e83b fdc6 623b
000002d0: 5880 823c 9656 75bd 520a 12be d20c 9dbc
000002e0: 1472 3b3e 462c e53c 676c a83d e281 a23a
000002f0: 80c8 42be 394d 79bd 1e27 ec3c 8841 0b3d
00000300: c61c 7a3d 11f7 2cbd 50a0 3a3d a745 903d
00000310: bbc8 003e 1a64 bdbc cb25 573d 7c6e e03c
00000320: 4f14 e23c 3f2a 173d de4a 1dbe a464 66bc
00000330: 7517 7b3d 274b bb3d d7ce 933d d997 e83c
00000340: ee20 743d 7a09 a9bc 8f2f 143e 9874 cebc
00000350: f4a6 893c b171 df3d a43c 173d e004 70bd
00000360: 7fd2 0bbd eec8 103b 1082 9dbd 3f9e 88bc
00000370: 7454 b13d cc9c df39 86d0 90bc 8932 0fbd
00000380: 9279 9cbd 5635 f73d c821 6f3d e229 0abe
00000390: 7286 45be d262 a1bc 9158 863c c6da 2e3c
000003a0: a1c8 813d 2ed6 d8bc 7c6d 1e3b 60e5 15bd
000003b0: cb12 41be 624d 29bd 5ee0 fd3c 6dc6 703d
000003c0: e425 b43d e584 bbbc 45bb 06bd 9013 e63d
000003d0: cfc8 59bd 38d1 9f3d 466f 833c d01f 193e
000003e0: c1f8 b3bd 43ba 063c c0ce 8ebb f68d c3bc
000003f0: f2ea 13be 208c 7abd 16fa 99be 54c1 4ebc
-0.27943715 0.008575161 -0.007266064 0.009100695 0.052451413 -0.009578069 -0.025265766 -0.013595519
0.0130184 -0.010571172 -0.09741322 -0.051933266 -0.0074400594 -0.028690089 -0.03004921 0.008340552
0.03345313 -0.0053458535 -0.007901995 -0.059079 0.010836915 0.106507115 -0.013595934 -0.09660234
0.033078697 0.03081427 0.024465647 0.011351417 0.089350894 0.03989387 -0.016232291 -0.09307382
0.02671511 -0.07345613 0.0034053088 0.023933737 -0.078415364 -0.006105827 -0.039739806 0.034904316
-0.039076876 -0.0048024557 0.0136968875 0.09137767 -0.052369196 0.09430452 -0.008697014 0.0146366935
0.020993255 0.0067863017 -0.0020662455 0.014603541 -0.00071590417 0.027136283 0.07107014 0.039954185
0.109169364 0.27316278 -0.05340344 -0.031647876 0.08357389 0.044711582 0.008810898 0.1395131
-0.13164355 0.21270016 -0.09947147 -0.0115123205 -0.16175713 0.033740174 -0.053325042 0.01758548
-0.013213368 -0.03109001 -0.11649549 0.06936171 -0.019867957 -0.028997246 -0.021885538 0.01050749
-0.02349494 0.051481344 -0.02643924 -0.086260624 0.014611927 0.12435734 0.004411732 0.03271825
0.009551981 -0.11356363 -0.0054556136 0.012300715 -0.051643725 0.02486823 -0.006088544 0.044218764
-0.08922127 0.027024345 -0.0216009 0.03906626 0.018331248 -0.02281868 -0.051644113 -0.02124996
0.07120599 0.0022940282 -0.010569256 -0.019898867 0.05293854 -0.20731612 -0.0035721152 0.010494907
-0.010483369 0.027970543 -0.008779908 0.041690912 -0.021237083 0.02982369 -0.023648338 -0.02148442
-0.02252083 0.07535392 -0.020138161 0.040425777 -0.14272623 -0.0006578892 0.002220281 0.005156716
-0.13213286 -0.029277368 0.08221104 -0.03402485 -0.070781164 0.025566861 0.113274254 -0.004190758
0.003600357 -0.03682496 0.034423187 0.039397094 -0.05156542 0.018311586 -0.036183693 0.006757076
-0.035562452 -0.015272757 0.027193535 0.049081825 -0.022869576 0.09582727 0.0150613515 0.054561127
-0.0068025216 -0.088130616 -0.0064021023 0.002860576 0.105248146 -0.054831263 0.01187747 -0.0040287264
-0.12422892 0.024458013 -0.019764714 0.016405618 -0.10212118 0.034138698 0.0068176147 -0.21027702
0.027002325 -0.059228826 0.007122688 0.021822372 0.03767361 -0.02585916 -0.003398316 -0.0008082831
-0.10255141 -0.02276514 0.0071014944 0.003460347 0.01593034 -0.059897028 -0.1426175 -0.019171152
0.18305236 0.027975213 0.08223801 0.0012398327 -0.19021797 -0.06086466 0.028827246 0.033998042
0.061062597 -0.04222781 0.045563042 0.07044535 0.12576573 -0.023119021 0.052526277 0.027396433
0.027597575 0.036905523 -0.15360591 -0.0140620805 0.061301667 0.091451935 0.07217186 0.02839272
0.059601717 -0.020634402 0.14471267 -0.02520208 0.016803242 0.10910357 0.036923066 -0.0585984
-0.03413629 0.002209242 -0.07690823 -0.01667702 0.08658686 0.00042650697 -0.017677557 -0.034960303
-0.07640375 0.1207072 0.058381826 -0.1349254 -0.19289568 -0.019700442 0.016399654 0.010672277
0.06337095 -0.026469316 0.0024174144 -0.036595702 -0.18854825 -0.041333564 0.030990776 0.058782984
0.087962896 -0.022890517 -0.032893438 0.112342 -0.05317002 0.07803577 0.01604427 0.14953542
-0.087876804 0.008223119 -0.0043581426 -0.023871403 -0.14445093 -0.06116879 -0.30073613 -0.012619335

a2c_network.mu.bias f4 [7]
00000000: ea77 4f3d 3460 e3bc 15e3 73be fbb3 66bd
00000010: 43e9 dcbd 1175 113e b79a 37bc
0.05065147 -0.027755834 -0.23817094 -0.056323987 -0.10786679 0.14204814 -0.0112063205

exp_avg f4 [7]
00000000: ecff 033a 6e62 8938 cf20 633a aeca 92ba
00000010: 49f8 6d3a cc2a c9b9 aa68 2fba
0.0005035389 6.551003e-05 0.00086642517 -0.0011199319 0.000907783 -0.00038369594 -0.00066913164

exp_avg_sq f4 [7]
00000000: 7d97 2638 0761 2338 add5 2c38 180e 1e38
00000010: 5323 1438 dbc9 1738 affb 3738
3.971857e-05 3.8952592e-05 4.1206997e-05 3.768326e-05 3.5318848e-05 3.6189198e-05 4.3865e-05

exp_avg f4 [256, 19]
00000000: cc41 5fb9 c0e6 453a 2d9a b2ba d8c1 19bb
00000010: 2fb8 8eb9 1255 8dba 5658 7dba 36cd fe39
00000020: c078 283a b793 e239 937c abba 3033 8139
00000030: 4a02 82ba 9455 57ba df75 4b39 300e 36b9
00000040: 1f9c 14ba a345 25bb 1e5b d5ba f79a 4b39
00000050: 912b 8f39 4df5 b636 10cf 25ba 2580 3eb9
00000060: c077 bfb9 a906 eb39 0804 f139 7bbd 023a
00000070: 4bd8 e238 268c c7b6 36f9 d5b9 0526 4939
00000080: 7943 50b9 902e 323a eb8f c4b9 0807 abb9
00000090: 806c ac38 b796 40b9 a333 2eb9 56ea b737
000000a0: c598 223a fb72 e739 4baa 5039 b975 42b9
000000b0: 10ce e4b7 a62f 9fb8 f353 b238 4f05 d238
000000c0: cab4 b539 42a2 31b9 dc93 1c38 b740 8cb9
000000d0: ce45 493a ca83 8339 702e d038 6bcd 3039
000000e0: af44 6e38 8f6f 8ab9 ffe6 73b9 f302 9b3a
000000f0: ae40 bc3a ccce 1639 5afe 3d39 3191 23ba
00000100: cb5b 9eb9 9c3e 07b9 1c50 a439 274e 3139
00000110: 0a15 9339 7421 6cb9 da3a 9737 ac78 f039
00000120: 9ee4 793a 0f0e e439 f99d 7439 a6d2 0b39
00000130: 4c8b ec37 9905 b138 a163 f738 2fb3 d939
00000140: faf1 1f39 1390 3cb8 c607 0ab9 1d70 f0b8
00000150: e15e e9b7 d5b5 7937 0cb6 8b39 e6d4 bcb7
00000160: 3629 0e38 dd14 8038 0073 7339 f873 2539
00000170: a4a8 e939 a4f2 af36 bd46 2238 37e8 b839
00000180: caa2 b339 ee60 2fb8 b8b7 e6b9 3436 4339
00000190: cc27 f1b8 60ec 1cb7 8804 45b9 59af de38
000001a0: d574 3037 f886 5039 ebad 5eb8 3764 f9b7
000001b0: c363 9938 22e6 a839 031b 9239 62ad aeb9
000001c0: b711 e2b8 12a9 29b8 bda0 2a3a 8830 2e3a
000001d0: 044b 6039 42c1 beb9 d7ef bf39 8dd3 91b9
000001e0: 72e5 1739 7b5e bcb9 2877 2d39 dc11 d4b8
000001f0: c9ed d539 6aac 6ab9 b97e cb36 d991 2939
00000200: 269b 433a 9efe f339 451c 19ba 33b4 31b9
00000210: 9483 f6b8 2540 ce39 71b4 7d39 9cac 7439
00000220: 9b56 4338 422a b039 0bf3 01b9 7110 4e3a
00000230: 2827 d2b9 c7b1 0439 ea81 dbb9 d668 2b3a
00000240: 3131 b4b9 1f2c b839 c6c9 c339 6d87 293a
00000250: 0b32 56b9 40c9 63b9 8b1b a339 5a2e 7f39
00000260: e9fc 46ba 1586 91ba c390 633a d135 223b
00000270: 5127 0bb9 a7cf e939 0481 ddb9 e9f5 4fb9
00000280: c39f 2bba 6bff ad38 ce79 92b8 7fdb ee39
00000290: d20b fcb6 b549 3c39 d6d5 82ba 33c0 d339
000002a0: 386c c93a b33f d439 0520 a339 a6bf acb7
000002b0: 9191 f5b8 1142 9eb9 ec5c c0b8 f99f 4eb9
000002c0: e287 9c39 ac2c 7c39 670b 29b9 d237 c9b9
000002d0: 6c36 07ba 1589 64b9 26e8 8138 c672 d238
000002e0: 4fa9 9739 166b 33ba 3664 d3b9 61cc 9e39
000002f0: 4ceb 1ab8 47ca 2639 e34b d2b9 7932 0dba
00000300: 17d3 8b38 70e5 033a b8fe 81b9 4f06 c639
00000310: ac9b 0139 5630 9538 c3ee 9ab9 3b05 dab8
00000320: adf8 76b9 41ce 2f39 62f9 f638 3ebf a438
00000330: 4237 b1b9 42c4 24b9 d325 4f39 4341 8639
00000340: 9703 c138 63f6 30b7 bdf6 b339 75ec 50b8
00000350: 1999 23ba 0277 1c38 6383 17b8 c041 8bb9
00000360: 3c93 3339 bc9e 2839 73e2 fd38 573c 6c38
00000370: 1173 1ab8 588d e4b8 3690 86b9 4dff 8a3a
00000380: cfd6 a837 0b10 deb9 9861 50b8 09f6 9fb8
00000390: b48d 11ba 598e 97ba 3f30 a9b9 e96b 123a
000003a0: dfd8 1dba e1a0 2a3a 4cf9 1eb8 355b 023a
000003b0: b145 dbb9 a3cd 32b7 a5c3 feb9 1af9 8e39
000003c0: 407d 7639 7325 9d39 c1ed 93b9 4b15 5038
000003d0: befa 373a 0ce2 1c3a 9036 bf39 df4a 773a
000003e0: abd3 4a3a 900a 05ba a12a c5ba 2a79 6f39
000003f0: 97fe c2b9 49fe 81ba 4332 e6b9 b79b 4c39
-0.00021291449 0.0007549338 -0.001362627 -0.0023461487 -0.00027221578 -0.0010782799 -0.0009664347 0.0004859955
0.00064266846 0.00043216135 -0.0013083391 0.00024642935 -0.0009918895 -0.0008214351 0.00019403499 -0.00017362158
-0.0005669016 -0.0025218509 -0.0016277765 0.00019417318 0.00027307545 5.4525794e-06 -0.0006325105 -0.0001816755
-0.0003651958 0.00044827655 0.00045970106 0.0004987341 0.000108168075 -5.9469776e-06 -0.00040812202 0.00019183017
-0.00019861561 0.00067970995 -0.0003749126 -0.000326209 8.221809e-05 -0.00018366693 -0.0001661317 2.1924421e-05
0.0006202574 0.0004414542 0.00019899865 -0.00018545137 -2.7275673e-05 -7.590586e-05 8.503338e-05 0.00010014569
0.0003465771 -0.00016940481 3.7331003e-05 -0.00026751097 0.0007677943 0.00025084458 9.9268625e-05 0.00016861192
5.680759e-05 -0.0002640453 -0.00023260339 0.001182644 0.0014362538 0.00014382153 0.00018119198 -0.0006239592
-0.000302045 -0.00012897927 0.00031340204 0.0001690915 0.000280537 -0.00022519176 1.8028008e-05 0.00045866275
0.0009532663 0.00043498023 0.00023328503 0.00013334546 2.8198257e-05 8.44106e-05 0.00011796435 0.00041522968
0.00015253565 -4.4956872e-05 -0.00013163601 -0.000114649745 -2.7819946e-05 1.4883893e-05 0.00026647781 -2.2510485e-05
3.389382e-05 6.107402e-05 0.00023217127 0.00015778828 0.0004456687 5.2436535e-06 3.868969e-05 0.00035268228
0.00034262828 -4.1813524e-05 -0.000440059 0.00018616841 -0.00011499188 -9.35336e-06 -0.00018789072 0.00010618446
1.051762e-05 0.00019886706 -5.30909e-05 -2.972978e-05 7.3141906e-05 0.0003221492 0.00027867415 -0.00033317046
-0.000107798194 -4.04502e-05 0.0006508937 0.0006644805 0.0002139025 -0.00036383612 0.00036609053 -0.00027814173
0.00014485957 -0.00035928548 0.00016542955 -0.00010112274 0.0004080369 -0.00022380208 6.064624e-06 0.00016171428
0.00074617786 0.00046538276 -0.00058406993 -0.00016947165 -0.000117547024 0.00039339173 0.0002419518 0.00023333955
4.657228e-05 0.0003360082 -0.00012392939 0.00078607263 -0.00040083495 0.00012654728 -0.0004186773 0.0006538754
-0.00034368926 0.00035128088 0.0003734363 0.00064670184 -0.00020427273 -0.00021723378 0.00031110304 0.00024335962
-0.0007590787 -0.0011102582 0.0008680934 0.0024751315 -0.0001327072 0.00044595936 -0.0004224853 -0.00019832667
-0.00065469387 8.296858e-05 -6.9845104e-05 0.00045558435 -7.5115613e-06 0.00017956535 -0.0009981941 0.00040388256
0.0015367335 0.0004048325 0.0003111364 -2.0593241e-05 -0.00011709624 -0.00030185332 -9.1725815e-05 -0.00019705285
0.0002985588 0.00024049234 -0.00016121344 -0.00038379297 -0.0005157951 -0.00021794841 6.19444e-05 0.000100349585
0.0002892711 -0.0006844265 -0.0004031972 0.00030288383 -3.69356e-05 0.00015906348 -0.0004011086 -0.0005386244
6.667355e-05 0.0005031442 -0.00024794578 0.00037770203 0.00012360391 7.113877e-05 -0.0002955106 -0.00010396024
-0.00023553027 0.00016766136 0.00011776645 7.855751e-05 -0.0003380124 -0.0001571337 0.00019755149 0.00025607095
9.203626e-05 -1.0547784e-05 0.00034325375 -4.9811282e-05 -0.000624077 3.7304133e-05 -3.612357e-05 -0.00026561134
0.0001712562 0.00016080862 0.000121061596 5.632298e-05 -3.6823625e-05 -0.000108982145 -0.00025665917 0.001060465
2.0127189e-05 -0.00042355093 -4.9681956e-05 -7.6275384e-05 -0.00055524264 -0.0011562809 -0.00032270138 0.0005585538
-0.0006021391 0.0006508958 -3.790231e-05 0.00049726974 -0.0004182286 -1.0657505e-05 -0.00048592422 0.00027269946
0.00023507047 0.00029973275 -0.00028215165 4.9610895e-05 0.00070182595 0.00059846113 0.0003647101 0.0009433459
0.00077372295 -0.00050751213 -0.0015042612 0.00022837953 -0.00037192248 -0.0009917702 -0.00043906466 0.00019512964
