runs/FrankaCubeStack_01-19-27-52/nn/last_FrankaCubeStack_ep_100_rew_22.170769.pth (torch, 578871 bytes, 36 tensors)

value_mean_std.running_mean f8 [1]
000000 9f 25 e9 65 ea bb 14 40
       5.183511345248376

value_mean_std.running_var f8 [1]
000000 bf c7 a2 4d 39 53 1f 40
       7.831273282108611

value_mean_std.count f8 []
000000 00 00 00 08 00 00 89 41
       52428801.0

running_mean_std.running_mean f8 [19]
000000 3d 12 0e 85 51 9a 80 3f 8e 70 55 1e 44 9e 9d 3f
       0.008106839058890642 0.02892404971258649
000010 97 d7 36 18 4f 50 7e bf 9d f1 62 78 66 bd ec 3f
       -0.007400807345609459 0.8981201506899655
000020 b3 75 85 22 78 c7 93 3f 47 f5 f6 d4 20 52 7a 3f
       0.019315602404608345 0.006425979852278835
000030 70 06 71 e6 65 cf f0 3f a7 8f a1 80 8f b3 8f bf
       1.050634288942458 -0.015479203331956471
000040 b9 19 e1 c4 47 54 77 bf 67 90 7b 60 ee fa 83 3f
       -0.005695610378160181 0.009755956954400525
000050 c7 a0 ce c6 64 bf 80 3f 1f f6 b4 6b bf 27 84 3f
       0.008177554432976198 0.00984143779225649
000060 57 80 76 7c d7 4e f1 3f 7f 1d 68 da 21 3e e1 bf
       1.0817484723884456 -0.5388345018154012
000070 b7 a0 20 d6 84 5f b8 bf 8b 3f 9f bd ac dd c0 bf
       -0.0952075026294804 -0.13176497706308185
000080 92 00 2d 21 6f 04 7a 3f 6c 26 79 f8 b3 1a 96 3f
       0.006351884937260037 0.021586238899806195
000090 0d b0 75 e8 1c d4 96 3f
       0.022293521583762344

running_mean_std.running_var f8 [19]
000000 e4 9c 42 39 a8 10 a5 3f 21 c0 74 82 a5 34 96 3f
       0.041142708768626496 0.021685205542951395
000010 8e bb 2c 2e 35 93 b8 3f 2d 7b c9 8c 6a 0c a1 3f
       0.0959962117892543 0.03329785317031617
000020 d0 97 a4 1a b4 ca 9c 3f 3a 56 af 37 a0 00 9c 3f
       0.028117002607494446 0.027346137427079344
000030 a1 4f d5 1e 2c b3 56 3f 61 57 b5 5c 0b 5d b1 3f
       0.0013854914535231593 0.06782599461925322
000040 04 69 48 3d 59 ef b0 3f 94 1a 3e 05 1b 44 79 3f
       0.06615216966784848 0.006168466137643453
000050 35 5d d2 72 d6 b3 95 3f 76 31 7b 91 c0 10 96 3f
       0.02119383884254696 0.021548279647320943
000060 48 aa 13 0b 4c e8 76 3f 01 56 2b d4 ed 21 e3 3f
       0.005592629474657836 0.5978917259150763
000070 df a1 d4 f1 fd 37 aa 3f 9a 00 5c df 94 5b 9b 3f
       0.051208434839569376 0.02671654332425586
000080 50 cc b1 f2 d2 11 7d 3f a2 2e a6 62 7d 47 19 3f
       0.00709707643101172 9.643271247322197e-05
000090 6f 0f 61 90 04 2c 19 3f
       9.602334839181407e-05

running_mean_std.count f8 []
000000 00 00 00 10 00 00 79 41
       26214401.0

a2c_network.sigma f4 [7]
000000 b6 fd 26 bf ad fe 18 bf 44 c5 20 bf a0 b5 4b be
       -0.6523088 -0.59763604 -0.62801003 -0.19893503
000010 f7 46 35 be 35 21 54 be 18 e4 65 bf
       -0.17702852 -0.20715792 -0.8980117

a2c_network.actor_mlp.0.weight f4 [256, 19]
000000 d9 ee e2 3c 0a b2 e7 bc 78 8a 20 3c b5 2c 44 bd
       0.027701782 -0.028283138 0.0097986385 -0.0478942
000010 2a 12 ed 3e e8 23 e9 be 7c 9c 5e 3c e4 9a b7 bd
       0.4630292 -0.45535207 0.0135871135 -0.0896509
000020 77 55 df bc b4 c2 c7 bd bf 80 d4 be fc 24 a4 3e
       -0.027262433 -0.097539335 -0.41504475 0.32059467
000030 02 15 00 bf 95 0a a5 3d 61 c4 c6 3b 87 4b a0 bd
       -0.50032055 0.08058659 0.0060658907 -0.07826906
000040 92 fe 0b 3e d2 0d 40 3c 9a 36 0a 3e ac 08 36 3c
       0.1367133 0.011722045 0.13497391 0.011110466
000050 5c 65 43 bd a1 df 11 3c 11 4f 10 bc fa 0e 6b 3e
       -0.047704086 0.008903415 -0.008807913 0.22954932
000060 c7 49 e3 3e 69 78 07 3e 96 eb 89 bd c1 6a b9 3d
       0.44392225 0.13229527 -0.067343876 0.09053565
000070 ee 23 d8 3d b3 66 87 bd 17 cf b6 be 32 f3 1b be
       0.10553728 -0.06611385 -0.35704872 -0.1522949
000080 24 87 04 bd ec d9 f8 bc f2 8a 51 3e ae c6 d1 3d
       -0.032355443 -0.03037735 0.2046316 0.10242973
000090 2f a9 ed 3d 60 42 9a 3d f7 92 2a bd 5b 4c a6 3b
       0.11604535 0.07532191 -0.041644063 0.0050750202
0000a0 d8 00 39 3d 7e e5 06 3d 9d 0a 35 be f2 fb e7 3e
       0.04516682 0.032933705 -0.1767983 0.45309407
0000b0 92 c4 f3 bd 42 28 96 3b 73 a2 0b bd d4 f6 89 3e
       -0.11902727 0.004582436 -0.03409047 0.26946127
0000c0 9d d4 03 3e bf 46 bf be b9 c2 e9 be e9 be e3 3d
       0.12874074 -0.37358662 -0.45656374 0.111203976
0000d0 c3 14 13 bc ba 7e a4 3b 4e 4b bd bd 42 bc b5 bc
       -0.008977118 0.00501999 -0.09242879 -0.022184495
0000e0 9a 25 9d bb ec 4e 85 3c b1 e2 07 3c bb 4c 5f bc
       -0.004795742 0.016272984 0.008293794 -0.013629134
0000f0 2a 39 87 3d e0 c5 0d bf ca b0 98 bd da aa 5c 3e
       0.066027 -0.5538006 -0.07455595 0.2154955
000100 ef e5 db bd 24 aa 9b bd 2a 1f 06 be 59 52 e0 3e
       -0.10737216 -0.07600811 -0.13097826 0.43812826
000110 c2 bf 5b bd f7 3c a6 be 3f 88 8a 3c 65 10 d3 bd
       -0.05364967 -0.32468387 0.01691067 -0.103058614
000120 65 f3 15 bd 87 71 8a 3d da 54 f9 3d aa 20 3b be
       -0.036609072 0.06759935 0.12174387 -0.18274179
000130 e7 40 5d bd d5 83 2a 3e 17 55 ce bd 9d 35 c4 3d
       -0.054016974 0.16651852 -0.10074823 0.095805384
000140 ff c1 d0 be c8 33 0b be 40 37 09 3e 8e 99 fd bd
       -0.40773007 -0.13593972 0.13399982 -0.12382804
000150 0e 2a 70 be cb 13 bc 3d 8a 06 1d 3e 33 0c 97 bd
       -0.23453543 0.09183463 0.15334526 -0.07375374
000160 94 a8 43 3d 18 bc d7 bd 24 ee 22 3d 57 48 86 3e
       0.04776819 -0.10533923 0.03977789 0.26227066
000170 61 57 41 3d e6 37 a4 3d 6f 56 45 be c0 49 ed 3b
       0.04720247 0.08018474 -0.19271253 0.0072414577
000180 db ec ec 3c 0e 0e ca bc 87 b1 2b 3d 8b 96 25 3d
       0.028921535 -0.024664905 0.04191735 0.040426772
000190 7f e0 77 3c a8 05 a7 bd 8e 8a 0c be a6 d5 d3 bd
       0.015129208 -0.08155376 -0.1372473 -0.103434846
0001a0 e1 c8 34 be 60 04 37 be a1 09 b4 bd e7 d4 39 bb
       -0.17654754 -0.17872763 -0.08790899 -0.002835566
0001b0 07 01 45 bd f4 8a 84 3d a4 f9 4c bc 0b 11 1d 3d
       -0.048096683 0.06471816 -0.012510691 0.03834633
0001c0 bb ee 1b 3e 8a 9b 3d be 29 56 a7 3d 2e 84 39 3d
       0.15227787 -0.18516365 0.081707306 0.045292072
0001d0 1f bb 5b bd c1 e8 f3 bd d5 c1 aa be 4a b9 b6 3e
       -0.05364525 -0.11909629 -0.33351007 0.3568824
0001e0 41 f1 c6 bd e5 f1 11 3d 1b 5a 3c be bb a7 1a 3e
       -0.09713984 0.03563108 -0.18393748 0.15103047
0001f0 df 78 02 3e 7e 90 48 be 48 84 16 be 61 ad b5 bb
       0.12741421 -0.1958637 -0.14698899 -0.00554435
000200 1b 48 75 3e 2d ca a2 3c 85 4e 18 be 04 aa 78 3d
       0.23953287 0.019871796 -0.14873703 0.060709015
000210 c1 9a 36 be 21 f5 4e bd 05 47 8f 3c af 41 38 3d
       -0.17832471 -0.050526742 0.01748992 0.044984516
000220 50 c3 07 be da 06 ff bc 49 f9 0e 3f 3e 7a 15 3e
       -0.132581 -0.031131197 0.5584913 0.14597413
000230 24 1d 34 bd ba 4d 24 3e b3 ce 12 3e 48 8d d1 3d
       -0.043973103 0.16045275 0.14336662 0.102320254
000240 18 30 02 bf 81 68 66 3e fe 8b 62 bc 10 c1 69 bd
       -0.50854635 0.22500803 -0.013827322 -0.057068884
000250 2b 5c 33 3e b2 62 89 3c 2f 6d b9 bd 05 91 d1 bd
       0.17515628 0.016770694 -0.09054028 -0.102327384
000260 44 27 34 3c 94 b2 25 bc f8 37 2a bc ba 4b df bd
       0.01099569 -0.010113377 -0.010389321 -0.109031156
000270 a5 4b e3 be b4 5b d2 be e6 48 fb 3d b7 08 0c 3e
       -0.4439365 -0.4108559 0.12269764 0.136752
000280 4b 7f 08 be 5b ed a8 3d 52 ba 09 3f 6c fe 67 3e
       -0.13329808 0.08248397 0.5379993 0.22655648
000290 e5 cd 83 be 1f 96 13 3d 68 ba e7 3c 3a b2 3e 3d
       -0.25743023 0.03603184 0.028287128 0.04655669
0002a0 22 7b d2 3c 9a ee 52 bd a9 a4 3d 3d 0a 40 a3 be
       0.02569348 -0.05149708 0.04629961 -0.31884795
0002b0 c1 71 6f 3c 6b 20 87 3d 57 4a 82 3f cf 10 83 3e
       0.014614523 0.0659798 1.0178937 0.2559876
0002c0 4b c9 86 be 50 79 9e bb af d1 c8 bd 4d 4d 01 bc
       -0.2632545 -0.004836239 -0.09805619 -0.007891965
0002d0 ff b5 12 be c9 cc 58 be 9a af 2f 3e 86 a8 06 3f
       -0.14327239 -0.2117187 0.1715683 0.52600896
0002e0 0e c8 5c bc 24 ff ab bd 23 ec 92 be 3f 49 d7 bd
       -0.013475431 -0.083982736 -0.28695783 -0.105120175
0002f0 be 8e 91 bd 00 ee 22 3e 3e 85 7a 3c 9a 14 f3 bc
       -0.07107304 0.15911102 0.0152905565 -0.02967291
000300 6f d7 99 bd 08 b5 c0 3b 1d dd a7 be c9 cd 00 3d
       -0.07511794 0.0058809556 -0.32785884 0.031446252
000310 2a 9e 14 3e 04 c3 8b bd e5 22 3d bd 34 32 a1 3b
       0.1451346 -0.06824306 -0.046175856 0.0049193148
000320 39 da 40 bd e9 e4 21 be 9a ff d0 3e 2a 82 77 3c
       -0.047083113 -0.15809979 0.4082001 0.015106717
000330 b2 f2 b7 3c c7 8a 9d be 97 be 1e 3e e9 53 28 3e
       0.022454593 -0.3076994 0.15502392 0.16438259
000340 30 e6 bd 3d 95 0a 0b be 00 46 da be 41 75 10 bd
       0.092724204 -0.13578255 -0.4263153 -0.035268072
000350 2a 76 0a 3e 75 89 ad 3e 10 2c ec 3e 31 5d 3c 3e
       0.13521639 0.33893934 0.46127367 0.18394925
000360 b7 e6 22 3d 68 1b e6 3d fb cb a3 bc bd bd e0 be
       0.039770808 0.11235696 -0.019994726 -0.4389476
000370 28 3b ec be c5 4b 27 3c 35 b6 ab bd 87 f8 1c bd
       -0.46138883 0.010210936 -0.083843626 -0.03832295
000380 e1 75 ec bd 36 16 a2 3c 0e d5 9a bd 03 b2 40 bd
       -0.11545921 0.019785982 -0.07560168 -0.047044765
000390 ac 50 81 3c 0c 30 b3 3d 0e 40 5a 3d e0 88 b4 3d
       0.015785538 0.087493986 0.053283744 0.08815169
0003a0 dd bb 47 bd 47 2a 7d be 6b 6d fb be 25 8f e6 bd
       -0.048763145 -0.24723159 -0.49106917 -0.112577714
0003b0 68 13 58 bd 7e 50 53 3f 0b 77 f7 bd b9 cc 13 3e
       -0.052752882 0.82544696 -0.120832525 0.14433564
0003c0 65 97 ea 3e 15 05 52 3d cb de f0 b9 9a 23 b8 bd
       0.4581863 0.051274378 -0.0004594236 -0.089911655
0003d0 de b4 27 3c db f1 50 bd 53 b8 12 3e 52 3d 04 3d
       0.010235993 -0.0510119 0.14328127 0.032285042
0003e0 a8 48 4f bd a0 c1 29 bd 17 b3 b7 bd 30 37 9e 3e
       -0.0506064 -0.04144442 -0.089697056 0.3090148
0003f0 ff d9 06 bf a4 d9 77 3e 14 b0 04 3e 98 77 68 3a
       -0.52676386 0.24204117 0.12957793 0.00088679185

a2c_network.actor_mlp.0.bias f4 [256]
000000 1e 27 a3 be 12 b2 f9 bc a9 e5 61 be 00 19 37 be
       -0.31865782 -0.030480418 -0.22060265 -0.1788063
000010 85 f4 d4 3d 08 e3 5f bc d4 c2 9b be f2 33 26 3d
       0.10398201 -0.013664968 -0.3042208 0.040576883
000020 4a 7d 1a be 2d 3a 24 3e 45 8c 90 3d 1c 8f 07 bd
       -0.15086856 0.16037817 0.07058004 -0.033095464
000030 c3 92 85 3e 20 d0 66 be f3 c7 6a be c8 43 96 be
       0.26088533 -0.22540331 -0.22927837 -0.29348588
000040 8c 87 21 3d 1d ae 97 bc f2 41 22 bc ea 1e d2 be
       0.03943591 -0.01851564 -0.009903418 -0.4103921
000050 65 e9 8d bd 58 fa 22 3d 3e 2a a7 bd 1c 5f 7c be
       -0.06929282 0.039789528 -0.08162354 -0.24645656
000060 eb 20 85 be f8 3d 34 3e ac 1b e4 bc 07 4b 86 be
       -0.26001677 0.17601764 -0.027845226 -0.26229116
000070 34 31 37 3d 8f 87 45 be 54 a4 f5 bd 73 be af 3d
       0.044724658 -0.19289993 -0.11994234 0.08581247
000080 c7 d0 08 be 11 8a 5d be 9d 54 01 3e d6 66 55 be
       -0.13360892 -0.216347 0.12629934 -0.2084001
000090 07 d2 8e be 80 0a ef bd d2 71 89 3e 5c 5e 05 3e
       -0.27894613 -0.116719246 0.2684465 0.13024276
0000a0 74 1f be be d5 97 7c be 02 0e 0a be 12 bb 9c be
       -0.37133372 -0.24667294 -0.13481906 -0.30611473
0000b0 13 5a 85 be 1c f2 c0 bd ed 6e af 3d be d7 81 be
       -0.26045284 -0.09421179 0.08566079 -0.2535991
0000c0 ef f5 9e 3d b9 9c bf 3d 12 32 66 be 65 1e 84 be
       0.07761752 0.09356064 -0.22480038 -0.2580444
0000d0 f3 35 3d 3e 22 b9 04 3f ca 49 6b bd ff 83 de 3d
       0.18477611 0.5184499 -0.057443418 0.1086502
0000e0 e3 ac 33 be 97 33 90 3d 90 a2 f8 bd dc 94 71 be
       -0.1754642 0.0704109 -0.12140381 -0.23591942
0000f0 05 7b 1f be bc ad 12 be 2c c6 aa bd 10 e0 33 be
       -0.15574272 -0.14324087 -0.083385795 -0.17565942
000100 9f 71 9e be c7 07 02 be fb 1c 2b be cc 04 4f be
       -0.3094606 -0.1269828 -0.16710274 -0.20216674
000110 f4 c7 89 3d b7 79 32 be ae ce 33 be f2 c0 87 be
       0.06727591 -0.17429243 -0.17559311 -0.26514393
000120 62 49 e4 3d db 5d b9 bd 82 a5 8b 3d ae 35 75 be
       0.11146809 -0.09051105 0.068186775 -0.23946258
000130 45 90 a1 3c 00 62 18 3d 52 05 9e be 1c 03 f0 bd
       0.019722113 0.037202835 -0.30863434 -0.11719343
000140 3f 65 48 3e 16 62 2e be 99 54 c7 be 5f 28 4c be
       0.19569872 -0.17029604 -0.3893173 -0.19937275
000150 71 bf 51 bd 09 ef e5 bd 62 e2 c4 bd 3f 24 7e 3e
       -0.051207963 -0.11227233 -0.096134916 0.24818514
000160 c3 7c 15 3d bc 99 94 3d 9a a3 c6 bd b7 40 23 3e
       0.036495935 0.07255885 -0.09699173 0.15942656
000170 ae 76 a1 3d 93 55 81 3e 98 d2 6a 3d ae 29 ed 3d
       0.078839645 0.252606 0.057329744 0.115802154
000180 92 83 ae 3d d3 80 01 3e 49 e3 b0 3d a2 08 5f be
       0.08521189 0.12646799 0.08637101 -0.21780637
000190 6b b2 1c 3e 2e 07 61 3c de 93 2f 3b e9 e1 0b 3d
       0.15302436 0.013734622 0.0026791017 0.03415099
0001a0 01 ad 80 3d 6e 7d e6 3c 44 75 08 3e 1a e8 47 3e
       0.06282998 0.028135981 0.13325983 0.19522133
0001b0 f3 9e 0f 3e 49 ea de bc 84 cd 84 bd f5 81 93 bd
       0.14025478 -0.027211325 -0.064845115 -0.07202522
0001c0 8d 5b f9 bc bc a2 94 3d 74 7f 51 be 9e 7e 82 3d
       -0.030439163 0.072576016 -0.20458776 0.063718066
0001d0 0c 63 d1 be 10 5c c5 be 9e 9e ce bd 3e 4d 2c 3e
       -0.4089588 -0.385468 -0.100888476 0.1682634
0001e0 59 4d 95 be 97 6f a1 be e2 9c 49 bd 56 b1 7f be
       -0.29160574 -0.3153045 -0.04922188 -0.24969992
0001f0 60 be 10 3e 1f 96 92 be af 47 6f be 22 65 5b bd
       0.14135122 -0.28630158 -0.23367189 -0.053563245
000200 50 ce fc bd db d5 16 3d 00 0e 17 3e b0 81 9c 3e
       -0.123440385 0.036825042 0.14751434 0.30567694
000210 45 a6 8d be 17 05 2c bd 60 b3 83 3d 59 57 9c be
       -0.27665916 -0.04199704 0.064306974 -0.3053539
000220 b2 bf 80 bd f7 1e 34 be d7 16 8f 3d 6f 23 b3 3d
       -0.06286563 -0.17589937 0.06986778 0.08746993
000230 42 13 53 3c 1f 9e 60 be 49 4f ac be e5 0d 3b be
       0.012883009 -0.21935318 -0.3365424 -0.18267019
000240 26 c8 25 be bd fb 6d be 55 6e ea 3d ff 4f 88 3d
       -0.16189632 -0.23240562 0.114468254 0.06655883
000250 2d 75 29 bd 55 c8 d9 be 13 38 0e bd b4 f3 ec 3d
       -0.041371513 -0.42535654 -0.034721445 0.1156992
000260 ac 19 d7 3d c3 7b 0d be ce 4b 78 be f1 f8 7a be
       0.105029434 -0.13816743 -0.24247667 -0.24509026
000270 a7 35 23 3d 62 b8 b5 3d a9 84 35 be 86 3c 93 be
       0.03984609 0.08873059 -0.17726387 -0.28757113
000280 3b f7 7d be 0b e7 a5 be 7b f0 b5 3d a5 46 f9 bc
       -0.24801342 -0.32402834 0.08883759 -0.030429194
000290 69 58 c7 bd 7c 39 98 be 17 02 b5 bd c5 9b 13 3e
       -0.0973366 -0.29731357 -0.08838289 0.1441489
0002a0 98 6b 7c be 4e 74 e1 bc 99 72 89 3d 43 33 8b bc
       -0.24650419 -0.027521279 0.06711311 -0.016992217
0002b0 c2 39 fe bd 64 97 c7 be f2 01 bf bd e6 e8 9f 3b
       -0.1241336 -0.3898269 -0.09326543 0.0048800586
0002c0 ce 9b 13 bd ba e8 5f 3e 5f 55 30 be 19 a0 8a be
       -0.03603726 0.21866122 -0.17220066 -0.2707527
0002d0 f5 8c d0 3d e5 9d d0 bd 98 9f a8 3c c4 f9 2d be
       0.101831354 -0.10186366 0.020583913 -0.1698981
0002e0 9e 2f b6 3c ff 96 06 3c 39 14 50 be 72 0a 35 3c
       0.022239503 0.008214711 -0.20320214 0.011049854
0002f0 ea ca 88 3e 7a fd 11 be 60 8f 8b 3d d9 c6 13 bf
       0.2671731 -0.1425685 0.06814456 -0.5772529
000300 c4 bb 8b bd b0 21 1e bd 82 4b a8 bb 3e 3e 3d 3d
       -0.06822923 -0.038606346 -0.0051359544 0.046201937
000310 28 6c 18 be af 76 c0 bd 03 77 ce 3c 54 69 c0 be
       -0.14885008 -0.09397637 0.025203234 -0.3758036
000320 1f 01 a5 be 09 67 ca be 6e 78 95 bd 98 cb 8c be
       -0.32227418 -0.39531735 -0.07298361 -0.2749908
000330 10 38 3f 3c 11 c8 0d 3d 37 cb 43 be 8c 0b 89 bc
       0.011671081 0.034614626 -0.19120489 -0.016729139
000340 d1 ef 0c 3e 21 bd 98 bd dc f8 8b be c2 98 77 3e
       0.13763358 -0.074579485 -0.27338302 0.24179366
000350 0b 46 5e be fa f7 3a 3e 80 4e 89 bd 3c db 63 bd
       -0.21706407 0.18258658 -0.06704426 -0.055629
000360 50 bc 52 bb f1 99 d2 3c c9 d1 4b bc 8c 4f 83 bd
       -0.00321557 0.02570817 -0.012440153 -0.06411657
000370 65 ef b1 3c eb 9b 6b 3d bd 58 40 be 93 7e 8c bc
       0.021720598 0.05752174 -0.18783851 -0.017150199
000380 4f 71 e2 be bf 4b fb bd 15 69 da be e5 9a 68 be
       -0.44227073 -0.12270307 -0.42658296 -0.22715338
000390 b7 c8 fc bd f5 a8 79 be e0 db 6f 3d 1b e7 ec 3d
       -0.12342971 -0.24380858 0.0585593 0.11567517
0003a0 0c df 97 be 02 24 82 be 4d 38 33 3d 2f 31 0f 3e
       -0.2966236 -0.25418097 0.043754864 0.13983606
0003b0 f4 6b b9 3d 3d d6 2c be 66 45 97 be 5d 02 82 bd
       0.090537935 -0.168786 -0.29545134 -0.06348107
0003c0 e3 c7 a3 bc a3 c1 70 bd 0a de 85 be 77 7b da bd
       -0.019992774 -0.058778416 -0.26145965 -0.1066808
0003d0 d3 b4 18 be 27 a4 ae be 6f e8 0f be 9c 7c d5 bd
       -0.14912729 -0.34109613 -0.1405351 -0.10424158
0003e0 7d cf e2 3d 8c c6 86 be 48 3b 8d be 44 86 dd bd
       0.110747315 -0.26323354 -0.2758429 -0.10816625
0003f0 00 77 b0 3c 8f 38 ec be fb 92 27 3e 55 12 9f bd
       0.021541119 -0.461369 0.16364662 -0.077671684

a2c_network.actor_mlp.2.weight f4 [128, 256]
000000 72 16 bf 3c 99 62 dd 3d df e8 2c bd dc 55 e3 3c
       0.023326132 0.10809822 -0.04221427 0.027750902
000010 0b 15 22 bd 22 08 98 bd 4c d7 80 bd 44 bf 0e 3e
       -0.03957085 -0.07423426 -0.062910646 0.1394015
000020 f4 4b 72 3d 7b 23 02 bd 55 fb ff 3b 14 3b bd 3c
       0.059154466 -0.031772118 0.0078119435 0.02309946
000030 74 36 1f bd 82 dc b7 3c f9 b9 82 bc 21 56 a3 bd
       -0.03887029 0.022444014 -0.01595782 -0.07975412
000040 3d 70 38 3d 87 4e 40 3d 9f 3b d2 3d db 81 e9 3d
       0.045028914 0.04694989 0.10265278 0.11401721
000050 72 c1 e3 3c f3 a6 17 3c ac 2a 83 bd 52 44 df 3c
       0.027802203 0.009256112 -0.064046234 0.027254257
000060 9e a7 1e bc 85 6c e3 3c 2c 7b d3 3d b6 99 98 bd
       -0.009683518 0.027761707 0.103262275 -0.07451193
000070 97 aa ee bd d8 db 29 3e 45 23 ba 3b 2c 40 bd 3b
       -0.11653631 0.1658777 0.005680474 0.005775472
000080 b1 fd 9c 3d b6 5d af bd 83 43 45 bd 35 44 3d bd
       0.07665575 -0.08562796 -0.048160087 -0.046207625
000090 df 88 4b bd 3b 65 a9 ba 38 24 95 3d 0a d9 c9 3d
       -0.049691077 -0.0012923846 0.07282299 0.0985585
0000a0 a6 2b 82 bd c7 06 f1 3c 3e 84 68 bc e1 b6 3d 3c
       -0.063559815 0.029422177 -0.014191685 0.011579246
0000b0 32 57 32 bd f2 21 20 bd 9c 37 80 bc 78 37 88 bd
       -0.043540187 -0.039094873 -0.015651517 -0.06651205
0000c0 4c 93 08 3d a9 1e c2 bc 6e 3b 8e 3d 25 7d 2f bd
       0.0333436 -0.02369626 0.06944929 -0.042843957
0000d0 ae fd 69 3c ca 2f d2 3c f4 28 8a 3b 48 3d 23 be
       0.014281673 0.025657553 0.004216308 -0.15941346
0000e0 93 04 6b 3d 1a e5 fa bb 24 6b 7e 3d fc 8f 42 bd
       0.05737741 -0.0076567056 0.062113896 -0.047500595
0000f0 74 99 d2 bc be e8 5a bd fa 3c b1 bb 51 03 cd 3d
       -0.025707938 -0.053444616 -0.0054088803 0.10010398
000100 30 6c c9 3d d3 f0 cb 3a a0 7c 31 bd 1c 20 2a bc
       0.09835088 0.0015559442 -0.043331742 -0.010383632
000110 4a c3 a5 bc 88 e1 68 bd 3e 3c 29 3c 74 b2 89 3c
       -0.020234723 -0.05685571 0.010329304 0.016808726
000120 53 f1 f7 ba 07 b9 e7 3d 9b e9 a7 3b c6 d7 ff bb
       -0.0018916525 0.11314588 0.0051242835 -0.0078077046
000130 cc 9c 92 3c 82 99 81 3d 2f aa bb bd 3d d8 30 bc
       0.017897032 0.063281074 -0.09163319 -0.010793743
000140 c6 e0 ea bd ec fa b9 3d 79 34 10 bd ad a0 56 3d
       -0.114686534 0.09081063 -0.03520629 0.052399326
000150 a3 24 8d bd cb ca 56 bc da 6e 31 3c 21 ef 39 bc
       -0.068917535 -0.013109873 0.010829652 -0.011348517
000160 50 20 25 bd 83 3b ca bc de 94 2c 3c c9 af 46 bd
       -0.04031402 -0.02468658 0.01053354 -0.048507486
000170 e8 e7 0d bc 1f 05 5e 3c e6 97 1c 3d 0e f6 4a bd
       -0.008661248 0.013551026 0.0382308 -0.049551062
000180 4d 92 8a 3b 40 af 89 bd dd 95 00 3d 5c 14 ab bc
       0.004228866 -0.067228794 0.03139292 -0.020883732
000190 c9 8a 2c 3d 2d e8 06 3d 0c e6 ae bc b9 e7 c0 bd
       0.042124543 0.032936264 -0.02134993 -0.094191976
0001a0 1f d6 3b bd fc 18 7c bd f8 96 3d bd 57 8f ae 3d
       -0.0458585 -0.061547264 -0.046286553 0.08523434
0001b0 f2 52 db 3d 93 12 1e bd 0b 50 47 bc 1c d9 ab 3d
       0.1070918 -0.038591933 -0.01216508 0.0839102
0001c0 e2 0e b9 3b 73 33 e4 3c 62 11 15 3d 53 84 05 bd
       0.005647526 0.027856564 0.03639353 -0.032596897
0001d0 db 94 5b 3d 45 66 56 bd 69 f0 9c bb 4d 20 b2 bd
       0.053608757 -0.052343626 -0.0047894013 -0.08697567
0001e0 46 f1 b8 bc ac b7 12 3d 13 1b 65 bd f7 66 5f bd
       -0.022575986 0.035819694 -0.055934023 -0.054541554
0001f0 b3 02 8f bd 77 f3 c3 3c e9 ee 9a bd ba 7e 9d 3d
       -0.06982937 0.023919804 -0.075651 0.07690187
000200 8b 01 0e be 8f b5 09 bd e2 ac 1e bd a1 3e 69 3b
       -0.13867776 -0.033620413 -0.038739093 0.0035590308
000210 7f 15 60 3d d8 55 86 bd 0a e7 95 bd d8 4e 1f 3e
       0.054708 -0.06559342 -0.07319458 0.1555742
000220 72 18 28 bd f8 27 d6 bc 9b 63 a9 bd b7 fd 95 3d
       -0.041038938 -0.026142105 -0.08270951 0.07323783
000230 1f 7c 31 3c cd ae 94 3d a7 03 24 bd 31 87 ea bd
       0.010832815 0.07259903 -0.040042546 -0.11451567
000240 3c 3a 1e 3d e9 57 af bd 9b 59 78 bb 36 da ad 3d
       0.038629755 -0.085616894 -0.0037895206 0.08488886
000250 3f 21 9c 3d 9b 06 48 3b f7 c8 3c 3b 37 c9 ce bc
       0.07623529 0.0030521515 0.0028806308 -0.025242431
000260 61 29 fd 3c d7 35 30 3d 57 a7 81 bc 50 16 d5 bc
       0.03090352 0.043020096 -0.015826864 -0.026011616
000270 e7 1f a0 3c 6d 11 1d 3d d0 8b 4e bd be 4c b4 bd
       0.019546462 0.038346697 -0.050426304 -0.088037
000280 8a f8 8b bb 56 17 55 bb d6 5c 9e bb 5e 42 08 3d
       -0.0042715715 -0.003251513 -0.0048328442 0.033266418
000290 3d 5e 8b bc c2 db c5 bd b0 d2 53 3d 20 07 1e bc
       -0.01701271 -0.09661056 0.0517146 -0.009645253
0002a0 8a 7e 0d 3d 1f 67 02 39 45 b7 8d bd 8e 56 3b bd
       0.034544505 0.00012436182 -0.069197215 -0.04573684
0002b0 cb 90 b6 ba 11 e2 4c 3d a0 27 42 bd 1b f5 c8 bc
       -0.001392865 0.05002028 -0.04740107 -0.024530938
0002c0 4f 94 20 bd 51 7f b1 3c c3 92 68 bd ab fa 78 3d
       -0.039203938 0.021667155 -0.056780588 0.06078593
0002d0 2b 16 85 bc 11 40 28 3d 0c 3d 67 bd 3f 87 3a bc
       -0.016245922 0.041076723 -0.056454703 -0.011384784
0002e0 46 c6 ab bc a2 eb 93 bd 83 6a 8e 3d 3d 49 c5 bc
       -0.020968568 -0.07222678 0.06953909 -0.024082774
0002f0 31 46 2b bd 19 40 a7 bb 1f 40 7d 3c cf 4f 33 bc
       -0.041814987 -0.0051040766 0.015457182 -0.010944321
000300 8f 1f aa bd eb a9 c6 3c 6a 6c 15 bc cb 36 84 3d
       -0.083068006 0.024250945 -0.009120086 0.064557634
000310 dc 3a 6e bd 3e 43 1d be 27 ed 90 bc 38 48 a8 3d
       -0.0581616 -0.15357682 -0.017691208 0.082169
000320 6d eb a6 bd 4c 8d da bd 23 00 8f bd 8a 97 a1 bd
       -0.08150373 -0.106714815 -0.06982448 -0.07890232
000330 6b 24 05 3d 34 89 c6 3c 32 12 6a 3c 00 18 fd ba
       0.032505434 0.024235345 0.014286565 -0.0019309521
000340 15 76 a5 bc 65 67 d5 3d ed d3 43 3d 48 97 96 3d
       -0.020197907 0.104201116 0.04780953 0.07353073
000350 86 8c 1a be 78 ac d7 bc 31 06 df 3d 01 4c 69 3d
       -0.15092668 -0.026327357 0.10889853 0.05695725
000360 7d d3 78 bc 34 b8 a8 3b 1b d5 d0 bd 4a ee 66 bd
       -0.0151871415 0.005148912 -0.10196897 -0.056379594
000370 6c 1b d8 bc 5e 3a 9b ba 16 26 a2 bd fa 0b 01 3d
       -0.026380263 -0.0011842956 -0.079174206 0.031505562
000380 02 a2 34 bd 30 0a ce bb 64 12 e5 3d 73 8b 9a bd
       -0.044099815 -0.0062878355 0.11185148 -0.07546129
000390 eb 73 4b bd 8d 1c 05 bd a4 fd ef 3c bc 7a af 3c
       -0.049671095 -0.03249793 0.02929575 0.021420829
0003a0 08 58 2f bd 9a 86 65 3c a9 b5 ac 3d 6c 84 97 3d
       -0.042808563 0.014009142 0.084330864 0.07398304
0003b0 67 68 81 bd b3 18 88 bd 0f b2 e2 3c 4e 13 75 3d
       -0.06318741 -0.06645336 0.027672796 0.059832864
0003c0 51 ec 9b 3d f5 b9 0e 3d 15 81 dd 3d da f5 99 bd
       0.07613433 0.03484531 0.10815636 -0.075175956
0003d0 14 30 ae bd 9f 39 b0 bd 45 a9 ad 3c 25 96 97 3d
       -0.08505264 -0.0860474 0.021198878 0.07401685
0003e0 b9 4d fa bc 3f 26 39 bd 03 3e 84 3d 9c 27 e3 3c
       -0.03055464 -0.04520249 0.0645714 0.027728848
0003f0 8e 2d 7b bc 93 e4 2d 3d 58 51 1b bd 8a 5b 48 3a
       -0.015330685 0.042454313 -0.037919372 0.0007643035

a2c_network.actor_mlp.2.bias f4 [128]
000000 18 c8 a4 bd 2f ee 0a be 8c 91 b9 be a9 7b 98 be
       -0.08045977 -0.13567422 -0.36243856 -0.29781845
000010 e4 c1 4d be a5 37 5f be d6 6f 9d be 95 25 f3 3c
       -0.20093495 -0.2179857 -0.30749387 0.029681006
000020 22 d3 a3 bd 3e b2 0f 3b a3 91 ba bd 56 28 ed be
       -0.07999255 0.002192631 -0.09109809 -0.46319836
000030 9c 4e e9 bd 2a 33 c8 be e5 16 90 be 1c 37 ef bc
       -0.11391947 -0.39101535 -0.28142467 -0.029201083
000040 cc e4 51 3d 6a 7c 27 3d 38 f2 e8 3d 81 fc 08 be
       0.05124359 0.040890135 0.113743246 -0.13377573
000050 f9 69 0c be fc 63 e4 3d 52 8c 67 3c a3 89 6b be
       -0.137123 0.11151883 0.014132576 -0.23001723
000060 0a 13 ec 3c 99 6d 57 be 72 e9 c9 3d 25 02 c0 be
       0.028817672 -0.21037902 0.09858979 -0.37501636
000070 63 6a bf 3d 86 bd 15 3d 6f 3e 08 3c cb 3b 44 be
       0.093464635 0.036557697 0.008315667 -0.19163434
000080 c1 4f 80 be 4f 76 62 3d e3 33 88 bd 5f 43 2e be
       -0.25060847 0.05528861 -0.066505216 -0.17017888
000090 98 05 0f bd 10 aa aa be 1e 2f c6 3d 33 56 1a bc
       -0.034917444 -0.33332872 0.09676956 -0.009419966
0000a0 29 8a 30 be 41 90 16 3d 23 57 f0 bd 5d 1a 0b bd
       -0.17240204 0.036758665 -0.1173537 -0.03396069
0000b0 52 7f 3e be 25 34 f6 be ac 3e 44 be 66 be 11 3d
       -0.18603256 -0.48086658 -0.19164532 0.03558197
0000c0 73 0b 87 3c ae 5b 24 3d b0 e7 9c bb 6e 99 c9 bd
       0.016484952 0.040126495 -0.0047883615 -0.098437175
0000d0 d2 1c 38 3c a4 2c 85 bd 66 55 04 3d 4d a4 a0 be
       0.01123734 -0.06502655 0.032308005 -0.31375352
0000e0 28 44 12 bd b6 23 48 3e 02 cf 82 bd cb eb e5 bd
       -0.03570953 0.19544873 -0.0638714 -0.112266146
0000f0 fc da 8b be d2 e8 04 3c 17 da 2a 3d 2f b4 93 be
       -0.2731551 0.008112149 0.041711893 -0.28848407
000100 09 f2 d4 bd ff 64 93 be 58 dd 8b 3d db 74 fa bd
       -0.10397727 -0.2878799 0.06829327 -0.1222932
000110 b9 8e 2e 3e 1b 96 5d bd 04 df 8d 3d 09 6f 89 be
       0.17046632 -0.05409823 0.069273025 -0.26842526
000120 8f f8 2d be d5 af 85 be a6 2b 5d 3d af ab b5 be
       -0.16989349 -0.26110712 0.053996705 -0.35482547
000130 db 76 db 3d d9 5c 9d bd 60 08 aa be b6 7a 42 be
       0.10716029 -0.07683725 -0.33209515 -0.18992123
000140 88 69 4b bd 8e 19 8a be 69 63 bb bd 92 26 88 bd
       -0.04966119 -0.26972622 -0.0914982 -0.06647982
000150 b7 87 18 3d 34 19 0c bf 05 e8 36 bc 59 66 71 be
       0.037238803 -0.54725957 -0.011163716 -0.23574199
000160 d3 f1 55 be 91 ac 1c 3e 69 eb 43 3b d0 16 59 3c
       -0.2089303 0.15300204 0.0029894954 0.013250068
000170 8c 7d 57 be 45 37 1e 3d 39 48 61 3c 31 d0 95 be
       -0.21043986 0.038626928 0.013750129 -0.292604
000180 12 b9 31 be 7a d9 16 be 75 98 ac bb 54 e7 78 bd
       -0.17355755 -0.14731398 -0.0052671977 -0.060767487
000190 b4 7e 90 3c e8 da 0d 3e aa d6 a3 bd 10 b2 d1 bd
       0.017638542 0.13853037 -0.07999928 -0.10239041
0001a0 94 d2 9f be 37 f4 94 be 65 4f 92 be 72 9c 84 be
       -0.31215346 -0.2909257 -0.28576198 -0.25900608
0001b0 7d 94 18 be 17 73 4a 3d ca 73 a8 be ae d3 aa be
       -0.14900394 0.049426164 -0.3290084 -0.33364624
0001c0 f1 68 56 bd 69 da 89 bd 02 1e a8 bd 5c 63 2c bc
       -0.052346174 -0.067311116 -0.082088485 -0.010521736
0001d0 60 a1 04 be 3b e4 ff 3b bd 0e 07 3e 84 1b 60 be
       -0.12952185 0.0078091896 0.13189216 -0.21885496
0001e0 2c 39 dd bd 1b 14 03 be 9a 00 87 be 30 9e e3 3d
       -0.1080192 -0.12800638 -0.26367646 0.11114156
0001f0 7d 20 a9 be f0 76 85 be 9a e3 ab be 90 cc f6 3b
       -0.330326 -0.26067305 -0.33572084 0.00753171

a2c_network.actor_mlp.4.weight f4 [64, 128]
000000 84 88 15 3d 25 f7 0b bd 51 70 d3 3c 45 0a 7d 3b
       0.036507145 -0.034171242 0.025810393 0.0038610857
000010 35 77 6d 3d 55 f6 f7 3d 9f 15 e6 bd d4 27 85 3c
       0.057975013 0.12107531 -0.11234593 0.016254343
000020 ea a3 dd 3c 81 bb 2a bd 2d 58 70 3d 2e d6 01 be
       0.0270557 -0.041682724 0.05867784 -0.1267936
000030 cd 18 60 3c 3c 4e ce 3d bb a1 e2 3d 96 8c fe bd
       0.013677788 0.10073516 0.11066004 -0.124291584
000040 75 0b 82 3d e1 fc ed 3c 1a 86 98 bd 2b db 6c 3d
       0.063498415 0.029051246 -0.07447453 0.057826202
000050 30 ce 5b 3c cd 2a 05 be e5 a9 30 3d a7 6c 91 3d
       0.013415858 -0.13004608 0.043130774 0.07100802
000060 04 d7 9a bc e0 31 1f 3d 34 1a b7 3d ac da ba 3d
       -0.018901356 0.038865924 0.08940545 0.091237396
000070 29 32 a8 bd 5b 90 06 bd a8 db 8a 3d b5 34 07 3e
       -0.08212692 -0.03285251 0.06780177 0.132037
000080 4a e6 e6 bd 95 b2 7c 3d 7f a3 b6 bc ca 50 db bd
       -0.11274393 0.061693747 -0.022294758 -0.10708769
000090 42 2a 91 3d f9 f7 bc 3c 80 c5 89 3c 50 3c a8 bc
       0.07088138 0.023067461 0.016817808 -0.020536572
0000a0 19 69 ff bc c4 6e 55 bd 0d 33 03 bd ee 08 a7 ba
       -0.031178044 -0.052107587 -0.032031108 -0.001274375
0000b0 a4 47 0b bd d8 c4 10 be e8 f1 ec bd 16 34 62 bd
       -0.03400387 -0.1413759 -0.115695775 -0.055225454
0000c0 d0 46 30 3b ed db 53 3d 72 56 eb bd 97 79 2b 3d
       0.0026897676 0.05172341 -0.114910975 0.041864004
0000d0 e6 92 77 3d 55 80 8e bc 26 52 52 3d bb f6 60 bd
       0.060442828 -0.017395178 0.051347874 -0.0549228
0000e0 9d 99 b3 bc 38 b4 96 bc 97 27 58 3d 35 21 a4 3d
       -0.021923834 -0.018396482 0.05277213 0.08014146
0000f0 2c 01 90 3d 95 5c 55 bb e5 00 9f 3d 36 10 0c bd
       0.070314735 -0.0032556404 0.077638425 -0.034195147
000100 b5 7f d3 3c 90 0e ed bd ca 17 d1 3c 64 5a a2 bd
       0.025817731 -0.11575043 0.025524039 -0.07927397
000110 62 78 00 bb 34 ab c1 bd db 6a a0 bd ba 4d e6 bd
       -0.0019603004 -0.094564825 -0.07832881 -0.11245294
000120 81 0e 5e be ff 1d 03 3e 09 dd c0 bd 5f 03 d4 3d
       -0.2168522 0.12804411 -0.09417159 0.103522055
000130 3b e6 0d be ea 24 30 3c dc 29 81 3d d4 78 dc 3d
       -0.13857357 0.0107509885 0.06306812 0.10765234
000140 8d 0a 8b 3d 3b 7a 8f 3c 20 9a 88 3d 34 e0 1b 3c
       0.06789122 0.017514339 0.06670022 0.009513903
000150 31 9f b3 3d 90 49 b3 bd d1 4e 94 3c ee c2 10 3e
       0.08770598 -0.08754265 0.018103989 0.1413686
000160 1d 65 aa 3d ca 8a 97 3d 33 c5 b0 bc ca 5b d6 3c
       0.08320067 0.07399519 -0.021578407 0.026166815
000170 2e 68 00 bf 76 a6 59 bd b9 df 76 3d 65 32 e2 be
       -0.50158966 -0.053137265 0.060271952 -0.44179073
000180 0a cd 3f 3d 2f d6 13 3d 2d 14 8c 3c f1 c7 37 be
       0.0468264 0.036092933 0.017099464 -0.17947365
000190 c1 f5 1d 3c 8b 8b 5f bd db c8 41 bd ca aa 2d bc
       0.009641112 -0.054576438 -0.04731069 -0.010599801
0001a0 83 5e f9 3c 53 2f 17 be 97 01 bf 3c c0 37 98 be
       0.030440575 -0.14764147 0.023316188 -0.29730034
0001b0 8c 92 dc 3c e4 09 18 bd 7c f4 25 3d 32 d8 90 bd
       0.026925348 -0.037118807 0.04051636 -0.07072486
0001c0 7a ce c8 3d dd 86 c1 3d 4c cb ed 3d df 3c af 3d
       0.09805007 0.09449551 0.116110414 0.08556532
0001d0 ea 62 91 3d ad 34 8a 3d 2f a4 b7 3c cb 8b de 3d
       0.070989445 0.06748328 0.022417156 0.10866507
0001e0 d7 a8 61 bd a9 cf 73 bd bf 44 64 bd fb 9c ba 3d
       -0.05509266 -0.059524212 -0.055729624 0.09111973
0001f0 cd 8b 08 be e4 1d 7a 3d b4 8d 1b bd 5c fe e1 3c
       -0.1333458 0.061063662 -0.037976936 0.027587108
000200 ec f7 72 3d 39 b6 0e be 0c 66 11 3d 6c 8d 82 be
       0.059318468 -0.139367 0.03549771 -0.2549852
000210 f8 08 a1 3c de 4a 2b bd cd 2c 4e bc cd 22 f6 bc
       0.019657597 -0.041819446 -0.0125839235 -0.030045891
000220 a1 a1 17 bd 8b 4f 9d bd 94 c7 35 bd c3 e5 d6 bc
       -0.037019376 -0.07681187 -0.044379786 -0.026232606
000230 0e de e2 3c 67 e8 c2 3d 4f 17 32 be da be 6f 3d
       0.027693775 0.095169835 -0.17391704 0.05853162
000240 7e 8a 32 bb f7 9f 97 3d c8 d4 ad 3b 5f 20 69 be
       -0.0027243192 0.07403558 0.0053049065 -0.22766255
000250 02 49 40 3d 48 94 48 be 3f 74 5d bd 0a 9e c8 3d
       0.046944626 -0.19587815 -0.05406594 0.097957686
000260 ee 4c 97 3c 9f 80 49 3c 3f 24 a9 3d a3 0c 0c 3d
       0.0184693 0.012298732 0.082588665 0.03419174
000270 cd d7 b0 bd df 73 e4 bc 87 81 3b bb 6a 04 ff 3d
       -0.08634911 -0.027887283 -0.002861114 0.12452014
000280 eb d1 db 3c f7 c4 2d 3c 62 4a f1 3d c8 97 1e 3e
       0.026833495 0.010606042 0.117817655 0.15487587
000290 49 a4 a1 3d c3 94 0d 3b 6b ea ad bc 9e bd af bc
       0.07892663 0.0021603561 -0.021229943 -0.021452721
0002a0 95 34 81 bb ba 13 f0 bd e4 fe 27 be d9 79 d0 bd
       -0.003943036 -0.117225125 -0.16405827 -0.101794906
0002b0 7c 93 cf 3d de ba ee 3c 14 c9 a4 bd 10 e8 f4 3c
       0.10135552 0.02914184 -0.08046165 0.029895812
0002c0 f2 25 80 3d 40 6b f2 3d a5 a3 f5 bc 91 4f e7 bd
       0.062572375 0.118368626 -0.029985258 -0.11294473
0002d0 d9 d2 21 3d 06 ac 08 bd 1c 23 48 3d 55 0c dc 3d
       0.03950772 -0.03336718 0.048861608 0.1074454
0002e0 c7 f4 c3 3c c8 07 19 bd 8b 94 7e bd d7 2f 79 bd
       0.02392043 -0.037360936 -0.06215338 -0.06083664
0002f0 36 50 59 3e 93 8a 92 3c 60 0f 8b 3c 50 fb ea 3c
       0.21222004 0.017888343 0.016975105 0.028684288
000300 bb 1a a6 3d c4 4d eb bc 3f dc 85 bd 44 06 94 3c
       0.08110567 -0.028723605 -0.06536149 0.018069394
000310 e1 f8 06 3d 46 4e 93 bd c6 42 f2 3d 2b 37 82 bd
       0.032952193 -0.07192664 0.11829142 -0.06358179
000320 de 39 50 be 43 a1 a1 3d 76 d4 fb bc f9 a4 be 3d
       -0.20334575 0.07892086 -0.030740958 0.0930881
000330 69 f9 e5 3c 3a 80 f6 bd cc a7 7d 3d 33 2e 67 bd
       0.02807303 -0.12036176 0.0619276 -0.056440543
000340 13 b9 85 3d dc 66 44 bd 58 1e a3 bb bd 65 46 3d
       0.06529441 -0.047949657 -0.0049779825 0.04843687
000350 1e b6 51 3d a3 ce 16 be 7e 22 b6 3d 92 d8 01 bc
       0.05119907 -0.14727263 0.088932976 -0.00792517
000360 20 13 f5 3d 0c 69 36 3d 31 12 d3 bd b9 2c 51 bc
       0.119665384 0.044533774 -0.10306204 -0.01276701
000370 8c a4 e0 bd 4c 88 cd 3d eb ba cd 3d 64 86 ae 3c
       -0.10968885 0.10035762 0.100454174 0.021304317
000380 99 14 a0 bd 5d 17 d1 3d 7f 3f e3 bb a4 f3 c3 bd
       -0.07816429 0.10209534 -0.0069350596 -0.09567955
000390 38 0d c5 3c 79 9e 10 3c 26 38 fb 3c 7e cf e4 be
       0.024054155 0.008826845 0.030666422 -0.44689554
0003a0 97 6b 04 be 7c b4 93 be ec c6 1e bd 5f 90 70 be
       -0.12931667 -0.28848636 -0.038763925 -0.23492573
0003b0 e1 ec 32 3c b6 42 1b 3d d4 47 e0 3d 08 7d 41 be
       0.010920734 0.037905417 0.109512 -0.18895352
0003c0 1b 12 72 3d b1 7b de bc d1 f8 dd bd 4a 82 d7 3d
       0.059099298 -0.02715859 -0.108384736 0.105228975
0003d0 2d 21 c6 3c 91 1f b3 3c 4e b9 bf bd 83 09 46 3d
       0.024185741 0.021865638 -0.09361516 0.048348915
0003e0 38 d3 cc 3d 53 3c 31 3d ed 7e a4 be 21 76 f4 bd
       0.10001224 0.04327042 -0.32128087 -0.11936594
0003f0 1c e4 bf bd 44 3f 2f be 25 a2 90 ba 91 8b 50 3c
       -0.0936968 -0.17113978 -0.0011034651 0.012728588

a2c_network.actor_mlp.4.bias f4 [64]
000000 02 46 38 3d b0 d6 2f 3d a2 bb a0 bc 2c e0 1c be
       0.04498864 0.04292935 -0.01962072 -0.1531989
000010 28 86 3c 3d 06 21 93 3d 47 ee 89 be 6f b6 1d 3c
       0.04602638 0.07184033 -0.26939604 0.009626015
000020 07 a9 90 bd 1f ac 85 3e f3 6c 07 3e 81 7e 9b be
       -0.070634894 0.2610788 0.13225155 -0.30369952
000030 19 68 a8 bc 10 b8 8e be 2b 99 9e 3d 76 18 0d 3d
       -0.02055745 -0.27874804 0.07744058 0.034447156
000040 b1 16 2a be 72 c3 32 3e d9 52 16 bd fb c2 50 3e
       -0.16610219 0.17457369 -0.036700103 0.20386879
000050 d5 40 f3 bd 10 80 d9 bb e0 16 fa bb 94 82 cd bd
       -0.118776 -0.0066375807 -0.0076321214 -0.100346714
000060 cb 88 18 be 13 3d b2 be 59 7f eb 3a c7 3c d7 bd
       -0.14895932 -0.3481222 0.001796703 -0.10509639
000070 ca 98 73 3c 5b f7 13 be ae d5 17 3d 8a 91 a1 3d
       0.014867971 -0.14449827 0.037069015 0.078890875
000080 a2 d0 21 be f4 ba 1d 3e 4b 0c 6f 3c bc 05 33 be
       -0.15802243 0.15403348 0.014590333 -0.17482656
000090 8c f3 25 3d cc c7 81 3c c7 90 93 be 10 03 15 3d
       0.040515468 0.01584234 -0.28821394 0.036379874
0000a0 e7 39 81 be ea b3 88 3d 32 f5 be bd 5a 85 89 3e
       -0.25239488 0.06674941 -0.09324111 0.26859552
0000b0 4b 9c b5 be 0f f9 12 3e e0 03 b9 bd 1b ec 05 be
       -0.35470805 0.14352821 -0.09033942 -0.13078348
0000c0 64 dd 3d 3d 64 d8 2e bd 57 8a 80 3c dc 1f d3 bd
       0.046353713 -0.042686835 0.015690966 -0.10308811
0000d0 c1 45 13 be fd 2d 90 bd 54 14 ef bd 21 e5 31 bd
       -0.14382078 -0.070400216 -0.11673799 -0.043431405
0000e0 a0 f0 13 3e c8 ae 62 3d 51 06 44 be 26 35 93 be
       0.1444726 0.055342466 -0.19143035 -0.28751487
0000f0 ec a3 e5 bd a5 bc d2 bd 60 20 7b be 40 bd 8d 3d
       -0.11212906 -0.10289887 -0.24524069 0.06920862

a2c_network.value.weight f4 [1, 64]
000000 16 54 f2 3c fd d5 b9 3c ba 8b 8a bd 61 e2 67 3c
       0.02958111 0.022685045 -0.06764932 0.014153094
000010 99 90 01 3d 63 e0 5e 3d f5 21 83 bc af 2d e0 3c
       0.03163204 0.05441321 -0.016007403 0.027365534
000020 c9 cd 5e 3d f6 98 0d 3e 98 7b 9f 3d b0 6a 6d bc
       0.05439547 0.13827881 0.077872455 -0.014490768
000030 89 65 b3 bc d8 ea 8e bc 9c dd 9d bc 86 aa 40 3c
       -0.021899002 -0.017445967 -0.01927071 0.011759406
000040 0d bd a9 3d 31 01 90 3d ea 07 d3 3b 1f d6 d6 bc
       0.08288012 0.07031477 0.0064401524 -0.026225148
000050 74 13 d9 bc 75 55 10 3c dc 4f 5c 3c 4e e3 98 3c
       -0.026498534 0.008809437 0.013446774 0.018663075
000060 84 cb 37 3d ce ab bd bc 14 22 e1 3c 72 ae 32 3c
       0.044871822 -0.023153212 0.02748207 0.010905849
000070 3d 5a 38 bc 55 34 66 3d 53 2e ee 39 67 c8 4e 3d
       -0.011251983 0.05620225 0.00045429412 0.050484087
000080 a6 07 b5 b9 fa 12 e8 3d f9 ab fe 3c cd fc 7e 3c
       -0.0003452871 0.113317445 0.031087862 0.015563202
000090 f9 04 83 3a 7f 56 73 3d d8 29 c1 3c d4 ef 6a 3c
       0.0009995989 0.05940866 0.023579523 0.014339406
0000a0 3d 15 3c bd 5b 52 07 be 86 da 1f bb cf d1 0b 3e
       -0.045918692 -0.1321501 -0.0024391725 0.13654254
0000b0 d8 e0 a0 3b b9 35 8a 3c 3f a0 6a 3b 9d 47 b7 3c
       0.004909616 0.01687132 0.003580108 0.022373015
0000c0 52 a0 2c bc af d8 69 3b ad 84 35 3c 89 55 b1 3d
       -0.01053627 0.0035682132 0.011078996 0.08658893
0000d0 07 93 70 3c f4 60 a7 bc 15 b1 8a 3c f6 60 4e bd
       0.014683492 -0.020431973 0.016930142 -0.050385438
0000e0 66 85 63 3c 80 1e 0b 3c 3b bc 20 3d 9f f0 9c bb
       0.013886785 0.0084911585 0.03924201 -0.0047894265
0000f0 d4 80 ee bc ac 48 08 3d 43 4f 1b ba 21 cd 06 bc
       -0.029114164 0.03327243 -0.00059245917 -0.0082276175

a2c_network.mu.weight f4 [7, 64]
000000 94 36 80 be 28 10 90 bc 95 52 ab bc dc d6 21 bc
       -0.2504164 -0.017585829 -0.020913402 -0.009877887
000010 0a 63 b0 3d 63 ec 61 bc de d8 5f bd fc 84 b7 bb
       0.0861264 -0.013789269 -0.05465018 -0.00560057
000020 24 50 07 3c 49 b4 90 bc 4d 2c ca bd f7 03 29 bd
       0.008258853 -0.017664092 -0.09871731 -0.041263547
000030 69 eb 18 3c 1d 4f f3 bb 3a c7 86 bb 59 7c 3b 3b
       0.00933347 -0.0074252025 -0.004113105 0.0028608053
000040 28 86 da 3b f6 19 ec bc 0a af 05 bc a8 a7 9b bc
       0.0066688247 -0.028820973 -0.008159408 -0.019000843
000050 0f d4 15 3c 80 53 a2 3d 92 e0 d0 ba c5 c5 a9 bd
       0.009144797 0.079260826 -0.0015936068 -0.08289675
000060 21 21 1e bc c3 0c 22 3d 68 a4 84 ba 27 eb 83 3b
       -0.009651453 0.03956295 -0.0010119798 0.004025835
000070 50 e4 bb 3d 55 44 c1 3c 0e b9 8c b9 77 79 c3 bd
       0.091744065 0.023592154 -0.00026840757 -0.09544652
000080 b0 79 2c 3c d5 8b bb bd a6 38 91 bb 88 a4 cd 3b
       0.010527059 -0.0915753 -0.004431802 0.006275717
000090 89 60 b2 bd d0 b9 b9 3b bf 01 36 bd a8 2c ae 3c
       -0.08709819 0.0056679025 -0.04443526 0.021261528
0000a0 17 28 10 bd 0e 66 b8 bc 75 34 7a bc 3e 34 ef 3d
       -0.035194483 -0.022509601 -0.015271296 0.11679886
0000b0 f9 3c 60 3c 1b 28 d5 3d 6d 1d cd b8 15 07 3b bb
       0.013686412 0.1040804 -9.780643e-05 -0.0028538157
0000c0 5a a0 f4 3c d7 fc a3 3c 00 5c a1 bb 77 7a 81 3c
       0.029861618 0.020018024 -0.0049242973 0.015805466
0000d0 69 bd 01 bc 85 d0 13 3c 2a 41 81 3d d6 b7 8e 3c
       -0.007918694 0.009021883 0.06311257 0.017421644
0000e0 2e 49 fb 3d 8e 10 87 3e b7 a6 04 bd 6a 11 8f bd
       0.12269817 0.26379818 -0.032385554 -0.06985743
0000f0 b9 a2 9f 3d 29 33 aa 3c 14 ad b5 3b f9 55 0d 3e
       0.07794709 0.020776348 0.005544314 0.13802327
000100 8e 1e b3 bd 20 63 59 3e 21 3c ab bd 7a 75 57 3c
       -0.08746062 0.2122922 -0.08361078 0.013150567
000110 25 1d 36 be c5 b1 57 bc b0 2d 39 bd 41 78 b6 b8
       -0.17784555 -0.013164942 -0.045209587 -8.700835e-05
000120 1c b1 96 ba 5e 42 1e bd 00 e2 09 be 56 c1 8b 3d
       -0.0011496875 -0.03863751 -0.13465118 0.06823985
000130 b7 5e 18 bb 9d c8 e1 bc 53 e0 9b bb 51 14 e9 b9
       -0.0023249814 -0.02756148 -0.004756966 -0.0004445636
000140 cd d8 e7 3b 58 ec 8f 3d 84 17 e5 b8 fe 97 55 bd
       0.007075405 0.07027501 -0.00010923951 -0.052146904
000150 05 03 e5 3c 06 ee 0d 3e 54 48 f3 3b cc 9a 0a bc
       0.027955541 0.1386033 0.0074243937 -0.008459758
000160 86 0e 8a bb 98 0e 06 be 66 00 8f ba c2 51 a3 39
       -0.004213157 -0.13091505 -0.0010910153 0.00031150697
000170 35 12 04 bd 14 d6 25 3d d4 a1 90 3a ec 5e 15 3d
       -0.032243926 0.040487364 0.0011034557 0.036467478
000180 65 a8 ce bd cd 70 02 3d f3 9a 6e bb d7 c0 a2 3c
       -0.100907125 0.031845856 -0.0036408275 0.019867344
000190 11 a1 12 3d 7f 85 53 bb b1 1c 1a bd 9d 05 a6 bc
       0.035798136 -0.0032275615 -0.03762502 -0.020266348
0001a0 3e 6d 86 3d a0 43 d7 3a 87 c8 bf ba 30 6e ee bc
       0.06563805 0.0016423352 -0.0014631905 -0.029105276
0001b0 0c 0c 51 3b 35 c9 5e be b6 65 1f 3b 9c 91 2c bb
       0.003189805 -0.21756442 0.00243221 -0.0026331907
0001c0 14 4a 8a 3c 75 67 08 bc e1 a9 8d 3b 81 6d d5 3c
       0.016881026 -0.008325447 0.0043232297 0.026053192
0001d0 23 b0 d9 bb d6 db fe 3c e9 7b 97 bb a2 35 d6 bc
       -0.0066433116 0.031110685 -0.0046229255 -0.026148621
0001e0 01 0c 0b bc 46 44 7e 3d 06 61 84 3c 99 e7 23 3d
       -0.008486749 0.06207683 0.016159546 0.04001579
0001f0 6a cf 08 be 16 00 14 3c b8 a7 38 bc b7 8d 4c bc
       -0.13360372 0.009033224 -0.011270456 -0.012484959
000200 71 7b fe bd 62 ec 86 bd 81 b1 cf 3d bd 6a 03 bd
       -0.12425888 -0.06588055 0.10141278 -0.032084215
000210 1e 55 bd bd 97 1b bc 3c ef de fe 3d 77 5e 17 bc
       -0.092447504 0.022962375 0.12444865 -0.009238831
000220 08 06 e0 3b b1 9a 49 bd 43 86 98 3d 5c f0 60 3d
       0.0068366565 -0.04921979 0.074474834 0.054916725
000230 5f 93 9e bd 4b 97 b5 3c 20 34 01 bb 59 8c 68 ba
       -0.077429526 0.022166869 -0.0019714907 -0.0008871011
000240 0e 47 8d 3a 5e 04 2c bd 01 26 26 bc ac 0e 4e 3d
       0.0010778622 -0.041996352 -0.010140897 0.05030696
000250 a1 0d 00 3c 52 58 9c 3d 3d 12 43 3b 96 1a 9a 3d
       0.007815749 0.07634033 0.002976551 0.07524602
000260 98 11 a4 3b c9 6f da bd 39 26 ce 3c 5f 25 af 3b
       0.00500698 -0.106658526 0.02516471 0.005345031
000270 a0 23 ca 3d c6 d8 b1 bb 45 93 32 3a 0b 7c 84 bc
       0.09870076 -0.0054274527 0.0006812106 -0.01617243
000280 0e fd f8 bd e3 06 0d 3d e4 f1 fa bb aa 56 ab 3a
       -0.12157641 0.034430396 -0.00765823 0.0013072093
000290 5e 3a f5 bd 5d ac 5f 3b 9d 65 c2 bc 8e 07 65 be
       -0.11974023 0.0034129836 -0.023730094 -0.22366163
0002a0 21 84 b8 bc cb da 44 bd 1c 1b 32 3c b8 0b 01 3c
       -0.022523941 -0.04806022 0.010870721 0.007876329
0002b0 85 4e 8b 3d cd d8 1a bd ec 46 ea ba 51 70 93 bb
       0.06802086 -0.037804414 -0.001787392 -0.004499473
0002c0 b0 f4 b9 bd 49 1e cc bc 42 a2 02 3c e1 79 f1 bc
       -0.090798736 -0.024916785 0.007973256 -0.029477062
0002d0 a5 56 65 3c e6 bc 81 bd 18 b9 ed bd 22 b2 d7 3b
       0.013997708 -0.06334858 -0.116075695 0.0065825144
0002e0 17 b2 55 3e d7 d4 a5 3c 86 48 d3 3d d7 07 12 bd
       0.20868717 0.020243092 0.10316567 -0.035652008
0002f0 e7 53 3e be 54 fc 31 bd e0 ec 87 3b b2 0a 21 3d
       -0.18586694 -0.04345353 0.0041481107 0.03931684
000300 51 e7 77 3d 70 d1 82 bd 7a b1 49 3d 45 b7 9b 3c
       0.060523335 -0.06387603 0.04924152 0.019008288
000310 79 2d 02 3d 93 a7 ea bc 8a 21 51 3d 8d d1 8d 3c
       0.031781647 -0.028644359 0.051057376 0.017311836
000320 b5 18 34 bc aa 82 49 3d c1 b4 08 be 6a 61 4a bd
       -0.010992219 0.049196877 -0.13350202 -0.049409308
000330 bb 35 26 3d a7 be d6 3d 60 7a 9a 3d d2 35 84 3c
       0.040578585 0.10485583 0.075428724 0.016138945
000340 e4 a3 a9 3c 4a 50 21 bd 30 f5 78 3d 06 12 21 bd
       0.020708032 -0.03938321 0.060780704 -0.03932383
000350 11 a8 5b bd 8e c3 7c 3d b2 cc 58 3c 9c 7c 44 bd
       -0.053627077 0.061709933 0.013232397 -0.0479704
000360 47 57 3c 3b 38 3f 0c bc 36 cd 9c bc 59 32 8d bc
       0.0028738545 -0.008559994 -0.019140821 -0.017235922
000370 6a 58 b6 3d 20 3d a1 bc 01 1c e7 bc 59 b4 e3 bc
       0.089035824 -0.019682467 -0.028211595 -0.027795957
000380 52 40 a3 bd b9 00 b5 3d 3a fd 3e 3d 9d 0b a2 bd
       -0.079712525 0.088380285 0.046628214 -0.07912371
000390 49 7e 21 be 52 6c 23 bd e1 37 aa bc 0d f7 fb 3c
       -0.1577083 -0.039898224 -0.020778598 0.030757451
0003a0 89 4e d8 3d 38 49 c1 bc 07 24 0c bc c6 9b a9 bc
       0.105618544 -0.023594484 -0.008553511 -0.020704161
0003b0 65 4d a8 bd 6c 37 2a bd 16 66 7f 3b ef b5 d5 3c
       -0.08217887 -0.04155676 0.003897076 0.02608773
0003c0 ab f2 18 3e 3c 12 d1 bb 34 31 89 bd ef 18 22 3d
       0.1493632 -0.0063803475 -0.06698838 0.03957456
0003d0 3c b6 8d bc 02 fd 8f 3d cc da 53 bd 3a 24 d1 3d
       -0.01729881 0.07030679 -0.051722333 0.10211988
0003e0 da ad c8 bd a0 c4 86 3b 3e 1f 69 3d 1e 17 a5 3b
       -0.097987846 0.004112795 0.05691456 0.005038156
0003f0 64 e8 1a be 40 aa 21 bd db 2c 70 be d9 d2 23 bd
       -0.15127712 -0.039469004 -0.23454611 -0.039996002

a2c_network.mu.bias f4 [7]
000000 1e 8b 37 3d eb 95 ed bc 43 19 82 be 80 4a 4e bd
       0.044810407 -0.02900215 -0.25409898 -0.050364017
000010 4d 66 1b be 06 d1 e7 3d 04 b5 b6 bc
       -0.15175743 0.11319165 -0.022303112

exp_avg f4 [7]
000000 0e bc 2f b7 de 8a 45 39 79 52 27 3a 4a 3a 27 3a
       -1.0474598e-05 0.00018839116 0.0006382834 0.000637923
000010 e0 f3 09 bb c3 7c ba b8 65 b5 60 ba
       -0.0021049902 -8.89241e-05 -0.0008571952

exp_avg_sq f4 [7]
000000 e3 30 c3 38 eb 2d b6 38 cb 7c c5 38 a7 3c b3 38
       9.3074304e-05 8.686989e-05 9.4169365e-05 8.5466825e-05
000010 39 43 d5 38 91 d8 d6 38 85 a8 e7 38
       0.00010169153 0.00010244654 0.000110463276
