runs/FrankaCubeStack_01-19-27-52/nn/last_FrankaCubeStack_ep_200_rew_22.674385.pth (torch, 578871 bytes, 36 tensors)

value_mean_std.running_mean f8 [1]
00000000: 0f0f c1da e1fd 1940
6.497931879075408

value_mean_std.running_var f8 [1]
00000000: f14c 2665 9143 1940
6.315984325850182

value_mean_std.count f8 []
00000000: 0000 0004 0000 9941
104857601.0

running_mean_std.running_mean f8 [19]
00000000: 86b0 af34 06fd 803f 7f13 36fc 1600 943f
00000010: 9382 28fb 6752 90bf c58d ff0f 65d9 ec3f
00000020: add4 9382 07ba 8c3f 48c8 b748 ae91 663f
00000030: 7e82 2f1b 88d3 f03f b6bd 1772 4f07 83bf
00000040: a6d7 1ae8 1dfc 5cbf ee22 0ae1 d240 823f
00000050: b9c0 dc1f a6f9 743f 622c fe5c b5eb 6c3f
00000060: cebb 9e00 f527 f13f d536 c097 e44c e0bf
00000070: 3546 7e96 44cb b4bf dc5b beca a095 c1bf
00000080: adcc 9f58 6014 733f 0e4e b432 8cd4 953f
00000090: 4acb 6cd1 04c8 963f
0.008295105440957917 0.01953159250617231 -0.015939354614718026 0.9015374481645543 0.014026697800071675 0.002755012892287776 1.051643472856227 -0.009291287106832562
-0.001769093709680794 0.008912703983939587 0.005120896266632418 0.0035303632975618874 1.0722551368923976 -0.5093863452800301 -0.08122662233497453 -0.13737878703679385
0.004658104278848868 0.021318617434259272 0.02224738624790782

running_mean_std.running_var f8 [19]
00000000: e7b4 5d05 fa3a a43f f8a1 e01a 57ee 933f
00000010: 6d7a aad4 a714 b93f 115c fdd9 ab23 9e3f
00000020: 19f0 608c e2c6 983f 0bb2 98a9 2c14 983f
00000030: ca7f 8ad0 01bb 4a3f dbf2 918e 91c8 b03f
00000040: 3393 cf72 b737 b03f 6aea 8880 0acd 793f
00000050: 1932 04d5 1a95 943f 8010 6b4b 4d63 943f
00000060: 10d1 c2e1 0e62 6e3f 45c6 6377 e087 e43f
00000070: 8eb9 1728 3cf2 a53f 6777 8b1f 45e9 983f
00000080: 1a95 909b 7024 793f b6d6 12fe 4e32 143f
00000090: f845 0a98 936d 133f
0.039512456088098884 0.01946388341471736 0.09797142927207299 0.029432950191530752 0.02419618589213721 0.023514459468218656 0.0008157500133911752 0.06556043368068336
0.06335016777991313 0.0062990579831941704 0.02010003972195493 0.019910056808627008 0.003708867136163481 0.6415865260916652 0.042863731283307435 0.02432735447916148
0.006138267396669473 7.704360133938934e-05 7.411206571308188e-05

running_mean_std.count f8 []
00000000: 0000 0008 0000 8941
52428801.0

a2c_network.sigma f4 [7]
00000000: 35c1 69bf f1c2 4fbf cd6b 8dbf dcb9 d5be
00000010: f629 dcbe 994e bdbe 22f0 a1bf
-0.91310436 -0.8115683 -1.1048523 -0.41743362 -0.43000764 -0.36974028 -1.2651408

a2c_network.actor_mlp.0.weight f4 [256, 19]
00000000: 20de 153d 5381 f1bc 71c3 813c a8ba 21bd
00000010: dc3c f33e 40e3 e7be d982 183d 8aa1 eabd
00000020: a20c 17bd 6105 99bd d100 dbbe e7f0 ab3e
00000030: de62 03bf 930e a83d 1196 03bc 71c3 c3bd
00000040: 789d 0d3e 2f94 de3a 863c 033e 75e7 8e3c
00000050: 0c9f 64bd e1bd 353b 2cb1 1fbc 03d7 6e3e
00000060: f753 e43e 50ec 2d3e 5826 6cbd b77b c03d
00000070: 9a19 be3d 48d5 b8bd 524d bbbe c623 3cbe
00000080: 2316 20bd 2977 5bbd 4c51 4f3e 9ec1 ce3d
00000090: f4a8 e83d 2ef9 6a3d b718 2abd df8c 7cbc
000000a0: e36c 113d b2e7 793d 8aa8 31be ef26 df3e
000000b0: af1f efbd c94a 39bc ac49 6cbd 647b 7e3e
000000c0: ed66 0f3e c093 c9be 7e8a 04bf 21db eb3d
000000d0: 45f0 56bc b86d c3bc ca3e 90bd edf2 18bc
000000e0: 8a1c 003c 5871 9c3c e8cb c53a 4f32 01bb
000000f0: 5d6f ab3d 579a 11bf 40a7 76bd 897a 753e
00000100: 27e6 c9bd 31a6 a3bd a1c4 2ebe 2d70 eb3e
00000110: 851a 4dbd 207d b0be 1e97 0e3c cbda babd
00000120: aae8 febc bb29 c13d 107d 0e3e 2728 30be
00000130: 9996 5dbd b72f 093e 570a cebd 8b3b 803d
00000140: 576a e6be 0908 0fbe eb23 163e 0fe6 0fbe
00000150: 2645 5dbe d812 393e d4ba 133e 48b6 9fbd
00000160: 7f76 323d 22d5 c7bd d56f 0a3d 02ab 863e
00000170: fdc1 f33c e384 9e3d f76f 52be c96f 8c3c
00000180: 59a6 df3c 51ce 7dbc 6bde 853d ede4 253d
00000190: bb6f cc3c 62fa 8e3c b560 25be 79be 7bbd
000001a0: 54c9 5bbe dc7c 43be 2768 babd cbda be3b
000001b0: afad 6abd d1ce 553d 34b2 80bc 8bfb 343d
000001c0: ca30 ef3d 5caa 42be b781 9f3d 9971 783d
000001d0: ebae 9dbd 30c1 fdbd f01a a8be 8fe5 b13e
000001e0: e8e6 ccbd 407f 5b3c 78df 56be e610 cc3d
000001f0: 0125 253e b80a 60be 2dcb 32be 7fcf 02bb
00000200: 21a0 713e ac61 55bd 2133 f8bd aad1 483d
00000210: 7cf3 49be a744 2bbd ccaf fd3b 943e 073d
00000220: 7360 0abe ee2e e7bc 0526 063f b7ca c13d
00000230: 8b34 3ebd 85f4 4d3e a220 bd3d 48d2 d13d
00000240: e76c 0ebf 4ded 5b3e 4d1d 7cbb f341 92bd
00000250: 34a5 313e b89a 633c d369 c9bd c432 d3bd
00000260: e1ba 953a 28e6 44bc 0349 31bc 6d49 cfbd
00000270: 51d4 e9be 34fa cdbe 0a09 033e efde 0e3e
00000280: 708d 09be fbc6 c73d d372 0e3f a6a1 763e
00000290: 8312 81be 7262 2a3d 631f bb3c cb4f 393d
000002a0: 7e2a cd3c eed5 3bbd 932f 6d3d ae51 b3be
000002b0: 9e51 3d3d 9a6f 383d 144b 8b3f fbba a23e
000002c0: d242 87be b0f8 f6bc d92a 02be e36a 2eba
000002d0: 3722 7fbd d9a9 18be 430c 373e 9960 133f
000002e0: 3c2b 663c 662c b4bd 4386 91be 91a7 afbd
000002f0: fc00 c0bd 5754 0a3e a7f7 f0bb 0848 b8bc
00000300: ca5f 713c aef5 2c3d ff4a 9abe 7e29 c43c
00000310: 14ad 053e 876e d0bd b7e2 1abd 402c c73d
00000320: 22c2 133b 1bf4 1abe 44e5 e63e 0c49 70bd
00000330: a887 1c3b 45b0 bbbe 25ef 063e 18c6 333e
00000340: 230a f53d 6c0e 0ebe 04bc c2be 2f1c 65bc
00000350: 4a09 1f3e f2bf b33e dbf3 e53e c612 223e
00000360: 6f2e 913c 0865 003e 0972 47bd dd9d e3be
00000370: bd71 f2be 9873 5cbc 15d6 bebd ba0b 14bd
00000380: c528 00be 80d7 15bb efe4 22bd 485e efbc
00000390: e33d 723c 486f bf3d 1e90 653d 33e9 893d
000003a0: 5476 43bd 0d08 80be 9ffe 17bf 78a0 e8bd
000003b0: 2d6a 97bd 9155 743f a227 fcbd 523c 163e
000003c0: 2727 ff3e 7f46 a03d 4845 b73b 1817 d8bd
000003d0: 2200 c2bc 8f0f afbd 30e6 043e 186c 5e3d
000003e0: a3ef 39bd b86f bbbd da06 c0bd 5371 a23e
000003f0: 8680 04bf 1f20 7a3e 2b49 fb3d e0d4 8c3b
0.036588788 -0.029480612 0.015840264 -0.03948465 0.4750737 -0.45290565 0.03723416 -0.114565924
-0.036877282 -0.07471729 -0.4277406 0.3358223 -0.51322734 0.08205905 -0.008031384 -0.09558762
0.13829601 0.0016981418 0.12816057 0.017444352 -0.05581574 0.0027731585 -0.009746831 0.23324208
0.4459531 0.16984677 -0.057653755 0.09398597 0.09282227 -0.09025055 -0.36582428 -0.18373021
-0.03908361 -0.053580437 0.20245856 0.10095523 0.1136035 0.057366543 -0.041527476 -0.015414446
0.035504233 0.061011977 -0.17349449 0.4358439 -0.11675965 -0.011309334 -0.057687446 0.24851757
0.14004107 -0.39370537 -0.5177382 0.11516405 -0.013118808 -0.023856029 -0.07043226 -0.009335262
0.007819304 0.019097015 0.0015090676 -0.0019713824 0.0837085 -0.5687613 -0.060218096 0.23972525
-0.09858351 -0.07990683 -0.17067195 0.4598402 -0.05007412 -0.34470463 0.008703021 -0.09123763
-0.031116802 0.094317876 0.13914895 -0.17202817 -0.0540987 0.13397108 -0.10060566 0.06261357
-0.45003006 -0.13967909 0.14662139 -0.14052604 -0.2160841 0.18073595 0.14426738 -0.07798439
0.043570038 -0.09757449 0.033798058 0.26302344 0.029755587 0.0774019 -0.20550524 0.017143147
0.027301 -0.015491084 0.065365635 0.040501524 0.024955621 0.017453376 -0.16150172 -0.061460946
-0.2146352 -0.19090599 -0.09101897 0.005824422 -0.057294544 0.05219919 -0.015709974 0.044185203
0.11679228 -0.190103 0.07788413 0.06065521 -0.076993786 -0.12390363 -0.32833052 0.34745452
-0.10004979 0.013397038 -0.20983684 0.099641606 0.16127397 -0.21879089 -0.17460318 -0.0019960103
0.2359624 -0.0520951 -0.12119127 0.049028076 -0.19721788 -0.04181352 0.007741904 0.033018664
-0.13513355 -0.02822062 0.52401763 0.09462493 -0.046436828 0.20112808 0.0923474 0.10245186
-0.5563492 0.21477242 -0.0038469613 -0.07141485 0.17348176 0.013891868 -0.098346375 -0.10312417
0.0011423492 -0.012017764 -0.01082063 -0.10121427 -0.45669797 -0.40229952 0.12796417 0.1395223
-0.1343286 0.097547494 0.5564396 0.24085101 -0.25209436 0.04159779 0.022842115 0.045242112
0.025044676 -0.045858316 0.0579067 -0.35023254 0.046220414 0.045028307 1.0882287 0.3178328
-0.26418167 -0.03014788 -0.12711658 -0.00066535006 -0.06228849 -0.14908542 0.17875771 0.5756927
0.014048394 -0.08797531 -0.28422746 -0.08576883 -0.09375188 0.13508736 -0.007353741 -0.022495285
0.014732311 0.042226486 -0.30135342 0.023945566 0.13054305 -0.101773314 -0.03781387 0.09725237
0.0022546132 -0.15132181 0.4509679 -0.058663413 0.0023884568 -0.3665792 0.13177164 0.17556036
0.11964824 -0.13872689 -0.3803407 -0.01398377 0.15530887 0.3510738 0.4491261 0.15827474
0.017722337 0.1253854 -0.048692737 -0.44456378 -0.473524 -0.013455294 -0.09318177 -0.036143996
-0.12515552 -0.0022864044 -0.03976911 -0.029219761 0.014785263 0.09347397 0.056045644 0.06733932
-0.04772027 -0.25006142 -0.59372896 -0.11358732 -0.07393298 0.95443064 -0.12312247 0.14671448
0.49834558 0.07825946 0.0055929758 -0.1055128 -0.023681704 -0.085478894 0.12978435 0.054302305
-0.04539455 -0.09152168 -0.09376307 0.31727085 -0.5175861 0.24426316 0.12269815 0.0042978376

a2c_network.actor_mlp.0.bias f4 [256]
00000000: e08e a5be f73b 28bd 442c 69be af6f 1dbe
00000010: 9354 083e 4da5 0f3c c7b5 a6be 0118 0e3d
00000020: eedc 16be 68fd 073e d009 2c3d e666 2ebd
00000030: 5227 743e 14c5 67be 389b 58be 6632 a4be
00000040: 0c8a 3a3d 5001 8fbc a2df 40bd fa1f e4be
00000050: de82 e2bc c904 3b3d 1af7 bbbd 6d61 91be
00000060: bceb 8bbe 0447 463e 270d f6bc e9b0 86be
00000070: 40b4 803d 696e 40be 2c5d cebd d51a bf3d
00000080: 444e 04be 8fff 51be 9b29 1a3e 9bcb 4dbe
00000090: b8b1 96be e6b6 15be b3ad 823e d9a3 0e3e
000000a0: 81de d3be ead4 75be 1039 08be a280 a5be
000000b0: 4750 8ebe 789f cfbd d130 c73d 69c8 8ebe
000000c0: 55ee cd3d 661c c03d 9230 5ebe 98f7 7dbe
000000d0: 1a69 433e d5a3 043f 2af0 6cbd 651d cd3d
000000e0: f19b 36be b5eb 813d 1a8b f4bd 07ef 7abe
000000f0: 3a15 18be d7a6 04be 8fa4 b7bd 19af 30be
00000100: 0901 99be f39c 00be b027 2cbe 7dea 3fbe
00000110: adfd 8e3d 05af 2abe 2a1d 2bbe f3bd 8bbe
00000120: aa4d f93d 9401 c3bd 3bd6 883d 13b5 60be
00000130: a6ff e73c b7a7 423d 4f92 a1be 1aa8 c0bd
00000140: a7af 453e 2013 33be 4148 dabe 3e9b 66be
00000150: 9f02 83bd 826d ffbd c928 a3bd 5816 7b3e
00000160: 664b 873c 3317 a73d bd2c acbd c685 283e
00000170: f89f 4c3d 3468 5b3e 9969 4e3d 5552 d63d
00000180: b333 983d 0268 203e 7f7a 873d 6d74 5fbe
00000190: 3ce3 233e 3a0f da3c 37be c73b 646b 1a3d
000001a0: 9d23 713d d6ec 593d 1db9 fa3d 554c 273e
000001b0: d3c0 083e b2c0 66bc f207 81bd a433 86bd
000001c0: ddd9 bdbc 5449 4a3d 2532 49be 4f8b 833d
000001d0: 63e2 cabe 6928 b7be 5376 c0bd a46a 333e
000001e0: 447e 8dbe 36c7 a2be 6310 18bc 98b7 83be
000001f0: 8a61 1b3e c133 9abe 5b21 81be 36ef 3fbd
00000200: 15bd 1cbe 0bde 663c 4666 2b3e 5508 953e
00000210: 65b3 85be 5b3d 3cbd a377 b83d a909 a5be
00000220: cbf0 b0bd 082d 23be 37fe cc3d 078f cd3d
00000230: eba8 6a3c c437 6bbe 6f70 acbe 396d 40be
00000240: f57e 1cbe 0795 69be ffaf d93d 23df 203d
00000250: 2fd1 6fbd 8dd8 dcbe 5643 a7bc 6fa1 f23d
00000260: 622c b33d 4583 11be 9f79 69be bfec 68be
00000270: 24d5 5a3c ec47 003e 60b5 2ebe 6c29 99be
00000280: c3d0 84be b67f afbe 41b2 d43d e17d 7bbd
00000290: 59bf c1bd 6dc9 96be 6950 9abd f710 013e
000002a0: abce 6ebe 86af f4bc 58da 303d b67a 44bc
000002b0: 0c8c ebbd 18fd c7be bac6 83bd 3313 5a3c
000002c0: f827 05bd ff82 583e 7ff7 29be 6284 8fbe
000002d0: b1a4 e43d 09ce eebd a9c2 ac3c 7426 3cbe
000002e0: f19f 383b 3b82 8a3c 38b8 5cbe ba3f 593c
000002f0: ba09 813e 208e 09be 0bb0 a93d 526b 17bf
00000300: 2d90 8bbd a6e7 dcbc bc35 ed3b a6e6 203d
00000310: b25b 0bbe 937e adbd 6468 fa3c 91a5 c4be
00000320: 1dab a9be f86d e0be 0af8 61bd 60f2 90be
00000330: 4a22 973a 5782 323d 47a2 50be 28ab 7abd
00000340: 1a9d 0c3e 14be e0bd 77d9 95be e1d6 683e
00000350: 12f4 6bbe 322c 4f3e ab74 bfbd eff8 b3bd
00000360: f204 883c 718a 023d 7354 f4ba 0721 49bd
00000370: 8ae2 b73b 9722 873d f1f2 25be 52ff 683c
00000380: a1a9 ecbe 5145 cebd 67b6 e6be 335a 6cbe
00000390: 3d10 ffbd ae89 64be abd9 673d aa80 063e
000003a0: a05b 9bbe 5a82 8bbe 7308 023d 045e 1a3e
000003b0: 3814 1f3e f0fb 4dbe e2e2 a8be 2bee 8dbd
000003c0: 2a96 e2bc b067 33bd 7dee 7ebe 0879 26be
000003d0: 2eb3 0fbe e685 cfbe 84fa 01be f0aa c6bd
000003e0: c395 e33d 0361 82be 7fa7 9ebe 05a3 e4bd
000003f0: 6395 d33c 2de6 efbe 2c1f 2d3e b348 b9bd
-0.32335567 -0.041072812 -0.22770792 -0.15374635 0.13313513 0.008767438 -0.3256056 0.03469086
-0.14732715 0.1328026 0.042001545 -0.0425786 0.23843125 -0.22633773 -0.21152961 -0.320697
0.045541808 -0.01745668 -0.047088273 -0.44555646 -0.027650293 0.04565886 -0.0917799 -0.28394642
-0.2732829 0.19363028 -0.030035568 -0.26306847 0.0628438 -0.18792118 -0.10076365 0.0933129
-0.12920481 -0.20507644 0.15054934 -0.200972 -0.29432464 -0.14620551 0.25523147 0.1392969
-0.41380695 -0.24007002 -0.13303018 -0.32324702 -0.27795622 -0.10137838 0.09726108 -0.27887276
0.10055224 0.093804166 -0.21698216 -0.24801481 0.19083062 0.5181249 -0.057846226 0.10015372
-0.17832924 0.06343786 -0.11940594 -0.24505244 -0.14851847 -0.1295427 -0.08966934 -0.17254294
-0.29883602 -0.12559871 -0.16812015 -0.18741794 0.069819786 -0.16668327 -0.16710344 -0.27293357
0.12173016 -0.095217854 0.06681486 -0.21944074 0.028320145 0.047523227 -0.31556937 -0.09407063
0.19305287 -0.17487764 -0.4263325 -0.22520158 -0.06396984 -0.12472059 -0.079667635 0.24520242
0.016515445 0.08158722 -0.08406971 0.1645728 0.049957246 0.21426469 0.050393675 0.10464922
0.07431736 0.15664676 0.06615161 -0.21821757 0.16004652 0.026618589 0.0060956734 0.037700072
0.058871854 0.05320438 0.12242339 0.16337712 0.13354807 -0.014084028 -0.063003436 -0.065528184
-0.023175174 0.049386337 -0.19648035 0.064230554 -0.39625844 -0.35773018 -0.093975686 0.17521149
-0.27635396 -0.3179261 -0.009281251 -0.25726008 0.15173927 -0.3011761 -0.2522076 -0.04685899
-0.15306504 0.014091025 0.16738233 0.2910792 -0.2611343 -0.04595695 0.09007194 -0.32233933
-0.086396776 -0.15935147 0.10009425 0.10037046 0.0143225 -0.22970492 -0.3367953 -0.18791665
-0.15282805 -0.22810756 0.10629272 0.0392753 -0.058549102 -0.43133965 -0.02041785 0.11847197
0.087487 -0.14210232 -0.22800301 -0.22746561 0.013356481 0.12527436 -0.17061377 -0.29914415
-0.25940523 -0.34277123 0.10385562 -0.061399344 -0.09460325 -0.2945055 -0.07534868 0.12604128
-0.23321025 -0.029868852 0.04317698 -0.011992147 -0.11501321 -0.39060283 -0.064343885 0.0133102415
-0.03250882 0.21143721 -0.16598319 -0.28030688 0.11164225 -0.11660392 0.021088915 -0.18374044
0.0028171504 0.016907802 -0.21554649 0.0132598225 0.25202733 -0.13433123 0.08285531 -0.5914813
-0.06814609 -0.026965927 0.0072390717 0.039282463 -0.13609198 -0.08471408 0.030567355 -0.38407567
-0.33138362 -0.438339 -0.05516819 -0.28309917 0.0011530605 0.043581333 -0.20374404 -0.061198384
0.13731804 -0.109737545 -0.29267475 0.2273822 -0.23042324 0.20231703 -0.093484245 -0.08787715
0.01660392 0.03187031 -0.001864089 -0.049103763 0.0056117224 0.06598394 -0.16205956 0.014221029
-0.46223167 -0.10071815 -0.45061037 -0.23081283 -0.12454269 -0.22318146 0.05660407 0.13135019
-0.30343342 -0.27247888 0.03174634 0.15074927 0.15535057 -0.20115638 -0.32985598 -0.069301926
-0.027659494 -0.043800056 -0.24895664 -0.16257107 -0.14033195 -0.40531844 -0.1269322 -0.097005725
0.11112549 -0.2546464 -0.30987164 -0.11163906 0.02582807 -0.46855298 0.16906422 -0.090470694

a2c_network.actor_mlp.2.weight f4 [128, 256]
00000000: f5db 0dbc 2437 b83d 7308 d33a 403c 853d
00000010: a96c 9bbd 4e32 2fbe 1837 52bd 28b1 0a3e
00000020: feeb 0b3e d78c 7dbd 039d 07bd 295e a2bc
00000030: 43a7 38bd da7c 43bd a57f 42bd f7f2 bfbc
00000040: fd58 623c 3b4b c93d c3ba db3d b25e ff3d
00000050: 32f9 143d dd40 cebc 6066 043d 921b 37bb
00000060: b84d 063b cde3 1a3d cfd9 fd3d c0c6 ffbd
00000070: 9892 f8bd 397c 813e 3e43 aabb 35c2 f739
00000080: 0919 383c 1f88 273b f73d b8bc f90e 6fbd
00000090: 5ce3 a2bd bf09 2abd 5e6e 403d 8bdc 9a3d
000000a0: ab3c d7bc d91d 73bc 9fe7 0bbd bd37 ab3c
000000b0: 876b af3b b687 6bbd d301 8a3c 71bd bdbd
000000c0: 53cb 7abc 56fe 3fbd b99c ef3d 85ca 44bd
000000d0: 1803 27bc 5e37 753b c6cb 39bc 4659 d6bd
000000e0: 6d3b 333d d344 da3c 34b8 d23d 265b 32bd
000000f0: 6b6a 8bbc 5ff2 1abd 3741 0a3d 67bf b33d
00000100: f99f 103e 4ae1 a63d 6cbf 62bd f25f 8e3c
00000110: c673 78bd 0fff 9abd 5d60 63bb 5eb8 de3c
00000120: 47c0 5b3b 4bff a63d 1879 1cbd a770 9d3c
00000130: b4e9 02bb 2ce1 563d a38a c2bd 4ce1 de3c
00000140: f5c0 02be 2af3 0a3e 112d 5dbd 3968 ad3d
00000150: 8df9 8fbc 5e32 3abd 3a9e 28bd 22a9 843c
00000160: 27e8 f8bb 4ebb 623c 22b8 a5bc 7439 1ebd
00000170: 0b85 2d3d a45c babc 17ff cc3c 2588 57bd
00000180: da26 36bb dd30 cabc 55f5 6e3d c3fc 5bbd
00000190: d7ce 1c3d d78a 743d c93f bf3c 4899 98bd
000001a0: 493b b9bd ad93 e8bc ad19 acbd 8f24 513d
000001b0: 4134 133e 2ec0 94bc 3ffb 7f3d c625 453d
000001c0: 9dd2 0b3d 4d81 473d 1d47 5d3d 9906 85bd
000001d0: 8e03 ff3d a438 72bc 5c39 423d 4d8e b5bd
000001e0: 3c3e fb3b 545f 483d 9697 1bbd f1db 99bc
000001f0: 2c3e 94bd 1c15 9ebb 9ec9 a0bd 7030 0b3d
00000200: 92e6 00be 985f 2ebd 3bf9 1bbd f001 17bd
00000210: f2a7 ce3d a8cc 79bd 9a29 02be ed8f 363e
00000220: b28b 24bd 1fd2 db3b 9a47 5bbd f5aa 803d
00000230: 02f8 edbc 4823 233c dee5 143d c2a7 e2bd
00000240: bd74 fbbc 7a61 a1bd f583 1f3d 12d1 103e
00000250: 5968 403d 3c2b ecbc 3351 0f3c 82f9 9a3b
00000260: 8fa4 8f3d 9233 923d f034 3e3d be20 f3bb
00000270: 065c 893c 2f49 d3bc c871 6f3c 5149 81bd
00000280: 114e c6bc 0fdc a0bc 0470 903c 6579 333d
00000290: 731e 9abc 6da6 aebd 1c00 9a3d 3a8c 0d3d
000002a0: 3d3f 773d a5b2 af3b 8e62 fcbc 7333 8dbd
000002b0: 5fb8 84bb 5a81 3f3d 9d36 4bbd 7e61 b4bc
000002c0: 6867 4cbd c983 71bc f7b6 efbc adb5 9b3d
000002d0: 8d98 7cbd c90a ea3c c3df dfbc b438 b6bc
000002e0: 20ba ffbc 098f d4bd e641 dd3d ea63 dfbc
000002f0: 22af 32bd 9c0b 62bc 811b 5d3b 39cc c2bc
00000300: 9115 d5bd dd76 a4bc 2e87 30bd a93f 993d
00000310: a40f 78bd 547b 1bbe 186b 4bbc e4ab ce3d
00000320: b73c 66bd 0001 b9bd ebfd 9ebd 5a0b 94bd
00000330: 7c47 85bc 1177 4dbb 8bd5 d63b 21be 10bc
00000340: b9e7 eabc 0e14 2d3e fc43 2c3d f2ff e23d
00000350: eaee 35be 9243 b5bc 4b29 e33d 81a1 c83d
00000360: 0668 d0bc 1112 d8bc 26e2 cabd 5fe7 bebc
00000370: c475 94bd 9264 91bd 8a3e 40bd c2c7 583c
00000380: 635d c63b 6400 8abc b22e 163e e570 4abd
00000390: ec88 a2bd dd84 22bc 88f1 a43c a196 babc
000003a0: 1486 c3bd 93e8 e93c 3981 6b3d a59e ff3c
000003b0: bfd7 8bbd d75b a6bc 00c2 443d fcc3 ff3c
000003c0: a0f9 923d eedf 93bc 0cb4 da3d 2abd 87bd
000003d0: f9e3 02be 3824 d0bd dec5 c43d d38d b83d
000003e0: 1ada 50bd 799d 82bc 6efa b53d a4aa 75bc
000003f0: 70c3 cb3b 68be 703d f44b a5bc c61c b8bc
-0.008658399 0.08994892 0.001610054 0.065056324 -0.07589085 -0.17109033 -0.051322073 0.13544142
0.13664243 -0.061901893 -0.033108722 -0.01982029 -0.04508139 -0.04772649 -0.047485013 -0.023431284
0.013815162 0.09828802 0.10728981 0.124692336 0.036370464 -0.025177414 0.032324195 -0.0027940017
0.0020493101 0.037814904 0.12395059 -0.124890804 -0.121373355 0.25290087 -0.005196004 0.00047256207
0.011236438 0.0025563312 -0.022490485 -0.05836389 -0.079535216 -0.0415132 0.046980254 0.075615965
-0.026274046 -0.014838659 -0.034156438 0.020900602 0.0053533944 -0.05750247 0.016846573 -0.09264649
-0.015307265 -0.046873413 0.11699814 -0.0480447 -0.010193609 0.0037417035 -0.011340087 -0.10466246
0.043757845 0.026644146 0.1028904 -0.043543957 -0.017018517 -0.0378288 0.0337536 0.087767415
0.14123525 0.08148439 -0.055358335 0.017379735 -0.060657285 -0.0756818 -0.0034694888 0.027187523
0.0033531354 0.08154162 -0.03820142 0.019218756 -0.0019975724 0.052460834 -0.09499099 0.02720704
-0.1276892 0.13569322 -0.053998057 0.084671445 -0.01757505 -0.04545819 -0.04116652 0.01619393
-0.007596034 0.013838602 -0.020229403 -0.03862901 0.042363208 -0.022749253 0.02502398 -0.052620072
-0.0027794153 -0.024681503 0.058339436 -0.05370785 0.038283195 0.05970272 0.023345845 -0.07451111
-0.09044511 -0.02839073 -0.08403335 0.051060256 0.14375402 -0.018158045 0.062495466 0.048131727
0.034136403 0.048707295 0.054022897 -0.06495399 0.1245185 -0.014784012 0.047417983 -0.08865032
0.007667331 0.048919037 -0.03798636 -0.018781634 -0.07238421 -0.004824294 -0.078509554 0.03398174
-0.12587956 -0.042571634 -0.03807948 -0.036867082 0.10090627 -0.06098619 -0.12711182 0.17828341
-0.040172286 0.006708398 -0.05353508 0.062826075 -0.029048923 0.009957142 0.03635203 -0.110671535
-0.030695314 -0.0787992 0.038944203 0.14142254 0.046974514 -0.02882921 0.008747387 0.0047294507
0.07013809 0.071387425 0.046437204 -0.0074196747 0.016767513 -0.025791733 0.01461453 -0.06312812
-0.024207147 -0.019636182 0.017631538 0.043816943 -0.018813347 -0.08527837 0.07519552 0.03455756
0.060363043 0.0053618723 -0.030808713 -0.06894579 -0.004050299 0.04675422 -0.04961263 -0.022019144
-0.049903303 -0.014740893 -0.02926205 0.07603011 -0.06166892 0.028569596 -0.027328378 -0.022243835
-0.031216681 -0.10378844 0.10803585 -0.027269322 -0.04362405 -0.013796713 0.0033738317 -0.023779022
-0.10404504 -0.02007621 -0.043097667 0.07482845 -0.06056179 -0.15183765 -0.01241567 0.10091379
-0.056210246 -0.09033394 -0.07763275 -0.07228728 -0.016269438 -0.0031351487 0.006556218 -0.008834393
-0.028674947 0.16902182 0.042057022 0.11083974 -0.1776692 -0.022126947 0.110918604 0.097964294
-0.025440227 -0.026375802 -0.09906416 -0.023303686 -0.072490245 -0.070992604 -0.046934642 0.01323122
0.006053613 -0.01684589 0.1466625 -0.04942407 -0.07936272 -0.009919372 0.020134702 -0.022776904
-0.09547058 0.028553283 0.057496283 0.031203577 -0.0682826 -0.020307465 0.048036575 0.031221382
0.071765184 -0.018051114 0.106788725 -0.06627877 -0.12782277 -0.10163158 0.09608053 0.09011426
-0.050989248 -0.01594423 0.08885656 -0.014994297 0.0062183663 0.058775336 -0.020177819 -0.022474658

a2c_network.actor_mlp.2.bias f4 [128]
00000000: 41ce d1bd 18b6 f4bd 3f1e c6be ce53 9bbe
00000010: 6d24 5ebe abd9 67be eac1 a5be d5b6 b33c
00000020: 1573 9fbd e38b 15bc 6003 b3bd 4170 02bf
00000030: 6949 f4bd 8f45 c7be fa0f 97be 528b e9bc
00000040: 7ba2 95ba 84d7 053c 3b2f ad3d 76da 26be
00000050: 1c75 36be a0c8 093e 4508 d23c 71df 5cbe
00000060: 5f9f 373c 37bd 70be 0307 803d 63ff d2be
00000070: 9764 a13d 934e 4c3d 47f9 c33a 5d71 5fbe
00000080: a8a3 80be 9960 643d 7763 eabd 41de 3abe
00000090: 2ec9 a0bd 66a5 a9be d1c3 953d 4697 963a
000000a0: a905 40be 79b4 273d def9 0bbe 2340 66bd
000000b0: c021 18be c4d0 fabe d60c 34be 5bb7 af3c
000000c0: 287b 903a de9e f63c 47ca 25bd 02b5 90bd
000000d0: d173 7c3a baf5 d6bd 8939 1d3c 1ce8 b2be
000000e0: 6f88 05bc 81a0 4b3e aa97 8ebd 4baf 4fbd
000000f0: 74c4 93be 78d1 edbc 8664 153d cdcc a6be
00000100: 43ca 0cbe 6650 95be 0f72 093d 199f e1bd
00000110: c696 0d3e 6b2a 2abd 5d7d 7a3d 660b 8abe
00000120: 1ab6 36be 19d4 87be 4983 733d 8bd2 c7be
00000130: bc91 d23d 61ee a4bd d289 acbe 36d5 18be
00000140: 6e99 9ebd 0784 76be 6fca b5bd e7d5 acbd
00000150: 997c da3c 3928 0ebf 4d3c 85bd 50b7 80be
00000160: 7a51 66be e94f 293e 9cc5 01bd 2cc6 013c
00000170: 7b81 61be 20ae df3b c851 98bc 3d54 9bbe
00000180: 5bfe 59be e95f 08be a295 6cbd 4b28 5abd
00000190: 0004 fbbc 307f e13d d844 a7bd 6587 a4bd
000001a0: 3e2c a7be a4cd 88be e48e a7be 9860 82be
000001b0: 1a22 2abe 9b1d 7cbb 24ce 9bbe 9d9c 9dbe
000001c0: b4dd 70bd 8994 a0bd b9b6 04be 3158 0fbd
000001d0: bf38 12be d139 28bc 6c32 073e def3 88be
000001e0: 1d6b 3abd a4e9 f5bd c351 8dbe 80da f83d
000001f0: 18c6 a5be d46e a9be abc7 bbbe d500 87bc
-0.10244418 -0.11948794 -0.3869495 -0.30337375 -0.21693583 -0.22641627 -0.32374507 0.021937767
-0.07785622 -0.00912759 -0.08740878 -0.50952536 -0.119280644 -0.38920256 -0.29504377 -0.028508816
-0.0011416221 0.008169059 0.08456274 -0.16294274 -0.17818111 0.13455439 0.025638709 -0.21569611
0.011207431 -0.2350968 0.062513374 -0.4121047 0.07880514 0.04987962 0.001495161 -0.21820588
-0.2512486 0.055756185 -0.11444753 -0.18248846 -0.07850872 -0.33134001 0.0731274 0.0011489175
-0.18752159 0.040943597 -0.13669536 -0.05621351 -0.14856625 -0.489874 -0.17583022 0.021449735
0.0011023032 0.03010505 -0.04047611 -0.070657745 0.0009630295 -0.10496087 0.009596237 -0.3494271
-0.008150204 0.19885446 -0.069625214 -0.05070428 -0.2886082 -0.029030547 0.03647282 -0.32578126
-0.13749032 -0.29162902 0.03355604 -0.110166736 0.13827047 -0.04154436 0.061154712 -0.2696182
-0.17842904 -0.26529005 0.059451375 -0.3902782 0.10281703 -0.0805328 -0.336989 -0.14925084
-0.07744108 -0.24073802 -0.08876502 -0.08439236 0.02667074 -0.55530125 -0.06505642 -0.25139856
-0.22492018 0.1653439 -0.031682596 0.007920783 -0.22022049 0.0068261772 -0.018593684 -0.30337706
-0.21288435 -0.13317837 -0.05775989 -0.053261083 -0.030641556 0.11010587 -0.08167428 -0.08033637
-0.32650942 -0.2671939 -0.32726204 -0.2546432 -0.16614571 -0.0038469795 -0.3043071 -0.3078355
-0.058805183 -0.07840831 -0.12960328 -0.034996215 -0.1427946 -0.010267691 0.13202828 -0.26748556
-0.045512307 -0.12007454 -0.27601442 0.121510506 -0.32377696 -0.33092368 -0.36675772 -0.016479889

a2c_network.actor_mlp.4.weight f4 [64, 128]
00000000: 35fc 903c d5ba 49bd 6455 e63c 7596 95bb
00000010: 4a8c 913d f7f4 043e fd3a bdbd 570d aabb
00000020: 5cce a2bc 1478 19bd 2d9e d03d fb8c 00be
00000030: 6ff0 3ebd 49b0 963d a39b b43d d5f6 43be
00000040: 7946 703d 9e09 dbbb 84d7 65bd 2267 703d
00000050: 1917 d53c 50bd 0dbe 06a7 19ba 810a c43d
00000060: 19e7 7b3b 1d9a 5f3d 691b 6f3d a2b2 ef3d
00000070: cb69 e0bd ccf3 9dbc f7ae 013d 5eb2 273e
00000080: 99c6 18be 3eba 4a3d adfa 293c f3ab a2bd
00000090: 30aa 8f3d b4e0 7a3c f7cb b33c 98f8 e7bc
000000a0: daa9 73bd edec 57bd bd93 6fbd 8e45 6abb
000000b0: 72fc 2ebc 58f9 16be 9ecd f5bd 66b5 3ebd
000000c0: 4674 f4bc edda 873d 2f6f dbbd 60b5 3b3d
000000d0: dde7 d73c 05af dfbc 78b5 c43c 6a22 49bd
000000e0: 15c5 a1bc b8fc 8bbc 434e 353d a71f b83d
000000f0: 2c92 a13d 129b 80bd dcb1 ab3d 2c71 c4bc
00000100: f52e ca3c 2dd0 f1bd 2dee 51bb e9c0 ccbd
00000110: b8df 16bd 13d3 9bbd b077 1bbd ed5c 42be
00000120: 4167 70be 5837 2b3e 2ac9 87bd 485c c33d
00000130: 76b3 06be 226b 6abd 3b31 0d3d 83e3 b93d
00000140: 26a3 ab3c ce4b e53c bb2c 1d3d 0158 d7bc
00000150: 1382 893d 8d32 cdbd b10d acbc e0e4 f93d
00000160: b8db 873d 6c58 8c3d 7c8d 3cbd 8429 f83c
00000170: 065f 2abf 87eb e5bc 6824 803d 29b0 0abf
00000180: 3616 2d3d 2b25 e53c 0bb0 f33c 0ca6 7abe
00000190: a6d7 d2ba b4e7 7bbc 14a6 a2bd f74c f8bc
000001a0: fea1 0a3d d3b8 0dbe 8749 bb3c 70bb c4be
000001b0: e28b 13bd 2569 b1bc 1a7f 083d 106e b4bd
000001c0: d4cf 773d 7bd6 633d 8a65 d53d b923 bb3d
000001d0: 098b 533d 232c be3d b4e5 ba3c cac7 cd3d
000001e0: 1de3 37bd 4bac 58bd da91 aabd 8808 863d
000001f0: 77be 3bbe 8a3e 813d 3b91 89bd 951e 023c
00000200: d9fd a93d ca22 4fbe 7536 793d 170e 66be
00000210: b3a7 9b3c 91a1 093b c181 b53c 385e 9cbc
00000220: 033d 83bd 164a b3bc 7288 89bd 45df 1ebd
00000230: 794b 0b3b 47ac 393a 2a85 25be f810 883d
00000240: 02fd 303d c73a ac3d 53c5 6e3c acbe 66be
00000250: f2d8 7dbc 5035 41be f0e4 93bd 061b 063e
00000260: 91f6 aa3c 6695 61bc 8ee4 e03d 4e41 803d
00000270: cfea c63b 310d c4bd 267f 62bc 4358 4c3e
00000280: 56e9 cc3c 1326 fabb ee6a d93d d29a 1b3e
00000290: 8b16 eb3d 4e9f b2ba 1504 303c 4ab7 55bb
000002a0: 095c 81bd b297 00be 8df4 06be 40e4 00be
000002b0: b34a a13d 9776 4c3d 06d5 bbbd 17b8 f03c
000002c0: 22a0 b13d d00e aa3d 27a3 fe3c eba7 f2bd
000002d0: a0f7 c23b 1dab 1fbc 4a32 1f3d 2486 a33d
000002e0: 786b 05bc bf33 2abd 7119 c4bd 0e68 72bd
000002f0: 12be 813e 46e7 953d e1ec 3f3d 6b7a 6c3c
00000300: 32cf 1f3e e725 bcbc 5888 c4bd 1605 ae3b
00000310: 8d3d 1c3d f6da a3bd 52d5 1a3e 6118 5dbd
00000320: 737e 61be c05f 013e 03c3 0f3c 6a56 f53d
00000330: fba0 b43c 26b3 f9bd 9541 3b3e 51c3 99bd
00000340: e483 ad3d ab07 38bd 9826 9e3b b01c 703c
00000350: 6f27 a63d 68c7 13be 01e4 673d 1f16 47bc
00000360: 0bc6 cf3d fdae 813d 6f71 d5bd f99d 043c
00000370: 9b30 9bbd fa59 c63d 0c60 923d a3f0 113d
00000380: cc3d a9bd 6c62 b23d 11fe 9ebc 996f 1bbe
00000390: d6f0 9a3d 99b0 a73b 14fa 813d a641 f7be
000003a0: c80d 1dbe dcd8 94be 112a 0ebd 0a2a 01be
000003b0: f772 ad3b 1745 d63d d72c 253e a694 6bbe
000003c0: c9fd 1e3e 07b8 a1bd 6861 10be 6f57 e13d
000003d0: 68eb 34bd 2dfa e2bc 8d16 9bbd 4985 8f3d
000003e0: f9ea 10bb afee 093d 0ffb a3be 4a77 fbbd
000003f0: 90c5 f6bd c9ba 31be 81dc 963d 6781 193c
0.017698387 -0.049250443 0.02811689 -0.004565055 0.07106836 0.12984072 -0.09239767 -0.0051895785
-0.01987379 -0.03746803 0.1018642 -0.1255378 -0.046616014 0.073578425 0.08818748 -0.19137128
0.058660958 -0.006684496 -0.056113735 0.058692105 0.02601199 -0.13841748 -0.0005861375 0.09572316
0.0038437305 0.054590333 0.05837575 0.117039934 -0.109576784 -0.01928129 0.031661 0.16376635
-0.14919509 0.04949402 0.010374707 -0.07942953 0.070148826 0.015312362 0.021947844 -0.02831678
-0.059488155 -0.052716184 -0.058490504 -0.0035747024 -0.010680305 -0.14743555 -0.12002109 -0.046559714
-0.0298406 0.06633554 -0.10714566 0.04582727 0.026355678 -0.027305136 0.024012312 -0.049105085
-0.019747296 -0.01708828 0.04426409 0.08990412 0.07889208 -0.06279577 0.08383533 -0.023979746
0.024680594 -0.118072845 -0.0032032833 -0.09997732 -0.03683445 -0.076086186 -0.03795594 -0.18980761
-0.23476888 0.1672033 -0.06630166 0.095390856 -0.13154396 -0.057231076 0.034470778 0.090765975
0.020951819 0.027990248 0.038372736 -0.02628708 0.06714263 -0.100194074 -0.021002622 0.122018576
0.06633705 0.06852803 -0.046033368 0.030293234 -0.66551244 -0.02806641 0.06256944 -0.5417505
0.04225751 0.027971825 0.02974703 -0.24477404 -0.0016085997 -0.015375067 -0.07941833 -0.030310137
0.033845894 -0.13840036 0.022862209 -0.38424253 -0.036022075 -0.021656582 0.03332434 -0.08810055
0.060500935 0.055624466 0.10419758 0.09137673 0.051646266 0.09285762 0.02281461 0.10047872
-0.044894326 -0.052898686 -0.083286 0.06544596 -0.18334375 0.063107565 -0.06717154 0.007941862
0.08300371 -0.20228115 0.06084295 -0.22466312 0.019000864 0.0021000842 0.022156598 -0.019087896
-0.064081214 -0.021885913 -0.06715478 -0.038787145 0.0021254702 0.0007082861 -0.1616408 0.066438615
0.043210037 0.084096484 0.014573413 -0.22533673 -0.015493618 -0.18867993 -0.07221401 0.13096246
0.020869525 -0.0137685295 0.10981093 0.06262456 0.006070472 -0.095728286 -0.01382426 0.19955544
0.025013607 -0.0076339333 0.10616098 0.15195778 0.11478909 -0.0013627799 0.010743161 -0.003261047
-0.063163824 -0.12557867 -0.13179226 -0.1258707 0.07875576 0.049917784 -0.0917149 0.029384656
0.08673121 0.083036065 0.031083656 -0.11848434 0.0059499294 -0.009745386 0.03886632 0.0798457
-0.008143298 -0.041553255 -0.09575165 -0.059181266 0.25340325 0.073195025 0.046856765 0.014433484
0.15606382 -0.022967292 -0.09596318 0.005310665 0.038144637 -0.08000748 0.15120438 -0.053978328
-0.22020893 0.12634182 0.008774522 0.11979373 0.022049418 -0.12192373 0.18286736 -0.07507957
0.08472422 -0.044929188 0.004826378 0.014655277 0.0811299 -0.14431536 0.056613926 -0.01215127
0.101451956 0.063322045 -0.10422026 0.008094304 -0.0757763 0.096851304 0.07147226 0.03562988
-0.0826374 0.08710179 -0.019408258 -0.1517929 0.07565467 0.0051174876 0.06346527 -0.48292273
-0.15337288 -0.290717 -0.034708086 -0.12613693 0.005293246 0.104623966 0.16130386 -0.23005924
0.15526499 -0.078964286 -0.14099658 0.11003005 -0.044169813 -0.027707184 -0.075726606 0.07007844
-0.002211271 0.033674892 -0.3202748 -0.12278612 -0.12049401 -0.17356409 0.073662765 0.009369231

a2c_network.actor_mlp.4.bias f4 [64]
00000000: 46f6 253d 6ef9 ba3b 10e6 f33b a677 38be
00000010: 1de4 16bc 95fd 173d 567e 95be 4df0 8cbd
00000020: 72ae a9bd 9aec 7e3e fb61 eb3d 14db 9dbe
00000030: a76e 85bd dae8 9fbe 05d6 a33d f946 e13c
00000040: 859c 57be bf4b 103e d3f4 93bd 0f82 773e
00000050: 811c ebbd 7ed1 6ebc cf13 7ebd 2792 bfbd
00000060: b246 46be aa9d c0be 5e5b 17bd 166e dfbd
00000070: b912 493b 6742 31be 99a5 393d 72fd 7f3d
00000080: 9480 2dbe a305 ee3d 0f7c a0bd 367a 51be
00000090: 3c84 fa3c 7bb3 abbc 0ac3 96be 9e76 ef3c
000000a0: 265c 85be 82cd d43d aa45 02be 888d 6d3e
000000b0: 1c22 b8be 1f31 fc3d ec4b debd a096 41be
000000c0: cbd3 433d 2dd9 13bd d19b d43b 3574 f6bd
000000d0: 9e38 14be 4b14 95bd 7bca 0fbe 9810 66bd
000000e0: fbdf 0c3e b0da 7f3d e9b5 62be fa93 a2be
000000f0: 6c02 d6bd ab07 febd 70c7 59be 076b 7a3d
0.040518068 0.005706004 0.007443197 -0.18014392 -0.00920966 0.03710707 -0.2919795 -0.06881771
-0.08285226 0.24894944 0.11493298 -0.30831206 -0.06515246 -0.3123234 0.07999805 0.027499663
-0.21055801 0.14091395 -0.07224431 0.24170707 -0.11480046 -0.014576314 -0.06203061 -0.09354048
-0.19362906 -0.37620288 -0.03695237 -0.10909669 0.0030681326 -0.17310487 0.04532394 0.062497564
-0.1694358 0.11622169 -0.07836162 -0.20456776 0.030580632 -0.020959606 -0.29445678 0.029231366
-0.26046866 0.1039076 -0.12721887 0.23198521 -0.35963523 0.123140566 -0.10854325 -0.18905115
0.047809403 -0.036095787 0.0064883013 -0.120338835 -0.14474723 -0.07279261 -0.14042084 -0.05616817
0.13757317 0.062464416 -0.22139706 -0.31753522 -0.10449681 -0.12403806 -0.21267486 0.061137225

a2c_network.value.weight f4 [1, 64]
00000000: ad6e 873c c255 683c 3734 76bd b28e 0d3c
00000010: 61a8 193d 4a0f 5f3d 1208 963b fa76 0f3d
00000020: 9643 3d3d 9511 2e3e 91d7 8a3d b431 aabc
00000030: 8b09 a9bc a0da 85bb 8824 86bb b6e0 3abb
00000040: a51a d03d b629 a63d 4b72 f9bb 3d13 0abd
00000050: b59a cebc ce97 e73a 1a65 e83c a9f5 04ba
00000060: 4eeb b43d 3e0b 6fbd c7bc 6d3c 7e7c 3fbc
00000070: 1ef0 05bc 2da8 323d 5b30 96bc 4ec8 073d
00000080: 8cac 18b9 072d ab3d 7bd8 613d d70e f93b
00000090: 1b01 2cbb accf 993d 8f87 14b9 89e7 433b
000000a0: e185 48bd adef 10be a688 053d 958e 023e
000000b0: a245 a33c 3719 05ba 0330 ce3b bcb6 193d
000000c0: 0751 dfbc a9c4 5fba 50ad ca3b 73ee f93d
000000d0: 66fb acbc cf46 d2bc de40 c23c b9c2 07bd
000000e0: 75b8 ddba 8383 113a 115e 1b3d 9f0c 82bc
000000f0: f1ba ecbc b186 b83b 6206 69bc 1ffa c1bb
0.016532267 0.0141806025 -0.06010839 0.008639978 0.037514094 0.05445794 0.004578599 0.035025574
0.046207033 0.16998895 0.06779397 -0.020775653 -0.020634433 -0.0040849 -0.0040937103 -0.0028515286
0.10161332 0.081134245 -0.0076125017 -0.033709753 -0.025220254 0.0017669143 0.028368521 -0.00050720066
0.08833943 -0.05836033 0.01451034 -0.011687396 -0.008174924 0.043617416 -0.018333605 0.03315001
-0.00014560128 0.08358198 0.055138092 0.007600646 -0.0026245776 0.075103134 -0.0001416488 0.0029892644
-0.048955802 -0.14153929 0.03260102 0.12749703 0.019930664 -0.00050773047 0.0062923445 0.037527785
-0.027260317 -0.00085360795 0.0061852112 0.12203684 -0.02111597 -0.02566853 0.023712572 -0.033144686
-0.0016915934 0.0005550908 0.037931506 -0.015875159 -0.028897734 0.005631291 -0.014222713 -0.0059197093

a2c_network.mu.weight f4 [7, 64]
00000000: 989c 93be c523 bd3c dcf8 a6b6 b125 b33b
00000010: 37af 2a3d 9315 15bb 2027 d7bc 5c4f 5fbc
00000020: bc92 3a3c 6e97 b8bc 2684 b8bd 9320 25bd
00000030: f634 81bc 23dc dcbc e8ce 03bd f58c 163c
00000040: 3e7d dd3b e7fc 073a 1777 e43b 9a2d 3dbd
00000050: f6eb 913a 22cb cc3d a2ba 01bc 69e6 a3bd
00000060: 4587 d43c 26dd 103d af5d 263b 3765 533c
00000070: ca57 af3d b243 323d c594 02bc e68b c8bd
00000080: 4aeb cb3c ba43 8ebd 97bb 4cbc db9f 853c
00000090: 6f93 9cbd 3ffd 73bc 318c 18bd b847 e23c
000000a0: 68fb b8bc 8fd9 9ebc 4553 e73b 1322 b43d
000000b0: ad1e 15bd 81f4 c03d a9d0 e8bb 58a0 3c3b
000000c0: 9d4f ae3c 9420 b0bb 1b20 14bb f824 003b
000000d0: ae74 ca3a 11dd 093d af99 7d3d b0a2 343d
000000e0: 707e d03d 906b 863e aac4 74bd 880e 38bd
000000f0: 7e21 9b3d a41d 363d 78cd 373c 7d7e 0e3e
00000100: abe6 07be 8fe8 523e 43c6 bcbd c202 2b3c
00000110: 1d08 24be 20e9 4b3c f141 63bd 346e 523c
00000120: 4ece 8b3b f993 1fbd 98fd ecbd 93b9 7a3d
00000130: f4e2 36bc 4942 87bc e6db bbbc cdb9 a0bb
00000140: 6696 e6bc 11ab 4e3d a150 75bc 8302 bebd
00000150: a71c 9c3b fb1b 0a3e 2943 7a3b e90c 083d
00000160: 049c 2e3b 612a febd dcd6 70bc 3365 733c
00000170: 93d0 69bd 3dd7 f83b f4bd b43b a5d2 633d
00000180: 27c1 c9bd 8691 823c 5a93 dabc d6db 0b3d
00000190: 74ca d33b 5b07 7dbc 83e9 3fbd 7257 36bc
000001a0: 5d97 9b3d ed55 f23a 922a 7bba b175 dabc
000001b0: d3a8 243d 1ea7 4fbe 471d 513b 5b35 273c
000001c0: e3b1 dcba 267c b13c 2178 7abc 9466 303d
000001d0: e97a 413c 17ce 053d f58e 17bd 7a54 10bd
000001e0: 4f5a 97bc a82e a73d 1cb4 9abc b6ac 543d
000001f0: 1071 13be b8d1 05bc 7e7e 42bc 349e 403b
00000200: b22e 0dbe f1e7 0ebd e68b af3d 7665 77bd
00000210: 98b5 89bd a45d b83c 1773 c53d 976a 18bc
00000220: a174 e03b 431f 10bd f4f6 413d 39a0 2f3d
00000230: 089a 80bd 79d7 603a a89a 1abd 45ff 633b
00000240: fd85 dcbc 7f41 f5bc a6af 433c d3e2 603d
00000250: 1ef2 74bc 4664 c23d e232 f33b 3cda 6a3d
00000260: 50d8 b7bb fd63 c0bd b02b 27bc 4334 4abb
00000270: 58aa c13d 5d4f 5abd 1255 02ba 2eab 813b
00000280: c3d6 f7bd 4c5f e83c 987d 51bc 1310 0dbb
00000290: ecf4 ccbd c4d0 113d f41b 843a d466 65be
000002a0: b65f 193c 4e85 4bbd fded c23b 18f1 a53c
000002b0: 3941 853d e5e8 edbc ab96 a3bb 2eed 34bc
000002c0: 94f2 fdbd 0d46 a6bc d79d 4db9 cc27 1d3b
000002d0: cecb 5e3c d35d aabd bfbf 19be 4ae6 0ebc
000002e0: 919d 373e cd3e 013c 9c62 843d bbb7 86bc
000002f0: 6743 41be a578 61bd 4346 803c d797 313d
00000300: 05ca 5c3d cc1a 5dbd 99ba 2e3d 2d04 843d
00000310: 1a93 f43d 654b 42bd 922c 603d 1ffc 4d3c
00000320: 419e 233c aeee 433d 463c 17be e9f9 c7bc
00000330: 0c0a 693d acdb ee3d 6326 aa3d c650 733c
00000340: 4527 7a3d 27c1 76bc 838b 003e af22 a0bc
00000350: adac 523a a754 b83d ecfc af3c a1bd 76bd
00000360: 8384 1dbd 62cf 123c d45c 87bd 9603 6fbc
00000370: 43b4 9d3d 899e 1abb a219 6fbc e70c 49bd
00000380: 1847 9abd 9d15 af3d 0676 723d b3d7 efbd
00000390: edaa 3fbe 687a bfbc d0b8 6b3c 345e b83c
000003a0: 89fb 853d 86f3 dfbc 589a 38bc d55c c5bc
000003b0: dd25 35be eb82 42bd c3cf a43c cb5e 213d
000003c0: 2dc2 b03d 517c aebc ce0d 12bd 66ac 983d
000003d0: 1814 82bd 7da0 933d de3d a13c 015e 0f3e
000003e0: b02d 9ebd 96be 7dbb 90c4 70bc 7bfc c0bc
000003f0: cb80 17be ca90 66bd ad5c 97be a93a 9cbc
-0.2883041 0.023088345 -4.9761566e-06 0.0054671397 0.041671004 -0.0022748455 -0.026263773 -0.013629761
0.011387523 -0.022533145 -0.0900958 -0.04031427 -0.015772324 -0.026960438 -0.032179743 0.00918888
0.006759315 0.00051875267 0.0069722044 -0.046186067 0.0011132944 0.09999682 -0.007918032 -0.080029316
0.025943408 0.035367154 0.002538543 0.0129025495 0.08561666 0.04352159 -0.00797004 -0.097923085
0.024892468 -0.069465116 -0.012495897 0.016311577 -0.07645308 -0.014891922 -0.037243072 0.027622089
-0.022580817 -0.01939085 0.007059487 0.08795562 -0.036406208 0.094216354 -0.0071049524 0.0028782096
0.021278197 -0.0053749774 -0.0022602144 0.0019553285 0.001544615 0.03365809 0.061914142 0.044100463
0.10180366 0.2625394 -0.059757866 -0.044935733 0.075747475 0.04446186 0.011218421 0.13915439
-0.13271587 0.20596527 -0.09217503 0.010437669 -0.1601872 0.012445718 -0.05548281 0.012843657
0.004266537 -0.038959477 -0.11571807 0.061212134 -0.011162508 -0.0165111 -0.022932004 -0.0049049617
-0.028147887 0.05045611 -0.014972837 -0.09277823 0.004764158 0.13487236 0.0038187003 0.033215437
0.0026643286 -0.12410427 -0.014699664 0.014855671 -0.057083678 0.007594018 0.0055158082 0.05562081
-0.09851294 0.015938532 -0.02668159 0.0341452 0.0064633433 -0.015443648 -0.046853554 -0.011129247
0.0759723 0.0018488743 -0.00095812336 -0.026667448 0.040200066 -0.20278594 0.003190832 0.010205592
-0.0016837682 0.021665644 -0.01528743 0.043066576 0.011809089 0.032667246 -0.03700157 -0.035236813
-0.01847568 0.08163196 -0.018884711 0.051922522 -0.14398599 -0.008167677 -0.011870978 0.0029391171
-0.13787344 -0.034889165 0.085716054 -0.060399495 -0.067240894 0.022505589 0.09641092 -0.009302757
0.0068498407 -0.035186063 0.047354653 0.04287741 -0.06279379 0.000857703 -0.037745148 0.0034789604
-0.02691936 -0.029938458 0.011943733 0.054903816 -0.014950303 0.09491782 0.007421837 0.05733703
-0.0056105033 -0.09394071 -0.010203287 -0.0030853904 0.094563186 -0.053298343 -0.0004971783 0.003957174
-0.121015094 0.028365754 -0.012786292 -0.0021524474 -0.10007653 0.035599485 0.0010079131 -0.22402507
0.009361198 -0.049687676 0.0059487806 0.020256564 0.06506581 -0.029041717 -0.0049923263 -0.011042876
-0.12399784 -0.020297075 -0.00019609123 0.002398002 0.0135983955 -0.08318677 -0.15014552 -0.008721897
0.179312 0.007888508 0.06464121 -0.016445031 -0.18873368 -0.055046696 0.015658503 0.043357696
0.0539036 -0.053980634 0.042658422 0.06446109 0.1194212 -0.047435183 0.054730006 0.012572317
0.009986461 0.047835045 -0.14769086 -0.024411159 0.056894347 0.11662993 0.08308103 0.014850801
0.061072607 -0.0150607 0.1255322 -0.019547788 0.0008036595 0.09000521 0.021482907 -0.060239438
-0.03845645 0.008960577 -0.066095024 -0.014588257 0.07700398 -0.002359303 -0.014593514 -0.04908457
-0.07533091 0.08549044 0.059194587 -0.11711063 -0.18717547 -0.023373798 0.014387324 0.022505857
0.06542117 -0.0273378 -0.011267267 -0.024092117 -0.17690225 -0.047488134 0.0201186 0.039397042
0.08630786 -0.021299513 -0.035657696 0.074547574 -0.06351489 0.07208345 0.01968282 0.14000703
-0.07723558 -0.0038718334 -0.014695302 -0.023557892 -0.14795224 -0.056290425 -0.29562894 -0.01907094

a2c_network.mu.bias f4 [7]
00000000: 4950 3b3d 34db f5bc 4eaa 71be aa0a 7dbd
00000010: cebf fbbd e93d 0e3e 8c06 61bc
0.045730863 -0.03001175 -0.23600122 -0.06177775 -0.12292443 0.13890804 -0.013734471

exp_avg f4 [7]
00000000: 29ca 8d3a 8de2 413b 105b 733a 8e61 12bb
00000010: abc2 983a 3c47 a7ba e6f4 343a
0.0010817695 0.0029584498 0.0009283284 -0.002233598 0.0011654695 -0.0012762318 0.0006902948

exp_avg_sq f4 [7]
00000000: 23dc 8138 b0a7 8938 5ea8 8038 f266 7b38
00000010: 771f 8738 5a0f 8838 c7e3 8c38
6.192203e-05 6.563903e-05 6.1348765e-05 5.993894e-05 6.4431624e-05 6.487845e-05 6.718147e-05

exp_avg f4 [256, 19]
00000000: 0c6c 9438 2f4f f4ba 4517 e639 7fd0 dbb9
00000010: 30ab 983a 6b5c 86bb 0270 86b7 6e43 0dbb
00000020: 316b 293b b236 f5b8 df52 033a 0bab 74bb
00000030: 557b 91ba e465 f039 eb9e 89ba 73c5 2d3b
00000040: b3eb 1cbb adc9 d6ba 9822 5abb 2a5f 0cba
00000050: 7a06 3bbb 2141 16ba 4cf9 04b9 ab31 d438
00000060: 74b4 16ba de02 8538 19d8 5db9 cd37 2b38
00000070: 87a7 3e38 3543 cc39 9eb2 f239 811e cfb9
00000080: 4afd 313a 8fe6 7339 8f07 003b f0b2 393a
00000090: f703 ffba 7239 d0ba fbdf a439 1923 66b9
000000a0: 88de 24ba 0cc0 3cb9 2ce2 0eba 53ac 8eba
000000b0: 72ea 9b38 104a 8539 a35c 553a a120 c236
000000c0: 311a 10b9 831c 6fb9 f28d 47ba a4fa 5fba
000000d0: b7b8 acba 6f71 813a 1ac2 b039 36be d1ba
000000e0: 50b3 c3ba 0a5f 4a3a 7ae9 0a3b 81f4 8eb9
000000f0: 99c5 60b9 6c4b cbba bbfc 9c37 d671 1038
00000100: 7a4a ca3a 371a 5b37 1902 dbb8 7ab8 adba
00000110: c894 51ba 51d5 69b9 deed 98ba 958e e3ba
00000120: 6c82 0cba 336d e8b9 839b cdb9 5572 b5b9
00000130: 3241 e339 cbb8 ed39 fdb8 8138 5435 8f39
00000140: 1dbf 03ba 51fb 2eba 60da 8338 ba4d 013a
00000150: f9d0 173a d50c f8b7 a495 b4b9 fa21 7338
00000160: 0d31 37ba ab29 59b9 fd89 c939 67ae 3c39
00000170: 808a 823a 8864 e539 e89d 093a f30f 08b9
00000180: 3326 17ba 998a 8ab8 10f4 ae37 5e8d ee39
00000190: a883 29b9 5c9d 98b7 e2bb ffb9 c724 2c38
000001a0: 58c3 58b7 aa9e 003a dd03 a139 7dd9 17b9
000001b0: a95c ebb8 59b2 65b8 0430 d138 e0fc cfb7
000001c0: a1a5 0dba 040d 35ba 47f3 c239 a7e5 ceb9
000001d0: 34c1 eab9 aac7 02b9 0594 58b9 ccc3 07ba
000001e0: 86c6 2e37 40f6 d238 cffc 073a 10c0 6236
000001f0: ade8 1739 cfba de39 d32c 31ba eafd aeb9
00000200: c1d7 6eb9 8940 a739 c15c 4a3a 2f3a 17ba
00000210: 3177 f7b9 6b2f 13ba a132 faba 0c4a aeb9
00000220: 158e d839 0342 75b9 0899 9b3a e3cc d9b6
00000230: 6fab b239 3905 93ba 60ed 7eb5 da5c 7238
00000240: d4c8 d33a cd84 2438 b0f3 74b8 2887 9a3a
00000250: 8114 7a39 c726 dc3a cb20 66ba 07ae 24ba
00000260: 13b9 eb3a 2d1f af3b ea57 fab8 bc92 71ba
00000270: a902 f6ba f7db 8339 56b0 3539 1c4b 243b
00000280: a777 5f39 032d 47b8 566e edba aa99 27b9
00000290: 31d0 7cb9 b8f6 77ba cf9a a3ba 973c c8ba
000002a0: d609 083a 3ee1 093b baf0 1c3b 6e22 a5b9
000002b0: 50a7 9039 dfde 8e39 9286 14ba 5a2d 57b9
000002c0: cf0a c73a 63f6 e1b7 98b8 d338 30f4 b6ba
000002d0: 2068 8db8 509c 07ba 4651 db39 c5be 833a
000002e0: 5db6 183a afd4 3cb9 7351 44ba bae8 92ba
000002f0: a07f 4d3a fb90 523a 649d 3db9 d919 93b7
00000300: c533 b539 8dda 8439 5b86 20b9 1fbf 313a
00000310: 94db 57b8 5a6a 7439 d93e 02ba 6b69 3936
00000320: 42bf acb9 7fe2 3ab9 775b a539 c420 1f39
00000330: 159b 9438 0b87 2cba 1ef9 29ba 8a16 0f3a
00000340: daf6 183a 9f4e a5b9 bab1 ceba f258 c939
00000350: 30fb 1eba 1c59 c03a 1e05 fcb9 ebdc 0cb9
00000360: 7440 b1ba c730 97b9 ef28 3138 d2b7 aa3a
00000370: c18b 2e3a 87f0 fab9 88e6 2bb9 11c1 133a
00000380: 7779 563a cf1b 53b9 dd6d adba cc56 e1ba
00000390: c86e 5838 f549 0939 e772 5939 2b52 1a39
000003a0: fb49 fab9 0154 713a d805 1339 b95c 213a
000003b0: fa7c 10ba ccc6 8fb8 60fb 43ba be30 0dba
000003c0: 3c99 4a3a 6de3 063a 0415 3f3a 0360 5ab9
000003d0: 0fc6 18ba d1b6 e23a cb41 003b 2858 4638
000003e0: 6a82 373a 89f5 393a bc31 c9b9 7de4 f139
000003f0: 4df4 90ba 4d9b 02b9 f59b c2b9 554d 733a
7.077315e-05 -0.0018639321 0.00043886356 -0.00041926277 0.0011647698 -0.0041003725 -1.6026203e-05 -0.0021555084
0.0025851245 -0.00011692698 0.0005009602 -0.0037333395 -0.0011099378 0.00045852282 -0.0010499632 0.0026515394
-0.0023944199 -0.0016387008 -0.003328478 -0.0005354757 -0.0028537796 -0.0005731751 -0.00012681371 0.00010118199
-0.00057489355 6.342468e-05 -0.00021156705 4.0821546e-05 4.5455552e-05 0.00038959985 0.00046290917 -0.00039504844
0.0006789757 0.00023260176 0.0019535755 0.00070838537 -0.0019456138 -0.0015886261 0.00031447396 -0.00021947584
-0.0006289263 -0.0001800062 -0.00054505724 -0.0010885097 7.434645e-05 0.00025422918 0.0008139109 5.785449e-06
-0.00013742667 -0.00022803438 -0.0007612399 -0.0008544123 -0.0013177608 0.0009875725 0.00033713953 -0.0016002122
-0.0014930759 0.00077198504 0.0021196292 -0.0002726652 -0.00021435916 -0.0015510148 1.8714336e-05 3.4438293e-05
0.0015433573 1.3059521e-05 -0.000104431245 -0.0013253831 -0.00079948874 -0.00022300078 -0.001166757 -0.0017361218
-0.00053600105 -0.00044331848 -0.00039216512 -0.00034608194 0.00043345388 0.00045341844 6.185656e-05 0.00027314818
-0.00050257315 -0.00066750223 6.287242e-05 0.00049325416 0.0005791332 -2.956988e-05 -0.00034443766 5.7967358e-05
-0.0006988205 -0.00020710255 0.00038440517 0.00017994047 0.0009959489 0.00043753185 0.0005249665 -0.00012975912
-0.0005765885 -6.6061686e-05 2.0856067e-05 0.00045500224 -0.00016166142 -1.8193088e-05 -0.00048777374 4.1042247e-05
-1.2920085e-05 0.0004906455 0.0003071119 -0.00014481503 -0.000112229325 -5.4763954e-05 9.97484e-05 -2.4794077e-05
-0.0005403404 -0.00069065415 0.0003718382 -0.00039462486 -0.00044775906 -0.00012472147 -0.00020654507 -0.00051790173
1.04174305e-05 0.00010059448 0.0005187513 3.378842e-06 0.0001448716 0.00042482323 -0.00067586935 -0.00033377047
-0.00022777823 0.00031900805 0.000771951 -0.0005768863 -0.00047200316 -0.0005614671 -0.0019088575 -0.00033243035
0.0004130459 -0.00023389612 0.0011871168 -6.490956e-06 0.00034078534 -0.0011216766 -9.49678e-07 5.778377e-05
0.0016157874 3.9224327e-05 -5.8401085e-05 0.0011789547 0.00023849496 0.0016796225 -0.000877869 -0.00062820356
0.0017984234 0.0053442926 -0.00011937304 -0.00092152855 -0.0018769103 0.00025150154 0.00017327195 0.0025069183
0.00021311511 -4.7487218e-05 -0.0018114548 -0.00015983605 -0.0002411015 -0.0009459066 -0.001248205 -0.0015276846
0.0005189454 0.0021038796 0.0023947195 -0.00031496905 0.00027590478 0.00027250402 -0.00056658045 -0.00020520893
0.0015185716 -2.6936823e-05 0.00010095647 -0.0013958272 -6.742799e-05 -0.00051731337 0.00041831488 0.0010051361
0.0005825514 -0.00018008308 -0.00074889435 -0.0011208274 0.0007839147 0.0008032468 -0.00018083077 -1.7535802e-05
0.00034561582 0.00025339835 -0.0001530884 0.00067804934 -5.1464493e-05 0.00023309272 -0.00049684715 2.762851e-06
-0.00032948895 -0.00017822719 0.000315394 0.00015175628 7.086076e-05 -0.0006581402 -0.000648396 0.00054583757
0.00058351236 -0.0003152983 -0.0015769519 0.00038403977 -0.00060646515 0.0014674994 -0.00048068998 -0.00013433739
-0.0013523237 -0.00028837306 4.223821e-05 0.0013024753 0.0006658398 -0.00047862923 -0.0001639371 0.0005636374
0.0008181552 -0.00020132888 -0.0013231594 -0.0017192005 5.1601586e-05 0.0001309289 0.00020737537 0.00014717194
-0.00047738836 0.0009205938 0.0001402119 0.00061554794 -0.0005511787 -6.8558e-05 -0.00074761175 -0.00053859863
0.0007728522 0.00051455834 0.00072892033 -0.00020825867 -0.0005827853 0.0017296915 0.0019570466 4.728898e-05
0.0007000329 0.00070937775 -0.00038374763 0.0004613734 -0.0011059135 -0.0001245562 -0.0003711876 0.0009281238
