runs/Ant_31-18-32-45/nn/Ant.pth (torch, 702911 bytes, 36 tensors)

value_mean_std.running_mean f8 [1]
0	0x4013c81fc92cecbb	4.945433753363598

value_mean_std.running_var f8 [1]
0	0x40150f13e8e58cfb	5.2647243871790534

value_mean_std.count f8 []
0	0x418c200008000000	58982401.0

running_mean_std.running_mean f8 [60]
0	0x3fe3bd25a2118d46	0.6168392339135742
1	0x4011048b787b80da	4.254438288248105
2	0xbff0a2ff99507693	-1.0397945393409926
3	0xbfe8354d65c43389	-0.7565066325783941
4	0x3fa6fe12ff6f75c3	0.04490718238933369
5	0x3f35913385822947	0.00032908923959297894
6	0xbf961102c86dca11	-0.021549266322333397
7	0x40029ba5eec3e5d7	2.326000085213973
8	0x40116334eb5a55fb	4.346881558788932
9	0xc0029cf4a9694505	-2.326638530278276
10	0x3fed62c6ab1add73	0.9183076230901136
11	0x3fea9aebd165e042	0.8314112748912594
12	0xbfddbbb9accbf5ef	-0.46458284258537125
13	0xbfdecf8b23ee0e13	-0.4814174509885742
14	0xbfc87e92bdfe8948	-0.19136270787300647
15	0x3feb5895779a2827	0.8545634590129837
16	0xbfa08563bc2f6c3c	-0.032267681810218524
17	0x3fe7a1cd744f3018	0.7385012885729365
18	0x3fbe13bbf425b2a5	0.11748861990572353
19	0xbfe40e3981eb6d81	-0.6267364060872042
20	0x3f97a4222b83e806	0.02308705702396454
21	0x3fac5ab43f5f2c42	0.055379517303287176
22	0x3fa1964927c265c1	0.03434971437782109
23	0xbfb28ba972bc7e92	-0.07244357157878259
24	0xbf8fcb2e8f82bdb5	-0.015524257425879687
25	0xbfa67b92e2f96a71	-0.043911543089696255
26	0xbf750f8e49d74af4	-0.005141788305496265
27	0x3fad7d2a34c9dc9f	0.05759555715933939
28	0xbfd390791a8645ea	-0.30569293585094093
29	0x3f83367835424b01	0.00938123619588316
30	0xbfc4d21ab034a253	-0.16266187289990572
31	0xbfa43af0661e2f8d	-0.03951216932827526
32	0xbf5446ac4915bb91	-0.0012375528789012361
33	0x3fa15f6b61bb5a41	0.03393111770644853
34	0xbfaafdc2259e010f	-0.05271727284616833
35	0xbf9b0050f1b075c2	-0.026368393661064145
36	0xbfdd01daaa247dee	-0.45323816886408863
37	0xbfb4d1a1a3b92ffe	-0.08132372138169328
38	0xbf4a5a17c1221497	-0.0008041969288262893
39	0x3f8569443f1fd931	0.010454686333087966
40	0xbfa97ca0ddac0415	-0.04977896409946695
41	0x3f889080575b9721	0.011994364419887273
42	0xbfc6972d4f9f9d6c	-0.17648855579248435
43	0x3f9dda32392d6648	0.029152664890125274
44	0x3f33669903b3ff72	0.00029603229241103376
45	0xbf64f38997461820	-0.002557533962490602
46	0xbfc27d3022f3a975	-0.1444454355872257
47	0xbf931487bcd62b6b	-0.01863300409381045
48	0xbfd4adc252435652	-0.3231054118490181
49	0x3fafa8ef630d1f0f	0.06183574756738441
50	0xbf41a72c97b1ffa8	-0.0005387275445087785
51	0xbf37f83373e49431	-0.0003657460801085892
52	0xbfcec768242cfeba	-0.2404604126586401
53	0xbfc12588491031e4	-0.1339578968767362
54	0xbfbc07c1f17f91ae	-0.10949337144808766
55	0x3fd559d786c4d19a	0.3336085144140043
56	0xbf73f7d2362b5650	-0.004875012530381875
57	0x3fb9dd7d98f36b34	0.10103592857505533
58	0x3fa00ed1a44c9e58	0.03136305933577138
59	0xbfce49c4f648e0c4	-0.23662626290911792

running_mean_std.running_var f8 [60]
0	0x3f8a47c114e72851	0.012832172823341067
1	0x401a9bb06d57a888	6.652040203547706
2	0x4005e40303e1eef8	2.7363338759731697
3	0x3feda70d9d356970	0.9266422338944675
4	0x400f08fda770f778	3.879390056738824
5	0x40120510c4706338	4.504946774825662
6	0x40219fdc11b21f31	8.812225869172467
7	0x401c990de0bf2097	7.149467002549634
8	0x401e29d74d057859	7.5408603701199235
9	0x401c9909c51bbd0f	7.14945133191874
10	0x3fb1cac74b617bd4	0.06950040426589449
11	0x3fbc9fec1bc3109f	0.11181522062094239
12	0x3fdc6cb52013f2ce	0.44413498051271183
13	0x3fd20ff884c06a4b	0.2822247787859495
14	0x3fde922d5480de26	0.47767194034847404
15	0x3fc58c3fff492c7a	0.16834258999947221
16	0x3fde9310716fda85	0.47772608831238755
17	0x3fc6e628cf1203e5	0.17889890776498799
18	0x3fd9b9a6c8505b49	0.4019562679472313
19	0x3fd0259632de32ae	0.25229411094259546
20	0x400d3985e9042499	3.653087444724019
21	0x400939693e79584e	3.153032768324045
22	0x401371a00d99c5c4	4.860962116728334
23	0x3fe748bbd88ea44a	0.7276286344177916
24	0x4017acb6c36fc8dc	5.918665937135497
25	0x3ff69f58944fabe9	1.4139028352171812
26	0x4001fc3205d96e28	2.248142286012598
27	0x4003a7bddc9a1584	2.456905101253769
28	0x3ff88f366b47ed77	1.5349640074408322
29	0x3fcbf500793986fd	0.2184143630902823
30	0x3fea362de204edd6	0.8191136755407864
31	0x3f9428ee20040458	0.019687386230547638
32	0x3f116e9fdbad2073	6.649828621363585e-05
33	0x3f7b79b94fa0441a	0.006707881804701743
34	0x400023afc76d7966	2.0174251156124
35	0x3fc1418d840f9479	0.1348130125835814
36	0x3feb5cf7c9ef9144	0.8550986236628337
37	0x3f919002721f1a47	0.017150915351317655
38	0x3f0dc60263515342	5.678839480852692e-05
39	0x3f868b896a1b0ed4	0.011008332777584874
40	0x40046f9c4e0668dd	2.55449734646855
41	0x3fc519f96b7fead6	0.16485517262466115
42	0x3fec0fa7e8ca4bd9	0.8769111200984937
43	0x3f9175ee7a823522	0.01705143568738266
44	0x3f152459b86ed3e3	8.065030679811585e-05
45	0x3f8a79e327db66df	0.012927794126358303
46	0x3fe68cdcd924b2ab	0.7046951523858146
47	0x3fc7e83133fa2a0f	0.18677344358395984
48	0x3fefe22ce53eaa16	0.9963592984616436
49	0x3f9415cde9dc536e	0.019614426993104166
50	0x3f03fa37d9f5929f	3.8103894662443566e-05
51	0x3f66a4312eb99443	0.0027638397785261517
52	0x3fda8f5eaceebfd4	0.4150005997462334
53	0x3fd5c97a015b9010	0.3404221547373263
54	0x3fe06715ed9c0dbf	0.5125836983501627
55	0x3fd1f776e57a0782	0.2807290307028937
56	0x3fe0f5a2a001edc3	0.5299847722193863
57	0x3fd32f8a52c0d5aa	0.2997766311776454
58	0x3fd8f44862278163	0.3899098356760275
59	0x3fd74495ab689300	0.3635610746298852

running_mean_std.count f8 []
0	0x417c200010000000	29491201.0

a2c_network.sigma f4 [8]
0	0xbfa71998	-1.3054686
1	0xbfd82296	-1.6885555
2	0xbfa7841b	-1.308719
3	0xbfa9bc7e	-1.3260648
4	0xbfa87499	-1.3160583
5	0xbfe21dfe	-1.7665403
6	0xbfad3e02	-1.3534548
7	0xbfbde7f4	-1.4836411

a2c_network.actor_mlp.0.weight f4 [256, 60]
0	0x3d591f38	0.05300829
1	0xbe402e80	-0.18767738
2	0xbc8a9efd	-0.016921515
3	0xbce08abd	-0.027409906
4	0x3e18b2cc	0.14911956
5	0x3cf7d851	0.030254515
6	0x3e8a43b4	0.27004778
7	0xbdd3dcfe	-0.10344885
8	0xbdb1659e	-0.0866196
9	0xbd4d0819	-0.05005655
10	0x3defd4f5	0.1171054
11	0xbd3985f0	-0.04529375
12	0x3e9ea6b4	0.3098656
13	0xbe5d8a28	-0.21634734
14	0xbe192c0b	-0.14958207
15	0xbe02aab1	-0.12760426
16	0xbda75ff8	-0.081726015
17	0x3c507419	0.012722992
18	0x3da66f99	0.08126754
19	0x3db77a94	0.08958927
20	0x3d01429e	0.03155767
21	0xbe38eefb	-0.18059914
22	0x3daa5fc5	0.08319048
23	0xbd823517	-0.06357782
24	0x3d4fe858	0.05075869
25	0xbda39d25	-0.07988957
26	0x3dbd1e51	0.09234298
27	0xbc8024fb	-0.015642634
28	0xbdae7e40	-0.08520174
29	0x3da626f5	0.08112899
30	0x3c76f26c	0.015072446
31	0xbce7a896	-0.02827863
32	0x3ca5a129	0.020218449
33	0x3ca5c0ee	0.020233598
34	0xbd8de922	-0.06929232
35	0xbb2c7cf1	-0.0026319588
36	0x3d64d957	0.055871334
37	0xbd7f9bb9	-0.062404368
38	0x3c1fc8ea	0.0097524915
39	0xbe1ec3c5	-0.15504368
40	0xbd7ee209	-0.062227283
41	0x3d558629	0.0521299
42	0x3d0b6f1b	0.034041505
43	0xbd7b3912	-0.061333723
44	0x3c11afd3	0.008892017
45	0xbd8cf347	-0.06882339
46	0xbe065dee	-0.13121769
47	0xbd132456	-0.035923325
48	0xbdb93f69	-0.09045298
49	0xbd7cce4a	-0.06172017
50	0x3e130d1e	0.14360473
51	0x3d95b177	0.07309239
52	0x3d0a9c0c	0.033840224
53	0xbe052e2c	-0.13005894
54	0xbd03d3a7	-0.03218427
55	0xbd44ce3a	-0.048048235
56	0x3c07d9f5	0.008291711
57	0xbdcd8952	-0.100359574
58	0xbdb83ab6	-0.08995573
59	0x3c5cd5d4	0.013478715
60	0xbb4016a8	-0.002931038
61	0xbe085753	-0.13314562
62	0x3d4bef1b	0.049788576
63	0xbd1d5d0d	-0.03841882
64	0xbe29391a	-0.16525689
65	0xbe0222a9	-0.12708534
66	0xbd0d7c08	-0.034542114
67	0xbcc14339	-0.023591625
68	0x3e74a87d	0.23892398
69	0xbdd4dc70	-0.103936076
70	0x3e31c4fa	0.17360297
71	0x3dff28d5	0.1245896
72	0xbcba1020	-0.022712767
73	0x3d97cec0	0.07412481
74	0x3db3238b	0.08747014
75	0x3c9610c5	0.018318543
76	0xbe55a2d5	-0.20862897
77	0xbe3b806d	-0.1831071
78	0x3db66155	0.08905283
79	0xbcb0e334	-0.021592714
80	0x3dc5eca9	0.0966428
81	0xbdb25e29	-0.08709366
82	0x3ce86a01	0.02837086
83	0xbdc6ebc9	-0.09712941
84	0xbda6644c	-0.08124599
85	0xbbf4c765	-0.0074700587
86	0x3de4048e	0.11133681
87	0x3d9c8f3b	0.076445065
88	0x3d607ea9	0.054808293
89	0xbd874a66	-0.06605987
90	0x3d289197	0.04115447
91	0xbd3a82b7	-0.045534816
92	0xbd6339d2	-0.055475064
93	0xbdfc88a5	-0.123307504
94	0x3d6cc0e3	0.05780114
95	0xbe10fc90	-0.14158845
96	0xbbe4458b	-0.006966298
97	0xbd264bf6	-0.040599786
98	0x3d265422	0.04060758
99	0xbdbeef0c	-0.09322938
100	0x3d62825b	0.055300098
101	0x3e1e03d2	0.15431145
102	0x3ced95d4	0.029002108
103	0xbd9272e1	-0.07150818
104	0x3d46d640	0.04854417
105	0xbe07ccd3	-0.13261728
106	0xbdabb9ae	-0.08385025
107	0x3e2431f4	0.1603468
108	0xbcf4b113	-0.029869592
109	0xbceec2a5	-0.029145548
110	0xbdcf4735	-0.101210035
111	0xbc6f3a80	-0.01460135
112	0x3c9596ae	0.018260326
113	0x3d4a44f6	0.049382173
114	0xbcf618c8	-0.030041113
115	0xbd02635b	-0.031833034
116	0xbd1334b6	-0.03593894
117	0x3df55d97	0.119807415
118	0x3d5d1cd5	0.053982574
119	0xbe01eca0	-0.12687922
120	0x3d8ab3b3	0.06772556
121	0x3dea77ac	0.11448607
122	0x3d67e666	0.05661621
123	0x3c2b8fad	0.010471267
124	0x3e0e39a7	0.1388918
125	0x3d12a239	0.03579924
126	0xbd2c61f7	-0.042085614
127	0xbcd021e3	-0.025406783
128	0xbdde365a	-0.108502105
129	0x3c8794a9	0.016550379
130	0x3d3b18f5	0.045678098
131	0xbca8d4d7	-0.020609302
132	0x3e4da9eb	0.2008435
133	0x3dca5b30	0.09880674
134	0xbd2e8882	-0.042610653
135	0x3bbc874f	0.0057534347
136	0x3c94e2de	0.018174585
137	0xbca732bc	-0.020409934
138	0x3d0a5092	0.033768244
139	0x3ced092d	0.02893504
140	0xbe49aea5	-0.19695528
141	0xbdc7ee7d	-0.09762285
142	0x3dd59b89	0.104300566
143	0x3dc2d8ad	0.09513984
144	0x3d6d1833	0.057884406
145	0xbd068e55	-0.032850582
146	0xbd4bf327	-0.049792435
147	0xbd7facf7	-0.06242081
148	0xbbc3090a	-0.0059520053
149	0x3b9e3575	0.00482815
150	0xbc048fbe	-0.008090911
151	0x3d115416	0.03548058
152	0xbde99b15	-0.11406533
153	0xbdab5843	-0.08366444
154	0xbd1682bb	-0.036745768
155	0x3db655c9	0.08903081
156	0xbc908450	-0.017641217
157	0xbd04c6de	-0.032416217
158	0x3d932db6	0.07186453
159	0x3d8116ca	0.06303175
160	0xbc2bff4d	-0.01049788
161	0x3d9f42b0	0.077763915
162	0xbd258e09	-0.04041866
163	0x3b9854cf	0.004648782
164	0xbdafdd33	-0.08587112
165	0x3d4a5d1a	0.049405195
166	0x3d5bbb24	0.053645268
167	0x3d7baba1	0.061442975
168	0xbd5d4b6b	-0.054027002
169	0xbe19bdf3	-0.15013866
170	0xbda1ffdf	-0.07910132
171	0x3c43b9a3	0.011946115
172	0xbc1b0024	-0.009460483
173	0x3d9dbb44	0.07701734
174	0xbc46dd6a	-0.01213775
175	0x3d6c190d	0.057641078
176	0x3d8bacb8	0.06820053
177	0xbbfc9f0d	-0.00770939
178	0xbd5f01e0	-0.054445148
179	0xbd36b3d3	-0.044605087
180	0x3dc1c157	0.09460705
181	0xbd6bf910	-0.05761057
182	0x3d0dfd45	0.034665365
183	0xbdacfe80	-0.084469795
184	0x3a666e37	0.0008790227
185	0xbe3c2195	-0.18372186
186	0xbdcaf9e5	-0.09910945
187	0x3ca09087	0.019600166
188	0xbdbd6f18	-0.09249705
189	0x3dd2be0f	0.10290157
190	0xbdc07f93	-0.09399333
191	0xbde9f89a	-0.1142437
192	0x3dc1053a	0.09424825
193	0xbe3f15f4	-0.18660718
194	0xbdaa33f8	-0.083106935
195	0xbe50e55a	-0.2039999
196	0x3e6dadf3	0.23210888
197	0xbd90a3d9	-0.070625015
198	0x3e0d14ea	0.1377751
199	0x3dbb18fc	0.09135625
200	0x3c5d5253	0.013508397
201	0xbe7fed12	-0.24992779
202	0x3d8aae03	0.06771471
203	0xbdb23de1	-0.08703209
204	0x3ddd6458	0.10810155
205	0x3d1208fd	0.035653103
206	0xbdce41fe	-0.10071181
207	0x3d927d48	0.07152802
208	0x3d3e2920	0.04642594
209	0xbdf2fbf6	-0.11864464
210	0x3d7cb29e	0.06169378
211	0xbd8ff789	-0.070296355
212	0x3e32ca1e	0.17459914
213	0x3d41f9c5	0.04735734
214	0x3dc975ca	0.098369196
215	0xbd4b2644	-0.04959704
216	0xbdabc7df	-0.08387732
217	0x3d375a3a	0.04476378
218	0x3daea00b	0.085266195
219	0xbdb39cb9	-0.08770127
220	0xbd14fe4f	-0.03637534
221	0xbd53b30c	-0.051684424
222	0xbbb30c6e	-0.005464128
223	0xbd0d86bc	-0.03455232
224	0xbd7d9706	-0.061911605
225	0xbe20ef42	-0.1571627
226	0xbd5ce45d	-0.05392872
227	0x3ddc2990	0.10750115
228	0x3dcef9ec	0.101062626
229	0xbd24cd08	-0.040234596
230	0x3c80ce8a	0.015723485
231	0xbccf9534	-0.0253397
232	0xbe3177f8	-0.1733092
233	0xbd525d06	-0.051358245
234	0x3dacce1c	0.0843775
235	0xbde53d33	-0.111933134
236	0xbd849bae	-0.06475006
237	0xbbd5a6af	-0.0065201144
238	0xbdf47802	-0.11936952
239	0x3c993a0b	0.018704435
240	0xbce34615	-0.027743379
241	0x3ab06908	0.0013459036
242	0x3d05825d	0.032595027
243	0xbda2df4e	-0.07952748
244	0xbe312d6e	-0.17302486
245	0x3df30086	0.11865334
246	0xbd0e45ae	-0.03473442
247	0x3b73d2c7	0.003720449
248	0xbdcfe7cf	-0.10151636
249	0x3d27d76b	0.040976923
250	0x3e8c8940	0.27448463
251	0x3e1b7dff	0.15184782
252	0xbdee924e	-0.11648999
253	0xbcbfea61	-0.02342719
254	0x3dd746f0	0.10511577
255	0x3b2b354a	0.0026124292

a2c_network.actor_mlp.0.bias f4 [256]
0	0xbc83c705	-0.01608611
1	0xbcd85d64	-0.02641172
2	0xbca4c7fb	-0.02011489
3	0x3c8e6bae	0.01738533
4	0x3c5b6f25	0.013393198
5	0xbbe1806d	-0.0068817646
6	0x3ccdf9c2	0.025143508
7	0xbd80f40d	-0.06296549
8	0xbdbd77cd	-0.09251366
9	0xbbad4ff2	-0.0052890712
10	0x3d7ecacc	0.06220512
11	0x3b93cb9e	0.004510357
12	0xbd265c02	-0.04061509
13	0xbc728489	-0.014802107
14	0xbda60484	-0.0810633
15	0xbc3e8085	-0.011627321
16	0xbd25dc6a	-0.040493406
17	0x3d1b98cd	0.03798752
18	0xbcf3b0df	-0.029747425
19	0x3d05c377	0.032657113
20	0xbcfbcbed	-0.030736888
21	0xbd49b8ae	-0.04924839
22	0xba251e24	-0.0006298742
23	0xbac4f0c1	-0.0015025364
24	0xbd73cfd0	-0.059524357
25	0xbc4157ee	-0.011800749
26	0x3b7c70b7	0.0038519332
27	0x3d76851d	0.06018554
28	0xbd2a66bc	-0.04160188
29	0x3d826419	0.06366748
30	0x3bef11c5	0.0072958195
31	0x3d09061d	0.033453096
32	0xbc1649eb	-0.009172897
33	0xbd2e0637	-0.042486396
34	0x3d471564	0.048604384
35	0x3da8c046	0.08239798
36	0x3c3524cb	0.011056135
37	0xbd55d07c	-0.05220078
38	0x38f84212	0.00011837868
39	0x3d3b534f	0.045733746
40	0x3d459635	0.04823895
41	0x3d96fd44	0.07372525
42	0xbd0baa06	-0.034097694
43	0x3d7a537e	0.06111478
44	0xbc1d95db	-0.009618248
45	0xbcfb7fb1	-0.030700536
46	0xbc72c818	-0.014818214
47	0x3d3ffaab	0.046869915
48	0xbc85e46b	-0.01634427
49	0xbd40ad96	-0.047040544
50	0xbc3faf34	-0.0116994865
51	0xbd44a86a	-0.048012175
52	0xbc1197fe	-0.008886335
53	0x3ce871ff	0.02837467
54	0x3d637c26	0.05553832
55	0x3d92f9d3	0.071765564
56	0xbd2f8013	-0.04284675
57	0xbc1acd0f	-0.009448304
58	0x3d53439d	0.051578153
59	0x3c5d3cd3	0.013503271
60	0x3c971d73	0.01844666
61	0x3d9272a1	0.0715077
62	0xbcc719f1	-0.024304362
63	0xbce9ee4e	-0.028556015
64	0xbd8ebda3	-0.06969764
65	0xbc69e912	-0.01427676
66	0xbd7f9198	-0.06239471
67	0xbc565f53	-0.0130842505
68	0x3d19f116	0.037583433
69	0xbc92a0f9	-0.017899023
70	0xbd839552	-0.06424965
71	0xb9ffa51c	-0.00048760406
72	0x3dcebd81	0.10094739
73	0xba9d0702	-0.0011980238
74	0xbd3ac40d	-0.045597125
75	0xbcafd5c5	-0.021464238
76	0xbcff845c	-0.031191044
77	0x3d863cec	0.06554589
78	0xbc48d8fe	-0.012258766
79	0xbcd806aa	-0.026370365
80	0x3bf3e9de	0.0074436506
81	0xbd404133	-0.04693718
82	0xbd463e44	-0.048399225
83	0x3ad9b27a	0.0016608976
84	0x3bf08b06	0.0073407916
85	0xbe00ebed	-0.12589999
86	0x3bafb856	0.0053625507
87	0x3c1a4a9c	0.009417202
88	0x3c9e7352	0.019342098
89	0xbcc15510	-0.023600131
90	0x3d438133	0.047730636
91	0x3c6f7b7a	0.014616841
92	0xbbbb293d	-0.005711703
93	0x3a33bf1f	0.00068567874
94	0xbbfe5b14	-0.007762322
95	0x3c9e6de8	0.019339517
96	0xbd1a530f	-0.037676867
97	0xbd66afcd	-0.05632
98	0x3d8b9582	0.06815626
99	0xbc868c05	-0.016424188
100	0xbd9fcfdd	-0.07803319
101	0x3deecb12	0.11659826
102	0xbd07f361	-0.03319109
103	0x3bfceea2	0.007718877
104	0xbccce3c7	-0.025010956
105	0x3b02fd74	0.0019987496
106	0xbd1cc46c	-0.03827326
107	0xbd5302be	-0.051516287
108	0xbd3fbce1	-0.04681099
109	0xbd0734f4	-0.033009484
110	0x3bc9327e	0.0061400523
111	0x3b9f124d	0.0048544765
112	0xbca27292	-0.019830022
113	0x3c283dab	0.010268609
114	0x3d099659	0.03359065
115	0xbd16efd1	-0.0368498
116	0xbd110b9d	-0.035411466
117	0xbce27e78	-0.027648196
118	0x3c41dbcf	0.011832192
119	0x3ca66a41	0.020314338
120	0x3c41c479	0.011826628
121	0x3d77f24c	0.060533807
122	0x3d3ba656	0.045812927
123	0x3ba95155	0.0051671662
124	0x3c571d86	0.0131295975
125	0x3d520751	0.05127651
126	0x3d34c101	0.044129375
127	0x3bb3dd64	0.0054890383
128	0x3bad5bb4	0.005290473
129	0xbd3cd801	-0.046104435
130	0x3cd3fad2	0.025876436
131	0xbb69361f	-0.0035585237
132	0x3b814739	0.003945258
133	0x3c869f22	0.016433302
134	0xbc88abca	-0.016683478
135	0xbc872164	-0.016495414
136	0xbdcdf1ac	-0.10055861
137	0xbd848925	-0.06471471
138	0xbc7a4bc3	-0.015276852
139	0xbe210af7	-0.15726839
140	0xbc4fddd6	-0.012687167
141	0x3b4638bb	0.0030246216
142	0x3c8ea179	0.01741098
143	0x3d477a99	0.048700903
144	0xbc80f3e9	-0.015741305
145	0x3d7301e4	0.059327975
146	0x3c84ce65	0.016211698
147	0x3cd97416	0.026544612
148	0x3b78b04a	0.0037946873
149	0x3c396a4d	0.011316848
150	0xbd9a0131	-0.075197585
151	0x3bad3b0a	0.005286579
152	0x3d0808b2	0.033211417
153	0xbcbbc62b	-0.022921642
154	0x3bca1166	0.006166625
155	0xbce74927	-0.028233124
156	0xbc7d2c25	-0.015452419
157	0x3cf815e4	0.030283876
158	0x3c948b85	0.018132934
159	0x3c288b02	0.010287048
160	0x3d3d58d9	0.04622731
161	0x3d748b11	0.059702937
162	0xbd777f9b	-0.06042443
163	0xbd82f555	-0.063944496
164	0x3c8c79bc	0.017147891
165	0x3ba03cdf	0.004890069
166	0xbd290d0a	-0.0412722
167	0x3b7457d4	0.0037283795
168	0x3ccf6b8c	0.025319837
169	0xbd4419fc	-0.047876343
170	0x3d033e33	0.03204174
171	0xbc8ff388	-0.01757218
172	0x3dc3bc1d	0.09557364
173	0x3b88bd2d	0.004172942
174	0x3c411b77	0.011786333
175	0xbd2cf5ea	-0.04222671
176	0x3d23aefb	0.039961796
177	0x3b7643c2	0.0037577008
178	0xbc8bd7b2	-0.017070625
179	0xbd72e34f	-0.05929881
180	0x3d9cd69f	0.07658123
181	0xbd6b2ae4	-0.05741395
182	0xbddc9dc4	-0.10772279
183	0xbdb04c16	-0.08608262
184	0xbc850228	-0.01623638
185	0x3b49f69c	0.0030817157
186	0x3d715697	0.05892047
187	0xbac668f8	-0.0015137484
188	0xbd1ba200	-0.037996292
189	0xbd3087d5	-0.04309829
190	0xbb989273	-0.00465613
191	0xbd5501e9	-0.052003775
192	0xbdabfc42	-0.08397724
193	0xbca7bacc	-0.020474814
194	0xbdad37f6	-0.08457939
195	0x3da82635	0.082104124
196	0x3d0eb9ec	0.034845278
197	0xbd0a3816	-0.033744894
198	0xbcdac2b4	-0.02670417
199	0xbcec1de3	-0.028822845
200	0x3c351cf4	0.011054266
201	0xbd0dab05	-0.034586925
202	0xbbddb993	-0.006766507
203	0xbd0d9bd4	-0.034572437
204	0xbd970c2b	-0.07375368
205	0x3d1909eb	0.037362974
206	0xbc84fcae	-0.016233768
207	0xbbd35dc1	-0.0064503853
208	0xbcc0fc7b	-0.023557892
209	0x3db3bca2	0.08776213
210	0xbbf23436	-0.007391478
211	0x3cf91790	0.030406743
212	0xbc1951bb	-0.009357865
213	0xbc4f6768	-0.012658931
214	0xbbe3c8ae	-0.006951413
215	0xbd3eca7c	-0.046579823
216	0xbd321b92	-0.043483324
217	0x3cf44689	0.02981879
218	0xbc8a1bfe	-0.01685905
219	0x3cc1d679	0.023661839
220	0xbd435708	-0.04769042
221	0xbb4fbc58	-0.0031697955
222	0x3d89ede1	0.06734825
223	0x3bc39cd2	0.005969622
224	0x3de6b4b3	0.112649344
225	0x3cf03efb	0.029326906
226	0x3dcd7a35	0.10033075
227	0x3c18af6e	0.009319169
228	0xbccb6b43	-0.02483142
229	0x3b9f92db	0.0048698015
230	0x3d428d7e	0.04749822
231	0xbba91aaf	-0.0051606516
232	0x3ce9dbc1	0.02854717
233	0xbc215e94	-0.009849209
234	0x3d5bf1e8	0.053697497
235	0x3cff5621	0.031169
236	0x3cdfcd8c	0.027319692
237	0xbc4cbe9f	-0.0124966195
238	0xbccffea9	-0.025389986
239	0x3d079046	0.033096574
240	0x3cb57d11	0.022154363
241	0xbcf695ca	-0.030100722
242	0x3cf5e4d0	0.030016333
243	0x3c9a3cb9	0.018827783
244	0x3b598a5e	0.0033194046
245	0x3ba90028	0.0051574893
246	0x3d715b34	0.05892487
247	0xbdd608a1	-0.104508646
248	0xbc91cea0	-0.017798722
249	0xbd9994ca	-0.074990824
250	0xba4fac3f	-0.000792209
251	0xbcd469be	-0.025929328
252	0x3c7a5bde	0.015280692
253	0x3d7782b7	0.060427394
254	0x3c8e06b2	0.017337177
255	0xbd265f98	-0.04061851

a2c_network.actor_mlp.2.weight f4 [128, 256]
0	0xbcc1b378	-0.023645148
1	0x3d5fdb0e	0.054652266
2	0xbd3c8e36	-0.04603406
3	0xbd699078	-0.05702254
4	0x3cc34f68	0.023841575
5	0x3d243819	0.04009256
6	0xbc80a993	-0.01570586
7	0x3d997d9d	0.07494662
8	0xbcf68cf9	-0.030096518
9	0x3d828833	0.06373634
10	0x3da9aae0	0.08284545
11	0xbd47bf5f	-0.04876649
12	0xbdb3592b	-0.08757242
13	0x3d012c09	0.031536136
14	0xbc3d5888	-0.011556752
15	0x3d0ed951	0.034875218
16	0xbdb5c8f4	-0.088762194
17	0x3d995f44	0.074888736
18	0xbcd4d52d	-0.025980556
19	0x3b4d506f	0.003132846
20	0xbc7fcdcf	-0.015613033
21	0x3c9c1a2e	0.019055452
22	0xbd9b8966	-0.07594566
23	0xbba71e3d	-0.00510004
24	0xbb9567f3	-0.004559511
25	0x3d62e75c	0.055396423
26	0xbc474450	-0.012162283
27	0xbdfe7feb	-0.12426742
28	0xbc845bfa	-0.01615714
29	0xbdd98164	-0.106203824
30	0x3d75121f	0.059831735
31	0xbdb808a7	-0.08986025
32	0x3d9ee888	0.077591956
33	0x3ba86c83	0.0051398887
34	0x3d81f735	0.06345979
35	0xbcfc0c86	-0.03076769
36	0xbda12788	-0.07868868
37	0xbd60f3bc	-0.054919943
38	0xbc06263a	-0.008187825
39	0xbd97681f	-0.073929064
40	0x3d090519	0.033452127
41	0xbad3dcf7	-0.0016163875
42	0x3a344e64	0.0006878136
43	0x3d11e117	0.035615053
44	0xbdbdd9bc	-0.09270045
45	0xbd016129	-0.0315868
46	0x3cec2888	0.02882792
47	0x3c9b3d00	0.018949986
48	0xbc98b918	-0.018642947
49	0xbcd68f9b	-0.026191523
50	0x3dc3f0da	0.09567423
51	0x3d6da177	0.058015313
52	0x3cbf1824	0.02332694
53	0x3bbb9a29	0.0057251644
54	0xbdc2e84e	-0.09516965
55	0x3cf9e9a4	0.030506916
56	0x3da1bf8c	0.07897863
57	0xbe10891b	-0.14114802
58	0xbce28074	-0.027649142
59	0xbe2b8f84	-0.16753966
60	0xbd38c158	-0.045106262
61	0xbd38990d	-0.045067836
62	0xbd085f78	-0.03329417
63	0x3d2f6243	0.04281832
64	0x3cfa1883	0.030529266
65	0x3ca811dd	0.02051633
66	0xbbfc20e7	-0.007694352
67	0xbd3fcef0	-0.04682821
68	0x3cd6f43d	0.026239509
69	0xbddf3b7b	-0.10900017
70	0x3d19a53b	0.03751109
71	0xbd8e82a5	-0.06958512
72	0xbd90403c	-0.07043502
73	0xbc9ff054	-0.019523777
74	0xbd40d781	-0.04708052
75	0x3d9cd1c7	0.07657199
76	0x3d410ab7	0.04712936
77	0xbd57eb79	-0.0527148
78	0xbd44c936	-0.048043452
79	0xbce388aa	-0.027775127
80	0x3d987b51	0.07445396
81	0xbd938cd1	-0.07204593
82	0x3cfaa1ed	0.03059479
83	0x3d46dd7d	0.04855107
84	0x3d502a22	0.05082143
85	0xbcda5e28	-0.026656225
86	0x3c5b5ea7	0.013389266
87	0x3a0ed8b7	0.0005449163
88	0xbd847ed8	-0.06469506
89	0xbd8e11bf	-0.069369785
90	0xbd4087e9	-0.047004614
91	0xbd345f78	-0.04403636
92	0x3d401baa	0.046901383
93	0x3d297682	0.041372783
94	0x3db192ce	0.08670579
95	0xbc269446	-0.010167187
96	0x3cb6869f	0.02228099
97	0x3c8957b7	0.016765459
98	0x3cb1b1f5	0.021691302
99	0x3b4accb9	0.0030944778
100	0xbb1fa7ad	-0.0024361417
101	0x3c86ffd7	0.016479416
102	0x3d514f0a	0.05110077
103	0x3cd0fe5b	0.025511911
104	0x3cae5bc5	0.021283993
105	0xbd207595	-0.039174635
106	0xbc10da13	-0.008841055
107	0x3d15a9e3	0.03653897
108	0xbc910974	-0.017704703
109	0xbd00453f	-0.03131604
110	0x3c513913	0.012769955
111	0xbc74675f	-0.014917224
112	0x3b9ba3b3	0.004749739
113	0x3d54eabe	0.05198168
114	0xbd81d1b0	-0.06338823
115	0xbd5fa828	-0.054603726
116	0x3be16083	0.00687796
117	0x3bb45d62	0.005504296
118	0xbce85dee	-0.028365102
119	0x3c54af13	0.012981194
120	0x3c122c87	0.008921749
121	0xbce89b55	-0.02839438
122	0xbd13b4d2	-0.036061116
123	0x3b3c59ed	0.0028740123
124	0x3dc6dd25	0.09710149
125	0xbdafbf8d	-0.08581457
126	0xbc86a199	-0.016434478
127	0xbdcea163	-0.10089376
128	0x3d95f176	0.07321446
129	0xbd34a42d	-0.044101883
130	0x3d6c3d20	0.05767548
131	0xbbc5bae1	-0.0060342406
132	0xbcd77156	-0.02629916
133	0x3c51b3c6	0.012799209
134	0x3c596650	0.013269022
135	0xbc2be4d7	-0.010491571
136	0xbd1dc254	-0.038515404
137	0x3d85881a	0.065201
138	0x3e1c67b5	0.15273936
139	0x3c4588eb	0.01205657
140	0xbd565584	-0.052327648
141	0xbd2a3b3a	-0.04156039
142	0xbd48aa14	-0.048990324
143	0xbd849bcb	-0.06475028
144	0xbba5173d	-0.0050381706
145	0xbcaec99d	-0.021336371
146	0x3cdb87a2	0.026798073
147	0xbd18979a	-0.037253954
148	0x3ce20dfe	0.027594563
149	0xbcf35908	-0.02970554
150	0x3cebb862	0.028774444
151	0xbd0b332f	-0.03398436
152	0xbc83611f	-0.016037522
153	0x3dba2400	0.09088898
154	0xbca9adc8	-0.020712748
155	0x3d99c0da	0.07507487
156	0xbda2c849	-0.079483576
157	0xbd01ae6e	-0.03166049
158	0xbd925777	-0.07145589
159	0xbdaaed24	-0.08346012
160	0xbe0544fa	-0.13014594
161	0x3d2dd3a9	0.042438183
162	0xbce26190	-0.027634412
163	0x3d45d6fb	0.048300724
164	0x3d4bb95f	0.04973733
165	0x3d212ebb	0.039351206
166	0x3c955144	0.018227227
167	0x3dadb3e1	0.08481575
168	0x3d9f0f4f	0.07766592
169	0x3d52e0b1	0.051483814
170	0xbcb7d595	-0.022440711
171	0x3d07759b	0.03307114
172	0x3c92e75b	0.017932585
173	0xbcde8df0	-0.02716729
174	0x3c3d4a4a	0.011553356
175	0xbd629666	-0.055319212
176	0xbc9cc519	-0.019136952
177	0xbc7efda1	-0.0155633995
178	0xbd84000c	-0.064453214
179	0x3d74ae82	0.059736736
180	0xbb0e2b8b	-0.0021693434
181	0xbd6039f6	-0.054742776
182	0xbd653e8d	-0.055967856
183	0x3a8346d7	0.0010015619
184	0xbd7b18be	-0.061302893
185	0x3bf3c351	0.007439055
186	0x3df766da	0.12080164
187	0x3c5dd460	0.013539404
188	0xbc43e020	-0.011955291
189	0xbcb95a10	-0.022625953
190	0xbdc3d7ee	-0.0956267
191	0x3d077517	0.03307065
192	0x3a30fbac	0.0006751369
193	0x3d5fd0fd	0.054642666
194	0xbd35fd33	-0.044430923
195	0x3db3464d	0.08753643
196	0xbbb32bd7	-0.0054678726
197	0x3d167d3b	0.036740523
198	0x3d8c7608	0.0685845
199	0xbce3f0fb	-0.02782487
200	0x3db4fc04	0.08837131
201	0x3d4e750d	0.050404597
202	0x3d458332	0.04822082
203	0x3d1a885b	0.037727695
204	0xbda5154f	-0.08060705
205	0xbd1ba2ab	-0.03799693
206	0x3b19216a	0.0023365864
207	0x3d13bd82	0.0360694
208	0x3d4dbc90	0.050228655
209	0x3c6af947	0.014341659
210	0x3d5f1dee	0.054471903
211	0xbe00451b	-0.12526362
212	0x3c836315	0.016038457
213	0xbcff114b	-0.031136176
214	0x3ac70a73	0.0015185609
215	0x3d02e314	0.03195484
216	0x3dad211c	0.08453581
217	0xbb1685ea	-0.0022968003
218	0x3d8ef22f	0.069797866
219	0xbd147e90	-0.036253512
220	0xb9fa5319	-0.00047745628
221	0x3cee8b16	0.029119056
222	0x3d8da98b	0.069171034
223	0x3d20fd70	0.039304197
224	0xbd857206	-0.06515889
225	0x3c27820f	0.0102238795
226	0xbcbd2646	-0.02308954
227	0x3b3b0fe8	0.0028543416
228	0xbd83f91c	-0.06443998
229	0xbd557730	-0.05211562
230	0x3c8e0e19	0.017340707
231	0x3df77225	0.12082318
232	0x3d7525b0	0.059850395
233	0x3d06d036	0.03291341
234	0x3d132ae0	0.03592956
235	0x3da47568	0.08030206
236	0xbd9079fc	-0.07054517
237	0x3c3af4d0	0.011410907
238	0x3c500eb2	0.012698816
239	0x3dd520b8	0.10406631
240	0xbcea47d8	-0.02859871
241	0xbbea2d03	-0.007146479
242	0xbc6ff84e	-0.014646603
243	0xbd9b2552	-0.07575478
244	0x3e2b0362	0.16700509
245	0xbdbaa685	-0.09113792
246	0xbccf20d3	-0.025284206
247	0x3cb57881	0.022152187
248	0xbde68cf0	-0.112573504
249	0xbdcc4fe2	-0.09976174
250	0x3c9db76f	0.019252507
251	0x3dc1c27e	0.094609246
252	0xbcd039fd	-0.025418276
253	0x3d43052f	0.047612365
254	0x3d807448	0.06272179
255	0x3c96d368	0.018411353

a2c_network.actor_mlp.2.bias f4 [128]
0	0x3cb52ddd	0.022116596
1	0xbc81500c	-0.01578524
2	0x3c9eebb1	0.019399496
3	0xbd694df6	-0.056959115
4	0xbdd60be8	-0.1045149
5	0x3d1ffb9f	0.039058324
6	0x3c31e5df	0.010858028
7	0xbcde5b15	-0.02714304
8	0xbc97882f	-0.018497555
9	0x3c080670	0.008302316
10	0x3d0d0b93	0.034434866
11	0x3c7a775e	0.015287248
12	0x3cbbfff8	0.022949204
13	0xbd21d541	-0.039510015
14	0x3d30ec6b	0.043194216
15	0xbd7aa176	-0.061189137
16	0xbd0f1d79	-0.034940217
17	0xbc81386c	-0.015773974
18	0xbd90ebc0	-0.07076216
19	0x3cf2f27e	0.029656645
20	0xbd7e401b	-0.062072854
21	0xbd0d5e91	-0.034514014
22	0xbc23e258	-0.010002695
23	0x3bd1c868	0.006402064
24	0xbd28b3e2	-0.041187175
25	0xbcb730e6	-0.022362184
26	0x3ca40014	0.020019569
27	0xbd306b4e	-0.043071084
28	0xbc97b6a7	-0.018519713
29	0x3c5a1044	0.013309542
30	0xbdb97193	-0.09054866
31	0xbd6d42c1	-0.05792499
32	0x3d0e3421	0.034717683
33	0x3bbe8bb6	0.0058149947
34	0xbc8a178a	-0.016856927
35	0xbd119520	-0.035542607
36	0xbdda15a1	-0.10648657
37	0xbd27a909	-0.04093269
38	0xbd92b09b	-0.07162591
39	0xbd3b7771	-0.045768205
40	0xbc8f35a3	-0.01748163
41	0x3be47593	0.0069720238
42	0x3d9a7ae0	0.07542968
43	0x3c405023	0.011737856
44	0xbd955a02	-0.07292558
45	0xbc857065	-0.016288945
46	0xbd51339e	-0.051074617
47	0xbdc6e67c	-0.0971193
48	0xbc1c205d	-0.0095292
49	0xbcbe5268	-0.023232654
50	0x3dc6f38f	0.09714424
51	0xbcb6553b	-0.022257438
52	0xbdf2e6c4	-0.11860421
53	0x3c8d66ff	0.017261026
54	0xbd4a4d66	-0.04939022
55	0x3d49b802	0.04924775
56	0x3d8a642f	0.0675739
57	0x3c2eab36	0.010660937
58	0x3d04a968	0.03238812
59	0x3bedbad0	0.007254936
60	0x3c92be82	0.017913107
61	0x3d898b42	0.067160144
62	0xbdbc6790	-0.091994405
63	0x3cf05bc2	0.029340629
64	0x3d3e45fe	0.04645347
65	0x3ba48247	0.005020413
66	0xbd8de8ca	-0.069291666
67	0x3d84f3df	0.06491827
68	0x3c284fd2	0.010272937
69	0x3cc58731	0.024112316
70	0xbb587edc	-0.0033034598
71	0x3d001a64	0.031275168
72	0xbd89ffe1	-0.06738258
73	0x3d1d5805	0.03841402
74	0xbd80f47f	-0.06296634
75	0x3d1f0866	0.03882637
76	0x3c0be793	0.008539098
77	0x3c039216	0.008030435
78	0xbc2a56de	-0.010396687
79	0xbd74fe6e	-0.059812956
80	0xbc30bbef	-0.010786994
81	0xbd2526ea	-0.040320314
82	0xbcb5353c	-0.02212011
83	0x3d157342	0.03648687
84	0x3d1ce420	0.038303494
85	0xbd2d51ca	-0.04231433
86	0xbcf42cfa	-0.029806603
87	0xbd7236bc	-0.05913423
88	0xbb0ed2f5	-0.002179322
89	0x3d3c49b9	0.045968745
90	0x3b91d4e1	0.004450426
91	0xbcec35c1	-0.028834226
92	0xbd73a215	-0.059480745
93	0xbbbeb1f7	-0.005819555
94	0xbd4b3584	-0.049611583
95	0x3b41c409	0.002956631
96	0x3d5058e9	0.05086604
97	0xbd5847d5	-0.05280288
98	0x3c0904bd	0.008362946
99	0x3c51eef9	0.012813323
100	0xbcf59d1c	-0.029982142
101	0xbc0ad431	-0.008473442
102	0xbc3cd6c4	-0.0115258135
103	0x3d17543d	0.03694557
104	0xbbf8eda9	-0.0075966907
105	0x3bcbba72	0.0062172944
106	0xbb357101	-0.0027685764
107	0x3b645595	0.003484105
108	0x3d49fa77	0.049311128
109	0xbdbe6dba	-0.092982724
110	0xbe020cb0	-0.12700152
111	0x3d3a997d	0.045556534
112	0xbda8bbb9	-0.0823893
113	0x3b438205	0.0029832136
114	0x3d46aba7	0.048503544
115	0x3c247daf	0.010039731
116	0x3c42a90e	0.011881126
117	0x3d14c414	0.036319807
118	0x3bef739d	0.0073074833
119	0xbc4ad420	-0.012379676
120	0x3d3be2e5	0.04587068
121	0x3d17d130	0.03706473
122	0x3d481902	0.048851974
123	0x3b6a1f66	0.0035724281
124	0xbd425d83	-0.04745246
125	0x3c8c75bf	0.01714599
126	0x3d046de2	0.032331355
127	0xbda1f7e0	-0.079086065

a2c_network.actor_mlp.4.weight f4 [64, 128]
0	0x3a2145b6	0.00061520503
1	0x3d4dd69a	0.050253488
2	0x3c681142	0.014164271
3	0xbd661f41	-0.05618215
4	0xbcbc4178	-0.022980437
5	0x3df65ce9	0.1202944
6	0x3d05632d	0.032565285
7	0x3da37e2b	0.07983049
8	0xbd567768	-0.05235997
9	0xbc11e735	-0.008905222
10	0xbce10ee7	-0.027472926
11	0xbd1c992d	-0.038232017
12	0xbb876ad1	-0.0041326066
13	0xbc4add46	-0.012381857
14	0xbdc70c06	-0.0971909
15	0xb9ec4d38	-0.0004507096
16	0xbdca0816	-0.098648235
17	0x3a9b6ab7	0.0011857365
18	0xbc929482	-0.01789308
19	0x3d31fcd7	0.043454017
20	0xbd0272d6	-0.031847797
21	0xbd786aea	-0.060648836
22	0xbcc47d72	-0.023985598
23	0xbd41896b	-0.047250193
24	0x3db33263	0.08749845
25	0x3dc92243	0.09820988
26	0xbd940d83	-0.0722914
27	0xbbbf0328	-0.0058292337
28	0xbdb41949	-0.08793885
29	0x3c0178d8	0.007902347
30	0xbc825552	-0.015909825
31	0xbda5dc6a	-0.08098681
32	0x3dae503e	0.08511399
33	0x3d8dd1dc	0.06924793
34	0xbd593c33	-0.053035926
35	0xba856d9d	-0.0010179762
36	0x3dcfb9c8	0.10142857
37	0xbd221c0d	-0.039577533
38	0x3dd8195a	0.105517104
39	0xbdf60d42	-0.120142475
40	0xbc85d668	-0.016337588
41	0xbd6963cc	-0.05697994
42	0xbd94f3dc	-0.07273075
43	0x3b96afc6	0.0045985905
44	0xbd108b4d	-0.035289098
45	0x3c8ea69a	0.017413426
46	0x3c75e567	0.015008307
47	0x3d8fed21	0.070276506
48	0x3b22ef8e	0.0024862024
49	0x3da63266	0.081150815
50	0xbd210460	-0.039310813
51	0x3d9c085d	0.07618783
52	0x3d690eed	0.056899
53	0xbbc264c5	-0.005932423
54	0xbcaa3139	-0.020775424
55	0x3db3206b	0.087464176
56	0x3db27b60	0.08714938
57	0xbd6729bf	-0.056436297
58	0x3d234437	0.039859977
59	0xbd4401f6	-0.047853433
60	0xbd15d3d2	-0.03657896
61	0x3c7b549b	0.015339996
62	0x3d36a14c	0.04458742
63	0xbc8713a5	-0.01648886
64	0xbcd3ac47	-0.025838984
65	0xbd3f9d90	-0.046781123
66	0x3e2f3ba0	0.17112589
67	0xbc4272ac	-0.01186816
68	0x3dc10e58	0.09426564
69	0x3dac2e49	0.08407266
70	0xbdf4732c	-0.1193603
71	0x3dc8cf85	0.09805206
72	0xbe114620	-0.14186907
73	0xbcd2e791	-0.025745185
74	0xbd4a29b1	-0.049356166
75	0x3dc4cee2	0.09609772
76	0xbd987d22	-0.07445742
77	0x3b8a8e0c	0.004228359
78	0x3da58820	0.080826044
79	0x3b9a64ff	0.0047117467
80	0x3d7348f5	0.05939575
81	0x3c6653a2	0.014058026
82	0xbd838cf2	-0.064233676
83	0xbc06841d	-0.008210209
84	0x3d91c27a	0.071171716
85	0xbe126eca	-0.14300075
86	0x3d50c729	0.050971184
87	0xbc01f30d	-0.007931483
88	0x3d842fe6	0.064544484
89	0x3ce3d088	0.027809396
90	0xbd08bb30	-0.03338164
91	0x3d183efc	0.03716944
92	0x3d45bd38	0.048276156
93	0xbddb6b2e	-0.10713802
94	0xbe39a7c2	-0.18130401
95	0x3d5b41e6	0.053529643
96	0x3cbd587d	0.023113484
97	0xbd4681f3	-0.048463773
98	0xbd8a2148	-0.06744629
99	0x3b18c3fb	0.0023310173
100	0x3d14207f	0.036163803
101	0x3cc7a70e	0.02437165
102	0x3d39c5f1	0.045354787
103	0xbd6e645c	-0.05820118
104	0xbd87db10	-0.0663358
105	0x3de30466	0.11084823
106	0x3d70f9f4	0.058832124
107	0xba88e30f	-0.0010443645
108	0xb9a02b73	-0.0003054995
109	0x3befebe7	0.007321823
110	0xbc18098e	-0.009279622
111	0x3e1de97c	0.15421098
112	0xbdb75c6f	-0.08953177
113	0x3d9dce05	0.07705311
114	0x3c9d519b	0.019203952
115	0x3cd12d42	0.025534276
116	0x3d4d7e06	0.050169013
117	0xbd8201e1	-0.063480146
118	0x3cb6eaa7	0.022328688
119	0xbca3e62c	-0.020007215
120	0x3d802745	0.0625749
121	0xbdaae67d	-0.083447434
122	0x3da2c22d	0.07947192
123	0xbb8993cf	-0.0041985284
124	0x3da0ea73	0.07857218
125	0x3d41c564	0.047307387
126	0x3d4fe99b	0.050759893
127	0xbd4653e0	-0.048419833
128	0xbd57f124	-0.052720204
129	0x3dabd893	0.08390918
130	0x3d33199c	0.043725595
131	0xbe358c2c	-0.17729253
132	0xbd5028ad	-0.05082004
133	0xbd36399b	-0.04448853
134	0xbd17fb69	-0.037104998
135	0x3db5f9d9	0.08885545
136	0xbd87ec4a	-0.066368654
137	0xbd2a7ee9	-0.041624937
138	0xbc103a55	-0.00880297
139	0xbd405809	-0.046958957
140	0x3d5f1d88	0.054471523
141	0xbd477eeb	-0.048705023
142	0xbdbcb327	-0.09213858
143	0xbdc786c3	-0.09742501
144	0xbdac4d72	-0.08413209
145	0xbbb5c7d9	-0.0055475053
146	0xbcff2b92	-0.031148706
147	0x3d1e0091	0.03857476
148	0xbc71872e	-0.014741702
149	0xbcf447c7	-0.029819382
150	0x3cf90144	0.030396111
151	0x3d10d888	0.03536275
152	0x3e2e0968	0.16995776
153	0xbd7e9c77	-0.062160935
154	0xbd5d6453	-0.054050755
155	0xbceedc52	-0.029157791
156	0x3d25bb40	0.04046178
157	0xbcec5632	-0.028849695
158	0x3cb2bb9b	0.021817973
159	0x3da446ac	0.08021292
160	0x3bc378d1	0.00596533
161	0x3cf9acd9	0.030477928
162	0x3da75c17	0.081718616
163	0xbc1054d0	-0.008809283
164	0x3d11c618	0.035589308
165	0x3da9cc78	0.082909524
166	0xbd5e8992	-0.054330416
167	0x3b287bb6	0.0025708503
168	0xbc5e3b1d	-0.013563898
169	0x3ca66232	0.020310495
170	0xbd9df73d	-0.077131726
171	0xbcb28694	-0.021792687
172	0xbc4404dc	-0.011964049
173	0xbd8c5e48	-0.0685392
174	0x3c6f3f62	0.014602514
175	0x3e0de4ad	0.13856764
176	0x3d9c2358	0.07623929
177	0x3d998fe9	0.07498152
178	0x3d6c030e	0.0576201
179	0xbd546697	-0.05185565
180	0xbcbd462f	-0.023104755
181	0xbd0a4133	-0.033753585
182	0x3dd7735b	0.10520049
183	0x3cf4e95d	0.029896433
184	0x3d801b3b	0.06255194
185	0xbdfd5a8f	-0.12370788
186	0x3db01cf9	0.08599276
187	0x3dada54d	0.08478794
188	0xbde02cbf	-0.10946035
189	0xbd8bf754	-0.068342835
190	0x3cb50428	0.022096708
191	0xbde9d394	-0.114173084
192	0xbdc9599f	-0.09831547
193	0xbc883baf	-0.016630022
194	0xbd7ff122	-0.06248582
195	0xbda69edb	-0.08135768
196	0xbd9242bc	-0.07141635
197	0xbe129a58	-0.1431669
198	0xbdcc7faa	-0.099852875
199	0xbe04a715	-0.12954362
200	0xbd9ce68d	-0.076611616
201	0xbb463680	-0.0030244887
202	0xbe001f6c	-0.12511986
203	0x3d7ad838	0.06124136
204	0x3d29a0ff	0.041413303
205	0xbd839d62	-0.06426503
206	0xbcb67f9c	-0.022277646
207	0xbd987a1d	-0.07445166
208	0x3d9e9312	0.07742895
209	0x3d1deabf	0.03855395
210	0x3cf2bd39	0.029631244
211	0xbcd35a7c	-0.025799982
212	0x3d8f216e	0.06988798
213	0xbd952fbe	-0.07284497
214	0xbbe1f51e	-0.0068956753
215	0xbcb72c99	-0.022360133
216	0x3b3f7991	0.0029216746
217	0x3d757120	0.059922338
218	0xbcfa9929	-0.03059061
219	0xbe0105f9	-0.12599935
220	0xbd88be7f	-0.06676959
221	0x3c2c22f4	0.01050638
222	0xbd3c3248	-0.04594639
223	0xbe03f4fa	-0.1288642
224	0xbcf644ba	-0.030062068
225	0x3cf6a87c	0.030109636
226	0x3d864e7c	0.065579385
227	0xbd0c6e6a	-0.034284987
228	0xbd5b6070	-0.053558767
229	0xbd029b99	-0.03188667
230	0xba97ff8e	-0.0011596547
231	0xbdc70c93	-0.09719195
232	0x3dc18346	0.094488665
233	0x3ca58a19	0.020207452
234	0x3d8ab12e	0.067720756
235	0x3d43a22d	0.047762085
236	0x3b4ea2a6	0.0031530051
237	0xbdcf7293	-0.10129275
238	0xbe0171b8	-0.12641037
239	0x3da8c020	0.0823977
240	0xbc0970da	-0.008388722
241	0x3c96a10f	0.018387346
242	0x3d3aea91	0.045633856
243	0x3bce0917	0.0062877047
244	0x3dabba2f	0.08385121
245	0x3d263846	0.04058101
246	0xbdf86667	-0.12128907
247	0xbdbda2c4	-0.09259561
248	0xbdaa988e	-0.08329879
249	0x3d5d8c1f	0.054088708
250	0x3cb74b7b	0.02237486
251	0xbb8de7c5	-0.0043306076
252	0x3c4d2c58	0.012522779
253	0x3d9deba1	0.07710958
254	0xbc0dea99	-0.0086618895
255	0x3da2773e	0.079329

a2c_network.actor_mlp.4.bias f4 [64]
0	0x3c671e3d	0.01410633
1	0xbd711f5f	-0.05886781
2	0x3d3dc6e4	0.046332255
3	0x3d0095d0	0.031392872
4	0xbd1add77	-0.03780886
5	0xbd7138df	-0.058892127
6	0xbd98857a	-0.07447334
7	0xbd7a213d	-0.061066855
8	0xbca075b8	-0.019587383
9	0xbd9ff97c	-0.07811257
10	0xbda8e7d7	-0.08247345
11	0x3d27953c	0.040913805
12	0x3ce4657c	0.027880423
13	0xbdb3d447	-0.08780723
14	0xbd9e29b4	-0.07722798
15	0x3d064246	0.032778047
16	0xbd5a900f	-0.05336004
17	0xbcda6dbb	-0.026663652
18	0x3d9a7f52	0.07543816
19	0xbd0044f3	-0.031315755
20	0xbd9463b1	-0.07245577
21	0xbdb3afb0	-0.08773744
22	0xbdc1bbf6	-0.09459679
23	0xbc521ad3	-0.012823778
24	0x3d25bc08	0.040462524
25	0xbc4dd6d9	-0.012563431
26	0xbd95b4bb	-0.07309862
27	0x3c97b856	0.018520515
28	0x3d9805ff	0.07423019
29	0xbd32e9aa	-0.04367987
30	0xbe0635af	-0.13106416
31	0xbcbb96ff	-0.022899149
32	0xbd31d13f	-0.043412443
33	0x3be94af1	0.0071195294
34	0x3a5a53cb	0.0008328526
35	0xbda51c67	-0.08062058
36	0xbd95e397	-0.073188
37	0x3ce85065	0.028358648
38	0xbcab6773	-0.020923352
39	0xbd0087d5	-0.03137954
40	0x3cfd2e7c	0.030905955
41	0x3cc0da65	0.023541639
42	0xbda3ffb4	-0.08007756
43	0xbc0fbe37	-0.008773378
44	0xbd97ecc4	-0.07418206
45	0xbe1b248e	-0.15150663
46	0x3cef67da	0.029224325
47	0xbc59bb95	-0.013289352
48	0xbdb2a44a	-0.08722742
49	0xbd3878a9	-0.045036945
50	0x3d684c02	0.05671311
51	0xbd63c9fe	-0.055612557
52	0x3ca31120	0.019905627
53	0xbda2beb0	-0.07946527
54	0x3d2c06e7	0.04199877
55	0xbd7f2d1c	-0.06229888
56	0xbcec9cd8	-0.028883383
57	0x3d1f6a85	0.038919944
58	0xbd39922b	-0.045305412
59	0xbd6fc5ac	-0.058538124
60	0x3d1a5a52	0.037683792
61	0xbdb85ec6	-0.090024516
62	0xbd8cf576	-0.068827555
63	0xbd0ac404	-0.03387834

a2c_network.value.weight f4 [1, 64]
0	0x3d973063	0.07382276
1	0xbcb04e78	-0.021521792
2	0xbb323617	-0.0027192885
3	0x3def07aa	0.11671384
4	0xbda63ad8	-0.08116692
5	0xbbd58cfd	-0.0065170513
6	0x3afdd9e3	0.0019367303
7	0x3a976092	0.0011549166
8	0xbc0ebdf6	-0.008712282
9	0xbd71c90e	-0.05902963
10	0xb882d889	-6.239216e-05
11	0x3d15b99a	0.036553957
12	0xbaecc4fc	-0.0018064077
13	0x3b7475ea	0.0037301728
14	0xbc15c0af	-0.009140178
15	0xbb9d9aef	-0.0048097293
16	0xbd954c78	-0.07289976
17	0xbd493970	-0.049127042
18	0x3d90bdfc	0.07067487
19	0xbcae8b9d	-0.021306807
20	0xbdbc19f8	-0.09184641
21	0xbcfd3910	-0.030910999
22	0xbbecc6e2	-0.007225857
23	0xbc1c8726	-0.009553706
24	0xbcfad82d	-0.030620659
25	0x3d1ceb1c	0.038310155
26	0xbd4ddf0e	-0.05026155
27	0x3d3fadf6	0.04679676
28	0x3c159fd1	0.0091323415
29	0xbe1d4e31	-0.15361859
30	0xbc624b4e	-0.013811899
31	0x3ad393c3	0.0016142059
32	0xbdf0934c	-0.11746845
33	0xbb032406	-0.0020010485
34	0xbc9be7a0	-0.019031346
35	0xbc4028f5	-0.011728515
36	0xbe0b4d48	-0.13603699
37	0x3d535eba	0.05160401
38	0x3c5d002f	0.013488813
39	0xbc7e5933	-0.015524196
40	0x3d472ce4	0.048626795
41	0xbcc28aa0	-0.023747742
42	0xbc4d2a55	-0.0125223
43	0x3ca1cd1a	0.01975112
44	0x3d50e0c6	0.05099561
45	0x3c2ce287	0.010552055
46	0x3d67ec79	0.056622002
47	0xbd7f1ce7	-0.062283423
48	0xbd82be51	-0.06383956
49	0xbdd52031	-0.10406531
50	0xbbbc0044	-0.0057373364
51	0xbd9d367d	-0.076764084
52	0x3db0924a	0.086216524
53	0xbce60125	-0.028076718
54	0x3c4ee876	0.012628665
55	0x3bd4e07b	0.0064964867
56	0x3da7fbd5	0.0820233
57	0x3d6b8a31	0.057504836
58	0xbc046c1d	-0.008082417
59	0xbdb00508	-0.0859471
60	0x3dfb91bd	0.12283657
61	0xbdf6348e	-0.12021743
62	0xbc887133	-0.01665554
63	0xbb231d0f	-0.0024889146

a2c_network.mu.weight f4 [8, 64]
0	0x3c152827	0.009103811
1	0xbc11facb	-0.008909891
2	0xbe1803a2	-0.14845136
3	0x3d6f53cd	0.058429528
4	0x3c6a6d4f	0.014308288
5	0x3d2f476b	0.04279272
6	0xbde3f18e	-0.11130057
7	0x3c456bca	0.012049625
8	0xbd6877d1	-0.05675489
9	0x3d2f03c4	0.0427282
10	0xbddc93e7	-0.10770398
11	0x3a9090bb	0.0011029461
12	0xbba969ab	-0.0051700673
13	0xbd8d7fb1	-0.06909121
14	0x3e3f1026	0.18658504
15	0xbd02d1f4	-0.03193851
16	0x3de2fb83	0.11083128
17	0x3d948f9e	0.07253955
18	0x3d1252da	0.035723545
19	0xbe11846a	-0.14210668
20	0x3d8d54e9	0.06900961
21	0x3d4fb94b	0.05071382
22	0x3e051a81	0.12998392
23	0xbe095929	-0.13412918
24	0xbd8edba7	-0.06975489
25	0x3db15616	0.08658998
26	0x3d974965	0.07387046
27	0x3e26e6aa	0.16298929
28	0xbdc8079a	-0.09767075
29	0x3d7d18f4	0.061791375
30	0xbc470fc0	-0.012149751
31	0xbd915de2	-0.07097985
32	0xbdc9d76e	-0.09855543
33	0x3e31cf5f	0.17364262
34	0x3db84ecb	0.089994036
35	0x3e247f2e	0.1606414
36	0xbd7ebc6f	-0.062191423
37	0x3d862e27	0.065517716
38	0xbcc0e3d2	-0.023546133
39	0xbddeec9c	-0.108849734
40	0x3c887d38	0.016661271
41	0x3de59a75	0.11211101
42	0x3dedaf2a	0.116056755
43	0xbcb0e16f	-0.02159187
44	0xbca0b73b	-0.019618621
45	0x3d7e3b40	0.062068224
46	0x3bc01c52	0.005862751
47	0xbe0684af	-0.13136552
48	0x3cad35fa	0.021143902
49	0x3ded7229	0.1159404
50	0xbd9694bb	-0.07352587
51	0x3d2a1056	0.041519485
52	0x3d39c450	0.045353234
53	0x3c6ca915	0.014444609
54	0xbdb9dbbb	-0.090751134
55	0x3d818d2a	0.06325753
56	0xbd8e5154	-0.06949106
57	0xbe3aa649	-0.18227495
58	0x3dcaa7e1	0.098953016
59	0xbe2ec886	-0.17068681
60	0xbc2b9871	-0.010473357
61	0x3d070aa7	0.032969143
62	0x3c366df8	0.011134617
63	0x3dd645a9	0.10462505
64	0x3cb7a1ca	0.022416014
65	0xbd6dd8ab	-0.05806796
66	0xbda1b89f	-0.07896542
67	0x3c9e21bc	0.019303195
68	0xbca86429	-0.020555573
69	0xbdc928e5	-0.09822253
70	0xbc205653	-0.009786206
71	0x3e2e1357	0.16999565
72	0xbd9db32c	-0.0770019
73	0xbca12fcf	-0.019676117
74	0xbd0f3fde	-0.034973018
75	0xbd86d71e	-0.06583999
76	0xbd96b960	-0.07359576
77	0xbd740710	-0.059577048
78	0x3cdf018e	0.027222421
79	0xbc8da0ce	-0.017288592
80	0xbe1b8507	-0.15187465
81	0x3d45da4d	0.04830389
82	0xbd372b20	-0.04471886
83	0x3d5d1273	0.053972673
84	0x3e00af7a	0.12566939
85	0x3e03f69f	0.12887047
86	0x3da16a95	0.07881657
87	0xbc70907d	-0.014682886
88	0xbd32aef8	-0.043623894
89	0x3ddcca48	0.107807696
90	0xbd921d99	-0.071345516
91	0xbda4cd2e	-0.080469474
92	0x3e07d5eb	0.13265197
93	0x3d3ea799	0.046546552
94	0x3d001ea0	0.031279206
95	0xbc84665f	-0.016162096
96	0x3d05ff28	0.03271404
97	0x3d919bfd	0.071098305
98	0x3db2e3ac	0.08734831
99	0xbc5a4b49	-0.013323613
100	0xbc25a996	-0.010111233
101	0x3df76328	0.120794594
102	0x3d808871	0.06276024
103	0xbd928b7e	-0.07155512
104	0xbbd2bb6c	-0.006431034
105	0xbd563d22	-0.052304395
106	0xbe18fc1f	-0.14939927
107	0x3dba377a	0.090926126
108	0xbbfc8126	-0.0077058254
109	0x3db55676	0.08854382
110	0xbdbfbf39	-0.09362645
111	0xbd0f8715	-0.035040934
112	0xbc030cbe	-0.007998643
113	0x3db50e53	0.08840623
114	0x3df848b6	0.121232435
115	0xbc0ce4ae	-0.008599443
116	0xbe06a2c9	-0.13148035
117	0x3d47360c	0.048635527
118	0x3e339290	0.17536378
119	0x3e468c09	0.19389357
120	0xbdc72d90	-0.09725487
121	0xbd25acd4	-0.040448025
122	0x3d9f2479	0.077706285
123	0xbcf0f189	-0.029412048
124	0x3d36e54a	0.04465226
125	0xbd76e95e	-0.06028115
126	0x3d5294a1	0.051411275
127	0x3e1815c5	0.14852054
128	0x3cde93de	0.027170118
129	0x3cfd23ed	0.03090092
130	0xbd4c8d4b	-0.049939435
131	0xbcf0c5b4	-0.029391147
132	0xbd75d7e0	-0.060020328
133	0x3e1cdb73	0.15318088
134	0x3d86138e	0.065466985
135	0x3db082ef	0.086187236
136	0xbd119f38	-0.035552233
137	0xbc96d812	-0.018413577
138	0x3c75eb23	0.015009674
139	0xbe1037dd	-0.1408381
140	0x3d844d14	0.06460014
141	0x3defbfb4	0.11706486
142	0xbda22cb8	-0.07918686
143	0xbd0f77e4	-0.035026446
144	0xbe6267e9	-0.22109951
145	0xbe111478	-0.14167964
146	0xbdaa4385	-0.083136596
147	0xbd00ad1e	-0.031415097
148	0x3d77c05a	0.060486175
149	0x3d029c8a	0.03188757
150	0x3df9024c	0.12158641
151	0x3d86a76e	0.065749034
152	0xbd35e448	-0.04440716
153	0x3de9e460	0.11420512
154	0xbbc7b7b4	-0.006094897
155	0xbcb0c3eb	-0.021577796
156	0xbe05850d	-0.13039036
157	0xbc860029	-0.016357498
158	0x3e00c4a1	0.12575008
159	0xbb248b62	-0.0025107493
160	0xbe245a44	-0.16050059
161	0xbd532999	-0.051553342
162	0xbdaf99ff	-0.08574294
163	0x3e218bea	0.15776029
164	0xbd3f44bf	-0.04669642
165	0x3d8a3730	0.067488074
166	0xbc8ed772	-0.017436717
167	0xbe2e8ebd	-0.17046638
168	0xbd06d1ce	-0.03291493
169	0xbd6f3f27	-0.058409836
170	0xbd9c3385	-0.07627014
171	0x3d547a94	0.051874712
172	0x3e084b48	0.13309968
173	0x3dcba887	0.099442534
174	0x3de9cdde	0.11416219
175	0x3bf4de02	0.0074727545
176	0x3dce1c61	0.100640066
177	0xbd61a7e2	-0.055091746
178	0xbdb6a465	-0.089180745
179	0xbd880168	-0.06640893
180	0xbdbada2c	-0.09123644
181	0x3dcc5fe0	0.09979224
182	0xbd3a0870	-0.045418203
183	0xbd1d0df6	-0.038343392
184	0x3db9d882	0.09074499
185	0x3d99bb16	0.07506387
186	0xbdbbe3cf	-0.091743104
187	0xbd7c9f73	-0.0616755
188	0x3d35a197	0.044343557
189	0x3ceec077	0.029144509
190	0x3e932bd1	0.28744367
191	0xbd740f9e	-0.059585206
192	0xbdbdcb0c	-0.09267244
193	0xbd517ccf	-0.051144417
194	0xbda222a4	-0.079167634
195	0xbd17947c	-0.03700684
196	0x3da56f76	0.080779
197	0x3d39517d	0.04524373
198	0xbdb3be50	-0.087765336
199	0xbd97c7d8	-0.07411164
200	0xbd35df15	-0.0444022
201	0xbd220a4f	-0.039560612
202	0xbdb104b7	-0.086434774
203	0x3da88cf2	0.08230008
204	0x3d4cea0f	0.050027903
205	0xbdfdc4aa	-0.12391026
206	0xbc87bc50	-0.016569287
207	0x3da5f39f	0.08103108
208	0xbd05a920	-0.032631993
209	0x3e095e86	0.13414964
210	0x3dcd6c79	0.10030455
211	0xbc15620a	-0.009117613
212	0x3cbcca48	0.023045674
213	0x3cf4e1c7	0.029892815
214	0x3b9da3d9	0.004810792
215	0x3d1e8357	0.038699474
216	0x3c284f5a	0.010272825
217	0x3b72a8d2	0.0037026894
218	0x3d230518	0.03979978
219	0x3d74f55e	0.059804313
220	0x3db2b9f1	0.08726872
221	0x3d8c9013	0.068634175
222	0xbd2c8dd8	-0.04212746
223	0xbd02fd60	-0.03197992
224	0xbcc0d4e3	-0.023539012
225	0xbdef51c7	-0.1168552
226	0xbdd0e2d2	-0.101995125
227	0x3c03e166	0.008049345
228	0xbd4cafdf	-0.04997241
229	0x3d01f7ac	0.03173034
230	0x3d7f384e	0.062309556
231	0x3c71220e	0.014717592
232	0xbc7f6f2f	-0.015590473
233	0xbc286c7c	-0.010279771
234	0x3dcbccb9	0.09951157
235	0x3d891d0c	0.066949934
236	0x3dad2cba	0.084557965
237	0x3d1d2ce2	0.03837288
238	0x3cef87c4	0.029239543
239	0x3d053b89	0.03252748
240	0x3cd77e0a	0.026305217
241	0x3caac783	0.020847088
242	0x3d099ca0	0.033596635
243	0x3d528ea3	0.05140556
244	0xbe0dcf56	-0.13848624
245	0xbe0fa567	-0.1402794
246	0xbcbebb05	-0.023282537
247	0x3dd1691e	0.10225128
248	0x3c3179d5	0.01083227
249	0x3d93d0ef	0.07217585
250	0xbd214c71	-0.03937954
251	0xbc7af84c	-0.015317988
252	0x3d37c55c	0.04486595
253	0xbdee059c	-0.11622164
254	0xbcabd5d5	-0.020975986
255	0xbbb20b72	-0.0054334933

a2c_network.mu.bias f4 [8]
0	0xbdcf4aaf	-0.10121667
1	0xbda70d0e	-0.08156787
2	0xbd251ad0	-0.040308774
3	0x3d71b437	0.059009757
4	0xbd722638	-0.05911848
5	0x3c7c0932	0.015383052
6	0xbe046a2e	-0.1293113
7	0xbd09b544	-0.033620134

exp_avg f4 [8]
0	0x3a082ab5	0.0005194352
1	0x3b4b9e89	0.0031069836
2	0x3c029704	0.007970575
3	0x3b320bbe	0.0027167643
4	0x3b93e3eb	0.004513254
5	0x38074988	3.225499e-05
6	0x3b251056	0.002518674
7	0x3b11ffdd	0.002227775

exp_avg_sq f4 [8]
0	0x3878b3a1	5.92951e-05
1	0x389b9353	7.418417e-05
2	0x386ea9df	5.6901827e-05
3	0x38733655	5.7986315e-05
4	0x387014b4	5.723974e-05
5	0x3893d1b7	7.048569e-05
6	0x387c0245	6.0083596e-05
7	0x388d5da3	6.740845e-05
