runs/Ant_31-18-32-45/nn/last_Ant_ep_500_rew__6525.03_.pth (torch, 705927 bytes, 36 tensors)

value_mean_std.running_mean f8 [1]
00000000: fa50 4cb3 f3c7 1440
5.195265580685595

value_mean_std.running_var f8 [1]
00000000: e208 7552 1fe5 1540
5.473752296822768

value_mean_std.count f8 []
00000000: 0000 0008 0040 8f41
65536001.0

running_mean_std.running_mean f8 [60]
00000000: 7ba5 2ac7 b4c0 e33f 1b1b 1904 9bcc 1140
00000010: 5341 5478 e09d f2bf 165f bc3d 46d4 e9bf
00000020: aba0 302b 068d a83f ce83 669b c61b 473f
00000030: 7877 aea7 3eb9 93bf ce32 95bb 98f8 0140
00000040: 0ec5 ea30 779d 1140 c251 364b e8f9 01c0
00000050: a419 9fd7 4175 ed3f 7ae6 e9d8 29b7 ea3f
00000060: 9123 e17e 86fa dcbf b283 b9a7 aa61 debf
00000070: dd9d f1b8 17b0 c7bf 0cf3 c95a 21b3 eb3f
00000080: 540b c1e4 b5f7 a4bf 2e4a 3f19 63e5 e73f
00000090: c9a3 dd17 1ca2 c03f 72fb a9db 10d6 e3bf
000000a0: 2ecc b138 bdf6 973f e6d4 cb40 e499 ab3f
000000b0: 4277 b716 abab a13f b16e fabb dfad b2bf
000000c0: 7a34 a685 e14e 91bf ac9f 9a24 0078 a6bf
000000d0: 5d14 f944 84ad 7abf ca3b b544 0716 ad3f
000000e0: c819 39a5 f90c d3bf 9f58 80ff 5256 833f
000000f0: 8de7 3ec7 c367 c4bf f77d 13f0 ed45 a3bf
00000100: ac54 2b9e be91 52bf 8c2c 1807 897f a13f
00000110: ba3e 7478 752a aebf 45ec de78 1a25 9ebf
00000120: 8a05 cc3c 8597 ddbf 5187 febe 0744 b5bf
00000130: fcfe 7be9 d121 4abf f1e6 c7ec d058 863f
00000140: c8c1 db86 49dc a6bf 2bb3 f30a 86bb 8d3f
00000150: 20bc b49d c098 c6bf bab1 26e6 6c18 9e3f
00000160: 55cc 18fb 9026 353f 1c57 3cdc e54a 64bf
00000170: c2b3 cee4 c8a9 c3bf 7979 51ce de1d 94bf
00000180: 8c8e 2a9f 0109 d5bf 5f46 bd87 5278 af3f
00000190: d0b9 2812 85f6 43bf 7a80 d0ff c4fc 36bf
000001a0: 4f45 398d a4ea cdbf fc09 2581 a817 c0bf
000001b0: 7da1 609c 44bd bcbf 2af5 a421 a1e9 d53f
000001c0: cd4d cbfb eb46 7abf b7e9 8890 f75d ba3f
000001d0: a116 d0d0 1327 a33f f4cd 4cce dd37 cebf
0.6172737016651547 4.449810089142171 -1.163544149432785 -0.8071623998430109 0.04795092847081269 0.0007052154312995275 -0.019261340126483145 2.2463850645930057
4.403774990395744 -2.247025096507259 0.9205636226040963 0.8348588215441872 -0.45279085531779467 -0.4747110975204648 -0.18506142168483466 0.8656164906711594
-0.04095238130005066 0.7467513554677845 0.12994719662972745 -0.6198810854256023 0.023402172646864887 0.05390847483605814 0.034512850306539736 -0.0729656061106947
-0.016902469427396906 -0.04388428160501631 -0.006513134648746447 0.056808688294601575 -0.29766694197715227 0.00944199411609886 -0.1594166491393562 -0.03764289432160333
-0.001133381033175322 0.034176141849536185 -0.0589176854647326 -0.02943841326462528 -0.4623730748863514 -0.08306930935807812 -0.0007974886857197989 0.010911590791681887
-0.04464940806599632 0.014517829140879698 -0.17653663349617066 0.029390050456343998 0.00032273330279792195 -0.002477120347871854 -0.15361891910779774 -0.019645196287791464
-0.3286747030599393 0.06146486193632649 -0.0006092214355868878 -0.00035075959732645096 -0.2337232293671527 -0.12572199159519915 -0.11226300065812285 0.34238460813124283
-0.006415292559455788 0.10299632338220631 0.0374075119398587 -0.2360799081157975

running_mean_std.running_var f8 [60]
00000000: 507a b7c9 6b10 8a3f a8c4 2201 e2e8 1b40
00000010: a115 2b75 66e0 0740 a92a e8a7 11d7 ee3f
00000020: 5f60 a5f7 c104 0f40 e4ab 5ddf 8f09 1240
00000030: b8ee d941 56d3 2140 780c 5de8 4315 1c40
00000040: ea40 b05f 11ab 1d40 4a39 b9ef 3f15 1c40
00000050: 2955 d78f 190e b13f 1fe4 3d37 8f82 bb3f
00000060: 7c58 30e7 10d1 dc3f 2f25 0147 42ff d13f
00000070: 6514 5f7c 69e6 de3f ba1b 5a10 76c6 c33f
00000080: 56f6 c56f 35b4 de3f 9ac2 17d8 0db0 c53f
00000090: 24a4 501d 7837 d93f 2761 d793 2283 d03f
000000a0: 918e 6129 be61 0e40 a202 e664 573e 0940
000000b0: c143 bffe b4e8 1340 386f dbe5 a52a e63f
000000c0: d019 5a1c 210c 1840 fca7 4f47 5326 f63f
000000d0: 513f 733d 2cea 0240 1bab a7ee 2049 0440
000000e0: 9406 1d1a c025 f93f 8ae1 cdc8 ea3c cc3f
000000f0: 969e 62f7 9669 e93f c811 6d05 1686 933f
00000100: 4fbf 99fc 6c92 113f 8d4a 7096 26f1 7b3f
00000110: 7dc5 7351 e08c 0040 f626 7cf3 b023 c13f
00000120: 5ce7 42d7 6c10 eb3f db97 ccff f849 913f
00000130: 86b8 da02 01cb 0d3f 9c6a bb67 5248 873f
00000140: afe9 a817 00f1 0440 a48c c15d 5536 c53f
00000150: 381a 4b55 18e2 eb3f 2545 e9ff 6154 913f
00000160: 42b8 e61c e24f 153f 9c61 2bb6 9828 8b3f
00000170: 0fa4 b958 ca9b e63f f2e8 058e 295a c83f
00000180: 8d93 0993 3300 f03f 794f 5360 8109 943f
00000190: b0f2 9a88 a84d 043f dfd0 5123 c377 663f
000001a0: 1407 acc1 488e da3f 316e 73af 6b58 d53f
000001b0: 9cb5 5ab1 0884 e03f 0468 2826 1da2 d13f
000001c0: a659 57b0 fbee e03f 0fd2 d98e 3ff8 d23f
000001d0: ca57 7059 c4b3 d83f d5b3 2345 373f d73f
0.012726633160977802 6.977424638506967 2.9845704225324003 0.963753536170164 3.8773230883926284 4.5093378926203265 8.912767465451324 7.020766859702341
7.417058463223137 7.020751710586703 0.06662139665362034 0.10746092890430291 0.4502603776649108 0.2812047665980399 0.4828132357182027 0.15449405477940364
0.47974906840668063 0.1694352440968217 0.39401057112496773 0.258003849388404 3.7977259858033183 3.1554401285832947 4.977252941535824 0.6927060593984384
6.011845057486838 1.384356764373023 2.364342193679399 2.535707344524224 1.5717164058736772 0.22060904316800772 0.7941393691771335 0.019066185074977843
6.703176691202666e-05 0.006821776135455549 2.0687872279601707 0.13390170945086027 0.8457550243685819 0.016883745777839337 5.6825607641073714e-05 0.011368411818172768
2.617675957529364 0.1657206256669258 0.8713494935880766 0.016923457378941315 8.129899581518863e-05 0.013261025485392257 0.7065173848069451 0.1902515357467745
1.0000491851471651 0.01956751013206268 3.872557233595053e-05 0.0027426539696141362 0.41493433869628515 0.3335217679393479 0.5161174262954549 0.2755196449885491
0.5291727489628115 0.2964018721607155 0.38597210630666423 0.36323339225674306

running_mean_std.count f8 []
00000000: 0000 0010 0040 7f41
32768001.0

a2c_network.sigma f4 [8]
00000000: de2a afbf 7811 dfbf 00b5 abbf f5f7 aebf
00000010: 5d24 afbf 51bf eabf b062 b4bf 8421 c5bf
-1.3684957 -1.7427206 -1.3414612 -1.366942 -1.3682972 -1.8339635 -1.4092617 -1.5400853

a2c_network.actor_mlp.0.weight f4 [256, 60]
00000000: dd71 563d 9788 46be 5001 bbbc b002 ecbc
00000010: f6aa 113e 7427 fb3c 4d69 893e f656 debd
00000020: ab24 9abd f31b 38bd 79f0 da3d da60 3abd
00000030: d7cc a33e 1448 5bbe ac5d 13be ada8 febd
00000040: 61d1 abbd c186 21b9 be6d bc3d aa7f ae3d
00000050: 7740 153d 6db5 3cbe 08d8 a03d 03a2 77bd
00000060: fbf7 593d 4e13 9abd b15b c63d 1bde 8ebc
00000070: 7cf7 adbd e79b a43d 0082 113c da4e 04bd
00000080: 997d 943c 45d3 013c 659c 8ebd 1eb9 30bc
00000090: 2aae 743d 6afd 70bd d3bc 3a3c bdf8 23be
000000a0: 4148 84bd e2e6 583d d3b4 383d e4ce 8fbd
000000b0: e1df 163c 72d7 99bd 9d3b 0bbe 6187 10bd
000000c0: ff25 aebd 678e 83bd 3a9e 0c3e 3b57 893d
000000d0: 2849 f33c d2aa 01be b1a7 1abd adfb 64bd
000000e0: 1c1b 9f3c d587 e5bd cd62 a3bd 4f6a b43c
000000f0: b338 57bb c731 0cbe 1134 643d e6e0 27bd
00000100: f63e 25be 3a03 03be 1256 0dbd d1c1 d1bc
00000110: 9cb0 723e 89bd d0bd 547b 303e 4d81 003e
00000120: 34c1 c3bc 5837 a03d d9f1 b43d 65ee 943c
00000130: a393 57be c907 3dbe fb06 ba3d f60e b2bc
00000140: e800 cd3d 3b8f aabd 38b4 013d 336d b4bd
00000150: 9907 a6bd c695 2bbc 1f58 e13d c755 a03d
00000160: 5170 623d b9cc 99bd 6624 4f3d 9970 2fbd
00000170: 807d 60bd 5720 f4bd 3eb3 713d 420a 11be
00000180: 78b5 0cbc 0acf 47bd ad5f 1d3d cc7a c6bd
00000190: 3ae4 683d 71e9 193e 649f b53c 428c 83bd
000001a0: 2bf4 5e3d d3c4 08be c32b b4bd 602f 1e3e
000001b0: 1343 07bd 9a23 d3bc 7931 d9bd a4ae 83bc
000001c0: 734d 943c f1f4 503d 5cd1 fcbc b4e1 09bd
000001d0: 9d87 1dbd 2c0d f23d eff0 503d 0123 f6bd
000001e0: 3562 883d 624f e73d f99e 6f3d 0f5e 803c
000001f0: c3f2 063e c550 1b3d c234 4ebd 338b d6bc
00000200: 6250 e0bd e1fd 8d3c 5066 2c3d bb8e bebc
00000210: 070c 513e 758d cc3d cc50 2bbd 1839 683c
00000220: 0792 a63c 26a8 9dbc 9670 f83c b9dc c73c
00000230: a56d 48be c45e cfbd 8137 c13d 942b c13d
00000240: 5fda 8c3d c395 27bd fab0 52bd 8d90 6cbd
00000250: 152e a9bb bb4e 6fbb 718d 94bb 8f5f 253d
00000260: 9eac ecbd bd4e a3bd 0b53 23bd 8dd5 b43d
00000270: 83e1 68bc ecb6 d7bc b0c0 8e3d f79c 8e3d
00000280: f9e9 49bc e515 ae3d 82b3 19bd 199d 84ba
00000290: 9c29 b6bd df63 333d a2bb 673d c6ff 803d
000002a0: 2bfc 75bd 8ae6 0dbe 3fe0 a4bd 2b21 a83c
000002b0: 1355 25bc 2e6f 8d3d c6b0 7bbc ccbf 4f3d
000002c0: 6aef 983d 36bb 85bc 6e75 52bd 19a4 29bd
000002d0: 31a6 c03d b6ad 6dbd 7ef6 0f3d 8f34 9ebd
000002e0: bdc3 0dba dcc2 3abe e307 c4bd 126d 943c
000002f0: 54f4 bcbd b8c7 d53d 5d93 bfbd 2c31 e2bd
00000300: fbd3 c53d 6172 41be b629 a5bd 8b87 56be
00000310: 698b 733e f193 96bd 338f 093e 1b06 bc3d
00000320: 79f9 313c 3824 7fbe 5bf6 883d 3eae b8bd
00000330: b1dd d53d 0c34 e03c c99d cbbd 192e 8e3d
00000340: e445 453d 56cb f8bd ab99 8c3d 2aa1 8bbd
00000350: c42a 383e d2c7 4b3d 9723 c73d 887f 28bd
00000360: 80c7 b6bd 0cf0 223d 7a4d a93d 0aff aebd
00000370: b1f4 0ebd dbaa 6cbd e6e2 98bb 0fdd 0cbd
00000380: 64a4 77bd 3eb7 20be d9fb 70bd 0be4 d93d
00000390: a465 c93d 3042 21bd 81e8 163c 075a d4bc
000003a0: e4d4 31be f17a 46bd 6258 aa3d a599 e1bd
000003b0: d694 7fbd d13a 3dbc eabc ecbd b3b9 9c3c
000003c0: ae9a fcbc e447 8eba 7a4f 0c3d a047 a2bd
000003d0: 7ead 2cbe 5307 f13d 547b 0cbd 7322 823b
000003e0: 796c cebd ddd0 263d 213b 8e3e 7f2c 193e
000003f0: 6c36 ecbd 5435 a5bc bde9 da3d 9e74 b73a
0.052354682 -0.19388042 -0.022827774 -0.028809875 0.14225373 0.030658461 0.2683815 -0.1085643
-0.07526525 -0.04494853 0.10690398 -0.04550252 0.31992218 -0.21414214 -0.14391202 -0.12434516
-0.08389545 -0.00015404356 0.09200619 0.08520444 0.03643843 -0.18428583 0.07853705 -0.06045724
0.05321501 -0.07523213 0.096854575 -0.017439893 -0.084944695 0.080375485 0.008881092 -0.03230176
0.018126296 0.007923906 -0.06963424 -0.010786323 0.05973641 -0.058835424 0.011397558 -0.16012855
-0.06459094 0.052954562 0.045094322 -0.07021883 0.00920865 -0.07511796 -0.1359696 -0.035285357
-0.08503341 -0.064236455 0.13732234 0.06706091 0.02969797 -0.12662819 -0.03775758 -0.05590408
0.019422106 -0.112075485 -0.07977829 0.022023348 -0.0032840192 -0.13690864 0.055713717 -0.040985964
-0.16137299 -0.127942 -0.03450591 -0.025605114 0.23700184 -0.10192401 0.17234546 0.12549324
-0.023895837 0.07823056 0.08835191 0.018180082 -0.21052413 -0.18460001 0.09083363 -0.02173565
0.100099385 -0.083281 0.03166601 -0.088098906 -0.08106918 -0.0104727205 0.11003136 0.07828861
0.055282895 -0.07509751 0.05057182 -0.04283199 -0.054807186 -0.11920231 0.05900883 -0.1416407
-0.008588187 -0.048781432 0.03842132 -0.096913904 0.05685828 0.15030457 0.02217073 -0.064232364
0.054432075 -0.13356332 -0.087974094 0.1544776 -0.03302295 -0.025773812 -0.10605139 -0.016074486
0.018103337 0.051014844 -0.03086155 -0.033662513 -0.03845941 0.118189186 0.051011022 -0.12018395
0.066593565 0.11294438 0.058501218 0.01566985 0.13178544 0.037918825 -0.050343283 -0.026189422
-0.10952832 0.017332973 0.04208976 -0.023261419 0.20414744 0.09987918 -0.0418251 0.014173768
0.020333303 -0.019245218 0.030327123 0.024397241 -0.19573076 -0.10125497 0.09434415 0.0943214
0.068775885 -0.04091431 -0.05143831 -0.057755042 -0.005162964 -0.0036515433 -0.0045334627 0.040374335
-0.115563616 -0.079740025 -0.039874118 0.08829794 -0.014213922 -0.026332341 0.06970346 0.069635324
-0.01232385 0.0850027 -0.037524708 -0.001011762 -0.08894655 0.043796416 0.056575425 0.06298785
-0.06005494 -0.13857475 -0.08050584 0.020523628 -0.010091084 0.069059715 -0.01536197 0.05072002
0.074675396 -0.01632462 -0.05138152 -0.04141626 0.094066985 -0.05802699 0.035147183 -0.077248685
-0.00054078904 -0.18238395 -0.09571817 0.018118415 -0.092262894 0.10438484 -0.09354279 -0.11044535
0.09659573 -0.18891288 -0.08064596 -0.20950143 0.2378365 -0.07352436 0.13433532 0.09180852
0.010862702 -0.2491616 0.066876136 -0.09017609 0.10442675 0.027368568 -0.099422045 0.06942386
0.048162356 -0.12148158 0.06865247 -0.06817849 0.17985064 0.04975111 0.09723585 -0.04113725
-0.0892477 0.039779708 0.082667306 -0.085447386 -0.034901325 -0.057780128 -0.0046657203 -0.034390505
-0.06045951 -0.15694901 -0.05883393 0.10639199 0.098338395 -0.039369762 0.009210707 -0.025921835
-0.17366368 -0.04845709 0.08317639 -0.110156335 -0.0623978 -0.011549667 -0.1155947 0.019131517
-0.030835476 -0.0010855165 0.034255482 -0.07923818 -0.16863057 0.11768975 -0.034297302 0.003971392
-0.10079283 0.04072653 0.27779487 0.1495838 -0.11533818 -0.02016703 0.10689113 0.0013996547

a2c_network.actor_mlp.0.bias f4 [256]
00000000: 389b 8dbc 0b18 cdbc e5ad aabc 698b 6b3c
00000010: fcdd 733c 04d3 e6bb a7ec ff3c 2b14 7bbd
00000020: 6a6b c5bd 19de 97bb 64d4 833d 23f1 2f3b
00000030: e451 2cbd 5ff0 55bc b38c adbd 9c7d 24bc
00000040: 4cdf 1ebd 5f53 0c3d 4b37 f0bc 3950 183d
00000050: 2948 e7bc d7c4 48bd c3d9 91bb caae 32bb
00000060: 3abd 75bd be47 4cbc 6a18 843b 0e88 693d
00000070: f5ef 26bd 61c9 773d 41ee 183c 4835 ff3c
00000080: 32a6 0abc ccc3 22bd 56cd 523d a3bf aa3d
00000090: 0897 253c 2cbd 4ebd e239 383b 93f4 383d
000000a0: a2ab 453d 402a 933d 2eab 0fbd 8df3 783d
000000b0: f813 33bc 9721 0cbd acbc 9fbc 2e68 533d
000000c0: 0e28 5ebc 0851 52bd dad9 65bc 1310 3cbd
000000d0: 8832 21bc ef10 bf3c 2503 603d 83f5 9a3d
000000e0: d01b 37bd 2636 5ebc 0392 5a3d 94c2 243c
000000f0: 810f 8e3c 5736 9a3d 7321 ccbc e703 d8bc
00000100: c0a3 86bd 8277 5abc db62 77bd 9c8b 49bc
00000110: 623d 103d f5f2 aebc e165 85bd cd5f f3ba
00000120: b9e0 d23d 3986 93bb 627a 45bd c548 bdbc
00000130: 7744 02bd c77a 853d a66f 42bc 0b33 d2bc
00000140: 09ec 233c 50fe 49bd 9a80 43bd 468b d73b
00000150: d398 223c 7305 fdbd 3309 513b 452b 153c
00000160: 3cd4 9d3c a57b d3bc d72b 423d 5573 883c
00000170: 8f7d 2cba 3571 6e3a fbf2 0abc ab76 983c
00000180: 6e30 13bd 5dcf 75bd 6b24 853d 39c9 9abc
00000190: 087f a4bd 61c6 ee3d 08fe fcbc 2186 e03b
000001a0: f098 e7bc 67bb 0a3b 455a 22bd 1b29 4fbd
000001b0: 511f 3cbd 2203 fcbc 246a 153c 8a42 d43b
000001c0: 37fc 96bc 7ce9 1d3c 4f8c 093d 20a1 05bd
000001d0: 5214 17bd 3952 d6bc ca92 173c 942d b03c
000001e0: d459 393c 15e6 7b3d f5e8 363d 8704 903b
000001f0: 71df 8a3c 44c4 543d 8f67 303d 9dd4 943b
00000200: 3401 8d3b 4412 31bd fdcb dc3c b8a6 95bb
00000210: cf96 ab3b 181e 8d3c 8eab a2bc 74cd afbc
00000220: cdca ccbd 73f2 84bd 059e 59bc f834 22be
00000230: 0e12 5dbc 66f1 813b 1528 a03c 87be 4e3d
00000240: 2ee2 aabc c324 753d 3e02 7d3c 098b c23c
00000250: c5b6 2c3b 2c36 d83b 2017 96bd 09c5 5f3b
00000260: 0187 043d dfb8 b9bc 6827 783b 43c8 03bd
00000270: 9230 a8bc 7932 ea3c dd53 963c 837b f33b
00000280: cd28 3e3d 5af9 773d b8c5 69bd ad9d 80bd
00000290: dd2c a73c d99f e23b e15b 24bd 61aa af3b
000002a0: 74a4 e63c 1291 57bd db7b 073d 3d62 81bc
000002b0: ad4e cb3d 8dde 63b9 90f4 3f3c f1cc 2dbd
000002c0: 63e1 383d 3217 8e3b cf6d a6bc d90d 65bd
000002d0: 19d0 983d 7639 76bd e850 e1bd 64bc b1bd
000002e0: 35a9 91bc abe5 bdba 6888 7e3d 731c 30ba
000002f0: 4a24 35bd 69c5 32bd 6fef d0bb 9093 4bbd
00000300: 6cb3 abbd 0bf3 aabc e755 b0bd 7e6e a13d
00000310: 4479 233d 64cd 0cbd 9dea d3bc 185d c4bc
00000320: de59 1d3c a8f2 20bd 4d53 21bc 994c 14bd
00000330: 5a11 99bd 9a71 203d 9b81 80bc ecbc 0ebc
00000340: 291a bfbc 1b90 b53d 2ddf 1abc fd9b da3c
00000350: bc9c f2bb 195b 24bc bf73 aabb 8b00 33bd
00000360: 4eef 2bbd fbfb 043d 5a6b 67bc f001 d73c
00000370: 28e7 44bd 2640 50bb 6ea6 8b3d 396d ed3b
00000380: 5554 e63d 7d31 fd3c f6fa d63d f8f7 583c
00000390: 163c cabc 8e7e 173c cd2c 4a3d ec50 65bb
000003a0: 5861 d23c 6353 dabb b0fc 5a3d 6362 113d
000003b0: 869c d03c 92a5 53bc 5dc1 c0bc c8a4 093d
000003c0: 7fd9 ad3c 1a4f 04bd 274f fe3c 6a2d 953c
000003d0: f6a5 ce3b 1de6 2d3b 750f 713d 8a91 d6bd
000003e0: 6eb2 9cbc 0f87 99bd f683 d6ba e482 f5bc
000003f0: 9f67 8c3c 3bb2 763d c570 6a3c ecdf 22bd
-0.017285928 -0.025035879 -0.020834872 0.0143765 0.014884468 -0.007044198 0.031240774 -0.06129853
-0.09639628 -0.0046346304 0.06436995 0.002684661 -0.042070284 -0.013057797 -0.08474102 -0.010039713
-0.03878717 0.034259196 -0.02932324 0.03718588 -0.02823265 -0.049015846 -0.004451008 -0.0027264827
-0.059994914 -0.012468277 0.0040312307 0.057014517 -0.040756185 0.060494784 0.009334148 0.031153336
-0.008462476 -0.039737508 0.051465355 0.08337333 0.010106809 -0.050473377 0.0028110673 0.04515512
0.048259385 0.07185793 -0.03507536 0.060779143 -0.010930054 -0.03421172 -0.019499145 0.051613025
-0.0135593545 -0.05134681 -0.014028991 -0.045913767 -0.009838708 0.023323504 0.0546905 0.07566359
-0.04470426 -0.013562715 0.053361904 0.010056157 0.017341377 0.07529896 -0.024918294 -0.026369048
-0.065742016 -0.013334157 -0.06039701 -0.012301352 0.03521479 -0.021356085 -0.065135725 -0.001856798
0.10296769 -0.0045020846 -0.048212416 -0.023105988 -0.031803574 0.065175585 -0.011867439 -0.025659105
0.010005006 -0.049314797 -0.047730066 0.006577882 0.009924131 -0.12354555 0.0031896352 0.009104555
0.01926624 -0.025815794 0.04740509 0.016656557 -0.0006579989 0.00090958487 -0.008480783 0.018611273
-0.035934858 -0.06001221 0.06501087 -0.018894779 -0.08032042 0.116589315 -0.03088285 0.006851927
-0.028271168 0.002116883 -0.03963687 -0.05057631 -0.045928303 -0.030763213 0.009119544 0.0064776586
-0.018430812 0.009638187 0.033581074 -0.032624364 -0.036884613 -0.026162254 0.009251306 0.021506108
0.011312921 0.06149872 0.04465576 0.004395071 0.016952248 0.051944986 0.04306751 0.004541947
0.004303122 -0.04323031 0.026952738 -0.0045669936 0.0052364836 0.017226264 -0.019857194 -0.021460272
-0.09999619 -0.06491556 -0.013282304 -0.15840518 -0.013493074 0.0039655445 0.019550363 0.05047467
-0.020859804 0.05984951 0.015442429 0.023747938 0.0026354056 0.0065982547 -0.073286295 0.0034144542
0.032355312 -0.022671161 0.0037865285 -0.032173406 -0.020530973 0.02858852 0.018350536 0.007430495
0.04642563 0.060540535 -0.057073325 -0.06280074 0.020407135 0.006916028 -0.040126685 0.005360887
0.02815459 -0.052628584 0.033077102 -0.015793914 0.099271156 -0.00021731314 0.011716023 -0.042431775
0.04513682 0.004336261 -0.020316033 -0.05592141 0.074615665 -0.060113393 -0.1100176 -0.08678511
-0.01778088 -0.0014488002 0.062141806 -0.00067181065 -0.04422406 -0.043645296 -0.006376199 -0.049701273
-0.083838314 -0.020867845 -0.086101346 0.07882403 0.03991057 -0.034375563 -0.025868708 -0.023970172
0.009603946 -0.039293915 -0.009846521 -0.03620586 -0.07474013 0.03917084 -0.0156868 -0.008712035
-0.023327904 0.088653766 -0.009452623 0.02668571 -0.007403938 -0.010031485 -0.0052017863 -0.04370169
-0.041976266 0.03246687 -0.014124716 0.026246041 -0.04807201 -0.0031776517 0.06818853 0.0072456864
0.11246554 0.030907387 0.10497086 0.013242714 -0.024686854 0.009246482 0.04935913 -0.003499086
0.025681183 -0.0066627725 0.053463638 0.03549422 0.025465261 -0.012917893 -0.023529703 0.033604413
0.021221874 -0.032302 0.031043602 0.018210132 0.006306405 0.0026534863 0.05885263 -0.10476978
-0.01912805 -0.074964635 -0.0016366232 -0.02996964 0.017139254 0.060228568 0.014309113 -0.03976433

a2c_network.actor_mlp.2.weight f4 [128, 256]
00000000: 35b6 dfbc 84b8 743d eac5 35bd 1d5c 65bd
00000010: 81e6 c93c 240d 163d 99ad 8abc b5c7 a23d
00000020: 658b f9bc 71a7 863d 065e a63d fd3f 46bd
00000030: ef85 b7bd 3024 093d 5fd8 29bc 2687 023d
00000040: 39ec b5bd e988 943d d23f b7bc 038c 983a
00000050: 0966 66bc d3de 983c a907 9bbd 9e3e 9ebb
00000060: 183e 66b7 83fa 633d 2411 87bc 4d64 00be
00000070: 43e6 adbc 8a1f d6bd a540 6c3d 70f4 c0bd
00000080: e2c3 a13d 0dee e63b 0db7 7f3d a05e e1bc
00000090: 22a2 9cbd 6c13 7fbd 09af 10bc 2c66 9bbd
000000a0: 9dd2 043d 592d 97bb d57e 893a 12ec 133d
000000b0: da56 bcbd ba6e f9bc f00a dd3c caac 873c
000000c0: db71 a0bc f50e c1bc d009 ca3d a711 663d
000000d0: e5c8 c63c fab0 6d3b 509f c3bd f571 083d
000000e0: fe61 b13d df8d 10be 0399 d1bc 9e24 2bbe
000000f0: d410 30bd adf3 43bd 4bdc 06bd 707d 343d
00000100: 65c9 0b3d 9caf af3c b2ea 11bc 95db 3fbd
00000110: 90b7 dc3c f2f0 e3bd a469 083d 8b26 8ebd
00000120: 9775 92bd 62e3 a4bc e778 4cbd 82fb 9e3d
00000130: 34f1 3f3d 7b19 5cbd 44bf 2bbd 52e8 e7bc
00000140: 24e0 943d 659c 97bd ceff 003d fd74 353d
00000150: b223 443d eb09 e7bc cf98 8b3c a873 e5b6
00000160: 2c44 8ebd d240 8bbd fe9a 47bd 650e 35bd
00000170: 1657 3a3d 79bc 223d 7122 b23d a57d 2fbc
00000180: 9f87 933c 4577 613c 3896 ce3c 6f8f 5e39
00000190: 8caa beba 91af 843c 6df5 483d 3b7a c53c
000001a0: e5a0 b73c a7e7 28bd 339f 3abc 2db0 193d
000001b0: 08f3 83bc 8cde ffbc 5bad 2e3c 79b7 83bc
000001c0: 7d35 f33b 2b77 613d f192 7ebd 8e37 68bd
000001d0: 4511 393c 34f6 333b fea3 bcbc 5af9 033c
000001e0: b22b 6e3b d994 ebbc 5295 10bd 9529 c83b
000001f0: f755 c83d 1d9c afbd 1cef a8bc f88b d8bd
00000200: 924b 9a3d eae4 39bd 76b2 683d e3f7 d6bb
00000210: 3463 f3bc d4b1 833c ec04 783c efad 1fbc
00000220: 6b71 2fbd 260d 843d e427 1b3e b1e3 363c
00000230: a8b1 43bd 998b 28bd 7840 50bd 0682 6ebd
00000240: 584c a1bb 71b8 cbbc 60b9 ea3c 5c1e 13bd
00000250: 3a8d e93c 0693 f8bc 3fed de3c 34c7 12bd
00000260: 7176 77bc 4449 bb3d 16ab a6bc 0bb3 9f3d
00000270: 52a0 b1bd 30be 0bbd 204d 8ebd 16cc b2bd
00000280: a723 07be 73bf 3a3d ca45 e1bc 3ae5 463d
00000290: 612c 4f3d a7d0 293d ff58 8b3c 50d4 ac3d
000002a0: 1ff1 993d 2a0d 543d e7a0 b6bc 4f1f 1d3d
000002b0: 276b 763c 79cb f9bc 5381 483c 0fe8 64bd
000002c0: c516 96bc c9fb 50bc e20e 85bd cf67 5f3d
000002d0: 0f16 4bbb 97cc 49bd 1dc4 73bd cdd1 adbb
000002e0: 7f66 7fbd 49b3 cc3b 46ca f73d eafb 833c
000002f0: a18b 86bc 59fc bdbc 64ce c8bd ac13 023d
00000300: fbe1 acb9 5650 5d3d 0385 2dbd fe44 a63d
00000310: 0211 cbbb c75f 223d 5ae1 883d e611 d7bc
00000320: 5100 ba3d 2672 433d 511f 3f3d 8fc0 143d
00000330: 076b a5bd a6ba 12bd 7835 8139 b83f 083d
00000340: d5e6 483d a938 7f3c f275 563d 7a83 fcbd
00000350: 2562 8c3c ca22 09bd 67c6 4e39 4611 1f3d
00000360: cdb4 a83d 5326 bdbb 38c4 8b3d 0e19 0bbd
00000370: fab7 a6ba 8a11 ef3c a62e 943d 89a1 213d
00000380: c097 6cbd 62ce 723c 2ede debc a1e2 033a
00000390: bdba 86bd 3fc1 51bd 7c04 5a3c d1ad fd3d
000003a0: 6409 6d3d bc83 113d b6fe 113d f61c a73d
000003b0: 14e0 94bd 8149 323c 0d4b 5e3c 892d d33d
000003c0: 3559 febc 195c 17bb 259e 43bc 2e36 9dbd
000003d0: 387c 2a3e 4e80 c7bd bf2b d1bc f851 a63c
000003e0: 8ce2 ebbd 0a49 cebd 36ac 943c 736d c23d
000003f0: 481e d0bc 9689 293d d596 7c3d fdb0 b33c
-0.027308563 0.05974628 -0.0443782 -0.05599605 0.024646046 0.036633626 -0.016928481 0.07948247
-0.030461976 0.06574906 0.08123402 -0.048400868 -0.08961093 0.033481777 -0.010366528 0.03186717
-0.088829465 0.07252676 -0.0223693 0.0011638406 -0.014062413 0.018660938 -0.075698204 -0.004829242
-1.3723526e-05 0.05565883 -0.016487665 -0.12538262 -0.021227961 -0.10455234 0.057678837 -0.09421623
0.0789869 0.007047421 0.06243043 -0.027510941 -0.07648112 -0.06227438 -0.008830794 -0.07587847
0.03242742 -0.00461356 0.0010490069 0.036113806 -0.09196253 -0.030448306 0.026982754 0.016561884
-0.01958554 -0.023566702 0.09865153 0.05616918 0.024265716 0.0036268816 -0.09551871 0.033311803
0.08661269 -0.1411662 -0.025585657 -0.16713187 -0.0429848 -0.04783981 -0.03292493 0.04406494
0.03412761 0.021446042 -0.008906053 -0.04684027 0.026942998 -0.11129941 0.03330387 -0.06940945
-0.07151335 -0.020127956 -0.04991999 0.07762815 0.04686089 -0.053735238 -0.041930452 -0.028309021
0.07269314 -0.07402877 0.031493954 0.04430102 0.047885604 -0.028202971 0.017040638 -6.838196e-06
-0.069465965 -0.06799473 -0.048731796 -0.04420318 0.045493208 0.039730523 0.086979754 -0.010711108
0.018009005 0.013761346 0.025218114 0.00021225003 -0.0014546677 0.016196998 0.04906218 0.024106136
0.022415588 -0.041236546 -0.011390495 0.03752153 -0.016107097 -0.031234048 0.010661448 -0.016078698
0.007422148 0.055045288 -0.062151853 -0.056693606 0.011295621 0.002745998 -0.023027416 0.0080550555
0.0036341962 -0.0287575 -0.035298653 0.0061084726 0.097820215 -0.08574698 -0.020621829 -0.10573572
0.07533945 -0.045384325 0.05681082 -0.006560312 -0.02971039 0.016076006 0.015137892 -0.009746059
-0.042832773 0.0644782 0.15151936 0.011162684 -0.047776848 -0.041148756 -0.050842732 -0.05822947
-0.004922431 -0.024868222 0.028652847 -0.035917625 0.028509725 -0.030343544 0.027212737 -0.035834506
-0.015103922 0.09144834 -0.020345252 0.077978216 -0.08673157 -0.034116924 -0.06948304 -0.087303326
-0.13197194 0.045592736 -0.027499098 0.04855845 0.050579432 0.041458752 0.01701021 0.08438933
0.07516693 0.051770367 -0.022293521 0.038359936 0.015040196 -0.030492531 0.012237865 -0.05588537
-0.018321404 -0.012755343 -0.06496979 0.05454236 -0.003098849 -0.049267378 -0.0595132 -0.005304551
-0.062353607 0.0062469584 0.120991275 0.016111333 -0.016424002 -0.023191618 -0.09804991 0.03175704
-0.00032974765 0.054031692 -0.042363178 0.08118628 -0.006197096 0.03964212 0.066836074 -0.026253652
0.090820916 0.047716282 0.046660725 0.03631645 -0.080770545 -0.035822533 0.00024644635 0.033263892
0.049048264 0.015577474 0.052358575 -0.12329765 0.017136643 -0.033480443 0.00019719602 0.038834833
0.0823761 -0.005772391 0.06824535 -0.03395944 -0.0012719624 0.029183168 0.0723546 0.039460693
-0.057761908 0.014819713 -0.027205553 0.0005031024 -0.06578586 -0.051209684 0.013306733 0.123866685
0.057870284 0.035526022 0.035643302 0.08159821 -0.07269302 0.0108817825 0.013567698 0.103114195
-0.031048397 -0.0023095666 -0.01193956 -0.076763496 0.16648948 -0.09741269 -0.025533555 0.020302758
-0.1151782 -0.10072525 0.018148523 0.09493532 -0.025405064 0.041390978 0.061667282 0.02193498

a2c_network.actor_mlp.2.bias f4 [128]
00000000: 320a bd3c c294 91bc c7e5 8b3c e256 64bd
00000010: 544e d3bd c0c5 183d 0be0 313c 1501 f5bc
00000020: 8d3d b4bc facd 1b3c ba68 0b3d 4b9d 373c
00000030: 197e c83c 8886 20bd dd76 233d 3c46 7fbd
00000040: 8769 0fbd f050 7dbc ce1d 93bd 0cee f83c
00000050: 4488 82bd fc9d 09bd 1e90 0dbc 799a 083c
00000060: 8f6f 2bbd 813c a0bc dc37 b83c fddf 21bd
00000070: 4689 9abc 08d7 1e3c c560 c2bd 66b6 6bbd
00000080: aca3 0b3d 062d 033c 67fa 81bc 5dbb 10bd
00000090: 8382 debd 4aa1 1bbd cf2d 99bd 0c16 39bd
000000a0: 5079 96bc 6943 b43b 71e1 953d 2c7e 263c
000000b0: bebd 98bd 002c 85bc beda 57bd 05be d2bd
000000c0: f247 4fbc 5588 a5bc 3338 c73d 7c3a b7bc
000000d0: 31bc eebd 9105 633c 8069 58bd b328 4d3d
000000e0: 58ca 8d3d 1a8d 2d3c 125f 153d de14 fa3b
000000f0: 7dfc 783c ab5b 893d 6bd6 bcbd 880d 013d
00000100: 300b 463d 2315 3e3b 5d9b 88bd d3fc 873d
00000110: abb6 113c 10bc bc3c 4076 e0bb 194c fb3c
00000120: a0da 86bd 1dc3 143d d660 86bd 42dc 1c3d
00000130: 93ab 093c c729 143c f74d 3abc 5a7f 6ebd
00000140: a519 29bc 74b5 12bd 55d9 cabc a324 f83c
00000150: efc1 103d c416 3fbd c96e 06bd 367d 6cbd
00000160: 0b95 44ba d730 413d 72c6 da3a f298 febc
00000170: 8400 7fbd 80da f9bb 7b66 4dbd ff6a f23a
00000180: f4e8 3e3d 9187 6dbd cb51 0c3c 1584 543c
00000190: 4245 03bd 8c92 17bc 2a5a 58bc 5250 113d
000001a0: c5a9 48bc 3b7f 063c 63e3 9e3a dfc0 823b
000001b0: dd3c 4c3d a74d bfbd 6d7c 02be d051 363d
000001c0: bb4a afbd caeb 7f3b 6cc2 493d e2d2 163c
000001d0: bc2b 863c efdf 1a3d 5852 cf3b 867b 49bc
000001e0: ce49 403d 861e 0d3d 703c 533d 466c 233b
000001f0: df1e 48bd e7a7 813c bd8d 093d e749 a6bd
0.02307615 -0.017771129 0.01707734 -0.05574692 -0.10317674 0.037297964 0.010856639 -0.029907743
-0.022002006 0.009509558 0.034035422 0.011206935 0.02447419 -0.0391908 0.03990828 -0.06232284
-0.035012748 -0.015461192 -0.07183419 0.030386947 -0.06373647 -0.03359793 -0.008640317 0.00833761
-0.041854437 -0.0195601 0.022487573 -0.039520252 -0.018864285 0.009694822 -0.094911136 -0.057546996
0.034091637 0.00800634 -0.015866471 -0.035334934 -0.10864737 -0.037995614 -0.074794404 -0.04518704
-0.018368393 0.0055012 0.0731839 0.010161918 -0.074580655 -0.016256332 -0.052698843 -0.102901496
-0.01265143 -0.02020661 0.09727516 -0.022366755 -0.116569884 0.013856308 -0.052834988 0.050087642
0.0692336 0.010592723 0.03646762 0.007631882 0.015196917 0.067069374 -0.092205845 0.031507045
0.048350513 0.0029004298 -0.06670258 0.06640019 0.008893649 0.023038894 -0.006850034 0.030675935
-0.06584668 0.036318887 -0.06561439 0.03829599 0.008402723 0.009043164 -0.011371127 -0.05822692
-0.010321056 -0.03581758 -0.024761835 0.030290907 0.0353412 -0.04665257 -0.032820497 -0.057736598
-0.0007499016 0.047165718 0.0016691221 -0.03107879 -0.06225635 -0.007624924 -0.05014656 0.0018495022
0.04660888 -0.057990614 0.008564423 0.012970944 -0.03204847 -0.009251248 -0.013205091 0.03547699
-0.012247507 0.008209045 0.001212221 0.003990277 0.04986273 -0.09340983 -0.12742777 0.044511616
-0.085591756 0.0039050453 0.04925768 0.009205552 0.016378276 0.037811216 0.006326955 -0.012297517
0.046945386 0.034452938 0.05157131 0.0024936362 -0.048857566 0.015827132 0.033582438 -0.081195645

a2c_network.actor_mlp.4.weight f4 [64, 128]
00000000: 3897 763b 40c2 4d3d 1cbd 6a3c b06e 5ebd
00000010: 08e1 d2bc 2db4 f83d 4165 0c3d daa9 a63d
00000020: e8e6 4abd d84f fbbb 91e7 dbbc 8c5f 1abd
00000030: 7617 99bb 3bd5 2dbc 5c6d ccbd fa3c 95ba
00000040: 3dca cabd ea01 a23b 0004 c1bc 4ac7 2b3d
00000050: ebd5 07bd e016 7bbd 6998 c7bc 47cd 3cbd
00000060: 650c ac3d eab6 d63d 16a6 96bd 6ed3 8fbb
00000070: 367e bdbd 7a48 0f3c a713 85bc 0481 a6bd
00000080: d81c af3d f563 873d 4209 58bd c8fe 10bb
00000090: f7f2 cf3d e67e 2ebd d818 e13d d548 f4bd
000000a0: 7cc2 a8bc ea15 72bd acef 93bd 9ade 843b
000000b0: 18d2 17bd 16de 7e3c 5f19 823c c8a8 903d
000000c0: ca6c 893a 92eb 9e3d 2304 22bd afa9 9d3d
000000d0: 8084 5a3d 89ff 40bc 69aa a7bc faa8 b83d
000000e0: 89e9 b23d 88ab 68bd c1f8 263d 6368 3bbd
000000f0: e3c7 1abd 1201 943c 686c 2b3d dcc6 6abc
00000100: 8a98 dcbc 93ed 3ebd f45f 2d3e c26b 41bc
00000110: c511 c63d c325 af3d 8d45 f4bd cc50 c23d
00000120: da37 0fbe 99d7 ddbc 9079 50bd 0405 c33d
00000130: ed37 a2bd d277 443a 72b3 a43d f16f e83b
00000140: 9f51 693d 72d1 533c d39e 81bd a6d1 03bc
00000150: c7a8 943d eef8 15be 9820 543d 0618 7cbb
00000160: c0d1 833d 8ed4 e03c a9d9 f1bc a8f4 0a3d
00000170: cca2 493d 09b8 d6bd 3866 41be 52f1 653d
00000180: afe2 e93c 97af 56bd 7c07 94bd caec f13a
00000190: 9427 0d3d 698d 933c 1ed6 3f3d 83d8 78bd
000001a0: 68a9 8bbd 0454 e63d 4c5b 7d3d 4a1d 1bba
000001b0: e0e6 803b 3e16 d13a 4c91 83bc c298 1e3e
000001c0: 9f04 b6bd 2447 9d3d 738b a03c 465c 143d
000001d0: e39c 503d 158b 86bd 59a4 bf3c 9d6f a8bc
000001e0: d160 883d dd30 aebd 79b5 a53d 27ff edbb
000001f0: a0ba 9c3d 38a2 393d e6ae 413d beb7 40bd
00000200: f37a 69bd 1923 a63d d343 253d 73bc 36be
00000210: c988 5ebd c2bb 33bd 03e2 edbc 1aa9 b83d
00000220: 0acd 89bd 12f0 2fbd b721 e0bb 1bf1 29bd
00000230: ac1d 593d 3fc9 27bd 644c cdbd bdb2 d3bd
00000240: e140 a6bd 3c65 f7bb af8c 07bd 1d7e 1b3d
00000250: abdb 7abc 5c77 03bd ae9b f43c 4d0c 0e3d
00000260: c1de 313e 4b99 7abd 8c52 58bd 8c7c abbc
00000270: 5e43 313d f68d ebbc 45dc b53c 58d9 a33d
00000280: a86a 873b 8612 063d 3128 b23d fe89 26bc
00000290: 1b9d 343d a059 b03d 4c0b 51bd 5442 24bb
000002a0: 38f9 51bc 616d 8c3c a4a6 97bd f954 9bbc
000002b0: 5ecb 72bc c6ad 8cbd 1f6f 823c 5ca5 113e
000002c0: 3c4b 9f3d b39a a83d a411 813d 3806 55bd
000002d0: 860a d4bc d6bc 0bbd c1ac d83d 333c 093d
000002e0: 98d0 783d a034 f9bd 7bbb b13d ef4b b63d
000002f0: 6e51 e9bd ceb7 8fbd 4e23 bf3c f375 e1bd
00000300: 1bf1 c2bd e845 7fbc 7918 80bd 084c a9bd
00000310: aa8a 93bd 1955 14be 99c2 d3bd 0b20 0bbe
00000320: 1de8 9ebd d112 b0bb 96c6 f6bd 9e35 703d
00000330: 2843 3f3d 3d5b 8cbd f3ff 9bbc 0d6a 9cbd
00000340: aba7 9b3d 1ff9 163d 8d84 013d e04d a4bc
00000350: d10e 8b3d e56e 9fbd 72c6 17bb 4fb3 c7bc
00000360: 6105 823b c49d 703d fe01 debc a719 f9bd
00000370: 78bc 82bd 4f17 0d3c 5a63 1dbd e360 04be
00000380: b4c7 e7bc 05c6 fc3c 74f6 8e3d 4a97 fcbc
00000390: a4fc 65bd c2c3 00bd dce1 29bb 4f69 c4bd
000003a0: a4f9 c43d 4f6d a43c 3b21 8a3d c748 553d
000003b0: 33eb d73a e536 d5bd afc9 02be 2db9 aa3d
000003c0: 9f9d 4dbb fa64 be3c e8eb 343d ca31 283c
000003d0: 608f b53d 7214 1c3d 1152 ffbd 8072 cabd
000003e0: 72f0 a7bd 2de7 4d3d 1aba ac3c fec3 2fbb
000003f0: 270a 803c 1c15 a03d 36df 3fbc 8c3f a23d
0.0037626754 0.05023408 0.014327314 -0.05430478 -0.025742069 0.12143741 0.03427625 0.08137865
-0.049536616 -0.00766943 -0.026843818 -0.037688777 -0.004671986 -0.01060992 -0.09981796 -0.001138597
-0.09901855 0.004944076 -0.023561478 0.041938104 -0.033162992 -0.061301112 -0.024364667 -0.046094205
0.084008016 0.10484107 -0.07355897 -0.004389218 -0.092525885 0.008745307 -0.016244723 -0.081300765
0.085504234 0.06610862 -0.052743204 -0.0022124518 0.10153764 -0.04260149 0.10991067 -0.11927954
-0.02060055 -0.05910293 -0.07223448 0.0040548565 -0.037065595 0.015555879 0.015881239 0.070634425
0.0010484692 0.07759775 -0.039554726 0.0769838 0.053349018 -0.011779674 -0.020467 0.09016605
0.087359495 -0.05680421 0.040764574 -0.045753848 -0.037788283 0.018066917 0.04185143 -0.014329638
-0.026928205 -0.046613287 0.16931134 -0.011805477 0.09671358 0.08552124 -0.11927328 0.09488067
-0.1398615 -0.027080344 -0.05089718 0.09522441 -0.07920823 0.0007494661 0.08042039 0.0070934226
0.056962606 0.012928354 -0.063291214 -0.00804559 0.07258754 -0.1464574 0.051788896 -0.0038466468
0.06436491 0.027445104 -0.029522734 0.03392473 0.04922752 -0.10484321 -0.1888665 0.056138344
0.028550474 -0.05241355 -0.0722799 0.001845741 0.034461573 0.018011766 0.046835057 -0.060753357
-0.06819421 0.112464935 0.061854646 -0.0005917145 0.0039337724 0.0015952063 -0.016060494 0.1548796
-0.088876 0.076795846 0.019597745 0.03622081 0.05093087 -0.065694965 0.023393797 -0.020561034
0.06659091 -0.08505414 0.08091254 -0.0072630825 0.076527834 0.04532072 0.047285937 -0.04705023
-0.05700202 0.08112163 0.040347885 -0.17845325 -0.054329667 -0.04388023 -0.029038435 0.090166286
-0.06728561 -0.04295356 -0.0068399566 -0.0414897 0.053006813 -0.040963408 -0.10024336 -0.10336826
-0.081178434 -0.00754991 -0.03309315 0.037962068 -0.015311162 -0.03209625 0.02985939 0.0346797
0.1737013 -0.061181348 -0.052813098 -0.020933412 0.043277137 -0.028754216 0.02219976 0.080004394
0.0041325875 0.03273251 0.08699072 -0.010164736 0.04409514 0.086108446 -0.051036164 -0.0025063949
-0.012815766 0.017142 -0.07404831 -0.018961417 -0.014818994 -0.06869082 0.015922127 0.14223236
0.07778022 0.082326315 0.06302193 -0.052007884 -0.025883924 -0.034115635 0.10579825 0.033504676
0.060745806 -0.121682405 0.08678337 0.08901202 -0.113924846 -0.0701748 0.023332264 -0.11008825
-0.095186435 -0.015580632 -0.06254668 -0.08266455 -0.072041824 -0.14485587 -0.10339851 -0.13586442
-0.07759116 -0.005373337 -0.12049596 0.058644883 0.046694905 -0.0685334 -0.019042945 -0.07637415
0.076003395 0.036858674 0.03162055 -0.020056665 0.067899354 -0.07784823 -0.0023159054 -0.024377493
0.0039679264 0.058744207 -0.02710056 -0.12163096 -0.06383604 0.008611514 -0.038424827 -0.12927584
-0.028293468 0.030856142 0.06980601 -0.030833859 -0.05614914 -0.03143669 -0.0025921976 -0.095903985
0.09617928 0.020071654 0.067446195 0.05207136 0.0016473293 -0.10410861 -0.12772249 0.08336101
-0.0031374467 0.023241509 0.04417029 0.010265777 0.08865237 0.038105436 -0.12466825 -0.098851204
-0.08200158 0.050269295 0.021084834 -0.0026819701 0.015629841 0.07816526 -0.0117109325 0.07922277

a2c_network.actor_mlp.4.bias f4 [64]
00000000: 3118 813c 0201 73bd 3ed6 433d b339 093d
00000010: 0e31 1cbd f044 6fbd 0786 98bd 5502 71bd
00000020: 73da 9bbc 54d3 9fbd 4797 a5bd 63d2 233d
00000030: c870 d33c 1fa6 b0bd 1d21 9abd c678 043d
00000040: 97fc 5dbd c214 d1bc 141e 9e3d d5bd 01bd
00000050: 4780 96bd bad4 b4bd a9b1 bdbd 0a4d 49bc
00000060: 7ce5 1e3d 8ff6 54bc dd25 92bd c09a a63c
00000070: 2a1f 983d 6395 37bd e4d9 05be 5e68 c0bc
00000080: b514 2cbd cd59 e93b 2e9d 833a 2d40 9cbd
00000090: 389b 90bd 3df7 ff3c 16c8 9dbc e282 07bd
000000a0: 55cd dd3c a783 b13c f5c0 a1bd 413f 16bc
000000b0: 29d1 94bd 1531 1cbe 2efd f23c a779 7ebc
000000c0: d978 b2bd 425f 35bd c2cd 653d 051b 61bd
000000d0: b137 9f3c d36c 99bd 5073 363d 7382 76bd
000000e0: a91c 02bd 3495 173d c676 34bd 4427 78bd
000000f0: 5ad6 1c3d f382 c2bd bdb0 85bd 3a17 06bd
0.015758606 -0.059327133 0.04781174 0.033502292 -0.03813272 -0.058415353 -0.07447439 -0.058840115
-0.019025063 -0.078039795 -0.080854945 0.039995562 0.025810614 -0.08625435 -0.07525847 0.03234174
-0.054195967 -0.025522593 0.07720581 -0.03167518 -0.07348686 -0.08829637 -0.092624016 -0.012286434
0.038793072 -0.012998237 -0.07136128 0.020337462 0.07427819 -0.0448202 -0.130714 -0.023487266
-0.042011935 0.007121301 0.001004135 -0.07629428 -0.070608556 0.031245822 -0.019260447 -0.033083804
0.027075449 0.021669222 -0.07898132 -0.009170354 -0.07266457 -0.15253098 0.029661741 -0.015531934
-0.08714456 -0.044280298 0.05610443 -0.05495741 0.019435735 -0.0749146 0.044543564 -0.060183
-0.031765614 0.037007526 -0.044058584 -0.06058432 0.03829036 -0.09497633 -0.06527851 -0.032736994

a2c_network.value.weight f4 [1, 64]
00000000: 68be 9e3d 5cb4 b1bc 6a27 09bc b0b2 f53d
00000010: 4ce5 b3bd 5609 27bc 68e6 09bb 4118 ef3a
00000020: 12ca 96bb f11e 6cbd e423 1fbb fb3f 1d3d
00000030: 88ea ebbb 843f 1a3c 89da 04bc 7342 7839
00000040: 6b4a 87bd d92c 4ebd 6a44 943d d6aa 91bc
00000050: 44a8 afbd df4f 13bd 429e f6ba c096 54bc
00000060: 629a 21bd a5c1 0f3d bd2a 68bd d551 543d
00000070: 2fcc 5a3c 8dab 1dbe 5155 83bc ca71 023c
00000080: 396c f2bd abac 643b 2b97 77bc 05f0 66bc
00000090: 82e0 04be c675 533d c7f4 ef3b 6765 4dbc
000000a0: 94a8 4e3d 0fc0 ebbc ffe5 8bbc a07e 873c
000000b0: 017d 813d 5e2a 493c 6434 6b3d aab7 71bd
000000c0: 03a2 91bd 163f dbbd 9999 2cbc 18de 8dbd
000000d0: 0956 b23d 8d04 04bd fed4 5a3c 55b2 2d3c
000000e0: 9177 bb3d ff2d 843d 69c3 60bc be32 a7bd
000000f0: b257 053e f0d2 fdbd 0dd4 74bc 8305 803a
0.07751161 -0.021692447 -0.008371213 0.119969726 -0.08783969 -0.010195097 -0.0021041874 0.0018241481
-0.0046017254 -0.057646696 -0.0024282867 0.038391095 -0.007199589 0.009414557 -0.0081087435 0.00023675877
-0.06605991 -0.05033574 0.072396114 -0.017781656 -0.08577016 -0.035964843 -0.0018815475 -0.012975395
-0.03945387 0.035096783 -0.056681383 0.051835854 0.013354345 -0.15397473 -0.016031893 0.0079617
-0.11837048 0.0034892957 -0.015111725 -0.014095311 -0.12976268 0.05162599 0.007322881 -0.012536383
0.050453737 -0.028778104 -0.017077444 0.016539872 0.06322671 0.0122781675 0.05742301 -0.059013046
-0.071109794 -0.10705392 -0.010534667 -0.06927127 0.08707816 -0.032230902 0.013356445 0.0106016
0.09153665 0.064540856 -0.013718464 -0.08163975 0.13021734 -0.12393749 -0.014943135 0.0009767268

a2c_network.mu.weight f4 [8, 64]
00000000: 2465 2b3c 23bc 53bc 368c 1bbe b57b 733d
00000010: e6fa 0a3c 8c2e 1f3d 0d51 e1bd d9c2 233c
00000020: 9e47 63bd 749f 3e3d 6f31 ddbd b1ae 073b
00000030: 2ed8 4cbb 8670 8dbd 1720 433e d88d 02bd
00000040: d084 dd3d cb78 893d 6c64 0f3d ba8a 13be
00000050: ad24 903d 5dc2 463d 0402 043e c030 0cbe
00000060: ef4b 99bd abb6 b53d add2 973d e461 213e
00000070: 840a c9bd 93f6 843d bbf6 a6bb b38d 8abd
00000080: 6aab b8bd 7ad7 283e 41ef b53d 1166 253e
00000090: b354 82bd bc56 8e3d 90eb e9bc b53e ecbd
000000a0: b26f 6c3c 0cba da3d 5d6a f03d 8de3 98bc
000000b0: eb56 c9bc ddda 863d ba03 683b ea4d 07be
000000c0: 3ccb c23c 7f7b e13d 099c 9abd 6123 263d
000000d0: e0cf 283d aef7 3d3c cb71 bebd bf85 823d
000000e0: d926 92bd acff 3bbe 4f1d c63d 8e91 2dbe
000000f0: 3e3e 51bc eb0c 083d f7d3 273c 62b7 d33d
00000100: e585 b23c 6bc3 69bd 404e 99bd 1a88 a93c
00000110: 22fd b0bc 597e c3bd 9f68 11bc cd4d 2b3e
00000120: 4a22 9fbd 744a 8cbc a466 1fbd d802 73bd
00000130: cfd2 9ebd 7d50 73bd b5ec e53c 67f5 7ebc
00000140: 61d3 1abe 1fc3 593d 42cc 2fbd d562 5b3d
00000150: e597 fb3d 7b5d 023e 266d a53d 8b8e 9cbc
00000160: fe03 33bd f2eb df3d 5038 95bd 5b3e aabd
00000170: 7e70 073e 8c73 3f3d 05f9 0f3d 7739 72bc
00000180: 9bfc 013d 8b6b 973d dcdc b33d d052 5dbc
00000190: 8ef0 0fbc 9dc9 ef3d 7190 703d eecc 8fbd
000001a0: 2474 f9bb 4d21 58bd c748 18be c6cb b73d
000001b0: 6164 71bb 71b3 b33d f0af c2bd 5ee8 28bd
000001c0: d76b e2bb ea6e ba3d d722 f53d 8460 20bc
000001d0: 54d4 05be 9469 4b3d 3089 363e d88b 453e
000001e0: 6ab8 c9bd 13bf 28bd 1475 9f3d 31c5 eabc
000001f0: 4749 3e3d 1768 7bbd 0740 503d dfed 163e
00000200: 7e4f e23c 6626 083d 6e2c 46bd 4c43 f4bc
00000210: 4eec 82bd e34b 173e e3c7 863d 4bcb a23d
00000220: 519f ffbc 5e9b 89bc fe96 af3c 5320 0ebe
00000230: 51e4 7f3d 8657 eb3d 95f5 9fbd 8d9a 01bd
00000240: 2340 62be 65d1 12be 01c6 a6bd 762a 06bd
00000250: 961e 6d3d bea5 1c3d 89d8 fa3d f348 863d
00000260: a73c 3dbd 8ae6 ec3d c140 3dbb 770e 7dbc
00000270: 04de 03be b3a5 77bc 129e 033e b37e 22bb
00000280: abe0 26be 35ef 50bd 0599 a8bd 8039 223e
00000290: bde8 3cbd 177e 883d 8c9f 5dbc 2db9 2bbe
000002a0: 290f 03bd e708 5bbd 79c1 97bd d1c7 463d
000002b0: cb6e 073e f3bd c93d 8855 e23d b3c6 073b
000002c0: 00f8 be3d f105 47bd 72ba b6bd c299 78bd
000002d0: 38f7 c3bd a24c cf3d ab10 27bd 5ce1 1ebd
000002e0: 6fb1 b33d cdf2 963d 5f2b b9bd 162b 81bd
000002f0: 27e2 333d 2532 e13c 4dc5 933e 785f 6bbd
00000300: 9899 bebd 95bc 6bbd 209d a4bd 8d72 0ebd
00000310: c38a a63d aa39 633d 9b6e acbd bee2 9cbd
00000320: f4b0 62bd 6bb4 26bd fadb babd c976 a03d
00000330: acf5 5e3d 3a0c fcbd 02e9 8ebc 689a 933d
00000340: 2f4f ddbc d8a0 083e cf71 ce3d 3fd3 b9bb
00000350: e57f 073d fb75 ec3c 4349 e93b ed94 2a3d
00000360: d4a8 8b3c 20ab bd3b a05a 383d 8f00 7d3d
00000370: 433f a93d 6ab1 8c3d e4b1 1cbd fe11 0dbd
00000380: cfee a7bc 43d1 e9bd d3a5 d2bd 4aa9 523c
00000390: c780 57bd cbd0 0d3d 9e14 863d 486b 883c
000003a0: ca23 c7bb 2c60 cebb 1613 d53d 7275 953d
000003b0: 60e1 bf3d d129 173d a059 1a3d 376e 003d
000003c0: cb26 cc3c 8d44 3b3c e09d 093d afa1 563d
000003d0: 4def 0cbe c3b1 11be 4670 0bbd f353 d43d
000003e0: aaa6 5c3c 4e78 943d 9c17 25bd 734d e8bb
000003f0: 83f0 363d ff19 d7bd de5e b7bc 9265 3dbb
0.0104611255 -0.012923273 -0.15190205 0.059444148 0.00848267 0.03886275 -0.11001787 0.009995186
-0.05548822 0.046538785 -0.10800444 0.002070349 -0.0031256783 -0.06906228 0.1905521 -0.031873554
0.108163476 0.067124926 0.03500788 -0.14408389 0.07038245 0.048525203 0.12891394 -0.13690472
-0.07485186 0.08872732 0.0741323 0.15759999 -0.09816459 0.06492343 -0.0050953305 -0.06765308
-0.0901707 0.16488448 0.08883525 0.16152216 -0.06363811 0.06950137 -0.028554708 -0.11535398
0.014430927 0.10680017 0.11739037 -0.018663192 -0.024577579 0.065847136 0.0035402612 -0.13213316
0.02377855 0.11009883 -0.075492926 0.040561084 0.04121387 0.011594696 -0.09299048 0.06373166
-0.07136316 -0.1835925 0.09673559 -0.16950056 -0.012771187 0.033215445 0.010243407 0.10337712
0.021792362 -0.05707113 -0.07485628 0.020694781 -0.021605078 -0.09545583 -0.008875041 0.16728897
-0.07770212 -0.017125346 -0.038916245 -0.059328884 -0.07755052 -0.05940293 0.028066972 -0.015561438
-0.15119697 0.053164598 -0.042919405 0.05356105 0.12284831 0.12730972 0.08077459 -0.019110939
-0.04370498 0.10933675 -0.072861314 -0.083126746 0.13226506 0.046741053 0.035149593 -0.0147842085
0.031735044 0.07393559 0.0878236 -0.013508514 -0.00878538 0.117083766 0.0587315 -0.07021509
-0.007612722 -0.052766133 -0.14871512 0.089744136 -0.0036833512 0.0877446 -0.09506214 -0.041237228
-0.006909828 0.091031864 0.11969536 -0.009788636 -0.13069278 0.049661234 0.1782577 0.19291627
-0.09849627 -0.041197848 0.07786003 -0.028658481 0.0464566 -0.061378565 0.05084231 0.14739178
0.027625795 0.033239745 -0.048382215 -0.029817246 -0.06392728 0.14775042 0.06581094 0.07948931
-0.031203898 -0.016797718 0.021434303 -0.13879518 0.0624736 0.11491303 -0.07810513 -0.03164153
-0.22094779 -0.1433769 -0.08143235 -0.032755338 0.057890497 0.038244 0.12248332 0.06556883
-0.04620042 0.11567409 -0.0028877708 -0.015445343 -0.12877661 -0.015115189 0.12853268 -0.0024794757
-0.16296642 -0.051009376 -0.08232311 0.15842247 -0.046120394 0.06664675 -0.0135268085 -0.16769858
-0.03199688 -0.053475287 -0.07409949 0.048530404 0.13225858 0.09850683 0.1105147 0.00207178
0.09324646 -0.04858965 -0.0892228 -0.06069351 -0.095686376 0.101220384 -0.04078738 -0.03878914
0.08774077 0.07370529 -0.090414755 -0.06307046 0.043916848 0.027489731 0.28861466 -0.057464093
-0.093066394 -0.057552893 -0.08037782 -0.034777213 0.081319354 0.055474915 -0.08419534 -0.07660435
-0.055344537 -0.040699404 -0.091239884 0.078351565 0.05443351 -0.123070195 -0.017445091 0.07207185
-0.027015297 0.13342607 0.10080301 -0.0056709344 0.033080954 0.028864851 0.007119329 0.041645933
0.017048277 0.005788222 0.0450083 0.06176811 0.08264019 0.068697765 -0.038255587 -0.034440987
-0.020499615 -0.11416867 -0.10285535 0.0128577445 -0.052613046 0.03462295 0.06546901 0.016652718
-0.0060772644 -0.0062980857 0.10404031 0.072977915 0.09369159 0.036905114 0.03768313 0.03135511
0.024920842 0.011429918 0.033597827 0.052400287 -0.13763161 -0.14227967 -0.03404262 0.103675745
0.01346747 0.07249509 -0.04030572 -0.007089311 0.044662964 -0.10503005 -0.022384103 -0.0028899652

a2c_network.mu.bias f4 [8]
00000000: 8295 ccbd c5e1 a5bd 6fbe 1dbd 6a16 683d
00000010: 1de3 6ebd 67ce 883c 26cb 04be f13c 04bd
-0.09989454 -0.08099703 -0.03851169 0.056662 -0.05832206 0.016699983 -0.1296812 -0.03228468

exp_avg f4 [8]
00000000: 5498 8b3b 309e a93b 61c3 91bb a3b8 d63b
00000010: aeed dd3a c439 963a 1437 973b 2d7d 1d3b
0.0042601023 0.005176328 -0.00444834 0.006552772 0.0016931796 0.0011461307 0.00461472 0.002403091

exp_avg_sq f4 [8]
00000000: bbea 7038 fec1 9238 d859 6638 0cdb 7838
00000010: 50ca 8338 703b 8f38 9b3b 7438 def4 8738
5.743907e-05 6.9979564e-05 5.4919947e-05 5.933181e-05 6.2842504e-05 6.8298425e-05 5.8229645e-05 6.482912e-05
