runs/Ant_31-18-32-45/nn/last_Ant_ep_250_rew_3464.2805.pth (torch, 705927 bytes, 36 tensors)

value_mean_std.running_mean f8 [1]
3.576346839782099
00000000: f422 60bb 5b9c 0c40

value_mean_std.running_var f8 [1]
4.134902494214904
00000000: 1635 23e1 238a 1040

value_mean_std.count f8 []
32768001.0
00000000: 0000 0010 0040 7f41

running_mean_std.running_mean f8 [60]
0.6147006494132605 3.1576675670259613 -0.5293871688554834 -0.48546774821159033 0.029750825903611097 -0.000715004965561848 -0.039528614790134815 2.6048820078731088
4.0340329554766585 -2.6055099704240425 0.8980958981126422 0.7995552360567709 -0.503253122050132 -0.5179827921441563 -0.2538902597288123 0.7658847182052948
-0.00514243323459337 0.677375219523476 -0.0035262426686511568 -0.6384548094260746 0.022139077395287747 0.060175939079662476 0.03651357199675082 -0.07042370711612686
-0.0035167242194553455 -0.04705208482536913 0.0047601304131467724 0.0626431247467363 -0.32400022400945583 0.02229575980450036 -0.1710739073322625 -0.04618925334042038
-0.0017650100645534425 0.03232033393460288 -0.04574155572408943 -0.005028931912545975 -0.3867748964022107 -0.07077595977371832 -0.0008450929868765972 0.010959072048023821
-0.06272050777920407 0.008349737446968545 -0.18731042093776573 0.03318792186677116 0.0002810222403167401 -0.001377162430162746 -0.09210420036954728 -0.022985144497380223
-0.27915036738859633 0.06260011661466099 7.215874891017712e-06 0.0010455431832840853 -0.2683602632374889 -0.16213091177361894 -0.1163034068829753 0.2793744652216927
-0.01438995711464878 0.11417085108074747 -0.011496069053042379 -0.23347118703181133
00000000: d4ea 41b2 a0ab e33f 9221 a036 e742 0940
00000010: aa00 255c bdf0 e0bf 0038 7551 e711 dfbf
00000020: dcd6 2321 0077 9e3f 25c3 c678 e56d 47bf
00000030: 6143 8f37 183d a4bf d107 ce60 ccd6 0440
00000040: ad08 fb88 d922 1040 4bfc 829c 15d8 04c0
00000050: f518 e29b 33bd ec3f 55b3 c6dc f495 e93f
00000060: 3a16 9a4a a61a e0bf 1fcc 04a6 5093 e0bf
00000070: 76b9 93ee bc3f d0bf 5655 26ab 2082 e83f
00000080: 5bf4 0769 3b10 75bf 3d2c dfcb 0ead e53f
00000090: 9656 111e 11e3 6cbf 55af cec7 386e e4bf
000000a0: 1e68 8155 a0ab 963f b3db b474 61cf ae3f
000000b0: 9920 2c2b e8b1 a23f de45 edbe 4907 b2bf
000000c0: c91f 5ff0 1acf 6cbf 2c31 11fb 3517 a8bf
000000d0: c5c2 2fc7 5b7f 733f 5242 1b3c 6109 b03f
000000e0: 3a1b 816f 6bbc d4bf 7a98 cc1c b3d4 963f
000000f0: c172 98f2 bfe5 c5bf d52a 0c29 1ea6 a7bf
00000100: 3c90 4720 fdea 5cbf f165 7d72 4a8c a03f
00000110: 7e66 ceeb 6f6b a7bf a635 92a1 3799 74bf
00000120: a985 bd7e ebc0 d8bf b135 9290 5f1e b2bf
00000130: e7b6 cf5e 27b1 4bbf 407f 53c0 b571 863f
00000140: fc3f b381 730e b0bf 828c 1eca aa19 813f
00000150: 6458 10b2 c9f9 c7bf f778 14de 01fe a03f
00000160: af54 e454 c56a 323f 5c36 53e6 3c90 56bf
00000170: ea53 6910 2494 b7bf a5ec a3ef 6a89 97bf
00000180: 0e6d a680 99dd d1bf 0df4 95ad 8f06 b03f
00000190: a25b 3996 fc43 de3e e037 d771 5321 513f
000001a0: 6da9 8986 d02c d1bf 6882 dea9 b4c0 c4bf
000001b0: 6ccb f960 0fc6 bdbf fbbc dd6f 45e1 d13f
000001c0: d508 9659 7b78 8dbf 2b5d 8c07 4d3a bd3f
000001d0: 9349 ec44 408b 87bf 2712 6e44 62e2 cdbf

running_mean_std.running_var f8 [60]
0.014270327313109139 5.001591699107259 1.5968944147215554 0.77075253835805 4.015669728748639 4.650543161319272 8.595061415878403 7.386780337283606
8.05327130746264 7.3867774022146335 0.0947606316366217 0.1482861706601134 0.4194819659586237 0.279842450912238 0.4530750902635556 0.2698120897435729
0.47545039386366955 0.2539554975372429 0.47091852073925805 0.2505150968251886 2.9760169852721163 3.027803351566494 4.224222805706174 1.0167081654814132
5.386080288648061 1.6165686367627072 1.8629125320967643 2.285696514782977 1.3357512749238103 0.20157561725857856 0.9124139420719507 0.021635863295453518
6.219002229570848e-05 0.0060694773467560624 1.7814477836540357 0.14320914502229193 0.9046466713870224 0.01907520786445506 5.957710552908701e-05 0.009329021027086043
2.247741805422785 0.16064245246528974 0.9281258733544083 0.01906985331671606 7.903125023011116e-05 0.011271171670127844 0.733990600817791 0.17182033536955882
1.0183774079492136 0.02091991544305739 3.8913429198363825e-05 0.0031092855551555403 0.4206544127214351 0.377492785662212 0.49009522474485745 0.32235086321014306
0.5276979735747728 0.34262832120314207 0.41904731227169656 0.37572931136949045
00000000: aa76 e7e8 c239 8d3f 6871 1e41 a101 1440
00000010: 674e 6628 e18c f93f 64d1 313a 01aa e83f
00000020: e60c b2b9 0b10 1040 ca02 8afc 279a 1240
00000030: 4f9e d0e3 ab30 2140 cb79 0d25 108c 1d40
00000040: 02bc 7660 461b 2040 f05f 1560 0f8c 1d40
00000050: 25dd d395 3b42 b83f e495 b78e 0afb c23f
00000060: f375 43e3 cad8 da3f c6d5 ac4f f0e8 d13f
00000070: 2b1c d4a9 2eff dc3f 67e6 60ed 9944 d13f
00000080: 27f2 207d c76d de3f a0f5 238f ce40 d03f
00000090: cff8 696f 8723 de3f 6c2e 0179 7008 d03f
000000a0: 8dac 40fe e1ce 0740 0994 adf6 f038 0840
000000b0: fd19 c6a9 9ae5 1040 e919 05c8 6f44 f03f
000000c0: a17e 95a1 588b 1540 7f29 2a13 77dd f93f
000000d0: 5fa0 0a5f 7dce fd3f b097 1c41 1b49 0240
000000e0: 8935 96ba 3c5f f53f 41f7 e5d5 3acd c93f
000000f0: 85a1 33b9 7e32 ed3f dd4a 1935 b627 963f
00000100: 6547 9572 804d 103f 4580 54eb 4edc 783f
00000110: 5736 2564 cf80 fc3f 4aef 2d61 ad54 c23f
00000120: 535c 8193 ddf2 ec3f a4d9 c487 7388 933f
00000130: f34d 3ac2 4d3c 0f3f 1d62 b801 181b 833f
00000140: 9224 410e 60fb 0140 0c05 d88f ee8f c43f
00000150: ab1d 1408 35b3 ed3f 1ed9 5631 0c87 933f
00000160: ffbc 578a b2b7 143f 53b8 af0d 5715 873f
00000170: 84ae 42db d97c e73f d699 9970 35fe c53f
00000180: b208 e21b 464b f03f e3ed a6c2 076c 953f
00000190: d1ba 0a3f df66 043f ea05 bff8 a478 693f
000001a0: 28a0 637c 00ec da3f f249 3980 d728 d83f
000001b0: 9e1d 8d5c b85d df3f b8cb d483 65a1 d43f
000001c0: 7169 55dc e6e2 e03f 650e 9056 9fed d53f
000001d0: b2c0 6bd1 abd1 da3f 89c1 1ef4 f20b d83f

running_mean_std.count f8 []
16384001.0
00000000: 0000 0020 0040 6f41

a2c_network.sigma f4 [8]
-1.0329245 -1.3140236 -1.0518341 -1.1083429 -1.0310429 -1.4099108 -1.0746367 -1.1862261
00000000: df36 84bf ed31 a8bf 80a2 86bf 2ede 8dbf
00000010: 37f9 83bf f577 b4bf b28d 89bf 42d6 97bf

a2c_network.actor_mlp.0.weight f4 [256, 60]
0.053329285 -0.15618491 -0.00010265154 -0.049432993 0.14975753 0.029044589 0.27177563 -0.09549149
-0.097215086 -0.058015697 0.10756926 -0.039219312 0.27895623 -0.17862695 -0.1611728 -0.12301516
-0.0967261 0.009638006 0.06159475 0.11995531 0.054313384 -0.15339191 0.08898858 -0.09545439
0.040914413 -0.034804262 0.08845988 -0.03662402 -0.06385369 0.043223273 0.023112213 -0.033473354
0.03699104 0.01017848 -0.07235361 0.0037088334 0.056979302 -0.06255563 -0.019988649 -0.15516192
-0.06975951 0.009814867 0.03549892 -0.082939796 0.000473271 -0.06525624 -0.12929635 -0.0241238
-0.09491615 -0.061031166 0.12525125 0.08412747 0.042126827 -0.13219196 -0.028077072 -0.067522414
-0.012373954 -0.11042461 -0.08624992 0.0053715077 0.0020387403 -0.1243668 0.039080307 -0.027293287
-0.14788467 -0.11779795 -0.02887208 -0.03316796 0.23158646 -0.094367795 0.17518719 0.117657945
-0.022376126 0.073170565 0.07365918 0.013809204 -0.18604961 -0.20579767 0.079119176 -0.014330974
0.09079327 -0.0871708 0.021336975 -0.09952471 -0.08259932 0.0032748904 0.119214915 0.0828218
0.055928055 -0.08335327 0.035379183 -0.04950309 -0.048165023 -0.11398866 0.0645132 -0.15662517
0.003478652 -0.04448017 0.024886567 -0.08916491 0.051585335 0.15057099 0.018121399 -0.0763104
0.057733774 -0.13148256 -0.08244649 0.1677124 -0.03127373 -0.031172518 -0.099344194 -0.00046032434
0.015687745 0.040857814 -0.030887557 -0.023516713 -0.031958926 0.12737948 0.053968783 -0.11972105
0.06694998 0.10273392 0.05819931 -0.003014082 0.118409805 0.041659795 -0.035712045 -0.030249482
-0.14058691 0.021395871 0.040048726 -0.02991915 0.18054421 0.11486483 -0.022427974 0.003060456
0.0071463343 -0.0406429 0.043995813 0.029247534 -0.17452136 -0.08679438 0.111556135 0.07946736
0.04665769 -0.011451419 -0.056751914 -0.08924433 0.00023012972 0.007836429 -0.0056318482 0.0045013786
-0.092707895 -0.07704409 -0.03236646 0.087628 -0.0035882902 -0.04108227 0.07189674 0.054227214
-0.006620278 0.0701332 -0.032059368 -0.007195875 -0.08212433 0.059107844 0.03462159 0.040896688
-0.057758976 -0.15619402 -0.10344232 0.0055271247 0.010934547 0.062921084 0.0030373551 0.06407961
0.049716324 -0.010273802 -0.059444882 -0.04380467 0.084917694 -0.0391579 0.030281661 -0.09690287
-0.0041528014 -0.18166713 -0.08817292 0.012465778 -0.10397179 0.11005199 -0.07566064 -0.120909296
0.1046339 -0.16337979 -0.08399101 -0.18678875 0.2056228 -0.07293881 0.14134026 0.09872379
0.012899569 -0.25758275 0.07876798 -0.08201834 0.103812575 0.05442287 -0.104191124 0.068551496
0.06243094 -0.11912516 0.06678347 -0.07214233 0.18023558 0.039409403 0.09637963 -0.060837585
-0.08087754 0.043143813 0.08428785 -0.08263018 -0.04107169 -0.04370274 -0.014192758 -0.030939564
-0.061774924 -0.15863244 -0.056373816 0.10762204 0.10161743 -0.0346895 0.011067382 -0.04059026
-0.16640598 -0.06809874 0.07323442 -0.11284997 -0.05804908 0.007870848 -0.093129195 0.0132289855
-0.029844806 0.005441828 0.03164535 -0.07825956 -0.15982278 0.10422757 -0.056240585 0.008848134
-0.09236187 0.035850536 0.25266448 0.16265279 -0.10861344 -0.008453173 0.09225481 0.0036965162
00000000: cf6f 5a3d f0ee 1fbe a046 d7b8 407a 4abd
00000010: 0a5a 193e ebee ed3c 2d26 8b3e 0b91 c3bd
00000020: b418 c7bd dea1 6dbd 464d dc3d 6ea4 20bd
00000030: 5ad3 8e3e fce9 36be 7c0a 25be 5fef fbbd
00000040: 5518 c6bd bae8 1d3c c74a 7c3d 21ab f53d
00000050: b677 5e3d c512 1dbe a53f b63d 977d c3bd
00000060: df95 273d ea8e 0ebd 742a b53d 1203 16bd
00000070: b9c5 82bd e30a 313d d355 bd3c 5b1b 09bd
00000080: eb83 173d a4c3 263c 212e 94bd e60f 733b
00000090: 2163 693d 2b1d 80bd 3cbf a3bc c4e2 1ebe
000000a0: 13de 8ebd 89ce 203c 5167 113d 57dc a9bd
000000b0: 5c21 f839 10a5 85bd 4366 04be 479f c5bc
000000c0: 6663 c2bd d1fb 79bd dd41 003e 064b ac3d
000000d0: 2e8d 2c3d 545d 07be e301 e6bc 3149 8abd
000000e0: 20bc 4abc 4c26 e2bd cca3 b0bd 7903 b03b
000000f0: 639c 053b 05b4 febd ac12 203d 2c96 dfbc
00000100: 146f 17be 0d40 f1bd 2485 ecbc 20db 07bd
00000110: 0025 6d3e e743 c1bd 4564 333e a6f6 f03d
00000120: 234e b7bc 73da 953d a0da 963d 0040 623c
00000130: ca83 3ebe a0bc 52be 3c09 a23d 76cc 6abc
00000140: d2f1 b93d 9b86 b2bd e1ca ae3c 9cd3 cbbd
00000150: d529 a9bd 8b9f 563b f326 f43d 7a9e a93d
00000160: d114 653d 1fb5 aabd c3e9 103d c1c3 4abd
00000170: b048 45bd e372 e9bd 7f1f 843d 5962 20be
00000180: 19fa 633b d730 36bd eade cb3c 189c b6bd
00000190: 254b 533d 482f 1a3e 5473 943c a148 9cbd
000001a0: 407a 6c3d 5da3 06be b5d9 a8bd cdbc 2b3e
000001b0: e218 00bd 825d ffbc f874 cbbd b057 f1b9
000001c0: 9683 803c 865a 273d e707 fdbc 1fa6 c0bc
000001d0: 5de7 02bd c46f 023e 5f0e 5d3d 4f30 f5bd
000001e0: 121d 893d 2966 d23d 6662 6e3d e887 45bb
000001f0: d780 f23d 76a3 2a3d cb46 12bd c3cd f7bc
00000200: 04f6 0fbe 6546 af3c 220a 243d 0119 f5bc
00000210: 95e0 383e 413e eb3d dfba b7bc ee91 483b
00000220: cc2b ea3b 2b79 26bd f434 343d 8698 ef3c
00000230: bab5 32be 40c1 b1bd 8b77 e43d c9bf a23d
00000240: 221c 3f3d bc9e 3bbc b274 68bd bbc5 b6bd
00000250: fa4e 7139 5e64 003c 5e8b b8bb 4d80 933b
00000260: a3dd bdbd 4bc9 9dbd b192 04bd 4f76 b33d
00000270: 8529 6bbb e245 28bd 993e 933d 5b1d 5e3d
00000280: ebee d8bb ffa1 8f3d af50 03bd 60cb ebbb
00000290: cd30 a8bd 111b 723d 5ecf 0d3d 4983 273d
000002a0: ad94 6cbd 53f1 1fbe 91d9 d3bd e21c b53b
000002b0: d026 333c c5dc 803d 5d0e 473b 2c3c 833d
000002c0: 58a3 4b3d 7353 28bc 7a7c 73bd 876c 33bd
000002d0: 54e9 ad3d 0964 20bd 3f11 f83c 0375 c6bd
000002e0: 3914 88bb f306 3abe 0194 b4bd 433d 4c3c
000002f0: 29ef d4bd f062 e13d f7f3 9abd 4b9f f7bd
00000300: 4c4a d63d 084d 27be 7b03 acbd 8d45 3fbe
00000310: c98e 523e f160 95bd 80bb 103e b32f ca3d
00000320: b758 533c e3e1 83be 1b51 a13d 3bf9 a7bd
00000330: b09b d43d 84ea 5e3d 2862 d5bd ba64 8c3d
00000340: 96b7 7f3d e4f7 f3bd c6c5 883d 5cbf 93bd
00000350: ad8f 383e c16b 213d af62 c53d d530 79bd
00000360: 20a3 a5bd 91b7 303d 1c9f ac3d 033a a9bd
00000370: ca3a 28bd a501 33bd be88 68bc f874 fdbc
00000380: b407 7dbd 8b70 22be 3be8 66bd f268 dc3d
00000390: cd1c d03d 9416 0ebd f753 353c f941 26bd
000003a0: 5466 2abe 5a77 8bbd edfb 953d e31d e7bd
000003b0: dfc4 6dbd bbf4 003c 85ba bebd 63be 583c
000003c0: 187d f4bc 5d51 b23b 8e9e 013d 8c46 a0bd
000003d0: 95a8 23be 4475 d53d 875c 66bd c4f7 103c
000003e0: 3828 bdbd 03d8 123d 3d5d 813e 748e 263e
000003f0: b970 debd 2d7f 0abc 17f0 bc3d 4041 723b

a2c_network.actor_mlp.0.bias f4 [256]
-0.01670907 -0.03497589 -0.02594486 0.026408484 0.0012257918 -0.017344497 0.009429979 -0.066211306
-0.07534075 -0.024359783 0.0382384 0.007233037 -0.031876035 -0.024245493 -0.07068749 -0.01694478
-0.049022764 0.046005104 -0.048651975 0.034702532 -0.04224651 -0.050743517 0.007054685 0.011472796
-0.056350388 -0.01987978 0.013828279 0.06585188 -0.045086604 0.075407736 -0.0005159438 0.03533159
-0.020561535 -0.055866506 0.03868455 0.06961406 0.013627113 -0.05026193 -0.01562158 0.04913881
0.044216763 0.074831605 -0.03197663 0.05501253 -0.0051408736 -0.025443016 -0.005981263 0.035705864
-0.019576378 -0.04714885 -0.01512931 -0.060128003 -0.007403962 0.03478973 0.0565004 0.053148188
-0.03795261 0.006785286 0.04248181 0.028609885 0.028759103 0.06037075 -0.024991518 -0.03537959
-0.07040962 -0.013823641 -0.06640452 -0.018046001 0.034511946 0.0030462332 -0.06774084 0.0025114797
0.08057382 0.007666113 -0.025701445 -0.018621024 -0.038079966 0.077158175 -0.01226537 -0.033815067
-0.0047413195 -0.029236907 -0.052874155 -0.00782108 -0.0033266807 -0.1279803 0.0002713534 0.0018212637
0.022202099 -0.022489768 0.05500566 0.02858668 -0.031883743 0.002734321 -0.005697061 0.022189366
-0.040193986 -0.047659755 0.079498574 -0.009459933 -0.08032385 0.10506788 -0.040584993 0.0071159597
-0.026481383 0.009961732 -0.04389006 -0.05896747 -0.033747494 -0.04583119 -0.0073367525 -0.0089494735
-0.020525943 0.004363226 0.032483708 -0.044685896 -0.02978312 -0.037364457 0.008975057 0.013733435
0.009650506 0.044568185 0.044772036 0.0014941694 -0.0022206847 0.04781878 0.042985033 0.0064063855
-0.0010207368 -0.048763417 0.005767227 0.0025230763 0.010025566 0.014409886 -0.01302467 -0.014236807
-0.10067805 -0.056875218 -0.026431797 -0.1541659 -0.010881436 0.0056985877 0.00859625 0.044836707
0.0013366189 0.050682865 0.01802238 0.028083935 0.011674714 0.023134409 -0.08173146 0.00518512
0.040114798 -0.02281764 0.024737218 -0.01792915 -0.003622231 0.037102036 0.01021816 0.017768394
0.054589257 0.05677785 -0.072519526 -0.066527165 -0.003415979 -0.007402219 -0.0382826 -0.0057373797
0.010359712 -0.034263104 0.029899187 -0.024914267 0.0947709 0.010361768 0.010970779 -0.04121703
0.023843003 0.0019606159 -0.009406335 -0.060074296 0.07806676 -0.049061075 -0.0975292 -0.079445764
-0.013537627 0.01476523 0.038977697 0.0029361688 -0.011177558 -0.04374306 0.0067688026 -0.055497203
-0.069601454 -0.014971288 -0.087335445 0.089871936 0.023304107 -0.039688334 -0.035252158 -0.030317483
0.004993131 -0.03093504 -0.0007149322 -0.037951186 -0.069176264 0.025295308 -0.022798246 -0.0009250194
-0.026236702 0.08731257 0.00020790486 0.03524327 -0.002872986 -0.021704294 -0.011646279 -0.047473565
-0.04839986 0.016675016 -0.03502591 0.0010752833 -0.052892618 -0.011209345 0.05984537 0.003050288
0.10798284 0.016406996 0.101224594 0.0033640042 -0.035828926 -0.0069790147 0.04073869 -0.013765256
0.03909924 -0.019520678 0.058562323 0.021106562 0.033746485 -0.010244538 -0.023929669 0.020659376
0.018071486 -0.015025455 0.03579101 0.027914204 -0.014992078 0.016454581 0.059353344 -0.092767715
-0.00423374 -0.07278651 0.00069565244 -0.017880138 0.01630343 0.058240846 0.02753208 -0.044687647
00000000: 76e1 88bc e142 0fbd 518a d4bc 9b56 d83c
00000010: bfaa a03a 0c16 8ebc 3380 1a3c cb99 87bd
00000020: 404c 9abd 2b8e c7bc de9f 1c3d 1d03 ed3b
00000030: 7290 02bd 7c9e c6bc 9ac4 90bd c7cf 8abc
00000040: 18cc 48bd d96f 3c3d 4b47 47bd 3e24 0e3d
00000050: ad0a 2dbd 6fd8 4fbd fd2a e73b 65f8 3b3c
00000060: aacf 66bd ecda a2bc 0290 623c 5add 863d
00000070: bbac 38bd 5f6f 9a3d 6740 07ba dbb7 103d
00000080: aa70 a8bc 47d4 64bd b173 1e3d d191 8e3d
00000090: 4144 5f3c 74df 4dbd a8f1 7fbc c745 493d
000000a0: a31c 353d 5041 993d edf9 02bd d254 613d
000000b0: c674 a8bb df6d d0bc 78fe c3bb 5040 123d
000000c0: a45e a0bc 271f 41bd ede0 77bc c848 76bd
000000d0: ef9c f2bb ad7f 0e3d f76c 673d eab1 593d
000000e0: 3274 1bbd 1b57 de3b 6801 2e3d 475f ea3c
000000f0: 3698 eb3c 5247 773d 03bb ccbc 30ea 10bd
00000100: eb32 90bd 8e7c 62bc 18ff 87bd 35d5 93bc
00000110: 665c 0d3d 50a3 473b b6bb 8abd a397 243b
00000120: e303 a53d 0434 fb3b d68b d2bc 1e8b 98bc
00000130: bdf9 1bbd 1b05 9e3d b1f4 48bc ab81 0abd
00000140: 125d 9bbb 3d82 efbc 9292 58bd fd23 00bc
00000150: 7104 5abb 450d 03be 7044 8e39 78b7 ee3a
00000160: 2de1 b53c 763c b8bc 9d4d 613d 9d2e ea3c
00000170: 8798 02bd 4b32 333b 69ae babb 79c6 b53c
00000180: 73a2 24bd e036 43bd 26d0 a23d d6fd 1abc
00000190: d580 a4bd d42d d73d 733c 26bd ff2c e93b
000001a0: 7cef d8bc 8836 233c 10c6 33bd e087 71bd
000001b0: d03a 0abd 7cb9 3bbd 2469 f0bb d0a0 12bc
000001c0: 0626 a8bc 64f9 8e3b a30d 053d 8f08 37bd
000001d0: bbfb f3bc 790b 19bd 1e0c 133c 3402 613c
000001e0: 281d 1e3c 218d 363d e262 373d 01d8 c33a
000001f0: e888 11bb a0dd 433d 1311 303d a8ec d13b
00000200: 3eca 85ba 26bc 47bd 02fb bc3b 325a 253b
00000210: 4642 243c 7117 6c3c 6d65 55bc 7f41 69bc
00000220: 4b30 cebd fdf5 68bd 7f87 d8bc aadd 1dbe
00000230: 0d48 32bc 38bb ba3b 49d7 0c3c b2a6 373d
00000240: 7d31 af3a d698 4f3d aca3 933c 4810 e63c
00000250: 4d47 3f3c 5f84 bd3c d362 a7bd f0e7 a93b
00000260: 6a4f 243d 0fec babc b5a5 ca3c 27e0 92bc
00000270: f462 6dbb 4ef8 173d 126a 273c 068f 913c
00000280: fc98 5f3d e48f 683d 1e85 94bd 653f 88bd
00000290: 9ede 5fbb 508e f2bb 37ce 1cbd a100 bcbb
000002a0: c8bb 293c 7857 0cbd 24ef f43c 0119 ccbc
000002b0: 3f17 c23d 68c4 293c c8be 333c 30d3 28bd
000002c0: 6752 c33c ad7d 003b 071d 1abc 7710 76bd
000002d0: 77e1 9f3d 44f4 48bd 64bd c7bd 76b4 a2bd
000002e0: eccc 5dbc dde9 713c 14a7 1f3d bd6c 403b
000002f0: 1422 37bc ec2b 33bd d5cc dd3b 0951 63bd
00000300: 358b 8ebd 224a 75bc eddc b2bd c70e b83d
00000310: 41e8 be3c 3c90 22bd 9164 10bd 5f5c f8bc
00000320: 6b9d a33b 7b6b fdbc 4a6a 3bba b472 1bbd
00000330: 49ac 8dbd 1b38 cf3c 63c3 babc 007d 72ba
00000340: 5aee d6bc efd0 b23d 0901 5a39 3f5b 103d
00000350: b548 3cbb 34cd b1bc 09d0 3ebc a473 42bd
00000360: ee3e 46bd 0b9a 883c 5477 0fbd 85f0 8c3a
00000370: eea5 58bd 67a7 37bc 6b20 753d 57e7 473b
00000380: 1b26 dd3d f767 863c d74e cf3d a076 5c3b
00000390: 5ac1 12bd 38b0 e4bb 9ddd 263d ab87 61bc
000003a0: 8626 203d d4e9 9fbc 0cdf 6f3d abe7 ac3c
000003b0: c139 0a3d b5d8 27bc 2708 c4bc da3d a93c
000003c0: a70a 943c 532d 76bc 9899 123d 54ac e43c
000003d0: 55a1 75bc c2cb 863c 7e1c 733d 00fd bdbd
000003e0: 2fbb 8abb 1811 95bd 725c 363a 5e79 92bc
000003f0: c58e 853c f48d 6e3d f58a e13c 650a 37bd

a2c_network.actor_mlp.2.weight f4 [128, 256]
-0.029953958 0.051780153 -0.04520181 -0.054860447 0.015443888 0.050224595 -0.02357822 0.07538318
-0.021800414 0.06426392 0.07311953 -0.061076045 -0.07384002 0.022957016 0.0023954671 0.03227102
-0.08396173 0.07722037 -0.034101017 0.0022257436 -0.017260397 0.00364511 -0.07441677 -0.005281155
-0.006860538 0.05169152 -0.0056440714 -0.120459415 0.011363715 -0.100989 0.051599856 -0.06484562
0.078394465 -0.009080452 0.06586106 -0.008608538 -0.07573552 -0.05249464 -0.009096642 -0.07143368
0.032823693 0.0036771088 -0.011542761 0.035787996 -0.09674274 -0.038249746 0.037141126 0.034476425
-0.033571362 -0.03316903 0.09275649 0.060678475 0.036860876 0.0043238197 -0.093549214 0.027533172
0.061923433 -0.11741788 -0.029626478 -0.17126942 -0.03784285 -0.032850455 -0.030292165 0.04533888
0.030681226 0.026435848 -0.0034802016 -0.029926047 0.022479665 -0.10327126 0.048312776 -0.0614111
-0.067438446 -0.027230488 -0.034088533 0.08816939 0.051323004 -0.041490026 -0.033366732 -0.019341597
0.079969324 -0.063800186 0.018484091 0.060289625 0.061423257 -0.017232763 0.0059460653 -0.002425643
-0.06974308 -0.06895316 -0.027065717 -0.04330575 0.044428676 0.01562777 0.07746653 -0.0068895244
0.029842397 0.022977933 0.028569197 9.956465e-05 -0.0043382375 0.010208291 0.044478666 0.022049967
0.0078049065 -0.055939287 0.001774687 0.037344147 -0.012906498 -0.023460517 0.012194112 -0.0046334364
0.014166284 0.04708051 -0.0659703 -0.048588548 0.019232498 0.0096172895 -0.046749342 0.008099001
0.013099531 -0.037148114 -0.017674768 0.005344796 0.09276917 -0.094816655 -0.021090558 -0.10020928
0.066527046 -0.03430105 0.054969408 -0.004308207 -0.01891349 0.010157725 0.009403267 -0.02021562
-0.022262806 0.080747575 0.1462095 -0.0032237926 -0.055068124 -0.046796944 -0.048626285 -0.091615796
-0.010860164 -0.034181528 0.02462132 -0.038050592 0.028695472 -0.024953822 0.027114414 -0.02820728
-0.005195609 0.07280105 -0.020177728 0.06922049 -0.06574508 -0.031695604 -0.08588953 -0.07793263
-0.12257187 0.043493174 -0.025995547 0.043661233 0.053559113 0.02896398 -0.0065562096 0.081820324
0.08113315 0.026064128 -0.02060466 0.029354269 0.03904746 -0.012167899 0.026015917 -0.0510995
-0.021646913 -0.030343529 -0.07430687 0.061721254 -0.003576982 -0.051595658 -0.029841298 0.0020759797
-0.066502325 0.0043039564 0.096139096 0.009513088 -0.009566816 -0.033112165 -0.087124206 0.03621238
-0.0070702014 0.06063058 -0.048683707 0.08704909 -0.0066067497 0.01802075 0.07419348 -0.026280506
0.09019308 0.059689585 0.0407838 0.03229749 -0.08502222 -0.045922868 0.011312655 0.033263296
0.04826781 0.010154362 0.067432426 -0.114286005 0.011125273 -0.033187386 -0.0077293874 0.037356425
0.08167224 -0.00039331074 0.069073595 -0.038763788 -0.0075131156 0.039376557 0.051149756 0.040083613
-0.05885198 0.013739782 -0.020413449 0.0049841776 -0.052976187 -0.034652047 0.019118633 0.107426584
0.05868574 0.035430964 0.041598655 0.08567913 -0.069800735 0.001575573 0.012279386 0.10285167
-0.016341956 -0.0007877782 -0.015455289 -0.0641452 0.16360785 -0.07364756 -0.026854575 0.03264002
-0.10986778 -0.083458014 0.035487767 0.094596565 -0.02752358 0.050457355 0.07278645 0.011400755
00000000: 0162 f5bc 6d17 543d 8825 39bd 59b5 60bd
00000010: 5c08 7d3c 4eb8 4d3d 1c27 c1bc 7f62 9a3d
00000020: c896 b2bc cd9c 833d b1bf 953d e02a 7abd
00000030: 7039 97bd 5a10 bc3c 45fd 1c3b 9e2e 043d
00000040: 21f4 abbd b725 9e3d 82ad 0bbd c8dd 113b
00000050: ad65 8dbc cce2 6e3b d267 98bd 8a0d adbb
00000060: 5dce e0bb 7dba 533d e7f1 b8bb 6db3 f6bd
00000070: e02e 3a3c 52d3 cebd 5f5a 533d c8cd 84bd
00000080: 478d a03d 2dc6 14bc 2ae2 863d d30a 0dbc
00000090: 391b 9bbd 9f04 57bd 150a 15bc d24b 92bd
000000a0: 2372 063d a6fb 703b d91d 3dbc 6f96 123d
000000b0: 0f21 c6bd c4ab 1cbd 4b21 183d 2737 0d3d
000000c0: 2082 09bd 40dc 07bd 1df7 bd3d fe89 783d
000000d0: 6efb 163d d4ae 8d3b bb96 bfbd 3f8d e13c
000000e0: 6da3 7d3d c978 f0bd 3ab3 f2bc 4061 2fbe
000000f0: 1b01 1bbd 338e 06bd 4627 f8bc 43b5 393d
00000100: 3257 fb3c fe8f d83c 1814 64bb 7827 f5bc
00000110: 4627 b83c e27f d3bd 9ee3 453d 358a 7bbd
00000120: 2b1d 8abd 7912 dfbc 6ba0 0bbd 2792 b43d
00000130: 1238 523d 72f1 29bd 8eab 08bd 4572 9ebc
00000140: f5c6 a33d aca9 82bd f36b 973c 41f2 763d
00000150: f496 7b3d b92b 8dbc 36d7 c23b 89f7 1ebb
00000160: 76d5 8ebd 5037 8dbd ecb8 ddbc 5f61 31bd
00000170: d8fa 353d cf05 803c c6a6 9e3d 85c1 e1bb
00000180: 0b78 f43c 383c bc3c f309 ea3c 5dcd d038
00000190: c627 8ebb ad40 273c 432f 363d 22a2 b43c
000001a0: 4dc0 ff3b 9820 65bd 9d9c e83a 2df6 183d
000001b0: c775 53bc 4530 c0bc d0c9 473c 15d4 97bb
000001c0: b419 683c 7ed7 403d 701b 87bd c904 47bd
000001d0: 798d 9d3c d691 1d3c 3d7c 3fbd acb1 043c
000001e0: 6a9f 563c 9f28 18bd adca 90bc 6623 af3b
000001f0: c3fd bd3d 3c2f c2bd 1bc6 acbc 863a cdbd
00000200: 553f 883d 427f 0cbd 9a27 613d dc2b 8dbb
00000210: 77f0 9abc 966c 263c 2910 1a3c 3a9b a5bc
00000220: 7d60 b6bc fc5e a53d f1b7 153e 4446 53bb
00000230: 1d8f 61bd 27ae 3fbd 5b2c 47bd 10a1 bbbd
00000240: d4ee 31bc ee01 0cbd a7b2 c93c f0da 1bbd
00000250: c412 eb3c f56b ccbc 0c1f de3c f412 e7bc
00000260: ed3f aabb b818 953d c34b a5bc 79c3 8d3d
00000270: 5ba5 86bd 40d3 01bd dae6 afbd 259b 9fbd
00000280: f606 fbbd e625 323d 9df4 d4bc 1fd6 323d
00000290: cd60 5b3d de45 ed3c 79d5 d6bb 6a91 a73d
000002a0: 2329 a63d 7084 d53c 1bcb a8bc 5d78 f03c
000002b0: 3bf0 1f3d de5b 47bc 551f d53c b64d 51bd
000002c0: de54 b1bc fe92 f8bc 332e 98bd 6dcf 7c3d
000002d0: cd6b 6abb f855 53bd bd75 f4bc 290d 083b
000002e0: 5f32 88bd 3408 8d3b 93e4 c43d c8dc 1b3c
000002f0: 22be 1cbc 9fa0 07bd 2d6e b2bd 6f53 143d
00000300: 26ad e7bb c557 783d 9168 47bd cb46 b23d
00000310: 6f7d d8bb 40a0 933c c0f2 973d 374a d7bc
00000320: 26b7 b83d 117d 743d ea0c 273d 5f4a 043d
00000330: 2120 aebd 9e19 3cbd b758 393c 183f 083d
00000340: 78b4 453d 7b5e 263c 031a 8a3d c80e eabd
00000350: c746 363c 7fef 07bd cd46 fdbb 0d03 193d
00000360: c643 a73d 4635 ceb9 7576 8d3d c7c6 1ebd
00000370: 9530 f6bb 5049 213d 6882 513d b72e 243d
00000380: c60e 71bd d31c 613c 1b3a a7bc 5052 a33b
00000390: 8ffd 58bd 4eef 0dbd ae9e 9c3c 7802 dc3d
000003a0: 7560 703d 0f20 113d 5a63 2a3d 8a78 af3d
000003b0: b0f3 8ebd 7583 ce3a 7a2f 493c e5a3 d23d
000003c0: 91df 85bc e682 4eba 2e38 7dbc 8f5e 83bd
000003d0: d188 273e 88d4 96bd 20fe dbbc 8bb1 053d
000003e0: 5c02 e1bd 09ec aabd 9f5b 113d d8bb c13d
000003f0: 2179 e1bc 5fac 4e3d 1011 953d 3bca 3a3c

a2c_network.actor_mlp.2.bias f4 [128]
0.01652514 -0.0034410488 0.018953782 -0.052789804 -0.10139135 0.040678762 0.02075631 -0.01452318
-0.007856854 0.0056536095 0.02844086 0.037317064 0.014206792 -0.03239817 0.053787135 -0.061066754
-0.021345872 -0.008683104 -0.07120753 0.018080927 -0.04788774 -0.026366858 -0.009673446 -0.005756943
-0.040240787 -0.014164499 0.0060561844 -0.05024863 -0.013081184 0.026424345 -0.08500714 -0.05099574
0.04108922 0.011003094 -0.02121361 -0.02425095 -0.105012566 -0.030066364 -0.05863396 -0.05396262
-0.0060980874 0.013824375 0.0662923 0.018516736 -0.063739546 -0.011378669 -0.0449514 -0.08464978
9.308526e-05 -0.030901967 0.10540146 -0.017706104 -0.11876031 0.03657456 -0.04105479 0.029022811
0.052652422 0.008608945 0.02026976 0.0014957169 0.016668284 0.066135 -0.08215175 0.03500075
0.028688576 0.00022192497 -0.06308595 0.05071445 0.009457417 0.03454082 0.0036846672 0.033068225
-0.067764506 0.038892407 -0.05598215 0.035486657 0.0081309825 0.004289358 0.0040186457 -0.05892349
0.00033427312 -0.04486084 -0.015800485 0.057207815 0.037947346 -0.024214612 -0.026904333 -0.06401934
-0.005199054 0.031230848 0.008967756 -0.019818427 -0.04342647 -0.0024205581 -0.040014606 0.012692113
0.06048074 -0.030324748 0.010959263 0.007975793 -0.014121288 -0.012555571 -0.0039304392 0.0385605
0.006072467 0.00873768 -0.007322075 0.0057016267 0.035761755 -0.10123973 -0.106499895 0.046634346
-0.07480357 0.013700633 0.042327624 0.01074928 0.011880797 0.030705152 0.00985719 -0.02381199
0.03856416 0.032390244 0.039360516 0.010386316 -0.048609983 0.014263711 0.025603786 -0.07642227
00000000: bb5f 873c 3883 61bb f644 9b3c 1f3a 58bd
00000010: 45a6 cfbd c69e 263d 2309 aa3c a2f2 6dbc
00000020: 09ba 00bc ea41 b93b cefc e83c c7d9 183d
00000030: 9bc3 683c f2b3 04bd e64f 5c3d 2221 7abd
00000040: 8add aebc 9443 0ebc 41d5 91bd 741e 943c
00000050: ef25 44bd 4fff d7bc 607d 1ebc bda4 bcbb
00000060: 86d3 24bd 3712 68bc f572 c63b 82d1 4dbd
00000070: 7652 56bc de77 d83c 3918 aebd e9e0 50bd
00000080: 2c4d 283d 5246 343c 2ac8 adbc eea9 c6bc
00000090: d410 d7bd bc4d f6bc 2a2a 70bd e907 5dbd
000000a0: 77d2 c7bb a27f 623c 42c4 873d 69b0 973c
000000b0: e189 82bd 996d 3abc f61e 38bd dd5c adbd
000000c0: c536 c338 1f26 fdbc b8dc d73d 640c 91bc
000000d0: 9b38 f3bd 35cf 153d 1129 28bd 3fc1 ed3c
000000e0: 11aa 573d 880c 0d3c c50c a63c ee0b c43a
000000f0: ed8b 883c c971 873d 2d3f a8bd f25c 0f3d
00000100: 4e04 eb3c 88b4 6839 3533 81bd f5b9 4f3d
00000110: 48f3 1a3c ad7a 0d3d 757a 713b 8c72 073d
00000120: 1ec8 8abd a54d 1f3d 8a4d 65bd 755a 113d
00000130: d037 053c be8d 8c3b d8ae 833b c259 71bd
00000140: 6141 af39 00c0 37bd 0570 81bc be52 6a3d
00000150: ad6e 1b3d b95d c6bc 7a66 dcbc 921c 83bd
00000160: d35c aabb d6d7 ff3c 7fed 123c 415a a2bc
00000170: f4df 31bd 3aa2 1ebb 5be6 23bd 95f2 4f3c
00000180: a7ba 773d 9b6b f8bc 7b8e 333c e7ac 023c
00000190: fa5c 67bc e2b5 4dbc eaca 80bb 9df1 1d3d
000001a0: 8cfb c63b 7c28 0f3c 04ee efbb b6d4 ba3b
000001b0: eb7a 123d c756 cfbd 9e1c dabd a803 3f3d
000001c0: 9d32 99bd 9f78 603c bb5f 2d3d c01d 303c
000001d0: ada7 423c 5f89 fb3c 0d80 213c 5d11 c3bc
000001e0: 74f5 1d3d a2ab 043d 7e38 213d 5e2b 2a3c
000001f0: 431b 47bd 57b2 693c 08bf d13c 4783 9cbd

a2c_network.actor_mlp.4.weight f4 [64, 128]
-0.0011942239 0.035173066 0.019362887 -0.056395534 -0.021136375 0.11002434 0.025403949 0.07166245
-0.06108833 0.008191677 -0.024424303 -0.04168791 0.00019446586 -0.012176318 -0.094995975 -0.013355168
-0.1044273 0.006328593 -0.027340364 0.06073436 -0.053636607 -0.066160776 -0.024863949 -0.045151375
0.10329744 0.08515617 -0.06356514 -0.0056674974 -0.081970215 0.00081287045 -0.02097266 -0.08287196
0.080962285 0.08309551 -0.061141618 0.0022043253 0.10820026 -0.046432007 0.09797867 -0.10410529
-0.011337408 -0.056032173 -0.08970556 -0.0063058278 -0.04015985 0.021286262 0.02156111 0.06883795
0.008526963 0.08325773 -0.04371997 0.08249147 0.07169478 -0.01097674 -0.02907254 0.081800856
0.0895068 -0.06976392 0.033133738 -0.05248174 -0.019405445 0.009409348 0.04242548 -0.03356565
-0.02614353 -0.05731045 0.15627597 -0.0012457051 0.08827516 0.09103766 -0.1175779 0.09541438
-0.13525479 -0.027703123 -0.035801843 0.10370165 -0.05883482 0.018899592 0.06253214 -0.022476222
0.07379196 0.001752388 -0.06660777 -0.008049794 0.06415749 -0.15194021 0.053137287 -0.0065212785
0.06349003 0.034015857 -0.038238663 0.02479676 0.04305623 -0.11538424 -0.18078971 0.043034595
0.0153495865 -0.048619792 -0.064960614 -0.0016740275 0.033087354 0.029791826 0.044843826 -0.057512116
-0.07489662 0.12827148 0.06598134 -0.007604842 -0.003492244 0.009821355 -0.032316327 0.1514625
-0.090784974 0.08406396 0.03396916 0.02335127 0.035439167 -0.044475168 0.0030807138 -0.015114893
0.062115572 -0.08017448 0.0803847 -0.0068710735 0.076207235 0.059571207 0.052596513 -0.03300344
-0.06402105 0.07746932 0.030182416 -0.1531295 -0.036074713 -0.051587086 -0.04340067 0.08929348
-0.056437053 -0.04211319 -0.014912622 -0.050362118 0.062382113 -0.038523566 -0.078458354 -0.07807308
-0.090538 0.012556334 -0.0280797 0.042864922 -0.00064612314 -0.013934781 0.040430892 0.032721546
0.15347575 -0.05380024 -0.071751535 -0.026276842 0.035731755 -0.036421653 0.009443799 0.09099673
0.0025227556 0.021548802 0.060815927 -0.009367794 0.014164207 0.075752184 -0.043005034 0.0065994645
-0.0030637786 0.025717497 -0.07862617 -0.018585872 0.0006650118 -0.082272515 0.017518234 0.11608567
0.05997952 0.0676344 0.052761387 -0.042267594 -0.0496534 -0.029421037 0.097569056 0.026109342
0.06480712 -0.12386662 0.07395551 0.09334798 -0.08701275 -0.074720204 0.036240846 -0.11652812
-0.073503375 -0.030754527 -0.04090937 -0.076338276 -0.08491167 -0.11903513 -0.09595208 -0.12172645
-0.06408578 -0.013117826 -0.135822 0.0615005 0.030190492 -0.057773784 -0.017234523 -0.07203467
0.071662664 0.037037797 0.020368347 -0.036306065 0.06733859 -0.053259507 -0.0073891073 -0.025016466
0.021315707 0.057714432 -0.060293213 -0.11928808 -0.050310727 0.010835211 -0.05329611 -0.113264434
-0.030955711 0.022668121 0.062858015 -0.009751434 -0.049349412 -0.03337104 0.004643 -0.073069915
0.09100163 0.02679137 0.05050341 0.034752272 0.013792146 -0.09425907 -0.1366556 0.08800732
-0.0059462697 0.008473056 0.050952554 0.0010863728 0.097102575 0.039071638 -0.123351984 -0.0918504
-0.10048757 0.04448623 0.01804387 -0.00072555064 0.0013768112 0.07243022 0.00034540048 0.09769893
00000000: 8187 9cba a211 103d eb9e 9e3c 01ff 66bd
00000010: 3126 adbc 7154 e13d f11b d03c c3c3 923d
00000020: c237 7abd 6236 063c 7a15 c8bc f1c0 2abd
00000030: 88e9 4b39 2e7f 47bc 408d c2bd a2cf 5abc
00000040: fbdd d5bd 1660 cf3b e6f8 dfbc 98c4 783d
00000050: 0fb2 5bbd 4d7f 87bd 7baf cbbc a6f0 38bd
00000060: 9c8d d33d 5c66 ae3d 712e 82bd 6ab6 b9bb
00000070: 00e0 a7bd d016 553a dbce abbc c6b8 a9bd
00000080: 8ecf a53d fb2d aa3d a26f 7abd 7176 103b
00000090: 1998 dd3d 7d2f 3ebd 0aa9 c83d 2735 d5bd
000000a0: 89c0 39bc fe81 65bd 8cb7 b7bd 1ea1 cebb
000000b0: a87e 24bd 8760 ae3c eda0 b03c e9fa 8c3d
000000c0: adb4 0b3c 0783 aa3d b613 33bd 4af1 a83d
000000d0: b6d4 923d c9d7 33bc 8929 eebc 3587 a73d
000000e0: 574f b73d 63e0 8ebd 3eb7 073d 18f7 56bd
000000f0: 2bf8 9ebc aa29 1a3c 57c6 2d3d 237c 09bd
00000100: f52a d6bc 5dbe 6abd cf06 203e ed46 a3ba
00000110: 9bc9 b43d f471 ba3d afcc f0bd 9d68 c33d
00000120: 3b80 0abe a9f1 e2bc f4a4 12bd 8861 d43d
00000130: c8fc 70bd 51d3 9a3c da10 803d 0e20 b8bc
00000140: 3d20 973d 62b0 e53a a869 88bd 48e3 03bc
00000150: 0165 833d 3796 1bbe 7ca6 593d 73b0 d5bb
00000160: 1007 823d 3654 0b3d 25a0 1cbd 9322 cb3c
00000170: bb5b 303d 934e ecbd f020 39be 0b45 303d
00000180: d57c 7b3c 8c25 47bd 120a 85bd 0b6b dbba
00000190: 9b86 073d fd0d f43c 29ae 373d d391 6bbd
000001a0: 6663 99bd 9959 033e 3a21 873d 0a32 f9bb
000001b0: 22de 64bb c0e9 203c 205e 04bd fc18 1b3e
000001c0: 79ed b9bd ba29 ac3d 3f23 0b3d 2a4b bf3c
000001d0: a928 113d 982b 36bd cde5 493b 75a4 77bc
000001e0: e66c 7e3d 8532 a4bd bca0 a43d be26 e1bb
000001f0: 8a12 9c3d f000 743d 716f 573d 9d2e 07bd
00000200: 781d 83bd 3ca8 9e3d 1d41 f73c fbcd 1cbe
00000210: 14c3 13bd fb4c 53bd e7c4 31bd 80df b63d
00000220: 8a2a 67bd e17e 2cbd 1254 74bc 8248 4ebd
00000230: 6384 7f3d e3ca 1dbd c6ae a0bd c7e4 9fbd
00000240: fd6b b9bd 15b9 4d3c 6607 e6bc 2193 2f3d
00000250: 9760 29ba b54e 64bc dd9a 253d 0707 063d
00000260: bf28 1d3e a45d 5cbd 78f2 92bd 8842 d7bc
00000270: 765b 123d df2e 15bd 2aba 1a3c 7e5c ba3d
00000280: d154 253b 1d87 b03c 1f1a 793d 607b 19bc
00000290: fd10 683c f623 9b3d 0c26 30bd 5240 d83b
000002a0: adc9 48bb 80ad d23c c206 a1bd 6641 98bc
000002b0: 3054 2e3a 7e7e a8bd 6682 8f3c 53be ed3d
000002c0: 16ad 753d e883 8a3d 531c 583d c920 2dbd
000002d0: 5d61 4bbd 6304 f1bc 49d2 c73d 42e3 d53c
000002e0: 98b9 843d c8ad fdbd fd75 973d 3a2d bf3d
000002f0: be33 b2bd e806 99bd 4871 143d 4ca6 eebd
00000300: f088 96bd ebf0 fbbc 9590 27bd 3e57 9cbd
00000310: 2be6 adbd b1c8 f3bd 8682 c4bd b84b f9bd
00000320: 683f 83bd 26ec 56bc ec14 0bbe f3e7 7b3d
00000330: 0d52 f73c 34a4 6cbd 6a2f 8dbc ea86 93bd
00000340: e0c3 923d f2b4 173d 85db a63c abb5 14bd
00000350: d1e8 893d a426 5abd 5320 f2bb 55ef ccbc
00000360: 479e ae3c f865 6c3d 04f6 76bd 4f4d f4bd
00000370: 9f12 4ebd 2b86 313c 064d 5abd 2ff7 e7bd
00000380: d596 fdbc 7fb2 b93c b4bb 803d 7bc4 1fbc
00000390: 9c22 4abd 12b0 08bd 4f24 983b aea5 95bd
000003a0: 105f ba3d 9379 db3c aadc 4e3d 6658 0e3d
000003b0: 74f8 613c e60a c1bd 72ef 0bbe 2f3d b43d
000003c0: edd8 c2bb 93d2 0a3c a0b3 503d 9f64 8e3a
000003d0: b7dd c63d 9509 203d f79f fcbd 101c bcbd
000003e0: 6dcc cdbd 3137 363d bdd0 933c e132 3eba
000003f0: 1e76 b43a 4c56 943d de16 b539 6016 c83d

a2c_network.actor_mlp.4.bias f4 [64]
0.013605546 -0.062367696 0.04465047 0.023714941 -0.030231712 -0.047514956 -0.06660795 -0.07440288
-0.015055143 -0.08034511 -0.07977966 0.05088818 0.02934677 -0.08214806 -0.07449208 0.026978247
-0.053795334 -0.036789253 0.07422663 -0.027402101 -0.06937916 -0.09220853 -0.09333855 -0.011584397
0.04854847 -0.017249923 -0.059633818 0.023572339 0.0701317 -0.056896467 -0.13728005 -0.025024481
-0.039432492 0.0046165762 0.001322288 -0.08383992 -0.079498366 0.024651678 -0.014485835 -0.020404443
0.029115522 0.01996988 -0.06931959 -0.0035842287 -0.06958426 -0.15099844 0.036571734 -0.014666577
-0.08814798 -0.050472137 0.049792275 -0.060228385 0.025591455 -0.08306987 0.02673006 -0.061126277
-0.023400422 0.03950805 -0.05682316 -0.056094542 0.03278076 -0.07895757 -0.078970075 -0.04061855
00000000: cce9 5e3c 4575 7fbd 69e3 363d d645 c23c
00000010: 7fa8 f7bc 0b9f 42bd c069 88bd 8a60 98bd
00000020: d9a9 76bc fa8b a4bd 8563 a3bd 2070 503d
00000030: a368 f03c 3e3d a8bd 4e8f 98bd 7c01 dd3c
00000040: 7f58 5cbd 54b0 16bd 2204 983d 5f7a e0bc
00000050: a916 8ebd d3d7 bcbd 4828 bfbd 7ccc 3dbc
00000060: c3da 463d b64f 8dbc 9742 74bd c71a c13c
00000070: 35a1 8f3d 450c 69bd 2493 0cbe 2400 cdbc
00000080: f783 21bd a646 973b 9f50 ad3a 44b4 abbd
00000090: 0ad0 a2bd 51f2 c93c ff55 6dbc 3827 a7bc
000000a0: ad83 ee3c e097 a33c 6ef7 8dbd 61e5 6abb
000000b0: 3182 8ebd 569f 1abe 3ecc 153d 154c 70bc
000000c0: ee86 b4bd dfbb 4ebd fcf2 4b3d 0ab2 76bd
000000d0: 2ca5 d13c 8920 aabd 00f9 da3c 8c5f 7abd
000000e0: 3eb2 bfbc 31d3 213d 67bf 68bd 64c3 65bd
000000f0: 1e45 063d 82b4 a1bd 10bb a1bd a35f 26bd

a2c_network.value.weight f4 [1, 64]
0.07178768 -0.0033914836 0.012096133 0.11973832 -0.05807296 0.0044276277 0.0019403961 -0.003521948
-0.014878395 -0.06769843 0.008642249 0.04352276 0.008478375 0.0026668222 -0.029550483 -0.01991487
-0.08386045 -0.051372465 0.068588585 -0.027258595 -0.12102281 -0.029655486 0.004529091 0.0002260328
-0.027992913 0.032669194 -0.05687952 0.0293187 0.00850236 -0.113141 -0.040718224 -0.009398187
-0.10404557 -0.0013494464 -0.023072788 -0.02906981 -0.14888372 0.055281047 0.018062815 -0.018884638
0.05403029 -0.01072681 -0.03476108 0.03314071 0.048678137 0.009574803 0.0546744 -0.068757206
-0.062499925 -0.09697361 0.008761078 -0.07180791 0.08196628 -0.03587333 0.020822363 0.0035882469
0.06506461 0.054395106 -0.01718926 -0.10903352 0.10935963 -0.11843009 0.002957411 0.003697379
00000000: 6b05 933d a743 5ebb dc2e 463c 5d39 f53d
00000010: e9dd 6dbd a215 913b e454 fe3a 7bd0 66bb
00000020: 83c4 73bc 79a5 8abd 3898 0d3c ec44 323d
00000030: e2e8 0a3c dac5 2e3b db13 f2bc 8224 a3bc
00000040: 07bf abbd ef6b 52bd 2c78 8c3d 6b4d dfbc
00000050: cfda f7bd 10f0 f2bc c568 943b 3803 6d39
00000060: 6551 e5bc 22d0 053d 80fa 68bd c52d f03c
00000070: 7c4d 0b3c 78b6 e7bd 27c8 26bd dafa 19bc
00000080: d815 d5bd e8df b0ba 2503 bdbc cf23 eebc
00000090: f974 18be 616e 623d 78f8 933c f5b3 9abc
000000a0: de4e 5d3d 81bf 2fbc a261 0ebd 8ebe 073d
000000b0: ba62 473d a2df 1c3c 43f2 5f3d 94d0 8cbd
000000c0: ecff 7fbd 1a9a c6bd a08a 0f3c 0710 93bd
000000d0: f0dd a73d eaef 12bd a993 aa3c cb28 6b3b
000000e0: 9840 853d 67cd 5e3d 7ed0 8cbc f74c dfbd
000000f0: f1f7 df3d 7a8b f2bd 20d1 413b ba4f 723b

a2c_network.mu.weight f4 [8, 64]
0.009850488 -0.010188014 -0.14122334 0.054646734 0.027640022 0.03578802 -0.11012173 0.014194369
-0.063943624 0.039467543 -0.09868433 0.0060306336 -0.0222447 -0.07427391 0.18156594 -0.040813383
0.10436426 0.06955013 0.021863924 -0.1279899 0.06818621 0.048333216 0.124167494 -0.14847866
-0.055362854 0.06879429 0.069681615 0.16220269 -0.09871701 0.066830195 -0.012653154 -0.07279617
-0.09306345 0.16397667 0.08455443 0.15720409 -0.06455262 0.05818784 -0.011976681 -0.096339345
0.017595528 0.10403586 0.107543014 -0.03190119 -0.026147367 0.059456 -0.003757449 -0.12293034
0.02818207 0.11523358 -0.06489516 0.034318306 0.036060475 0.013779989 -0.08991072 0.045269355
-0.053619355 -0.16854261 0.10191319 -0.17743993 -0.006900775 0.04023808 0.00084244926 0.111787125
0.018601472 -0.055171948 -0.0787944 0.02371076 -0.022300053 -0.09346682 -0.016912026 0.15758832
-0.07252707 -0.023698218 -0.03325821 -0.053412303 -0.07191005 -0.055261955 0.020698193 -0.013350311
-0.14857866 0.03318592 -0.038540684 0.048076387 0.12247858 0.13329086 0.07768838 -0.012344814
-0.04139005 0.11851299 -0.07299641 -0.08051554 0.12669952 0.0426664 0.03847762 -0.007687421
0.046609167 0.07731844 0.08072635 -0.009056234 -0.0056314743 0.12238094 0.064258985 -0.067462884
0.005787577 -0.038751274 -0.13905907 0.08418246 -0.022357056 0.09303058 -0.09707265 -0.032937117
-0.004656095 0.091006786 0.11987819 -0.010791469 -0.1306023 0.04200912 0.16450042 0.19292255
-0.09323963 -0.03651819 0.07356393 -0.03686065 0.04200758 -0.058782663 0.049824476 0.12991281
0.024222812 0.028947717 -0.052142624 -0.037734106 -0.060663655 0.14017223 0.07634677 0.083557494
-0.04562375 -0.022493543 0.008211384 -0.12725626 0.060438197 0.10569832 -0.070865616 -0.046647385
-0.22486228 -0.11628601 -0.08712938 -0.02933723 0.05647524 0.011979996 0.11576927 0.05242755
-0.036020473 0.1200797 -0.007282745 -0.029843094 -0.1301152 -0.033439882 0.111863516 -0.010672424
-0.15360183 -0.063896455 -0.08540408 0.145868 -0.044319034 0.07324088 -0.008110977 -0.17109378
-0.036294717 -0.051294893 -0.06466159 0.049787913 0.12749147 0.095905244 0.104152694 0.011491846
0.11226557 -0.07452415 -0.07978104 -0.07504315 -0.08217717 0.09974881 -0.026154522 -0.02550136
0.10250159 0.07653277 -0.077329494 -0.07213805 0.05069939 0.024453472 0.26822606 -0.08367542
-0.09338611 -0.051692523 -0.085378215 -0.035919838 0.08569825 0.04841878 -0.07310265 -0.05189732
-0.038347147 -0.0383766 -0.0731965 0.0796861 0.04305027 -0.11320935 -0.01353421 0.06533957
-0.044998087 0.14132528 0.10427287 -7.1537455e-05 0.023819169 0.039321132 0.00557357 0.046914376
0.014934851 0.027802648 0.046178084 0.056090664 0.09608985 0.055459224 -0.043734938 -0.04003336
-0.019795738 -0.12177061 -0.12111383 0.01659398 -0.055908926 0.054143075 0.058242343 0.022586018
-0.021841213 -0.013221146 0.10665167 0.08270884 0.08603929 0.04752144 0.04106383 0.02617215
0.03701904 0.01531846 0.03943837 0.05048057 -0.13661113 -0.12937398 -0.038052745 0.09123652
0.0071877833 0.06547602 -0.044733956 -0.0009142109 0.04979655 -0.1223238 -0.030572174 -0.014239392
00000000: f163 213c a1eb 26bc da9c 10be 41d5 5f3d
00000010: 546d e23c 7596 123d 8087 e1bd 808f 683c
00000020: e0f4 82bd b8a8 213d 031b cabd 9f9c c53b
00000030: 843a b6bc eb1c 98bd 6cec 393e ef2b 27bd
00000040: eebc d53d 4c70 8e3d f91b b33c c90f 03be
00000050: 36a5 8b3d 0df9 453d 874b fe3d ca0a 18be
00000060: 29c4 62bd 05e4 8c3d 3cb5 8e3d 7618 263e
00000070: 252c cabd 45de 883d 2d4f 4fbc 2916 95bd
00000080: 0d98 bebd 80e9 273e df2a ad3d 1cfa 203e
00000090: 2a34 84bd 5f56 6e3d d739 44bc 904d c5bd
000000a0: 7f24 903c c110 d53d 833f dc3d d2aa 02bd
000000b0: 0133 d6bc 2288 733d 893f 76bb e7c2 fbbd
000000c0: 16de e63c 95ff eb3d c1e7 84bd 5a91 0c3d
000000d0: 26b4 133d 77c5 613c 1d23 b8bd 5c6c 393d
000000e0: f89f 5bbd 6f96 2cbe ddb7 d03d d0b2 35be
000000f0: e51f e2bb afd0 243d d0d7 5c3a a6f0 e43d
00000100: 1d62 983c fbfb 61bd f55e a1bd 113d c23c
00000110: 9aae b6bc 886b bfbd 178b 8abc d55e 213e
00000120: 1389 94bd c422 c2bc c339 08bd dcc6 5abd
00000130: 9445 93bd 5c5a 62bd 428f a93c 43bb 5abc
00000140: 0125 18be f6ed 073d d6dc 1dbd bfeb 443d
00000150: 0dd6 fa3d 667d 083e 161b 9f3d e741 4abc
00000160: 9d88 29bd f0b6 f23d 247f 95bd 55e5 a4bd
00000170: 85bd 013e f7c2 2e3d b59a 1d3d c3e6 fbbb
00000180: 41e9 3e3d 2159 9e3d db53 a53d 9960 14bc
00000190: 3b88 b8bb dca2 fa3d 379a 833d fb29 8abd
000001a0: b7a5 bd3b a8b9 1ebd 8065 0ebe db67 ac3d
000001b0: 2526 b7bc d186 be3d 07ce c6bd 12e9 06bd
000001c0: 2892 98bb c461 ba3d b282 f53d b4ce 30bc
000001d0: 9cbc 05be c111 2c3d cc72 283e 7d8d 453e
000001e0: 6bf4 bebd 1994 15bd b0a8 963d 31fb 16bd
000001f0: 2410 2c3d 17c6 70bd c014 4c3d dd07 053e
00000200: eb6e c63c c323 ed3c 8193 55bd 148f 1abd
00000210: 747a 78bd 4f89 0f3e b25b 9c3d 3120 ab3d
00000220: f8df 3abd 6144 b8bc 0a89 063c 774f 02be
00000230: 0b8e 773d 5c78 d83d fe21 91bd 5411 3fbd
00000240: 4c42 66be 5c27 eebd e370 b2bd a154 f0bc
00000250: 9552 673d bf47 443c 7018 ed3d 45be 563d
00000260: 348a 13bd 59ec f53d 18a4 eebb 8179 f4bc
00000270: eb3c 05be 42f8 08bd b318 e53d 64db 2ebc
00000280: cc49 1dbe 25dc 82bd 56e8 aebd 6c5e 153e
00000290: e087 35bd 51ff 953d e7e3 04bc 3533 2fbe
000002a0: c5a9 14bd 981a 52bd 4c6d 84bd 69ee 4b3d
000002b0: 208d 023e f869 c43d 024e d53d 4c48 3c3c
000002c0: 7eeb e53d 1ea0 98bd 3e64 a3bd 39b0 99bd
000002d0: 814c a8bd 1b49 cc3d 0242 d6bc 3ae8 d0bc
000002e0: 5bec d13d 37bd 9c3d ed5e 9ebd 1dbd 93bd
000002f0: 2aaa 4f3d a652 c83c ed54 893e 055e abbd
00000300: 3841 bfbd 8abb 53bd c6da aebd ae20 13bd
00000310: 9082 af3d c552 463d d8b6 95bd 4992 54bd
00000320: e611 1dbd c830 1dbd 0ce8 95bd 7732 a33d
00000330: 7b55 303d 4eda e7bd 97be 5dbc c1d0 853d
00000340: ea4f 38bd 93b7 103e 048d d53d 6106 96b8
00000350: 6b20 c33c 320f 213d 7ea2 b63b 4a29 403d
00000360: 4eb1 743c 61c2 e33c 3b25 3d3d 53bf 653d
00000370: c1ca c43d 3629 633d 6823 33bd 05fa 23bd
00000380: ac2a a2bc df62 f9bd 870a f8bd 19f0 873c
00000390: c200 65bd 21c5 5d3d 868f 6e3d 5006 b93c
000003a0: 58ec b2bc 819d 58bc 316c da3d 4163 a93d
000003b0: 5e35 b03d d7a5 423d 8c32 283d fa66 d63c
000003c0: 47a1 173d 47fa 7a3c 218a 213d b7c4 4e3d
000003d0: cae3 0bbe 9d7a 04be 32dd 1bbd 36da ba3d
000003e0: 7f87 eb3b 4b18 863d f43a 37bd a8a7 6fba
000003f0: 78f7 4b3d e784 fabd 7f72 fabc 574c 69bc

a2c_network.mu.bias f4 [8]
-0.10317551 -0.086922556 -0.040738422 0.064635366 -0.06350787 0.016466059 -0.12675127 -0.039516635
00000000: af4d d3bd 7404 b2bd 55dd 26bd 8c5f 843d
00000010: 6a10 82bd d4e3 863c 16cb 01be 32dc 21bd

exp_avg f4 [8]
0.0009893454 0.00132657 0.0040477556 0.005305031 0.009277374 0.007142838 0.005663802 0.0038886631
00000000: ecac 813a 4ee0 ad3a 09a3 843b d3d5 ad3b
00000010: 2000 183c 780e ea3b 6a97 b93b f1d8 7e3b

exp_avg_sq f4 [8]
5.7334906e-05 8.186029e-05 5.219843e-05 5.6818353e-05 5.7008e-05 8.651807e-05 6.482729e-05 6.879684e-05
00000000: e37a 7038 69ac ab38 a3ef 5a38 3e50 6e38
00000010: e01b 6f38 0971 b538 e3f3 8738 0647 9038
