runs/Ant_31-18-32-45/nn/last_Ant_ep_400_rew_5573.6.pth (torch, 705771 bytes, 36 tensors)

value_mean_std.running_mean f8 [1]
0	0x4012a87f74f642c2	4.664548709421696

value_mean_std.running_var f8 [1]
0	0x40140b3d27b75ae9	5.010975475851162

value_mean_std.count f8 []
0	0x4189000008000000	52428801.0

running_mean_std.running_mean f8 [60]
0	0x3fe3b7c806b35701	0.6161842470998807
1	0x40101ba349d85262	4.0269900835306505
2	0xbfecdc15f405a00b	-0.9018659368566672
3	0xbfe660624fa8d58e	-0.6992656284189012
4	0x3fa4a6d6eacd8aec	0.040335384523833756
5	0x3f01a40575fd6d84	3.3646980908764854e-05
6	0xbf98499998d0e55f	-0.02371826167311519
7	0x40034accc7da5e31	2.411523400641976
8	0x4011222ac05fe4aa	4.283366208889825
9	0xc0034c1a2c0cbc0d	-2.4121592942606243
10	0x3fed4c059907aa7a	0.9155300129762758
11	0x3fea7c74292b3ac9	0.8276921085433396
12	0xbfde88e0fd903cc8	-0.47710442316106283
13	0xbfdf4f5b154d364c	-0.4892184932731183
14	0xbfc9c589009b2d80	-0.2013407948455601
15	0x3feae4418f7bb75a	0.8403632929236935
16	0xbf96734ea8c16745	-0.02192423729898187
17	0x3fe7555938eb4c06	0.7291685210897192
18	0x3fb9a00e761329ef	0.10009851820647218
19	0xbfe4510bd16ebaff	-0.6348933306197465
20	0x3f97386ed748aed4	0.022676212205779603
21	0x3fad233b13ac032a	0.056909414435727904
22	0x3fa1a56ba0d4d9da	0.034465182669396646
23	0xbfb264ea4f03e4e1	-0.07185234479028992
24	0xbf8c35b655c0d302	-0.01377432297895487
25	0xbfa69a524e5964ed	-0.04414612966929519
26	0xbf6a315ecfbc9029	-0.0031973697458784933
27	0x3fae136903f8b28c	0.05874183820228493
28	0xbfd403a6be927693	-0.312722860437
29	0x3f859c6d2c9dcea3	0.010552266048512953
30	0xbfc553b739d3c830	-0.16661730121228535
31	0xbfa5378da8bb2a71	-0.04143946346956263
32	0xbf5638302c658f3e	-0.0013561697429275844
33	0x3fa13961986746aa	0.033640909055646276
34	0xbfa925a45afaca05	-0.04911531076995249
35	0xbf974691ec346f63	-0.022730140725897196
36	0xbfdc4110a2c5b7ed	-0.4414712514470683
37	0xbfb4404d9cf3bef9	-0.0791061886009138
38	0xbf4ac8d024ff7ac5	-0.0008173958140068263
39	0x3f84ff69deadf9b3	0.010252787693158938
40	0xbfac7dae92727192	-0.055646376969181635
41	0x3f8572828378f425	0.010472316395970857
42	0xbfc6ecdeef00900f	-0.17910372419385154
43	0x3f9e553f10b26702	0.029622064012619916
44	0x3f312f013d77097b	0.0002622011210996683
45	0xbf64f9c986270426	-0.002560514070154801
46	0xbfc12461fe05d5c7	-0.13392281440216733
47	0xbf91f2ea91200dbf	-0.01752821455739961
48	0xbfd43e8356c8b633	-0.3163154933452887
49	0x3fafe64ad4eb553b	0.062303865901109444
50	0xbf3cd515d293dd8e	-0.0004399469640498859
51	0xbf36c15c27c6cf3c	-0.0003472185124124732
52	0xbfcfaa1a4aee5589	-0.24737862261524082
53	0xbfc236745ea76398	-0.14228682157297778
54	0xbfbbda187be13808	-0.10879662537010415
55	0x3fd4a262d15a834b	0.3224112553089539
56	0xbf6d0fff1fe14831	-0.0035476668263436863
57	0x3fba2b088dad04c7	0.10221913775332601
58	0x3f984fbe63a0cdd0	0.023741698103732223
59	0xbfce66a0b04732c8	-0.23750694854097376

running_mean_std.running_var f8 [60]
0	0x3f8a92995822b66f	0.012974927904305404
1	0x40191758d18ec324	6.272799753511922
2	0x40037e0373b463e5	2.4365300216127133
3	0x3fec5eb32f983619	0.8865600518781235
4	0x400ef34a63739336	3.8687942285199837
5	0x401203fd8c52f953	4.503896896900488
6	0x4021725bda64d5b4	8.723357033547337
7	0x401d1cee04d24774	7.278251719793719
8	0x401eaeeb210a0f64	7.670818821181317
9	0x401d1cea31790b1b	7.278237126362707
10	0x3fb2b315e92608f8	0.07304512922386042
11	0x3fbdfdd16a000dd1	0.11715420568366787
12	0x3fdbf97c185eb8a2	0.4371023405063942
13	0x3fd21a228ea42e88	0.2828451531392848
14	0x3fde291225a0bd35	0.4712567679843745
15	0x3fc7c37020ea9a0b	0.18565179450270394
16	0x3fde67cbe15598b2	0.47508522992428504
17	0x3fc85921649f3e49	0.19022004521547078
18	0x3fda6a6fca20972b	0.4127463792705039
19	0x3fcf8317e915a6d6	0.24618815308649883
20	0x400bf6b0e8525076	3.495454611789735
21	0x400922130b23b4b1	3.1416378851195863
22	0x4012e9fb5095fce2	4.728497752337008
23	0x3fe8bba735469b02	0.7729068794768355
24	0x401738f0935f113b	5.805605223348091
25	0x3ff72d21028bc6ca	1.448517808862038
26	0x4001206f64fa47e0	2.1408374680404307
27	0x4002fc9104d470cf	2.373323476536917
28	0x3ff7db21570ed44b	1.4909985924434916
29	0x3fcb850e844b9124	0.21499806842542413
30	0x3feb0563df5fb2c6	0.8444079745073274
31	0x3f94c2a80692e858	0.0202738050472607
32	0x3f113be76d24c256	6.574249281211231e-05
33	0x3f7ad71b4f4660cc	0.006552797964467238
34	0x3fff6cc959e50604	1.9640592109211648
35	0x3fc1629f3754d7a4	0.1358222026989867
36	0x3febaef10154710f	0.8651051546071659
37	0x3f91e7e6884758ea	0.017486192767898347
38	0x3f0dd58c402796b1	5.690416584850972e-05
39	0x3f85c4d4d8fe2c75	0.010629332420441376
40	0x4003eaf7b5e5e6a5	2.489730282858391
41	0x3fc4ef577945f015	0.16355412885229784
42	0x3fec564ec86b7d9c	0.8855356134844672
43	0x3f91c2b9dbc1aec5	0.017344383275868198
44	0x3f14f06a78953a18	7.987642142846146e-05
45	0x3f89c3862ac4cf81	0.012579963855934075
46	0x3fe67c0a9321eec8	0.7026417611773121
47	0x3fc74f91f226f36f	0.1821157867797427
48	0x3fefc6c75754732b	0.9930149751340641
49	0x3f942c35829d4acd	0.019699894043990796
50	0x3f03b3066e57ff09	3.757346511789993e-05
51	0x3f66eb63246d7d8f	0.0027977882740938885
52	0x3fda8c06413ebb58	0.41479641315065896
53	0x3fd6514d6731c0a2	0.34871230199406444
54	0x3fe043109cf7fbe4	0.5081866327089952
55	0x3fd2653acbb01a70	0.2874285687579805
56	0x3fe0fe279d278a5d	0.5310247487471532
57	0x3fd3993343d0e1c7	0.30622560141230476
58	0x3fd950a8b71985ab	0.3955480373461692
59	0x3fd7541974aadb15	0.36450802224446593

running_mean_std.count f8 []
0	0x4179000010000000	26214401.0

a2c_network.sigma f4 [8]
0	0xbf9e679e	-1.2375371
1	0xbfccf6c9	-1.6012813
2	0xbf9d4b56	-1.2288616
3	0xbfa4922b	-1.2857107
4	0xbf9fac09	-1.2474376
5	0xbfd9652f	-1.6984004
6	0xbfa6d628	-1.3034105
7	0xbfb5d1eb	-1.4204687

a2c_network.actor_mlp.0.weight f4 [256, 60]
0	0x3d5ce492	0.05392892
1	0xbe3e235a	-0.18568173
2	0xbc2970eb	-0.010341863
3	0xbd220359	-0.039553974
4	0x3e0d4e5c	0.13799423
5	0x3ce3c6d8	0.027804777
6	0x3e8d6b2e	0.27620834
7	0xbdd31d8f	-0.10308372
8	0xbdbd7421	-0.092506655
9	0xbd4e874c	-0.050421998
10	0x3de8d30a	0.113683775
11	0xbd338001	-0.043823246
12	0x3e9ba2f1	0.30397752
13	0xbe5df6ff	-0.21676253
14	0xbe1aa2b8	-0.15101135
15	0xbdfd9141	-0.123812206
16	0xbdaac62c	-0.083385795
17	0x3c4e9787	0.012609369
18	0x3daf8070	0.085694194
19	0x3db3fa06	0.087879226
20	0x3d257064	0.040390387
21	0xbe38f664	-0.1806274
22	0x3d96d226	0.073643014
23	0xbdb17eeb	-0.08666786
24	0x3d307b50	0.04308635
25	0xbd6727c9	-0.056434426
26	0x3db0d313	0.08634009
27	0xbcf1b077	-0.02950309
28	0xbdad0d91	-0.08449853
29	0x3d85a37a	0.06525321
30	0x3cc103cc	0.02356138
31	0xbccf48ad	-0.02530321
32	0x3c7d9520	0.015477449
33	0x3ce31cd9	0.027723717
34	0xbd93cb51	-0.07216514
35	0x3bc9d684	0.0061596055
36	0x3d16a243	0.03677584
37	0xbda874f8	-0.08225435
38	0xbbdb3f61	-0.006690905
39	0xbe1b7a20	-0.15183306
40	0xbd821b8b	-0.0635291
41	0x3d3cf7bf	0.046134707
42	0x3cfef164	0.031120963
43	0xbd88071f	-0.06641983
44	0x3c845cc9	0.016157525
45	0xbd85cf2d	-0.06533656
46	0xbe06a8b6	-0.13150296
47	0xbcf0979d	-0.02936917
48	0xbdc0db17	-0.09416788
49	0xbd88205b	-0.06646796
50	0x3e0a968d	0.13533993
51	0x3da9d454	0.082924515
52	0x3d039a7c	0.03212975
53	0xbe0c1637	-0.1368035
54	0xbcfd0d61	-0.030890169
55	0xbd3f8c64	-0.046764746
56	0x3b2465e4	0.0025085146
57	0xbdc27285	-0.09494499
58	0xbdbee478	-0.09320921
59	0x3bf3ff49	0.007446204
60	0xbb1f81fd	-0.0024338954
61	0xbe05527b	-0.13019745
62	0x3d472866	0.04862251
63	0xbd223444	-0.039600626
64	0xbe249692	-0.16073063
65	0xbe01037c	-0.12598985
66	0xbd10eabe	-0.035380118
67	0xbcc9b419	-0.02462201
68	0x3e6de1cc	0.23230666
69	0xbdd2beaa	-0.102902725
70	0x3e340e20	0.17583513
71	0x3e023163	0.12714152
72	0xbcb1fdf8	-0.021727547
73	0x3d92cae1	0.07167602
74	0x3dadd8b6	0.084886
75	0x3c8dcf7a	0.017310847
76	0xbe5202c9	-0.20508875
77	0xbe3eea53	-0.18644075
78	0x3db2d33e	0.087316975
79	0xbcb52f5d	-0.022117311
80	0x3dc04f9e	0.09390186
81	0xbdb7dee6	-0.089780614
82	0x3cdd6ac2	0.027028445
83	0xbdd0345a	-0.10166235
84	0xbda79368	-0.081824124
85	0xbbe59a15	-0.0070068934
86	0x3de1107b	0.109894715
87	0x3d9bfd73	0.07616701
88	0x3d60810e	0.054810576
89	0xbd8caeed	-0.06869302
90	0x3d1cfaba	0.03832505
91	0xbd2e8fdd	-0.042617667
92	0xbd62d55a	-0.05537925
93	0xbdf56603	-0.11982348
94	0x3d6825d7	0.056676712
95	0xbe16b8c6	-0.14718923
96	0xbb82a7cb	-0.0039872876
97	0xbd18c946	-0.037301324
98	0x3d11129d	0.03541814
99	0xbdb97dd0	-0.090572
100	0x3d4785d3	0.04871161
101	0x3e19c257	0.15015541
102	0x3cb82295	0.022477427
103	0xbd92088d	-0.07130537
104	0x3d3a4cf2	0.045483537
105	0xbe0f0790	-0.13967729
106	0xbda3626c	-0.07977757
107	0x3e1d6f7f	0.15374564
108	0xbd0c7b0c	-0.034297034
109	0xbcd2467f	-0.02566838
110	0xbdce5c75	-0.100762285
111	0xbbda9459	-0.0066705164
112	0x3c866245	0.01640428
113	0x3d4b5498	0.04964122
114	0xbd07b533	-0.03313179
115	0xbcfd9274	-0.030953623
116	0xbd088273	-0.03332753
117	0x3df19e69	0.117977925
118	0x3d4b588a	0.049644984
119	0xbdfd1921	-0.123583086
120	0x3d8c7f2d	0.06860194
121	0x3de8a860	0.1136024
122	0x3d74fa36	0.059808932
123	0x3be33615	0.0069339373
124	0x3e054639	0.13015069
125	0x3d1dd560	0.03853357
126	0xbd2632b8	-0.040575713
127	0xbcc5a0b2	-0.024124477
128	0xbde3ed9c	-0.11129305
129	0x3c7a2fb2	0.0152701605
130	0x3d2c194c	0.042016312
131	0xbcf1f2c7	-0.02953471
132	0x3e4693c0	0.193923
133	0x3dc7bd44	0.097528964
134	0xbd0b7dbc	-0.034055457
135	0x3c29455b	0.010331477
136	0x3c73eeef	0.014888509
137	0xbd0f0a0d	-0.034921695
138	0x3d15678a	0.036475696
139	0x3cf59960	0.029980361
140	0xbe41deec	-0.18932694
141	0xbdc2e058	-0.095154464
142	0x3dd66af7	0.10469621
143	0x3dc70eec	0.09719643
144	0x3d63f4a8	0.055653244
145	0xbd02a38b	-0.031894248
146	0xbd6d4fe7	-0.05793753
147	0xbd85ecb8	-0.06539291
148	0xbbd8e8a4	-0.00661953
149	0x3c466e19	0.01211121
150	0xbbfcc166	-0.0077134846
151	0x3cf0923f	0.02936661
152	0xbdf43fd5	-0.119262375
153	0xbda02b0f	-0.07820713
154	0xbcf67930	-0.030087084
155	0x3dcd3f92	0.10021891
156	0xbc7134ef	-0.014722093
157	0xbcf0dc5e	-0.029401954
158	0x3d985abd	0.07439182
159	0x3d66d6a6	0.05635705
160	0xbc031558	-0.008000694
161	0x3da0aa61	0.07844997
162	0xbd1e7841	-0.0386889
163	0x3b78b7b9	0.0037951304
164	0xbda880b6	-0.08227675
165	0x3d5e3f06	0.054259323
166	0x3d49cf5a	0.04927001
167	0x3d8184ac	0.06324133
168	0xbd555c47	-0.052089956
169	0xbe22de7d	-0.15905185
170	0xbda8bd6e	-0.08239256
171	0x3c37e5f1	0.011224256
172	0xba8da753	-0.0010807313
173	0x3da8fdf0	0.0825156
174	0xbc14fcb5	-0.009093453
175	0x3d6a61e5	0.057222266
176	0x3d8e8512	0.06958975
177	0xba6ca9e7	-0.0009028003
178	0xbd7780e9	-0.060425673
179	0xbd299ca3	-0.041409146
180	0x3db465f2	0.08808507
181	0xbd5df8a3	-0.054192197
182	0x3d1701f9	0.036867116
183	0xbdb0d696	-0.08634679
184	0xbba37ab4	-0.0049889926
185	0xbe3e49c5	-0.18582828
186	0xbdcacb3a	-0.09902044
187	0x3c77adaf	0.015117093
188	0xbdc15a92	-0.09441103
189	0x3ddbefde	0.107391104
190	0xbdb7d2cf	-0.089757554
191	0xbdf2d043	-0.11856129
192	0x3dc47a86	0.09593682
193	0xbe3d351e	-0.18477294
194	0xbdb16902	-0.08662607
195	0xbe4f777f	-0.20260428
196	0x3e67af27	0.22625409
197	0xbd93a947	-0.072100215
198	0x3e13260b	0.14369981
199	0x3dc2b011	0.09506238
200	0x3c7babe7	0.015360809
201	0xbe817fef	-0.25292918
202	0x3d95bbf1	0.073112376
203	0xbda1e238	-0.07904476
204	0x3ddc728a	0.10764034
205	0x3d22f8a1	0.039787892
206	0xbdca7eef	-0.09887492
207	0x3d931140	0.071810246
208	0x3d45974b	0.048239987
209	0xbdf00dde	-0.11721395
210	0x3d6326c8	0.055456907
211	0xbd9559e7	-0.07292538
212	0x3e2d279e	0.16909644
213	0x3d3d9838	0.046287745
214	0x3dd32824	0.103103906
215	0xbd3cdaa3	-0.046106946
216	0xbda71f4f	-0.081602685
217	0x3d4b17fa	0.049583413
218	0x3db488ea	0.08815177
219	0xbdb9cd0f	-0.09072315
220	0xbd10f7c0	-0.035392523
221	0xbd692b99	-0.056926344
222	0xba0b3527	-0.00053103495
223	0xbd2605d3	-0.0405329
224	0xbd74bf76	-0.059752904
225	0xbe1fee27	-0.15618192
226	0xbd7162ca	-0.058932103
227	0x3ddf54b0	0.10904825
228	0x3dcdbec2	0.1004615
229	0xbd1d2b39	-0.0383713
230	0x3c042507	0.008065469
231	0xbce7a625	-0.028277466
232	0xbe2b3975	-0.16721137
233	0xbd3e4e21	-0.04646123
234	0x3da92fb8	0.08261055
235	0xbdf19695	-0.11796299
236	0xbd79ec28	-0.06101623
237	0xbb8dd0fb	-0.004327891
238	0xbdf0d5bd	-0.11759517
239	0x3c92d465	0.017923543
240	0xbcc22a2f	-0.023701755
241	0x3b7f50f3	0.0038958162
242	0x3cf7e2c1	0.030259492
243	0xbda942a3	-0.08264663
244	0xbe2d2560	-0.16908789
245	0x3dedafb3	0.116057776
246	0xbd2358e8	-0.03987971
247	0x3b869f1d	0.0041083232
248	0xbdd19872	-0.10234155
249	0x3d2641d7	0.040590134
250	0x3e8b3869	0.27191475
251	0x3e1fc5ba	0.1560277
252	0xbde97a67	-0.114002995
253	0xbcaf4d35	-0.02139912
254	0x3dda259a	0.10651703
255	0x3bb69ae5	0.005572664

a2c_network.actor_mlp.0.bias f4 [256]
0	0xbc602c13	-0.013682383
1	0xbce2847b	-0.027651062
2	0xbca0840f	-0.01959422
3	0x3cb12193	0.021622455
4	0x3c53086a	0.012880424
5	0xbc328157	-0.010895095
6	0x3c90240a	0.01759531
7	0xbd842732	-0.064527884
8	0xbdb09381	-0.08621884
9	0xbc181213	-0.009281653
10	0x3d6e91f6	0.058244668
11	0x3bbcdef4	0.005763883
12	0xbd1d6aad	-0.038431812
13	0xbc7f1d63	-0.015570971
14	0xbd9de714	-0.0771009
15	0xbc5aa3e7	-0.013344741
16	0xbd303514	-0.04301937
17	0x3d22b831	0.03972644
18	0xbd014702	-0.03156186
19	0x3d080f71	0.03321785
20	0xbd06d105	-0.03291418
21	0xbd40f2e3	-0.047106635
22	0xb9d8d248	-0.00041355402
23	0xbae069a4	-0.0017121327
24	0xbd7308b2	-0.059334464
25	0xbc661469	-0.014042952
26	0x3be20ce5	0.00689851
27	0x3d798b2b	0.060923737
28	0xbd25827c	-0.040407643
29	0x3d85604e	0.06512509
30	0x3939e6c1	0.00017728937
31	0x3d0925c6	0.03348329
32	0xbc34fc41	-0.01104647
33	0xbd39e512	-0.045384474
34	0x3d3612be	0.044451468
35	0x3da3a406	0.07990269
36	0x3c3d29bf	0.011545598
37	0xbd551c3b	-0.052028876
38	0xbae2b9fd	-0.001729786
39	0x3d40f9e5	0.047113318
40	0x3d43fc8a	0.047848262
41	0x3d948249	0.072514124
42	0xbd06b56f	-0.032887872
43	0x3d72b945	0.059258718
44	0xbc299cac	-0.010352295
45	0xbce5b6d5	-0.028041283
46	0xbc56a1ed	-0.01310013
47	0x3d21d5bb	0.03951047
48	0xbc89f904	-0.016842373
49	0xbd3c7d47	-0.04601791
50	0xbc388aa4	-0.011263523
51	0xbd44ea30	-0.0480749
52	0xbc0a0060	-0.008422941
53	0x3cee4aab	0.029088339
54	0x3d5dd280	0.054155827
55	0x3d8b6fb5	0.06808416
56	0xbd2264d3	-0.039646935
57	0xbbc8122c	-0.006105682
58	0x3d4975ff	0.049184795
59	0x3c7c9a44	0.015417639
60	0x3ca97c94	0.020689286
61	0x3d925326	0.071447656
62	0xbcd114c7	-0.025522603
63	0xbcf2d6d5	-0.029643456
64	0xbd966738	-0.07343906
65	0xbc52fca3	-0.012877616
66	0xbd823421	-0.06357599
67	0xbc2f265f	-0.010690301
68	0x3d1d5c62	0.03841818
69	0xbc69bb9a	-0.014265919
70	0xbd8337c3	-0.0640712
71	0xba270c76	-0.0006372401
72	0x3dcaf140	0.09909296
73	0xb92a3132	-0.0001623079
74	0xbd31afaa	-0.043380417
75	0xbcb56340	-0.022142053
76	0xbd04ab70	-0.032390058
77	0x3d8c49cf	0.06850015
78	0xbc56c87d	-0.013109324
79	0xbcd7ff02	-0.026366714
80	0x3bbed26c	0.005823424
81	0xbd34f883	-0.04418231
82	0xbd4da1c5	-0.050203104
83	0x3aad4cb3	0.0013221711
84	0x3bea4ea6	0.007150489
85	0xbe00ce22	-0.12578633
86	0x3b95a149	0.004566346
87	0x3c1dd0fe	0.009632347
88	0x3c9a8bea	0.018865544
89	0xbcc198c7	-0.02363242
90	0x3d587d6e	0.052853994
91	0x3c7d351b	0.015454556
92	0xbc278e60	-0.010226816
93	0x3a86d900	0.001028806
94	0xbb9cd7d9	-0.0047864732
95	0x3ca2272a	0.019794066
96	0xbd21762d	-0.03941934
97	0xbd51f8df	-0.051262733
98	0x3d8cf98d	0.068835355
99	0xbc42897f	-0.011873602
100	0xbd9e4cc4	-0.07729486
101	0x3dede26e	0.11615454
102	0xbd08249f	-0.03323805
103	0x3beb177b	0.00717443
104	0xbca8c1a2	-0.020600144
105	0x3ac33bc9	0.0014895137
106	0xbd1b92f3	-0.03798194
107	0xbd60a50a	-0.054844894
108	0xbd2a3dcc	-0.04156284
109	0xbd1464c0	-0.036228895
110	0x3b639db1	0.0034731443
111	0x3a975df1	0.0011548382
112	0xbca29010	-0.019844085
113	0x3c122e3a	0.008922154
114	0x3cf1c137	0.029511077
115	0xbd24e9d0	-0.040262043
116	0xbd078ac0	-0.033091307
117	0xbd0163f5	-0.031589467
118	0x3c291df2	0.010322081
119	0x3c893c28	0.016752318
120	0x3c43fa47	0.011961526
121	0x3d74d997	0.059777822
122	0x3d3eaf62	0.046553977
123	0x3bbb089c	0.0057078134
124	0x3c3093c3	0.010777417
125	0x3d552c4a	0.05204419
126	0x3d30461d	0.043035615
127	0x3c020a38	0.007937007
128	0x3bdb9ab7	0.006701793
129	0xbd40a325	-0.047030587
130	0x3cc0e03e	0.023544427
131	0xbb04c5ab	-0.002025942
132	0x3ba7a97a	0.0051166387
133	0x3c759152	0.01498826
134	0xbc88e897	-0.01671247
135	0xbc15908d	-0.009128702
136	0xbdc88b30	-0.09792173
137	0xbd85fe4e	-0.065426454
138	0xbc970122	-0.018433157
139	0xbe22776d	-0.1586587
140	0xbc478fd1	-0.012180285
141	0x3b81de5a	0.003963274
142	0x3c9535f1	0.018214198
143	0x3d41da92	0.047327586
144	0xbc45fe5b	-0.012084569
145	0x3d729865	0.059227366
146	0x3c927727	0.017879082
147	0x3ce017d3	0.02735511
148	0x3bb55285	0.0055335187
149	0x3c5a2ba2	0.013316067
150	0xbd9bc43e	-0.076057896
151	0x3b94e46b	0.004543831
152	0x3d153fca	0.036437787
153	0xbc98e4e6	-0.018663835
154	0x3c11d9db	0.008902038
155	0xbcd7c81e	-0.02634054
156	0xbc4d57be	-0.012533126
157	0x3cf26523	0.029589241
158	0x3c8f1dfa	0.017470349
159	0x3c32d455	0.010914882
160	0x3d3c1f3a	0.045928217
161	0x3d7977bd	0.060905207
162	0xbd827c66	-0.06371383
163	0xbd81b929	-0.063341446
164	0x3c7da876	0.015482059
165	0x3b3ac29e	0.0028497349
166	0xbd29edfd	-0.04148673
167	0xba09bdf1	-0.0005254439
168	0x3ccc3422	0.024927203
169	0xbd41f423	-0.047351968
170	0x3cef3603	0.02920056
171	0xbc8e974b	-0.017406126
172	0x3dc8c34b	0.09802874
173	0x3b973bf7	0.0046153027
174	0x3c58c091	0.013229505
175	0xbd2c569c	-0.042074785
176	0x3d0b98a1	0.034081105
177	0x3b7407b3	0.0037236034
178	0xbc8d4fa0	-0.017249882
179	0xbd71ae9f	-0.059004422
180	0x3d9dd12f	0.07705914
181	0xbd653d91	-0.055966917
182	0xbdd6e8e4	-0.10493639
183	0xbdb2a854	-0.08723512
184	0xbc628460	-0.013825506
185	0x3b98458e	0.0046469634
186	0x3d6a11a6	0.057145737
187	0xba8773a7	-0.001033415
188	0xbd06794c	-0.03283052
189	0xbd2b89da	-0.041879512
190	0xbae70537	-0.0017625456
191	0xbd570466	-0.05249443
192	0xbda5fabd	-0.08104465
193	0xbcb44aae	-0.022008266
194	0xbdb00128	-0.085939705
195	0x3da956e5	0.08268527
196	0x3d0390bb	0.032120448
197	0xbd097442	-0.033558138
198	0xbcf0c545	-0.02939094
199	0xbd00191e	-0.031273954
200	0x3c10b5ab	0.0088323755
201	0xbd04f634	-0.03246136
202	0xbbd0da09	-0.006373648
203	0xbd106546	-0.035252832
204	0xbd926341	-0.071478374
205	0x3d0b83ca	0.03406123
206	0xbc8e4cfc	-0.017370693
207	0xbb9ae492	-0.0047269547
208	0xbcb57526	-0.022150587
209	0x3daefac3	0.08543923
210	0xbc0fa5ac	-0.008767527
211	0x3d04d2f8	0.032427758
212	0xbbe8db8c	-0.00710625
213	0xbc69ee16	-0.0142779555
214	0xbc1141ff	-0.008865832
215	0xbd4118a1	-0.04714263
216	0xbd42639f	-0.047458287
217	0x3ceac1a4	0.028656788
218	0xbcaa385c	-0.020778827
219	0x3cac4a59	0.021031545
220	0xbd47223c	-0.048616633
221	0xbb518744	-0.0031971494
222	0x3d87a129	0.06622536
223	0x3ba197a4	0.004931407
224	0x3de823ea	0.11334975
225	0x3cd3893d	0.025822276
226	0x3dcb0fa5	0.09915093
227	0x3bca17f9	0.0061674085
228	0xbcd72e33	-0.026267147
229	0x3a2d67ce	0.00066148944
230	0x3d45b790	0.048270762
231	0xbbd23941	-0.0064155166
232	0x3d0014fa	0.031270005
233	0xbc3e3e68	-0.0116115585
234	0x3d5de6d1	0.0541752
235	0x3ce6c8fc	0.028172009
236	0x3cf8020a	0.03027441
237	0xbc0a5aa4	-0.008444462
238	0xbcdad352	-0.026712094
239	0x3cfa1116	0.030525725
240	0x3caf7996	0.021420281
241	0xbce66218	-0.028122947
242	0x3cf148e6	0.029453706
243	0x3ca27512	0.019831214
244	0xba8bc401	-0.0010663272
245	0x3bed2c34	0.0072379354
246	0x3d739712	0.059470244
247	0xbdcbb652	-0.09946884
248	0xbc785c57	-0.015158734
249	0xbd9743d5	-0.07385985
250	0x3aa21065	0.0012364505
251	0xbcabdf03	-0.020980364
252	0x3c7a704e	0.015285565
253	0x3d79be00	0.060972214
254	0x3c95e603	0.018298155
255	0xbd2be48e	-0.041966014

a2c_network.actor_mlp.2.weight f4 [128, 256]
0	0xbce9594c	-0.028484963
1	0x3d5d6541	0.05405164
2	0xbd477f63	-0.04870547
3	0xbd71ffd3	-0.059081864
4	0x3cae7b73	0.0212991
5	0x3d258dc9	0.04041842
6	0xbc68c6fb	-0.014207597
7	0x3d9e9e4c	0.077450365
8	0xbcf48a1a	-0.029851008
9	0x3d840bc8	0.064475596
10	0x3da3ee3a	0.080044225
11	0xbd505ba5	-0.05086865
12	0xbdaff6d3	-0.08592
13	0x3cef7b79	0.029233681
14	0xbb9365ef	-0.0044982354
15	0x3d1f92ce	0.038958363
16	0xbdb1bd47	-0.0867868
17	0x3d99de66	0.07513122
18	0xbceec817	-0.029148145
19	0x3b5990bd	0.0033197843
20	0xbc953a2f	-0.01821622
21	0x3c4c89dd	0.012484041
22	0xbda227ca	-0.079177454
23	0xbc01e0a4	-0.007927094
24	0xbb35c6ce	-0.0027736905
25	0x3d5f107b	0.054459076
26	0xbc3473ab	-0.0110139055
27	0xbe01d689	-0.12679495
28	0xbc4265da	-0.011865104
29	0xbdd79b1a	-0.1052763
30	0x3d687bb8	0.056758612
31	0xbdb0c659	-0.08631582
32	0x3d9ce172	0.07660188
33	0x3b906ccd	0.0044075013
34	0x3d83ce61	0.06435848
35	0xbcad8913	-0.021183526
36	0xbda3ca4f	-0.07997572
37	0xbd63bd73	-0.055600595
38	0xbbfcd3bf	-0.007715672
39	0xbd9a0956	-0.07521312
40	0x3d0a3d36	0.03374978
41	0x39e2c41d	0.00043252195
42	0x3a112484	0.0005536752
43	0x3d12acd0	0.035809338
44	0xbdbbb849	-0.09166009
45	0xbcfb3064	-0.030662723
46	0x3d0df767	0.03465977
47	0x3ca8e141	0.020615222
48	0xbca50996	-0.020146172
49	0xbcd8ceb4	-0.026465751
50	0x3dc7ad99	0.09749908
51	0x3d6843a4	0.056705132
52	0x3cb8f9f5	0.022580126
53	0x3bcabb80	0.0061869025
54	0xbdc6fcec	-0.0971621
55	0x3cf9fb11	0.030515226
56	0x3da08bec	0.07839188
57	0xbe11c5ae	-0.14235565
58	0xbcc1cb74	-0.023656584
59	0xbe2c608c	-0.16833705
60	0xbd41b6a1	-0.04729331
61	0xbd34f8fe	-0.04418277
62	0xbd054544	-0.03253676
63	0x3d2d99ed	0.042383123
64	0x3cf95b99	0.030439185
65	0x3c89ad77	0.016806347
66	0xbbda1774	-0.006655628
67	0xbd2102a0	-0.039309144
68	0x3cfd765a	0.030940223
69	0xbde381ee	-0.111087665
70	0x3d232ac3	0.039835703
71	0xbd927d35	-0.071527876
72	0xbd9400d0	-0.072267175
73	0xbcb63e9a	-0.022246648
74	0xbd38a7f8	-0.045082062
75	0x3db16860	0.08662486
76	0x3d3f13f3	0.046649884
77	0xbd515c11	-0.051113192
78	0xbd379d04	-0.044827476
79	0xbce2ade3	-0.027670806
80	0x3d93b186	0.07211594
81	0xbd9275e0	-0.07151389
82	0x3cf9255d	0.030413324
83	0x3d50f9a1	0.051019315
84	0x3d5a0cd0	0.053234875
85	0xbce95470	-0.028482646
86	0x3c4f57bf	0.012655198
87	0x3b04a814	0.0020241784
88	0xbd82fcfc	-0.06395909
89	0xbd8d4512	-0.0689794
90	0xbd331093	-0.04371698
91	0xbd294580	-0.041326046
92	0x3d3180c6	0.0433357
93	0x3d1a3d69	0.03765622
94	0x3db04d65	0.08608512
95	0xbc36a8e4	-0.011148665
96	0x3cbde89e	0.02318221
97	0x3c940738	0.018069848
98	0x3ced366b	0.028956613
99	0x3a2acad9	0.0006515212
100	0x37f3851f	2.9029847e-05
101	0x3c829619	0.015940713
102	0x3d40ab57	0.047038402
103	0x3cbbdfa3	0.022933787
104	0x3c903fcd	0.017608548
105	0xbd2cf031	-0.042221252
106	0xbc05c82c	-0.0081654005
107	0x3d1e4f17	0.038649645
108	0xbca2e7a6	-0.01988585
109	0xbd10d828	-0.035362393
110	0x3c3713c4	0.011174146
111	0xbc47b49f	-0.0121890595
112	0x3b9bea38	0.0047581457
113	0x3d5eb1b1	0.05436868
114	0xbd81abbb	-0.06331583
115	0xbd5646f7	-0.05231377
116	0x3c637b8f	0.013884439
117	0x3c0b8243	0.0085149435
118	0xbceb1a46	-0.028699052
119	0x3c301be1	0.010748834
120	0x3c34b253	0.011028844
121	0xbd002f22	-0.03129495
122	0xbd03a71c	-0.03214179
123	0x3b3520c8	0.0027637947
124	0x3dc677af	0.096907966
125	0xbdb121d8	-0.08649033
126	0xbc6a0957	-0.014284453
127	0xbdcc3b23	-0.09972217
128	0x3d950464	0.07276228
129	0xbd2fc8da	-0.042916156
130	0x3d6026df	0.05472457
131	0xbb9fe23f	-0.0048792656
132	0xbcd0fe9a	-0.025512028
133	0x3c4dbe56	0.012557587
134	0x3c5bbe06	0.013412004
135	0xbc42ceb8	-0.011890106
136	0xbd218f3f	-0.03944325
137	0x3d901599	0.070353694
138	0x3e20b54d	0.15694161
139	0x3c460ac6	0.0120875295
140	0xbd521025	-0.051284928
141	0xbd2869f1	-0.04111666
142	0xbd58d63d	-0.05293869
143	0xbd86fee0	-0.06591582
144	0xbbd06aca	-0.0063603865
145	0xbcd587b1	-0.02606568
146	0x3cda5d35	0.026655773
147	0xbd140c98	-0.036144823
148	0x3cf3b3e7	0.02974887
149	0xbcf04864	-0.029331394
150	0x3d06f088	0.032944232
151	0xbd1bce50	-0.03803855
152	0xbc802646	-0.01564325
153	0x3db6c5fa	0.0892448
154	0xbcc3643a	-0.023851503
155	0x3d9baa7c	0.07600877
156	0xbd9ecc38	-0.077537954
157	0xbcf92900	-0.030415058
158	0xbd9fa5ea	-0.077953175
159	0xbda550cc	-0.080720514
160	0xbe058c1a	-0.13041726
161	0x3d4bc796	0.049750887
162	0xbd0120fb	-0.031525593
163	0x3d438df8	0.047742814
164	0x3d4b2356	0.049594246
165	0x3d1b2dcb	0.03788547
166	0x3c81687c	0.015796892
167	0x3daf03e4	0.08545664
168	0x3d9ade7b	0.07561966
169	0x3d40b8a3	0.047051083
170	0xbcaf1348	-0.021371499
171	0x3d02049e	0.031742685
172	0x3c9a7798	0.018855855
173	0xbcc9ccca	-0.024633784
174	0x3c529b42	0.012854399
175	0xbd5df0d7	-0.05418476
176	0xbca69eeb	-0.02033945
177	0xbc8408ec	-0.016117536
178	0xbd8a868b	-0.06763943
179	0x3d6d9ac8	0.05800894
180	0xbb9fcc9f	-0.0048766877
181	0xbd53acb1	-0.051678363
182	0xbd4caade	-0.04996764
183	0xbaa53cdd	-0.001260664
184	0xbd7d6f5a	-0.06187377
185	0x3b9550a8	0.004556734
186	0x3def738e	0.11691962
187	0x3c118d84	0.008883838
188	0xbc6616fc	-0.014043566
189	0xbcd85ff1	-0.026412936
190	0xbdc812d5	-0.09769217
191	0x3d066313	0.03280933
192	0xbb0f42dc	-0.002185992
193	0x3d56a282	0.052401073
194	0xbd40178c	-0.046897456
195	0x3dab85c6	0.08375125
196	0xbb839f62	-0.0040168026
197	0x3d05f94a	0.032708444
198	0x3d8ef8b2	0.069810286
199	0xbcf70d7d	-0.030157799
200	0x3db99dd4	0.090633065
201	0x3d47e0c0	0.048798323
202	0x3d433d6e	0.047666006
203	0x3d0c1a75	0.03420492
204	0xbda85666	-0.08219604
205	0xbd229757	-0.03969511
206	0x3b4bebf9	0.0031115992
207	0x3d000750	0.031256974
208	0x3d4faa89	0.050699744
209	0x3c660f53	0.0140417395
210	0x3d67126d	0.056414057
211	0xbdfbd1f0	-0.12295902
212	0x3c6d8e15	0.014499207
213	0xbd098a2a	-0.03357903
214	0x3ac4a666	0.0015003204
215	0x3cee586f	0.029094903
216	0x3daa3d4d	0.083124734
217	0xbba184c0	-0.004929155
218	0x3d8e5e35	0.06951562
219	0xbd0d3f21	-0.034484033
220	0xbb63e4fd	-0.0034773939
221	0x3cd7eac9	0.026357071
222	0x3d88cbf8	0.06679529
223	0x3d1e7261	0.0386833
224	0xbd792be8	-0.060832888
225	0x3c0b2a97	0.008494041
226	0xbcbbaf6b	-0.022910794
227	0x3b1d3894	0.0023990022
228	0xbd81667e	-0.06318377
229	0xbd50c4d5	-0.050968964
230	0x3c92b80c	0.017910026
231	0x3df8f138	0.12155384
232	0x3d6fe6b0	0.05856961
233	0x3d15ae8a	0.036543407
234	0x3d0c671f	0.03427803
235	0x3da4d242	0.08047916
236	0xbd85d3b3	-0.06534519
237	0x3c1a2c07	0.009409911
238	0x3c5bb970	0.013410911
239	0x3dd54658	0.10413808
240	0xbcda70d8	-0.026665136
241	0xbc1b21be	-0.009468494
242	0xbc7727e7	-0.015085197
243	0xbd99476d	-0.074843265
244	0x3e27f189	0.16400732
245	0xbdb976bc	-0.0905585
246	0xbcd4226c	-0.02589532
247	0x3cc26c6f	0.023733346
248	0xbddfbbd8	-0.109245
249	0xbdc9db60	-0.098562956
250	0x3cae2bb4	0.021261074
251	0x3dbed52f	0.09318005
252	0xbce82f89	-0.028342979
253	0x3d3d6f68	0.046248823
254	0x3d805cc5	0.062676944
255	0x3c8ed364	0.017434783

a2c_network.actor_mlp.2.bias f4 [128]
0	0x3caedcc3	0.021345502
1	0xbc628507	-0.0138256615
2	0x3ca0280b	0.019550344
3	0xbd641194	-0.055680826
4	0xbdd5506d	-0.104157306
5	0x3d26937f	0.040668007
6	0x3c50c43b	0.0127420975
7	0xbccb37ff	-0.024806974
8	0xbc7f2fa8	-0.015575327
9	0x3bd0c58c	0.0063712057
10	0x3d04b078	0.032394856
11	0x3c9f03f4	0.019411065
12	0x3caa78d8	0.020809576
13	0xbd253b43	-0.04033972
14	0x3d37fc38	0.04491827
15	0xbd6ff278	-0.058580846
16	0xbd05fb04	-0.03271009
17	0xbc5d44e6	-0.013505196
18	0xbd8f66c4	-0.07002023
19	0x3ced500b	0.028968832
20	0xbd8382f8	-0.06421465
21	0xbd031fd9	-0.032012794
22	0xbc100295	-0.008789678
23	0x3b743d3b	0.0037267942
24	0xbd26115e	-0.040543906
25	0xbc9bb0a3	-0.019005125
26	0x3c8d0c40	0.017217755
27	0xbd3933a0	-0.04521525
28	0xbc7be695	-0.015374799
29	0x3c792b80	0.015208125
30	0xbdb39412	-0.087684765
31	0xbd64b2f6	-0.055834733
32	0x3d13cdee	0.03608506
33	0x3bc310d7	0.005952935
34	0xbc798f52	-0.015231924
35	0xbcfc16a6	-0.030772518
36	0xbdd384ea	-0.10328086
37	0xbd19e314	-0.037570074
38	0xbd93ba15	-0.07213227
39	0xbd48f919	-0.049065683
40	0xbc92d2d6	-0.0179228
41	0x3c0e7fdc	0.008697476
42	0x3d97b654	0.07407823
43	0x3c58975b	0.01321968
44	0xbd910545	-0.07081083
45	0xbc8385ac	-0.01605495
46	0xbd50dcc8	-0.050991803
47	0xbdc4d802	-0.09611513
48	0xbbffa4d1	-0.00780163
49	0xbcd92193	-0.026505267
50	0x3dc49ddd	0.096004225
51	0xbcc3c96f	-0.023899762
52	0xbdf8f982	-0.12156965
53	0x3caa28e6	0.020771455
54	0xbd45ced7	-0.04829296
55	0x3d422e3c	0.047407374
56	0x3d8425b3	0.06452503
57	0x3c3bc00b	0.011459361
58	0x3d00f10b	0.031479876
59	0x3b7b4b1e	0.0038344334
60	0x3c8d1c22	0.017225329
61	0x3d88b9b2	0.066760436
62	0xbdbcb137	-0.092134885
63	0x3d04735e	0.032336585
64	0x3d31e594	0.043431833
65	0x3bad3900	0.005286336
66	0xbd8daae8	-0.069173634
67	0x3d7ab393	0.06120641
68	0x3bf5916d	0.0074941427
69	0x3cd115c1	0.025523068
70	0xba38f86d	-0.00070560613
71	0x3d004b68	0.031321913
72	0xbd8c83c1	-0.068610676
73	0x3d27d068	0.040970236
74	0xbd7c9185	-0.061662216
75	0x3d1b1794	0.037864283
76	0x3c2e7fce	0.010650588
77	0x3bff3247	0.007787976
78	0xbbdcf295	-0.006742785
79	0xbd79f1d2	-0.061021633
80	0xbc1c1277	-0.009525887
81	0xbd2757ad	-0.0408551
82	0xbcba7c8b	-0.022764465
83	0x3d3f0b10	0.04664141
84	0x3d152215	0.036409456
85	0xbd24dbcb	-0.040248673
86	0xbcf3e015	-0.029769937
87	0xbd79a038	-0.060943812
88	0xbb742538	-0.003725363
89	0x3d390889	0.045174155
90	0x3b37321c	0.0027953451
91	0xbcd3e674	-0.025866725
92	0xbd6fc679	-0.058538888
93	0xbb8056b8	-0.0039165877
94	0xbd415ea9	-0.047209416
95	0x3b816149	0.003948365
96	0x3d5806d1	0.052740876
97	0xbd431c82	-0.04763461
98	0x3c10417a	0.008804673
99	0x3c3e100c	0.011600506
100	0xbcdc56b4	-0.026896812
101	0xbbc79196	-0.0060903532
102	0xbc3c5195	-0.01149406
103	0x3d129e93	0.03579576
104	0xbb966658	-0.004589837
105	0x3bc5b7a5	0.006033855
106	0xbb8a0767	-0.004212308
107	0x3a9b34a8	0.0011841254
108	0x3d444b8d	0.047923613
109	0xbdc07e57	-0.093990974
110	0xbdfde994	-0.12398067
111	0x3d34f23c	0.044176325
112	0xbdae2126	-0.08502416
113	0x3b02aa35	0.0019937877
114	0x3d430233	0.04760952
115	0x3c2c3969	0.0105117345
116	0x3c4485d7	0.0119948005
117	0x3d0c8d03	0.034314167
118	0x3bbde1c5	0.005794736
119	0xbc4564c2	-0.012047948
120	0x3d381112	0.044938155
121	0x3d1832a6	0.037157677
122	0x3d3aaa74	0.045572713
123	0x3c1e44b8	0.0096599385
124	0xbd4cc991	-0.049996916
125	0x3c8ff0af	0.017570822
126	0x3cfe0c04	0.031011589
127	0xbda2a83d	-0.07942245

a2c_network.actor_mlp.4.weight f4 [64, 128]
0	0x3a368aa4	0.0006963408
1	0x3d3fd1bd	0.04683088
2	0x3c77b729	0.015119352
3	0xbd5ef583	-0.054433357
4	0xbcb1f63e	-0.021723863
5	0x3df68dc3	0.12038758
6	0x3ce71598	0.028208539
7	0x3d98f383	0.07468321
8	0xbd5f6c82	-0.05454684
9	0xbc1050bc	-0.008808311
10	0xbcce8a04	-0.025212295
11	0xbd15a31c	-0.036532506
12	0xbb96fda2	-0.004607872
13	0xbc832fda	-0.016014028
14	0xbdceec72	-0.10103692
15	0xbbec9c26	-0.007220763
16	0xbdcb6f75	-0.09933368
17	0x39cc6f1e	0.000389927
18	0xbcb9c4db	-0.022676876
19	0x3d3bfc09	0.045894656
20	0xbcf90003	-0.030395513
21	0xbd8bb793	-0.068221234
22	0xbcaed11c	-0.021339945
23	0xbd4536a5	-0.048147816
24	0x3db82ad2	0.08992542
25	0x3dc35a85	0.095387496
26	0xbd8c1a87	-0.06840997
27	0xbb35f78c	-0.0027765958
28	0xbdadbcc1	-0.084832676
29	0x3ba856fd	0.005137323
30	0xbc68d061	-0.014209838
31	0xbdaf2d48	-0.085535586
32	0x3dab8765	0.08375434
33	0x3d8fe67c	0.07026383
34	0xbd6c9572	-0.05775971
35	0x3a0f9623	0.0005477389
36	0x3dd6128d	0.10452757
37	0xbd1d3c7c	-0.03838776
38	0x3dd5e3d4	0.104438454
39	0xbdf17aab	-0.11790975
40	0xbc9bc31f	-0.01901394
41	0xbd5e7d01	-0.05431843
42	0xbd9472a9	-0.07248432
43	0x3bca7adc	0.0061791968
44	0xbd07f9be	-0.033197157
45	0x3ca109d4	0.019658007
46	0x3c7e71e6	0.015530085
47	0x3d848e6e	0.06472479
48	0x3b9851e4	0.004648434
49	0x3da22ba0	0.07918477
50	0xbd1c433b	-0.038150053
51	0x3d988289	0.074467726
52	0x3d68a682	0.05679942
53	0xb9254a5a	-0.00015763324
54	0xbcb3b196	-0.021935266
55	0x3dae2a50	0.08504164
56	0x3db13ed7	0.08654564
57	0xbd6225f0	-0.05521196
58	0x3d1f275b	0.03885589
59	0xbd5586a7	-0.052130368
60	0xbd0bd46c	-0.03413813
61	0x3c3ad79a	0.0114039425
62	0x3d2cc75a	0.042182304
63	0xbca09451	-0.019601973
64	0xbce6859f	-0.028139887
65	0xbd3095db	-0.043111663
66	0x3e2ec030	0.17065501
67	0xbc371cd8	-0.0111763105
68	0x3dbc7613	0.09202208
69	0x3dafaa0e	0.08577357
70	0xbdf61bcc	-0.120170206
71	0x3dbf0327	0.09326773
72	0xbe142b68	-0.14469683
73	0xbcc2a7d9	-0.023761677
74	0xbd5026ee	-0.050818376
75	0x3dc4b6be	0.09605168
76	0xbd8ced6f	-0.06881224
77	0x3bf9f47c	0.0076280218
78	0x3d9c9641	0.07645846
79	0x3b1da31a	0.0024053515
80	0x3d72112f	0.05909842
81	0x3c5c07a3	0.013429555
82	0xbd82004d	-0.063477136
83	0xbc13fe3a	-0.00903278
84	0x3d8d2b93	0.06893077
85	0xbe0f94f4	-0.14021665
86	0x3d567ccb	0.052365106
87	0xbbefc820	-0.007317558
88	0x3d881016	0.06643693
89	0x3cea903f	0.028633235
90	0xbd0349a1	-0.03205264
91	0x3d156742	0.036475427
92	0x3d50e3bf	0.050998446
93	0xbde1f0c3	-0.1103225
94	0xbe3db6f6	-0.18526825
95	0x3d492fed	0.04911797
96	0x3cbec13b	0.023285499
97	0xbd4c8ddd	-0.04993998
98	0xbd8ffac0	-0.07030249
99	0x39cf673d	0.00039559035
100	0x3cd36c93	0.025808608
101	0x3cdcabfd	0.02693748
102	0x3d3f84ff	0.046757694
103	0xbd6d9191	-0.05800015
104	0xbd8161e4	-0.06317499
105	0x3de7e7f2	0.11323537
106	0x3d78625f	0.06064069
107	0xbb0fd939	-0.0021949543
108	0xbb9e1d83	-0.0048252954
109	0x3bb0c714	0.0053948257
110	0xbc407dec	-0.011748772
111	0x3e1cab72	0.15299776
112	0xbdb43744	-0.087996036
113	0x3d9cc86c	0.07655415
114	0x3cac5e5f	0.021041093
115	0x3ccf9c2d	0.025343025
116	0x3d48ba7c	0.04900597
117	0xbd800325	-0.062506
118	0x3cc95676	0.02457736
119	0xbc56b4f1	-0.013104663
120	0x3d8582b3	0.065190695
121	0xbdaaf5bd	-0.08347652
122	0x3da13899	0.07872123
123	0xbb911884	-0.0044279713
124	0x3da285aa	0.07935651
125	0x3d43f9c1	0.047845606
126	0x3d4ef684	0.050528064
127	0xbd381669	-0.044943247
128	0xbd6cd126	-0.057816647
129	0x3da9e567	0.08295708
130	0x3d264f7a	0.04060314
131	0xbe33cd47	-0.17558776
132	0xbd39608c	-0.04525809
133	0xbd329516	-0.04359921
134	0xbd2bc3fc	-0.041934952
135	0x3dad359f	0.08457493
136	0xbd8bf853	-0.068344735
137	0xbd29fa19	-0.041498277
138	0xbc2de5f0	-0.010613903
139	0xbd436893	-0.04770715
140	0x3d601b62	0.054713614
141	0xbd2c5f78	-0.042083234
142	0xbdaa0871	-0.08302391
143	0xbdc4de8d	-0.09612761
144	0xbdab74fd	-0.08371923
145	0xbbd5d925	-0.00652613
146	0xbcb97c87	-0.022642387
147	0x3d29192e	0.04128378
148	0xbc1d44e9	-0.009598949
149	0xbc8e7098	-0.017387673
150	0x3d04cafa	0.032420136
151	0x3d0c2173	0.034211587
152	0x3e2c1a4b	0.16806905
153	0xbd6dabb6	-0.058025084
154	0xbd6f1173	-0.05836625
155	0xbcd1309f	-0.02553588
156	0x3d2538d2	0.04033739
157	0xbcf99d10	-0.030470401
158	0x3cce945b	0.025217226
159	0x3da63c9e	0.081170306
160	0x3b370680	0.0027927458
161	0x3cd1ba9f	0.025601683
162	0x3d9ec0ac	0.07751593
163	0xbab7c4c4	-0.0014020433
164	0x3cf41f35	0.029800037
165	0x3da9fc53	0.0830008
166	0xbd55d236	-0.052202426
167	0x3c0630cd	0.008190346
168	0xbbf4198b	-0.007449334
169	0x3cbc2aa0	0.022969544
170	0xbd9cc1a5	-0.07654122
171	0xbc9a4a09	-0.01883413
172	0xbc2d89c6	-0.01059193
173	0xbd87750a	-0.0661412
174	0x3c968aa8	0.018376663
175	0x3e0bffc5	0.13671787
176	0x3d9fa4a9	0.07795078
177	0x3d96f274	0.07370463
178	0x3d790eaa	0.060805
179	0xbd4d6579	-0.0501456
180	0xbcef7604	-0.029231079
181	0xbcca446a	-0.024690825
182	0x3dcf8d4f	0.10134374
183	0x3cb6996c	0.022289954
184	0x3d7fdcfb	0.062466603
185	0xbe02ab7c	-0.12760729
186	0x3dab7d7d	0.08373544
187	0x3db43fce	0.08801232
188	0xbdcf1dc2	-0.10113098
189	0xbd91909b	-0.071076594
190	0x3ce5d10f	0.028053788
191	0xbde9deec	-0.11419472
192	0xbdb7af2a	-0.08968957
193	0xbc9273ab	-0.01787742
194	0xbd81020c	-0.062992185
195	0xbda3d902	-0.08000375
196	0xbd9667ee	-0.07344042
197	0xbe0c6d69	-0.13713612
198	0xbdc6ebf1	-0.09712971
199	0xbe0037f6	-0.12521347
200	0xbd9f124b	-0.07767161
201	0xbb4c1caa	-0.0031145015
202	0xbe014a3b	-0.12625973
203	0x3d739fad	0.05947845
204	0x3d2f29cc	0.04276447
205	0xbd7c81b0	-0.061647117
206	0xbcd57fdf	-0.02606195
207	0xbd917f8f	-0.07104408
208	0x3da78597	0.08179777
209	0x3d13d048	0.036087304
210	0x3cc0cc33	0.02353487
211	0xbce16c3d	-0.027517432
212	0x3d8f1ff4	0.069885164
213	0xbd7667ae	-0.06015747
214	0xbb856b62	-0.004071639
215	0xbc9b59c0	-0.018963695
216	0x3c39551d	0.0113117965
217	0x3d703c7e	0.05865144
218	0xbd390ccd	-0.045178223
219	0xbe013930	-0.12619472
220	0xbd88a059	-0.06671209
221	0x3bd7d422	0.0065865675
222	0xbd279df0	-0.040922105
223	0xbe004150	-0.12524915
224	0xbd029487	-0.031879928
225	0x3d0aced4	0.033888653
226	0x3d87a87f	0.06623935
227	0xbcd6d9a2	-0.026226822
228	0xbd2b5891	-0.04183251
229	0xbcf86f2e	-0.030326452
230	0x3bfe90b9	0.007768717
231	0xbdb08914	-0.086198956
232	0x3dc4a764	0.0960224
233	0x3cb497aa	0.022044975
234	0x3d7ec102	0.062195785
235	0x3d4a37cd	0.049369622
236	0x3c1e88d4	0.009676177
237	0xbdcf9e25	-0.101375856
238	0xbdf92c00	-0.121665955
239	0x3da03aff	0.078237526
240	0xbc0b35af	-0.008496686
241	0x3c8b843f	0.017030833
242	0x3d3cd7e0	0.046104312
243	0x3b86ffc1	0.0041198437
244	0x3db3cb46	0.08779006
245	0x3d282000	0.041046143
246	0xbdefe0b4	-0.117127806
247	0xbda4f179	-0.0805387
248	0xbdb4870b	-0.0881482
249	0x3d561989	0.052270446
250	0x3ca01938	0.019543275
251	0x3a7ec57c	0.00097187585
252	0x3c682983	0.014170053
253	0x3d9beb18	0.076132
254	0xbba37ad6	-0.0049890084
255	0x3db3724c	0.08762035

a2c_network.actor_mlp.4.bias f4 [64]
0	0x3c63fd4d	0.013915372
1	0xbd7383b6	-0.05945178
2	0x3d39a1b7	0.04532024
3	0x3cf69e2c	0.03010472
4	0xbd1351c0	-0.035966635
5	0xbd6de80c	-0.058082625
6	0xbd90d264	-0.07071379
7	0xbd8268c3	-0.06367638
8	0xbc9c823a	-0.019105066
9	0xbda4f81b	-0.08055135
10	0xbda66f49	-0.08126695
11	0x3d28ed35	0.041241843
12	0x3cdb7e5a	0.026793648
13	0xbdaf1ecd	-0.08550797
14	0xbd99d653	-0.07511582
15	0x3d0c3476	0.03422972
16	0xbd62da9d	-0.055384267
17	0xbcec2365	-0.028825471
18	0x3d99d588	0.07511431
19	0xbcf8444a	-0.030306
20	0xbd8b4a05	-0.068012275
21	0xbdb38548	-0.08765656
22	0xbdc2c5df	-0.09510397
23	0xbc4dbf30	-0.01255779
24	0x3d279cd1	0.040921036
25	0xbc5a3c61	-0.0133200595
26	0xbd959664	-0.07304075
27	0x3c90a520	0.017656863
28	0x3d9a1db2	0.07525195
29	0xbd3f8b49	-0.046763692
30	0xbe07ce5d	-0.13262315
31	0xbcb42e8e	-0.021994855
32	0xbd30bf48	-0.04315117
33	0x3bf6c141	0.007530362
34	0x39f732ba	0.00047149305
35	0xbda67657	-0.0812804
36	0xbd98c1f3	-0.07458868
37	0x3cf1332b	0.029443344
38	0xbca06faa	-0.019584496
39	0xbceeb81b	-0.029140523
40	0x3cf0a0a6	0.029373478
41	0x3cad63cc	0.02116575
42	0xbda1cfc6	-0.07900958
43	0xbbf69b73	-0.007525855
44	0xbd9bd882	-0.07609655
45	0xbe1a784e	-0.15084955
46	0x3d0125fd	0.03153037
47	0xbc646b04	-0.01394153
48	0xbdb206d1	-0.086927064
49	0xbd392475	-0.045200784
50	0x3d663dd6	0.056211315
51	0xbd6031b0	-0.054734886
52	0x3c9f574a	0.019450802
53	0xbda81f8b	-0.08209141
54	0x3d289ccb	0.041165154
55	0xbd7bc5fb	-0.061468106
56	0xbcdec65e	-0.027194198
57	0x3d244f49	0.040114675
58	0xbd474f62	-0.04865969
59	0xbd6c2501	-0.057652477
60	0x3d191f4a	0.037383355
61	0xbdb82745	-0.08991865
62	0xbd93f803	-0.07225039
63	0xbd0fcbf1	-0.035106603

a2c_network.value.weight f4 [1, 64]
0	0x3d965401	0.07340241
1	0xbc576e4c	-0.013148855
2	0xba53aa37	-0.0008074375
3	0x3dedebfc	0.11617276
4	0xbd9e4988	-0.07728869
5	0xbc143528	-0.009045877
6	0x3b428fb7	0.0029687712
7	0x3bcb7bed	0.0062098415
8	0xbc2836a7	-0.010266936
9	0xbd592705	-0.053015728
10	0x3a591df9	0.00082823593
11	0x3d233f0b	0.039855044
12	0x3b23a40f	0.0024969613
13	0x3b6a7036	0.003577245
14	0xbc68c6d0	-0.014207557
15	0xbc336c20	-0.010951072
16	0xbd93aaee	-0.072103366
17	0xbd2a4792	-0.04157216
18	0x3d8b10db	0.06790324
19	0xbcab3c3d	-0.020902747
20	0xbdd0ec56	-0.102013275
21	0xbd0c9931	-0.034325782
22	0xbb62f3fe	-0.0034630294
23	0xbbc763bc	-0.0060848873
24	0xbd11f960	-0.035638213
25	0x3d180e19	0.03712282
26	0xbd43af07	-0.04777434
27	0x3d1c7399	0.03819618
28	0x3c122d1f	0.0089218905
29	0xbe1ae345	-0.15125759
30	0xbcc2e0ca	-0.023788828
31	0xbb225be3	-0.0024774007
32	0xbdf34cda	-0.11879893
33	0xbb31e216	-0.0027142814
34	0xbca5d0bc	-0.020241134
35	0xbc67b865	-0.014143084
36	0xbe0c2ed6	-0.13689741
37	0x3d5d831b	0.05408011
38	0x3c6ff6d3	0.01464625
39	0xbc5fa48a	-0.013650069
40	0x3d4b833f	0.049685713
41	0xbcaf1fd3	-0.02137748
42	0xbc71e2ae	-0.014763517
43	0x3be7c55d	0.007073088
44	0x3d3023cf	0.0430029
45	0x3c2c6579	0.01052224
46	0x3d68872e	0.056769542
47	0xbd891f4b	-0.06695422
48	0xbd8764f9	-0.06611056
49	0xbdc7c043	-0.09753468
50	0xbb44b0a2	-0.0030012508
51	0xbd9f7e86	-0.07787804
52	0x3dad4421	0.0846026
53	0xbcf054d8	-0.029337332
54	0x3c775887	0.01509679
55	0x3c0d6882	0.008630874
56	0x3da38fd4	0.079864174
57	0x3d5f0ecd	0.054457474
58	0xbc709f37	-0.014686397
59	0xbdbc925a	-0.09207602
60	0x3df3b150	0.11899054
61	0xbdf9a70a	-0.12190063
62	0xbc2bc9e0	-0.0104851425
63	0xba38c5a8	-0.0007048496

a2c_network.mu.weight f4 [8, 64]
0	0x3bd08ccb	0.00636444
1	0xbc15db11	-0.009146468
2	0xbe1634d3	-0.14668588
3	0x3d6899ba	0.05678723
4	0x3c9ec94b	0.019383093
5	0x3d2e1614	0.042501524
6	0xbde3eef4	-0.11129561
7	0x3c67e1b1	0.01415293
8	0xbd60e676	-0.054907285
9	0x3d1c806e	0.038208418
10	0xbddca5b3	-0.10773792
11	0xbaf800f4	-0.0018921182
12	0xbc215138	-0.009846024
13	0xbd93a6e8	-0.07209569
14	0x3e3ea790	0.18618608
15	0xbce6b63f	-0.028163074
16	0x3ddce66b	0.10786136
17	0x3d953172	0.072848216
18	0x3d06046c	0.03271906
19	0xbe117c10	-0.14207482
20	0x3d889d15	0.06670586
21	0x3d5698e5	0.052391905
22	0x3e0542a8	0.13013709
23	0xbe0dbf85	-0.1384259
24	0xbd85a6b9	-0.065259404
25	0x3daeeeac	0.08541617
26	0x3d92b4f8	0.07163423
27	0x3e27c24f	0.16382717
28	0xbdc7e800	-0.09761047
29	0x3d8aacd0	0.067712426
30	0xbc94fe35	-0.018187622
31	0xbd994f13	-0.07485785
32	0xbdd0314b	-0.10165652
33	0x3e3a521a	0.18195382
34	0x3dbaa971	0.0911435
35	0x3e20f1c8	0.15717232
36	0xbd811281	-0.063023575
37	0x3d7288f7	0.05921265
38	0xbccd8157	-0.025086088
39	0xbdddd333	-0.10831299
40	0x3c4a502d	0.012348217
41	0x3debb71a	0.11509533
42	0x3de5a7bf	0.11213636
43	0xbc97da91	-0.018536838
44	0xbcac4cf6	-0.021032792
45	0x3d801a35	0.062549986
46	0x3b43a8b3	0.0029855191
47	0xbe049126	-0.12945995
48	0x3cd28016	0.025695842
49	0x3de6f38b	0.11276921
50	0xbd97fae1	-0.07420898
51	0x3d1c6ef1	0.03819174
52	0x3d333095	0.043747503
53	0x3c33230a	0.010933647
54	0xbdad9129	-0.08474953
55	0x3d73ae19	0.059492204
56	0xbd8ffbed	-0.07030473
57	0xbe370214	-0.17871886
58	0x3dc61704	0.09672359
59	0xbe2f4714	-0.17116958
60	0xbc1fb467	-0.009747601
61	0x3d0a0d76	0.033704244
62	0x3bff766b	0.007796099
63	0x3dd2fa63	0.10301664
64	0x3caf2c2c	0.021383367
65	0xbd69aed4	-0.057051495
66	0xbd9ece09	-0.07754142
67	0x3ca8b56c	0.020594321
68	0xbcb25dad	-0.021773184
69	0xbdca4cc5	-0.09877924
70	0xbc5afbcb	-0.013365696
71	0x3e3197ff	0.17343138
72	0xbd9b34a5	-0.075784005
73	0xbcab6638	-0.020922765
74	0xbd13bdab	-0.036069553
75	0xbd81c9a6	-0.063372895
76	0xbd8d0e49	-0.0688749
77	0xbd6df9f1	-0.05809969
78	0x3cdba57b	0.026812306
79	0xbc8bd72f	-0.017070381
80	0xbe1b10e6	-0.15143165
81	0x3d44c0f6	0.048035584
82	0xbd2fb5f8	-0.04289815
83	0x3d67c96d	0.05658858
84	0x3e00c2d4	0.12574321
85	0x3e04a4c0	0.12953472
86	0x3d9e7d47	0.077387385
87	0xbc5d29a9	-0.013498702
88	0xbd36004b	-0.044433873
89	0x3de4444c	0.11145839
90	0xbd91c441	-0.071175106
91	0xbd9ff1d3	-0.07809796
92	0x3e05f65f	0.13082264
93	0x3d426973	0.047463845
94	0x3d1462c6	0.03622701
95	0xbc8a6422	-0.01689345
96	0x3d10f574	0.035390332
97	0x3daee1e5	0.0853918
98	0x3db58bae	0.088645324
99	0xbc2af89f	-0.010435252
100	0xbc1e61bb	-0.009666855
101	0x3df8288e	0.1211711
102	0x3d873bb1	0.06603182
103	0xbd8af9f2	-0.067859545
104	0xbba1346c	-0.0049195793
105	0xbd2cc554	-0.042180374
106	0xbe176302	-0.14783862
107	0x3dba964e	0.091106996
108	0xbbe46d35	-0.0069710263
109	0x3db5bccd	0.088739015
110	0xbdbddabe	-0.092702374
111	0xbd1e4fd8	-0.038650364
112	0xbc13195d	-0.008978215
113	0x3dbcc71c	0.092176646
114	0x3df7e173	0.12103548
115	0xbc25aae1	-0.0101115415
116	0xbe06157f	-0.13094138
117	0x3d4f06c1	0.05054355
118	0x3e2e8708	0.17043698
119	0x3e467af5	0.19382842
120	0xbdc15cf4	-0.094415575
121	0xbd22ac7b	-0.03971527
122	0x3d9f6d96	0.07784574
123	0xbd0215ac	-0.03175895
124	0x3d376e5c	0.04478298
125	0xbd66b43b	-0.056324225
126	0x3d4a353b	0.04936717
127	0x3e16c4cd	0.14723511
128	0x3ccf8c89	0.025335567
129	0x3cec02ba	0.028809894
130	0xbd533bad	-0.051570583
131	0xbcf84061	-0.030304136
132	0xbd765b7b	-0.060145836
133	0x3e1a1a4b	0.15049092
134	0x3d88544e	0.06656705
135	0x3daf1415	0.08548752
136	0xbd2a695d	-0.04160439
137	0xbc937967	-0.018002225
138	0x3c1d036a	0.0095833335
139	0xbe127465	-0.14302213
140	0x3d88244f	0.0664755
141	0x3df5c438	0.120003164
142	0xbd9b78e5	-0.07591418
143	0xbd2b6a49	-0.04184941
144	0xbe616811	-0.22012354
145	0xbe1206b0	-0.14260364
146	0xbda86282	-0.08221914
147	0xbd16ee72	-0.036848493
148	0x3d78f7c0	0.060783148
149	0x3ceb6c3f	0.02873814
150	0x3dfa1cd0	0.12212527
151	0x3d86e4a3	0.06586578
152	0xbd1eeed5	-0.038801987
153	0x3de8cff6	0.113677904
154	0xbb6f294b	-0.0036493118
155	0xbcb3ce0c	-0.021948837
156	0xbe03b8a4	-0.12863404
157	0xbca85eb8	-0.020552978
158	0x3dfb953b	0.12284323
159	0xbbaebd7d	-0.0053326474
160	0xbe2581d6	-0.1616281
161	0xbd5c474c	-0.05377893
162	0xbdab19bc	-0.08354518
163	0x3e1f76f2	0.15572718
164	0xbd38cc0a	-0.04511646
165	0x3d8ded85	0.06930069
166	0xbc8f0fcf	-0.017463593
167	0xbe2e1a72	-0.17002276
168	0xbd0c0abd	-0.03418993
169	0xbd77c248	-0.060488015
170	0xbd94c155	-0.07263438
171	0x3d58f786	0.05297043
172	0x3e0627b3	0.13101082
173	0x3dcd6a84	0.10030082
174	0x3de6e8af	0.112748496
175	0x3c43ec16	0.011958143
176	0x3dd1763b	0.10227629
177	0xbd742be7	-0.05961218
178	0xbdb176d6	-0.08665244
179	0xbd8da288	-0.06915766
180	0xbdb774ee	-0.089578494
181	0x3dcb8b85	0.099387206
182	0xbd3c1f4c	-0.045928285
183	0xbd0ffb07	-0.035151508
184	0x3dbc24e7	0.09186726
185	0x3d9ff2e6	0.07810001
186	0xbdb92009	-0.09039313
187	0xbd7d06b8	-0.061773986
188	0x3d3c21ed	0.04593079
189	0x3cd856bd	0.026408548
190	0x3e8ee6d7	0.27910492
191	0xbd721656	-0.059103332
192	0xbdb876cf	-0.09007036
193	0xbd423f33	-0.047423553
194	0xbda02001	-0.07818604
195	0xbd18bd6e	-0.03729003
196	0x3da8680b	0.082229696
197	0x3d3705d1	0.04468328
198	0xbdb44212	-0.088016644
199	0xbd8e1db7	-0.069392614
200	0xbd3ffd72	-0.046872564
201	0xbd1c7831	-0.03820056
202	0xbdb28d91	-0.08718408
203	0x3d8dbb7d	0.06920526
204	0x3d35e3aa	0.04440657
205	0xbdf644e5	-0.12024859
206	0xbc9f83a8	-0.019471958
207	0x3d9a977d	0.07548425
208	0xbd18808d	-0.03723197
209	0x3e0b87da	0.13626042
210	0x3dc7be64	0.09753111
211	0xbb708140	-0.0036698133
212	0x3ca61e21	0.020278038
213	0x3cf1814c	0.029480599
214	0x3c7f87fd	0.015596387
215	0x3d3b5c0f	0.04574209
216	0x3c9f40c3	0.01944006
217	0xbb3eea0d	-0.0029131204
218	0x3d374293	0.044741224
219	0x3d7c929b	0.06166325
220	0x3db59d54	0.088678986
221	0x3d89b18c	0.067233175
222	0xbd0ce9e0	-0.034402728
223	0xbd0d226b	-0.03445665
224	0xbc9e699c	-0.019337468
225	0xbdec10f3	-0.1152667
226	0xbdd4253e	-0.10358666
227	0x3c1f1c85	0.009711389
228	0xbd48eb80	-0.049052715
229	0x3d1f95f2	0.03896136
230	0x3d69f9a4	0.05712284
231	0x3c8a270f	0.016864328
232	0xbc8f0964	-0.017460532
233	0xbc45701b	-0.012050654
234	0x3dcf2692	0.101147786
235	0x3d91dbe1	0.07122017
236	0x3daf17d7	0.08549469
237	0x3d2c599d	0.04207765
238	0x3d017e51	0.031614605
239	0x3d0a621f	0.03378498
240	0x3cc0fb51	0.023557337
241	0x3c94c45d	0.01816004
242	0x3d0809fc	0.033212647
243	0x3d55bdd7	0.052183
244	0xbe0c3d15	-0.13695176
245	0xbe0f4416	-0.13990816
246	0xbc82a285	-0.015946636
247	0x3dcb92ca	0.09940107
248	0x3c469d85	0.0121225165
249	0x3d90e098	0.07074088
250	0xbd229345	-0.03969123
251	0xbc525969	-0.0128387
252	0x3d3e9787	0.046531226
253	0xbdea84b0	-0.114510894
254	0xbcca36f5	-0.024684409
255	0xbc12fd14	-0.008971471

a2c_network.mu.bias f4 [8]
0	0xbdd14326	-0.10217886
1	0xbda7a6bc	-0.08186099
2	0xbd2b0a49	-0.041757856
3	0x3d71a785	0.05899765
4	0xbd7928fa	-0.060830094
5	0x3c815892	0.015789304
6	0xbe047ad6	-0.12937483
7	0xbd059386	-0.032611392

exp_avg f4 [8]
0	0x3b7fe4b2	0.0039046225
1	0x3b9461fd	0.0045282827
2	0xbaf98655	-0.0019037226
3	0x3b663bc7	0.0035130845
4	0x3b5c9560	0.003365837
5	0x3bd9804c	0.0066376086
6	0x3b52f9ff	0.0032192466
7	0x3b5e26a9	0.0033897555

exp_avg_sq f4 [8]
0	0x3868fa4c	5.5546217e-05
1	0x389a7a5c	7.3660834e-05
2	0x3858fde7	5.1734878e-05
3	0x38716e2c	5.7561483e-05
4	0x38710d92	5.7471516e-05
5	0x38a57aa3	7.890656e-05
6	0x3881e42d	6.1937004e-05
7	0x389019d4	6.871266e-05
