runs/Ant_31-18-32-45/nn/last_Ant_ep_350_rew_5056.858.pth (torch, 705875 bytes, 36 tensors)

value_mean_std.running_mean f8 [1]
0	0x4011646d23fc35b8	4.34807258822314

value_mean_std.running_var f8 [1]
0	0x4012fa193bf7ecbd	4.744236886031271

value_mean_std.count f8 []
0	0x4185e00008000000	45875201.0

running_mean_std.running_mean f8 [60]
0	0x3fe3b416648f4bc9	0.6157333339746113
1	0x400e37ae60604192	3.777188065469269
2	0xbfe89a3cfd1acc12	-0.7688279097986899
3	0xbfe4632a6c7e8d96	-0.6371051901846154
4	0x3fa2bd9f662ab2e6	0.036602956029445896
5	0xbf38d932faced931	-0.00037915701505699106
6	0xbf9cc06cbe1e68c4	-0.02807779226677877
7	0x4003f1c7aabcde93	2.493056615723455
8	0x4010cdd88b520869	4.201021363145721
9	0xc003f313bb253f1c	-2.4936899777166115
10	0x3fed28f85daa71d1	0.9112512425813809
11	0x3fea4b548dba45ce	0.8216955917470672
12	0xbfdf3b4c0aa5fff2	-0.48799420394789117
13	0xbfdfdcda9741342e	-0.49785485049216305
14	0xbfcb780ad21a4d03	-0.21460089930460677
15	0x3fea4f371fe188b4	0.8221698401141766
16	0xbf89a8a389f31938	-0.012528684279811672
17	0x3fe6f85028a16aaa	0.717811660152923
18	0x3fb3b9543e2f4d5b	0.07704664724524461
19	0xbfe47a835a632508	-0.6399552121521603
20	0x3f96f9e10dd08bae	0.022437588184526618
21	0x3fadb48dff9931c1	0.058018147898653456
22	0x3fa1c6962feb1742	0.03471822104397272
23	0xbfb23f751f2a168a	-0.07128078471040503
24	0xbf86be2764d6322e	-0.011104877247611968
25	0xbfa6e2fab03e2fc6	-0.044700464262035264
26	0xbf50e4a43c60145c	-0.0010310748925814938
27	0x3faea461ab1e70e3	0.059847881449259586
28	0xbfd466b455e1216d	-0.31876858126317736
29	0x3f8aeb727c9c32e4	0.01314439242153171
30	0xbfc5c0fb22b698c3	-0.16995181269630252
31	0xbfa61cd53b7ea8c3	-0.043188727867645514
32	0xbf584d2c0d245aa4	-0.0014832430065944502
33	0x3fa10cb578739885	0.03330008597713267
34	0xbfa8027b174afc4b	-0.046893927186368055
35	0xbf92d2d1085613b6	-0.018382326253703694
36	0xbfdb5a4b1967a5fc	-0.4273860691160676
37	0xbfb3a4f94ddff35a	-0.07673605109444051
38	0xbf4b163238d3f886	-0.0008266206001790323
39	0x3f850370aa5d7bde	0.010260467719204355
40	0xbfaec1d4f6329770	-0.060072569898052985
41	0x3f84027d00f96cfb	0.00977037104819666
42	0xbfc77d00af454d0c	-0.183502278882408
43	0x3f9f865fd6a50771	0.030786035037869867
44	0x3f2f844950f1e4cf	0.0002404536721518969
45	0xbf6344faa9e11cc4	-0.0023522277615800353
46	0xbfbf7aea7608d6b7	-0.12296929723455717
47	0xbf91828c7f60e0f6	-0.017099566721499003
48	0xbfd3aec72368d921	-0.3075425954624667
49	0x3fb00951b3172c1c	0.0626421987755496
50	0xbf34ca8a13cc7f39	-0.00031724806813037163
51	0xbf2d177b06350ae7	-0.00022195221672845837
52	0xbfd047d767c50d95	-0.25438485273135686
53	0xbfc3297aa8c2f0e6	-0.1497033428221421
54	0xbfbc092b7e43e613	-0.10951492149970248
55	0x3fd3da3edef6e7ee	0.31019565366625457
56	0xbf710afce4d7c7ba	-0.00416086947142163
57	0x3fbb39f6400b460d	0.10635317863059175
58	0x3f8e84d58429d003	0.014901798339657551
59	0xbfce69623611e9e8	-0.23759105339179531

running_mean_std.running_var f8 [60]
0	0x3f8b3ad091672605	0.01329577392324933
1	0x40178f4da5dc070f	5.8899446406883404
2	0x40012c349dcf31e1	2.1465847329002234
3	0x3feb34e26705ac7d	0.8502056133414865
4	0x400f271308f7a8a5	3.894079275186487
5	0x40121ea089baba77	4.529909278890606
6	0x402150294f5989c1	8.656565169982857
7	0x401d7be75f5e9bf8	7.370999803685656
8	0x401f4b293ec8774d	7.823399525628543
9	0x401d7be427d62d9a	7.370987532088657
10	0x3fb411fd7230da4e	0.07839950597631537
11	0x3fbfdb4943b52857	0.12443979170817109
12	0x3fdb88249773a7ae	0.43018450536930686
13	0x3fd21c7b7a5d0897	0.2829884238200377
14	0x3fddc5cd87f8a401	0.4651979282230628
15	0x3fca833ff1111373	0.20713042517504796
16	0x3fde4f88e6122f8e	0.4736044165408594
17	0x3fca457cd3d0a06b	0.20524559347655055
18	0x3fdb5e41e2af7934	0.42762801301241216
19	0x3fcf249dd8266a42	0.24330494932367414
20	0x400a9cb1588d9598	3.3265101354797473
21	0x4008eeb22041e916	3.1165506858934675
22	0x4012545e83eb0b4e	4.582391797276456
23	0x3fea9e338cedc128	0.831811690570281
24	0x4016b765d7292863	5.679099428069182
25	0x3ff7cfa44f7813b1	1.4881938080081734
26	0x40005fec21113e24	2.046837099398333
27	0x40028ed2d49c76b6	2.3197380647896706
28	0x3ff710ac5cc17ca6	1.4415706275247344
29	0x3fcb0806c9425e47	0.21118244959937923
30	0x3febc482c873ccea	0.8677381434521554
31	0x3f9542b2435583af	0.020762238845580757
32	0x3f10ef317164678c	6.459941173311677e-05
33	0x3f7a30a8378971c9	0.006394059274125793
34	0x3ffe7f32e7e7e775	1.9060544070075285
35	0x3fc19ca7e6fff614	0.13759325770654185
36	0x3fec103386fc9cde	0.8769776951275181
37	0x3f925878389543ce	0.017915609792286173
38	0x3f0e02d1c07e736d	5.724146473016262e-05
39	0x3f84ee1832116e25	0.010219754245716814
40	0x400356b7a5017599	2.4173424616880763
41	0x3fc4c854fe18eb42	0.1623636475286166
42	0x3fecac87c7e4f087	0.8960608390984967
43	0x3f92310db60823d6	0.01776524947675625
44	0x3f14b86eed0c6746	7.904221571344597e-05
45	0x3f8901f2d9ef20a2	0.012210747981854123
46	0x3fe6a7e1ab4613b8	0.7079933495702937
47	0x3fc6d18fc29d1d36	0.1782703113806094
48	0x3fefe89fa4ac6269	0.9971464363362205
49	0x3f946c6ecd3a02c7	0.01994488837817945
50	0x3f03b10f59eb98e3	3.7558823569304606e-05
51	0x3f6771bd416ae0a7	0.0028618523022850453
52	0x3fda8e7e8e25fa55	0.41494716531443504
53	0x3fd6dfb81e383a5f	0.35740473700653824
54	0x3fe0189dcadb8cfb	0.5030049287855997
55	0x3fd2fd0e099bec10	0.29669524134050196
56	0x3fe0ff25f43197f9	0.5311460275086112
57	0x3fd42ed13e0c8b54	0.31535750445816757
58	0x3fd9cce61a8b1a2e	0.4031310328686314
59	0x3fd781683f76aa8d	0.36727338979350393

running_mean_std.count f8 []
0	0x4175e00010000000	22937601.0

a2c_network.sigma f4 [8]
0	0xbf958e8e	-1.1684129
1	0xbfc35ae2	-1.526211
2	0xbf9518f8	-1.1648245
3	0xbf9d8c96	-1.2308528
4	0xbf9808ec	-1.1877723
5	0xbfcfd0c9	-1.6235591
6	0xbf9cfd8c	-1.2264876
7	0xbfac502c	-1.3461967

a2c_network.actor_mlp.0.weight f4 [256, 60]
0	0x3d6890a2	0.056778558
1	0xbe320f38	-0.17388618
2	0xbbe1c6f4	-0.006890172
3	0xbd408705	-0.047003765
4	0x3e116bca	0.14201275
5	0x3d3402fd	0.043948162
6	0x3e8cbb77	0.27486774
7	0xbdd1eca8	-0.10250217
8	0xbdc5511c	-0.09634611
9	0xbd50e66b	-0.051000994
10	0x3de592ca	0.112096384
11	0xbd1eae36	-0.03874036
12	0x3e980570	0.29691648
13	0xbe57a1ca	-0.21057811
14	0xbe1f55bd	-0.1556005
15	0xbe01aac1	-0.12662794
16	0xbda52778	-0.08064169
17	0x3be96e6b	0.0071237586
18	0x3db3980d	0.08769236
19	0x3dd5bd7b	0.10436531
20	0x3d37c1a9	0.044862423
21	0xbe338470	-0.1753099
22	0x3d9ebdcd	0.077510454
23	0xbdaf7aaf	-0.08568322
24	0x3d0f3fb0	0.034972847
25	0xbd645f29	-0.055754814
26	0x3da684fa	0.08130832
27	0xbcf3717b	-0.029717198
28	0xbdaeeadd	-0.0854089
29	0x3d6f3bcc	0.058406636
30	0x3ca23177	0.019798977
31	0xbce6edd7	-0.028189583
32	0x3bf06067	0.007335711
33	0x3cc30bf1	0.023809405
34	0xbd957b65	-0.07298926
35	0x3c080e69	0.008304217
36	0x3d0b7638	0.03404829
37	0xbda9210b	-0.082582556
38	0xbc6e47bd	-0.014543471
39	0xbe1ddb00	-0.15415573
40	0xbd7ea9cd	-0.062173653
41	0x3d2fdd60	0.04293573
42	0x3d0f5dff	0.03500175
43	0xbd929f6a	-0.07159312
44	0x3bb887f2	0.0056314403
45	0xbd7089c2	-0.058725126
46	0xbe0e5825	-0.13900812
47	0xbce4f95b	-0.027950933
48	0xbdcce1de	-0.10004018
49	0xbd7a7e63	-0.061155688
50	0x3e0029ad	0.12515898
51	0x3da0deac	0.07854971
52	0x3d16d647	0.036825445
53	0xbe04ebb5	-0.1298054
54	0xbd1fc6ba	-0.03900788
55	0xbd3e8677	-0.046514954
56	0xbbe50849	-0.006989513
57	0xbdbaf036	-0.09127848
58	0xbdc46ece	-0.09591447
59	0x3c030ed6	0.007999143
60	0x3b8d31f1	0.004308932
61	0xbe02c4d5	-0.12770398
62	0x3d407340	0.04698491
63	0xbd124397	-0.03570899
64	0xbe20ffd6	-0.15722594
65	0xbdf4ca04	-0.11952594
66	0xbd270520	-0.040776372
67	0xbce21047	-0.027595652
68	0x3e70d177	0.23517404
69	0xbdcca8d7	-0.09993141
70	0x3e2a2290	0.16614747
71	0x3df358f4	0.11882201
72	0xbcb3a5f2	-0.021929715
73	0x3d911626	0.070843026
74	0x3da1ed32	0.079065695
75	0x3c842e31	0.016135307
76	0xbe4ad8e5	-0.19809301
77	0xbe463caa	-0.19359079
78	0x3dae95ef	0.08524691
79	0xbc9a437d	-0.018831009
80	0x3db985b4	0.09058705
81	0xbdb2528b	-0.0870715
82	0x3cec796a	0.028866488
83	0xbdd80786	-0.1054831
84	0xbda58314	-0.08081642
85	0xbb86c02e	-0.004112265
86	0x3de6fde7	0.11278897
87	0x3d9e5670	0.077313304
88	0x3d7c3a16	0.061578833
89	0xbd910096	-0.0708019
90	0x3d222582	0.03958655
91	0xbd30923e	-0.043108217
92	0xbd3748ac	-0.04474704
93	0xbdf41674	-0.11918345
94	0x3d6428d7	0.05570301
95	0xbe190e19	-0.14946784
96	0xbad001b4	-0.0015869648
97	0xbd258aff	-0.04041576
98	0x3d07c2e5	0.03314485
99	0xbdb1c62d	-0.08680377
100	0x3d45cf94	0.048293665
101	0x3e196896	0.14981303
102	0x3cc1162c	0.023570143
103	0xbd8d261c	-0.068920344
104	0x3d3e35e1	0.0464381
105	0xbe0caa1d	-0.13736768
106	0xbd9d6bf0	-0.07686603
107	0x3e23e47a	0.16005126
108	0xbce9246c	-0.02845975
109	0xbcf30157	-0.029663725
110	0xbdbf3d2d	-0.0933784
111	0x3b42302a	0.0029630759
112	0x3c5e25dd	0.013558832
113	0x3d3f6e29	0.046735916
114	0xbd05ea3f	-0.032694098
115	0xbcf362ce	-0.0297102
116	0xbd005cdf	-0.03133857
117	0x3dfde4b8	0.1239714
118	0x3d4e850e	0.05041986
119	0xbdf5a7aa	-0.1199487
120	0x3d9529f2	0.07283391
121	0x3de2d88c	0.11076459
122	0x3d833946	0.064074084
123	0x3bc3b3bc	0.0059723537
124	0x3e06583f	0.131196
125	0x3d1e8eb4	0.03871031
126	0xbcf07557	-0.029352827
127	0xbce84aa0	-0.028355896
128	0xbe01719f	-0.12641
129	0x3c9fc1f9	0.019501673
130	0x3d2a5d5b	0.041592937
131	0xbce893e3	-0.02839083
132	0x3e4268f6	0.18985352
133	0x3dd563b3	0.10419407
134	0xbd04d963	-0.03243388
135	0x3bec31f9	0.0072081056
136	0x3c53f5af	0.0129369935
137	0xbd119fc3	-0.03555275
138	0x3d2608b4	0.040535644
139	0x3d104253	0.0352195
140	0xbe405f41	-0.18786336
141	0xbdc79650	-0.09745467
142	0x3de713b9	0.11283059
143	0x3dbc2e35	0.09188501
144	0x3d4d1bff	0.050075527
145	0xbcb096f9	-0.021556364
146	0xbd8672ef	-0.065648906
147	0xbd8f2d2c	-0.06991038
148	0xbb6e2021	-0.0036335068
149	0x3aa59c83	0.0012635145
150	0xbc931d70	-0.017958373
151	0x3c96920e	0.018380191
152	0xbde64ecd	-0.11245499
153	0xbdb1c92f	-0.08680951
154	0xbcac3d9c	-0.021025471
155	0x3dc5db19	0.0966093
156	0xbbe766f2	-0.0070618326
157	0xbd0f9ad7	-0.035059776
158	0x3da59d08	0.08086592
159	0x3d30599f	0.04305422
160	0xbad2a797	-0.0016071674
161	0x3da0fc82	0.07860662
162	0xbd1164f6	-0.035496674
163	0x3b60a804	0.0034279833
164	0xbda0979a	-0.07841416
165	0x3d782545	0.060582418
166	0x3d3a8f64	0.045546904
167	0x3d85b724	0.06529072
168	0xbd641ea6	-0.05569329
169	0xbe2075cb	-0.15669934
170	0xbdba3d87	-0.09093767
171	0x3c538836	0.012910893
172	0x3c049e23	0.008094343
173	0x3d9772c0	0.07394934
174	0xbb30ec9f	-0.0026996506
175	0x3d7e83c1	0.06213737
176	0x3d84bc34	0.064812094
177	0x371cbef5	9.342785e-06
178	0xbd822704	-0.06355098
179	0xbd4e85e1	-0.050420646
180	0x3daf195a	0.08549757
181	0xbd45dd7b	-0.048306923
182	0x3d139413	0.036029886
183	0xbdaf8bfd	-0.085716225
184	0xbb734440	-0.0037119538
185	0xbe3aa592	-0.18227223
186	0xbdc04e96	-0.09389989
187	0x3c931f8a	0.017959375
188	0xbdc467f7	-0.09590142
189	0x3dd6200f	0.104553334
190	0xbdaca552	-0.0842997
191	0xbdf2e74f	-0.11860525
192	0x3dd059b9	0.10173363
193	0xbe3428b2	-0.17593649
194	0xbdb8888e	-0.09010421
195	0xbe4880c9	-0.19580378
196	0x3e617b46	0.22019681
197	0xbd909ef0	-0.07061565
198	0x3e11c3e1	0.14234878
199	0x3dc6dc2d	0.09709964
200	0x3c470e2a	0.012149373
201	0xbe84f5e4	-0.2596885
202	0x3d974a36	0.073872015
203	0xbdace1d6	-0.08441512
204	0x3dd101fd	0.10205457
205	0x3d333e84	0.04376079
206	0xbdd63db7	-0.1046099
207	0x3d94c906	0.07264905
208	0x3d5e8274	0.05432363
209	0xbdec79e6	-0.11546688
210	0x3d64fa72	0.055902906
211	0xbd94546b	-0.07242664
212	0x3e318976	0.17337593
213	0x3d1cd7b3	0.038291644
214	0x3dc860ee	0.09784113
215	0xbd53c0d8	-0.051697582
216	0xbdaf8c53	-0.085716866
217	0x3d45b592	0.048268862
218	0x3da5c95f	0.08095049
219	0xbdae56d2	-0.085126534
220	0xbd1eb62e	-0.03874796
221	0xbd4ac11a	-0.049500562
222	0xbb831c60	-0.0040011853
223	0xbd148c6e	-0.036266737
224	0xbd835abf	-0.06413793
225	0xbe202641	-0.15639593
226	0xbd5ff1b6	-0.054673873
227	0x3deb4fa8	0.114898026
228	0x3dd30821	0.10304285
229	0xbd1ae5b4	-0.03781672
230	0x3c3e0398	0.0115975365
231	0xbd129e90	-0.03579575
232	0xbe293788	-0.1652509
233	0xbd6d7bef	-0.05797952
234	0x3d97a6cf	0.07404863
235	0xbe004e99	-0.12529983
236	0xbd8570ae	-0.065156326
237	0x3af1266b	0.001839829
238	0xbdd562f4	-0.104192644
239	0x3c682c5a	0.0141707305
240	0xbcd46438	-0.025926694
241	0x3bbddf55	0.0057944455
242	0x3cec51ae	0.028847542
243	0xbda91b30	-0.08257139
244	0xbe2c2617	-0.16811405
245	0x3de2e155	0.11078135
246	0xbd0f8881	-0.03504229
247	0x3bd8f88f	0.0066214274
248	0xbdc876bc	-0.09788272
249	0x3d1bf8db	0.038079124
250	0x3e86599f	0.2624025
251	0x3e20d6fa	0.15707007
252	0xbde5077d	-0.11183069
253	0xbc87c0f7	-0.016571505
254	0x3dd000d1	0.10156406
255	0x3ba1a5aa	0.004933079

a2c_network.actor_mlp.0.bias f4 [256]
0	0xbc725d5a	-0.014792765
1	0xbcfd126c	-0.030892573
2	0xbca2e1a3	-0.019882983
3	0x3ccf6d59	0.025320696
4	0x3bfedaa9	0.007777531
5	0xbc2d03bc	-0.010559972
6	0x3c94db6d	0.018171037
7	0xbd82ecca	-0.0639282
8	0xbdb03c62	-0.08605267
9	0xbc6a88aa	-0.01431481
10	0x3d53f094	0.051743105
11	0x3bdb5c52	0.006694355
12	0xbd16d9a0	-0.036828637
13	0xbc9e605b	-0.019333055
14	0xbd9d2238	-0.07672542
15	0xbc645568	-0.013936378
16	0xbd38caf1	-0.045115415
17	0x3d27e373	0.040988397
18	0xbd1970a6	-0.037460946
19	0x3d0dcaef	0.03461736
20	0xbd176819	-0.03696451
21	0xbd4a37d8	-0.049369663
22	0x3ae3c471	0.001737727
23	0x3a7932fe	0.00095061946
24	0xbd6fb24d	-0.05851965
25	0xbc6b7d04	-0.014373068
26	0x3bf018fc	0.007327197
27	0x3d80e662	0.06293942
28	0xbd2dfe45	-0.04247882
29	0x3d8d6fa1	0.06906057
30	0x3aa852c7	0.0012842052
31	0x3d10cbbb	0.035350543
32	0xbc41a83c	-0.011819895
33	0xbd485410	-0.048908293
34	0x3d2de77f	0.0424571
35	0x3d9d2e39	0.07674832
36	0x3c410d01	0.0117828855
37	0xbd4f1c96	-0.05056437
38	0x3ab06028	0.0013456391
39	0x3d4c540b	0.049884837
40	0x3d4a5e94	0.049406603
41	0x3d9393c7	0.07205921
42	0xbcfef40f	-0.031122236
43	0x3d7fd78c	0.06246142
44	0xbc200635	-0.009767105
45	0xbcdc7d52	-0.026915226
46	0xbc1b50a4	-0.009479675
47	0x3d2a19a8	0.041528374
48	0xbc9cb1dc	-0.019127779
49	0xbd408866	-0.04700508
50	0xbc33b771	-0.010969029
51	0xbd540903	-0.051766407
52	0xbbfe24dc	-0.007755859
53	0x3ceb0636	0.028689485
54	0x3d5f9f0a	0.05459503
55	0x3d823091	0.063569196
56	0xbd194b8d	-0.037425566
57	0xbb3ad379	-0.0028507395
58	0x3d4cae67	0.04997101
59	0x3ca8a5ed	0.020586932
60	0x3cc7a2fa	0.024369705
61	0x3d914941	0.0709405
62	0xbcc6d9c6	-0.024273764
63	0xbd04c254	-0.03241189
64	0xbd99f616	-0.0751764
65	0xbc8050d2	-0.015663538
66	0xbd85f088	-0.06540018
67	0xbc51daed	-0.012808544
68	0x3d1b5b5a	0.037928917
69	0xbc402671	-0.011727915
70	0xbd82be33	-0.06383934
71	0x3b2404ed	0.002502735
72	0x3dc44368	0.09583169
73	0x3a886cf7	0.0010408451
74	0xbd192b77	-0.037394967
75	0xbcb9cd8c	-0.02268102
76	0xbd094582	-0.033513553
77	0x3d8f3e48	0.06994301
78	0xbc2f4712	-0.010698097
79	0xbd01daa5	-0.031702656
80	0x3b514e9b	0.0031937722
81	0xbd1d3291	-0.038378302
82	0xbd4d9ea3	-0.050200116
83	0xba5f870e	-0.00085268996
84	0x3b8d1e03	0.004306556
85	0xbe01a03c	-0.12658781
86	0x3b9c75d7	0.00477479
87	0x3c10087e	0.008791087
88	0x3c9292e4	0.017892309
89	0xbcba9775	-0.022777298
90	0x3d613ac3	0.05498768
91	0x3c985f50	0.018600136
92	0xbc9f19b7	-0.019421441
93	0x3811b408	3.473836e-05
94	0xbbc97adc	-0.006148679
95	0x3ca57242	0.020196084
96	0xbd1e3636	-0.03862592
97	0xbd4719f5	-0.04860874
98	0x3d94acb9	0.07259507
99	0xbc2df490	-0.01061739
100	0xbda6b4db	-0.08139964
101	0x3deef3a7	0.11667567
102	0xbd139ca2	-0.03603805
103	0x3bf0040a	0.0073247002
104	0xbccbb238	-0.024865255
105	0x3b6bbe7d	0.0035971694
106	0xbd26446e	-0.040592603
107	0xbd6e027a	-0.05810783
108	0xbd33fc2c	-0.04394166
109	0xbd1b625f	-0.03793561
110	0x3aad23eb	0.0013209557
111	0xbad89756	-0.0016524594
112	0xbc8b77de	-0.01702493
113	0x3bc9a5a8	0.006153781
114	0x3d070c52	0.032970734
115	0xbd2c0c97	-0.042004194
116	0xbd0631b8	-0.03276226
117	0xbd0a1b61	-0.033717517
118	0x3c2985b8	0.010346822
119	0x3c9b4dd2	0.018958006
120	0x3c41aaba	0.01182049
121	0x3d659045	0.05604579
122	0x3d42ec12	0.047588415
123	0x3b4287ee	0.0029683071
124	0x3bbeff82	0.0058287987
125	0x3d531935	0.05153771
126	0x3d30edce	0.04319554
127	0x3bee5a87	0.0072739753
128	0x3b128776	0.0022358573
129	0xbd4b70fb	-0.049668293
130	0x3c9e0229	0.01928814
131	0xbb32c37d	-0.0027277165
132	0x3c0a2509	0.008431681
133	0x3c722920	0.014780313
134	0xbc92cad5	-0.017918983
135	0xbc28ca9f	-0.010302215
136	0xbdc735b3	-0.09727039
137	0xbd80817e	-0.06274699
138	0xbcb4f129	-0.02208765
139	0xbe22f698	-0.1591438
140	0xbc3b8c39	-0.011447006
141	0x3b968ddb	0.004594547
142	0x3c792c32	0.015208291
143	0x3d3b5594	0.04573591
144	0xbc1c118a	-0.009525666
145	0x3d6a6835	0.057228286
146	0x3ca102c7	0.019654645
147	0x3cfa884b	0.030582568
148	0x3b53372a	0.0032228925
149	0x3c8d4f82	0.017249826
150	0xbda16b03	-0.07881739
151	0x3b4cf34a	0.0031272941
152	0x3d12afa5	0.03581204
153	0xbcc0e943	-0.023548728
154	0x3c5d7d86	0.013518697
155	0xbccee82f	-0.025257198
156	0xbc364f1f	-0.011127262
157	0x3d0d3fa9	0.03448454
158	0x3c7dd879	0.015493506
159	0x3c6592b6	0.014012029
160	0x3d3c8602	0.046026237
161	0x3d70090e	0.058602385
162	0xbd8c099b	-0.068377696
163	0xbd86dd8c	-0.065852255
164	0x3c189621	0.009313137
165	0xba536b4b	-0.0008064999
166	0xbd2c175c	-0.042014465
167	0xbb89d876	-0.0042067124
168	0x3cbfa316	0.023393195
169	0xbd286224	-0.04110922
170	0x3cf14d9f	0.029455958
171	0xbca95875	-0.020672062
172	0x3dc63d09	0.0967961
173	0x3bb99f78	0.005664762
174	0x3c716e91	0.014735834
175	0xbd2d1f47	-0.042266157
176	0x3d073417	0.03300866
177	0x3aab7abf	0.0013082846
178	0xbc4a3efd	-0.012344119
179	0xbd6954ad	-0.05696552
180	0x3da41f5a	0.08013792
181	0xbd60689c	-0.054787263
182	0xbdd59500	-0.1042881
183	0xbdad7ec9	-0.08471448
184	0xbc6d5a24	-0.014486823
185	0x3bdb2856	0.006688158
186	0x3d5f63cd	0.054538537
187	0x3a898e9e	0.0010494774
188	0xbcb4a17f	-0.022049664
189	0xbd333822	-0.043754704
190	0xba5cfde2	-0.00084301655
191	0xbd5fe502	-0.05466176
192	0xbda11b62	-0.07866551
193	0xbca56569	-0.020189958
194	0xbdb13b58	-0.08653897
195	0x3db286f4	0.087171465
196	0x3cf91ec5	0.03041018
197	0xbd12a850	-0.035805047
198	0xbd01299f	-0.031533834
199	0xbd004561	-0.031316165
200	0x3c169f40	0.009193242
201	0xbcf4b5ac	-0.029871784
202	0xbb9a8257	-0.0047152448
203	0xbd1877e6	-0.03722372
204	0xbd914e67	-0.07095032
205	0x3d059dcd	0.032621194
206	0xbc91a243	-0.017777568
207	0xb9afde39	-0.0003354417
208	0xbcdd0c44	-0.026983388
209	0x3db0ae90	0.08627045
210	0xbbe52b4b	-0.0069936863
211	0x3d0ca188	0.034333736
212	0xbc1c7a15	-0.009550591
213	0xbc86338a	-0.016381998
214	0xbc3d82fc	-0.011566874
215	0xbd4126c3	-0.047156107
216	0xbd47c772	-0.04877419
217	0x3cd7a960	0.026325881
218	0xbcb74d7f	-0.02237582
219	0x3c5cbea7	0.013473189
220	0xbd3e2579	-0.046422455
221	0xbb9601d3	-0.004577854
222	0x3d833b9a	0.064078525
223	0x3b903b54	0.0044016037
224	0x3dea1764	0.11430243
225	0x3cc641be	0.02420127
226	0x3dc88373	0.09790697
227	0x3baefc11	0.0053401073
228	0xbcd07423	-0.025446003
229	0x3b3b8ff2	0.0028619734
230	0x3d3698f4	0.04457946
231	0xbc25c291	-0.010117189
232	0x3d13a4e8	0.03604594
233	0xbc5ffc01	-0.013670922
234	0x3d73d970	0.059533536
235	0x3ce68b7b	0.028142681
236	0x3d0355f3	0.03206439
237	0xbc5102af	-0.0127569875
238	0xbcc59056	-0.024116676
239	0x3cd8045c	0.026369266
240	0x3cc32e88	0.023825899
241	0xbcdab1f8	-0.02669619
242	0x3d01e541	0.031712774
243	0x3cb26b24	0.021779604
244	0xbb7b19ef	-0.0038315018
245	0x3c0aa98e	0.008463277
246	0x3d6be8ed	0.057595182
247	0xbdc202ee	-0.09473215
248	0xbbd2ec32	-0.006436848
249	0xbd934abe	-0.0719199
250	0xb9513a59	-0.0001995353
251	0xbcb27cdd	-0.021788055
252	0x3c681a9b	0.0141664995
253	0x3d74a4ff	0.059727665
254	0x3cc44989	0.023960846
255	0xbd2d1066	-0.042251967

a2c_network.actor_mlp.2.weight f4 [128, 256]
0	0xbcfd30a3	-0.03090698
1	0x3d582f85	0.052779693
2	0xbd414511	-0.047185007
3	0xbd68b9e8	-0.05681792
4	0x3ca2896b	0.019840917
5	0x3d3be449	0.045872007
6	0xbc836a17	-0.016041799
7	0x3da0751f	0.07834839
8	0xbcc662ba	-0.024216998
9	0x3d7cf821	0.06176007
10	0x3da3b472	0.079934016
11	0xbd6ed25f	-0.058306094
12	0xbda9ab8f	-0.08284675
13	0x3cec6dec	0.028861009
14	0xbbb4400e	-0.0055008
15	0x3d1be667	0.038061526
16	0xbdb11d32	-0.08648147
17	0x3d9a13bd	0.07523296
18	0xbced2e1b	-0.028952649
19	0x3b0447a5	0.0020184305
20	0xbc6bb558	-0.014386497
21	0x3c16b102	0.009197475
22	0xbd9a7c09	-0.07543189
23	0xbbac459e	-0.0052573225
24	0xbb11e276	-0.0022260225
25	0x3d5db202	0.05412484
26	0xbc2efa81	-0.010679842
27	0xbdfff913	-0.12498679
28	0xbb580fb9	-0.0032968356
29	0xbdcfd74a	-0.10148485
30	0x3d50ddc7	0.050992753
31	0xbd8c2681	-0.068432815
32	0x3d9c0cfd	0.07619665
33	0x3b24f6bf	0.0025171486
34	0x3d86cd32	0.06582107
35	0xbc6cdaab	-0.014456431
36	0xbda49293	-0.08035769
37	0xbd575412	-0.05257041
38	0xbc12808f	-0.008941784
39	0xbd994eef	-0.074857585
40	0x3d12df61	0.035857562
41	0xbb906514	-0.0044065807
42	0xb853d5c6	-5.0505412e-05
43	0x3d2407b0	0.040046394
44	0xbdbd8ed2	-0.092557564
45	0xbd04d398	-0.032428354
46	0x3d1660d2	0.03671343
47	0x3ccfe4f4	0.025377728
48	0xbcc5d835	-0.024150947
49	0xbce4a847	-0.027912272
50	0x3dbda234	0.092594534
51	0x3d6c4b17	0.0576888
52	0x3cf6cc18	0.030126616
53	0x3bddf4a9	0.0067735505
54	0xbdc43f3e	-0.09582375
55	0x3ce0be48	0.027434483
56	0x3da296aa	0.07938893
57	0xbe090262	-0.13379815
58	0xbcd19691	-0.025584491
59	0xbe281809	-0.16415419
60	0xbd3d0abb	-0.04615281
61	0xbd1fc856	-0.039009415
62	0xbcfda4ab	-0.030962309
63	0x3d323f46	0.043517374
64	0x3d02b0e6	0.031906985
65	0x3c80af63	0.01570863
66	0xbbc9de03	-0.006160499
67	0xbd171b2d	-0.03689115
68	0x3cfa53fb	0.030557623
69	0xbdd427fe	-0.103591904
70	0x3d2d0bb7	0.0422475
71	0xbd8cdc8d	-0.06878004
72	0xbd94b185	-0.07260422
73	0xbcb5ad02	-0.022177223
74	0xbd12b181	-0.035813812
75	0x3dacfcc6	0.0844665
76	0x3d404039	0.046936247
77	0xbd47a24d	-0.048738766
78	0xbd373a5b	-0.044733386
79	0xbcc3f7e2	-0.02392191
80	0x3d95b729	0.07310326
81	0xbd86dbcc	-0.06584892
82	0x3cd72a6b	0.026265344
83	0x3d56af48	0.052413255
84	0x3d5de641	0.054174665
85	0xbcc70695	-0.02429513
86	0x3c4c7658	0.012479387
87	0x391d1aab	0.00014982621
88	0xbd82c8a1	-0.06385923
89	0xbd8fab2b	-0.070150696
90	0xbd1b6c77	-0.037945237
91	0xbd26d663	-0.0407318
92	0x3d370208	0.04467967
93	0x3d02aed8	0.031905025
94	0x3db16091	0.08660997
95	0xbbdcf2bc	-0.0067428034
96	0x3ca30be1	0.019903125
97	0x3c9c4167	0.019074155
98	0x3d0639ce	0.03276997
99	0xbb7b9f09	-0.0038394353
100	0xbb002398	-0.0019552466
101	0x3c72efed	0.014827711
102	0x3d3e7cde	0.0465058
103	0x3cbc7a4a	0.02300753
104	0x3c6e57cc	0.0145473
105	0xbd3c813d	-0.04602169
106	0xbb9f551d	-0.004862441
107	0x3d2d1db7	0.042264666
108	0xbca21884	-0.01978708
109	0xbcfb1902	-0.030651573
110	0x3c359f34	0.01108532
111	0xbc41e123	-0.011833462
112	0x3bf26988	0.007397834
113	0x3d58e427	0.052951958
114	0xbd85d38e	-0.065344915
115	0xbd73dd5e	-0.059537284
116	0x3c45f444	0.012082163
117	0x3c044cce	0.008074952
118	0xbcfa7078	-0.030571207
119	0x3c198e80	0.009372354
120	0x3c497ba5	0.012297546
121	0xbd133a50	-0.035944283
122	0xbcb32fc4	-0.021873362
123	0x3bae7526	0.005324024
124	0x3dc60437	0.09668773
125	0xbdc46e48	-0.09591347
126	0xbc942feb	-0.018089255
127	0xbdd52fe8	-0.10409528
128	0x3d8ffed6	0.07031028
129	0xbd27d17e	-0.04097127
130	0x3d64940e	0.05580526
131	0xbb5dde25	-0.0033854332
132	0xbccb68d1	-0.024830254
133	0x3c83976c	0.016063415
134	0x3c4b9639	0.012425953
135	0xbc717f42	-0.014739813
136	0xbd1986c3	-0.037482034
137	0x3d921699	0.071332164
138	0x3e24de38	0.16100395
139	0x3a91a8a8	0.0011112886
140	0xbd6fcf94	-0.05854757
141	0xbd2b47b6	-0.041816436
142	0xbd4445b6	-0.047918044
143	0xbd945e9c	-0.07244608
144	0xbb941b74	-0.004519874
145	0xbce6a3cc	-0.028154276
146	0x3ce60d0f	0.028082399
147	0xbd1001e8	-0.035158068
148	0x3cee977c	0.029124968
149	0xbcd9073a	-0.026492704
150	0x3cfe09e9	0.031010585
151	0xbcfb6e80	-0.030692339
152	0xbc898359	-0.016786264
153	0x3dadae32	0.08480491
154	0xbcba676d	-0.022754395
155	0x3d9e9909	0.07744033
156	0xbd95d9cf	-0.07316934
157	0xbd0a08ad	-0.03369968
158	0xbda41291	-0.08011354
159	0xbda49b00	-0.080373764
160	0xbe060393	-0.13087301
161	0x3d5705ea	0.052495874
162	0xbcf4f419	-0.029901551
163	0x3d402f01	0.046919826
164	0x3d541cf0	0.05178541
165	0x3d13063a	0.03589461
166	0x3c310264	0.010803793
167	0x3db25885	0.0870829
168	0x3d9e5cc9	0.07732541
169	0x3d2460df	0.040131446
170	0xbc8ab746	-0.016933095
171	0x3ccd54a0	0.025064766
172	0x3cc6cdd9	0.024268078
173	0xbcad8e63	-0.02118606
174	0x3c81d060	0.015846431
175	0xbd693bbb	-0.05694173
176	0xbcae6564	-0.021288581
177	0xbca8f6d1	-0.020625504
178	0xbd8eb328	-0.06967765
179	0x3d7d65ad	0.061864544
180	0xbbd6fe4d	-0.0065610767
181	0xbd5481f1	-0.051881734
182	0xbd4de19d	-0.05026399
183	0x3a9c27b2	0.0011913686
184	0xbd7c05a6	-0.061528824
185	0x3b8c36a3	0.004278974
186	0x3de07498	0.109597385
187	0x3b9405fd	0.0045173154
188	0xbc37f5ef	-0.011228069
189	0xbcfe5450	-0.031046063
190	0xbdc6efba	-0.09713693
191	0x3d13f3a2	0.03612102
192	0xbb897945	-0.0041953647
193	0x3d736499	0.05942211
194	0xbd558475	-0.052128274
195	0x3da92d7f	0.08260631
196	0x3a505303	0.000794694
197	0x3cd02a5e	0.025410827
198	0x3d88e192	0.06683649
199	0xbcf20f63	-0.029548353
200	0x3db45bad	0.08806548
201	0x3d50df41	0.05099416
202	0x3d477f22	0.048705228
203	0x3d0c7f4b	0.034301084
204	0xbda809c6	-0.08204989
205	0xbd1fdc5c	-0.03902851
206	0x3bc8553d	0.006113677
207	0x3d054241	0.032533888
208	0x3d5cbf3f	0.053893324
209	0x3c87665e	0.016528305
210	0x3d7cafc9	0.06169108
211	0xbdf860e9	-0.12127859
212	0x3c6efcb1	0.0145866135
213	0xbd00e03d	-0.03146385
214	0xba608691	-0.0008564974
215	0x3cd3d0e3	0.02585644
216	0x3da66550	0.081247926
217	0xbb139b37	-0.0022522935
218	0x3d8d32cb	0.068944536
219	0xbd04afef	-0.032394346
220	0xb96785c7	-0.00022079713
221	0x3cf43e84	0.029814966
222	0x3d777c0f	0.060421046
223	0x3d1da290	0.03848511
224	0xbd5b920e	-0.053606085
225	0x3c3bd5b7	0.011464528
226	0xbcc7800a	-0.024353046
227	0x3bbbf865	0.005736398
228	0xbd742730	-0.059607685
229	0xbd32a2e7	-0.043612387
230	0x3ca20535	0.019777874
231	0x3deea41a	0.11652394
232	0x3d67a188	0.056550533
233	0x3d11e3ae	0.035617523
234	0x3d105670	0.035238683
235	0x3da62d30	0.081140876
236	0xbd886b3f	-0.066610806
237	0x3be934e8	0.0071169026
238	0x3c1312d6	0.008976659
239	0x3dd2f200	0.10300064
240	0xbcdbebed	-0.026845897
241	0xba97bb27	-0.0011576161
242	0xbc46a34e	-0.012123896
243	0xbd990aeb	-0.074727856
244	0x3e27feff	0.16405867
245	0xbda0f11f	-0.0785849
246	0xbcc08e47	-0.023505343
247	0x3cc2c22b	0.023774227
248	0xbdddfd78	-0.10839361
249	0xbdc259a6	-0.09489755
250	0x3cc1a9d6	0.023640554
251	0x3dc1844e	0.09449063
252	0xbce5d554	-0.028055824
253	0x3d38e5d6	0.045141064
254	0x3d7baa70	0.06144184
255	0x3c7bfc4d	0.015379977

a2c_network.actor_mlp.2.bias f4 [128]
0	0x3ca6b4f1	0.020349951
1	0xbc27fb51	-0.01025279
2	0x3cacb44e	0.02108207
3	0xbd5dc8a8	-0.05414644
4	0xbdd75258	-0.10513753
5	0x3d2ba874	0.041908696
6	0x3c794fc9	0.015216776
7	0xbcb84788	-0.022495046
8	0xbc44b5f4	-0.012006272
9	0x3b7e9ebe	0.0038851942
10	0x3d10770d	0.035269786
11	0x3cd3581a	0.025798846
12	0x3ca0a923	0.0196119
13	0xbd16c8a5	-0.036812443
14	0x3d3c83f9	0.046024296
15	0xbd7d22cf	-0.061800774
16	0xbce5640b	-0.028001806
17	0xbc188371	-0.009308682
18	0xbd8fb1e0	-0.07016349
19	0x3cc57aa1	0.024106326
20	0xbd773f85	-0.06036331
21	0xbcecb7c6	-0.028896224
22	0xbc47ab2a	-0.012186805
23	0x395700c8	0.00020504289
24	0xbd23e189	-0.04001001
25	0xbc8595ef	-0.016306845
26	0x3c4969ec	0.01229332
27	0xbd3b5296	-0.045733057
28	0xbc839485	-0.01606203
29	0x3ca9febe	0.020751353
30	0xbdb2975d	-0.087202765
31	0xbd5b2869	-0.053505335
32	0x3d20fdfc	0.03930472
33	0x3bd62302	0.006534935
34	0xbc96ea11	-0.018422158
35	0xbcdb0350	-0.026734978
36	0xbdd63d8c	-0.10460958
37	0xbd223e54	-0.039610222
38	0xbd8949c8	-0.06703526
39	0xbd46c243	-0.048525106
40	0xbc84f681	-0.016230823
41	0x3c32733a	0.01089173
42	0x3d907b10	0.07054722
43	0x3c84dcad	0.016218508
44	0xbd92f7d5	-0.071761765
45	0xbc7179ad	-0.014738482
46	0xbd365fac	-0.044524834
47	0xbdbdd5c1	-0.09269286
48	0xbb67a71d	-0.003534741
49	0xbce75144	-0.028236993
50	0x3dc9cc24	0.0985339
51	0xbcbc0830	-0.022953123
52	0xbdfafa75	-0.12254802
53	0x3cc20fc4	0.023689158
54	0xbd381a1d	-0.04494678
55	0x3d2c1bcf	0.042018708
56	0x3d744e66	0.05964508
57	0x3c4ef469	0.012631514
58	0x3ccd9365	0.025094697
59	0x3b4b76a9	0.0031046069
60	0x3c726df4	0.014796723
61	0x3d87c70b	0.06629761
62	0xbdb5b80c	-0.08872995
63	0x3d0f6134	0.03500481
64	0x3d209520	0.039204717
65	0x3b565c35	0.0032708768
66	0xbd8efe9b	-0.06982156
67	0x3d7cf916	0.061760984
68	0x3bc0f290	0.0058882907
69	0x3ce85019	0.028358506
70	0x3b4dbad2	0.003139187
71	0x3d0af320	0.03392327
72	0xbd903b93	-0.07042613
73	0x3d2fa33a	0.042880274
74	0xbd80a617	-0.06281679
75	0x3d1fd347	0.03901985
76	0x3c271899	0.010198736
77	0x3b957505	0.004561069
78	0xbb8a6cd4	-0.004224399
79	0xbd73752d	-0.05943792
80	0xbbb48ae2	-0.00550972
81	0xbd2ad9bd	-0.041711558
82	0xbca756d8	-0.020427153
83	0x3d487c55	0.048946697
84	0x3d11dca2	0.035610802
85	0xbd13b8f3	-0.036065053
86	0xbcdf2de6	-0.027243566
87	0xbd7f86f8	-0.062384576
88	0xbb1c009e	-0.0023804079
89	0x3d242fc5	0.04008462
90	0x3b8e0112	0.0043336237
91	0xbcbdf599	-0.0231884
92	0xbd4bc954	-0.04975255
93	0xbb25fba5	-0.0025326994
94	0xbd3aa758	-0.045569748
95	0x3ba24c56	0.0049529476
96	0x3d603830	0.054741085
97	0xbd24a001	-0.040191654
98	0x3c016e26	0.007899797
99	0x3c3b3d27	0.011428154
100	0xbcd84c54	-0.026403584
101	0xbc10d55e	-0.008839933
102	0xbc195ff4	-0.009361256
103	0x3d288907	0.041146304
104	0xbaa49a6e	-0.0012558231
105	0x3c04ebab	0.008112828
106	0xbbcd0565	-0.0062567466
107	0x3b10faf3	0.0022122234
108	0x3d37fcad	0.044918705
109	0xbdbe10dc	-0.092805594
110	0xbdf50a0b	-0.11964806
111	0x3d3d7b1c	0.046259984
112	0xbda9d09f	-0.082917444
113	0x3bce8a92	0.00630314
114	0x3d3f1bad	0.046657253
115	0x3c288092	0.01028456
116	0x3c499791	0.012304203
117	0x3cf844b7	0.030306203
118	0x3c1b06a3	0.009462032
119	0xbc4b8bd1	-0.012423472
120	0x3d3b134e	0.045672707
121	0x3d0c3843	0.034233343
122	0x3d3408da	0.043953754
123	0x3c3e801b	0.011627222
124	0xbd4e8571	-0.05042023
125	0x3c84ce47	0.016211642
126	0x3ceffa05	0.029294023
127	0xbd9dafe8	-0.07699567

a2c_network.actor_mlp.4.weight f4 [64, 128]
0	0x3ab2cc07	0.0013641127
1	0x3d278a71	0.040903512
2	0x3caa71e4	0.02080626
3	0xbd604230	-0.05475062
4	0xbce9b699	-0.028529452
5	0x3dead446	0.11466269
6	0x3d034b2d	0.032054115
7	0x3d964e9a	0.07339211
8	0xbd638a86	-0.055552028
9	0xbb4378ce	-0.0029826644
10	0xbcf042ff	-0.029328821
11	0xbd34b211	-0.04411513
12	0xbb3c6fa5	-0.0028753069
13	0xbc1d1571	-0.009587632
14	0xbdc2bd41	-0.095087536
15	0xbc8ce510	-0.01719907
16	0xbdcd7d0d	-0.10033617
17	0x3c040fc0	0.008060396
18	0xbcb70ad5	-0.022344032
19	0x3d5861fc	0.05282782
20	0xbd1f9161	-0.038957004
21	0xbd8bce2a	-0.06826432
22	0xbcb61a33	-0.02222929
23	0xbd3f25ab	-0.046666782
24	0x3dbeaf70	0.09310806
25	0x3db76b70	0.08956039
26	0xbd7db2d5	-0.061938126
27	0xbbc18db1	-0.0059067835
28	0xbda253e1	-0.07926155
29	0x3b76f499	0.0037682413
30	0xbcc6c4d7	-0.024263782
31	0xbdb2dc45	-0.08733419
32	0x3da5d72c	0.080976814
33	0x3d9ce6ff	0.076612465
34	0xbd6798ca	-0.056542195
35	0x3acdb82a	0.0015695144
36	0x3dd1cf3c	0.10244605
37	0xbd3fc71e	-0.046820752
38	0x3dd28a54	0.1028029
39	0xbddb15a5	-0.10697488
40	0xbc85b286	-0.016320478
41	0xbd55a116	-0.052155577
42	0xbd9a61bf	-0.07538175
43	0x3be3e422	0.006954686
44	0xbd06e765	-0.03293552
45	0x3cb5007a	0.022094954
46	0x3ca98009	0.020690935
47	0x3d89085d	0.06691048
48	0xbaa8e771	-0.0012886358
49	0x3da6931d	0.081335284
50	0xbd1e816b	-0.03869764
51	0x3d9faefb	0.07797047
52	0x3d864957	0.06556957
53	0xbc2f1ee2	-0.010688515
54	0xbca005ec	-0.019534074
55	0x3db1b0b2	0.0867628
56	0x3db6b5f0	0.089214206
57	0xbd7505f3	-0.059820127
58	0x3d11a6d2	0.035559483
59	0xbd69743c	-0.056995615
60	0xbcd25477	-0.025675042
61	0x3c54e4f9	0.012994044
62	0x3d2636bf	0.040579554
63	0xbcac5d67	-0.021040631
64	0xbcfeb866	-0.031093787
65	0xbd3a8640	-0.045538187
66	0x3e24619e	0.16052863
67	0xbb6474b7	-0.0034859607
68	0x3dc1de44	0.09466222
69	0x3db92861	0.09040905
70	0xbdf124bd	-0.117745854
71	0x3dc08bc2	0.09401657
72	0xbe0ee788	-0.1395551
73	0xbcd84923	-0.026402062
74	0xbd3e6731	-0.04648513
75	0x3dc89c86	0.097954795
76	0xbd86cc16	-0.06581895
77	0x3c57492d	0.013140005
78	0x3d952e1f	0.072841875
79	0xbba2bfac	-0.0049666967
80	0x3d825a97	0.06364935
81	0x3c3855ab	0.011250894
82	0xbd8449d2	-0.064593926
83	0xbc4be4bb	-0.01244467
84	0x3d874736	0.06605379
85	0xbe15fd00	-0.14647293
86	0x3d72cf98	0.059280008
87	0xbbffced1	-0.007806637
88	0x3d8c4c44	0.06850484
89	0x3d05786e	0.032585554
90	0xbd06fed2	-0.03295786
91	0x3d1480e8	0.036255747
92	0x3d447ad2	0.047968693
93	0xbde74647	-0.11292701
94	0xbe3bd134	-0.18341523
95	0x3d541360	0.05177629
96	0x3c9d4676	0.019198637
97	0xbd555b40	-0.052088976
98	0xbd926247	-0.07147651
99	0x3b13ea8a	0.0022570216
100	0x3cbea315	0.023271123
101	0x3cd4801d	0.025939995
102	0x3d344dbb	0.044019442
103	0xbd56d1e3	-0.052446257
104	0xbd94857d	-0.07252023
105	0x3df79b6a	0.1209019
106	0x3d86a491	0.06574357
107	0xbc0ea46c	-0.008706193
108	0xbb973ed7	-0.0046156454
109	0x3ba37094	0.0049877856
110	0xbca52adf	-0.020162044
111	0x3e1f711a	0.15570489
112	0xbdc20235	-0.09473077
113	0x3da87f1e	0.08227371
114	0x3cea2e52	0.02858654
115	0x3cbcf560	0.023066223
116	0x3d2ee4fc	0.042698845
117	0xbd4f6cbd	-0.05064081
118	0x3c558431	0.013032005
119	0xbc62cff5	-0.013843526
120	0x3d8200e7	0.06347828
121	0xbda1ed03	-0.079065345
122	0x3da5360d	0.0806695
123	0xbb82475f	-0.0039757933
124	0x3da8cf99	0.08242721
125	0x3d5c3bc6	0.053767942
126	0x3d570717	0.052496996
127	0xbd1daff4	-0.03849788
128	0xbd70b085	-0.058762092
129	0x3da6d992	0.08146967
130	0x3d1a3d48	0.0376561
131	0xbe2a9374	-0.16657811
132	0xbd09e46d	-0.03366511
133	0xbd4fdb60	-0.05074632
134	0xbd3a2e21	-0.04545415
135	0x3daab13e	0.083345875
136	0xbd86fd09	-0.065912314
137	0xbd22e509	-0.039769206
138	0xbc7f22d8	-0.015572272
139	0xbd5b350b	-0.053517383
140	0x3d6f935d	0.058490146
141	0xbd3cc872	-0.046089597
142	0xbda48c1c	-0.08034536
143	0xbdaaed4e	-0.083460435
144	0xbdaeae5c	-0.0852935
145	0x3981ef8e	0.0002478328
146	0xbcb9f9a0	-0.022702038
147	0x3d2c2bc9	0.042033944
148	0xbbbb650b	-0.0057188324
149	0xbc835dee	-0.016036
150	0x3d16787e	0.036736004
151	0x3d1bf728	0.038077503
152	0x3e274f9f	0.16338967
153	0xbd6b2dcc	-0.057416722
154	0xbd7d3076	-0.061813794
155	0xbcc90fe1	-0.024543704
156	0x3d0e89f6	0.03479954
157	0xbd046b03	-0.032328617
158	0x3cb8f419	0.022577332
159	0x3dab5447	0.08365684
160	0x3b258707	0.0025257485
161	0x3cc3571c	0.023845248
162	0x3d9e90b3	0.07742443
163	0xbba43b78	-0.005011972
164	0x3ced0a1f	0.02893549
165	0x3da4aeef	0.080411784
166	0xbd524578	-0.05133578
167	0x3bc6948a	0.0060601877
168	0xbc00bcee	-0.007857544
169	0x3cda99e8	0.026684716
170	0xbd9e5fe2	-0.07733132
171	0xbcc87204	-0.02446843
172	0xbbe868a3	-0.007092552
173	0xbd8d6c9e	-0.06905483
174	0x3c900185	0.01757885
175	0x3e028b26	0.12748393
176	0x3d9f4663	0.07777097
177	0x3d93e47a	0.07221313
178	0x3d5ea27a	0.05435417
179	0xbd45aa0e	-0.04825788
180	0xbd22d8fe	-0.03975772
181	0xbcddb09e	-0.027061757
182	0x3dca1b64	0.098685056
183	0x3cba61bc	0.022751682
184	0x3d7da011	0.06192023
185	0xbe028933	-0.1274765
186	0x3da3b83e	0.07994126
187	0x3da883c3	0.082282566
188	0xbdbf99f0	-0.09355533
189	0xbd93e514	-0.072214276
190	0x3d0c5798	0.034263223
191	0xbdeff3c0	-0.117164135
192	0xbdad4938	-0.08461231
193	0xbcd49ab0	-0.025952667
194	0xbd49e004	-0.049285904
195	0xbd9f76ce	-0.07786332
196	0xbd9f802c	-0.07788119
197	0xbe0ac2cc	-0.13550872
198	0xbdbe3c6e	-0.0928887
199	0xbe001e06	-0.12511453
200	0xbd9c80e0	-0.076417685
201	0xbc07694c	-0.008264851
202	0xbdffad45	-0.124842204
203	0x3d7a8c3c	0.061168894
204	0x3d23f110	0.040024817
205	0xbd6bb1da	-0.05754266
206	0xbcd5b291	-0.026086124
207	0xbd823d4f	-0.0635935
208	0x3da200f2	0.079103366
209	0x3d0ce9a7	0.034402516
210	0x3cab25b1	0.020891996
211	0xbd0005d9	-0.031255577
212	0x3d8dc1b7	0.06921714
213	0xbd768ab0	-0.060190856
214	0xbbe5dcf6	-0.007014866
215	0xbcb459d0	-0.022015482
216	0x3ca08051	0.019592436
217	0x3d6ab783	0.057303917
218	0xbd4f4de6	-0.0506114
219	0xbdf6644e	-0.1203085
220	0xbd81ac38	-0.06331676
221	0x3c39ceff	0.011340856
222	0xbd32f3f1	-0.043689672
223	0xbdff36df	-0.12461638
224	0xbd03923d	-0.032121886
225	0x3d0d414d	0.034486104
226	0x3d886b8d	0.06661139
227	0xbcb30718	-0.021853969
228	0xbd2511dd	-0.04030024
229	0xbcf9cf99	-0.030494498
230	0x3c3921a3	0.0112995235
231	0xbdaf2fd7	-0.085540466
232	0x3dbc9beb	0.092094265
233	0x3cc40486	0.023927938
234	0x3d649997	0.055810537
235	0x3d28c6e0	0.041205287
236	0x3c3e64ec	0.011620741
237	0xbdbb88ec	-0.09156975
238	0xbdfcfb6c	-0.123526424
239	0x3d9ce5c6	0.07661013
240	0xbbd3213b	-0.0064431704
241	0x3c2eca70	0.010668382
242	0x3d48bf25	0.049010415
243	0x390d0192	0.00013447393
244	0x3db6dd39	0.089289136
245	0x3d2470a9	0.040146504
246	0xbdf342b7	-0.11877959
247	0xbda3fb79	-0.08006949
248	0xbdc4010f	-0.095705144
249	0x3d52963a	0.0514128
250	0x3c9c5179	0.019081818
251	0xbb396baf	-0.0028292944
252	0x3bf9831d	0.007614507
253	0x3d97e6f3	0.07417097
254	0xbb95eaa9	-0.004575093
255	0x3db799a9	0.08964855

a2c_network.actor_mlp.4.bias f4 [64]
0	0x3c7d040e	0.015442861
1	0xbd810156	-0.06299083
2	0x3d3142fe	0.04327678
3	0x3ce1de86	0.027571928
4	0xbd0895dd	-0.033346046
5	0xbd5ddf34	-0.05416794
6	0xbd91c4b8	-0.07117599
7	0xbd8707d7	-0.06593292
8	0xbc8b14be	-0.016977664
9	0xbda6c6a8	-0.081433594
10	0xbda3110a	-0.07962234
11	0x3d2f76b5	0.042837817
12	0x3cebb4a0	0.028772652
13	0xbdad457d	-0.084605195
14	0xbd985217	-0.074375324
15	0x3d04b366	0.03239765
16	0xbd60f6c1	-0.054922823
17	0xbd03a168	-0.03213635
18	0x3d98321b	0.07431432
19	0xbce98746	-0.028506886
20	0xbd8c693d	-0.0685601
21	0xbdb6e43f	-0.08930253
22	0xbdc28a4d	-0.09499035
23	0xbc2cbb70	-0.010542735
24	0x3d2e21c4	0.04251267
25	0xbc6c5ec3	-0.01442689
26	0xbd8aee00	-0.06783676
27	0x3c94a701	0.01814604
28	0x3d96ef24	0.07369831
29	0xbd4eae34	-0.0504591
30	0xbe0c3a65	-0.13694151
31	0xbcd2a64c	-0.025714062
32	0xbd345dcf	-0.044034775
33	0x3b9aae5a	0.0047204914
34	0xbad42c0c	-0.0016187443
35	0xbda9d014	-0.08291641
36	0xbda0fe6d	-0.07861028
37	0x3cddb0a0	0.02706176
38	0xbc8b48b2	-0.017002437
39	0xbce5a959	-0.028034853
40	0x3ce30ba1	0.027715506
41	0x3c9e3f8a	0.019317407
42	0xbd9ae781	-0.07563687
43	0xbb8c3d0f	-0.0042797397
44	0xbd96f300	-0.07370567
45	0xbe195db4	-0.14977151
46	0x3d070c2d	0.032970596
47	0xbc69bcf9	-0.014266246
48	0xbdb394ed	-0.0876864
49	0xbd3ea75b	-0.04654632
50	0x3d615abd	0.055018175
51	0xbd64f0f2	-0.055893846
52	0x3c9c0426	0.019044947
53	0xbda9338c	-0.08261785
54	0x3d16c588	0.036809474
55	0xbd76dc3e	-0.060268633
56	0xbcc94be1	-0.024572315
57	0x3d2773c4	0.040881887
58	0xbd4e2e87	-0.05033734
59	0xbd709720	-0.058737874
60	0x3d120160	0.035645843
61	0xbdb381e5	-0.0876501
62	0xbd983438	-0.07431835
63	0xbd14ed29	-0.036358986

a2c_network.value.weight f4 [1, 64]
0	0x3d996803	0.07490542
1	0xbc42277a	-0.011850232
2	0x3bb4a4cb	0.005512809
3	0x3dec8187	0.11548143
4	0xbd89c500	-0.06727028
5	0xbb8910b9	-0.0041829017
6	0x3abd494a	0.0014441398
7	0x39a3ef47	0.00031268058
8	0xbc5541f6	-0.013016215
9	0xbd741cbf	-0.059597727
10	0x3b687a82	0.003547341
11	0x3d461fc4	0.048370138
12	0x3b869de3	0.004108177
13	0xb9e55261	-0.0004373966
14	0xbcc667f0	-0.024219483
15	0xbc7e977b	-0.015539045
16	0xbd9e9219	-0.0774271
17	0xbd37ced0	-0.044874966
18	0x3d89d2f4	0.06729689
19	0xbcb2c385	-0.021821747
20	0xbde1771c	-0.110090464
21	0xbd13e015	-0.036102373
22	0xbae33311	-0.0017333945
23	0xbb834ee9	-0.0040072096
24	0xbd008bf9	-0.03138349
25	0x3d176929	0.036965523
26	0xbd4c5a5f	-0.049890872
27	0x3d06fd5f	0.032956477
28	0x3c29ea93	0.010370868
29	0xbe0873ab	-0.13325374
30	0xbcf97af2	-0.030454133
31	0xbb72c931	-0.003704619
32	0xbded67cd	-0.11592064
33	0xbb8e63f1	-0.00434541
34	0xbcaa4598	-0.020785138
35	0xbc9ce965	-0.01915426
36	0xbe0e2180	-0.13879967
37	0x3d6687f0	0.056281984
38	0x3c74d67b	0.014943714
39	0xbc880383	-0.016603237
40	0x3d46d1db	0.048539978
41	0xbc81601a	-0.015792895
42	0xbcc0c0cc	-0.023529433
43	0x3c51fdc1	0.012816847
44	0x3d3b6595	0.045751173
45	0x3c30f774	0.010801185
46	0x3d6198ea	0.05507747
47	0xbd87e860	-0.06636119
48	0xbd7a6388	-0.061130077
49	0xbdc98258	-0.09839314
50	0xbb1e59c5	-0.0024162394
51	0xbd9dbc7c	-0.07701966
52	0x3da8c1cb	0.08240088
53	0xbd133c6c	-0.035946295
54	0x3c9e1044	0.019294865
55	0x3bb6bf65	0.005577015
56	0x3d98739c	0.07443926
57	0x3d5c9789	0.053855453
58	0xbc6900d5	-0.01422139
59	0xbdc5345d	-0.09629128
60	0x3dea0e92	0.1142856
61	0xbdf40281	-0.1191454
62	0x39e1037e	0.00042917946
63	0xbad98ade	-0.0016597172

a2c_network.mu.weight f4 [8, 64]
0	0x3bae5a91	0.005320855
1	0xbc555344	-0.01302034
2	0xbe15b57c	-0.14620012
3	0x3d666bb7	0.05625507
4	0x3cba28e8	0.022724584
5	0x3d2d4e93	0.042311262
6	0xbde8c654	-0.11365953
7	0x3c4366fc	0.011926409
8	0xbd7547d2	-0.059882946
9	0x3d12c2cb	0.0358303
10	0xbdd4d120	-0.1039145
11	0x3bd60e3b	0.006532458
12	0xbc53aa01	-0.01291895
13	0xbd9c20e5	-0.07623462
14	0x3e3ad831	0.18246533
15	0xbd0a6f03	-0.033797275
16	0x3ddd6355	0.10809962
17	0x3d920483	0.07129767
18	0x3cf02eff	0.029319284
19	0xbe0eb34e	-0.13935587
20	0x3d8b6011	0.068054326
21	0x3d59a599	0.05313644
22	0x3dff9a92	0.12480654
23	0xbe122950	-0.14273572
24	0xbd75c818	-0.060005277
25	0x3daa6c43	0.083214305
26	0x3d946c5e	0.07247232
27	0x3e269156	0.16266379
28	0xbdc2eefa	-0.095182374
29	0x3d88eb9a	0.066855624
30	0xbc86e9dd	-0.016468937
31	0xbd97dfe7	-0.07415753
32	0xbdbfca75	-0.093647875
33	0x3e33b6b9	0.17550172
34	0x3db265d0	0.087108254
35	0x3e1f177c	0.15536302
36	0xbd856249	-0.06512887
37	0x3d6dfa6f	0.05810016
38	0xbcb17e51	-0.021666678
39	0xbdd6f850	-0.104965806
40	0x3c471b86	0.012152558
41	0x3dde121d	0.108432986
42	0x3de19b07	0.11015897
43	0xbcb1ef6c	-0.02172061
44	0xbcd2508a	-0.02567317
45	0x3d82be19	0.063839145
46	0xbb2e90d4	-0.0026636617
47	0xbe00b99f	-0.12570809
48	0x3cdc132e	0.026864614
49	0x3de6c9dc	0.1126897
50	0xbd95b6b8	-0.073102415
51	0x3d1bc6f7	0.038031545
52	0x3d24ae21	0.040205125
53	0x3c17c723	0.0092637865
54	0xbda70327	-0.08154898
55	0x3d6c27f2	0.057655282
56	0xbd917d85	-0.07104019
57	0xbe34707a	-0.17621031
58	0x3dc821b9	0.09772057
59	0xbe350f37	-0.17681585
60	0xbc050387	-0.008118517
61	0x3d14bc9f	0.036312696
62	0x3bc0486b	0.005868008
63	0x3dd42076	0.10357754
64	0x3cb0b2dc	0.021569662
65	0xbd5ac713	-0.05341251
66	0xbd9c831d	-0.076421954
67	0x3cb4f483	0.022089249
68	0xbcad237d	-0.021135086
69	0xbdccece0	-0.10006118
70	0xbc74931f	-0.0149276545
71	0x3e2f3ef6	0.17113861
72	0xbd9e4234	-0.07727471
73	0xbca207d8	-0.01977913
74	0xbd120e08	-0.035657912
75	0xbd8295ba	-0.06376214
76	0xbd8f6add	-0.070028044
77	0xbd6022b3	-0.05472059
78	0x3cc1d941	0.023663165
79	0xbc3be9e6	-0.01146934
80	0xbe195fba	-0.14977923
81	0x3d3ebfdb	0.046569686
82	0xbd280b04	-0.04102613
83	0x3d523fc1	0.05133033
84	0x3e017d3f	0.12645434
85	0x3e0414fe	0.12898633
86	0x3d9e602a	0.077331856
87	0xbc586e48	-0.013209887
88	0xbd249d5e	-0.04018914
89	0x3ddb598e	0.107104406
90	0xbd97485f	-0.073868506
91	0xbd98608d	-0.074402906
92	0x3e057862	0.13034204
93	0x3d42b2ad	0.04753368
94	0x3d1d3869	0.038383875
95	0xbc56ddb0	-0.013114378
96	0x3d26ba98	0.040705293
97	0x3da582a0	0.08081555
98	0x3db4fce9	0.08837301
99	0xbc0bf037	-0.008541158
100	0xbc01c692	-0.007920878
101	0x3df882dd	0.12134335
102	0x3d862799	0.065505214
103	0xbd8d328d	-0.068944074
104	0x39359192	0.00017315734
105	0xbd166873	-0.036720704
106	0xbe1346b1	-0.14382435
107	0x3db67de5	0.08910731
108	0xbc3582c6	-0.011078542
109	0x3db50faf	0.08840882
110	0xbdc7b2c2	-0.09750892
111	0xbd16485a	-0.036690094
112	0xbbeb409e	-0.007179334
113	0x3dbdc01a	0.09265156
114	0x3df3a93b	0.118975125
115	0xbc1b06f3	-0.009462106
116	0xbe05f6a1	-0.13082363
117	0x3d47cd83	0.048779976
118	0x3e2cbec5	0.16869648
119	0x3e45aa9a	0.1930336
120	0xbdbc2aba	-0.09187837
121	0xbd18828f	-0.037233885
122	0x3d97ae09	0.074062414
123	0xbcfe9966	-0.031079005
124	0x3d37d2fd	0.04487895
125	0xbd6aea62	-0.05735243
126	0x3d46a1a4	0.048493996
127	0x3e1368b9	0.14395417
128	0x3cce6059	0.025192427
129	0x3cfdf3f8	0.031000122
130	0xbd511707	-0.05104735
131	0xbd01d35f	-0.03169572
132	0xbd73a8db	-0.059487205
133	0x3e1166b2	0.14199331
134	0x3d9820a3	0.074281
135	0x3daae0c9	0.083436556
136	0xbd35cfb7	-0.044387545
137	0xbcb0df56	-0.02159087
138	0x3c01b4b9	0.007916623
139	0xbe0c5b9d	-0.13706823
140	0x3d8d881a	0.06910725
141	0x3df771b7	0.12082236
142	0xbd993fcd	-0.07482872
143	0xbd3ac251	-0.04559547
144	0xbe6597b8	-0.22421157
145	0xbe06d25a	-0.1316618
146	0xbda72082	-0.08160497
147	0xbd2a4197	-0.041566458
148	0x3d6637e3	0.05620564
149	0x3ca98ba6	0.020696472
150	0x3df4bbc3	0.11949875
151	0x3d82ee17	0.06393068
152	0xbd0602cb	-0.032717507
153	0x3df48920	0.11940217
154	0xbb9f72a9	-0.0048659635
155	0xbca55b9a	-0.02018528
156	0xbe077faf	-0.13232301
157	0xbd06faa4	-0.032953873
158	0x3de51cd3	0.111871384
159	0xbba8f3a2	-0.0051559964
160	0xbe2378c1	-0.15964033
161	0xbd66b8b5	-0.056328494
162	0xbdb0b36d	-0.08627973
163	0x3e1cae6e	0.15300915
164	0xbd434594	-0.047673777
165	0x3d8c413b	0.06848379
166	0xbc6dda1c	-0.014517333
167	0xbe2f81d2	-0.17139366
168	0xbd11c182	-0.035584934
169	0xbd4dc7ca	-0.05023936
170	0xbd8b6e10	-0.06808102
171	0x3d4fe87d	0.050758827
172	0x3e06ebbe	0.13175866
173	0x3dca3711	0.09873784
174	0x3dd94a36	0.10609858
175	0x3c83ea13	0.016102826
176	0x3dd30e5a	0.10305472
177	0xbd6f630c	-0.058444068
178	0xbdc056a8	-0.09391528
179	0xbd892bc3	-0.066978
180	0xbdb2b2df	-0.08725523
181	0x3dcdd87f	0.10051059
182	0xbd4251f9	-0.047441456
183	0xbd27ef85	-0.040999908
184	0x3dc6161a	0.09672184
185	0x3d9b6ab5	0.07588712
186	0xbdb89ea6	-0.09014635
187	0xbd8de77c	-0.06928918
188	0x3d3bc553	0.04584248
189	0x3cc09a51	0.023511084
190	0x3e8c19f3	0.27363548
191	0xbd8f47ed	-0.06996141
192	0xbdb9d672	-0.09074105
193	0xbd385573	-0.045003366
194	0xbda91057	-0.0825507
195	0xbd19c35f	-0.037539836
196	0x3d9de3ba	0.07709451
197	0x3d2d2d23	0.042279374
198	0xbdae433a	-0.08508916
199	0xbd88ad35	-0.066736616
200	0xbd3e6890	-0.046486437
201	0xbd1c1784	-0.038108364
202	0xbda08405	-0.07837681
203	0x3d9cc99c	0.076556414
204	0x3d4ae6f9	0.04953668
205	0xbdff52d0	-0.12466967
206	0xbc61d2fa	-0.013783211
207	0x3d8b81d3	0.068118714
208	0xbd13ada5	-0.036054272
209	0x3e0ce9a7	0.13761006
210	0x3dcfca14	0.10145965
211	0xbc415767	-0.0118006235
212	0x3ccf65d2	0.025317106
213	0x3d0040cb	0.03131179
214	0xbade30b7	-0.0016951774
215	0x3d33e386	0.043918155
216	0x3c9bc680	0.01901555
217	0x3bcb0a19	0.006196272
218	0x3d2b8782	0.041877277
219	0x3d730ab7	0.05933639
220	0x3dc4a399	0.09601516
221	0x3d817233	0.0632061
222	0xbd26c242	-0.040712602
223	0xbcf9b8ad	-0.030483568
224	0xbc8358f2	-0.016033623
225	0xbdf1219d	-0.11773989
226	0xbde9dc70	-0.11418998
227	0x3bd00fac	0.0063495245
228	0xbd509965	-0.05092754
229	0x3d504fa2	0.050857194
230	0x3d75cd91	0.060010497
231	0x3ca060fa	0.019577492
232	0xbca33cfe	-0.019926544
233	0xbc96c4ff	-0.018404482
234	0x3dd42e83	0.10360434
235	0x3d94a620	0.07258248
236	0x3da0aa06	0.078449294
237	0x3d2bd775	0.041953523
238	0x3ce458e1	0.027874412
239	0x3d05230e	0.032504134
240	0x3d13fa04	0.036127105
241	0x3c730917	0.01483371
242	0x3d2666cd	0.040625382
243	0x3d611422	0.05495084
244	0xbe0a65f2	-0.13515452
245	0xbe0b13b6	-0.13581738
246	0xbcc82be5	-0.024434993
247	0x3dca9cad	0.09893165
248	0x3c2a1a61	0.010382266
249	0x3d88a3fd	0.06671903
250	0xbd189d3d	-0.03725933
251	0xbc6779d5	-0.014128168
252	0x3d4334e2	0.047657855
253	0xbdebab2e	-0.11507259
254	0xbcacd138	-0.021095857
255	0xbc555914	-0.013021726

a2c_network.mu.bias f4 [8]
0	0xbdd096ac	-0.101849884
1	0xbdaa542d	-0.083168365
2	0xbd2661ec	-0.04062073
3	0x3d7c3509	0.061574016
4	0xbd7873d3	-0.060657334
5	0x3c86063e	0.016360398
6	0xbe0432a1	-0.12909938
7	0xbd0f85b9	-0.035039637

exp_avg f4 [8]
0	0x3bc9adea	0.0061547654
1	0x3b38a07b	0.0028171826
2	0xbad9c6f9	-0.0016615085
3	0x3be9b64c	0.007132327
4	0x39a4780f	0.00031369968
5	0x3b6fc4bd	0.003658577
6	0x3bdab359	0.006674212
7	0x3a57a8fe	0.0008226781

exp_avg_sq f4 [8]
0	0x3875f3e2	5.8639685e-05
1	0x38b03297	8.401757e-05
2	0x3857235b	5.1292922e-05
3	0x38747027	5.8278583e-05
4	0x3875fe27	5.864925e-05
5	0x38aa4f39	8.120988e-05
6	0x388e2e5e	6.779724e-05
7	0x388f1c3c	6.8240304e-05
