runs/Ant_31-18-32-45/nn/last_Ant_ep_300_rew_4551.0767.pth (torch, 705927 bytes, 36 tensors)

value_mean_std.running_mean f8 [1]
0	0x400ff1791d1232bb	3.992906787031044

value_mean_std.running_var f8 [1]
0	0x4011e19521cb24b6	4.4702954559554

value_mean_std.count f8 []
0	0x4182c00008000000	39321601.0

running_mean_std.running_mean f8 [60]
0	0x3fe3aeaf200ec6c1	0.6150737405898427
1	0x400bf1eaedaf3e5b	3.493123871717939
2	0xbfe49e3a14edc79d	-0.6443148049131541
3	0xbfe220ffd92bae36	-0.5665282479871567
4	0x3fa0a6dbf500f92f	0.03252303472298689
5	0xbf50b2bca0a18128	-0.0010191766800958322
6	0xbfa109525cce3b6d	-0.033274244145210165
7	0x40046318b374d304	2.5483869571711484
8	0x4010743f8d069d6a	4.1135236773765005
9	0xc0046463402c0ae4	-2.5490174306336133
10	0x3fecfc88cb4aa321	0.9058269472635382
11	0x3fea0191eaed97f5	0.8126916492881252
12	0xbfdfcafe50f52024	-0.4967647352791593
13	0xbfe046f32f1c33df	-0.5086608810539665
14	0xbfcda8c999328742	-0.2317134855302872
15	0x3fe98a84f4ad4375	0.7981591013759571
16	0xbf74c70c198b0d9b	-0.005072638764150562
17	0x3fe670fd768520e4	0.7012927355617902
18	0x3fa6f7e27b5204b8	0.04485996013046062
19	0xbfe47fe76a64d41d	-0.6406132772450551
20	0x3f96f8b62febc420	0.02243313472257935
21	0x3fae4519af3c8048	0.059120943680909976
22	0x3fa2133921d6d977	0.0353029111678777
23	0xbfb22dcdd6b5ed56	-0.07101141445121092
24	0xbf80178cfbb105fb	-0.007857419425024928
25	0xbfa75c6d55a379be	-0.04562703771965769
26	0x3f59703f969ccd15	0.0015526410083566745
27	0x3faf3f26ba37566c	0.06102868102213396
28	0xbfd496726de671ff	-0.3216825555080333
29	0x3f91512c1a760a2a	0.01691121016984646
30	0xbfc5f09703385997	-0.171404720852206
31	0xbfa6e2ec4ecdb80a	-0.044700035686091225
32	0xbf5a99f1344a2ebf	-0.0016236167440721175
33	0x3fa0bdd873672bfd	0.03269840630272112
34	0xbfa791d91a4c138e	-0.04603460737238328
35	0xbf88a1c8378473e1	-0.012027324861770996
36	0xbfda1d615adafb73	-0.40804323074910726
37	0xbfb2dc4d97f3131e	-0.07367405852990003
38	0xbf4b65a12cea2120	-0.0008360898007860086
39	0x3f85716d1d6ec874	0.010470249615398532
40	0xbfb0079b2090f9ea	-0.06261605782581339
41	0x3f829749c0f5f0dc	0.009077621651833949
42	0xbfc7dfb734a8fd48	-0.18651475974363962
43	0x3fa05a3169f90237	0.031938118158454314
44	0x3f2f456f022a4c0d	0.00023858051379885316
45	0xbf604fdfefe3bbc8	-0.001991212250792771
46	0xbfbbeb063340d52f	-0.10905493499088402
47	0xbf93160f9c15480e	-0.018638843442495605
48	0xbfd2d8662ddda1fb	-0.2944579551608794
49	0x3fb00bede4659b69	0.06268202615829711
50	0xbf261c87e3143d89	-0.00016869696404640488
51	0x3f2a5060e9e7c8af	0.00020075972584227472
52	0xbfd0b0906efb7714	-0.2607766231356987
53	0xbfc3fd72ffb3ab89	-0.15617215619508
54	0xbfbca52279308673	-0.11189475496987615
55	0x3fd2d88a1b7dac43	0.29446652111682087
56	0xbf7e94ac382d817a	-0.007466004116253417
57	0x3fbc375a4bfae628	0.11021961550695691
58	0x3f6c73ba005590ae	0.0034731514776230243
59	0xbfce35d2bc290117	-0.236017553210339

running_mean_std.running_var f8 [60]
0	0x3f8c14d14affffa6	0.013711581326788135
1	0x4015e527bd528687	5.473784406816441
2	0x3ffdc158fc9f799b	1.859704005058666
3	0x3fe9f2bdf5552687	0.8108815948155134
4	0x400f8280b7d26650	3.938722072704685
5	0x40124ead03e8d5c6	4.5768318758832205
6	0x40213b20be7e1b6e	8.615484192747058
7	0x401d94fab2b22990	7.395487587093513
8	0x401fda2bdfc66ba7	7.963057991490962
9	0x401d94f8f2c2c872	7.395480912340746
10	0x3fb5cdb2b0600904	0.08516995245011932
11	0x3fc13443e3977446	0.1344075070655057
12	0x3fdb10087f9a7fb4	0.4228535886886633
13	0x3fd1f5bef82d77df	0.2806241439446903
14	0x3fdd6ae9995a4940	0.4596504209122436
15	0x3fcdffab06a37ab8	0.23436487030172315
16	0x3fde3e234b4fd728	0.47254259447741953
17	0x3fccedeaf3d2b4ed	0.22601067452834603
18	0x3fdc9d4bb9b953ad	0.4471005738935741
19	0x3fcf4b82da1bb12c	0.24449191713154883
20	0x4009345a43f1add2	3.1505627925996373
21	0x40089508bbdad92c	3.0727705646669587
22	0x4011b128f10d2fe0	4.423007742338058
23	0x3fed254a6ae84919	0.9108020866426926
24	0x401623b8e7e69f21	5.5348850473890545
25	0x3ff8ab6c104bf3dc	1.541851104411072
26	0x3fff2f4417203db6	1.9490395453793616
27	0x40025acab152c8c1	2.294331918085931
28	0x3ff62ef45f3f125e	1.3864635201035962
29	0x3fca6eaf22157e17	0.20650281109099985
30	0x3fec63b75bc1ddfd	0.8871723930487289
31	0x3f95a66818fe7003	0.021142603421694172
32	0x3f107f6bac33a682	6.293387109548336e-05
33	0x3f7985d5ae66f618	0.006231150333801526
34	0x3ffd9c35304f2d08	1.850636662204865
35	0x3fc1e870536b8fd2	0.1399059684109703
36	0x3fec71d767bf96a4	0.8888966585479534
37	0x3f92dbf9b8163482	0.01841726480556761
38	0x3f0e82c42d9aae2d	5.81947439973442e-05
39	0x3f841f2b0358c6cd	0.009825073279987074
40	0x4002a9e421d8c5da	2.3329546589163614
41	0x3fc49a26ca4aca81	0.16095433118387706
42	0x3fed14acffe546ae	0.9087738988839271
43	0x3f92c0e2aff85ba6	0.01831392478024054
44	0x3f149c083810ac52	7.861900486776208e-05
45	0x3f88147abef79356	0.01175781150136294
46	0x3fe6f7fe0b45956e	0.7177725048210684
47	0x3fc668bbb582054c	0.17507120478334526
48	0x3ff0127e78979239	1.004515143454354
49	0x3f94d353d8cc1461	0.02033740053868305
50	0x3f03e2c3e76de256	3.7929156795739216e-05
51	0x3f68330a4ab6faef	0.0029540253651413255
52	0x3fdaa1b3930befaa	0.41611947402975125
53	0x3fd77bd87d76dd6d	0.3669339394795859
54	0x3fdfe26d27c32a1a	0.49819496996920665
55	0x3fd3b9064cc4d98f	0.3081680059143758
56	0x3fe0f867e6cbaa38	0.5303229816175365
57	0x3fd4eec705c02fe7	0.32707381784052675
58	0x3fda4dc39c10733a	0.4109963440003416
59	0x3fd7bac869ee81dc	0.370775321434875

running_mean_std.count f8 []
0	0x4172c00010000000	19660801.0

a2c_network.sigma f4 [8]
0	0xbf8e22ef	-1.1104411
1	0xbfb446bc	-1.4084086
2	0xbf90163d	-1.1256787
3	0xbf95543c	-1.1666331
4	0xbf8fed6c	-1.124433
5	0xbfc3eb51	-1.5306188
6	0xbf93be8f	-1.1542529
7	0xbfa1a8dc	-1.2629657

a2c_network.actor_mlp.0.weight f4 [256, 60]
0	0x3d566a14	0.052347258
1	0xbe2d2c8c	-0.16911525
2	0xbbb1cbd3	-0.005425909
3	0xbd389732	-0.045066066
4	0x3e227fbc	0.1586904
5	0x3d0678e2	0.032830127
6	0x3e8c29c6	0.2737562
7	0xbdd1561c	-0.10221502
8	0xbdba24e0	-0.090890646
9	0xbd52176c	-0.051291868
10	0x3ddcdffe	0.107849106
11	0xbd2ba411	-0.041904513
12	0x3e9627e4	0.2932731
13	0xbe4a25ce	-0.19740984
14	0xbe20d1b9	-0.15705003
15	0xbdffa547	-0.12482696
16	0xbdb88f9d	-0.09011767
17	0x3b93b2d2	0.004507401
18	0x3d9d8478	0.07691282
19	0x3ddb5c43	0.10710957
20	0x3d7226d5	0.059119064
21	0xbe24ee98	-0.16106641
22	0x3db18102	0.086671844
23	0xbdb4960d	-0.088176824
24	0x3d0e7236	0.03477689
25	0xbd2e7fec	-0.042602465
26	0x3da0945e	0.07840799
27	0xbd1f8b6f	-0.038951334
28	0xbd9b2bbe	-0.075767025
29	0x3d49dace	0.049280934
30	0x3c26d4a6	0.010182535
31	0xbd1cb007	-0.03825381
32	0x3c96e8b5	0.01842151
33	0x3c8b26f0	0.01698634
34	0xbd816547	-0.06318145
35	0x3c0d3693	0.008618969
36	0x3d4be092	0.049774714
37	0xbd8e596c	-0.069506496
38	0xbc1859f0	-0.0092987865
39	0xbe26d9a7	-0.16293965
40	0xbd765a25	-0.060144562
41	0x3c8d3cd7	0.017240925
42	0x3cfc0f40	0.03076899
43	0xbda09bc6	-0.078422114
44	0x3bfeef98	0.0077800266
45	0xbd806f89	-0.06271274
46	0xbe02f8c3	-0.12790208
47	0xbd1d0b76	-0.038341008
48	0xbdde54b2	-0.10855998
49	0xbd53a2ad	-0.05166881
50	0x3e053100	0.13006973
51	0x3da1f972	0.07908906
52	0x3d212acd	0.03934746
53	0xbe016861	-0.12637474
54	0xbd18adbc	-0.03727506
55	0xbd680cc9	-0.056652818
56	0xbc6e9872	-0.014562713
57	0xbde00267	-0.10937958
58	0xbda83333	-0.082128905
59	0x3c5f1f76	0.013618341
60	0x3b87e9fe	0.004147767
61	0xbdfe314a	-0.12411745
62	0x3d2b2839	0.041786406
63	0xbd0cde13	-0.034391474
64	0xbe1cf83a	-0.15329066
65	0xbdfc8e47	-0.12331825
66	0xbcd9357c	-0.026514761
67	0xbd007a2e	-0.03136652
68	0x3e6d6daf	0.23186372
69	0xbdc4f232	-0.096165076
70	0x3e310670	0.17287612
71	0x3df5e307	0.12006193
72	0xbcc29539	-0.023752796
73	0x3d9dc176	0.07702915
74	0x3d9d3e62	0.07677914
75	0x3c8c1e84	0.017104395
76	0xbe445ad3	-0.19175272
77	0xbe51d253	-0.20490389
78	0x3dafe19b	0.08587953
79	0xbc5cd97f	-0.0134795895
80	0x3dbf948a	0.093545035
81	0xbdb2a2c1	-0.08722449
82	0x3cd61fcb	0.026138207
83	0xbdc9e24a	-0.09857614
84	0xbdb129ff	-0.08650588
85	0xbbb8c700	-0.005638957
86	0x3de9e2da	0.114202216
87	0x3da8e367	0.082464986
88	0x3d76417f	0.060121056
89	0xbd9a47ab	-0.07533201
90	0x3d12d4d1	0.03584749
91	0xbd473483	-0.048634063
92	0xbd3df63f	-0.046377417
93	0xbdea596b	-0.114428364
94	0x3d7b2729	0.061316643
95	0xbe20e452	-0.15712097
96	0xbb3a79da	-0.0028453977
97	0xbd2f5b18	-0.042811483
98	0x3d0a0b41	0.03370214
99	0xbdb5c957	-0.08876293
100	0x3d4b9005	0.049697895
101	0x3e1bb276	0.15204796
102	0x3cd306c0	0.025760055
103	0xbd98199c	-0.074267596
104	0x3d4bbc13	0.04973991
105	0xbe07b9e8	-0.13254511
106	0xbda7571a	-0.0817091
107	0x3e24f715	0.1610988
108	0xbcef1cb0	-0.029188484
109	0xbd043c08	-0.032283813
110	0xbdc0e2aa	-0.09418233
111	0x3bab6fca	0.005231832
112	0x3c897c1a	0.016782809
113	0x3d459016	0.048233114
114	0xbcfdaf69	-0.030967431
115	0xbce11767	-0.02747698
116	0xbcf50d98	-0.029913709
117	0x3e03a269	0.12854923
118	0x3d4ab174	0.04948564
119	0xbe00b07c	-0.12567323
120	0x3d882ab2	0.066487685
121	0x3ddadf55	0.106871285
122	0x3d822784	0.06355193
123	0x3b6ccf71	0.0036134387
124	0x3e041902	0.12900165
125	0x3d1da22c	0.038484737
126	0xbcf18737	-0.02948342
127	0xbcee0b2d	-0.029058063
128	0xbe041319	-0.1289791
129	0x3ca58087	0.020202888
130	0x3d389974	0.04506822
131	0xbce9e667	-0.028552247
132	0x3e3df5ef	0.18550847
133	0x3dd9af27	0.10629111
134	0xbcdfb577	-0.027308209
135	0x3b493469	0.0030701405
136	0x3bfdbeb9	0.007743683
137	0xbd121f1b	-0.035674196
138	0x3d225f8c	0.0396419
139	0x3cbdcaf1	0.023168059
140	0xbe3951a8	-0.18097556
141	0xbdb6bcb7	-0.08922713
142	0x3de10500	0.10987282
143	0x3dd82b02	0.10555078
144	0x3d572579	0.05252597
145	0xbaa0ef9a	-0.0012278438
146	0xbd88b194	-0.06674495
147	0xbd8d600b	-0.06903084
148	0xbbc6ca7b	-0.006066618
149	0x3bd17c8b	0.0063930205
150	0xbc5f938d	-0.013646019
151	0x3c1022a6	0.008797323
152	0xbdd52ba2	-0.10408713
153	0xbda8c9cd	-0.082416154
154	0xbcc346ef	-0.023837535
155	0x3db95a6f	0.09050452
156	0xbc03a67b	-0.0080352975
157	0xbd16ea6b	-0.036844652
158	0x3d9a3b0d	0.07530794
159	0x3d335de8	0.043790728
160	0xbb264738	-0.002537204
161	0x3d8f02fe	0.069829926
162	0xbd095972	-0.033532567
163	0xbc091736	-0.00836735
164	0xbd9ff1e7	-0.07809811
165	0x3d7182d3	0.058962654
166	0x3d376f49	0.044783864
167	0x3d5c16e5	0.05373277
168	0xbd7d78fc	-0.061882958
169	0xbe1ca82f	-0.15298532
170	0xbdbd6677	-0.09248059
171	0x3b90d264	0.0044196118
172	0x3c22aa7c	0.009928342
173	0x3d8196e5	0.06327609
174	0xbb8ab046	-0.004232439
175	0x3d8d5413	0.069008015
176	0x3d86ed34	0.06588212
177	0xbc0d3180	-0.008617759
178	0xbd7b0aed	-0.061289717
179	0xbd1427d1	-0.036170784
180	0x3dac7c1a	0.08422108
181	0xbd34e0ad	-0.04415958
182	0x3d05cdb1	0.032666866
183	0xbdb866e7	-0.09004002
184	0x3a16e750	0.0005756514
185	0xbe347ff4	-0.17626935
186	0xbdabdf09	-0.0839215
187	0x3c6586b6	0.014009168
188	0xbdc868c0	-0.097856045
189	0x3dde3836	0.10850565
190	0xbda6e56d	-0.08149228
191	0xbdecee96	-0.11568944
192	0x3ddb77a0	0.10716176
193	0xbe2eea2e	-0.1708152
194	0xbdb7e175	-0.089785494
195	0xbe40e117	-0.18835865
196	0x3e5a1b49	0.21299471
197	0xbd8e6c86	-0.06954293
198	0x3e124c39	0.14286889
199	0x3dc42ed4	0.09579244
200	0x3c0b8f90	0.008518115
201	0xbe86fb6b	-0.26363692
202	0x3d9d04a2	0.07666899
203	0xbda3be87	-0.079953246
204	0x3dd1df42	0.10247661
205	0x3d52a436	0.051426135
206	0xbdd953e8	-0.10611707
207	0x3d9092e5	0.07059268
208	0x3d66706e	0.056259565
209	0xbdf96cfe	-0.12178992
210	0x3d7cc4dd	0.06171118
211	0xbd9c8808	-0.076431334
212	0x3e363e1a	0.17797127
213	0x3d2650c0	0.040604353
214	0x3dcbdb56	0.099539444
215	0xbd88117a	-0.066439584
216	0xbdae1290	-0.08499634
217	0x3d37cae4	0.044871226
218	0x3da9c76d	0.082899906
219	0xbdae8269	-0.085209675
220	0xbd1ed6f0	-0.0387792
221	0xbd4f1a72	-0.05056233
222	0xbc063c2e	-0.008193059
223	0xbd1b46bb	-0.03790925
224	0xbd7c286a	-0.06156198
225	0xbe216111	-0.15759684
226	0xbd65d6a1	-0.05611289
227	0x3dd6fc7f	0.104973786
228	0x3dc92e19	0.098232456
229	0xbcfd14e6	-0.030893754
230	0x3b7c95b5	0.003854138
231	0xbd064df4	-0.032789186
232	0xbe2f764a	-0.17134967
233	0xbd8559e2	-0.065112844
234	0x3d946a3c	0.07246825
235	0xbdf256e9	-0.11832983
236	0xbd847c0e	-0.06468974
237	0x3bb184d5	0.005417446
238	0xbdc3f630	-0.09568441
239	0x3c79e517	0.015252373
240	0xbce5d973	-0.02805779
241	0x3bdcfbbc	0.0067438763
242	0x3cfbd2d1	0.030740174
243	0xbda10173	-0.078616045
244	0xbe26b2ba	-0.16279116
245	0x3dd94067	0.10607987
246	0xbd48c62e	-0.049017124
247	0x3bde71e2	0.0067884782
248	0xbdc2bf46	-0.09509139
249	0x3d1b4970	0.037911832
250	0x3e823043	0.25427446
251	0x3e21bce3	0.15794711
252	0xbde79bf9	-0.11309046
253	0xbc4b1b2d	-0.012396616
254	0x3dc543e4	0.0963209
255	0x3b9373b7	0.0044998783

a2c_network.actor_mlp.0.bias f4 [256]
0	0xbc81b597	-0.01583366
1	0xbd036d50	-0.03208667
2	0xbcbc46b3	-0.02298293
3	0x3cccc3fe	0.0249958
4	0x3b9b7041	0.0047436063
5	0xbc67c758	-0.014146648
6	0x3c4f846c	0.012665849
7	0xbd840cfd	-0.0644779
8	0xbda31c12	-0.07964338
9	0xbc9b22ae	-0.018937435
10	0x3d35817f	0.04431295
11	0x3c03778e	0.0080241095
12	0xbd0cf0ca	-0.03440932
13	0xbcb26097	-0.021774573
14	0xbd8f26ff	-0.0698986
15	0xbc707d81	-0.01467836
16	0xbd4099a6	-0.04702153
17	0x3d26e46d	0.040745188
18	0xbd2f8562	-0.042851813
19	0x3d1141c5	0.035463113
20	0xbd26aab8	-0.040690154
21	0xbd51da0a	-0.05123333
22	0x3b5cf4be	0.0033715214
23	0x3bccad0d	0.006246215
24	0xbd6aadb1	-0.05729455
25	0xbc908478	-0.017641291
26	0x3c27597d	0.010214207
27	0x3d82abca	0.063804224
28	0xbd2ab230	-0.04167384
29	0x3d9297c7	0.071578555
30	0x3b3dd1e6	0.002896422
31	0x3d182932	0.037148662
32	0xbc6e5e19	-0.014548802
33	0xbd6ad9d1	-0.057336632
34	0x3d24c6d4	0.04022868
35	0x3d93f986	0.07225327
36	0x3c4222f0	0.01184915
37	0xbd576253	-0.052584004
38	0x390e659a	0.00013580025
39	0x3d49ae66	0.049238585
40	0x3d428176	0.047486745
41	0x3d945b99	0.07244033
42	0xbd141f31	-0.03616256
43	0x3d72ce91	0.05927903
44	0xbc057845	-0.00814635
45	0xbcdc973c	-0.026927583
46	0xbbe73497	-0.0070558297
47	0x3d27d737	0.04097673
48	0xbcac4d3c	-0.021032922
49	0xbd469ac0	-0.048487425
50	0xbc4b3f71	-0.012405262
51	0xbd6f3306	-0.05839827
52	0xbbdc5804	-0.0067243595
53	0x3cfb4219	0.030671166
54	0x3d667158	0.056260437
55	0x3d633130	0.05546683
56	0xbd1b9593	-0.037984442
57	0x3afa087d	0.0019076016
58	0x3d361d87	0.044461753
59	0x3cb9e883	0.022693878
60	0x3ce9ddbb	0.028548112
61	0x3d860506	0.06543927
62	0xbcc8457b	-0.024447193
63	0xbd09a1cf	-0.03360158
64	0xbd927fd2	-0.07153286
65	0xbc801340	-0.01563418
66	0xbd816b45	-0.06319288
67	0xbc8f6996	-0.017506402
68	0x3d12d159	0.03584418
69	0xbb51e870	-0.0032029413
70	0xbd871f90	-0.06597817
71	0x3b8dc1b9	0.004326072
72	0x3db07779	0.086165376
73	0x3b9c104a	0.004762684
74	0xbcfede59	-0.031111883
75	0xbca39117	-0.019966645
76	0xbd10f6bb	-0.03539155
77	0x3d9a55c9	0.075358935
78	0xbc4de023	-0.012565645
79	0xbd04223f	-0.032259222
80	0xbaa59829	-0.0012633848
81	0xbd0c1445	-0.034199018
82	0xbd4b1b13	-0.049586367
83	0xbb2d8ee9	-0.0026482886
84	0x3a8fb54c	0.0010964065
85	0xbe00a61d	-0.12563367
86	0x3b19d8f5	0.0023475264
87	0x3b9df958	0.004820984
88	0x3c98cab8	0.018651351
89	0xbcb6c10c	-0.022308849
90	0x3d6625fa	0.05618856
91	0x3cd8d64b	0.02646937
92	0xbcca7e43	-0.02471841
93	0x3913e6e4	0.00014105026
94	0xbbab1816	-0.005221377
95	0x3ca3599c	0.01994019
96	0xbd1ca46e	-0.03824275
97	0xbd39d9b1	-0.045373622
98	0x3d9aea86	0.07564263
99	0xbc2f3744	-0.010694329
100	0xbda3cc95	-0.07998005
101	0x3ddfd3e3	0.10929086
102	0xbd18d9d9	-0.03731713
103	0x3bf7db2e	0.00756397
104	0xbcd28d44	-0.025702126
105	0x3bba04b4	0.00567683
106	0xbd322712	-0.04349429
107	0xbd6b8266	-0.057497405
108	0xbd1adc87	-0.037807968
109	0xbd2ede55	-0.0426925
110	0xbae21936	-0.0017249945
111	0xbb37bcbc	-0.0028036078
112	0xbc77e1cf	-0.015129521
113	0x3b8f9e60	0.0043828934
114	0x3cfacfb6	0.030616622
115	0xbd303773	-0.04302163
116	0xbd0483e4	-0.032352343
117	0xbd09bb29	-0.033625755
118	0x3c1976c1	0.009366692
119	0x3c820e2a	0.015875895
120	0x3c480087	0.012207157
121	0x3d3f4924	0.04670061
122	0x3d37ae29	0.044843826
123	0x3b5fce12	0.0034149927
124	0x3b310b76	0.0027014888
125	0x3d4bd90a	0.04976753
126	0x3d34f56c	0.044179365
127	0x3b96bff8	0.004600521
128	0xb9b498c2	-0.0003444609
129	0xbd48a5be	-0.04898619
130	0x3c3ad639	0.011403614
131	0xb95d3445	-0.00021095674
132	0x3c2bd18b	0.010486971
133	0x3c8302dd	0.015992576
134	0xbc7e2232	-0.0155110825
135	0xbc475d4d	-0.012168241
136	0xbdc67352	-0.09689964
137	0xbd6eda22	-0.058313496
138	0xbcbdcd11	-0.023169072
139	0xbe2027a7	-0.15640126
140	0xbc4c3772	-0.012464391
141	0x3bae13ef	0.005312435
142	0x3c5a81ec	0.01333664
143	0x3d34f4d4	0.0441788
144	0xbbaa1ad3	-0.005191186
145	0x3d57aecb	0.05265693
146	0x3c8e0e56	0.01734082
147	0x3cf1aedd	0.029502327
148	0x3c0283f3	0.007966029
149	0x3cb4a187	0.022049678
150	0xbda62051	-0.081116326
151	0x3b6b323f	0.0035888103
152	0x3d20be4d	0.039243985
153	0xbcb09eb2	-0.021560047
154	0x3c8b269c	0.016986184
155	0xbcb3470d	-0.021884466
156	0xbbb376b5	-0.0054767975
157	0x3d123349	0.03569344
158	0x3c237a37	0.009977869
159	0x3c8afad6	0.016965311
160	0x3d4d06e5	0.050055403
161	0x3d695dc9	0.056974206
162	0xbd8d42ec	-0.0689753
163	0xbd88db66	-0.06682472
164	0x3b60cc11	0.003430132
165	0xbbc5f030	-0.0060405955
166	0xbd218dc0	-0.039441824
167	0xbbefecdd	-0.0073219375
168	0x3c807ac4	0.01568354
169	0xbd20cafc	-0.03925608
170	0x3cf81a2d	0.03028592
171	0xbcb42eeb	-0.021995028
172	0x3dc4882e	0.09596287
173	0x3c22f883	0.009946945
174	0x3c5fdccf	0.013663485
175	0xbd2a6235	-0.041597564
176	0x3cf2462b	0.029574474
177	0x3b0a80cd	0.00211339
178	0xbc24e915	-0.010065337
179	0xbd6e8101	-0.058228496
180	0x3da44626	0.08021192
181	0xbd57a12b	-0.052643936
182	0xbdc9dd03	-0.09856608
183	0xbda44c3d	-0.08022354
184	0xbc82feeb	-0.015990695
185	0x3c375133	0.011188793
186	0x3d400f41	0.046889547
187	0x3b8870e8	0.00416385
188	0xbc620f49	-0.01379759
189	0xbd348ac1	-0.04407764
190	0x3b845356	0.0040382547
191	0xbd6a9c27	-0.057277825
192	0xbd99b725	-0.07505635
193	0xbc9554bd	-0.018228883
194	0xbdb0380f	-0.08604442
195	0x3db3b9bb	0.0877566
196	0x3cd19ef9	0.0255885
197	0xbd1abe84	-0.037779346
198	0xbd015883	-0.031578552
199	0xbceb6924	-0.028736658
200	0x3c094e37	0.008380464
201	0xbcf3963b	-0.029734721
202	0xbba4f6b8	-0.005034294
203	0xbd1ae704	-0.03781797
204	0xbd915fd1	-0.07098354
205	0x3ceda60e	0.029009845
206	0xbcae6286	-0.021287214
207	0xbab31f6e	-0.0013665983
208	0xbcce7d50	-0.025206238
209	0x3db09b0e	0.08623324
210	0xbb099599	-0.0020993708
211	0x3d08520c	0.03328137
212	0xbc1053bc	-0.008809026
213	0xbca3f6bf	-0.020015119
214	0xbc28a334	-0.010292817
215	0xbd3802dd	-0.044924606
216	0xbd3efbe7	-0.04662695
217	0x3ca68164	0.02032537
218	0xbcd874f4	-0.026422955
219	0x3bce4359	0.0062946496
220	0xbd559448	-0.052143365
221	0xbc07d125	-0.00828961
222	0x3d7e28f1	0.062050764
223	0x3b93e6a3	0.004513578
224	0x3de1de1a	0.11028691
225	0x3ca6b972	0.0203521
226	0x3dcf8932	0.1013359
227	0x3b217c07	0.0024640576
228	0xbd03829d	-0.032106984
229	0xba8b0770	-0.0010607075
230	0x3d26397c	0.040582165
231	0xbc43fb46	-0.011961764
232	0x3d1c8cad	0.038220096
233	0xbc8a5fa0	-0.0168913
234	0x3d7797dd	0.060447562
235	0x3cce0788	0.025150076
236	0x3d002800	0.031288147
237	0xbc37834b	-0.011200736
238	0xbccb8ea8	-0.024848297
239	0x3cc26f7b	0.023734799
240	0x3cd447cc	0.025913142
241	0xbca8f870	-0.020626277
242	0x3d05d779	0.032676194
243	0x3cd13ee7	0.02554269
244	0xbc17ddd5	-0.0092691975
245	0x3c41f710	0.011838689
246	0x3d698048	0.057007104
247	0xbdb8b242	-0.09018375
248	0xbb96559d	-0.0045878426
249	0xbd8db182	-0.069186226
250	0xb8a01aec	-7.634409e-05
251	0xbcafe041	-0.021469237
252	0x3c76c2d9	0.015061104
253	0x3d75447c	0.059879765
254	0x3ccc2a8e	0.024922635
255	0xbd320243	-0.04345919

a2c_network.actor_mlp.2.weight f4 [128, 256]
0	0xbce01521	-0.027353825
1	0x3d55ebb1	0.052226726
2	0xbd33bfe1	-0.04388416
3	0xbd6291fd	-0.055315007
4	0x3c972bc5	0.018453488
5	0x3d47bcb4	0.048763946
6	0xbca8947e	-0.02057862
7	0x3d9ac52e	0.0755714
8	0xbcc33644	-0.023829587
9	0x3d7d21a9	0.06179968
10	0x3d9e5949	0.077318735
11	0xbd75e4d0	-0.060032666
12	0xbda436ad	-0.08018241
13	0x3cf19883	0.029491669
14	0xbafb8e22	-0.0019192139
15	0x3d0e2d9e	0.034711473
16	0xbda83bf3	-0.082145594
17	0x3da1595b	0.07878371
18	0xbd0eb752	-0.034842797
19	0x3ba878c9	0.005141352
20	0xbc7db81c	-0.01548579
21	0x3be3852a	0.0069433646
22	0xbd9c697c	-0.07637307
23	0xbc07ff2e	-0.008300586
24	0xbb92d21c	-0.0044806134
25	0x3d5268d2	0.051369496
26	0xbbc74646	-0.0060813753
27	0xbdf7cea5	-0.12099961
28	0x3ba8d6af	0.0051525454
29	0xbdcd8a7c	-0.100361794
30	0x3d561fed	0.05227654
31	0xbd8bfec2	-0.068357006
32	0x3d98e975	0.074664034
33	0xba57ccc3	-0.0008232111
34	0x3d896f3d	0.0671067
35	0xbc521ff3	-0.012825
36	0xbda6bc1d	-0.081413485
37	0xbd503333	-0.050830077
38	0xbc1af00a	-0.009456644
39	0xbd91f921	-0.07127596
40	0x3d10cf83	0.03535415
41	0x3a963f78	0.0011463007
42	0xbbd24f15	-0.0064181187
43	0x3d2af148	0.04173401
44	0xbdbb6208	-0.09149557
45	0xbd2b1929	-0.04177204
46	0x3d21a143	0.03946043
47	0x3cdd64d8	0.027025625
48	0xbcde7fa8	-0.02716048
49	0xbcfa41ed	-0.030549014
50	0x3dbbb44c	0.09165248
51	0x3d7b7f45	0.06140067
52	0x3d009404	0.03139116
53	0x3b05ac57	0.0020396912
54	0xbdc4eb90	-0.096152425
55	0x3ced1922	0.028942648
56	0x3d921e2a	0.071346596
57	0xbe02598f	-0.12729476
58	0xbd09e058	-0.033661216
59	0xbe307379	-0.1723155
60	0xbd2a4fc2	-0.04157997
61	0xbd0a14f9	-0.033711407
62	0xbcf68ce1	-0.030096473
63	0x3d366e10	0.044538558
64	0x3d022386	0.03177216
65	0x3cca293b	0.024677863
66	0xbbd1467a	-0.0063865753
67	0xbd08bddc	-0.03338419
68	0x3cea53bc	0.02860438
69	0xbdd1c8ed	-0.10243402
70	0x3d4341c4	0.04767014
71	0xbd8b63c3	-0.068061374
72	0xbd92d9c4	-0.07170442
73	0xbcbe708d	-0.023247028
74	0xbd0cef8e	-0.034408145
75	0x3db4d31c	0.088293284
76	0x3d4963dc	0.0491675
77	0xbd331ffa	-0.043731667
78	0xbd35f328	-0.044421345
79	0xbc967e7c	-0.01837086
80	0x3d9b7461	0.07590557
81	0xbd89751b	-0.06711789
82	0x3cb0d89f	0.021587668
83	0x3d5626ed	0.052283216
84	0x3d6cb046	0.057785295
85	0xbca3b29e	-0.019982632
86	0x3c14f729	0.009092131
87	0xb9beb36a	-0.00036373298
88	0xbd8cd8cb	-0.068772875
89	0xbd90ee16	-0.07076661
90	0xbce92669	-0.028460698
91	0xbd2662ea	-0.040621676
92	0x3d2af3d1	0.041736428
93	0x3cc7a4b7	0.024370534
94	0x3da88e28	0.08230239
95	0xbbd9f6e0	-0.0066517442
96	0x3cc92ec3	0.02455843
97	0x3cb0aee4	0.02156777
98	0x3cfc9069	0.030830579
99	0xba83df1d	-0.0010061
100	0xbb9aa3e8	-0.004719246
101	0x3c79273a	0.015207106
102	0x3d3beace	0.045878224
103	0x3cc84aae	0.024449673
104	0x3c431a90	0.011908188
105	0xbd36e264	-0.044649497
106	0xbb319822	-0.0027098735
107	0x3d2a6b19	0.041606043
108	0xbc8431a7	-0.016136957
109	0xbce21cd1	-0.027601631
110	0x3c36ac0c	0.011149418
111	0xbbf9a369	-0.007618357
112	0x3c20d69a	0.00981679
113	0x3d5d9236	0.054094516
114	0xbd8c5142	-0.06851436
115	0xbd71fbe3	-0.05907811
116	0x3c86b5d1	0.016444119
117	0x3c1ba58e	0.0094999205
118	0xbd2d9c8f	-0.042385634
119	0x3c166a64	0.009180639
120	0x3c60b396	0.013714692
121	0xbd0b0762	-0.033942588
122	0xbca20d10	-0.01978162
123	0x3bc557bd	0.006022422
124	0x3db73036	0.089447424
125	0xbdc505c9	-0.09620244
126	0xbc968f7b	-0.018378964
127	0xbdd0cc6d	-0.10195241
128	0x3d8ab81b	0.067733966
129	0xbd0f8dbf	-0.03504729
130	0x3d5c5d9f	0.05380022
131	0xbae40be8	-0.0017398568
132	0xbcb8d7d9	-0.022563862
133	0x3c407944	0.011747662
134	0x3c7ea761	0.015542836
135	0xbc8805bd	-0.016604299
136	0xbcbe6476	-0.023241263
137	0x3d9c572a	0.07633813
138	0x3e1bb223	0.15204673
139	0x3a199abe	0.0005859545
140	0xbd596376	-0.05307337
141	0xbd4166bf	-0.047217127
142	0xbd470afc	-0.04859446
143	0xbdad0e80	-0.08450031
144	0xbba7f226	-0.005125302
145	0xbcdc2821	-0.026874604
146	0x3cccbd26	0.024992537
147	0xbd237f65	-0.039916415
148	0x3cedf16b	0.029045781
149	0xbcd3d48c	-0.025858186
150	0x3ceccd34	0.028906442
151	0xbcff2d31	-0.031149479
152	0xbc3cb891	-0.011518613
153	0x3d9cce95	0.0765659
154	0xbcce0c14	-0.025152244
155	0x3d95d165	0.073153295
156	0xbd83ce28	-0.064358056
157	0xbcff51b8	-0.031166896
158	0xbdb29591	-0.08719934
159	0xbd9db738	-0.07700962
160	0xbe085b56	-0.13316092
161	0x3d32b99c	0.043634042
162	0xbcec28fd	-0.028828138
163	0x3d39696d	0.045266557
164	0x3d579cf8	0.05263993
165	0x3d0780f0	0.03308195
166	0x3b0db35c	0.00216218
167	0x3daf7544	0.085672885
168	0x3da125b9	0.07868523
169	0x3d141d02	0.036160477
170	0xbc6372fc	-0.013882395
171	0x3ca39f42	0.019973401
172	0x3ce0441c	0.027376227
173	0xbc7f3dc4	-0.015578691
174	0x3cbc9492	0.023020063
175	0xbd6a8a23	-0.057260644
176	0xbcca26ed	-0.024676764
177	0xbc9e1298	-0.019295976
178	0xbd9aa9c6	-0.07551913
179	0x3d71d4e6	0.059040926
180	0xbbd8f3e8	-0.0066208728
181	0xbd582371	-0.052768175
182	0xbd0928af	-0.033486065
183	0x3b44cb5a	0.0030028434
184	0xbd76fc30	-0.0602991
185	0x3bc5d957	0.006037872
186	0x3dcd93c2	0.10037948
187	0x3a55260c	0.00081309746
188	0xbc0f3d29	-0.008742609
189	0xbd0c61c4	-0.034272924
190	0xbdbac36e	-0.091193065
191	0x3d112422	0.03543485
192	0xbb4daeeb	-0.0031384777
193	0x3d6cabb1	0.057780925
194	0xbd525bc6	-0.051357053
195	0x3db30ead	0.087430336
196	0xbb896c1d	-0.0041937963
197	0x3c939376	0.01801465
198	0x3d91c0ae	0.07116829
199	0xbce68f4b	-0.0281445
200	0x3db425b9	0.087962575
201	0x3d608036	0.05480977
202	0x3d4047af	0.046943363
203	0x3d0a4b6d	0.033763338
204	0xbdace3b5	-0.08441869
205	0xbd36b652	-0.044607468
206	0x3c4f7b3d	0.01266366
207	0x3d22eb08	0.039774925
208	0x3d51457a	0.05109165
209	0x3c6f1539	0.014592462
210	0x3d831674	0.06400767
211	0xbdf746f8	-0.12074083
212	0x3c5f0f69	0.013614514
213	0xbd08794c	-0.033318803
214	0xbb81cfb5	-0.003961528
215	0x3d04a2c1	0.032381777
216	0x3daa4390	0.08313668
217	0xbaca21eb	-0.0015421485
218	0x3d8a19cc	0.067432016
219	0xbd1260c5	-0.035736818
220	0xbb9fafe3	-0.0048732623
221	0x3d0c7765	0.03429355
222	0x3d53bb99	0.05169258
223	0x3d3177e2	0.04332722
224	0xbd73c8f8	-0.05951783
225	0x3c1f47ea	0.0097217355
226	0xbcb17775	-0.021663407
227	0x3aa53015	0.001260283
228	0xbd65bf73	-0.056090783
229	0xbd36fef5	-0.04467674
230	0x3c8e780a	0.017391223
231	0x3de84873	0.113419436
232	0x3d621589	0.05519632
233	0x3d16894e	0.036752038
234	0x3d0ca654	0.03433831
235	0x3dab4d30	0.08364332
236	0xbd7d68a1	-0.06186736
237	0x3b8049d5	0.0039150515
238	0x3c489784	0.012243155
239	0x3dd0e0c9	0.10199124
240	0xbcbad6e6	-0.02280755
241	0x39853cee	0.00025413133
242	0xbc841c4e	-0.016126778
243	0xbd88df88	-0.0668326
244	0x3e285aa0	0.1644082
245	0xbd8ebc9a	-0.06969567
246	0xbcc59f32	-0.024123762
247	0x3cf7956f	0.030222623
248	0xbddb9993	-0.10722651
249	0xbdb7b250	-0.08969557
250	0x3d03bd2b	0.032162827
251	0x3dc18f8b	0.09451207
252	0xbcd215a9	-0.025645094
253	0x3d32372e	0.043509655
254	0x3d8b9ef2	0.06817426
255	0x3c53aaca	0.012919137

a2c_network.actor_mlp.2.bias f4 [128]
0	0x3c8eacd8	0.017416403
1	0xbb504470	-0.0031779073
2	0x3ca8ed85	0.02062107
3	0xbd52b577	-0.05144259
4	0xbdd1f3a4	-0.10251549
5	0x3d33b3fb	0.043872815
6	0x3ca9810b	0.020691415
7	0xbcab26e9	-0.020892577
8	0xbc039cab	-0.008032958
9	0x3b870449	0.004120384
10	0x3cfe3128	0.031029299
11	0x3d098b48	0.033580095
12	0x3c88d6eb	0.016704043
13	0xbd0b976a	-0.034079947
14	0x3d49bd28	0.04925266
15	0xbd80d964	-0.06291464
16	0xbcc100d7	-0.02355997
17	0xbbfa2622	-0.0076339403
18	0xbd90ab5f	-0.070639364
19	0x3ca2bd27	0.019865585
20	0xbd68120e	-0.056657843
21	0xbcc9a6ec	-0.024615727
22	0xbc3ac375	-0.01139914
23	0xbb02a413	-0.0019934222
24	0xbd2a3d6f	-0.041562494
25	0xbc50bda6	-0.012740528
26	0x3c09ef24	0.008418832
27	0xbd490ab5	-0.049082477
28	0xbc6148ad	-0.013750237
29	0x3cd260aa	0.025680859
30	0xbdb0bba6	-0.08629541
31	0xbd517ba2	-0.051143296
32	0x3d25709c	0.040390596
33	0x3c04290f	0.00806643
34	0xbc988f47	-0.018623007
35	0xbce15ea6	-0.027510952
36	0xbdd44b1c	-0.103658885
37	0xbd0ae55e	-0.033910148
38	0xbd717e83	-0.05895854
39	0xbd53025b	-0.05151592
40	0xbc412a7c	-0.011789914
41	0x3c5af000	0.0133628845
42	0x3d8de897	0.069291286
43	0x3c8430d5	0.016136566
44	0xbd911f2d	-0.070860244
45	0xbc5adf8b	-0.013358961
46	0xbd280337	-0.04101869
47	0xbdb99758	-0.0906207
48	0xba94d04a	-0.0011353579
49	0xbce63d9e	-0.028105553
50	0x3dd45594	0.10367885
51	0xbca27867	-0.019832803
52	0xbdf40fc6	-0.11917071
53	0x3ce606a4	0.028079338
54	0xbd356493	-0.04428537
55	0x3d0f8a77	0.03504416
56	0x3d722d86	0.059125446
57	0x3c060bdc	0.008181538
58	0x3cc39db3	0.023878908
59	0x3a9f81a9	0.0012169379
60	0x3c4e9c7e	0.012610553
61	0x3d823f33	0.063597105
62	0xbdb06bf7	-0.08614343
63	0x3d15ee31	0.03660411
64	0x3d14e6b3	0.036352824
65	0x3a05201d	0.00050783326
66	0xbd8b4762	-0.068007246
67	0x3d6824cb	0.056675714
68	0x3c123782	0.008924367
69	0x3d0120ce	0.031525426
70	0x3c16e937	0.009210876
71	0x3d0eaeda	0.03483472
72	0xbd8bc202	-0.068241134
73	0x3d28005c	0.041015968
74	0xbd7511ea	-0.059831537
75	0x3d164437	0.03668615
76	0x3c0d4efa	0.0086247865
77	0x3b87a3fa	0.0041394206
78	0xb7718fd9	-1.43982115e-05
79	0xbd65e0b6	-0.056122504
80	0xba0eb373	-0.000544361
81	0xbd2a155b	-0.041524272
82	0xbc980883	-0.018558746
83	0x3d634f4e	0.055495553
84	0x3d219296	0.039446436
85	0xbd096673	-0.03354497
86	0xbcd8a646	-0.026446473
87	0xbd80f4a4	-0.062966615
88	0xbbb34288	-0.0054705776
89	0x3d0c6193	0.03427274
90	0x3b9faab9	0.0048726466
91	0xbca29821	-0.019847931
92	0xbd36d991	-0.04464108
93	0xbb80da81	-0.0039322977
94	0xbd3227a3	-0.04349483
95	0x3c11b5eb	0.00889347
96	0x3d6d14be	0.05788111
97	0xbd07cc71	-0.033153955
98	0x3c30e11f	0.010795861
99	0x3c223c35	0.00990205
100	0xbcb47fb2	-0.022033546
101	0xbc405bd1	-0.011740641
102	0xbb9a9c93	-0.004718372
103	0x3d1be723	0.038062226
104	0xba6f6b40	-0.0009133108
105	0x3c2b1369	0.010441639
106	0xbbf7c5ba	-0.0075614126
107	0x3b193b5d	0.002338133
108	0x3d276d41	0.040875677
109	0xbdca8096	-0.09887807
110	0xbded3c74	-0.11583796
111	0x3d325d4f	0.043546017
112	0xbda16cfc	-0.07882115
113	0x3c2ca2bc	0.010536846
114	0x3d3e31cf	0.04643422
115	0x3c2d23d2	0.010567622
116	0x3c60ca34	0.013720084
117	0x3cf58a4d	0.029973174
118	0x3c4abbc1	0.012373866
119	0xbc8d90a0	-0.017280877
120	0x3d263089	0.04057363
121	0x3d011f50	0.031524003
122	0x3d235fe2	0.039886363
123	0x3c3d2a46	0.011545723
124	0xbd49ce41	-0.049268965
125	0x3c6e5172	0.014545785
126	0x3cde9dd5	0.02717487
127	0xbd9fef59	-0.07809324

a2c_network.actor_mlp.4.weight f4 [64, 128]
0	0xb9cf05d6	-0.00039486465
1	0x3d178958	0.036996216
2	0x3cbd3b34	0.02309952
3	0xbd5b43ec	-0.053531572
4	0xbcc41389	-0.023935096
5	0x3de3c661	0.11121822
6	0x3cd9bac2	0.02657831
7	0x3d8ec9fe	0.06972121
8	0xbd7398f4	-0.05947204
9	0x3bae79cb	0.0053245774
10	0xbcf18007	-0.029479994
11	0xbd3a3054	-0.045456246
12	0x3a91087c	0.0011065151
13	0xbc2c8ee9	-0.010532119
14	0xbdc1505b	-0.09439155
15	0xbca518a9	-0.02015336
16	0xbddbb5f4	-0.10728064
17	0x3c1cff03	0.009582284
18	0xbccd2081	-0.025039913
19	0x3d6c2358	0.057650894
20	0xbd41b453	-0.04729111
21	0xbd89097d	-0.06691263
22	0xbcd1faf9	-0.025632368
23	0xbd3b2180	-0.045686245
24	0x3dc9f076	0.098603174
25	0x3db06ec5	0.086148776
26	0xbd7fcab9	-0.06244919
27	0xbb57306e	-0.0032835263
28	0xbda2ac76	-0.079430506
29	0x3af4c782	0.0018675181
30	0xbc97fb40	-0.018552423
31	0xbdaf04a6	-0.085458085
32	0x3da2f975	0.079577364
33	0x3da5110a	0.080598906
34	0xbd6fb8f5	-0.058526
35	0xbb147a5b	-0.0022655937
36	0x3dd36c29	0.10323364
37	0xbd493cc6	-0.049130224
38	0x3dcb84f4	0.09937468
39	0xbdd2a7f5	-0.102859415
40	0xbc8676b7	-0.01641403
41	0xbd52eae3	-0.051493537
42	0xbda256d5	-0.07926718
43	0xbb437941	-0.0029826912
44	0xbd1d39ac	-0.03838508
45	0x3c9bca0e	0.019017246
46	0x3cab7b1a	0.020932723
47	0x3d898515	0.067148365
48	0x3c09ee35	0.008418609
49	0x3da5bc8f	0.08092605
50	0xbd268611	-0.0406552
51	0x3da0f173	0.07858553
52	0x3d979e81	0.07403279
53	0xbc0c6631	-0.008569286
54	0xbccafeae	-0.024779644
55	0x3db03987	0.086047225
56	0x3db70e4a	0.08938272
57	0xbd7b13b4	-0.061298087
58	0x3d05affe	0.032638542
59	0xbd550173	-0.052003335
60	0xbcb08e40	-0.021552205
61	0x3c6c42eb	0.014420251
62	0x3d245c0d	0.04012685
63	0xbcfd826e	-0.030945983
64	0xbce3f625	-0.027827332
65	0xbd5e1eec	-0.05422871
66	0x3e217837	0.15768515
67	0xbae2aa8d	-0.001729326
68	0x3db5fffa	0.08886714
69	0x3db26a46	0.08711676
70	0xbdf5b951	-0.11998237
71	0x3dbec4be	0.09314869
72	0xbe0e4580	-0.138937
73	0xbcf233e3	-0.029565757
74	0xbd2c9fe2	-0.042144664
75	0x3dd1767d	0.10227678
76	0xbd6e7d5b	-0.058225017
77	0x3c8f56fb	0.01749753
78	0x3d894292	0.067021504
79	0xbc4a57be	-0.012350021
80	0x3d9116d6	0.07084434
81	0x3be17acc	0.0068810936
82	0xbd8659da	-0.065601066
83	0xbc61fb23	-0.013792786
84	0x3d824a35	0.0636181
85	0xbe1be8a0	-0.15225458
86	0x3d68f428	0.05687347
87	0xbb1ee6f6	-0.002424655
88	0x3d851ece	0.06500016
89	0x3d0bf4e8	0.034169108
90	0xbd281d28	-0.04104343
91	0x3cfeda03	0.031109815
92	0x3d359924	0.0443355
93	0xbdeb3aa5	-0.11485795
94	0xbe3bea5a	-0.18351117
95	0x3d4d0c7f	0.050060745
96	0x3c6735d8	0.014111958
97	0xbd476241	-0.048677687
98	0xbd8a29c8	-0.067462504
99	0xbb181eeb	-0.0023211788
100	0x3ccf1a82	0.025281195
101	0x3cd2e27f	0.025742767
102	0x3d3ba626	0.04581275
103	0xbd55732a	-0.052111782
104	0xbd9aab50	-0.075522065
105	0x3e0070ab	0.1254298
106	0x3d8c82c6	0.068608806
107	0xbbe606b1	-0.0070198406
108	0x3acd59e4	0.0015667048
109	0x3bdb91ec	0.006700745
110	0xbcc9c47b	-0.024629822
111	0x3e1c980f	0.15292381
112	0xbdc8c150	-0.098024964
113	0x3daa6932	0.08320846
114	0x3d02163a	0.03175948
115	0x3ca52c8f	0.020162849
116	0x3d25929c	0.04042302
117	0xbd2db746	-0.04241111
118	0x3c042e21	0.008067639
119	0xbc831097	-0.015999122
120	0x3d81631e	0.06317733
121	0xbd9c75a3	-0.07639625
122	0x3da30b36	0.07961123
123	0xbbe4499d	-0.006966783
124	0x3da2b589	0.07944781
125	0x3d72fef0	0.05932516
126	0x3d62538b	0.055255454
127	0xbd20184c	-0.03908567
128	0xbd7d1091	-0.061783377
129	0x3da370df	0.07980513
130	0x3cfa11f6	0.030526143
131	0xbe2245e8	-0.1584698
132	0xbd11e2ae	-0.03561657
133	0xbd50a2c2	-0.050936468
134	0xbd225903	-0.03963567
135	0x3db11b43	0.08647778
136	0xbd849c80	-0.064751625
137	0xbd1b6797	-0.037940588
138	0xbc91db7f	-0.01780486
139	0xbd4901fc	-0.049074158
140	0x3d86a131	0.065737136
141	0xbd0d8bb6	-0.034557067
142	0xbda36404	-0.07978061
143	0xbdb41cfe	-0.08794592
144	0xbdbad185	-0.09121994
145	0x3c0f74ea	0.008755902
146	0xbce9e124	-0.028549738
147	0x3d38e255	0.045137722
148	0x3a3fe0c0	0.0007319562
149	0xbc1a0456	-0.009400448
150	0x3d249da9	0.04018942
151	0x3d0f5e45	0.03500201
152	0x3e1ee0b4	0.15515405
153	0xbd5b68bb	-0.053566676
154	0xbd861550	-0.06547034
155	0xbc93271d	-0.017962987
156	0x3d26a668	0.04068604
157	0xbd0afdd3	-0.033933472
158	0x3cb3305c	0.021873645
159	0x3db26895	0.08711354
160	0x3a30451b	0.00067241647
161	0x3cc55fb8	0.024093494
162	0x3d8ea98d	0.06965933
163	0xbb7d7211	-0.0038672725
164	0x3cac40b8	0.021026954
165	0x3da2caee	0.07948862
166	0xbd41670b	-0.04721741
167	0x3c114874	0.008867372
168	0xbb3c6817	-0.0028748566
169	0x3cdf80a9	0.02728303
170	0xbd9eb144	-0.077486545
171	0xbcbe725f	-0.023247896
172	0xbaac9d9f	-0.0013169533
173	0xbd96605a	-0.07342596
174	0x3c93f55d	0.018061334
175	0x3df694ed	0.12040124
176	0x3d855a2f	0.06511342
177	0x3d986221	0.074405916
178	0x3d5dd67e	0.054159634
179	0xbd395cae	-0.0452544
180	0xbd2d961f	-0.042379495
181	0xbcac0d6d	-0.021002496
182	0x3dc7361a	0.09727116
183	0x3cc4c4ff	0.024019716
184	0x3d81ff17	0.06347483
185	0xbdfb8cfd	-0.12282751
186	0x3d9e237d	0.077216126
187	0x3dc44cb5	0.09584943
188	0xbdb84b22	-0.089987054
189	0xbd961137	-0.07327502
190	0x3d1d6e3a	0.0384352
191	0xbde4778e	-0.11155616
192	0xbd972855	-0.073807396
193	0xbd004ff4	-0.03132625
194	0xbd3f0009	-0.046630893
195	0xbd9df3e9	-0.07712538
196	0xbda4580c	-0.08024606
197	0xbe0274f2	-0.12739924
198	0xbdc157e8	-0.09440595
199	0xbe03182b	-0.12802188
200	0xbd8a346b	-0.06748279
201	0xbc61d397	-0.013783357
202	0xbdff221a	-0.12457676
203	0x3d7905ac	0.060796425
204	0x3d239de8	0.039945513
205	0xbd6a2b60	-0.057170272
206	0xbca62fb0	-0.020286411
207	0xbd84aee0	-0.06478667
208	0x3d994f83	0.07485869
209	0x3d0337b0	0.03203553
210	0x3cb57230	0.022149175
211	0xbd0e31d7	-0.0347155
212	0x3d89aa4c	0.06721935
213	0xbd5e3b16	-0.054255567
214	0xbc19870d	-0.0093705775
215	0xbc9646ea	-0.018344361
216	0x3cb4c446	0.022066247
217	0x3d73f55f	0.059560176
218	0xbd6d2d13	-0.057904314
219	0xbdeda1ff	-0.11603164
220	0xbd620f43	-0.055190336
221	0x3c136009	0.0089950645
222	0xbd3333e4	-0.04375066
223	0xbdf2de80	-0.11858845
224	0xbd0274a9	-0.031849537
225	0x3d12db91	0.035853926
226	0x3d816166	0.063174054
227	0xbc2fbea4	-0.010726605
228	0xbd42cbf0	-0.04755777
229	0xbd1527da	-0.03641496
230	0x3c7806c2	0.01513833
231	0xbd969a29	-0.073536225
232	0x3dbafe30	0.09130514
233	0x3cc5e5a0	0.024157345
234	0x3d64291e	0.055703275
235	0x3d198864	0.037483588
236	0x3c7d1333	0.015446472
237	0xbdb6eb92	-0.0893165
238	0xbe030a9b	-0.12797014
239	0x3da1a7ae	0.078933105
240	0xbc066b43	-0.008204284
241	0x3c354b82	0.011065366
242	0x3d496a37	0.04917356
243	0x3b05b0d1	0.002039958
244	0x3dc36e92	0.09542574
245	0x3d25c976	0.04047533
246	0xbe017a90	-0.1264441
247	0xbdb4c66a	-0.08826907
248	0xbdc56f14	-0.09640327
249	0x3d48bbc8	0.049007207
250	0x3c955557	0.01822917
251	0xbb9adae5	-0.0047258013
252	0x3b3ce3e4	0.0028822357
253	0x3d990abc	0.074727505
254	0xbb204288	-0.0024453718
255	0x3dc0a9a3	0.09407356

a2c_network.actor_mlp.4.bias f4 [64]
0	0x3c65363b	0.01398998
1	0xbd7f3291	-0.062304083
2	0x3d2f2169	0.04275647
3	0x3cc4ff36	0.024047475
4	0xbce9f19f	-0.028557597
5	0xbd4988b8	-0.04920265
6	0xbd879b87	-0.06621461
7	0xbd8dc95d	-0.069231726
8	0xbc82fc1e	-0.01598936
9	0xbda2eec1	-0.07955695
10	0xbd9f328b	-0.07773312
11	0x3d44d0cc	0.048050687
12	0x3cdd4394	0.027009763
13	0xbdaa30d9	-0.08310098
14	0xbd94a00e	-0.072570905
15	0x3ce2ca6e	0.027684417
16	0xbd64db7b	-0.055873375
17	0xbd0a3c84	-0.03374912
18	0x3d9a118e	0.075228795
19	0xbce284f5	-0.02765129
20	0xbd8ac14d	-0.067751504
21	0xbdb8951d	-0.09012816
22	0xbdbf1e7e	-0.09331988
23	0xbc39a1bf	-0.011330067
24	0x3d384233	0.044985007
25	0xbc8054cb	-0.015665432
26	0xbd853c94	-0.06505695
27	0x3c9a4ae3	0.018834537
28	0x3d90c87c	0.07069489
29	0xbd67a530	-0.05655402
30	0xbe108842	-0.14114478
31	0xbceef99c	-0.029171757
32	0xbd383485	-0.04497196
33	0x3b871228	0.0041220374
34	0x36144fa6	2.210008e-06
35	0xbdab618c	-0.08368215
36	0xbda670c0	-0.08126974
37	0x3ce6a98c	0.028157018
38	0xbc896a50	-0.016774327
39	0xbcdfff1b	-0.027343323
40	0x3ce12931	0.027485462
41	0x3c876805	0.016529093
42	0xbd8c6df7	-0.06856912
43	0xbb988115	-0.0046540597
44	0xbd8e5892	-0.06950487
45	0xbe17f307	-0.14838801
46	0x3d10cf0b	0.0353537
47	0xbc62d036	-0.013843587
48	0xbdb7c4c6	-0.089730784
49	0xbd45504e	-0.048172288
50	0x3d5cc274	0.053896382
51	0xbd7273c5	-0.059192438
52	0x3cb6e872	0.022327635
53	0xbdacc3e1	-0.084357984
54	0x3d006115	0.031342585
55	0xbd757343	-0.059924375
56	0xbccce46b	-0.025011262
57	0x3d2a1c40	0.041530848
58	0xbd63dfcc	-0.05563335
59	0xbd6aebb7	-0.0573537
60	0x3d14300d	0.036178637
61	0xbda82e30	-0.082119346
62	0xbd9f97f6	-0.07792656
63	0xbd228292	-0.039675303

a2c_network.value.weight f4 [1, 64]
0	0x3d95237e	0.0728216
1	0xbc0f3780	-0.00874126
2	0x3be0a86b	0.0068560145
3	0x3df25d90	0.11834252
4	0xbd82660f	-0.063671224
5	0x3b37a5e3	0.002802246
6	0x3ae4a5dc	0.001744445
7	0xbaa2c885	-0.0012419379
8	0xbc86b13d	-0.016441936
9	0xbd71662e	-0.058935337
10	0x3be8853f	0.0070959623
11	0x3d374ea5	0.044752736
12	0x3bcebedd	0.006309374
13	0x3aa391a4	0.0012479317
14	0xbce9fe06	-0.02856351
15	0xbc96cca7	-0.018408133
16	0xbda2f94e	-0.07957707
17	0xbd407369	-0.046985064
18	0x3d8674f5	0.065652765
19	0xbcac9a13	-0.021069562
20	0xbde6e0ec	-0.11273369
21	0xbce5f4c2	-0.028070811
22	0xba883c68	-0.0010393979
23	0x3a1c005f	0.0005950983
24	0xbcfce450	-0.030870587
25	0x3d00e90a	0.031472243
26	0xbd56d8e2	-0.05245293
27	0x3d008283	0.031374466
28	0x3c247747	0.010038204
29	0xbdf91f43	-0.12164166
30	0xbd027653	-0.031851124
31	0xbba41ef5	-0.005008573
32	0xbde1fb1f	-0.11034226
33	0xbb222dd7	-0.002474656
34	0xbcb3b01b	-0.02193456
35	0xbcc5d245	-0.024148116
36	0xbe10cb29	-0.1414
37	0x3d60e2a2	0.054903634
38	0x3c7e7b54	0.015532333
39	0xbcad88ee	-0.021183457
40	0x3d571657	0.05251154
41	0xbc40bef8	-0.0117642805
42	0xbce973cb	-0.028497597
43	0x3cd530e5	0.026024291
44	0x3d31ea9a	0.043436624
45	0x3c296a1d	0.010340241
46	0x3d5cbae2	0.053889163
47	0xbd86cfe8	-0.06582624
48	0xbd7abafa	-0.06121347
49	0xbdc6de92	-0.09710421
50	0x3ad44d8e	0.001619743
51	0xbd980807	-0.07423406
52	0x3da5a22b	0.08087572
53	0xbd127491	-0.035755698
54	0x3cbea216	0.023270648
55	0x3bad25d6	0.0052840514
56	0x3d92d630	0.07169759
57	0x3d5ba1c8	0.053621083
58	0xbc651921	-0.013983042
59	0xbdcd5666	-0.10026245
60	0x3de32132	0.11090316
61	0xbdecc110	-0.11560261
62	0x38a8b7e2	8.045115e-05
63	0x3b3e5ec4	0.0029048184

a2c_network.mu.weight f4 [8, 64]
0	0x3c14c94e	0.009081198
1	0xbc1f35c6	-0.00971741
2	0xbe11b0ab	-0.1422755
3	0x3d696fb7	0.056991305
4	0x3caf9fab	0.02143844
5	0x3d3b7d19	0.0457736
6	0xbde559e3	-0.11198785
7	0x3c6c688d	0.014429224
8	0xbd88b54f	-0.06675207
9	0x3d1da6f7	0.03848931
10	0xbdd77a47	-0.105213694
11	0x3c0321c8	0.00800366
12	0xbc97d936	-0.018536191
13	0xbd9b21b0	-0.07574785
14	0x3e3d176e	0.18465969
15	0xbd1bf762	-0.03807772
16	0x3ddd6e06	0.10812001
17	0x3d8d87a2	0.069106355
18	0x3cd66668	0.026171878
19	0xbe06af2b	-0.13152759
20	0x3d8f4b0f	0.06996738
21	0x3d4ae14a	0.04953126
22	0x3e030cc5	0.1279784
23	0xbe12940c	-0.14314288
24	0xbd751595	-0.059835035
25	0x3da4e464	0.080513746
26	0x3d860b78	0.06545156
27	0x3e25524d	0.16144677
28	0xbdc5058f	-0.09620201
29	0x3d77e099	0.060516927
30	0xbc540227	-0.012939966
31	0xbd973d1f	-0.07384705
32	0xbdbb54b2	-0.09147014
33	0x3e2ff252	0.17182282
34	0x3dab5784	0.08366302
35	0x3e20453c	0.15651411
36	0xbd819649	-0.06327493
37	0x3d6c52de	0.057696216
38	0xbc4b847f	-0.012421726
39	0xbdce5ab7	-0.10075896
40	0x3c7acd94	0.015307803
41	0x3dd9a7b9	0.10627694
42	0x3de34448	0.11097008
43	0xbce28a57	-0.027653856
44	0xbcd490d6	-0.02594797
45	0x3d798590	0.06091839
46	0xbbe06bf3	-0.006848806
47	0xbe009747	-0.12557708
48	0x3ce2f28c	0.027703546
49	0x3dec20eb	0.11529716
50	0xbd895c15	-0.067070164
51	0x3d117d5b	0.03551994
52	0x3d1bd773	0.038047265
53	0x3c4a7518	0.012357019
54	0xbdae5295	-0.08511845
55	0x3d6318ce	0.055443577
56	0xbd77b4c1	-0.060475115
57	0xbe2de2fe	-0.16981122
58	0x3dc90c3d	0.098167874
59	0xbe3380f3	-0.17529659
60	0xbb92b6a7	-0.0044773403
61	0x3d264808	0.040596038
62	0x3ba2d326	0.0049690185
63	0x3dd82815	0.1055452
64	0x3c99010b	0.018677255
65	0xbd5bb2f9	-0.05363748
66	0xbda14797	-0.07874983
67	0x3cc0d9e5	0.0235414
68	0xbcc363fc	-0.023851387
69	0xbdc4b8be	-0.09605549
70	0xbc85d6e3	-0.016337818
71	0x3e2e442b	0.17018192
72	0xbd99deda	-0.07513209
73	0xbcbb1917	-0.022839112
74	0xbd10dc5f	-0.035366412
75	0xbd830643	-0.06397679
76	0xbd93e657	-0.07221668
77	0xbd5654d8	-0.052327007
78	0x3ca74179	0.020416962
79	0xbc31f1c1	-0.010860861
80	0xbe18b1e1	-0.14911605
81	0x3d26949a	0.04066906
82	0xbd22079a	-0.03955803
83	0x3d407a2c	0.046991512
84	0x3dfc6ebb	0.12325808
85	0x3e068c8e	0.13139555
86	0x3d9e43bf	0.07727765
87	0xbc432536	-0.011910727
88	0xbd26bb7b	-0.04070614
89	0x3ddfe577	0.10932439
90	0xbd92a030	-0.071594596
91	0xbd9f1ba4	-0.07768944
92	0x3e03942c	0.12849492
93	0x3d3f2625	0.046667237
94	0x3d1b56ed	0.037924696
95	0xbc4c798f	-0.012480154
96	0x3d27677a	0.040870167
97	0x3da00744	0.07813886
98	0x3da6fcbc	0.08153674
99	0xbc029851	-0.007970885
100	0xbbee29a5	-0.007268148
101	0x3df757a1	0.12077261
102	0x3d8a29f6	0.06746285
103	0xbd8f6c74	-0.07003108
104	0x39dc5e0c	0.0004203174
105	0xbd186956	-0.03720983
106	0xbe13ac68	-0.14421237
107	0x3daf0ebc	0.08547732
108	0xbc8b47f5	-0.017002085
109	0x3db7b6c0	0.08970404
110	0xbdcb2a62	-0.09920193
111	0xbd02dceb	-0.031948965
112	0xbbf77a16	-0.0075523956
113	0x3dbbf2be	0.09177159
114	0x3df8d682	0.12150289
115	0xbc055706	-0.008138424
116	0xbe0797b5	-0.13241465
117	0x3d3d08be	0.046150915
118	0x3e2c5728	0.16830122
119	0x3e44a863	0.1920486
120	0xbdb56702	-0.08857538
121	0xbd0f973e	-0.035056345
122	0x3d97d490	0.0741359
123	0xbd06b2d2	-0.03288538
124	0x3d36ddee	0.044645242
125	0xbd6d2a11	-0.057901446
126	0x3d48aaa1	0.04899085
127	0x3e0b5924	0.13608223
128	0x3cc7aa8a	0.024373312
129	0x3cfc51b3	0.030800676
130	0xbd416c37	-0.047222342
131	0xbd104229	-0.035219345
132	0xbd72d818	-0.059288114
133	0x3e1053d3	0.14094476
134	0x3d9832a5	0.07431535
135	0x3dac7675	0.084210314
136	0xbd3572b7	-0.044298854
137	0xbcad4c46	-0.021154534
138	0x3bf7e1d9	0.007564765
139	0xbe06ff2c	-0.13183278
140	0x3d82c78f	0.06385719
141	0x3def5f3c	0.116880864
142	0xbd955190	-0.072909474
143	0xbd47aa76	-0.04874655
144	0xbe657b03	-0.22410206
145	0xbe027fff	-0.12744139
146	0xbda4cb82	-0.080466285
147	0xbd181fb4	-0.03713961
148	0x3d693535	0.056935508
149	0x3c91e474	0.01780913
150	0x3deff00c	0.11715707
151	0x3d7adc48	0.061245233
152	0xbcfaf8b1	-0.030636163
153	0x3df17a1e	0.1179087
154	0xbbc3021f	-0.0059511806
155	0xbcda9bb0	-0.026685566
156	0xbe057107	-0.13031398
157	0xbd2052bb	-0.039141398
158	0x3de0d924	0.10978916
159	0xbc76df63	-0.015067908
160	0xbe247605	-0.16060646
161	0xbd6f8d64	-0.05848445
162	0xbdb10195	-0.0864288
163	0x3e194cdb	0.14970724
164	0xbd3d4864	-0.046211615
165	0x3d8e0dac	0.069362015
166	0xbbdc0586	-0.0067145256
167	0xbe2dca6e	-0.16971752
168	0xbd0e31db	-0.034715515
169	0xbd38c412	-0.045108862
170	0xbd859603	-0.06522753
171	0x3d578d7c	0.052625164
172	0x3e0a4eec	0.13506669
173	0x3dc722b1	0.09723414
174	0x3dda99f0	0.106738925
175	0x3c4ceccc	0.012507629
176	0x3dd7b669	0.10532839
177	0xbd7d66e3	-0.0618657
178	0xbdb12abd	-0.0865073
179	0xbd8c9b30	-0.06865537
180	0xbdb043b6	-0.08606665
181	0x3dd0f24b	0.10202464
182	0xbd0b0f90	-0.03395039
183	0xbd150658	-0.036383003
184	0x3dcd8eaf	0.1003698
185	0x3d9d0fc9	0.076690264
186	0xbdadbe71	-0.084835894
187	0xbd92b3c2	-0.07163192
188	0x3d451fef	0.048126157
189	0x3cb52d36	0.022116285
190	0x3e8c2840	0.27374458
191	0xbda64269	-0.081181355
192	0xbdbc2cc8	-0.09188229
193	0xbd3f9fb4	-0.046783164
194	0xbdafa650	-0.085766435
195	0xbd175562	-0.03694666
196	0x3da3a3ba	0.07990213
197	0x3d3dcf2f	0.046340164
198	0xbda09b3c	-0.078421086
199	0xbd770b8c	-0.060313746
200	0xbd29488d	-0.041328955
201	0xbd434740	-0.04767537
202	0xbd9ac487	-0.07557016
203	0x3da1ed3c	0.07906577
204	0x3d5e8774	0.054328397
205	0xbdf6108a	-0.12014873
206	0xbc7d4ab6	-0.015459707
207	0x3d8d1332	0.06888427
208	0xbd2c3439	-0.04204199
209	0x3e0ccbe6	0.13749656
210	0x3dd0b8ea	0.101915196
211	0xbbb7c571	-0.0056082536
212	0x3c9c4a3b	0.019078365
213	0x3d0464e9	0.032322798
214	0x3acd45b3	0.0015661031
215	0x3d1a111e	0.03761398
216	0x3c92c14b	0.017914435
217	0x3c52b855	0.012861331
218	0x3d26d481	0.040730003
219	0x3d60bf28	0.0548698
220	0x3dc48a47	0.09596687
221	0x3d7a5362	0.061114676
222	0xbd26be02	-0.04070855
223	0xbd02f598	-0.031972498
224	0xbc6b7e3f	-0.014373361
225	0xbdf5f70d	-0.12010012
226	0xbdf07c06	-0.117424056
227	0x3c3b1bd8	0.011420213
228	0xbd6d2ab8	-0.057902068
229	0x3d4c158c	0.049825236
230	0x3d5fe790	0.054664195
231	0x3c9ec6e2	0.019381944
232	0xbcb5c1d4	-0.022187151
233	0xbc9f775c	-0.019466095
234	0x3dd3a70f	0.10334598
235	0x3d9afc16	0.07567613
236	0x3da609b3	0.08107319
237	0x3d28f496	0.04124888
238	0x3d04521f	0.03230488
239	0x3cdc9782	0.026927713
240	0x3d1c50dc	0.03816305
241	0x3c486216	0.012230417
242	0x3d266852	0.04062683
243	0x3d5cce5c	0.053907737
244	0xbe0ae837	-0.13565145
245	0xbe067ddb	-0.13133948
246	0xbd122338	-0.03567812
247	0x3dc1e91c	0.0946829
248	0x3bcd4459	0.006264251
249	0x3d8c2d59	0.06844587
250	0xbd1b5c04	-0.03792955
251	0x3a0bee2c	0.00053379196
252	0x3d45d965	0.048303027
253	0xbdfc749d	-0.1232693
254	0xbccb3e36	-0.024809938
255	0xbc5760f1	-0.013145671

a2c_network.mu.bias f4 [8]
0	0xbdd2ee24	-0.10299328
1	0xbdae88c0	-0.08522177
2	0xbd229e65	-0.039701838
3	0x3d877da3	0.0661576
4	0xbd8614c0	-0.065469265
5	0x3c8cc619	0.017184304
6	0xbe03f44b	-0.12886159
7	0xbd1a5cf8	-0.03768632

exp_avg f4 [8]
0	0x3ba6c301	0.0050891642
1	0x3bd2bb48	0.006431017
2	0xbb4f36a0	-0.0031618252
3	0x3b7ad541	0.0038274082
4	0x3b6e6433	0.0036375641
5	0x3b561294	0.0032664882
6	0x3bdcac5d	0.0067344145
7	0x3bb72073	0.005588585

exp_avg_sq f4 [8]
0	0x38746cd0	5.8275473e-05
1	0x38a92646	8.065677e-05
2	0x385f4c78	5.323856e-05
3	0x386d02d8	5.650785e-05
4	0x3877b4dd	5.905783e-05
5	0x38b16978	8.459663e-05
6	0x388321f3	6.25289e-05
7	0x388ad727	6.620428e-05
