runs/FrankaCubeStack_01-19-58-34/nn/FrankaCubeStack.pth (torch, 577583 bytes, 36 tensors)

value_mean_std.running_mean f8 [1]
0	0x4014b959401cecb1	5.181004525914589

value_mean_std.running_var f8 [1]
0	0x4026db3eb26aeb71	11.428212714721413

value_mean_std.count f8 []
0	0x41a7500002000000	195559425.0

running_mean_std.running_mean f8 [19]
0	0xbf6a7d6d46bce319	-0.003233636312782184
1	0x3f8e544cdc90a3d2	0.014809227448567972
2	0xbfad149186c5bc7c	-0.056797549916944384
3	0x3fec596c6044636e	0.8859159355371113
4	0x3f7cbc3e1fd01655	0.0070154597024206415
5	0x3f7b7df99b2301c3	0.0067119360193718695
6	0x3ff0dd85042f1881	1.0540819323955761
7	0xbf644e566b6b5a63	-0.0024787605174013
8	0xbf78d827c597a6d4	-0.0060655168140130895
9	0x3f79d1cb6e247f0f	0.006303591393844745
10	0x3f42a03c240e5ff8	0.0005684178978411216
11	0x3f7cd9cbe39941ef	0.007043644372587184
12	0x3ff11d075d87b764	1.0695871022721457
13	0xbfc4d57985c06979	-0.16276473074760725
14	0xbfaf2175f2385f14	-0.06080216008939324
15	0xbfc30cb0e512d755	-0.14882479844316757
16	0xbf8b1e2b66536c95	-0.013241137562024977
17	0x3f95f2c211513311	0.021433861071545716
18	0x3f9682ca0832fef5	0.021983296156348826

running_mean_std.running_var f8 [19]
0	0x3fa8a0f85cfed37d	0.04810310492704326
1	0x3f9844eb628cd429	0.023700406923314574
2	0x3fbaa3c81623c137	0.10406160870093549
3	0x3fa23940df55a307	0.03559305883647395
4	0x3f99266a95d3e7cf	0.024560609240303507
5	0x3f9a5296d911a684	0.025705677985035993
6	0x3f4d11e336a7031a	0.0008871421280717024
7	0x3fb0ea91a9a77c74	0.06607923881482397
8	0x3fb0db6f1358d2d0	0.06584829542482429
9	0x3f77b989451a64ce	0.005792175493888508
10	0x3f95c453f90ca709	0.021256744457025998
11	0x3f97a6365c218efd	0.023094987271533352
12	0x3f68873235d28255	0.0029941540402236657
13	0x3feb0843fdeb70e1	0.8447589835518806
14	0x3fa94a0e9401ab29	0.04939313465805235
15	0x3fa238c0fe9b8f53	0.035589247779880616
16	0x3f91f5b33defac5e	0.01753883424309454
17	0x3f121c77621d5527	6.908873231499924e-05
18	0x3f11ad940a7cf9cd	6.743637152071339e-05

running_mean_std.count f8 []
0	0x4197500004000000	97779713.0

a2c_network.sigma f4 [7]
0	0xbfa74dd4	-1.3070626
1	0xbf8cae72	-1.0990736
2	0xbfcb667b	-1.589065
3	0xbf52d8ff	-0.8236236
4	0xbf4f8de4	-0.8107588
5	0xbf265b6a	-0.64983237
6	0xbfd8e694	-1.6945367

a2c_network.actor_mlp.0.weight f4 [256, 19]
0	0x3d20b075	0.039230783
1	0xbcebd109	-0.0287862
2	0x3c37d9a5	0.011221324
3	0xbd3e42f7	-0.04645058
4	0x3ef547ce	0.47906345
5	0xbef1bf3d	-0.47216216
6	0x3d9a28a9	0.075272866
7	0xbde6f075	-0.11276332
8	0xbcf98b7c	-0.03046202
9	0xbdab2e44	-0.08358434
10	0xbedf6ce1	-0.43637756
11	0x3ea54548	0.3227942
12	0xbf05cd2a	-0.5226618
13	0x3db083ee	0.086189136
14	0xbcd9db74	-0.026593901
15	0xbddb2430	-0.107002616
16	0x3e1196ea	0.14217725
17	0xbc8b9d48	-0.017042771
18	0x3df601b1	0.12012041
19	0x3d159e9a	0.036528207
20	0xbd9bfd10	-0.07616627
21	0x3a904ab5	0.0011008593
22	0xbcb2b9db	-0.021817138
23	0x3e788511	0.24269511
24	0x3edc827b	0.430683
25	0x3e52f1d8	0.20600069
26	0xbd6a7974	-0.057244733
27	0x3de69884	0.11259559
28	0x3c669cee	0.014075501
29	0xbdc2f8a8	-0.09520084
30	0xbec4eb70	-0.38460875
31	0xbe352780	-0.1769085
32	0xbd2385e1	-0.0399226
33	0xbdab78b7	-0.08372634
34	0x3e58ca43	0.21170907
35	0x3d9d6b35	0.07686464
36	0x3e101d60	0.14073706
37	0x3d6eeee0	0.058333278
38	0xbd517a48	-0.051142007
39	0xbcb4cfb5	-0.022071699
40	0x3d316324	0.04330744
41	0x3d8b3dae	0.06798874
42	0xbe21e2a6	-0.15809116
43	0x3ee391cf	0.4444718
44	0xbda3cb11	-0.07997716
45	0xbcfd2495	-0.030901233
46	0xbd82c015	-0.06384293
47	0x3e89c5b0	0.26908636
48	0x3e1ef72a	0.15523973
49	0xbeca26e1	-0.39482787
50	0xbf02bbd2	-0.5106784
51	0x3dff9450	0.1247946
52	0xbccb8f2d	-0.024848545
53	0xbc9c6913	-0.019093072
54	0xbd93707a	-0.071991876
55	0xb9f0007c	-0.00045776728
56	0x3c73ca8e	0.014879836
57	0x3cf81178	0.030281767
58	0xbc55d9c0	-0.013052404
59	0xbcaaa13a	-0.020828832
60	0x3d9689b8	0.073504865
61	0xbf1037cb	-0.56335133
62	0xbd75c777	-0.060004678
63	0x3e86562d	0.26237622
64	0xbdce1c59	-0.10064001
65	0xbda721d4	-0.08160749
66	0xbe19d6c5	-0.15023334
67	0x3ef4b1f8	0.4779203
68	0xbd4a0807	-0.04932406
69	0xbeb589f1	-0.35456803
70	0x3b8d1fb1	0.0043067564
71	0xbddaffa9	-0.106932946
72	0xbd1efa6d	-0.038813043
73	0x3dcf1126	0.10110693
74	0x3e248510	0.16066384
75	0xbe0eb630	-0.13936687
76	0xbd17f6e8	-0.037100703
77	0x3dab22f2	0.08356275
78	0xbe05ab4f	-0.1305363
79	0x3d85801d	0.06518576
80	0xbef34f1e	-0.475213
81	0xbe28d9fd	-0.16489406
82	0x3e17ef8c	0.14837474
83	0xbdd7b409	-0.10532386
84	0xbe2e8200	-0.17041779
85	0x3e43f2d4	0.191356
86	0x3e03e958	0.12881982
87	0xbdd00b13	-0.10158362
88	0x3c179bab	0.009253423
89	0xbdbed90d	-0.09318743
90	0x3d6464e1	0.055760268
91	0x3e8c8f28	0.2745297
92	0x3bbefe59	0.0058286604
93	0x3de116bd	0.10990665
94	0xbe374d20	-0.17900515
95	0xbb6b82dc	-0.0035936153
96	0x3b2df925	0.0026546207
97	0xbd38e2d2	-0.045138188
98	0x3dbaf21e	0.091282114
99	0x3b677b70	0.0035321377
100	0x3d20cce2	0.03925789
101	0x3d69c963	0.057076823
102	0xbe041886	-0.1289998
103	0xbd621acf	-0.055201348
104	0xbe4bac20	-0.19889879
105	0xbe773d98	-0.2414459
106	0xbd883a4f	-0.066517465
107	0xbbb93d43	-0.005653055
108	0xbdcb3b4d	-0.0992342
109	0x3d612d80	0.054975033
110	0xbdc695d4	-0.09696546
111	0x3d55e72d	0.05222242
112	0x3e43e2a4	0.19129425
113	0xbdfefc2e	-0.12450443
114	0x3d5dbb85	0.05413391
115	0x3dc4a5fc	0.096019715
116	0xbdbf8644	-0.09351781
117	0xbe3aa440	-0.18226719
118	0xbeadb482	-0.3392678
119	0x3eb22679	0.34794977
120	0xbb0e297e	-0.0021692212
121	0x3c8e9de9	0.017409282
122	0xbe581f57	-0.21105705
123	0x3da0b5b3	0.078471564
124	0x3e1995e6	0.14998588
125	0xbe633669	-0.22188725
126	0xbdf1de3c	-0.11809966
127	0x3c18f054	0.009334642
128	0x3e64c161	0.22339393
129	0xbdc8b480	-0.09800053
130	0xbdfab264	-0.122410566
131	0x3d525174	0.05134721
132	0xbe508e85	-0.20366867
133	0xbd712952	-0.058877297
134	0x3d03e97f	0.0322051
135	0x3d1cd4ef	0.038289007
136	0xbe005534	-0.12532502
137	0xbd1f9a97	-0.038965788
138	0x3f037195	0.5134519
139	0x3d9e839a	0.07739945
140	0xbcc34459	-0.023836302
141	0x3e4f8b70	0.20268035
142	0x3db575ba	0.08860345
143	0x3db100af	0.086427085
144	0xbf13ebbf	-0.57781595
145	0x3e60b1cc	0.21942824
146	0x3ccd6378	0.025071844
147	0xbd768a7e	-0.06019067
148	0x3e449dc4	0.19200808
149	0x3c75e1eb	0.015007476
150	0xbd741127	-0.05958667
151	0xbdd60de8	-0.10451871
152	0x3c3e19ec	0.01160286
153	0xbc4cb174	-0.01249348
154	0xbb30fe8f	-0.0027007197
155	0xbdd873a2	-0.1056893
156	0xbeecf898	-0.46283412
157	0xbeccacd1	-0.39975598
158	0x3de60a21	0.11232401
159	0x3e13d92c	0.14438313
160	0xbe0880f5	-0.13330443
161	0x3dc2b98d	0.09508047
162	0x3f110006	0.5664066
163	0x3e79b1ea	0.24384275
164	0xbe8ddbf5	-0.27706876
165	0x3d45cfcb	0.04829387
166	0x3cbdef43	0.023185378
167	0x3d42cfcf	0.047561463
168	0x3cd42ae3	0.025899356
169	0xbd574291	-0.052553717
170	0x3d88feae	0.06689201
171	0xbe88f4d6	-0.26749295
172	0x3df53585	0.11973099
173	0x3dd3b12b	0.103365265
174	0x3f8a738b	1.0816511
175	0x3ea721cc	0.32642972
176	0xbe8d90e1	-0.27649596
177	0xbdc8f5f0	-0.09812534
178	0xbe026021	-0.12731983
179	0xbc52f07e	-0.012874721
180	0xbd7a4471	-0.061100427
181	0xbe13a384	-0.14417845
182	0x3e29be89	0.1657659
183	0x3f19eab7	0.6012377
184	0xbc99fb82	-0.018796686
185	0xbdbbf178	-0.09176916
186	0xbe7b566b	-0.24544685
187	0xbd67d0ad	-0.056595493
188	0xbda87ebe	-0.08227299
189	0x3e1169a6	0.14200458
190	0xbc52961d	-0.012853173
191	0xbce56ac0	-0.028005004
192	0x3d549b5a	0.051905967
193	0x3dc81852	0.09770264
194	0xbe93f57d	-0.2889823
195	0x3d0ae1d9	0.03390679
196	0x3dcc0eff	0.09963798
197	0xbdc7f3b5	-0.0976328
198	0xbc53a26f	-0.012917145
199	0x3e1c62dc	0.15272087
200	0x3ca5ef62	0.020255748
201	0xbe09950b	-0.13435762
202	0x3ee0e44e	0.43924183
203	0xbd8edc5a	-0.069756225
204	0xbc8b0706	-0.016971122
205	0xbec96120	-0.39331913
206	0x3e0fa04e	0.14025995
207	0x3e68b8e3	0.22726779
208	0x3e142d0e	0.14470312
209	0xbe14f2c6	-0.14545736
210	0xbeb82176	-0.3596303
211	0xbcadbc2b	-0.02120789
212	0x3e1d58ff	0.1536598
213	0x3eb016ad	0.343923
214	0x3eddeb5d	0.4334363
215	0x3e140195	0.14453728
216	0x3c8d81a3	0.01727373
217	0x3e0ed100	0.13946915
218	0xbd07bf61	-0.033141498
219	0xbeeb55e2	-0.4596396
220	0xbefbf729	-0.49212006
221	0xbc8f04e5	-0.017458389
222	0xbdd8971e	-0.10575698
223	0xbd19efad	-0.03758209
224	0xbdf1844b	-0.11792811
225	0xbcb385ff	-0.02191448
226	0xbc8f46d1	-0.017489823
227	0xbc8c12a4	-0.017098732
228	0x3d2fbb96	0.042903505
229	0x3d917a90	0.07103455
230	0x3d255d18	0.040371984
231	0x3d33187b	0.04372452
232	0xbd4c4bc0	-0.04987693
233	0xbe6195c7	-0.22029792
234	0xbf301626	-0.68783796
235	0xbdf53f3a	-0.1197495
236	0xbdc419b7	-0.09575217
237	0x3f7e0f8c	0.9924247
238	0xbdfa29fd	-0.1221504
239	0x3e30a1b7	0.1724919
240	0x3efbcb70	0.49178648
241	0x3dd13186	0.10214524
242	0xba832a1d	-0.0010007058
243	0xbdcb373e	-0.09922646
244	0xbcbf06e7	-0.023318721
245	0xbdaa106c	-0.083039135
246	0x3de3fd33	0.11132278
247	0x3d2697f7	0.04067227
248	0xbcec0504	-0.028810985
249	0xbde62d51	-0.11239112
250	0xbdcb4569	-0.09925348
251	0x3ea3cdae	0.3199286
252	0xbf005d8f	-0.5014276
253	0x3e66f1a2	0.22553113
254	0x3dd1b15b	0.10238906
255	0xbc56d68c	-0.013112675

a2c_network.actor_mlp.0.bias f4 [256]
0	0xbea07f64	-0.3134719
1	0xbd06acf9	-0.032879803
2	0xbe651e64	-0.22374874
3	0xbe11bd98	-0.1423248
4	0x3e2745fe	0.16335294
5	0x3d1e6572	0.038670965
6	0xbea4afa5	-0.32165256
7	0x3cdaf50f	0.026728181
8	0xbe07d5ed	-0.132652
9	0x3de23ebe	0.110471234
10	0x3d5c5636	0.053793155
11	0xbd328a30	-0.043588817
12	0x3e88f52a	0.26749545
13	0xbe6befc2	-0.23040679
14	0xbe5c10da	-0.21490803
15	0xbea27edf	-0.3173742
16	0x3d9ee7f4	0.07759085
17	0xbbda3c9f	-0.0066600586
18	0xbd4c41ca	-0.04986743
19	0xbef1b97f	-0.47211835
20	0xbd3c052c	-0.04590337
21	0x3d53ba04	0.05169107
22	0xbdb59529	-0.08866341
23	0xbe8902e9	-0.26760033
24	0xbe89879f	-0.26861283
25	0x3e54810a	0.2075235
26	0xbc4f6f66	-0.012660837
27	0xbe8027f3	-0.2503048
28	0x3d7c59ed	0.061609197
29	0xbe5ac484	-0.21364027
30	0xbe1d1e54	-0.153436
31	0x3e0bfc48	0.13670456
32	0xbddf64f4	-0.10907927
33	0xbe4e1bd7	-0.20127808
34	0x3e22798b	0.15866677
35	0xbe421743	-0.18954186
36	0xbe9ae575	-0.30253187
37	0xbe07d192	-0.13263538
38	0x3e92cb54	0.28670752
39	0x3e1b5e88	0.1517278
40	0xbee5db51	-0.44893888
41	0xbe68f09f	-0.2274804
42	0xbdf17ce6	-0.117914006
43	0xbebb5114	-0.36585295
44	0xbeac482e	-0.3364882
45	0xbdef42f5	-0.11682693
46	0x3dd9d74d	0.106367685
47	0xbe945ba7	-0.28976175
48	0x3de804c3	0.11329033
49	0x3dd811c4	0.105502635
50	0xbe502f31	-0.20330502
51	0xbe8c397d	-0.2738761
52	0x3e552136	0.2081345
53	0x3f08ebb8	0.5348468
54	0xbd594003	-0.053039562
55	0x3dbf4144	0.0933862
56	0xbe3f4160	-0.18677282
57	0x3dad1b36	0.08452456
58	0xbdc2bd47	-0.09508758
59	0xbe72445a	-0.23658887
60	0xbe0e5659	-0.13900127
61	0xbdd801d0	-0.10547221
62	0xbd856964	-0.06514242
63	0xbe335bf1	-0.17515542
64	0xbe9b21e4	-0.30299294
65	0xbdd41a73	-0.10356607
66	0xbe2b9a3f	-0.16758059
67	0xbe26f644	-0.1630488
68	0x3d93b43f	0.072121136
69	0xbe2251cc	-0.15851516
70	0xbe2dc1d0	-0.16968465
71	0xbe8b8f29	-0.2725766
72	0x3e08ff06	0.13378534
73	0xbdb9dcdd	-0.090753295
74	0x3d709aca	0.05874137
75	0xbe5c90e4	-0.21539646
76	0x3d34bcef	0.044125494
77	0x3d485e04	0.048917785
78	0xbe9ead60	-0.3099165
79	0xbd9e162c	-0.07719073
80	0x3e4da824	0.20083672
81	0xbe3408a1	-0.17581417
82	0xbee49808	-0.4464724
83	0xbe64c918	-0.22342336
84	0xbd2c2779	-0.04202983
85	0xbe13ed34	-0.14445955
86	0xbd8d769d	-0.06907389
87	0x3e830d39	0.25596026
88	0x3cd16326	0.025559973
89	0x3dd44a7c	0.10365769
90	0xbdbf75d9	-0.093486495
91	0x3e3330d4	0.17499095
92	0x3db44e02	0.08803941
93	0x3e795349	0.24348177
94	0x3d642e19	0.055708025
95	0x3e0c68cb	0.1371185
96	0x3d6d1c5f	0.057888385
97	0x3e44fb0a	0.19236389
98	0x3d85999b	0.065234385
99	0xbe729fba	-0.23693743
100	0x3e30414c	0.17212409
101	0x3d9b8822	0.07594325
102	0x3c9a3b73	0.018827176
103	0x3d28b2ce	0.041186146
104	0x3d9cb3e0	0.07651496
105	0x3d83bcbc	0.064324826
106	0x3e23bd7e	0.15990254
107	0x3e40a6a2	0.18813565
108	0x3e1c08fb	0.15237801
109	0xbc38c76a	-0.011278013
110	0xbdb18e24	-0.08669689
111	0xbd29da5d	-0.041468013
112	0xbc08bc85	-0.008345728
113	0x3db6e918	0.08931178
114	0xbe3b89d3	-0.18314295
115	0x3d93a7a9	0.07209713
116	0xbec94b2a	-0.39315158
117	0xbeb388a0	-0.35065174
118	0xbda952a3	-0.08267715
119	0x3e587e82	0.21142009
120	0xbe8b8bf9	-0.27255228
121	0xbea4d521	-0.32193854
122	0xbcdfc714	-0.027316608
123	0xbe8192cd	-0.25307313
124	0x3e3ec7d5	0.18630917
125	0xbea8d3a8	-0.3297398
126	0xbe88798d	-0.26655236
127	0xbd6b669c	-0.057470903
128	0xbe126e8d	-0.14299984
129	0xbc1e4c34	-0.009661723
130	0x3e3a552d	0.18196554
131	0x3e8c5e04	0.27415478
132	0xbe795b00	-0.2435112
133	0xbd83c909	-0.06434829
134	0x3dd41e74	0.10357371
135	0xbea93975	-0.3305165
136	0xbd937e59	-0.07201833
137	0xbe1c1d24	-0.15245491
138	0x3dead007	0.11465459
139	0x3de62bcb	0.112388216
140	0x3c40af46	0.011760538
141	0xbe7bc2f0	-0.24586082
142	0xbea9f0b6	-0.3319146
143	0xbe303756	-0.17208609
144	0xbe1a905e	-0.15094134
145	0xbe5757fb	-0.21029656
146	0x3dde6b98	0.10860366
147	0x3d970336	0.07373659
148	0xbd724f34	-0.059157565
149	0xbee679f1	-0.4501491
150	0xbbafcb5f	-0.00536482
151	0x3e04ae74	0.12957174
152	0x3dbb5953	0.091478966
153	0xbe14b644	-0.14522654
154	0xbe65b733	-0.22433166
155	0xbe61bc19	-0.2204441
156	0x3c923354	0.01784674
157	0x3e02de01	0.1278
158	0xbe2b4e43	-0.16729073
159	0xbe9a71a7	-0.30164835
160	0xbe980fb4	-0.2969948
161	0xbeb2761e	-0.3485574
162	0x3e03e6ca	0.12881008
163	0xbca26a30	-0.019826025
164	0xbd9cf453	-0.07663789
165	0xbe939ef6	-0.28832215
166	0xbd845070	-0.06460655
167	0x3e36b5f3	0.17842846
168	0xbe609a1c	-0.21933788
169	0xbcbffce4	-0.023436017
170	0x3d8e1438	0.0693745
171	0x3ad25de7	0.0016049714
172	0xbdf3ac3b	-0.11898085
173	0xbecc5f49	-0.39916447
174	0xbd95f55d	-0.0732219
175	0x3d28e075	0.041229684
176	0xbcc7c29f	-0.024384795
177	0x3e8306d5	0.2559115
178	0xbe3118e5	-0.17294653
179	0xbe88b645	-0.2670156
180	0x3e026386	0.12733278
181	0xbde07ffb	-0.1096191
182	0x3ca4de8e	0.020125654
183	0xbe33594a	-0.1751453
184	0x3cb5ea99	0.022206591
185	0x3c939b82	0.018018488
186	0xbe522fd3	-0.20526056
187	0x3cf05bfc	0.029340737
188	0x3e8c4072	0.27392918
189	0xbe099394	-0.13435203
190	0x3daaf3af	0.0834726
191	0xbf1d6091	-0.61475474
192	0xbd6a4c25	-0.057201523
193	0xbc42968d	-0.011876714
194	0xbcd0e658	-0.025500461
195	0x3d178d4b	0.03699998
196	0xbe116a59	-0.14200725
197	0xbd8d1091	-0.068879254
198	0x3d209f27	0.03921428
199	0xbed2b1e4	-0.41151345
200	0xbea74674	-0.3267094
201	0xbeedecd6	-0.46469754
202	0xbd22cff6	-0.03974911
203	0xbe949ef6	-0.29027528
204	0x3d1113d2	0.035419293
205	0x3d87409c	0.0660412
206	0xbe4b34a6	-0.19844303
207	0xbbf66f1b	-0.007520569
208	0x3e0fa638	0.14028251
209	0xbdf0dd99	-0.117610164
210	0xbe8e6d5e	-0.27817816
211	0x3e735610	0.23763299
212	0xbe66e5be	-0.22548577
213	0x3e7084a2	0.23488095
214	0xbdae6d6e	-0.08516966
215	0xbd2f9cbc	-0.042874083
216	0x3ccb455f	0.024813352
217	0x3d304561	0.043034915
218	0x3c65b823	0.014020952
219	0xbd3d1ab9	-0.046168063
220	0x3cf149a8	0.029454067
221	0x3da1ef9e	0.079070315
222	0xbe195a90	-0.14975953
223	0x3c6ef817	0.014585516
224	0xbeea971b	-0.4581841
225	0xbdaa8f8b	-0.0832816
226	0xbef61a42	-0.48066908
227	0xbe6d0ee0	-0.23150206
228	0xbe029a6e	-0.12754223
229	0xbe504ab6	-0.20341
230	0x3d769f49	0.0602105
231	0x3e0fb0a8	0.14032233
232	0xbe9e9140	-0.30970192
233	0xbe9a530b	-0.30141482
234	0x3d068f0f	0.032851275
235	0x3e28a029	0.16467346
236	0x3e2ecee7	0.17071114
237	0xbe66f41c	-0.22554058
238	0xbeb1a912	-0.34699303
239	0xbd5df205	-0.054185886
240	0xbd64191c	-0.05568801
241	0xbd139945	-0.03603484
242	0xbe7f9500	-0.24959183
243	0xbe36b2df	-0.17841671
244	0xbe0dd55b	-0.1385092
245	0xbed0232b	-0.4065183
246	0xbdee666a	-0.11640628
247	0xbdb91806	-0.09037785
248	0x3e11ce9d	0.14238973
249	0xbe80480e	-0.25054973
250	0xbe9d3f1c	-0.3071221
251	0xbdca5523	-0.0987952
252	0x3cf1c16b	0.029511174
253	0xbef0ea1b	-0.47053608
254	0x3e48ce83	0.19610028
255	0xbd746701	-0.059668545

a2c_network.actor_mlp.2.weight f4 [128, 256]
0	0x3a492e3c	0.0007674431
1	0x3d705d07	0.058682468
2	0xbbfe597e	-0.007762133
3	0x3c16e6c4	0.009210292
4	0xbe0051a0	-0.12531137
5	0xbe3562be	-0.17713448
6	0xbd73a17b	-0.05948017
7	0x3e460120	0.19336367
8	0x3e0f1ef1	0.13976647
9	0xbd8383bd	-0.064216115
10	0xbd5dc6ee	-0.054144792
11	0xbd89b7cb	-0.06724509
12	0xbb946101	-0.0045281653
13	0xbd98011d	-0.07422087
14	0xbd02d35e	-0.031939857
15	0xbbaea7d9	-0.0053300676
16	0xbb03139c	-0.0020000702
17	0x3daba122	0.08380343
18	0x3e0361c8	0.1283027
19	0x3e1b112d	0.15143271
20	0x3dfee0cd	0.12445221
21	0xbd6e3a5d	-0.05816113
22	0xbc65abe0	-0.014018029
23	0x3d5acb58	0.05341658
24	0x3ca38c0e	0.019964244
25	0x3db46e48	0.08810097
26	0x3dd03904	0.10167125
27	0xbe2fb099	-0.1715721
28	0xbdbd924b	-0.09256419
29	0x3e7dbdc5	0.24779423
30	0x3d290356	0.041262947
31	0xbc63b32b	-0.013897697
32	0xbc6506da	-0.013978684
33	0xbdaf2640	-0.085522175
34	0x3ca84d3b	0.020544639
35	0xbdc9df98	-0.098571
36	0xbdc96bec	-0.098350376
37	0xbbdcc356	-0.006737153
38	0x3d995521	0.0748694
39	0x3dccbd3d	0.09997032
40	0xbd0eaccf	-0.034832772
41	0xbd823319	-0.06357402
42	0xbaacbe3e	-0.0013179255
43	0x3d64d38e	0.055865817
44	0xbc8a5499	-0.016886042
45	0xbd1b7cf1	-0.03796095
46	0x3d821307	0.063512854
47	0xbdd5f420	-0.10446954
48	0xbb5d8311	-0.0033800045
49	0x3d19bc10	0.037532866
50	0x3dadb3ce	0.08481561
51	0xbd3657d4	-0.044517353
52	0x3baa11a3	0.0051900907
53	0x3d473cfd	0.048642147
54	0xbb5d6b65	-0.0033785936
55	0xbe07ec61	-0.13273765
56	0x3dbc926b	0.092076145
57	0x3dac3b84	0.08409789
58	0x3d989994	0.07451168
59	0x3c39832b	0.011322777
60	0x3c389377	0.011265627
61	0xbd823d17	-0.06359308
62	0x3a45b9f2	0.00075426616
63	0x3dc9fe28	0.098629296
64	0x3dfd3a1f	0.12364601
65	0x3daf4f50	0.085600495
66	0xbd7f256a	-0.06229154
67	0x3bbef14a	0.0058271037
68	0xbd771461	-0.06032217
69	0xbddf0d3b	-0.108911954
70	0xbc7f2ff3	-0.015575397
71	0x3de20bf4	0.11037436
72	0x3d0fe5e4	0.03513135
73	0x3d9435f2	0.07236852
74	0xbcc0b738	-0.023524866
75	0x3cb281b6	0.021790367
76	0xbc7aa543	-0.0152981905
77	0x3d4c7f3b	0.049926024
78	0xbe0d5fa4	-0.13806015
79	0x3d91a285	0.07111076
80	0xbdffd5cc	-0.124919504
81	0x3e3ad7cf	0.18246387
82	0xbdab2dbb	-0.08358332
83	0x3d5a5454	0.053303078
84	0xbc54db47	-0.012991733
85	0xb88fb125	-6.851767e-05
86	0xbd2fc46b	-0.04291193
87	0x3d954864	0.07289198
88	0xbc9e2322	-0.019303862
89	0x3d970e16	0.073757336
90	0xbcebb185	-0.028771171
91	0x3b7666b7	0.0037597844
92	0x3d325685	0.043539543
93	0x39918544	0.00027755846
94	0x3d39b737	0.045340743
95	0xbd45107d	-0.048111428
96	0x3cc5bd67	0.024138166
97	0xbdaf1b85	-0.08550171
98	0x3d956e11	0.07296384
99	0xbd1b29f5	-0.03788181
100	0x3d3ee0fc	0.04660128
101	0x3dc5fd19	0.09667415
102	0x3d92f7d2	0.07176174
103	0xbdaa5988	-0.08317858
104	0xbcd3b8df	-0.02584499
105	0xbd2a984f	-0.04164916
106	0xbdad841b	-0.08472463
107	0x3d9e94aa	0.07743199
108	0x3e338084	0.17529494
109	0xbd1258bf	-0.035729166
110	0x3cbc0d4e	0.022955563
111	0x3d89eec3	0.06734993
112	0x3d50b522	0.05095399
113	0x3dd17f10	0.102293134
114	0x3d686042	0.056732424
115	0xbd7c3db9	-0.0615823
116	0x3e2c1700	0.16805649
117	0xbbca27af	-0.0061692814
118	0x3da0d4d1	0.078530915
119	0xbe044ed7	-0.129207
120	0x3c073e7d	0.008254644
121	0x3d926ec5	0.07150034
122	0x3ce2f0aa	0.027702648
123	0xbc9e5f41	-0.01933253
124	0xbdc3b34f	-0.09555685
125	0x3b86e7ad	0.0041169734
126	0xbd5fdcff	-0.054654118
127	0x3ce61fbe	0.028091308
128	0xbe1d5ca0	-0.15367365
129	0xbcb863c6	-0.022508513
130	0xbba899f5	-0.0051453062
131	0xbda53ee5	-0.08068637
132	0x3dc1988d	0.09452925
133	0xbd211b92	-0.039332934
134	0xbe46c436	-0.19410786
135	0x3e5a4186	0.21314058
136	0xbc666410	-0.014061943
137	0x3c8e2e8d	0.017356182
138	0xbb8acb90	-0.0042356923
139	0x3dd80589	0.10547931
140	0xbd7b0e07	-0.061292674
141	0xbb1c47f9	-0.002384661
142	0x3d4b9409	0.049701724
143	0xbdb21904	-0.086961776
144	0xbd3d5095	-0.046219427
145	0xbd96b45b	-0.07358619
146	0x3d799642	0.060934313
147	0x3e297285	0.16547592
148	0x3e197942	0.14987662
149	0xbc6895be	-0.014195858
150	0x3d57cca3	0.05268539
151	0x3d4c6058	0.049896568
152	0x3e04fa29	0.12986054
153	0x3d723044	0.05912806
154	0x3d942ad4	0.07234731
155	0xbd5fabfa	-0.05460737
156	0x3a80f464	0.0009838459
157	0xbcc64a89	-0.024205463
158	0x3b60598f	0.0034233069
159	0xbd331195	-0.04371794
160	0xbde534bf	-0.11191701
161	0xbd57aebc	-0.052656874
162	0x3d09ede4	0.033674136
163	0x3d636c89	0.05552343
164	0x3d20fd03	0.03930379
165	0xbdb73217	-0.08945101
166	0x3da77708	0.08177
167	0x3d50ee2d	0.051008392
168	0x3d24e205	0.04025461
169	0xbc8ce4a4	-0.017198868
170	0xbd81b196	-0.063327
171	0xbb24a800	-0.002512455
172	0xbd48a05a	-0.04898105
173	0x3d829ca2	0.063775316
174	0xbd089332	-0.0333435
175	0xbcad53bb	-0.02115809
176	0xbca48193	-0.020081317
177	0x3d51523f	0.051103827
178	0xbd25c605	-0.04047205
179	0x3da74421	0.081672914
180	0xbe05e372	-0.13075045
181	0x3d16183c	0.036644205
182	0x3b92b29b	0.004476858
183	0xbc9c22b9	-0.019059526
184	0xbd1fd599	-0.039022062
185	0xbdcd4e0d	-0.10024653
186	0x3e20c121	0.15698673
187	0xbdb3fc8b	-0.08788403
188	0x3a08d1de	0.0005219261
189	0xbd8f855b	-0.070078574
190	0x3cb73914	0.022366084
191	0xbc9a5b39	-0.018842326
192	0xbdddbd8e	-0.1082717
193	0x3be8f2ff	0.0071090455
194	0xbdcafa00	-0.09910965
195	0x3dc54bd2	0.09633602
196	0xbd873a81	-0.066029556
197	0xbe1b1c81	-0.15147592
198	0x3c95516b	0.0182273
199	0x3e049c67	0.12950288
200	0xbd894007	-0.06701665
201	0xbdf5134c	-0.11966571
202	0xbdcab808	-0.098983824
203	0xbd90c8b8	-0.07069534
204	0x3d6d343b	0.05791114
205	0x3d1fb383	0.038989555
206	0x3cc9e1bf	0.024643777
207	0x3cbacdc1	0.02280319
208	0xbcda99c3	-0.026684647
209	0x3e3056a7	0.17220555
210	0x3da8b4dc	0.08237621
211	0x3e28f09f	0.1649804
212	0xbe2625ca	-0.16225353
213	0xbc0dff5c	-0.008666839
214	0x3dd65252	0.1046492
215	0x3e0464c1	0.1292906
216	0x3c8e9be5	0.01740832
217	0x3be6bd52	0.0070416117
218	0xbd6e784b	-0.05822019
219	0xbd3e3516	-0.046437345
220	0xbd743b02	-0.059626587
221	0xbc99a9a5	-0.01875765
222	0xbddcb7dc	-0.10777256
223	0xbd2eac68	-0.04264489
224	0x3d4d12ed	0.050066877
225	0xbd33172c	-0.04372327
226	0x3e1a1302	0.15046313
227	0xbd498cf2	-0.04920668
228	0xbdc4eb47	-0.09615188
229	0xbd797179	-0.06089923
230	0xbd1f2c05	-0.03886034
231	0xbd084229	-0.03326622
232	0xbdc0a6bf	-0.09406804
233	0x3d2bbfb8	0.041930884
234	0x3c113418	0.008862518
235	0x3de80f0d	0.11330996
236	0xbd97848b	-0.073983274
237	0xbd4501c9	-0.048097406
238	0x3d225ac3	0.03963734
239	0x3d770769	0.0603098
240	0x3e04e819	0.12979163
241	0x3d299ccf	0.04140931
242	0x3d8f7184	0.07004073
243	0xbdb2998b	-0.08720692
244	0xbdfe1d25	-0.12407903
245	0xbdc9b5a2	-0.09849097
246	0x3dc89e43	0.09795811
247	0x3dae6b6c	0.08516583
248	0xbd0ea0f4	-0.034821466
249	0xbb179c9f	-0.0023134125
250	0x3e3060ed	0.17224474
251	0xbcce9ad8	-0.02522032
252	0x3d58676b	0.052833002
253	0x3d7a4ee7	0.061110403
254	0xbc491f70	-0.012275562
255	0xbc834a97	-0.016026778

a2c_network.actor_mlp.2.bias f4 [128]
0	0xbd83c1d4	-0.06433454
1	0xbe03dff5	-0.12878402
2	0xbec76914	-0.38947356
3	0xbe98b1db	-0.29823193
4	0xbe5330f3	-0.20624141
5	0xbe704cf1	-0.23466851
6	0xbeb2f5a3	-0.3495303
7	0xbd709f14	-0.05874546
8	0xbd6c5736	-0.05770036
9	0xbd680521	-0.056645516
10	0xbdb90d65	-0.09035758
11	0xbf02cf24	-0.5109732
12	0xbdfd3294	-0.12363163
13	0xbec63d68	-0.38718724
14	0xbea5f7fa	-0.32415754
15	0xbd09ea99	-0.033670995
16	0xbd859a0c	-0.06523523
17	0xbcf05d57	-0.029341383
18	0x3d79e89e	0.061012857
19	0xbe22199a	-0.15830079
20	0xbe62fe38	-0.2216729
21	0x3e134eda	0.14385548
22	0x3c8232d0	0.01589337
23	0xbe490d16	-0.19633898
24	0xbd379853	-0.044823002
25	0xbe76b03b	-0.24090664
26	0x3909c82a	0.00013139905
27	0xbecd7b3c	-0.40133083
28	0x3cf09ce9	0.029371696
29	0x3d37d70e	0.044882827
30	0x3c9b665c	0.018969707
31	0xbe7ed9d1	-0.24887778
32	0xbe8d8378	-0.27639365
33	0x3dc78634	0.09742394
34	0xbda88055	-0.082276024
35	0xbe357112	-0.17718914
36	0xbdb4c861	-0.08827282
37	0xbebd97e8	-0.37029958
38	0x3c6db770	0.014509067
39	0x3d48e147	0.049042966
40	0xbe7c0229	-0.24610199
41	0x3cd6ce82	0.026221517
42	0xbe1cfcc9	-0.15330805
43	0xbd572403	-0.052524578
44	0xbe1d0718	-0.15334737
45	0xbef67d06	-0.4814226
46	0xbe1b8c16	-0.15190157
47	0xbc3fa1bb	-0.011696274
48	0x3bedfef7	0.00726306
49	0x3cdfced0	0.027320296
50	0xbca140b5	-0.019684175
51	0xbd8c0b91	-0.068381436
52	0x3cb1e0e4	0.021713682
53	0xbe13d825	-0.14437921
54	0xbcbb4490	-0.022859842
55	0xbea30dbb	-0.31846413
56	0xbb4b370e	-0.0031008157
57	0x3e397f44	0.18114954
58	0xbdb80620	-0.08985543
59	0xbc902e5a	-0.017600227
60	0xbea35416	-0.3190009
61	0xbe059803	-0.13046269
62	0xbc666bad	-0.014063758
63	0xbea58ff4	-0.3233639
64	0xbe2a97a9	-0.16659416
65	0xbe9dcbc7	-0.30819532
66	0xbac20dfe	-0.0014805195
67	0xbdfa66e5	-0.12226657
68	0x3de8cb98	0.113669574
69	0xbd48abf0	-0.048992097
70	0x3d2208af	0.039559063
71	0xbe901e1a	-0.28147966
72	0xbe2504b0	-0.1611507
73	0xbe970778	-0.29497886
74	0x3def8cfc	0.116968125
75	0xbeda3445	-0.42618003
76	0x3d87cb93	0.066306256
77	0xbe0af870	-0.13571334
78	0xbec1291d	-0.3772668
79	0xbe057a41	-0.13034917
80	0xbdd58e6e	-0.10427557
81	0xbe75cb1e	-0.24003264
82	0xbe02b914	-0.12765914
83	0xbd704027	-0.05865493
84	0xbd1a3544	-0.037648454
85	0xbf0fc341	-0.5615731
86	0xbdc92a3f	-0.09822511
87	0xbe8263c2	-0.25466734
88	0xbe6490a1	-0.22320797
89	0x3e066ee5	0.1312824
90	0xbd4477fc	-0.04796599
91	0xbc481095	-0.012210985
92	0xbe6feec1	-0.23430921
93	0xbcb9185c	-0.022594623
94	0xbd0c163b	-0.034200888
95	0xbe9fddf5	-0.31224027
96	0xbe859f2f	-0.2609801
97	0xbe2894ee	-0.16463062
98	0xbd8649ec	-0.06557068
99	0xbd91b0b4	-0.071137816
100	0xbe0efec1	-0.13964368
101	0x3e0fedcb	0.14055555
102	0xbde1ff8c	-0.1103507
103	0xbd49250f	-0.049107607
104	0xbea22073	-0.31665382
105	0xbe8a1913	-0.26972255
106	0xbead909e	-0.33899397
107	0xbe84a64f	-0.25908133
108	0xbe4a1c92	-0.19737461
109	0xbd6d4d90	-0.057935297
110	0xbe8f805b	-0.28027615
111	0xbe9afd13	-0.30271205
112	0xbd559acd	-0.052149583
113	0xbd82e9e2	-0.06392266
114	0xbe60d9c8	-0.21958077
115	0xbd6829f9	-0.056680653
116	0xbe23b867	-0.15988313
117	0x3d46897e	0.048470967
118	0x3dccc63d	0.099987485
119	0xbec13375	-0.3773457
120	0xbc0caec7	-0.008586592
121	0xbdfad9c6	-0.12248568
122	0xbe962ea2	-0.29332453
123	0x3e3cd641	0.18441106
124	0xbea0248e	-0.3127789
125	0xbed8dbc4	-0.42355168
126	0xbeb1bb4b	-0.34713206
127	0x3cd25253	0.02567402

a2c_network.actor_mlp.4.weight f4 [64, 128]
0	0x3c377224	0.011196647
1	0xbd93b451	-0.07212127
2	0x3d54db4b	0.051966947
3	0xbc64fc85	-0.013976221
4	0x3d229548	0.039693147
5	0x3dac5827	0.08415251
6	0xbda6a96d	-0.08137784
7	0xbc3129dc	-0.010813203
8	0xbd0545ce	-0.032537274
9	0xbd28ffe1	-0.04125965
10	0x3daeb7f4	0.0853118
11	0xbdcaf253	-0.09909501
12	0xbcbf28e6	-0.023334932
13	0x3dca0b08	0.09865385
14	0x3db89dc1	0.09014464
15	0xbe2b8238	-0.16748893
16	0x3d7b0b36	0.06128999
17	0xbc21728b	-0.009853969
18	0xbd321d15	-0.043484766
19	0x3d94310c	0.072359174
20	0x3cf355d5	0.029704014
21	0xbe01f505	-0.12691124
22	0xbca6aec9	-0.020347016
23	0x3e1aade1	0.15105392
24	0xbc94d015	-0.018165627
25	0x3d3913d8	0.04518494
26	0x3d9bcd95	0.07607571
27	0x3deedd62	0.11663319
28	0xbdc0ed79	-0.09420294
29	0xbb169fd8	-0.0022983458
30	0x3c8ce19c	0.017197423
31	0x3e32648f	0.17421173
32	0xbe18ee10	-0.14934564
33	0x3d87cb9e	0.06630634
34	0x3d1d4d4c	0.038403794
35	0xbd9bd01e	-0.076080546
36	0x3dace8ee	0.08442865
37	0xbb6ae794	-0.0035843598
38	0x3d1cea61	0.03830946
39	0xbd3d2883	-0.046181213
40	0xbd833584	-0.06406692
41	0xbd582aaa	-0.052775063
42	0xbd826d39	-0.06368489
43	0x3bad3cd3	0.005286792
44	0x3cccd52d	0.025003994
45	0xbe00cb43	-0.12577538
46	0xbde34b28	-0.11098319
47	0xbd7acc45	-0.061229963
48	0xbd58167e	-0.052755825
49	0x3d9ca539	0.07648701
50	0xbdb32b03	-0.08748438
51	0x3d143ba2	0.036189683
52	0x3b2bb0db	0.0026197943
53	0xbd0d7fc6	-0.034545682
54	0x3b44aa64	0.0030008787
55	0xbd2508dc	-0.040291652
56	0xbd0cacd2	-0.0343445
57	0x3addae74	0.0016912953
58	0x3d2e9b14	0.042628363
59	0x3dc877b9	0.0978846
60	0x3dbe6351	0.09296287
61	0xbd5d450b	-0.054020923
62	0x3db45913	0.08806052
63	0xbc83ea09	-0.016102808
64	0x3d03c0b8	0.032166213
65	0xbda46154	-0.08026376
66	0x3c5c2de5	0.0134386765
67	0xbd8dba52	-0.069203034
68	0xbc7f8ade	-0.015597073
69	0xbd5b3d24	-0.053525105
70	0xbc1c7eec	-0.009551745
71	0xbe335413	-0.1751254
72	0xbe76f9d3	-0.24118738
73	0x3e05f044	0.13079935
74	0xbd3fed7d	-0.046857346
75	0x3df8aab9	0.12141938
76	0xbdcaf870	-0.09910667
77	0xbd821873	-0.063523196
78	0x3d1508d3	0.03638537
79	0x3dd03dbe	0.101680264
80	0x3b605765	0.0034231779
81	0xbbd5cabd	-0.0065244124
82	0x3c701d66	0.014655447
83	0x3c81b6ca	0.01583423
84	0x3d69d3f0	0.057086885
85	0xbdb61a73	-0.088917635
86	0xbc6f22f6	-0.014595738
87	0x3dd6cd26	0.10488348
88	0x3dfeab1c	0.1243498
89	0x3d95f021	0.073211916
90	0xbce81735	-0.028331378
91	0x3d13c2ae	0.036074333
92	0xbf371c2a	-0.7152735
93	0xbd1cae2c	-0.03825204
94	0x3da1a885	0.07893471
95	0xbf0b8717	-0.54503006
96	0x3d52e125	0.051484246
97	0x3d068976	0.032845937
98	0x3d6a6cad	0.057232548
99	0xbe81add6	-0.2532794
100	0x3c1310ac	0.008976143
101	0xb98cdfca	-0.00026869617
102	0xbd8fa3a4	-0.07013634
103	0xbd31199e	-0.04323732
104	0x3cd41c54	0.025892414
105	0xbdaa5a9b	-0.08318063
106	0x3d222af1	0.039591733
107	0xbeca810e	-0.39551586
108	0xbd3f348a	-0.046680965
109	0xbd030f95	-0.031997282
110	0x3ce0e7b4	0.027454235
111	0xbd6b7db9	-0.057492945
112	0x3da611a2	0.08108832
113	0x3d3e5763	0.046470057
114	0x3dbacc4b	0.09120997
115	0x3ddc03a0	0.10742879
116	0x3d5999d1	0.053125206
117	0x3db9c92b	0.09071573
118	0x3c23d641	0.009999813
119	0x3de1c3bb	0.11023661
120	0xbd1df95e	-0.038567893
121	0xbcede540	-0.029039979
122	0xbda47b6c	-0.08031353
123	0x3d4269f5	0.04746433
124	0xbe2617e8	-0.16220057
125	0x3da6c241	0.0814252
126	0xbd824bf8	-0.06362146
127	0xbd0b7cb0	-0.03405446
128	0x3ddb8380	0.10718441
129	0xbe77d6ca	-0.2420303
130	0x3da0101f	0.07815575
131	0xbe934c42	-0.28769118
132	0xbd102274	-0.035189107
133	0x3d2186d4	0.039435223
134	0x3d3d2d51	0.046185795
135	0xbd2994a0	-0.041401505
136	0xbd934012	-0.07189955
137	0xbcf6c6d2	-0.030124102
138	0xbd9c05b8	-0.07618278
139	0xbc97d7cd	-0.018535519
140	0x3c1fcc69	0.009753325
141	0x3d749b9a	0.059718706
142	0xbe1f6275	-0.15564902
143	0x3d967e24	0.07348278
144	0x3d214876	0.039375745
145	0x3e2826dc	0.16421074
146	0x3cbd1d7e	0.023085352
147	0xbe7700ad	-0.24121352
148	0x3d1c1d5e	0.038113944
149	0xbe70b19e	-0.23505256
150	0xbd612d65	-0.054974932
151	0x3e1e15f2	0.15438059
152	0x3d1d3ebb	0.038389903
153	0xbcc6ca7e	-0.024266478
154	0x3e024b2e	0.12723991
155	0x3d03d639	0.03218672
156	0x3ce0bd52	0.027434025
157	0xbd5e2a79	-0.054239724
158	0xba933e93	-0.0011233859
159	0x3e633c6d	0.2219102
160	0x3c6ff72e	0.014646335
161	0xbd35dc0f	-0.044399317
162	0x3dc033a2	0.09384848
163	0x3e352546	0.1769
164	0x3e32f878	0.17477596
165	0x3d46c4d0	0.04852754
166	0x3d29cdec	0.041456148
167	0x3d6c8722	0.05774606
168	0xbd90648f	-0.0705043
169	0xbe2874fc	-0.16450876
170	0xbe131eed	-0.14367266
171	0xbe29a4a3	-0.1656671
172	0x3df1126e	0.11771093
173	0x3cc80e91	0.024421008
174	0xbda08754	-0.07838312
175	0xbca230d0	-0.019798666
176	0x3d9850b6	0.074372694
177	0x3dcdd169	0.100497074
178	0x3c668967	0.014070845
179	0xbdbf5fa0	-0.09344411
180	0xbd1f8414	-0.03894432
181	0xbd46907b	-0.04847763
182	0x3d3d51be	0.046220534
183	0x3d606ef1	0.054793302
184	0xbc01b210	-0.007915989
185	0xbcbe4c53	-0.023229754
186	0xbdcf12e8	-0.10111028
187	0xbd2cacad	-0.042156864
188	0x3e82dcc8	0.25559068
189	0x3dd81cf4	0.10552397
190	0x3d50070c	0.05078797
191	0x3dd665b2	0.104686156
192	0x3e44872c	0.19192189
193	0xbc50ae02	-0.012736799
194	0xbdb9bc99	-0.09069175
195	0xbc8b08ba	-0.016971935
196	0x3d22f9d8	0.03978905
197	0xbcedd503	-0.029032236
198	0x3e0afd6c	0.13573235
199	0xbd4f5b50	-0.05062419
200	0xbe0f9e13	-0.14025144
201	0x3e2e21cb	0.17005078
202	0x3d10f4ab	0.035389584
203	0x3dabcba4	0.08388451
204	0x3d65ac18	0.056072325
205	0xbdfff82b	-0.12498506
206	0x3e565417	0.20930515
207	0xbda3e273	-0.08002176
208	0x3db9b333	0.09067383
209	0xbc902930	-0.017597765
210	0x3c202feb	0.0097770495
211	0xbc01b3d2	-0.007916408
212	0x3d9df4b1	0.07712687
213	0xbe1c6023	-0.15271048
214	0x3dc0197c	0.09379861
215	0x3c718bca	0.014742801
216	0x3e2080ef	0.15674184
217	0x3d9ee555	0.07758585
218	0xbe15339b	-0.14570467
219	0x3c672ee1	0.014110298
220	0xbd5b3f30	-0.053527057
221	0x3d8d0cc1	0.06887198
222	0x3dd02445	0.10163168
223	0x3d1ca577	0.038243737
224	0xbe0ef9b7	-0.13962446
225	0x3ddac1f6	0.10681526
226	0xbd300bb7	-0.042979922
227	0xbdddf957	-0.108385734
228	0x3d91e00a	0.0712281
229	0x3cbd2d60	0.023092926
230	0x3cda229a	0.026627827
231	0xbf04f62e	-0.5193814
232	0xbdeda82f	-0.11604344
233	0xbe979938	-0.29609084
234	0xbcd3c60d	-0.025851274
235	0xbde4260a	-0.11140068
236	0xbbb72aa3	-0.0055897995
237	0x3d0ef7fa	0.034904458
238	0x3e0e9c0d	0.13926716
239	0xbe8b8bc5	-0.27255073
240	0x3e5106cf	0.20412754
241	0xbc83a402	-0.016069416
242	0xbe230a96	-0.15922007
243	0x3e24e8bf	0.1610441
244	0xbc775325	-0.015095507
245	0xbdbd80ab	-0.09253057
246	0xbda952c3	-0.08267739
247	0x3d81506a	0.06314166
248	0x3c77768a	0.0151039455
249	0x3ceb398a	0.02871396
250	0xbea1348f	-0.31485412
251	0xbdcd5a55	-0.10026995
252	0xbdd211df	-0.10257315
253	0xbe2d39b3	-0.16916542
254	0x3d2a2f95	0.041549284
255	0x3c234c1b	0.009966875

a2c_network.actor_mlp.4.bias f4 [64]
0	0x3cff5351	0.031167658
1	0x3c6b2697	0.014352462
2	0x3d1229a0	0.035684228
3	0xbe5dec99	-0.21672286
4	0xbd0d78e5	-0.034539122
5	0xbd8e7e0a	-0.06957634
6	0xbe9e1922	-0.3087855
7	0xbe39a710	-0.18130136
8	0xbe2305a6	-0.15920123
9	0x3e3faa73	0.18717365
10	0x3d88bf25	0.06677083
11	0xbe9a1f49	-0.30101994
12	0xbd8efe19	-0.06982059
13	0xbe965b36	-0.29366463
14	0x3d64c54e	0.055852227
15	0x3d701a97	0.058619108
16	0xbe844d7d	-0.2584037
17	0x3a28b7c7	0.00064360764
18	0xbd7cae34	-0.06168957
19	0x3e820b0a	0.25399047
20	0xbd63f07e	-0.055649273
21	0xbca117a2	-0.01966459
22	0xbe61ec54	-0.22062808
23	0xbdda297e	-0.10652445
24	0xbea47856	-0.3212306
25	0xbecae1a2	-0.3962527
26	0xbe0a7f2a	-0.13525072
27	0xbdb9dc34	-0.090752035
28	0x390f51dc	0.00013668038
29	0xbe4d815d	-0.2006888
30	0x3d5cd1a0	0.05391085
31	0x3d211768	0.039328963
32	0xbe3ecc08	-0.18632519
33	0x3d9bd69b	0.07609292
34	0xbe378c55	-0.17924626
35	0xbe8bad7f	-0.27280805
36	0x3d21be3d	0.039488066
37	0xbddc7ae5	-0.10765628
38	0xbe9533cd	-0.29141083
39	0x3c9df9b6	0.01928411
40	0xbe7c05a7	-0.24611531
41	0x3dc54dcb	0.096339785
42	0xbe758ffb	-0.23980705
43	0x3e2a06e5	0.16604193
44	0xbec4cd55	-0.38437906
45	0x3e119e36	0.14220509
46	0xbe8de624	-0.27714646
47	0xbe695f4a	-0.22790256
48	0x3d8141f8	0.06311411
49	0xbceddff0	-0.029037446
50	0xbcf06de6	-0.029349279
51	0xbe0b9e8f	-0.13634704
52	0xbdf8bf3e	-0.121458516
53	0xbd85ff66	-0.06542854
54	0xbe2dc571	-0.16969849
55	0xbd0717d5	-0.032981712
56	0x3e03ddb8	0.12877548
57	0x3d916d80	0.071009636
58	0xbe81f9ee	-0.25385994
59	0xbea0e86c	-0.31427324
60	0xbdc197a9	-0.09452755
61	0xbe135432	-0.14387587
62	0xbe524d88	-0.20537388
63	0x3d3d008e	0.046143107

a2c_network.value.weight f4 [1, 64]
0	0xbcab00a5	-0.02087433
1	0xbca8bb3d	-0.020597095
2	0xbc7b7363	-0.015347335
3	0xbcc32c1f	-0.02382475
4	0xbc119329	-0.008885183
5	0x3e552593	0.20815115
6	0xbd27240a	-0.040805854
7	0x3e39ac9b	0.1813225
8	0x3e193ad6	0.1496385
9	0x3dad2421	0.08454157
10	0x3c8694d6	0.016428392
11	0xba24238a	-0.0006261399
12	0xbd160cfe	-0.036633484
13	0x3b266e84	0.0025395462
14	0xbb84328a	-0.004034345
15	0x3d8f823f	0.07007264
16	0x3d76133c	0.060076937
17	0x3e57c54b	0.21071355
18	0xbbc3298f	-0.005955882
19	0xbc8ea100	-0.017410755
20	0x3c314fe3	0.010822269
21	0xbcb9c4d7	-0.022676868
22	0x3e8860f0	0.26636457
23	0x39cf2d2a	0.00039515767
24	0x3e8b0da9	0.2715886
25	0x3b44c949	0.0030027202
26	0xbc42b59d	-0.01188412
27	0x3c940d7b	0.018072834
28	0xba9e96bd	-0.0012099367
29	0x3ce4ce31	0.027930351
30	0xbd3d7c48	-0.046261102
31	0x3ad32011	0.0016107579
32	0x3c5f0d5b	0.013614024
33	0x3c30f797	0.0108012175
34	0x3dde8b94	0.10866466
35	0xbd38217b	-0.044953804
36	0xb93f37b5	-0.00018235932
37	0x3e008b3d	0.12553115
38	0x3c527427	0.012845076
39	0xbb1c103e	-0.0023813392
40	0xbd82056a	-0.06348689
41	0xbd9c8212	-0.076419964
42	0x3e26eab8	0.16300476
43	0x3d1a6ffb	0.03770445
44	0xbcc5c0d1	-0.024139794
45	0xbbcd92d0	-0.006273605
46	0x3eabf7a8	0.33587384
47	0x3d9e158f	0.07718956
48	0xbcea6be4	-0.0286159
49	0x3bbc33d3	0.0057434826
50	0x3cc3a858	0.023883983
51	0x3b29de49	0.0025919846
52	0x3cbcc93c	0.023045175
53	0x3b2ea5bb	0.0026649076
54	0xbbc83093	-0.006109306
55	0xbb9c52d5	-0.0047706165
56	0x3b19fb87	0.002349587
57	0x3cc6b039	0.024253951
58	0xbccb6240	-0.024827123
59	0xbd1dadc4	-0.038495794
60	0xbc5963e6	-0.013268447
61	0xbd061bcc	-0.032741353
62	0xbb642d93	-0.0034817203
63	0xbc7200bd	-0.014770684

a2c_network.mu.weight f4 [7, 64]
0	0xbe5d101b	-0.21588175
1	0xbc907efd	-0.017638678
2	0xbba9974d	-0.005175507
3	0xbc8ef582	-0.017451052
4	0x3d2d2a7c	0.042276844
5	0xbba1a7b6	-0.004933323
6	0xbcd24319	-0.02566676
7	0xbc853b34	-0.016263582
8	0x3c92b317	0.017907662
9	0x39dc1ee5	0.00041984688
10	0xbdf243af	-0.11829316
11	0xbd562108	-0.052277595
12	0xbc15df75	-0.009147515
13	0xbc88ee45	-0.016715178
14	0xbcc1cab8	-0.023656234
15	0xbb868c3a	-0.004106072
16	0x3c368972	0.011141168
17	0xbc491e66	-0.012275314
18	0xbcb89ab6	-0.02253471
19	0xbd98cc22	-0.0746081
20	0x3c253fb5	0.01008599
21	0x3db6cafa	0.089254335
22	0xbcd5a848	-0.02608122
23	0xbda7ae04	-0.08187488
24	0x3c85a5f9	0.016314493
25	0x3d12ac4a	0.03580884
26	0x3c2c5ce5	0.010520195
27	0x3d9cb6d2	0.07652058
28	0x3da957d7	0.08268707
29	0x3c1dc4e0	0.009629458
30	0xbca3ad8a	-0.01998021
31	0xbdcf4110	-0.101198316
32	0x3d02685d	0.03183781
33	0xbd9b9d04	-0.07598308
34	0xbb3513b7	-0.002763016
35	0x3c651a45	0.013983314
36	0xbd839e78	-0.0642671
37	0xbbcd7585	-0.006270113
38	0xbd1f4e13	-0.038892817
39	0x3cfa6e73	0.030570244
40	0xbd1c65bd	-0.038182963
41	0xbaf08e82	-0.0018353018
42	0x3bde56a5	0.006785231
43	0x3d6eb8da	0.058281757
44	0xbd57e50f	-0.05270868
45	0x3da0c9b9	0.078509755
46	0xbc51a141	-0.012794794
47	0x3b26a53d	0.002542808
48	0x3d0bd875	0.034141976
49	0x3cb15a39	0.021649467
50	0xbc23b4d2	-0.009991841
51	0x3d1656ec	0.03670399
52	0x3ccdbf60	0.025115669
53	0x3d0af414	0.033924177
54	0x3d6fa7a8	0.0585095
55	0x3d01a85c	0.0316547
56	0x3da76a65	0.0817459
57	0x3e6e6ee3	0.23284487
58	0xbd994a11	-0.0748483
59	0xbcb9bb8d	-0.022672439
60	0x3da66e70	0.08126533
61	0x3d1ad16b	0.037797373
62	0x3d133179	0.035935853
63	0x3e0ea387	0.13929568
64	0xbdef9fdc	-0.11700413
65	0x3e7162d1	0.23572852
66	0xbe07f9f2	-0.1327894
67	0xbb6697f2	-0.0035185781
68	0xbe23e7f6	-0.16006455
69	0x3cb1ea5c	0.021718197
70	0xbd2bf053	-0.041977238
71	0x3badeb26	0.005307573
72	0x39fb538a	0.00047936692
73	0xbcc580be	-0.02410924
74	0xbdc74ca7	-0.09731417
75	0x3d91442d	0.070930816
76	0xbd60a6c9	-0.05484656
77	0xbcacb961	-0.02108449
78	0x3bd95642	0.006632597
79	0x3cb078b6	0.021541934
80	0xbd132d05	-0.035931606
81	0x3d7264e1	0.059178237
82	0xbc878dbb	-0.016547075
83	0xbd556bba	-0.05210469
84	0x3b2fdc08	0.002683403
85	0x3dc294e8	0.09501058
86	0x3ba60e7a	0.0050676437
87	0x3d0f6547	0.035008695
88	0x3c239419	0.00998404
89	0xbdf61919	-0.12016506
90	0xbc2d8fdb	-0.01059338
91	0x3d2d4b90	0.04230839
92	0xbcd365d6	-0.025805395
93	0x3d533b96	0.051570497
94	0xbbf9808e	-0.007614202
95	0x3d5a95a6	0.053365372
96	0xbdb08774	-0.08619586
97	0x3d9340f3	0.071901225
98	0xbcb7b32c	-0.022424303
99	0x3d7f74f3	0.06236739
100	0x3d3eca7a	0.046579815
101	0xbca24944	-0.019810326
102	0xbd8ff1a1	-0.07028509
103	0xbc3aeefb	-0.011409516
104	0x3d4ea712	0.0504523
105	0x3c1bb21a	0.009502912
106	0x3bce8eff	0.0063036676
107	0xbca1e356	-0.019761723
108	0x3d46da6d	0.04854815
109	0xbe4e904f	-0.20172237
110	0xbc259071	-0.010105238
111	0x3c4a08d6	0.012331208
112	0xbc8821c6	-0.016617667
113	0x3d3aa132	0.045563884
114	0xbce779e6	-0.028256368
115	0x3d1b54a1	0.037922505
116	0xbb1fd702	-0.002438963
117	0xbcae4ca6	-0.021276783
118	0xbcc25144	-0.023720391
119	0xbd15d0f5	-0.03657623
120	0xbc7975d7	-0.015225849
121	0x3da1128b	0.07864865
122	0xbbbda1e6	-0.005787122
123	0x3d77c88b	0.060493987
124	0xbe1b14e3	-0.15144686
125	0xbcf07012	-0.029350314
126	0xbd197029	-0.03746048
127	0x3d11d9d7	0.03560814
128	0xbddb0f87	-0.10696321
129	0xbc88f5a7	-0.016718699
130	0x3da77f42	0.081785694
131	0xbceacb2f	-0.028661339
132	0xbd8cd606	-0.06876759
133	0x3c927f25	0.017882893
134	0x3de7c672	0.11317147
135	0xbc0cd027	-0.008594549
136	0x3c211806	0.009832388
137	0xbd141b08	-0.03615859
138	0x3d19deaa	0.037565865
139	0x3d32ced9	0.043654297
140	0xbd3a8dd2	-0.045545407
141	0x3cb8e152	0.022568379
142	0xbcf9dea8	-0.030501679
143	0x3ab360be	0.0013685448
144	0xbd0c6d21	-0.03428376
145	0x3b0e3095	0.0021696438
146	0x3b972704	0.0046128053
147	0x3d1fc452	0.039005585
148	0xbc84cd6a	-0.01621123
149	0x3da6ded4	0.0814797
150	0x3d1bf463	0.038074862
151	0x3d863938	0.06553882
152	0x3bddd091	0.006769248
153	0xbd9ad2a6	-0.07559709
154	0xbc31fe4a	-0.01086385
155	0xbc4a79f7	-0.01235818
156	0x3dc0c9a5	0.09413461
157	0xbd106afa	-0.03525827
158	0xbbe689ad	-0.007035455
159	0x3b67c0ae	0.0035362649
160	0xbdea287a	-0.114335015
161	0x3cd72039	0.026260482
162	0xbc17f7fd	-0.009275434
163	0x3c96c587	0.018404735
164	0xbdaf1a82	-0.08549978
165	0x3d36967f	0.044577118
166	0x3c0392f3	0.008030641
167	0xbe4d5457	-0.20051704
168	0x3d2162d9	0.03940091
169	0xbd8b0a66	-0.06789093
170	0x3bddf5e2	0.0067736963
171	0x3c68a600	0.014199734
172	0x3cacf125	0.02111108
173	0xbcbb055b	-0.022829702
174	0xbc6d9f29	-0.014503279
175	0x3ba1a642	0.0049331496
176	0xbd9b1ace	-0.07573472
177	0xbcc890db	-0.024483135
178	0xbc38a432	-0.011269616
179	0xbc7374ed	-0.01485942
180	0xbc06a1f9	-0.008217328
181	0xbd461bb5	-0.048366267
182	0xbe09f6a4	-0.13472992
183	0xbcb03b4c	-0.02151265
184	0x3e3e634c	0.18592566
185	0x3c334474	0.010941613
186	0x3dc8b128	0.09799415
187	0x3b984ce3	0.0046478375
188	0xbe39b7d1	-0.18136527
189	0xbd560523	-0.052250993
190	0x3cad334a	0.02114262
191	0x3d0132a5	0.03154244
192	0x3cf02bb6	0.029317718
193	0xbd798638	-0.060919017
194	0x3d17a199	0.037019346
195	0x3dbe1d9d	0.09282992
196	0x3e1f1437	0.15535055
197	0xbd311110	-0.043229163
198	0x3dbfaaa0	0.09358716
199	0x3c785cf1	0.015158878
200	0x3cba3fad	0.022735441
201	0x3d20f688	0.03929761
202	0xbdf71af9	-0.120656915
203	0x3cb1d81a	0.02170949
204	0x3e117f7e	0.1420879
205	0x3d594916	0.053048216
206	0x3d46da1c	0.04854785
207	0x3d289660	0.041159034
208	0x3d9ce5d4	0.07661024
209	0xbb82a1e2	-0.003986583
210	0x3dca5f54	0.09881464
211	0xbc6ceffc	-0.014461514
212	0x3d058b28	0.032603413
213	0x3dd104c9	0.10205991
214	0x3d3a0418	0.04541406
215	0xbd488db6	-0.04896327
216	0xbd081c69	-0.03323022
217	0x3baafd9e	0.005218222
218	0xbdb5a8ce	-0.088700876
219	0xb87f3fe4	-6.085624e-05
220	0x3de9dcd9	0.114190765
221	0x3c28f1a3	0.010311517
222	0x3b8c22ad	0.0042765946
223	0xbd1d2828	-0.038368374
224	0xbd88daae	-0.06682335
225	0x3dd5d161	0.104403265
226	0x3d390848	0.045173913
227	0xbe1d5202	-0.15363315
228	0xbe32bf3d	-0.17455764
229	0xbce70028	-0.028198317
230	0x3cb6b968	0.022305205
231	0x3c7c801b	0.015411402
232	0x3c56ada5	0.0131029235
233	0xbc96824d	-0.01837268
234	0xbc3fe90d	-0.0117132785
235	0xbd1ba149	-0.03799561
236	0xbe3b3e91	-0.18285586
237	0xbd307df6	-0.043088876
238	0x3d223049	0.03959683
239	0x3d6347b0	0.05548829
240	0x3e041275	0.12897666
241	0xbd13cad9	-0.036082122
242	0xbd1496ee	-0.03627675
243	0x3de97771	0.11399735
244	0xbd102333	-0.03518982
245	0x3db4259c	0.08796236
246	0x3d1ab545	0.03777053
247	0x3e3c8815	0.18411286
248	0xbdbd1714	-0.092329174
249	0x3c3eb264	0.011639211
250	0xbccc2dc8	-0.024924174
251	0xbd7a1b04	-0.06106092
252	0xbe0b1a99	-0.13584365
253	0xbcd53263	-0.026025003
254	0xbe740bc5	-0.23832615
255	0x3b072323	0.0020620308

a2c_network.mu.bias f4 [7]
0	0x3d7c859a	0.06165085
1	0xbcd3f1d6	-0.025872152
2	0xbe7ca671	-0.24672867
3	0xbd30f277	-0.043199982
4	0xbdecd843	-0.11564686
5	0x3df9a9d4	0.12190595
6	0xbc8cb83f	-0.0171777

exp_avg f4 [7]
0	0x3a8b14e5	0.0010611085
1	0x3981c867	0.0002475411
2	0x399816e6	0.0002900876
3	0x39d010e8	0.00039685448
4	0xba0a68be	-0.000527989
5	0x3a1a12db	0.00058774435
6	0x3a3e2bec	0.00072544697

exp_avg_sq f4 [7]
0	0x378c4ffb	1.6726544e-05
1	0x37a5e964	1.9778214e-05
2	0x37a1cc68	1.928788e-05
3	0x37886eb8	1.626402e-05
4	0x377bf150	1.5016951e-05
5	0x3785b75c	1.5940219e-05
6	0x37a7b63d	1.9992813e-05
