runs/FrankaCubeStack_01-19-58-34/nn/last_FrankaCubeStack_ep_400_rew_13.657037.pth (torch, 579063 bytes, 36 tensors)

value_mean_std.running_mean f8 [1]
0	0x4013fe4e649d22b8	4.998345920649335

value_mean_std.running_var f8 [1]
0	0x402814a0375544ad	12.040284852179264

value_mean_std.count f8 []
0	0x41a9000002000000	209715201.0

running_mean_std.running_mean f8 [19]
0	0x3f6989f4fed514d4	0.003117540842739611
1	0x3f93e6a929ea6585	0.019434588607145215
2	0xbfb06ee131d1dbfa	-0.06419188944151691
3	0x3fec24bb09cac355	0.8794837180376854
4	0x3f824e25dee90437	0.008938117852382728
5	0x3f763dc3c2bb8eb9	0.005429997148641946
6	0x3ff0e2f22b6c5418	1.0554067321984402
7	0xbf7273833d9f473f	-0.00450469270613657
8	0xbf75ceecd90f3649	-0.005324292361320434
9	0x3f7496de51ac94c8	0.005026691850422434
10	0x3f65e3f2d0cc542c	0.0026721708767447807
11	0x3f775a3893849ad1	0.005701275826402522
12	0x3ff12160d93e7fe8	1.0706490026568591
13	0xbfc0027b65052edf	-0.12507574494008275
14	0xbfb0002955ab03a1	-0.06250246373657699
15	0xbfc3fc8d8b90f393	-0.15614480318791077
16	0xbf9b391d72c87de1	-0.02658506405907513
17	0x3f95fe7613e186ab	0.021478505099713868
18	0x3f968e206cf7faca	0.022026545191688375

running_mean_std.running_var f8 [19]
0	0x3faa8b59146e83db	0.05184439062509912
1	0x3f9aaf1d5d4ae0d1	0.02605863458549679
2	0x3fbb07623d32b7f0	0.10558141702742296
3	0x3fa39b51a356850d	0.03829436415549923
4	0x3f99557da3810308	0.02474018392990998
5	0x3f9b1a05a27b1599	0.026466453592339432
6	0x3f5047bfa97710f4	0.0009936687182384137
7	0x3fb0f28734f078f2	0.06620068590607156
8	0x3fb112244789ab6b	0.06668307062652239
9	0x3f7852f8b601fa49	0.0059385028145003205
10	0x3f95fcb76e0e9419	0.021471849529593443
11	0x3f987c2716306c16	0.023911104897802536
12	0x3f689385f69cb2f1	0.0030000320883999333
13	0x3feaf45b448a3675	0.8423286760968965
14	0x3fa9f4dac61221ed	0.050696217230384956
15	0x3fa394b68f1f9e45	0.03824396607506889
16	0x3f987a11fc345319	0.023903161066374332
17	0x3f12534b5b18ec47	6.990573344804836e-05
18	0x3f11e0b6d92e03d7	6.819835679829023e-05

running_mean_std.count f8 []
0	0x4199000004000000	104857601.0

a2c_network.sigma f4 [7]
0	0xbfb158a7	-1.385518
1	0xbf92d008	-1.1469736
2	0xbfd0b32d	-1.630468
3	0xbf5f1f64	-0.87157273
4	0xbf5b1404	-0.85577416
5	0xbf371a7b	-0.7152478
6	0xbfdf65c6	-1.7452934

a2c_network.actor_mlp.0.weight f4 [256, 19]
0	0x3d2dc7a1	0.04242671
1	0xbcbf9e92	-0.023391042
2	0x3bc6db51	0.006068625
3	0xbd6fc825	-0.058540482
4	0x3ef68e3d	0.48155394
5	0xbef36a90	-0.47542238
6	0x3db6cc74	0.08925715
7	0xbde35c64	-0.111016065
8	0xbcf01cae	-0.02931055
9	0xbdb7d9ee	-0.08977114
10	0xbedf17fd	-0.4357299
11	0x3ea405b4	0.320356
12	0xbf02d15f	-0.51100725
13	0x3db409c0	0.08790922
14	0xbd059f0d	-0.032622386
15	0xbddd3ee1	-0.10803009
16	0x3e122cff	0.14274977
17	0xbc62939e	-0.01382914
18	0x3df42b32	0.11922301
19	0x3ccd12dd	0.025033409
20	0xbda7f398	-0.08200759
21	0xbc38f391	-0.0112885395
22	0xbc8d1a7a	-0.01722454
23	0x3e85d24f	0.26137015
24	0x3edc3526	0.430093
25	0x3e4b6265	0.19861753
26	0xbd8bf025	-0.06832913
27	0x3dd83b47	0.10558181
28	0x3cb3ac28	0.021932676
29	0xbda054a2	-0.078286424
30	0xbec5780a	-0.38568145
31	0xbe3df3a9	-0.1854998
32	0xbd65b4ac	-0.056080505
33	0xbdd242c9	-0.102666445
34	0x3e55cf17	0.2087978
35	0x3da7e58a	0.08198078
36	0x3e153e35	0.14574511
37	0x3d92a0ce	0.07159577
38	0xbd5aa8fe	-0.05338382
39	0xbca165ca	-0.019701857
40	0x3d429a3f	0.04751038
41	0x3d7f7095	0.062363226
42	0xbe2daaa9	-0.16959633
43	0x3ee9aeef	0.45641276
44	0xbd9604f3	-0.07325163
45	0xbcca92d7	-0.024728222
46	0xbd8d380e	-0.06895457
47	0x3e85a78e	0.26104397
48	0x3e1576de	0.14596125
49	0xbec4af39	-0.38414934
50	0xbefd4bdc	-0.4947194
51	0x3dfd1300	0.123571396
52	0xbcb4a01c	-0.022049002
53	0xbcbb1cb7	-0.02284084
54	0xbd8c46ca	-0.068494394
55	0xbb368edb	-0.0027856145
56	0x3c230be0	0.009951562
57	0x3d0e634a	0.03476266
58	0xbc9e8772	-0.019351695
59	0xbcd82793	-0.026386058
60	0x3d88ffae	0.06689392
61	0xbf0dd19b	-0.5539796
62	0xbd57e3eb	-0.052707594
63	0x3e86238e	0.26199
64	0xbde3a155	-0.11114756
65	0xbdc3159e	-0.095256075
66	0xbe0fe71e	-0.14053008
67	0x3ef92590	0.4866147
68	0xbd2c5d0d	-0.042080928
69	0xbebaebd2	-0.36508042
70	0x3b80d5f0	0.0039317533
71	0xbdeb3bf9	-0.11486048
72	0xbd283313	-0.041064333
73	0x3dcf3999	0.10118408
74	0x3e233758	0.1593908
75	0xbe1018fc	-0.14072031
76	0xbd15b056	-0.03654512
77	0x3db569ad	0.08858047
78	0xbdf2b725	-0.11851338
79	0x3d6effec	0.058349535
80	0xbef9bb3e	-0.48775667
81	0xbe262149	-0.16223635
82	0x3e2154da	0.15755025
83	0xbddcf9bd	-0.10789821
84	0xbe1f61fd	-0.15564723
85	0x3e49511f	0.19659851
86	0x3df68884	0.12037757
87	0xbdcc6d3d	-0.09981773
88	0x3c219c37	0.009863905
89	0xbddc4eb9	-0.10757203
90	0x3cf7168f	0.030162124
91	0x3e8ca8ff	0.27472684
92	0xbbbee1c2	-0.0058252523
93	0x3dcbbb75	0.09947864
94	0xbe446415	-0.19178803
95	0x3cc2997a	0.023754824
96	0x3bbd138b	0.005770152
97	0xbd1a5209	-0.03767589
98	0x3da3d01f	0.0799868
99	0xbd482a4d	-0.048868466
100	0x3da1d1da	0.07901354
101	0x3d806220	0.06268716
102	0xbdf69739	-0.12040562
103	0xbd4a8e83	-0.049452316
104	0xbe496196	-0.19666132
105	0xbe9219a7	-0.28535196
106	0xbcbd7ce1	-0.023130836
107	0xbb3c1fca	-0.0028705471
108	0xbdda107a	-0.10647674
109	0x3d831508	0.06400496
110	0xbe039e9d	-0.12853475
111	0x3d759d92	0.059964724
112	0x3e727384	0.23676878
113	0xbdd03631	-0.10166586
114	0x3d9433fb	0.07236477
115	0x3dac6633	0.084179305
116	0xbd7fdd0b	-0.062466662
117	0xbe3c2d9e	-0.18376777
118	0xbed50652	-0.41606385
119	0x3eb9f060	0.36316204
120	0xbb89b870	-0.004202895
121	0x3d3dca4f	0.046335515
122	0xbe45a9f4	-0.19303113
123	0x3daf6914	0.08564964
124	0x3da55a50	0.08073866
125	0xbe55c9dd	-0.20877786
126	0xbdff9967	-0.12480431
127	0x3c1a5c6b	0.009421448
128	0x3e5ad1c3	0.2136908
129	0xbdd09f99	-0.10186691
130	0xbe0387d0	-0.12844777
131	0x3dac4464	0.08411482
132	0xbe447e8a	-0.19188896
133	0xbd87812f	-0.06616437
134	0x3d2777ba	0.040885665
135	0x3d1208e3	0.035653006
136	0xbe011089	-0.12603964
137	0xbcd6fcb7	-0.02624355
138	0x3f026f20	0.50950813
139	0x3d9c0a74	0.07619181
140	0xbcac0f22	-0.02100331
141	0x3e494912	0.1965678
142	0x3da7b67f	0.08189105
143	0x3dcc0e52	0.09963669
144	0xbf1579b3	-0.58388823
145	0x3e633442	0.22187904
146	0x3cf8fe26	0.030394625
147	0xbd926ae6	-0.071492955
148	0x3e3a7119	0.18207206
149	0x3c419a0c	0.011816513
150	0xbd678885	-0.05652668
151	0xbdc86c3c	-0.09786269
152	0x3c575177	0.013141981
153	0xbbcaa8ec	-0.006184688
154	0xbbe2dd9a	-0.0069233896
155	0xbdcc6e7a	-0.09982009
156	0xbee7721c	-0.45204246
157	0xbed05e30	-0.4069686
158	0x3ded5d94	0.11590114
159	0x3e0ca226	0.1373373
160	0xbe037195	-0.12836297
161	0x3dc9a84e	0.09846555
162	0x3f13b968	0.5770478
163	0x3e71b182	0.2360287
164	0xbe8fcb45	-0.2808477
165	0x3d57f632	0.052725025
166	0x3cb2fe99	0.021849917
167	0x3d35c1ce	0.04437428
168	0x3ccbf404	0.02489663
169	0xbd619d09	-0.0550814
170	0x3d943864	0.07237318
171	0xbe8a6b88	-0.27035165
172	0x3dc3c374	0.09558764
173	0x3db199fb	0.086719476
174	0x3f8acaf0	1.0843182
175	0x3ea6e34d	0.32595292
176	0xbe950fa7	-0.29113504
177	0xbdf4084f	-0.11915647
178	0xbe06bcc7	-0.1315795
179	0xba67dc3c	-0.0008844768
180	0xbd475a9d	-0.0486704
181	0xbe16b99d	-0.14719243
182	0x3e1edd6f	0.15514158
183	0x3f15a008	0.58447313
184	0xbcda5da9	-0.026655989
185	0xbdc5dcc0	-0.09661245
186	0xbe71626b	-0.235727
187	0xbd210c92	-0.03931863
188	0xbd9bfafb	-0.0761623
189	0x3e0e1e90	0.13878846
190	0x3c832ff4	0.016014077
191	0xbca246bc	-0.01980912
192	0x3d2d3548	0.04228714
193	0x3d8ad77d	0.067793824
194	0xbea8c9b9	-0.32966402
195	0x3d599205	0.05311777
196	0x3dd78933	0.105242155
197	0xbdcfdb0a	-0.101492
198	0xbc4d2288	-0.01252044
199	0x3e1329da	0.14371434
200	0xbc8e1724	-0.017345019
201	0xbde7512d	-0.1129478
202	0x3ee53981	0.44770434
203	0xbd9f42e3	-0.077764295
204	0xbc6329e0	-0.013864964
205	0xbedd9354	-0.43276465
206	0x3e18c192	0.14917591
207	0x3e8cfea5	0.27538028
208	0x3e2f17fd	0.17098995
209	0xbe20dd81	-0.15709497
210	0xbec1eaa1	-0.3787432
211	0xbcc4243e	-0.023943063
212	0x3e21fdd2	0.15819481
213	0x3ea84aa7	0.32869455
214	0x3ee3bcd7	0.4448001
215	0x3e1e066c	0.15432137
216	0x3cf12832	0.029438112
217	0x3e0d8390	0.13819718
218	0xbd1d05a4	-0.038335457
219	0xbef1c14c	-0.47217786
220	0xbef5cfc6	-0.4801008
221	0xbbfd518c	-0.0077306684
222	0xbdfc2454	-0.123116165
223	0xbd28aac0	-0.041178465
224	0xbdd7a4a7	-0.10529452
225	0xbc9fd572	-0.019510958
226	0xbc2058ae	-0.009786768
227	0xbcb48a4f	-0.022038607
228	0x3cb643a9	0.02224906
229	0x3d9651a7	0.07339793
230	0x3d5e9d69	0.054349337
231	0x3d32d754	0.043662384
232	0xbd6d7ab7	-0.057978358
233	0xbe485e0a	-0.19567123
234	0xbf3a4d34	-0.7277405
235	0xbdf888a5	-0.12135438
236	0xbdd05cb1	-0.101739295
237	0x3f83d6a3	1.0299877
238	0xbe0269b2	-0.12735632
239	0x3e4b1e7d	0.19835849
240	0x3ef7e08d	0.48413506
241	0x3dde2748	0.10847336
242	0xbc8a579f	-0.016887484
243	0xbdb2997a	-0.087206796
244	0xbc9538fc	-0.018215649
245	0xbdc82b6a	-0.097739056
246	0x3dbd872b	0.09254297
247	0x3d4c00b3	0.049805354
248	0xbcf2bad8	-0.02963011
249	0xbdde715d	-0.10861466
250	0xbdc7f3cc	-0.097632974
251	0x3ea11f08	0.31468987
252	0xbeff944a	-0.49917823
253	0x3e68b748	0.22726166
254	0x3dbce264	0.09222868
255	0xbc807dbb	-0.015684953

a2c_network.actor_mlp.0.bias f4 [256]
0	0xbea092cd	-0.31362
1	0xbd2c6734	-0.04209061
2	0xbe6aa990	-0.22916245
3	0xbe104f5f	-0.14092778
4	0x3e30c1bf	0.17261408
5	0x3d3e89b8	0.046518058
6	0xbea53e28	-0.32273984
7	0x3cd5d975	0.026104668
8	0xbe065a6e	-0.13120434
9	0x3dd1418d	0.10217581
10	0x3d656931	0.05600852
11	0xbd528cea	-0.051403917
12	0x3e8f5a42	0.2799855
13	0xbe668ede	-0.22515437
14	0xbe636a87	-0.22208606
15	0xbea5e0b8	-0.3239801
16	0x3da20dea	0.0791281
17	0xbc9bf277	-0.019036515
18	0xbd367bda	-0.044551708
19	0xbef0882b	-0.46978888
20	0xbd500ca9	-0.050793324
21	0x3d522480	0.05130434
22	0xbdc0a904	-0.09407237
23	0xbe822082	-0.25415426
24	0xbe851bac	-0.25997674
25	0x3e51c755	0.20486195
26	0xbc506914	-0.012720365
27	0xbe7ba182	-0.24573329
28	0x3d83f36d	0.06442914
29	0xbe632ace	-0.22184297
30	0xbe2186e3	-0.15774111
31	0x3e0b9641	0.13631536
32	0xbde7e2a8	-0.11322528
33	0xbe4ff85f	-0.2030959
34	0x3e217d0e	0.15770361
35	0xbe3b0c94	-0.18266517
36	0xbe98594c	-0.29755628
37	0xbdfdaee8	-0.12386876
38	0x3e969997	0.29414055
39	0x3e1e6d23	0.1547132
40	0xbedc606c	-0.43042314
41	0xbe69f078	-0.22845638
42	0xbde9a407	-0.11408239
43	0xbebc9651	-0.36833432
44	0xbeaf0b84	-0.34188473
45	0xbdf348e5	-0.11879138
46	0x3de0e7ca	0.1098171
47	0xbe8f53ea	-0.2799371
48	0x3de1d132	0.11026229
49	0x3dd90f4c	0.10598621
50	0xbe4f689e	-0.20254752
51	0xbe8c5bd0	-0.27413797
52	0x3e54000c	0.20703143
53	0x3f0aefea	0.5427233
54	0xbd45722c	-0.048204586
55	0x3dbcaa9a	0.09212227
56	0xbe34656b	-0.17616813
57	0x3db29d71	0.08721436
58	0xbdc35c48	-0.095390856
59	0xbe7160b0	-0.2357204
60	0xbe0fdd1a	-0.14049187
61	0xbdd8f6b9	-0.105939336
62	0xbd838e69	-0.06423647
63	0xbe36595b	-0.17807524
64	0xbe9ae6f2	-0.30254322
65	0xbdcc1c05	-0.09966282
66	0xbe2f0b70	-0.17094207
67	0xbe260b5a	-0.16215268
68	0x3d91027f	0.07080554
69	0xbe1f44a1	-0.15553524
70	0xbe2d8b52	-0.16947678
71	0xbe885ebd	-0.2663478
72	0x3e036c2b	0.12834232
73	0xbdb8399a	-0.089953616
74	0x3d78c90d	0.060738612
75	0xbe5bb47b	-0.21455567
76	0x3d2da298	0.04239139
77	0x3d256a47	0.040384557
78	0xbe9daf1c	-0.3079766
79	0xbd9c01ab	-0.07617506
80	0x3e4a77ae	0.19772217
81	0xbe378167	-0.17920457
82	0xbee11cbb	-0.43967232
83	0xbe6708a7	-0.22561894
84	0xbd3f4e7e	-0.046705715
85	0xbe08a3fb	-0.13343804
86	0xbd8ebe58	-0.06969899
87	0x3e85b9c1	0.2611828
88	0x3cc6f845	0.024288306
89	0x3de06191	0.10956109
90	0xbdc83182	-0.09775068
91	0x3e2f5b6b	0.17124717
92	0x3dafd5be	0.0858569
93	0x3e835f19	0.2565849
94	0x3d91222a	0.070865944
95	0x3e09d218	0.1345905
96	0x3d831271	0.06400002
97	0x3e534bc6	0.20634374
98	0x3d94178a	0.07231052
99	0xbe76181d	-0.24032636
100	0x3e2f720a	0.17133346
101	0x3d86118b	0.06546315
102	0x3c5dc21d	0.01353505
103	0x3d1c7f8f	0.038207587
104	0x3daf9e92	0.08575167
105	0x3d4e592f	0.05037802
106	0x3e1a532f	0.15070795
107	0x3e514dab	0.20439784
108	0x3e1579e2	0.14597276
109	0xbc4d6457	-0.01253613
110	0xbdb23bda	-0.08702822
111	0xbd171de3	-0.036893737
112	0xbbc5f372	-0.006040984
113	0x3df138ef	0.11778437
114	0xbe3b1771	-0.18270661
115	0x3da52189	0.08063037
116	0xbec974f5	-0.39347044
117	0xbeb58dcc	-0.35459745
118	0xbda23792	-0.079207554
119	0x3e50a7ab	0.2037646
120	0xbe8c4934	-0.273996
121	0xbea687b6	-0.32525414
122	0xbc8dd40b	-0.017313024
123	0xbe8138d8	-0.2523868
124	0x3e33e170	0.17566466
125	0xbea7311e	-0.3265466
126	0xbe887ef1	-0.2665935
127	0xbd50d635	-0.050985534
128	0xbe0796b8	-0.13241088
129	0xbc13c28a	-0.00901855
130	0x3e34db5e	0.17661807
131	0x3e884dc0	0.2662182
132	0xbe780c7f	-0.24223517
133	0xbd69992d	-0.057030845
134	0x3de52840	0.11189318
135	0xbea7fb27	-0.32808802
136	0xbd87103a	-0.06594892
137	0xbe193ce9	-0.14964642
138	0x3df88494	0.12134662
139	0x3dec7bac	0.11547026
140	0x3cb7ca10	0.022435218
141	0xbe7d8e0f	-0.24761222
142	0xbeaabe3a	-0.33348256
143	0xbe3120b8	-0.17297637
144	0xbe179a34	-0.14804918
145	0xbe51c371	-0.20484711
146	0x3dd6ed92	0.10494532
147	0x3da74886	0.081681296
148	0xbd688e12	-0.056776114
149	0xbee0f9a7	-0.4394047
150	0x3c142f20	0.009044439
151	0x3e02e538	0.12782753
152	0x3db9f3fd	0.0907974
153	0xbe11cf25	-0.14239176
154	0xbe645cd3	-0.22301035
155	0xbe62c7aa	-0.22146478
156	0x3c74034a	0.014893362
157	0x3e031034	0.1279915
158	0xbe2176ba	-0.15767947
159	0xbe9a5202	-0.30140692
160	0xbe99a845	-0.30011192
161	0xbeafd048	-0.34338593
162	0x3ddee785	0.108840026
163	0xbd0575b0	-0.03258294
164	0xbd9c354e	-0.076273546
165	0xbe93ba28	-0.28852963
166	0xbd8d65c5	-0.069041766
167	0x3e418454	0.18898135
168	0xbe692f64	-0.22771984
169	0xbcdf57cf	-0.02726355
170	0x3d879f59	0.0662219
171	0x3be9359d	0.007116987
172	0xbdf66ecf	-0.12032854
173	0xbec9dfa2	-0.3942843
174	0xbd99c868	-0.075089276
175	0x3d24665c	0.04013668
176	0xbcfbee1c	-0.030753188
177	0x3e8c3c36	0.27389687
178	0xbe359595	-0.17732842
179	0xbe87b8c8	-0.26508164
180	0x3e0767eb	0.13223235
181	0xbde4e095	-0.11175648
182	0x3ca06832	0.019580934
183	0xbe27dbde	-0.16392466
184	0x3caea4fb	0.021318903
185	0x3cb1ae07	0.021689428
186	0xbe4b1fff	-0.19836424
187	0x3cd9e9d4	0.026600756
188	0x3e8d41a7	0.2758915
189	0xbe0794c2	-0.1324034
190	0x3da210c9	0.07913358
191	0xbf1d382b	-0.6141383
192	0xbd6212b0	-0.055193603
193	0xbbf0c337	-0.00734749
194	0xbcd3a45b	-0.025835207
195	0x3d280d7f	0.041028496
196	0xbe0f7253	-0.14008455
197	0xbd8e2e73	-0.06942453
198	0x3d327d9e	0.04357683
199	0xbed27c7d	-0.41110602
200	0xbea6abe0	-0.32553005
201	0xbeec2fa5	-0.461301
202	0xbd2f9d38	-0.042874545
203	0xbe92b6ea	-0.28655177
204	0x3d1b4daa	0.037915863
205	0x3d8a247a	0.067452386
206	0xbe3adb6e	-0.18247768
207	0x3c5576c0	0.0130288005
208	0x3e0ca8d9	0.13736285
209	0xbdffb296	-0.124852344
210	0xbe80ccf1	-0.25156358
211	0x3e765ab2	0.24058035
212	0xbe615537	-0.22005163
213	0x3e709e9d	0.23498006
214	0xbda1f1be	-0.07907437
215	0xbd27e361	-0.04098833
216	0x3ce0c5c8	0.02743806
217	0x3d344ec7	0.04402044
218	0x3c41426b	0.01179562
219	0xbd48cddc	-0.049024448
220	0x3d1d59d8	0.03841576
221	0x3da893bc	0.08231303
222	0xbe1bc245	-0.15210827
223	0x3cb7e357	0.022447271
224	0xbee1ae3a	-0.44078237
225	0xbdab8d40	-0.08376551
226	0xbef4f3e8	-0.47842336
227	0xbe693efc	-0.22777933
228	0xbe074256	-0.13208899
229	0xbe4fef15	-0.20306046
230	0x3d716ec9	0.058943544
231	0x3e1188f6	0.14212403
232	0xbe9fb942	-0.31196028
233	0xbe997e55	-0.29979196
234	0x3cf7cf9f	0.030250369
235	0x3e29a2f3	0.16566066
236	0x3e2bcc84	0.16777235
237	0xbe697545	-0.22798641
238	0xbead7c35	-0.33883825
239	0xbd46e322	-0.048556454
240	0xbd4f8546	-0.05066421
241	0xbd11886a	-0.035530485
242	0xbe7f4aa1	-0.24930812
243	0xbe3ce60d	-0.18447132
244	0xbe0ccb14	-0.13749343
245	0xbec882bc	-0.39162242
246	0xbdf31d1f	-0.11870789
247	0xbdbbd056	-0.09170596
248	0x3e19b23c	0.15009397
249	0xbe7d8c83	-0.24760632
250	0xbe952d44	-0.29136097
251	0xbdd0e2eb	-0.10199531
252	0x3cf97982	0.030453447
253	0xbef14586	-0.47123355
254	0x3e486447	0.19569503
255	0xbd715071	-0.058914606

a2c_network.actor_mlp.2.weight f4 [128, 256]
0	0x3c1fa9f1	0.009745107
1	0x3d8b1193	0.067904614
2	0xbcb96d01	-0.022634985
3	0xbc333edf	-0.010940283
4	0xbdf970ae	-0.12179695
5	0xbe60b6bc	-0.21944708
6	0xbc8a6f09	-0.016898649
7	0x3e6264ad	0.22108717
8	0x3e41110d	0.1885416
9	0xbd9a515f	-0.075350516
10	0xbd9d70fa	-0.07687564
11	0xbde2c8b0	-0.11073434
12	0xbc1be057	-0.009513936
13	0xbdcfa5b6	-0.10139029
14	0xbccecd88	-0.02524449
15	0x3ac5d784	0.0015094136
16	0xbdda0949	-0.10646302
17	0x3d4b2705	0.04959776
18	0x3e038524	0.12843758
19	0x3df29c44	0.118462116
20	0x3e09f9a6	0.1347414
21	0xbd8c1eb7	-0.06841796
22	0x3b8ee51d	0.0043608085
23	0x3e08a8b1	0.133456
24	0x3d42d89f	0.047569867
25	0x3daf5f6c	0.08563122
26	0x3bfa59dd	0.007640107
27	0xbe3f2cf5	-0.18669493
28	0xbdb34738	-0.08753818
29	0x3e800524	0.25003922
30	0x3d9cc9e8	0.07655698
31	0xbd316557	-0.043309536
32	0xbc270e04	-0.010196213
33	0xbd8079ee	-0.06273256
34	0x3c8b8cac	0.017034851
35	0xbe06951a	-0.13142815
36	0xbe0b68d6	-0.1361421
37	0xbd731bef	-0.05935281
38	0x3d37f6a9	0.044912968
39	0x3dca0bc5	0.09865526
40	0xbd7c6a79	-0.061624978
41	0xbda346b0	-0.07972467
42	0xbceac381	-0.028657677
43	0x3d9a5f47	0.07537704
44	0xbca76774	-0.020435072
45	0xbc946bc9	-0.018117802
46	0x3d9c7937	0.076403074
47	0xbdd408b6	-0.10353224
48	0xbbe67990	-0.0070335343
49	0x3cd809a2	0.02637178
50	0x3cd3de7b	0.025862923
51	0xbc6039fc	-0.0136857
52	0xbd876232	-0.06610526
53	0x3d45b049	0.04826382
54	0xbd081c5d	-0.033230174
55	0xbe05020c	-0.12989062
56	0x3ded2d93	0.11580958
57	0x3d9d045c	0.07666847
58	0x3ce9030d	0.028443838
59	0x3c82426c	0.015900813
60	0x3ce8981b	0.028392842
61	0xbdcc31de	-0.09970449
62	0x3c9c92ea	0.019113023
63	0x3dc60e12	0.096706524
64	0x3e30924f	0.17243312
65	0x3da674d5	0.08127753
66	0xbdb2a329	-0.087225266
67	0xbd51d35a	-0.05122695
68	0xbd197df1	-0.037473623
69	0xbdfcc58b	-0.12342366
70	0xbb8e37a2	-0.004340128
71	0x3e38bbba	0.18040362
72	0x3cb56f63	0.02214784
73	0x3d62a60b	0.055334132
74	0xbcd802fd	-0.026368612
75	0xbc03eda0	-0.00805226
76	0xbc34141f	-0.010991125
77	0x3d2b8ca1	0.04188216
78	0xbe20e0d9	-0.15710773
79	0x3d5ec796	0.05438956
80	0xbe09ba7a	-0.13450041
81	0x3e4de4af	0.20106767
82	0xbd9411df	-0.07229971
83	0x3c82aa38	0.015950307
84	0xbd1d505e	-0.038406722
85	0x3d3f3832	0.04668445
86	0xbd16dcf3	-0.036831807
87	0x3dcb4e1e	0.09927009
88	0x3c9469de	0.018116888
89	0x3dbc5d81	0.09197522
90	0xbb8f0ec3	-0.0043657734
91	0xbc919102	-0.01776934
92	0x3d18adf6	0.037275277
93	0xbcb0e8e5	-0.021595428
94	0x3ce467c7	0.027881516
95	0xbd6029cf	-0.05472737
96	0x3d2216d3	0.039572548
97	0xbdb834bb	-0.089944325
98	0x3de29dc4	0.11065248
99	0xbc8b110e	-0.016975906
100	0x3da93e67	0.082638554
101	0x3ddc1b3a	0.107473806
102	0x3d91b86d	0.071152546
103	0xbdb716df	-0.08939909
104	0xbca2a434	-0.019853689
105	0xbd2d434f	-0.04230052
106	0xbd8dada5	-0.06917886
107	0x3db3b1a6	0.08774118
108	0x3e2f9c62	0.17149499
109	0xbc81f54c	-0.015864037
110	0x3de3a893	0.11116137
111	0x3d8c97de	0.06864904
112	0x3d0b5759	0.034018848
113	0x3d8e8359	0.06958646
114	0x3d88dd72	0.06682862
115	0xbd5e233e	-0.05423283
116	0x3e6e03f4	0.23243695
117	0x3bec5dfc	0.0072133522
118	0x3d11f015	0.03562935
119	0xbe1d52a1	-0.15363552
120	0xbc045c10	-0.00807859
121	0x3db27180	0.08713055
122	0x3d8238d6	0.06358497
123	0xbdb1a553	-0.08674111
124	0xbdf3cecc	-0.11904678
125	0x3c32c3d0	0.010910943
126	0xbd5bfae1	-0.053706054
127	0x3d52b90c	0.051446006
128	0xbe226a07	-0.15860759
129	0x3c4da78b	0.012552152
130	0xbd557681	-0.052114967
131	0xbd87b072	-0.06625451
132	0x3d50c9eb	0.050973814
133	0xbce0d069	-0.027443128
134	0xbe6709bf	-0.22562312
135	0x3e812da3	0.2523013
136	0x3d99eead	0.07516227
137	0x39170ce9	0.00014405292
138	0xbc8f8741	-0.017520549
139	0x3c54815c	0.012970295
140	0xbd45fe77	-0.04833838
141	0xbbaa5dd2	-0.0051991725
142	0x3d706499	0.058689687
143	0xbdc12913	-0.094316624
144	0xbd66479c	-0.056220636
145	0xbdaf5a43	-0.08562138
146	0x3d14ef90	0.036361277
147	0x3e1cd972	0.15317324
148	0x3e1f7b34	0.15574342
149	0xbc388bde	-0.011263816
150	0x3d8d371e	0.068952784
151	0x3d834192	0.06408991
152	0x3e07ff7c	0.13281053
153	0x3d88348d	0.06650648
154	0x3d9acd89	0.07558734
155	0xbd4475d3	-0.04796393
156	0xbcc8f600	-0.024531364
157	0xbca0a275	-0.019608716
158	0x3bbebf9b	0.005821181
159	0xbd14c41e	-0.036319844
160	0xbdbc054a	-0.09180696
161	0xbd6cbdc1	-0.05779815
162	0x3d35e0c2	0.0444038
163	0xbc0acb31	-0.008471296
164	0x3ca0d826	0.019634318
165	0xbd97cc72	-0.07412042
166	0x3d852b15	0.06502358
167	0x3d9ec2d4	0.07752004
168	0x3d436168	0.047700316
169	0x3d1cc353	0.038272213
170	0xbd9f6c51	-0.077843316
171	0x3c6d0b9d	0.014468101
172	0xbcfb80cf	-0.03070107
173	0x3de8bd7b	0.113642655
174	0xbcf834bf	-0.030298589
175	0xbcf5ed28	-0.030020311
176	0x3be9af7b	0.0071315146
177	0x3d48c08d	0.049011756
178	0xbd5d2b6e	-0.053996496
179	0x3de09ee6	0.109678075
180	0xbe530d28	-0.20610487
181	0x3d12819b	0.035768133
182	0x3c9203e0	0.017824113
183	0xbd14b8c0	-0.036309004
184	0xbd857560	-0.06516528
185	0xbdbece42	-0.09316684
186	0x3e35ecc3	0.17766099
187	0xbe0afa0c	-0.13571948
188	0xbbbdd809	-0.0057935757
189	0xbda35680	-0.07975483
190	0xbb7ed15a	-0.0038882107
191	0x3a95c525	0.0011426552
192	0xbe034807	-0.12820445
193	0xbc51b602	-0.012799742
194	0xbdbd98c2	-0.09257652
195	0x3dd81887	0.10551553
196	0xbcfc9ce0	-0.030836523
197	0xbe105ab5	-0.14097102
198	0x3d45322b	0.048143547
199	0x3e111950	0.14169812
200	0xbda8a474	-0.08234492
201	0xbe00947a	-0.1255664
202	0xbdc53c06	-0.09630589
203	0xbd86cb41	-0.06581736
204	0x3d8096cc	0.06278762
205	0xbac56abe	-0.0015061719
206	0xb8d0c27e	-9.95444e-05
207	0xbc98c70b	-0.018649599
208	0xbd8791bd	-0.06619594
209	0x3e301c9f	0.17198418
210	0x3e05e941	0.1307726
211	0x3e2fbded	0.17162295
212	0xbe0d9365	-0.13825758
213	0xbc9355df	-0.017985282
214	0x3dfc9d17	0.1233465
215	0x3e0ed973	0.13950138
216	0x3d42e2fa	0.047579743
217	0xbb2a5bb2	-0.0025994596
218	0x3dc11943	0.094286464
219	0xbd5ea810	-0.054359496
220	0xbb85cf40	-0.004083544
221	0xbb710f27	-0.0036782713
222	0xbdff132a	-0.12454827
223	0xbc990658	-0.018679783
224	0x3e1ca4ad	0.15297194
225	0xbda47552	-0.080301896
226	0x3e2af9c9	0.16696848
227	0xbdb5e608	-0.088817656
228	0xbdbee2d9	-0.093206115
229	0xbdc383ea	-0.09546645
230	0xbd7f9ba6	-0.062404297
231	0xbdb289b9	-0.08717675
232	0xbda2bff4	-0.079467684
233	0x3c8c11ec	0.01709839
234	0x3b604141	0.0034218582
235	0x3e20ae11	0.15691401
236	0xbdb1a844	-0.08674672
237	0xbdb0be07	-0.08629995
238	0x3d035d85	0.03207161
239	0x3d8af9ec	0.0678595
240	0x3deec574	0.11658755
241	0x3dd214b8	0.10257858
242	0x3d910445	0.070808925
243	0xbe195671	-0.14974381
244	0xbde17f97	-0.11010664
245	0xbe212579	-0.15736951
246	0x3dc5ec18	0.09664172
247	0x3dc55d10	0.09636891
248	0xbd154184	-0.036439434
249	0x3d5a9aff	0.053370472
250	0x3e3a7606	0.18209085
251	0xbc933352	-0.017968807
252	0x3da6221a	0.08111973
253	0x3d884991	0.06654657
254	0xbc1b67a1	-0.009485156
255	0xbd0a3570	-0.03374237

a2c_network.actor_mlp.2.bias f4 [128]
0	0xbda00e93	-0.0781528
1	0xbe068af2	-0.13138941
2	0xbec45333	-0.38344726
3	0xbe98b5bb	-0.2982615
4	0xbe5ab425	-0.21357782
5	0xbe74be06	-0.23900613
6	0xbeb0b86b	-0.345157
7	0xbd6a1680	-0.057150364
8	0xbd4451d7	-0.04792961
9	0xbd83fe0c	-0.0644494
10	0xbda494fc	-0.08036229
11	0xbf02e918	-0.5113692
12	0xbe0167e6	-0.1263729
13	0xbec4e29f	-0.38454148
14	0xbea59962	-0.32343584
15	0xbd050a20	-0.03248036
16	0xbd8161e8	-0.06317502
17	0xbcb94a27	-0.022618366
18	0x3d71a802	0.058998115
19	0xbe160f27	-0.14654218
20	0xbe67f431	-0.22651745
21	0x3e0d2922	0.13785222
22	0x3c858558	0.016298935
23	0xbe2081df	-0.15674542
24	0xbd7ca8da	-0.061684467
25	0xbe6f6d89	-0.23381628
26	0xbb7c5228	-0.0038501117
27	0xbece1b68	-0.40255284
28	0x3c940c4a	0.018072266
29	0x3d8567a7	0.06513911
30	0xbcd7d098	-0.026344582
31	0xbe8313ce	-0.25601047
32	0xbe90990a	-0.2824176
33	0x3dbfb4b7	0.093606405
34	0xbd8f9fc7	-0.07012897
35	0xbe3289e5	-0.17435415
36	0xbdc6e550	-0.09711707
37	0xbec755cd	-0.38932648
38	0x3cff34c3	0.031153088
39	0x3d54eaee	0.05198186
40	0xbe88d221	-0.26722816
41	0x3cc58d3b	0.024115195
42	0xbe1c634c	-0.15272254
43	0xbd5b59f4	-0.053552583
44	0xbe16747d	-0.14692874
45	0xbef7e048	-0.484133
46	0xbe1d1f93	-0.15344076
47	0xbc3a11f7	-0.011356822
48	0x3c3a1e03	0.011359694
49	0x3d0c45ea	0.034246363
50	0xbc010d5e	-0.007876722
51	0xbd73a96f	-0.059487756
52	0x3cca4967	0.024693204
53	0xbe243578	-0.16036022
54	0xbcab9579	-0.020945298
55	0xbea0904e	-0.31360096
56	0xbc9611ae	-0.018318977
57	0x3e450c98	0.19243085
58	0xbdabcc96	-0.08388631
59	0xbcd41d05	-0.025892744
60	0xbea2e65a	-0.3181637
61	0xbe0318db	-0.1280245
62	0xbb8c7cb2	-0.004287326
63	0xbeaaf0b8	-0.3338678
64	0xbe3cc9d0	-0.1843636
65	0xbe9fa5f9	-0.31181315
66	0x3c03ee45	0.008052413
67	0xbe09e299	-0.13465346
68	0x3ddc35a8	0.107524216
69	0xbd66f99b	-0.056390386
70	0x3c8bd153	0.017067587
71	0xbe90198c	-0.2814449
72	0xbe21b586	-0.15791902
73	0xbe8ba301	-0.272728
74	0x3dcf04ac	0.10108313
75	0xbedd4d9a	-0.43223268
76	0x3d95fecb	0.073239885
77	0xbe002908	-0.12515652
78	0xbec6f0cb	-0.38855585
79	0xbe09ed42	-0.13469413
80	0xbdef4f81	-0.11685086
81	0xbe7e6820	-0.24844408
82	0xbe00acca	-0.12565914
83	0xbd64e43e	-0.05588173
84	0xbd0c8b3c	-0.03431247
85	0xbf0e80ed	-0.55665475
86	0xbdc7e1a6	-0.09759836
87	0xbe832ea3	-0.25621518
88	0xbe5d6c8e	-0.21623442
89	0x3e0e3781	0.1388836
90	0xbd3ffed4	-0.046873882
91	0xbc7c8334	-0.015412141
92	0xbe71ca06	-0.23612222
93	0xbc77c0d7	-0.01512166
94	0xbd1f6b56	-0.038920723
95	0xbe9eb0eb	-0.30994353
96	0xbe8899a1	-0.2667971
97	0xbe19fbfd	-0.15037532
98	0xbd646b7f	-0.05576658
99	0xbd8c3931	-0.06846846
100	0xbe1b5f45	-0.15173061
101	0x3e0facd9	0.1403078
102	0xbdf7a3ce	-0.1209179
103	0xbd309077	-0.043106522
104	0xbe9d662c	-0.30742013
105	0xbe878bc5	-0.26473823
106	0xbeb0d0c1	-0.34534267
107	0xbe858b3c	-0.2608279
108	0xbe515a61	-0.20444633
109	0xbdb51367	-0.08841591
110	0xbe88fdb6	-0.26756066
111	0xbe99fe7d	-0.30076972
112	0xbd5953f1	-0.05305857
113	0xbd68bd0b	-0.05682091
114	0xbe5a4f8b	-0.21319406
115	0xbd753122	-0.05986131
116	0xbe221c90	-0.15831208
117	0x3d412990	0.047158778
118	0x3dcad2f9	0.09903521
119	0xbeb38cc5	-0.35068336
120	0xbc491772	-0.012273656
121	0xbdff3067	-0.12460404
122	0xbe969a53	-0.29414615
123	0x3e616897	0.22012554
124	0xbe9de908	-0.3084185
125	0xbedaab27	-0.42708704
126	0xbeb224c4	-0.34793675
127	0x3c6f8cf2	0.014621006

a2c_network.actor_mlp.4.weight f4 [64, 128]
0	0x39873926	0.00025791785
1	0xbd8f3902	-0.06993295
2	0x3d53920a	0.051652946
3	0xbc62e9e5	-0.01384971
4	0x3d0e486a	0.03473703
5	0x3da98107	0.08276563
6	0xbdae3ee4	-0.08508089
7	0xbc9accd3	-0.018896496
8	0xbcf4e063	-0.029892152
9	0xbd57fc1e	-0.052730672
10	0x3da45f42	0.080259815
11	0xbdc446d1	-0.0958382
12	0xbd08953a	-0.03334544
13	0x3dc77182	0.09738447
14	0x3dcc00bd	0.09961078
15	0xbe29bf7c	-0.16576952
16	0x3d6babb1	0.057536785
17	0xbab1b8ff	-0.0013559161
18	0xbd14c4bc	-0.036320433
19	0x3da0e918	0.07856959
20	0x3cc0f85f	0.023555933
21	0xbe0d953b	-0.13826458
22	0xbc6d5295	-0.014485021
23	0x3e14fb75	0.14549048
24	0xbc9350aa	-0.0179828
25	0x3d4ecd40	0.05048871
26	0x3d9f8bea	0.07790358
27	0x3dee3a07	0.116321616
28	0xbdc6a556	-0.09699504
29	0xbb3947c2	-0.002827153
30	0x3c8288ba	0.015934337
31	0x3e35fb71	0.17771699
32	0xbe13e942	-0.1444445
33	0x3d83be2d	0.064327575
34	0x3d2d1b3d	0.042262305
35	0xbda36245	-0.07977728
36	0x3dba7db8	0.0910601
37	0xbad7d2e1	-0.0016466045
38	0x3d22fb27	0.0397903
39	0xbd249185	-0.04017784
40	0xbd705b66	-0.058680914
41	0xbd32c4a6	-0.04364457
42	0xbd8bedf0	-0.06832492
43	0x3c3d0285	0.011536245
44	0x3cda7b5d	0.026670152
45	0xbdec01d7	-0.115237884
46	0xbdee564e	-0.11637555
47	0xbd6970fe	-0.056992523
48	0xbd6bd2a1	-0.05757392
49	0x3daaf912	0.08348288
50	0xbda92709	-0.082593985
51	0x3cb10785	0.02161003
52	0x3c0c15b6	0.008550098
53	0xbced8f2d	-0.028998936
54	0x3bb62b12	0.0055593336
55	0xbd1e1ed7	-0.03860363
56	0xbce01499	-0.027353572
57	0x3b98eb5b	0.0046667284
58	0x3d4185a4	0.04724659
59	0x3dd7ed9b	0.105433665
60	0x3dc89cb6	0.09795515
61	0xbd598c32	-0.053112216
62	0x3db9591f	0.090502016
63	0xbca95bca	-0.020673651
64	0x3d12d63e	0.03584885
65	0xbda649a8	-0.081195176
66	0x3c38cd24	0.011279378
67	0xbd973494	-0.07383075
68	0xbcb1678c	-0.02165582
69	0xbd5cddf7	-0.05392262
70	0xbc53aad8	-0.01291915
71	0xbe31cddb	-0.17363684
72	0xbe70d206	-0.23517618
73	0x3e09af48	0.1344577
74	0xbd695f47	-0.05697563
75	0x3e00834d	0.12550087
76	0xbdc2648b	-0.09491833
77	0xbd7abd28	-0.06121555
78	0x3cf83a87	0.030301346
79	0x3dd29886	0.10282998
80	0xbbbc4ab6	-0.005746211
81	0xbbb028f8	-0.0053759776
82	0x3c248ccf	0.010043337
83	0x3cb15a11	0.021649392
84	0x3d772cf5	0.06034561
85	0xbda71c00	-0.081596375
86	0xbc13f348	-0.009030171
87	0x3dce7425	0.100807466
88	0x3dfffebb	0.12499758
89	0x3dae3fe9	0.08508284
90	0xbc94f036	-0.018180948
91	0x3d141a0c	0.036157653
92	0xbf35b704	-0.70982385
93	0xbd03fe2c	-0.03222482
94	0x3daa9978	0.08330053
95	0xbf0a7d67	-0.540976
96	0x3d1a8909	0.037728343
97	0x3cfd7c2f	0.030943004
98	0x3d818e98	0.06326026
99	0xbe8294d8	-0.25504184
100	0x3cda837e	0.026674028
101	0x3a5554db	0.00081379496
102	0xbd8a330c	-0.06748018
103	0xbd2cd63b	-0.042196494
104	0x3bf275dc	0.007399304
105	0xbdaac095	-0.08337513
106	0x3d366ef6	0.044539414
107	0xbec7b6ae	-0.3900656
108	0xbd572b8a	-0.052531756
109	0xbcce3423	-0.025171345
110	0x3cc0c57f	0.023531673
111	0xbd723414	-0.059131697
112	0x3dd12063	0.102112554
113	0x3cf5a88d	0.029987598
114	0x3dc60917	0.096697025
115	0x3de001d2	0.10937847
116	0x3d30793e	0.043084376
117	0x3dada019	0.08477802
118	0x3c999067	0.018745614
119	0x3dec4523	0.11536624
120	0xbd3a36f4	-0.045462564
121	0xbcf00be0	-0.029302537
122	0xbd91fa07	-0.07127767
123	0x3d278182	0.040894993
124	0xbe2ff169	-0.17181934
125	0x3db2a061	0.08721996
126	0xbd8fe054	-0.07025209
127	0xbd1f65aa	-0.038915314
128	0x3dbddb2c	0.09270319
129	0xbe7985e0	-0.24367476
130	0x3da7a2fc	0.08185384
131	0xbe94562c	-0.28971994
132	0xbca0916c	-0.019600593
133	0x3d35c945	0.0443814
134	0x3d4aa84b	0.049476903
135	0xbd354ab2	-0.044260688
136	0xbd7be394	-0.061496332
137	0xbcf575a1	-0.029963316
138	0xbda2ece4	-0.079553396
139	0xbc35804f	-0.011077954
140	0x3ac1367a	0.0014740967
141	0x3d87435e	0.06604646
142	0xbe14ed49	-0.14543642
143	0x3d9a1c16	0.07524888
144	0x3d4f390b	0.05059151
145	0x3e2910bc	0.1651029
146	0x3c88427b	0.016633263
147	0xbe700bde	-0.23442027
148	0x3d4ecae8	0.050486475
149	0xbe6a9e91	-0.22912051
150	0xbcfa6e3d	-0.030570144
151	0x3e072d90	0.13200974
152	0x3d11f3e1	0.03563297
153	0xbc94a183	-0.018143421
154	0x3e00cc2c	0.12577885
155	0x3d4a4630	0.049383342
156	0x3c7cf491	0.015439169
157	0xbd431874	-0.047630742
158	0xbc2471dd	-0.010036913
159	0x3e68ba02	0.22727206
160	0x3ca98ba4	0.020696469
161	0xbce2a7db	-0.02766793
162	0x3dcc2e58	0.09969777
163	0x3e396f69	0.18108906
164	0x3e385b9c	0.18003696
165	0x3d6fe4fd	0.05856799
166	0x3d1d6c22	0.0384332
167	0x3d6dbcca	0.05804137
168	0xbd75992a	-0.05996052
169	0xbe1ca79c	-0.15298313
170	0xbe0d6ed4	-0.13811809
171	0xbe221689	-0.15828909
172	0x3dd6ff71	0.1049794
173	0x3ce27557	0.027643843
174	0xbda4f892	-0.080552235
175	0xbc0558c0	-0.008138835
176	0x3d92fc2b	0.071770035
177	0x3dc09fb8	0.09405464
178	0xbbc91fe0	-0.006137833
179	0xbdc27566	-0.09495048
180	0xbd3c1cdf	-0.04592597
181	0xbd1b7c64	-0.037960425
182	0x3d47ef84	0.048812404
183	0x3d56d74c	0.052451417
184	0xbbe6d15c	-0.0070440006
185	0xbd08f59e	-0.033437364
186	0xbdcc3662	-0.0997131
187	0xbd608a0a	-0.054819144
188	0x3e86b98a	0.2631343
189	0x3defb6b2	0.11704768
190	0x3d647794	0.0557781
191	0x3de4ab2c	0.11165461
192	0x3e46acad	0.19401808
193	0xbc3ae8f2	-0.011408078
194	0xbdaf5512	-0.08561148
195	0xbc648d28	-0.01394967
196	0x3d2248c6	0.039620183
197	0xbd02e70f	-0.031958636
198	0x3e04b564	0.1295982
199	0xbd5f278b	-0.05448107
200	0xbe11a6d3	-0.14223795
201	0x3e1d8fe4	0.15386921
202	0x3d34c9eb	0.044137876
203	0x3dc49ed7	0.09600609
204	0x3d7d4aa9	0.06183878
205	0xbe0486e6	-0.12942085
206	0x3e56ffa3	0.20995955
207	0xbd9f4397	-0.077765636
208	0x3da3957e	0.07987498
209	0xbcf28260	-0.029603183
210	0x3cba9c69	0.02277966
211	0xbacf2b12	-0.0015805683
212	0x3daa8e21	0.0832789
213	0xbe161606	-0.14656839
214	0x3db65635	0.089031614
215	0x3cdbf08d	0.026848102
216	0x3e1e8239	0.15479364
217	0x3d784bb8	0.060619086
218	0xbe1ba0a2	-0.15197995
219	0x3cde293c	0.027119271
220	0xbd7d1273	-0.061785173
221	0x3d90eb02	0.07076074
222	0x3dd912aa	0.10599263
223	0x3cf5ceca	0.030005831
224	0xbe1ba129	-0.15198196
225	0x3dcdde8f	0.10052215
226	0xbd1010dc	-0.03517233
227	0xbddbcc83	-0.10732367
228	0x3d97c515	0.07410637
229	0x3cf710ff	0.030159472
230	0x3d0837c8	0.033256322
231	0xbf05ca55	-0.5226186
232	0xbded84cf	-0.11597597
233	0xbe9914ea	-0.2989877
234	0xbcd9ae2f	-0.026572315
235	0xbdebbcd9	-0.11510629
236	0xbc024401	-0.007950784
237	0x3d055633	0.03255291
238	0x3e013861	0.12619163
239	0xbe8b4daf	-0.27207705
240	0x3e4e4a34	0.20145494
241	0xbc374e1d	-0.011188057
242	0xbe19a858	-0.15005624
243	0x3e2695da	0.16268101
244	0xbc8a47c7	-0.01687993
245	0xbdb26873	-0.08711328
246	0xbda1b87b	-0.07896515
247	0x3d95f8e7	0.07322865
248	0xbc3f059b	-0.011659051
249	0x3d0d80fd	0.03454684
250	0xbe96e386	-0.29470462
251	0xbdf4efbf	-0.119597904
252	0xbdd84d20	-0.105615854
253	0xbe2273fd	-0.15864559
254	0x3d353085	0.044235725
255	0xb9b2e54c	-0.00034121645

a2c_network.actor_mlp.4.bias f4 [64]
0	0x3cce0514	0.025148906
1	0x3b900adf	0.004395827
2	0x3d21f104	0.03953649
3	0xbe63ac91	-0.22233798
4	0xbcfad029	-0.030616837
5	0xbd9e8564	-0.07740286
6	0xbe9efe43	-0.3105336
7	0xbe36197e	-0.17783162
8	0xbe40ec61	-0.18840171
9	0x3e4b7c38	0.19871604
10	0x3d8e8c7c	0.06960389
11	0xbe995c27	-0.2995312
12	0xbd989a40	-0.07451296
13	0xbe966cc3	-0.29379854
14	0x3d5b791d	0.0535823
15	0x3d8a6871	0.06758202
16	0xbe7aefd9	-0.24505557
17	0xba966ac4	-0.001147591
18	0xbd835b15	-0.06413857
19	0x3e827042	0.2547627
20	0xbd5f7c59	-0.054561947
21	0xbcac53b6	-0.02103601
22	0xbe66bfce	-0.22534105
23	0xbdcfb329	-0.10141594
24	0xbea4583c	-0.32098567
25	0xbece9ee5	-0.40355602
26	0xbe0a3e99	-0.13500442
27	0xbdacd12b	-0.08438333
28	0xbb3a437d	-0.0028421574
29	0xbe4501a0	-0.19238901
30	0x3d328243	0.04358126
31	0x3d096464	0.033543006
32	0xbe3d08c6	-0.18460378
33	0x3d9e807c	0.0773935
34	0xbe38bfd1	-0.18041922
35	0xbe93531c	-0.28774345
36	0x3d01994c	0.031640336
37	0xbe04d9f1	-0.12973763
38	0xbe95b6cd	-0.29241028
39	0x3c9bc8a2	0.019016568
40	0xbe865783	-0.2623864
41	0x3da2999b	0.07939454
42	0xbe69f9d8	-0.22849214
43	0x3e361593	0.17781667
44	0xbec4de7f	-0.38451
45	0x3e13a4c7	0.14418326
46	0xbe884fa5	-0.26623264
47	0xbe33fc5b	-0.17576735
48	0x3d83ce0c	0.06435785
49	0xbd040dce	-0.032239728
50	0xbcfbbb40	-0.030728936
51	0xbe0aeabb	-0.13566105
52	0xbdbd751f	-0.09250855
53	0xbd8a45ca	-0.067515925
54	0xbe313383	-0.17304806
55	0xbced1f56	-0.028945606
56	0x3e093513	0.13399152
57	0x3d948f7a	0.072539285
58	0xbe86bd4a	-0.2631629
59	0xbea32600	-0.3186493
60	0xbdbbe1d4	-0.09173933
61	0xbe11e5e4	-0.14247853
62	0xbe48ffc2	-0.19628814
63	0x3d405376	0.046954595

a2c_network.value.weight f4 [1, 64]
0	0xbcafafee	-0.021446194
1	0xbb50b1a9	-0.0031844175
2	0xbc59ff93	-0.013305563
3	0xbd410eb0	-0.047133148
4	0xbcba4652	-0.02273861
5	0x3e6c034c	0.23048133
6	0xbd3047a7	-0.043037083
7	0x3e61d79d	0.22054906
8	0x3e4e1d83	0.20128445
9	0x3deb5380	0.11490536
10	0x3c4602f7	0.012085668
11	0x3c50661c	0.012719657
12	0xbd923b6a	-0.071402386
13	0x3c418683	0.011811855
14	0x3ac50b0d	0.0015033201
15	0x3dd7543d	0.10514114
16	0x3da925fe	0.082591996
17	0x3e6b0504	0.22951132
18	0xba6630fc	-0.0008781103
19	0xbbdaa30a	-0.006672268
20	0x3cbe30c9	0.023216622
21	0xbc5f0103	-0.013611081
22	0x3e982375	0.29714552
23	0x3cee8393	0.029115474
24	0x3e948ec7	0.2901518
25	0x3c0e497c	0.008684512
26	0xbd342842	-0.043983705
27	0x3cb3ee37	0.021964176
28	0xbbe46cfd	-0.006971
29	0x39d0174b	0.00039690206
30	0xbda3e8ad	-0.08003364
31	0xbb248ed7	-0.0025109553
32	0x3c87bf31	0.01657066
33	0x3bfa9d1f	0.007648125
34	0x3de321d4	0.110904366
35	0xbdaef6ae	-0.08543144
36	0x3c83ccc8	0.016088858
37	0x3e126802	0.14297488
38	0x3cf16583	0.02946735
39	0xbc438bb4	-0.011935163
40	0xbda751bb	-0.08169886
41	0xbd906c48	-0.07051903
42	0x3e603efc	0.21899027
43	0x3d82e80d	0.063919164
44	0xbd4aaa01	-0.049478535
45	0x3ab4bc2c	0.001378899
46	0x3eb89142	0.36048323
47	0x3d991389	0.07474429
48	0xbd114d55	-0.03547414
49	0x3c55eb62	0.013056608
50	0x3d42aa5e	0.047525756
51	0x3b411ab5	0.0029465382
52	0x3d435f9a	0.047698595
53	0xbbc6eebb	-0.0060709394
54	0x3a4c6e0d	0.0007798381
55	0xbc903aff	-0.017606257
56	0x3c23f216	0.010006448
57	0x3cbe2006	0.02320863
58	0xbd1d811d	-0.03845321
59	0xbd80fefc	-0.062986344
60	0xbc47423f	-0.01216179
61	0xbd125f2d	-0.035735298
62	0xbbbe3614	-0.0058047865
63	0xbcca0133	-0.024658775

a2c_network.mu.weight f4 [7, 64]
0	0xbe55f696	-0.20894846
1	0xbc8dffb8	-0.01733385
2	0xbaffd43a	-0.0019518204
3	0xbc93ff11	-0.018065961
4	0x3d063b39	0.032771323
5	0xbac71e77	-0.0015191574
6	0xbcfe8e94	-0.031073846
7	0xbc1db882	-0.00962651
8	0x3cfc6e15	0.03081421
9	0x3b15fc7e	0.0022886093
10	0xbdff8704	-0.12476924
11	0xbd4665dd	-0.04843699
12	0xbbdb6861	-0.0066957925
13	0xbc8248e8	-0.015903905
14	0xbd07d9b1	-0.03316659
15	0x38e0b5b6	0.00010714999
16	0x3c36b743	0.011152091
17	0xbbc5ff65	-0.0060424083
18	0xbc82ce84	-0.015967615
19	0xbda46c9b	-0.08028527
20	0x3cd117e5	0.02552409
21	0x3dbb23e9	0.09137709
22	0xbc40895e	-0.011751501
23	0xbdc7c7d1	-0.09754909
24	0x3d0d94cf	0.034565743
25	0x3d0ac0d4	0.0338753
26	0x3c3038c4	0.0107557215
27	0x3db4afac	0.08822569
28	0x3da17125	0.07882909
29	0x3c918852	0.017765198
30	0xbcaf4c29	-0.02139862
31	0xbdc23485	-0.094826736
32	0x3ce61591	0.028086456
33	0xbda99de0	-0.082820654
34	0xba8d793b	-0.0010793576
35	0x3c0bc0d2	0.008529859
36	0xbd80baf5	-0.06285659
37	0x3bede5b2	0.007260048
38	0xbd277ddd	-0.040891517
39	0x3d01629c	0.03158818
40	0xbcd479b0	-0.025936931
41	0x3ba5fc81	0.005065501
42	0x3c7dac67	0.015482998
43	0x3d5e6eb0	0.05430478
44	0xbd686b39	-0.05674288
45	0x3d967f85	0.07348541
46	0x3c56fd3b	0.013121898
47	0x3b04cdd6	0.002026429
48	0x3d1ec850	0.03876525
49	0x3cc72af1	0.024312468
50	0xbc54ee2e	-0.01299624
51	0x3d290323	0.041262757
52	0x3d1a225e	0.03763043
53	0x3c6fee68	0.014644243
54	0x3d32e17b	0.043672066
55	0x3d0a8019	0.03381357
56	0x3d999f5d	0.07501099
57	0x3e6be49c	0.23036426
58	0xbda2ab32	-0.07942809
59	0xbc98a3a2	-0.018632714
60	0x3da3551e	0.07975219
61	0x3c86ed30	0.016470522
62	0x3d166451	0.036716763
63	0x3e0a0e46	0.13482007
64	0xbe068333	-0.13135986
65	0x3e6be198	0.23035276
66	0xbe0550e2	-0.13019136
67	0x3b810fe9	0.003938664
68	0xbe21f42c	-0.158158
69	0x3ac34a84	0.0014899527
70	0xbd1f4f0a	-0.038893737
71	0xbc03c11e	-0.008041648
72	0xbc70698d	-0.014673603
73	0xbc663aa4	-0.014052067
74	0xbdbb1530	-0.091349006
75	0x3d900b2a	0.070333794
76	0xbd1524c4	-0.036412016
77	0xbccc0b9f	-0.024907885
78	0x3c298227	0.010345972
79	0x3c936b91	0.017995628
80	0xbd24b29c	-0.040209398
81	0x3d8640dc	0.0655534
82	0xbcce8895	-0.025211612
83	0xbd256bcc	-0.040386006
84	0xbc09e859	-0.008417212
85	0x3dbb66b4	0.091504484
86	0x3aecffcc	0.0018081605
87	0x3cf489ad	0.029850805
88	0x3bc48c94	0.0059982035
89	0xbdfaff5d	-0.12255738
90	0xbc253884	-0.010084275
91	0x3d44e40f	0.048069056
92	0xbcb1e24d	-0.021714354
93	0x3d7a520b	0.0611134
94	0xbc13c932	-0.009020137
95	0x3d93e385	0.0722113
96	0xbdb45f10	-0.08807194
97	0x3da32026	0.07965116
98	0xbcdaee72	-0.026725028
99	0x3d83acda	0.06429453
100	0x3d6b3b69	0.057429705
101	0xbccc174e	-0.024913456
102	0xbd8c7235	-0.06857721
103	0x3b1a81d7	0.0023575926
104	0x3d60e7fd	0.05490874
105	0x3c4621a6	0.012092983
106	0x3baaaed5	0.00520883
107	0xbc9a3b38	-0.018827066
108	0x3d32bee1	0.043639068
109	0xbe50f461	-0.20405723
110	0xbcb00bdc	-0.02149003
111	0x3c33406d	0.010940653
112	0xbc5df82b	-0.013547937
113	0x3d31b76a	0.043387808
114	0xbcefa09a	-0.029251385
115	0x3d03f680	0.032217503
116	0x3bbc725f	0.005750939
117	0xbcc88b8a	-0.0244806
118	0xbc652a4b	-0.013987134
119	0xbce0de6c	-0.027449809
120	0xbc5099a9	-0.012731948
121	0x3dc9703b	0.098358594
122	0xbbb6a109	-0.005573396
123	0x3d66808f	0.056274947
124	0xbe1df8f1	-0.15426995
125	0x3ad59bee	0.0016297081
126	0xbd20df36	-0.03927537
127	0x3d203fa5	0.039123196
128	0xbdcc14d2	-0.09964909
129	0xbc9ecdac	-0.019385181
130	0x3dadbd15	0.0848333
131	0xbcf6c79a	-0.030124474
132	0xbd8ffdbe	-0.07030819
133	0x3c8a4352	0.016877804
134	0x3de73143	0.11288693
135	0xbc8ed342	-0.01743472
136	0x3c3c0099	0.011474752
137	0xbd13a4d1	-0.036045853
138	0x3d1593d7	0.036517944
139	0x3d414818	0.047187895
140	0xbd20ff59	-0.03930602
141	0x3cd2ca6a	0.025731284
142	0xbcf4fc4d	-0.029905463
143	0x3b56df46	0.003278689
144	0xbce976fe	-0.028499123
145	0x3bc00d22	0.0058609406
146	0xb9d59f73	-0.00040745325
147	0x3d4981ce	0.049196057
148	0xbbe9c0a1	-0.007133559
149	0x3da878c7	0.082261615
150	0x3d23c388	0.039981395
151	0x3d853be4	0.06505564
152	0x3b871beb	0.004123201
153	0xbd9787e5	-0.07398967
154	0xbc09be1f	-0.008407145
155	0xbc282f44	-0.010265175
156	0x3db77075	0.08956996
157	0xbcc1bc8e	-0.02364948
158	0xbb2d1ac0	-0.002641365
159	0xba813ba5	-0.0009859694
160	0xbde25b5a	-0.1105258
161	0x3ce8a6d0	0.028399855
162	0xbc314e43	-0.010821882
163	0x3cac6e3d	0.02104866
164	0xbda3ab72	-0.07991685
165	0x3d693be4	0.05694188
166	0x3c2b461d	0.010453728
167	0xbe4f0dbd	-0.20220084
168	0x3d189d29	0.037259255
169	0xbd8fb424	-0.07016781
170	0x3c92922e	0.01789197
171	0x3c6870d3	0.014187056
172	0x3c686800	0.014184952
173	0xbcbe0431	-0.023195358
174	0xbcb0f2bb	-0.021600118
175	0x3b933b1a	0.0044931294
176	0xbd960161	-0.07324482
177	0xbd02bca8	-0.031918198
178	0x3b0e2dae	0.0021694708
179	0xbc8729c2	-0.016499404
180	0x3b36facf	0.002792049
181	0xbd40d5c9	-0.04707888
182	0xbe0a4a89	-0.13504995
183	0xbca8339e	-0.020532425
184	0x3e3c250d	0.18373509
185	0x3c3d0325	0.011536394
186	0x3dc4f83f	0.09617662
187	0x3b2080b8	0.0024490785
188	0xbe39d321	-0.18146946
189	0xbd4d3b5e	-0.050105445
190	0x3c8bd273	0.017068123
191	0x3d0759cb	0.033044618
192	0x3cd4c377	0.025972111
193	0xbd37b81c	-0.044853315
194	0x3d0b1b89	0.033961806
195	0x3dc48f88	0.09597689
196	0x3e1e5634	0.15462571
197	0xbd0862d1	-0.033297364
198	0x3dc10a08	0.094257414
199	0x3ce31129	0.027718144
200	0x3c87b736	0.016566854
201	0x3d2c3725	0.042044777
202	0xbdefa60f	-0.11701595
203	0x3cb61c86	0.022230398
204	0x3e15f87e	0.14645573
205	0x3d447082	0.04795886
206	0x3d59b112	0.053147383
207	0x3d450d5c	0.048108444
208	0x3db1b21f	0.08676552
209	0x3b371500	0.00279361
210	0x3dcfb157	0.10141247
211	0xbccd0152	-0.025025044
212	0x3cf25d64	0.029585548
213	0x3dedfc72	0.11620416
214	0x3d3e389f	0.046440717
215	0xbd4f79a5	-0.05065312
216	0xbd0c118b	-0.034196418
217	0x3bc5b65b	0.0060337014
218	0xbda94da9	-0.082667656
219	0xbad4b61e	-0.0016228592
220	0x3de89572	0.113566294
221	0x3c8fbc63	0.017545884
222	0x3c407642	0.011746945
223	0xbd1478b3	-0.03624792
224	0xbd918b85	-0.07106689
225	0x3de0007c	0.109375924
226	0x3d58d1e7	0.052934553
227	0xbe16c6b4	-0.14724237
228	0xbe2bdab5	-0.16782649
229	0xbcebf047	-0.028801097
230	0x3cf7e4cf	0.030260472
231	0x3c7438ba	0.014906103
232	0x3c286d62	0.010279985
233	0xbc59434b	-0.013260673
234	0x3c2697b2	0.010168003
235	0xbd0b2a83	-0.03397609
236	0xbe3754d5	-0.17903455
237	0xbd354eb2	-0.044264503
238	0x3d5b5db5	0.053556163
239	0x3d6057e9	0.054771338
240	0x3e0a2492	0.13490513
241	0xbd218dce	-0.039441876
242	0xbc9f70ba	-0.019462932
243	0x3ddec2f5	0.10877029
244	0xbd13f150	-0.036118805
245	0x3dadfeed	0.08495889
246	0x3d377353	0.044787716
247	0x3e3f985e	0.18710467
248	0xbdb912a2	-0.09036757
249	0x3cd1427d	0.0255444
250	0xbc9fb313	-0.019494569
251	0xbd85c031	-0.06530798
252	0xbe0dc3df	-0.1384425
253	0xbcba7b47	-0.022763861
254	0xbe7d0ba9	-0.24711479
255	0x3bd2452d	0.006416938

a2c_network.mu.bias f4 [7]
0	0x3d8a12b7	0.06741851
1	0xbcffe351	-0.031236323
2	0xbe797565	-0.24361189
3	0xbd3ec351	-0.046572987
4	0xbdeb1594	-0.11478725
5	0x3df8cf5c	0.12148926
6	0xbca0129c	-0.019540124

exp_avg f4 [7]
0	0xb99d77e0	-0.00030034687
1	0x38f25f95	0.00011557263
2	0xba2f9e87	-0.00066993426
3	0xb8fa6735	-0.00011940153
4	0xb9d77967	-0.00041098447
5	0xb97492d1	-0.00023324347
6	0xb6400c38	-2.8617342e-06

exp_avg_sq f4 [7]
0	0x3715b44c	8.923071e-06
1	0x3732c71d	1.0655986e-05
2	0x372da1eb	1.0349303e-05
3	0x3726bb98	9.938049e-06
4	0x371fde0a	9.528836e-06
5	0x371fe603	9.530692e-06
6	0x370ddd31	8.455755e-06
