runs/FrankaCubeStack_01-19-58-34/nn/last_FrankaCubeStack_ep_500_rew_15.605423.pth (torch, 579063 bytes, 36 tensors)

value_mean_std.running_mean f8 [1]
00000000: b963 e523 4a4a 1440
5.072548447490527

value_mean_std.running_var f8 [1]
00000000: d091 7d37 4905 2b40
13.510324224546736

value_mean_std.count f8 []
00000000: 0000 0002 0040 af41
262144001.0

running_mean_std.running_mean f8 [19]
00000000: a401 3a06 8a22 9d3f 4494 7ed1 ebd2 a33f
00000010: b211 3e28 96a1 b4bf f78c ba5c 92be eb3f
00000020: 708b 190e af2f 903f 6bb8 6823 c9dd 1e3f
00000030: a869 f5c9 b6fa f03f c057 5299 32b6 86bf
00000040: 9552 471a cb52 63bf 4794 1d2b e77c 48bf
00000050: e742 1d73 a533 833f 2cf4 9f98 5dae 3a3f
00000060: 683c 4539 183b f13f f423 8851 6571 9c3f
00000070: 5e32 f79e c6f1 b1bf aecd 35b3 28a2 c8bf
00000080: c1a4 e6e9 a42d b3bf 3eba fa0d 3151 963f
00000090: fbc4 59ce ac2e 973f
0.028452068929711097 0.03871857578568741 -0.08059061510545609 0.867013150320786 0.01580689929540874 0.00011774578238352296 1.061209477330161 -0.01108970194244907
-0.002358814892639958 -0.0007473114730883822 0.009375851226339061 0.0004071215158772425 1.0769273984076566 0.02777632055407149 -0.07009545689579386 -0.19244869947907034
-0.07491522512886474 0.02179409644912255 0.02263898858513345

running_mean_std.running_var f8 [19]
00000000: 3daf ea43 0479 af3f 094f 6fa3 b7b8 a03f
00000010: 3f7b 7d33 c7d1 ba3f 40be bf4e a9b1 a43f
00000020: aa37 ad58 46d9 983f 8c43 8947 6509 9c3f
00000030: 70ab d279 396d 583f e5a7 5f0a 3c7d b03f
00000040: f137 b063 bc20 b13f a60c a9db 03f2 773f
00000050: 8722 a7d8 86ae 953f d32c ad30 926a 993f
00000060: f3fd 1008 9fbb 6a3f dbb1 07c8 430d ea3f
00000070: a6ec 5812 7069 a93f ea08 468e 5366 a83f
00000080: 64e7 ec83 8e89 a43f 4d97 f2f1 1cc9 133f
00000090: f63d b2d8 d5ce 123f
0.06147015885411953 0.03265928144506176 0.10476346022686032 0.04041794859210457 0.02426633754958344 0.027379591456625316 0.0014908849036980552 0.06441092732680394
0.0669057601337213 0.005846037931919989 0.021173579190675553 0.024820598813033733 0.0032632928928533144 0.8141192347371161 0.049632551421802604 0.04765568839776953
0.04011197433869887 7.547606627386385e-05 7.174663748998181e-05

running_mean_std.count f8 []
00000000: 0000 0004 0040 9f41
131072001.0

a2c_network.sigma f4 [7]
00000000: c1cd dfbf 209e acbf 1bfa ecbf d16d 8abf
00000010: 6665 8bbf 4e27 77bf 5c45 01c0
-1.7484666 -1.3485756 -1.8513826 -1.0814763 -1.0890319 -0.9654435 -2.0198584

a2c_network.actor_mlp.0.weight f4 [256, 19]
00000000: 4747 493d 2f87 79bc 6049 45bb 3295 babd
00000010: d188 ff3e f866 fdbe 300f 013e 6ebe f2bd
00000020: abfb 3abc 74b6 d4bd 3aec d6be 886b 993e
00000030: 252d f5be c750 ce3d ac58 dcbc 2526 d1bd
00000040: 56b4 0c3e 00c6 9db9 07eb fd3d 556b 553c
00000050: 7f7c 71bd f48a 16bd a777 05bc 4300 913e
00000060: c69a e23e d1d5 453e 5b66 91bd 6929 fb3d
00000070: e232 ab3c b7ec 6abd 158f bcbe 95ed 3fbe
00000080: 2920 0fbd 1f08 20be c2e1 263e 93e3 be3d
00000090: aa1e 1a3e 24ef 963d 5cc0 6bbd 938a 43ba
000000a0: a16d 013d 317b f13c 5860 2fbe 4a26 f63e
000000b0: faac eebd 0357 9abc 1786 a2bd 1758 913e
000000c0: 5ba8 1b3e e7df babe e1f0 06bf f9d3 003e
000000d0: ff45 a63b ad86 d9bb aee7 85bd 3066 23bd
000000e0: 8b9b f0bc 1cf4 1a3d 7e82 86bc db36 d5bb
000000f0: e1d7 523d def0 0bbf 8be8 0abd d7ca 883e
00000100: 741e bebd e161 e4bd b739 fcbd fa6b fe3e
00000110: ade6 d5bc df17 c1be 6ab4 593c 842d e9bd
00000120: c966 4cbd 9ae7 f53d bacf 183e f797 06be
00000130: facb 4ebd 16ac e33d 7667 e9bd ac5f 493d
00000140: f8f5 fdbe fe5c 19be 768f 413e e5d9 09be
00000150: fa6e 34be 4ae4 353e 73d1 f53d 1acf b2bd
00000160: 4826 473d 6a09 e8bd fac2 21bc 99f8 853e
00000170: 39cb f1bc 2c95 803d ce4f 38be 45d6 803b
00000180: c9b7 133d 7f09 a23b a081 983d 8fbe febd
00000190: 75ca e73d 8bac 763d 9d0f 14be 91b0 94bd
000001a0: 582f 5abe 05db a7be 1e35 873c 8013 ab3c
000001b0: 0475 bfbd 95ac 123e 7476 e0bd 06d1 e13d
000001c0: 6dcb 853e 7a51 11bc 40c4 ec3d 61c0 b73d
000001d0: 20a5 16bd 8eaf 34be 7e30 d6be 40d3 9c3e
000001e0: 9a5a abbb 97f7 a5bc d321 1ebe 2649 a53d
000001f0: e61b b53d c059 88be 53dc d4bd b94a af3c
00000200: a91a 6d3e 7a8a c7bd 97a7 20be dc21 203e
00000210: b6ae 8dbd c17b 7dbd ac83 513d f315 033d
00000220: 68d2 fabd dcda aebc 30d2 ff3e 8be2 973d
00000230: bfe6 9a3c 863d 403e 4ad8 893d 955d d93d
00000240: cf57 17bf 6e07 653e 99bf 5f3c 8a6f 9bbd
00000250: 0f37 323e 2454 5a3c c3d1 0bbd ae1c 80bd
00000260: a65c cd3b c51c dfbb ddde 89bc 10d2 ecbd
00000270: 94c2 d5be 1b26 d9be 5235 043e 8025 213e
00000280: 2fc3 03be 5b33 ed3d c3a9 1b3f 7215 613e
00000290: 7565 9abe 2ee8 8a3d 89af af3c 58e8 2e3d
000002a0: 33c4 a83c f16f 7ebd f0d2 7d3d 21ac a3be
000002b0: e82d 493d 8b16 c13d 6498 903f 1fe0 a43e
000002c0: a62f 92be 0d7a 08be fb3a f0bd 1e6b 493c
000002d0: ff78 81bd 2c69 21be 009e 283e 3337 133f
000002e0: c062 96bc b463 0ebe ba8e 54be 9865 05bd
000002f0: 8c7a 93bd df1e ff3d 905c a23c 6da9 173d
00000300: e6e8 3f3d 5ed6 2f3d 9967 bdbe fcfd ce3d
00000310: 653d e53d 2462 bebd bc12 63bd ff12 d93d
00000320: 5d11 2abd b70d 87bd 975d fb3e 3ab2 83bd
00000330: a70a b63c 9d57 d7be fed2 383e d4cc 943e
00000340: c746 6b3e ab97 22be b153 b9be 3e58 95bd
00000350: 21cb 2b3e a11d a03e 13f6 f33e ee6d 233e
00000360: e8d6 253d 9333 c03d d62b 56bd c924 f4be
00000370: aaf3 e2be 8f37 ca3b 1660 0fbe cda3 1bbd
00000380: c090 c9bd dc05 1fbd eab8 a4bc 4082 08bd
00000390: 53d6 a43c c93e ed3d 35f2 7d3d c1f7 9b3d
000003a0: d79f 63bd 593b 25be 29b0 4fbf ddb4 13be
000003b0: 8d1a c1bd dce0 893f a71a fcbd 40b9 703e
000003c0: 29bd f13e d28b fe3d 62ca 843c 5ff2 a6bd
000003d0: 50a0 083c 3532 dabd 6a0a b53d f52f 613d
000003e0: cd41 1dbd bcfe dcbd 0365 bcbd dede 9e3e
000003f0: 1d01 fabe 3294 6d3e 0a7f 983d 9d30 0dbd
0.04914024 -0.015229984 -0.003010355 -0.09110488 0.4990907 -0.4949262 0.1260345 -0.11852728
-0.011412541 -0.10386363 -0.41977102 0.29964852 -0.47886005 0.10074001 -0.02689775 -0.102123536
0.13740668 -0.00030092895 0.123983435 0.013026078 -0.05895662 -0.03675361 -0.008146203 0.28320512
0.44258708 0.19319846 -0.07099601 0.12263758 0.020898286 -0.057354655 -0.36827913 -0.18742974
-0.03494278 -0.15628098 0.16297057 0.0932075 0.1505076 0.07369831 -0.057556495 -0.0007459309
0.03159869 0.029477688 -0.17126596 0.48076087 -0.116540864 -0.018840319 -0.07935732 0.2838752
0.15200941 -0.3649895 -0.527113 0.12580861 0.005074262 -0.006638369 -0.0653833 -0.039892375
-0.029371044 0.037830457 -0.016419645 -0.0065067834 0.05147541 -0.5466441 -0.033913177 0.26717255
-0.09283152 -0.111514814 -0.12315696 0.49691755 -0.026110971 -0.37713525 0.013287643 -0.113856345
-0.04990271 0.12007065 0.14922991 -0.13143907 -0.050487496 0.11116807 -0.11396687 0.049163505
-0.49601722 -0.1497688 0.18902382 -0.13462026 -0.17620459 0.17762867 0.1200284 -0.08730908
0.048620492 -0.113299206 -0.009873146 0.26166227 -0.02951585 0.06278452 -0.17999193 0.003931793
0.036063943 0.0049449797 0.07446599 -0.1243869 0.113179125 0.060223144 -0.14459081 -0.0726024
-0.21307123 -0.32784286 0.01650482 0.020883322 -0.09348491 0.14323647 -0.10960093 0.11026196
0.26131764 -0.008869523 0.11560869 0.0897224 -0.03677857 -0.17645094 -0.41833872 0.3062992
-0.0052293064 -0.020259662 -0.1544259 0.080705926 0.08843212 -0.26630974 -0.10393586 0.021397935
0.23154701 -0.09743209 -0.1568893 0.15637916 -0.06918089 -0.0618856 0.051150963 0.032003354
-0.12247163 -0.021344595 0.49965048 0.074162565 0.018908856 0.1877347 0.06730707 0.106135525
-0.5911836 0.22366115 0.01365652 -0.07589634 0.17403816 0.013325725 -0.03413559 -0.0625547
0.006267148 -0.0068088495 -0.016829902 -0.11563504 -0.41750014 -0.42411885 0.12910965 0.15736961
-0.12867425 0.11582061 0.6080591 0.21980837 -0.3015553 0.06782566 0.021446006 0.04270205
0.020601368 -0.062118474 0.061968744 -0.3196726 0.049116045 0.09428128 1.1296506 0.3220224
-0.28551978 -0.13327809 -0.1173 0.012293605 -0.06321906 -0.15762776 0.16466522 0.575061
-0.018357635 -0.13905221 -0.20757571 -0.03256759 -0.07201108 0.1245706 0.019819528 0.03702681
0.04685297 0.042929046 -0.369931 0.101070374 0.11193351 -0.092960626 -0.05543779 0.10599326
-0.041520465 -0.06594413 0.4909484 -0.064304784 0.022221876 -0.4205903 0.18049237 0.2906252
0.22976218 -0.15878169 -0.36196664 -0.072922215 0.16776706 0.31272605 0.47648677 0.15959904
0.040488154 0.09384837 -0.0522879 -0.47684315 -0.44326526 0.006171174 -0.14001498 -0.03799801
-0.09842062 -0.038823947 -0.020107705 -0.03332734 0.020121729 0.11584241 0.061998565 0.07615615
-0.055572357 -0.1613592 -0.81128174 -0.14424463 -0.09428892 1.0771747 -0.12309771 0.23508167
0.4721463 0.12429012 0.016209785 -0.08151697 0.008339003 -0.106541075 0.08839877 0.054977376
-0.03839283 -0.10790774 -0.09198954 0.3102941 -0.48828974 0.23201063 0.07446106 -0.03447019

a2c_network.actor_mlp.0.bias f4 [256]
00000000: 40d0 9abe 1ab7 0dbd 4ac4 6fbe a93b 09be
00000010: c6c3 473e bffa 343c da19 a0be a366 d13c
00000020: 7af0 f3bd 1254 c63d 94dc e23c aa23 86bd
00000030: 17db 923e 2187 64be da85 6bbe 3b2a b1be
00000040: 7b8d a93d ff7e 03bd 06d2 56bd 0bdf f6be
00000050: d4e8 5ebd a0b5 4d3d 7e0d a6bd 8ae0 8dbe
00000060: 873d 6cbe 454b 493e 727b 5e3b f2dc 66be
00000070: 1a56 833d 9b03 2cbe ed97 36be 8777 163e
00000080: ad53 f2bd 2d79 41be ebf4 203e fba0 1dbe
00000090: fc7b 96be 6d97 c6bd 5190 a23e 57f8 1a3e
000000a0: a74d d5be fb8d 68be 91ac cdbd b72e b9be
000000b0: a408 adbe 6a77 f0bd 0996 d13d 3692 86be
000000c0: 209a c83d c65b da3d 62ea 51be fdc6 8ebe
000000d0: e58d 413e d249 0d3f 1a8d 12bd 5e7b ba3d
000000e0: bfc0 1ebe e0a7 bf3d 5ead c2bd 0853 78be
000000f0: 3b16 05be 39a8 ccbd bcf7 85bd a015 52be
00000100: 9cf4 98be fd67 95bd 53aa 2bbe 4fe2 1fbe
00000110: 8862 703d ad94 22be 8e27 36be 9a3b 84be
00000120: dc9e f53d d8f0 a5bd 881a 453d ae4f 5dbe
00000130: 335d 213d e0f0 063d 9809 9abe 1783 88bd
00000140: 9093 553e b0f2 27be e5cd d8be 1245 69be
00000150: 7da5 4bbd 6e55 05be 8422 96bd b46f 8d3e
00000160: e481 ad3c 0d18 043e 4dcc e6bd 695a 373e
00000170: 0e40 9d3d 59a5 6d3e 5ae5 bc3d a471 0e3e
00000180: 4f68 9d3d 26cf 583e dda5 923d 532b 77be
00000190: b29c 2b3e b916 af3d 4487 083d 6855 443d
000001a0: a018 a43d b8cc 443d 30a7 263e b094 553e
000001b0: 6e88 143e 134d 80bc d4f3 c1bd 0d68 37bd
000001c0: 5a8c cdba 3348 493e 0c3a 3dbe e20a b63d
000001d0: a37f c7be 510e b4be b9e0 babd 9bf1 3e3e
000001e0: 7173 8ebe f96d b0be f333 543b 0e7f 72be
000001f0: 195e 333e 8975 a8be 1903 88be 6a68 80bd
00000200: 7cc3 12be 5c57 dabc 52b3 303e 0dc4 823e
00000210: 75fb 74be 8e32 70bd 6cb9 dd3d 8fac a0be
00000220: 1aa8 42bd 662a 10be 8e76 f93d cb82 f73d
00000230: 3b25 aa3c 9c9d 83be 8b0a aabe 1bea 23be
00000240: f290 19be 82af 4dbe efdd c23d 929c 053e
00000250: 8e2f aebd 4bf7 dbbe e5f3 833a d226 f23d
00000260: 3a29 de3d cbce 0ebe 3729 64be 5946 60be
00000270: ba25 a2bb f52c e93d 8489 11be 91d0 99be
00000280: 24f5 9abe f8ea aebe b1b5 c43d a5dd 7abd
00000290: d371 8ebd e098 90be 257a 82bd b6a6 673e
000002a0: b82a 68be 25bc dbbc 1104 9f3d 7182 cbbc
000002b0: 2fce f2bd 031c c3be fb15 c6bd 9e42 763d
000002c0: ce1c 01bd 5846 903e 1b40 2cbe 202b 96be
000002d0: 8295 103e b20d debd 16c7 553b 1ded 16be
000002e0: ae39 e93c 2e43 cb3c 2311 49be 91da ce3c
000002f0: 1f0e 983e 5b0e f0bd af82 943d 7a19 1cbf
00000300: 7be5 7cbd 626d 40bc f73f 22bd 0af4 5d3d
00000310: 8538 04be c970 60bd 1746 0e3d c023 cbbe
00000320: 3aa3 a5be 1870 f2be 8a57 01bd 91d4 8abe
00000330: 1629 903d a0c1 863d 524c 48be 77b2 023c
00000340: 64d0 f93d c80c 00be 1374 86be 8bbc 8a3e
00000350: 0494 57be bf2d 703e bb19 6cbd 1a4d 29bc
00000360: 42d3 cc3c 621f 263d 810e 08bc 9fcf 34bd
00000370: cf08 703d 2139 9e3d 42be 0cbe 2f99 273d
00000380: da24 d4be c621 a0bd 0fde e0be 75fd 63be
00000390: b0fc 05be 69db 41be 898a 2f3d 3e6f 133e
000003a0: 4244 9dbe 899b a7be d8b2 cc3c 692f 253e
000003b0: 9fa0 2b3e d662 79be a411 b4be 0e2f 86bd
000003c0: 8e58 80bd edc0 2cbd 0420 85be 12d2 4ebe
000003d0: 8513 0abe bf3f b9be d6ee e0bd bd64 c2bd
000003e0: 725e 143e 123f 6ebe 720f 94be 1d55 bbbd
000003f0: 535f fe3c d178 e4be 408e 463e dceb 2dbd
-0.30237007 -0.034598447 -0.23414722 -0.13401665 0.19508275 0.011046111 -0.31269723 0.025561636
-0.11911102 0.09684004 0.02769307 -0.06549771 0.28682777 -0.22317173 -0.23000279 -0.34602532
0.082789384 -0.032103535 -0.052446388 -0.48217043 -0.05442126 0.05022204 -0.08108042 -0.27710372
-0.23070346 0.1965762 0.003394809 -0.22545221 0.06412907 -0.1679825 -0.17831393 0.14694034
-0.11832366 -0.18893881 0.15718429 -0.1539344 -0.29391468 -0.09696851 0.3175073 0.15133797
-0.41660807 -0.22710411 -0.1004268 -0.36168453 -0.33795655 -0.117415264 0.10233695 -0.26283425
0.09795022 0.10662036 -0.20499566 -0.2788619 0.18901785 0.55190766 -0.035779096 0.09105562
-0.15503214 0.093581915 -0.095057234 -0.24250424 -0.12996762 -0.099930234 -0.06541392 -0.20516062
-0.29874122 -0.07295225 -0.16764192 -0.15613674 0.058687717 -0.15877028 -0.17788526 -0.25826722
0.11993191 -0.08102578 0.048121005 -0.21612427 0.039395522 0.03294456 -0.30085444 -0.066656284
0.20857072 -0.16401172 -0.42344585 -0.22780254 -0.04971837 -0.1302087 -0.07330802 0.27624285
0.0211801 0.128998 -0.11269436 0.17905582 0.07678233 0.23207606 0.09223433 0.13910538
0.07685911 0.21172771 0.07160542 -0.2413762 0.16758993 0.08549256 0.033332124 0.047933012
0.08012509 0.048046798 0.16274714 0.20857501 0.14505169 -0.015661752 -0.09470335 -0.044776965
-0.0015682087 0.19656448 -0.18479174 0.088887945 -0.38964567 -0.35167173 -0.09124894 0.18646853
-0.2782245 -0.34458902 0.0032379597 -0.2368128 0.17516364 -0.32902172 -0.26564863 -0.062699154
-0.14332384 -0.026652984 0.17255905 0.255402 -0.23924048 -0.058641963 0.10826382 -0.31381652
-0.047523595 -0.14078674 0.12180816 0.12085494 0.020769706 -0.25706184 -0.3321117 -0.16007273
-0.14996698 -0.20086482 0.09514987 0.13048008 -0.08505164 -0.42962107 0.0010067193 0.11823811
0.10847707 -0.13946073 -0.22281347 -0.21901836 -0.004948345 0.11385528 -0.14212614 -0.30041936
-0.30265152 -0.34163642 0.096049674 -0.061246533 -0.06955304 -0.28241634 -0.063709535 0.22622189
-0.22672546 -0.026823113 0.077644475 -0.024842473 -0.11855733 -0.3810731 -0.09672161 0.060122125
-0.03152161 0.28178668 -0.1682133 -0.29329777 0.14119533 -0.10842456 0.0032619885 -0.14738889
0.028469887 0.024812307 -0.19635443 0.025250705 0.29698274 -0.11721488 0.072514884 -0.60976374
-0.061742287 -0.011744829 -0.039611783 0.054187812 -0.12912185 -0.05479506 0.03473481 -0.39675713
-0.32351094 -0.47351146 -0.031577624 -0.271153 0.070390865 0.065799 -0.19560364 0.00797712
0.121979505 -0.12504876 -0.26260433 0.27096972 -0.21052557 0.23454951 -0.057641726 -0.010333324
0.02500308 0.040557273 -0.008304239 -0.044143315 0.05860215 0.0772574 -0.13744453 0.04091757
-0.41434366 -0.07818942 -0.43919417 -0.22264655 -0.13084674 -0.18931355 0.042856727 0.14397904
-0.3071614 -0.3273585 0.024987623 0.16131367 0.16760491 -0.24354109 -0.3516971 -0.06551944
-0.062668905 -0.042176176 -0.26000988 -0.20197323 -0.13484009 -0.36181447 -0.10983054 -0.094918706
0.14489153 -0.23266247 -0.28918034 -0.091470934 0.031051314 -0.44623426 0.19390202 -0.04246126

a2c_network.actor_mlp.2.weight f4 [128, 256]
00000000: b33a 7c3d 55b7 0c3e 16aa 17bd 6e5e 1ebd
00000010: a9b8 39be 36b1 9abe 8c5d b83d 28f5 a03d
00000020: 45cb be3e aaec e0bd cfb4 14be d3be 22be
00000030: d997 81bd 3f30 0ebd 2b29 3fbd 8dad 383e
00000040: 0561 3abe b5d4 3f3d 1119 3c3e e491 213d
00000050: 97fc 263e 96a1 2ebe a24b 683d 9dc5 b13d
00000060: 90c5 463d 8f28 08bc 8c9a 83be 28a2 47be
00000070: ff1d e9bd 23e9 a33e e6d5 473d 9694 09be
00000080: fc7d 10be 325e ac3d c45f 64bd 871b ffbd
00000090: 9c2b 67be 639a c0bd 60c7 4bbd e486 f73c
000000a0: a54d bbbd 9c1f 03be 767b 18bd 630e a43d
000000b0: 3b1c 493b b069 d83d 0953 873d 7e75 86bd
000000c0: 8bb5 61bd 0bb1 203c c444 c3bd b93e 90bc
000000d0: a357 4fbe 9cc9 543d 65bd 23be cfe0 c5bd
000000e0: b0a0 533e 2431 863d a058 6dbd fe60 013d
000000f0: 4f16 a83d 9bf7 45be 04c5 053b cfdd 9f3d
00000100: 0509 be3e 1db3 2d3e aaf3 5fbd 4147 3bbe
00000110: 709f b1bd c34c 94be dc17 cdbc e772 623e
00000120: e9c5 94bc 43ea 0bbd 85a4 f3bd 5cd5 dbbd
00000130: a6b6 8dbd 7ae9 b23d 57c1 39be 0adb 923d
00000140: 5cfb 32be cf79 9f3e 5ed4 6ebd ac39 a7bd
00000150: 282c 45bd 6bae 433d b2ad 3ebe 0a4f 6b3e
00000160: 71fd 2cbd cfbb b43d 9376 14bd b6a1 10bc
00000170: 92c5 b03c 43c0 cdbd 9c38 d9bd a118 e1bd
00000180: d951 bb3d 4879 55bc d549 273e 3fb9 923d
00000190: 9191 fe3d 9579 063e f4d8 0a3d 370f 0bbe
000001a0: c6ec bd3c 97b7 d6bd c933 38be 8a82 8abb
000001b0: 12a7 ee3d 9afa a73c c7c0 903e dce1 023d
000001c0: 8c2e bbbc 1467 803d a6f9 643d 2a82 4ebc
000001d0: 414b b53e 7baa 543d 3fea 8b3d 4f40 2bbe
000001e0: 4940 a7bd 3cc9 073e 95c6 043e 8d2e 7cbe
000001f0: 4bfe 13be 6521 4a3d 9071 77bc 4402 3d3d
00000200: 3642 96bd ab9c 7e3d 76e5 b9bd 742c 5ebd
00000210: e14c 69bb 6ba0 22bc ce03 78be 34d4 8e3e
00000220: c7a7 593e c581 a0bc f87a a33d 7522 873c
00000230: e972 47bd 068e ed3b d84c 213e 7b50 ffbc
00000240: f2c6 48be 3163 1fbe 8414 12bb 6dda 353e
00000250: 3473 293e 7a33 32bd 950c 303c 2c18 623d
00000260: a000 c83c f89b d83d 45df 033e e43c 6fbd
00000270: f807 5ebd f937 75bd cce8 623d d85b 7dbd
00000280: a27c 4dbd 4770 adbc f871 663d bcdb b1bd
00000290: b765 2bbd 6703 ff3c 61da c7bd 5242 e53d
000002a0: 589d b43d cef9 b33d 9418 92bd 5581 963d
000002b0: ac1a 58bd 5376 573e 157c 96bd 620b c9bd
000002c0: bd34 b83b c2a0 933c 467a a7bd 7981 7f3d
000002d0: 4359 1ebe aa89 ea3c 1885 f13d 1f6c cd3b
000002e0: 1275 fbbc b1ec 1f3d 5f7c 5c3e 2c1c 2ebe
000002f0: 020e d5bd eff5 a5bd 3f92 a5bd 3705 9d3d
00000300: 76af 52be 5f9c f5bd d4fb fabd f849 153d
00000310: 0af6 c4bb cb8c 13be 2efa 073e 6584 5b3e
00000320: c6b6 05be 71a9 09be d0d5 f1bd 0daf 393d
00000330: 5dfa a9bd 5b22 6bbd 7cd9 08be 2eee 01be
00000340: 11ee a8bd 486b 293e fc41 103e d783 573e
00000350: a156 00be 5fc3 84bd c9fb 19b9 6f65 643e
00000360: 74a8 d53d 5888 aebd cf7d be3e 4264 12be
00000370: bf34 d7bc cda0 e8ba 79c0 d3bd 4b39 41bd
00000380: 72a5 563e 478f 21be 766f 823e eb0c 58bd
00000390: 0bc8 28be 6cf4 4bbe d03e acbd 7e0c 46be
000003a0: fe1b 80bd 2cca 5abd ba7c cab9 305b e13d
000003b0: 8439 2ebe 79c2 eabc 3bcc afbc c11b 1a3d
000003c0: 6900 533d 31f8 f33d ba7b 80bd 7aa0 4abe
000003d0: 1145 a1bd 7692 a4be d66c 793d 12f0 3c3e
000003e0: c381 45bd ddf1 9f3e d33e 703e 0414 56bd
000003f0: d16c 493e 7a8a 043e 05e1 efbc 3282 47bd
0.061579417 0.1374181 -0.03702744 -0.038664274 -0.18136849 -0.30213326 0.09002218 0.0785926
0.37264457 -0.1098264 -0.14522098 -0.15893106 -0.06327791 -0.03471398 -0.04667012 0.18034954
-0.18201073 0.046833713 0.18368937 0.039445773 0.16307293 -0.17053828 0.056712754 0.0868027
0.048528254 -0.008310451 -0.25703847 -0.19495451 -0.113826744 0.32013807 0.048787974 -0.13435587
-0.14110559 0.08416404 -0.05575539 -0.12456422 -0.2257523 -0.09404447 -0.049750686 0.030215688
-0.09145669 -0.12805027 -0.037227117 0.080105565 0.0030686993 0.10567033 0.066076346 -0.065653786
-0.055104773 0.009807835 -0.095346004 -0.017608033 -0.20248275 0.051950082 -0.15990217 -0.096620195
0.20666766 0.065523416 -0.057945848 0.03158664 0.0820738 -0.19332735 0.002041162 0.078059785
0.37116256 0.16962858 -0.054675736 -0.182889 -0.086729884 -0.28964815 -0.025035791 0.22114144
-0.018160777 -0.034158956 -0.11896614 -0.107340544 -0.06919603 0.08735938 -0.1814016 0.07170685
-0.17478698 0.3114762 -0.058307998 -0.08165297 -0.048137814 0.04777376 -0.18620947 0.2297937
-0.042233888 0.08824884 -0.036245894 -0.008827617 0.021578584 -0.10046437 -0.106065005 -0.10991026
0.091464706 -0.013029404 0.16336758 0.07164239 0.12430108 0.13132317 0.03389831 -0.13580023
0.023184191 -0.10484236 -0.17988504 -0.0042269873 0.1165296 0.020505238 0.28272077 0.031953678
-0.022849344 0.062696606 0.055902146 -0.012604276 0.35408977 0.051920395 0.06831788 -0.1672375
-0.08166558 0.13260359 0.12966378 -0.24627133 -0.14452474 0.049348254 -0.015102759 0.04614474
-0.073368475 0.06216113 -0.09076969 -0.054241613 -0.0035598802 -0.009925942 -0.24220201 0.27896273
0.21255408 -0.019593129 0.07982439 0.016495923 -0.04869357 0.0072495965 0.1575197 -0.031166306
-0.19607142 -0.15565182 -0.002229006 0.17759104 0.16547853 -0.043506123 0.010745187 0.055198833
0.02441436 0.10576624 0.1287814 -0.05840768 -0.05420682 -0.059867833 0.055397794 -0.061855167
-0.050167687 -0.021171702 0.056261033 -0.08684489 -0.04184505 0.031129552 -0.09758449 0.1119429
0.088190734 0.08787881 -0.07133594 0.07348887 -0.05275981 0.21041231 -0.073478855 -0.09816624
0.0056215213 0.018020991 -0.08177619 0.062379334 -0.15463738 0.028630096 0.11792964 0.0062689926
-0.030695472 0.039044086 0.21531819 -0.17002934 -0.104030624 -0.08103549 -0.08084535 0.0766701
-0.20574746 -0.11992716 -0.12255064 0.036447495 -0.0060107755 -0.14409177 0.1327903 0.21437223
-0.13058004 -0.13443543 -0.118083596 0.045332957 -0.08299706 -0.05740581 -0.13364214 -0.12688515
-0.082485326 0.16544831 0.14087671 0.21046387 -0.12533046 -0.064825766 -0.00014685014 0.22304319
0.104325205 -0.08522099 0.3720536 -0.14296058 -0.026270268 -0.0017748118 -0.103394456 -0.04717378
0.2096155 -0.15777312 0.25475663 -0.052746695 -0.1648256 -0.19917458 -0.08410418 -0.19340703
-0.06255339 -0.053415462 -0.0003862137 0.11003721 -0.17014128 -0.028657185 -0.02145969 0.037624124
0.051514063 0.11912573 -0.06273599 -0.1978778 -0.078745015 -0.3214299 0.06089481 0.18450955
-0.048219454 0.31239215 0.23461466 -0.052265182 0.19670416 0.1294345 -0.029282102 -0.04870815

a2c_network.actor_mlp.2.bias f4 [128]
00000000: 7711 e7bd bd5b 04be d14d c5be 03bc 96be
00000010: 791b 5cbe f7ce 80be e49f aebe 82b4 57bd
00000020: 6264 0bbd 4b0b 9cbd 87aa 92bd 2402 01bf
00000030: 33ef fdbd d499 c1be c0a1 a4be 5981 1abd
00000040: 1964 a5bd 5351 0dbd 0190 483d 0128 e0bd
00000050: d846 6dbe 2e79 ff3d d8d3 d13c b7c5 00be
00000060: 4672 92bd 0a28 60be e093 65bc 11a1 d6be
00000070: b976 f43c 4825 7d3d f164 8cbd 5613 8bbe
00000080: 889f 91be 0871 8c3d 0238 8fbd c3c1 42be
00000090: de33 05be 68d4 d5be e641 183d a508 873d
000000a0: d62c a7be 66f8 0b3c f804 18be 13fb 7cbd
000000b0: 97a8 30be 19ae 03bf ff8f 11be c89a 39bd
000000c0: 6741 66bc a3c1 ec3b 237b 49bc e375 4fbd
000000d0: ea82 103c 9b15 2dbe 3b81 c8bc 0fda 9cbe
000000e0: 370b 72bd 01f0 603e 582c d6bd 5948 1bbd
000000f0: 2fe5 a6be 9971 f6bd 80bb 6eba 0730 aebe
00000100: 65f0 40be 630f 9ebe ffc7 02bd 9dd4 37be
00000110: ae11 d03d 045b a9bd e33f 2f3b 32a2 90be
00000120: 339e 2dbe d8f4 87be 8deb eb3d 4abf dabe
00000130: 1b7c 953d dd48 04be 5ca5 cbbe 62f8 0cbe
00000140: 4a7b ecbd 4ba5 8abe 1db6 eabd 77a1 5cbd
00000150: ca09 29bd eedc 18bf f4aa b9bd 52fe 8cbe
00000160: cfdd 48be ae3d 123e d230 1bbd 7b8d 6fbb
00000170: 3a3d 7cbe 65ba 8ebc 5e55 27bd 116a 9ebe
00000180: b861 81be 0403 26be 361a 69bd 2309 8bbd
00000190: fe8d 20be c052 1d3e 4316 0dbe db11 28bd
000001a0: 157f a0be aa26 84be 4760 afbe 5ca7 88be
000001b0: 4338 45be eb42 debd cdfd 44be 9f20 a1be
000001c0: b075 5bbd 19d5 25bd 1f85 42be 7f81 95bd
000001d0: e0c1 27be a452 f53c c4b6 bb3d 98b5 acbe
000001e0: e2ef 16bd 6a92 01be eed3 96be d29f 7d3e
000001f0: e48e a5be 65ee d2be b386 abbe a58e 243c
-0.11282628 -0.1292562 -0.38535932 -0.29440317 -0.21494855 -0.25157902 -0.34106362 -0.05266238
-0.03403128 -0.076193415 -0.07161432 -0.5039389 -0.12399139 -0.37812674 -0.32154655 -0.03772101
-0.08075733 -0.034501385 0.048965458 -0.1094513 -0.23171556 0.12474285 0.02561371 -0.12575422
-0.07150702 -0.21890274 -0.014012307 -0.4191976 0.029841768 0.061803132 -0.068551905 -0.2716319
-0.28442025 0.068574965 -0.069931045 -0.19019227 -0.13008067 -0.41763616 0.03717222 0.06593446
-0.32651395 0.0085431095 -0.14845645 -0.06176288 -0.17251812 -0.51437527 -0.14215086 -0.045313627
-0.014053679 0.0072252317 -0.0122974245 -0.050649535 0.008820275 -0.16902773 -0.024475684 -0.30635116
-0.059092727 0.21966554 -0.10457677 -0.037910793 -0.32596728 -0.12033386 -0.0009106919 -0.34021017
-0.18841703 -0.30871114 -0.031929012 -0.179522 0.10159622 -0.08269313 0.002674096 -0.28248745
-0.1695488 -0.26553988 0.11519537 -0.42724067 0.07299062 -0.1291842 -0.39774597 -0.13766626
-0.11546953 -0.27079234 -0.114605166 -0.053864922 -0.0412691 -0.5971211 -0.0906581 -0.2753778
-0.19615863 0.14281341 -0.037888356 -0.0036552835 -0.24632731 -0.017422864 -0.040852897 -0.30940297
-0.25269866 -0.16212088 -0.056909762 -0.06788852 -0.15679166 0.15363598 -0.13778023 -0.041032653
-0.31346956 -0.25810748 -0.3425314 -0.26690185 -0.19259743 -0.10852607 -0.19237442 -0.314702
-0.053579032 -0.04048643 -0.18996094 -0.0730009 -0.16382551 0.029946633 0.09165719 -0.33732295
-0.036849864 -0.12653509 -0.29458565 0.24767998 -0.3233558 -0.41197506 -0.33501205 0.010043775

a2c_network.actor_mlp.4.weight f4 [64, 128]
00000000: 6968 b5bb 365d b0bd 6088 523d 14bf 87bb
00000010: 34d3 0b3d 5178 b33d 8f15 adbd acab 92bc
00000020: 443b c4bc 22dc 81bd 8e13 a33d b3cb b5bd
00000030: 05b0 83bd c102 a63d ed0c e23d 1750 2fbe
00000040: f889 263d 3439 5dbc c584 babc a3be d63d
00000050: de9a 833c b757 34be 65fb a8bb f620 fa3d
00000060: eacc 9fbc 5a23 393d 6258 9a3d 4724 f33d
00000070: 6a4c e6bd 3265 00bd 6382 6eba 7ef0 473e
00000080: dc98 0dbe daee 353d efe8 443d 121f bfbd
00000090: d7cc d03d 9c6a eebb 73c1 663d 6cc4 81bd
000000a0: 028f 53bd 06a5 bbbc 1836 aabd cd37 b33c
000000b0: 25bc d83c ebdf b8bd 30c3 f1bd 7b45 4abd
000000c0: b89f 72bd 76e5 a23d c58b a1bd 7961 503c
000000d0: 8175 c2bc b7c9 18bd bb79 12bc a344 15bd
000000e0: 12dd 6fbc 3e3f ff3b bd58 273d 82e8 063e
000000f0: de46 d93d 88c0 6abd b506 c93d c3f9 06bd
00000100: a80b 113d 0731 97bd ddfa 123c 048c 9ebd
00000110: 3cf7 b5bc 1ab3 4abd 8890 0bbd 4a50 2bbe
00000120: 8eaf 42be 7fb6 2d3e 1f11 a1bd 0045 f03d
00000130: 3035 b0bd ee48 87bd af98 d93c 553d d43d
00000140: b0cf d0bc 40de 333c 3448 033c a2e3 403d
00000150: a27f 883d 3acc 88bd 969d 8b3a aeac c03d
00000160: 02db 003e 75e7 d93d 1c72 bdbc 51bf 213d
00000170: 56b8 32bf cf72 a9bc cb5c a03d 24a1 08bf
00000180: 8105 ba3c 2473 27bb ef28 9c3d 9cde 7bbe
00000190: db5a 153d d0b1 22bb 2943 89bd c660 2fbd
000001a0: 4ea2 b83b 5789 a8bd 0b51 873d 4bc5 bfbe
000001b0: 17d3 65bd bcc8 a83b c997 9e3c 358d 74bd
000001c0: 768e 103e bb04 f93b da5e d13d 8d1f e23d
000001d0: 6279 0f3d 734d af3d 2b52 053d 94c6 e73d
000001e0: 01c1 84bd 40a6 fdbc e65e 8fbd 4f4f f33c
000001f0: 226f 3fbe 835a b83d 5071 c0bd 6063 7cbd
00000200: e892 b03d 96a2 6ebe a65c c43d 450d 9ebe
00000210: 4105 893c fb46 703d fa9a 863d a963 3fbd
00000220: c363 acbd b3f8 97bc 3d6d 0bbe c244 723c
00000230: 0732 15bd b1f8 9e3d 8c5a 02be a1b4 b03d
00000240: 44d0 b93d 88ac 2f3e ad76 4c3d 0506 54be
00000250: ca22 743d e79e 74be 5d93 e6bc 2e74 db3d
00000260: bed3 783d 9827 12bc adfe 0c3e 8ee1 b23d
00000270: b962 db3c c50f 36bc c3b4 6dbb 4b57 673e
00000280: 9a49 df3c 92a0 32bc cd55 033e 0937 3e3e
00000290: 75c2 4e3e 0b1e 7c3d 7bd6 8e3d 4bcd 803d
000002a0: 3683 29bd 6454 fabd 3ded 26be 4072 fbbd
000002b0: 2615 cd3d 509f 163d f377 96bd ee3c 573c
000002c0: f8c0 9c3d a082 c33d 26fd 47bc 6f30 27be
000002d0: 961d c23c f781 edbc 45b0 9b3d c526 773d
000002e0: b918 91bc bd15 a9bd 4bde 89bd 6521 97bd
000002f0: bed9 923e 9150 233e 5a84 ce3d bf1e cf3d
00000300: 7f8b 253e 14b3 c43b 5258 95bd 8c4e bbbc
00000310: b1d6 313d 800b 9bbb e8b6 113e 15e7 1dbd
00000320: 58b7 1dbe 3372 263e 91cc 413c c585 013e
00000330: 0ff4 8b3d 71c9 dfbd 0045 5e3e e885 90bd
00000340: 9dba 1b3d 209d 04bc b2e0 093d 3e9b 03bc
00000350: 7dda bb3d 0adb 0abe a190 c33d 9584 433d
00000360: 4fe1 213e fb2c 913d 01a8 35be c785 813d
00000370: d63a 8bbd c828 c83d 17b1 023e 875c 0d3d
00000380: 0d7d 4abe ff0c c43d 00ea 5dbc 1631 99bd
00000390: 7038 a93d c37f 4e3d 3cb7 5d3d 28f0 06bf
000003a0: 25ab e3bd d665 99be 8dc8 61bd 9522 b7bd
000003b0: c393 63bc ee34 7d3d 1a1e dd3d 8a85 88be
000003c0: 7b4b 6e3e bcec 43bb 5f5f 0cbe abc2 313e
000003d0: 366c 3bbd de07 82bd 79f6 c6bd 736a a43d
000003e0: c917 3fbc 54c1 3f3d 04ca 1ebe aa28 1cbe
000003f0: f98f 1bbe 847b 18be 8f3f 523d bda3 c4bc
-0.0055361283 -0.086115286 0.05139959 -0.0041426513 0.034136966 0.08763183 -0.084513776 -0.017904125
-0.023954041 -0.06340815 0.07962714 -0.08876743 -0.064300574 0.08105994 0.11037622 -0.17120396
0.04065892 -0.013502408 -0.022768388 0.1048558 0.016065057 -0.17611586 -0.0051569217 0.12213318
-0.01950689 0.04519973 0.07536389 0.11872154 -0.112450436 -0.031346507 -0.00090984086 0.19525334
-0.13827842 0.04441724 0.048073705 -0.09332098 0.1019532 -0.0072758924 0.05633683 -0.063362926
-0.051650055 -0.022905838 -0.08311099 0.021877194 0.026456902 -0.09027084 -0.11804807 -0.049382668
-0.05923435 0.079539225 -0.07887987 0.012718552 -0.02373767 -0.037301745 -0.008940156 -0.03644241
-0.01464011 0.0077895215 0.04085611 0.13174632 0.1060922 -0.05731252 0.098157324 -0.032953035
0.035411507 -0.07382398 0.008970943 -0.077415496 -0.022212617 -0.04948721 -0.034073383 -0.16729847
-0.19012281 0.16964148 -0.07864594 0.11731911 -0.08603895 -0.06605707 0.026562063 0.10363261
-0.025489658 0.0109782815 0.00801282 0.047092088 0.06664969 -0.06679578 0.0010651823 0.09407936
0.12583545 0.1063985 -0.0231257 0.039489094 -0.69812524 -0.020684628 0.07830199 -0.5337088
0.022707703 -0.0025550807 0.07624995 -0.24596637 0.0364636 -0.0024825223 -0.06702263 -0.0428169
0.0056345826 -0.082293205 0.066072546 -0.3745521 -0.056109514 0.0051508825 0.019359486 -0.059704978
0.14116845 0.007599441 0.102231696 0.11041174 0.03502787 0.08559694 0.032549065 0.11317173
-0.06482125 -0.030963063 -0.07000522 0.029700903 -0.18694738 0.09001639 -0.09396613 -0.06161821
0.0862177 -0.23304209 0.09587984 -0.308695 0.016726138 0.058661442 0.06572528 -0.046725903
-0.084174655 -0.018551206 -0.1361589 0.014786901 -0.036424663 0.07762278 -0.12729853 0.08628202
0.09072927 0.17155659 0.049917866 -0.20705421 0.05960349 -0.23888741 -0.02814644 0.10715519
0.060748808 -0.008920573 0.13769026 0.087344274 0.026780473 -0.011112158 -0.0036271072 0.22591893
0.027256776 -0.010902541 0.12825699 0.18575682 0.20191367 0.06155209 0.06974503 0.062891565
-0.041384898 -0.122231275 -0.16301437 -0.12277651 0.10013799 0.036773026 -0.07347097 0.013137085
0.07653993 0.09546399 -0.012206351 -0.1632707 0.023695748 -0.028992636 0.0760198 0.060339708
-0.017711984 -0.082560994 -0.06731852 -0.073794164 0.2868175 0.15948702 0.10083838 0.10113286
0.16166495 0.006002793 -0.072922364 -0.022864603 0.043417636 -0.0047315955 0.1422993 -0.038550455
-0.15401971 0.16254501 0.011828558 0.12648685 0.0683366 -0.10927094 0.21706009 -0.070567906
0.038019765 -0.008094102 0.03366155 -0.008032618 0.09172533 -0.1356012 0.0954907 0.047733862
0.15808605 0.070886575 -0.1773987 0.06324344 -0.067983314 0.097734034 0.12762867 0.03451207
-0.19774266 0.09572791 -0.0135445595 -0.074800655 0.08262718 0.05041481 0.054129824 -0.527102
-0.111166276 -0.29960507 -0.0551229 -0.08942143 -0.01389021 0.061818056 0.10796757 -0.26664382
0.23270981 -0.0029895743 -0.13708256 0.17359416 -0.045757495 -0.06349157 -0.0971498 0.08028116
-0.011663386 0.04681523 -0.1550675 -0.15249887 -0.1519164 -0.14890867 0.051330145 -0.024003858

a2c_network.actor_mlp.4.bias f4 [64]
00000000: f50a 973c 1a2e 85bc 210b e83c 0716 85be
00000010: 7dfa cfbc d9e2 8abd 3ddf b3be dea0 2bbe
00000020: 0e08 28be e001 5b3e 94eb 8e3d 1de2 93be
00000030: c549 abbd af38 95be 88cc 1e3d ba38 b53d
00000040: 1630 73be 0f90 ab3c ee60 73bd 8f70 773e
00000050: 8e99 71bd 5b7a dcbc 930e 6bbe 2312 cbbd
00000060: bd42 acbe bdf8 d4be 372c 20be 36c5 92bd
00000070: 0f72 64bb 2a15 41be 0305 963d eb1c 4b3c
00000080: f40a 39be ff0b 8e3d 27a0 30be 0a8d 9abe
00000090: 85e9 d13c 29f3 18be 5e6f 9abe 343a cd3c
000000a0: d6a4 93be a6e8 6e3d fcbe 63be 3107 483e
000000b0: 0e5c c4be 6ddd 163e 708c 86be 6aa7 2dbe
000000c0: 6e72 863d af3a 25bd e9cd eabb 4049 0dbe
000000d0: 527c 8abd aaa5 97bd 62d1 32be b165 4cbc
000000e0: 73ee 003e 716a a13d ae7d 8cbe 7a3a acbe
000000f0: be6e a7bd 8d5d 09be 27cd 38be e469 473d
0.018437842 -0.016257335 0.02832562 -0.25993368 -0.025387997 -0.06781549 -0.35131255 -0.16760585
-0.16409323 0.21387434 0.06978527 -0.28883448 -0.0836368 -0.2914481 0.038769275 0.0884871
-0.23748812 0.020942716 -0.05941861 0.24164031 -0.05898433 -0.026913812 -0.22954778 -0.09915569
-0.33644667 -0.41596022 -0.15641867 -0.07166521 -0.0034858023 -0.1885573 0.07325175 0.012397031
-0.18070585 0.06935882 -0.17248593 -0.3018573 0.025624046 -0.14936508 -0.3016309 0.025052167
-0.28836697 0.05832734 -0.22240824 0.19533993 -0.38351482 0.14732905 -0.2627902 -0.16958395
0.065647945 -0.04033917 -0.0071656597 -0.13797474 -0.067619935 -0.07404645 -0.17462686 -0.012475417
0.12590961 0.0788163 -0.27439636 -0.33638364 -0.08175419 -0.13414593 -0.1804701 0.04868497

a2c_network.value.weight f4 [1, 64]
00000000: 8d5f 16bb b4f5 0f3c 8225 1abc 54f7 cdbd
00000010: c504 b1bc f2e6 a03e 108b 59bd 2a8e 8e3e
00000020: 745b 463e 682d 303e 1a8a 223d 41aa 2fb7
00000030: dd59 e7bd 6107 243b 5de7 033d c82c 273e
00000040: efcf e43d ae01 5f3e 1a7b c93b 98b9 3bbd
00000050: 531e 1c3d cb20 aaba ff63 c33e 4f57 84bb
00000060: 7e25 ac3e 9354 e73b 28ca 62bd f2b3 643d
00000070: 629a ffbc 72fc 64bd 60bd 45be 50c7 fdba
00000080: 9144 063c 2738 cabc 2c53 113e 4e0b d7bd
00000090: f80b c13b 4876 613e 1da5 123d 0a95 5dbc
000000a0: fae2 b7bd 03b8 88bd bd77 a33e fbcf d23d
000000b0: 3353 9ebd e6ff 8e3c a3a2 b43e 4366 033e
000000c0: f13a 23bd 05ff 383d 728d b63d a1b8 a73c
000000d0: 5b1b 893d 080e 583c ff46 e7bb 08f4 88bc
000000e0: d130 1cbb cbab 7e3b 5bf9 46bd 7cea 8abd
000000f0: 01d9 09bc 13ff 96bc d016 133b 2557 6abc
-0.0022945136 0.0087866075 -0.009408357 -0.1005694 -0.02160872 0.31426197 -0.053111136 0.27842838
0.19370824 0.17204821 0.039682485 -1.0470453e-05 -0.11296437 0.0025028812 0.032203067 0.16325676
0.11172473 0.21777984 0.006148708 -0.045831293 0.038114857 -0.0012979744 0.38162228 -0.0040387283
0.33622354 0.0070596426 -0.055368572 0.05583567 -0.031201545 -0.055904813 -0.19310522 -0.0019361768
0.008195058 -0.024684979 0.14191884 -0.10500203 0.0058913194 0.22017777 0.035801996 -0.013524303
-0.08978839 -0.066757225 0.3192729 0.102935754 -0.07730713 0.017456006 0.35280332 0.12831978
-0.039851133 0.04516508 0.08913697 0.02047378 0.06694671 0.013186939 -0.007058024 -0.016717926
-0.0023832808 0.003885972 -0.048577648 -0.067830056 -0.008413554 -0.018432176 0.0022444017 -0.014303003

a2c_network.mu.weight f4 [7, 64]
00000000: 81da 30be 9536 61bd be4e c7ba 74a8 eebc
00000010: 155c 133d c50a a63c 0b33 22bd 5e0b 243d
00000020: 573a 123d 7d82 0c3c bd43 11be 144f 3fbd
00000030: f31c 203c 2b6d 8bbc bb29 36bd 22b7 9d3c
00000040: 0729 813c c19c b1bc 7d00 a83a d152 a7bd
00000050: 59ae 7f3d 0340 da3d be73 8a3c ce5e 15be
00000060: 4e5b 733d f450 0c3d 50b9 973c 1751 ae3d
00000070: aa1d b43d 4676 053d f4ea babc d478 c6bd
00000080: daf4 0c3d c61d bebd 893e febb 3613 a9ba
00000090: 4767 55bd 367e ca3c 46f7 cdbc 8098 1b3d
000000a0: b56c babc c900 983a 6efc 1b3d e735 493d
000000b0: 9b5f 8ebd e069 8b3d 260c 6c3d 92ee e7bc
000000c0: 33de 2f3d 753b d83c 369b ff3a 6daf 613d
000000d0: 4cc8 143d 37ac 19bc 40a1 ce3c c492 643d
000000e0: eef6 803d 8a01 673e 2871 b9bd 94c0 9fbc
000000f0: 7beb a13d ecfa c5bb a7cb 2a3d b037 013e
00000100: 87b3 0ebe b858 8b3e d403 0cbe 8fd1 f8bb
00000110: 0f88 23be 6d90 dcbc 7e5f 26bd 0fe3 6bbd
00000120: f37b e0bc 6ef6 cbbb 3ddd bfbd da07 763d
00000130: cf3d 5abc de25 d2bc d8a8 2c3d ad23 a23c
00000140: d527 5dbd 1266 a13d 20b9 1dbd 9df3 96bc
00000150: 101e 04bd aa34 ac3d 09d5 173c a85e 2a3d
00000160: ab2e 2a3c e252 00be 369e d0bc d877 b03d
00000170: 08a2 d2bc 21e2 ff3d 0612 723c d6eb c13d
00000180: fb8b bebd aa81 ac3d 6873 05bd e182 993d
00000190: 0757 743d 137a 31bd 30c5 a2bd f3eb ee3a
000001a0: 70af 613d 0e8e 163c 782e 153c 6405 f2bc
000001b0: 0fa0 a13d faa1 5bbe e86d 1fbc 3c4a 6f3c
000001c0: a517 233d 49bc 2a3d 17ed e4bc c175 053c
000001d0: 3a63 cc3c cf83 2fbc 39f4 22bc 691f 4cbc
000001e0: 62e4 53bb 88d0 e13d 85e4 833b f503 4e3d
000001f0: 3663 25be 447a 0f3d 931b 1cbd 8c79 043d
00000200: 7cc5 e0bd 0238 843c 570e ca3d 971b e4bc
00000210: cf90 8ebd 21e2 62bc bab5 f73d 71cf 4abd
00000220: 933a 973c 247d b1bc 29e2 263d 058e 603d
00000230: dea4 4fbd e623 023d ed3a cabc a2d9 b8b9
00000240: 9a12 9cbc 1ab0 1a3d 46e1 11bc 1438 7c3d
00000250: b402 54bb b925 bd3d d17d 793d 1f55 9a3d
00000260: 2686 dcbb 7d7a 8dbd c7f6 983c 0ea5 823a
00000270: 217a bb3d 21dd 93bc fe01 c73b adb8 d23b
00000280: 176c e7bd 02c7 1d3d e7cc 75bc 51d6 0e3d
00000290: 13d9 7abd c26f 8d3d 3f51 973c 867c 46be
000002a0: 2267 923d e27b 8ebd 8d0a 1b3d 8cde 073c
000002b0: cf95 223c 4226 e3bc c3e2 883c 5474 983c
000002c0: 4aaf 82bd 12d7 22bd 1e9c 9e3c d36e 20bd
000002d0: f94d 783c 17cd 6abd afed fbbd 8f8d 9bbc
000002e0: 0423 413e 4543 0f3d aa5b d13d 98ed a1bb
000002f0: 728a 3cbe f76e 60bd b6f9 5f3b 8d29 2f3d
00000300: caaa 933c 2060 853a b444 0d3d 880b e73d
00000310: 42df 2d3e 8bfb 18bd 5080 d93d a565 633c
00000320: 7fb2 483d 118d 193d 3dcf bebd 6de4 033d
00000330: a965 363e bb8e 433d a965 813d aa0b 223d
00000340: ba01 cb3d e0c6 c23b 0160 b43d 9822 65bd
00000350: 54ed 123d b26d 003e b983 443d 162e 81bd
00000360: 538e 39bd efb3 cc3b f8ae 8ebd b187 e13b
00000370: e97f e73d 8d0f c0bb 637b 563c 1e5c ebbc
00000380: 0676 91bd ee48 053e a8b7 973d 5aaf 0abe
00000390: 00b2 31be aac9 dcbc 5994 3f3d 535e 81bb
000003a0: becd 703d 7031 c5bc facb 343c 14ca 05bd
000003b0: 8acd 36be 46ba 3fbd ce95 ec3d cb98 6a3d
000003c0: b671 003e 317e 0e3a b21e 5bbc 3cd7 c43d
000003d0: 38e2 eebc bae7 da3d 8516 493d e825 5a3e
000003e0: ae16 cbbd b5cc 2e3d bfc1 5bbc a1d2 1dbd
000003f0: 237b 0ebe a9f0 acbc f9cc 81be 31e6 0e3c
-0.17270853 -0.054983694 -0.0015205962 -0.02913306 0.03597649 0.020268807 -0.03959946 0.040049903
0.03570017 0.008576033 -0.14185996 -0.046706274 0.009772527 -0.017019829 -0.04447339 0.019252364
0.015766634 -0.021681191 0.0012817528 -0.08170093 0.06242213 0.106567405 0.016900893 -0.14586946
0.059413247 0.03425689 0.018520981 0.085115604 0.087947205 0.032583497 -0.022817113 -0.09691015
0.034413196 -0.092830226 -0.0077589196 -0.0012899402 -0.052100446 0.024718385 -0.025142323 0.037987232
-0.022756914 0.0011596914 0.038082533 0.04912367 -0.06951829 0.068073034 0.057628773 -0.028312001
0.042936515 0.026395539 0.0019501213 0.05509894 0.03632383 -0.009379438 0.025223374 0.05580403
0.06297098 0.22559181 -0.09054786 -0.019501008 0.079062425 -0.006041875 0.041698124 0.126189
-0.13935672 0.27216125 -0.13673335 -0.0075933407 -0.15969871 -0.026924336 -0.040618412 -0.057589587
-0.027402854 -0.006224445 -0.0936837 0.06006608 -0.0133204 -0.025652822 0.04215321 0.019792402
-0.053993065 0.078807965 -0.038506627 -0.01842671 -0.032255232 0.084084824 0.0092671 0.041594177
0.010387103 -0.12531617 -0.025466066 0.086166084 -0.025712028 0.124943025 0.014774805 0.0946881
-0.09304043 0.08423169 -0.032580763 0.07495666 0.05965331 -0.04332931 -0.07947767 0.0018228277
0.05509895 0.009189142 0.009105317 -0.029543586 0.07891857 -0.21448508 -0.009730794 0.014605101
0.03981747 0.04168347 -0.027945084 0.0081457505 0.024949659 -0.010712578 -0.0099459225 -0.012458661
-0.0032332172 0.11026102 0.0040250444 0.050296742 -0.16151127 0.03502871 -0.038112234 0.03234248
-0.10975167 0.016139988 0.09866016 -0.027845187 -0.06961214 -0.013847859 0.120952085 -0.049514238
0.018460548 -0.021666117 0.040743027 0.05482294 -0.05069434 0.031772517 -0.024686301 -0.00035257364
-0.019051839 0.0377656 -0.008903807 0.061576918 -0.0032350244 0.09235711 0.060911004 0.07535767
-0.006729859 -0.069081284 0.01867236 0.0009967403 0.091541536 -0.018049778 0.0060732355 0.0064307065
-0.112999134 0.038519867 -0.015002466 0.034872357 -0.061242174 0.06906082 0.018471358 -0.1938344
0.07148577 -0.069572225 0.03785186 0.008292805 0.009923412 -0.027728204 0.01670969 0.018610157
-0.0638109 -0.03975589 0.019361552 -0.03916819 0.015155309 -0.057324495 -0.12301194 -0.018988399
0.18861014 0.034976263 0.10222562 -0.0049416535 -0.18412188 -0.054793324 0.003417594 0.042764235
0.018025775 0.0010175742 0.03448935 0.11281496 0.16979697 -0.037349265 0.10620177 0.013879214
0.048998352 0.037488047 -0.09316871 0.032200266 0.17812218 0.04774354 0.06318218 0.039561905
0.09912439 0.005944118 0.08807374 -0.055941194 0.035870865 0.12541845 0.047977183 -0.06307618
-0.045301747 0.0062470357 -0.069669664 0.0068826308 0.11303694 -0.005861229 0.013090941 -0.028730448
-0.07102589 0.13016102 0.074080765 -0.13543454 -0.17353058 -0.02695163 0.046772335 -0.003948012
0.05878996 -0.024071425 0.01103496 -0.03266342 -0.17851844 -0.046808504 0.115520105 0.05727462
0.12543377 0.0005435674 -0.013374018 0.09611365 -0.029160604 0.106887296 0.049093742 0.21303523
-0.09916435 0.042675693 -0.013412892 -0.03853095 -0.1391416 -0.02111085 -0.25351694 0.008721874

a2c_network.mu.bias f4 [7]
00000000: 6d91 a83d d23a 26bd 93f6 80be d5a2 59bd
00000010: 035e fabd f3a8 023e 0b08 89bc
0.08230863 -0.04058344 -0.2518812 -0.053133804 -0.122249626 0.12759762 -0.016727468

exp_avg f4 [7]
00000000: 5f0f d639 22e6 c4b6 07db b839 8db3 0d3a
00000010: 5e99 3639 df50 e639 679d 5c39
0.00040828713 -5.868046e-06 0.00035258403 0.00054054783 0.00017414006 0.00043929272 0.00021039472

exp_avg_sq f4 [7]
00000000: 457a b036 1ca6 9e36 43e5 bc36 4400 a936
00000010: 952b a636 256c b136 c790 b936
5.259443e-06 4.7281046e-06 5.629526e-06 5.0366234e-06 4.952259e-06 5.2876007e-06 5.530284e-06

exp_avg f4 [256, 19]
00000000: 85e4 e6b9 6e7a 943a 7f34 3e39 eb59 3db9
00000010: cd11 a83a fadd 413a 5cf2 c238 4c64 2dba
00000020: 981f 8fba 20f4 44b8 9aca bf3a 5ce7 5e3a
00000030: 44d9 4939 c614 a33a 002c 0c3a 49b5 2f3a
00000040: 6355 3aba 3182 403a 7589 8a3a 26e6 7f3a
00000050: 4a64 2d39 cb2f 1439 fe3b e9b9 4ec5 d839
00000060: 93f7 beb9 13cf f738 4a52 d2b9 371a ec39
00000070: bece 90b8 cd12 d439 c2f6 cbb9 6c0c 1d38
00000080: 9c28 8a39 2377 3839 e6c1 9139 ec03 fcb9
00000090: 836f ea39 af52 013a 1731 37b9 268e 70ba
000000a0: 2bc3 0239 3fbe 7039 62c5 85b9 5ab8 51ba
000000b0: a323 10b9 3b50 1439 b2f2 293a ae8c ca38
000000c0: ea94 7fb9 1d8f 59ba ab24 1eb8 2bb6 35b9
000000d0: f02f 4339 c70d 8639 80f4 ca39 9c59 e039
000000e0: d2f8 ba39 02dc c437 61f8 8e39 1c6d 1ab9
000000f0: cde5 f3b8 b37c 3dba 2562 7cb9 2e4f d939
00000100: 988d 083a 1824 17b8 6b0d 5eb9 ddbc 3cba
00000110: fcd0 92b9 2ad5 7539 cc7a deb7 5044 02ba
00000120: 4976 3cba f48a c8b9 3041 59ba f586 45ba
00000130: eac8 6c37 ba62 8739 c25b 28b9 b0de c2b9
00000140: e8fc e1b9 e940 56b9 0386 5d39 b3bb 9639
00000150: 2dea 2c39 13f6 d6b8 9725 e2b9 da2f 40b9
00000160: 9893 9239 c027 8039 aed1 8bb9 a3d8 14ba
00000170: 154b ddb9 e4c7 7ab9 2e12 79b9 c9c8 ee39
00000180: dea8 b638 c55e 43b8 0dc1 ed38 94dd 1739
00000190: 2968 8b39 07f3 4339 3650 e0b8 ba6f 3ab9
000001a0: 9e91 93b8 b45a 1439 01e9 8039 55d5 2f39
000001b0: 5a71 ab39 07fd 0eb9 2e13 96b9 250c e9b9
000001c0: bdbe 4539 269b 5939 6d62 4538 c23c 92b9
000001d0: 6c07 f9b8 37aa b639 5ebc 91b9 1f7a c338
000001e0: 746d a9b9 3d46 8b39 ca68 90b9 b31d 4539
000001f0: aba1 95b9 81cb ce38 4fd8 beb8 198c 2bb9
00000200: 304b c937 6311 6038 b8f0 db39 a216 5eb8
00000210: 9c06 12b9 d84d 0a3a 077c f9b9 3030 34b9
00000220: 6d3d 87b7 95af c4b9 f021 27ba 8f42 d4b9
00000230: d100 7539 c05e 6a3a b734 6639 7e05 fcb9
00000240: 422e 28ba a47a 25b9 fa68 e0b9 0adb 9d38
00000250: 9913 d638 8a50 d439 1d6c f538 f1a9 88b7
00000260: 908a e0ba 438c 27ba 6560 a538 b75c ad39
00000270: 375c faba b2b4 ccb9 685a 5239 04b0 b73a
00000280: 45bd 10b9 1ba2 14b9 2d3d ffba e61a c8b9
00000290: 61c4 9a39 e06a 77ba 2222 03ba eaf0 f3b9
000002a0: 594f 573a 3587 67ba 189e 94ba dea4 023a
000002b0: 13d6 e639 6ad2 bdb8 c9d0 c3b9 e58f bab9
000002c0: 0635 e739 bd42 bf39 9aa7 8d39 cd90 95b9
000002d0: 3c18 2eb9 4fd4 a2b9 c3d7 d639 e2d8 d038
000002e0: dc01 47b9 7da8 4db9 4472 fbb9 4dbd cbb9
000002f0: a9d3 b2b9 df86 ebb9 f233 823a dd55 1839
00000300: c4cd c3b9 cac4 aab8 a9ff 2939 49d1 2338
00000310: e0bb 053a cd07 2eb9 e6da 91b9 8169 6db9
00000320: 787e 3639 1527 9a37 d552 8139 fa58 cd39
00000330: 946f 9ab9 b836 24ba 7bcc 80ba b690 26b9
00000340: 2b1c 1bb9 cb81 fc39 5a77 9a38 c93d 8137
00000350: d171 da38 0ad0 d838 4a22 2a39 e639 70b9
00000360: 3385 d0b8 499a cc38 fe1a 1639 db49 1739
00000370: 6ad9 0439 28ed ecb7 bdd0 9638 ddb0 3239
00000380: d621 03b8 8726 06b8 98a4 1d3a 7c5c 233a
00000390: e9c2 9db9 2512 aeb9 6fe4 0a39 07e6 83b7
000003a0: 92e7 4bb9 da1c 613a 157d 5238 24e5 d538
000003b0: 5944 11ba 17e9 87b6 7ab9 35b9 433c 743a
000003c0: f4fd 86b8 12be 13b9 1aca c8b9 0049 8db9
000003d0: 57f4 2138 74f7 abb9 6f20 d9b9 8a06 b638
000003e0: c845 773a 9a76 a838 9dfc 29ba 343e d539
000003f0: 76cd 063a d112 183a 0fd8 65b7 f65e 60ba
-0.0004403928 0.0011327991 0.00018139368 -0.00018057942 0.0012822688 0.0007395443 9.295784e-05 -0.00066143717
-0.001091945 -4.69574e-05 0.0014632524 0.0008503103 0.00019249792 0.0012442104 0.00053471327 0.0006702734
-0.00071080605 0.0007343619 0.001056953 0.0009761773 0.00016535926 0.00014132184 -0.0004448592 0.00041345734
-0.0003642408 0.000118164484 -0.0004011563 0.0004503296 -6.904964e-05 0.000404498 -0.00038903026 3.7443286e-05
0.00026351667 0.0001759199 0.0002780102 -0.00048068108 0.0004471504 0.000493328 -0.00017470527 -0.0009176455
0.00012470472 0.00022959056 -0.00025514798 -0.0008000188 -0.00013746186 0.00014144268 0.0006483003 9.658314e-05
-0.0002437417 -0.00082992186 -3.7704285e-05 -0.00017329368 0.00018614507 0.00025568737 0.0003871061 0.00042791374
0.0003566207 2.346747e-05 0.00027269407 -0.00014727231 -0.00011629947 -0.00072283595 -0.00024069154 0.0004144846
0.00052090874 -3.603482e-05 -0.00021176568 -0.00071997737 -0.00028002996 0.0002344443 -2.6521644e-05 -0.0004969286
-0.0007189257 -0.000382505 -0.0008287607 -0.0007535064 1.4113475e-05 0.00025822764 -0.00016055911 -0.0003716848
-0.00043103774 -0.00020432811 0.00021126126 0.00028750076 0.00016490436 -0.0001025015 -0.00043134086 -0.00018328373
0.00027957256 0.0002444368 -0.0002666837 -0.00056780333 -0.00042208345 -0.00023916323 -0.00023753263 0.00045544494
8.70989e-05 -4.6579884e-05 0.00011336999 0.00014483026 0.0002658975 0.00018687184 -0.00010696093 -0.00017779964
-7.0366295e-05 0.0001414817 0.00024587664 0.00016768773 0.00032700115 -0.00013636435 -0.0002862452 -0.00044450272
0.0001885844 0.0002075253 4.7060126e-05 -0.00027892558 -0.00011874628 0.00034840565 -0.000277969 9.3210714e-05
-0.0003231574 0.00026564478 -0.00027543894 0.00018798448 -0.00028539947 9.860751e-05 -9.1001966e-05 -0.00016360021
2.399608e-05 5.3421954e-05 0.00041950285 -5.2950003e-05 -0.00013926107 0.0005275882 -0.00047585389 -0.00017184089
-1.6121858e-05 -0.00037514852 -0.00063756015 -0.0004048538 0.00023365325 0.00089405105 0.00021954147 -0.00048069278
-0.00064155844 -0.00015781313 -0.00042802823 7.5271426e-05 0.000102079655 0.00040495797 0.00011702648 -1.6291599e-05
-0.0017131139 -0.0006391445 7.885768e-05 0.0003306621 -0.0019100968 -0.0003904454 0.0002006084 0.0014014249
-0.00013803419 -0.00014174769 -0.0019473188 -0.00038167014 0.00029519483 -0.0009438228 -0.00050023396 -0.00046528067
0.0008213423 -0.0008832098 -0.001133862 0.00049836736 0.00044028516 -9.051415e-05 -0.00037348855 -0.00035583894
0.0004409926 0.00036480083 0.0002701849 -0.0002852738 -0.00016602961 -0.0003105723 0.00040978016 9.9586105e-05
-0.00018978812 -0.0001961309 -0.00047959585 -0.00038860217 -0.00034108505 -0.0004492318 0.0009933694 0.00014527836
-0.00037346606 -8.1428865e-05 0.00016212337 3.905714e-05 0.0005101543 -0.00016596839 -0.00027819647 -0.00022641385
0.00017403986 1.837643e-05 0.00024666512 0.0003916694 -0.000294563 -0.0006264257 -0.0009826565 -0.00015884903
-0.00014792445 0.0004816189 7.365523e-05 1.540677e-05 0.0001041625 0.00010338433 0.00016225237 -0.00022909752
-9.943023e-05 9.756216e-05 0.0001431517 0.00014427995 0.00012669494 -2.8243827e-05 7.191438e-05 0.0001704129
-3.1264346e-05 -3.198397e-05 0.0006013601 0.0006231738 -0.00030090593 -0.00033201385 0.00013245804 -1.5723532e-05
-0.00019445855 0.0008587368 5.0184393e-05 0.00010199312 -0.00055414956 -4.0504488e-06 -0.000173306 0.0009316841
-6.4369204e-05 -0.00014089819 -0.0003829755 -0.00026948005 3.861295e-05 -0.0003280003 -0.0004141363 8.679654e-05
0.00094327005 8.0329555e-05 -0.00064844807 0.0004067287 0.00051423104 0.00058011437 -1.3699769e-05 -0.0008559072
