runs/FrankaCubeStack_01-19-58-34/nn/last_FrankaCubeStack_ep_600_rew_15.41818.pth (torch, 579011 bytes, 36 tensors)

value_mean_std.running_mean f8 [1]
00000000: 5140 7063 cab1 1540
5.423623613096496

value_mean_std.running_var f8 [1]
00000000: dc6c cadf aa8e 2d40
14.778647416553603

value_mean_std.count f8 []
00000000: 0000 0001 00c0 b241
314572801.0

running_mean_std.running_mean f8 [19]
00000000: e6f4 d663 a3d4 a73f 4067 84c0 8946 aa3f
00000010: 927e d80a de20 b7bf d23b 4f77 2ea9 eb3f
00000020: db54 ce90 e5a0 943f fee7 9e66 4130 74bf
00000030: 948f 783d be0d f13f c0de 0a7c 97ff 8dbf
00000040: 63f3 8c8a 9586 433f 906f ab82 49d3 75bf
00000050: f2ec f99f 3299 8b3f eaa1 31de b125 72bf
00000060: 11aa 8c15 4551 f13f b482 844b d612 c23f
00000070: 941c c344 d43f b2bf 0d4d 0c4d 2df3 cbbf
00000080: 94dc 81c3 17f6 babf b629 912b 18c7 963f
00000090: 4eba 7683 ecd2 973f
0.046544176042042015 0.051319412947306464 -0.0903452660063471 0.864402039553051 0.020145022357230907 -0.004928832504385026 1.0658552552422167 -0.014647658799148089
0.0005958776647286664 -0.005328452253447483 0.013475795275772449 -0.004430479809436319 1.0823412744308636 0.14119986235984572 -0.07128645590556665 -0.21835867178069926
-0.10531757853628881 0.022243859919663676 0.023265548252022143

running_mean_std.running_var f8 [19]
00000000: 8815 d862 e329 b03f 9bab 042f eaf8 a13f
00000010: fe96 ae87 1925 ba3f a2f1 59d5 9d23 a43f
00000020: 0562 f2ec 794e 983f 91be 7d60 df25 9c3f
00000030: 58da 91c9 3902 5f3f ab16 0439 54f2 af3f
00000040: e2c5 7c2e 72e8 b03f ce8f 4fd4 3f0d 783f
00000050: 0129 93d6 8f23 953f 4f91 dd4f 5787 993f
00000060: 1de8 aa04 1703 6d3f 7795 a991 a993 e83f
00000070: 53cf 788f 1e95 a83f 13ec 583c 33a5 ab3f
00000080: 3097 2b1a bb94 a73f e2b8 d446 745c 153f
00000090: 1698 01ad 90e8 133f
0.06313916361985694 0.03510219406083267 0.10212859690235729 0.03933423261057391 0.02373686321934267 0.027488222374300767 0.0018926204996013909 0.062395698509175666
0.06604684481569437 0.005872010548930674 0.02064347026024738 0.024930347680667094 0.0035415124487743325 0.7680251927346678 0.048012690557156866 0.05399475204145445
0.046056601471532566 8.14863176017175e-05 7.594473868408088e-05

running_mean_std.count f8 []
00000000: 0000 0002 00c0 a241
157286401.0

a2c_network.sigma f4 [7]
00000000: d51a 00c0 a447 c3bf 367c 02c0 c814 acbf
00000010: e657 a9bf 07b3 99bf ea86 10c0
-2.0016377 -1.5256238 -2.0388312 -1.3443842 -1.322995 -1.200776 -2.2582345

a2c_network.actor_mlp.0.weight f4 [256, 19]
00000000: 04f5 4b3d 4a72 65bc 74cb adbb 930e c2bd
00000010: 8ec1 ff3e 3aa7 fcbe 0b52 033e 7263 f5bd
00000020: 663f 33bc 1868 d2bd 30d6 d6be 0247 9a3e
00000030: bf0c f7be d92d da3d 848f cfbc 8e7f dbbd
00000040: 7a1c 0b3e 736a 933a b023 f43d 5760 e53c
00000050: bf3c 5cbd 88eb ecbc 99ec cfba 3a72 913e
00000060: 5dd0 e93e dca4 453e 76c9 a1bd 11ff fc3d
00000070: 0d2d ec3c f240 62bd da8d b4be 48cb 4cbe
00000080: 888c 46bc c835 32be 465d 153e 72a9 b03d
00000090: a760 1e3e 171b 603d 1444 8fbd 54ea c3bb
000000a0: ed4f 793c 5f74 193c 55ba 28be 29ba f03e
000000b0: 8fed 0fbe 7017 35bd 3178 84bd cf25 9c3e
000000c0: d783 243e 6bd7 c0be d173 06bf 47d1 ec3d
000000d0: c081 95bb f987 883c bc1a 83bd b804 2abd
000000e0: d70f f3bc 28df 2a3d 3edd d2bc da25 8ebc
000000f0: 3d6a 743d 7b51 0bbf e126 0cbd 654b 893e
00000100: 98a8 bebd 48fc eebd 09ab f9bd 8e0b 003f
00000110: e457 e1bc d2ac c1be 401a 953c 80e1 e9bd
00000120: 2f4f 65bd ef4e 023e c79c 163e 007f 06be
00000130: 0586 40bd cb50 0c3e 97ae f3bd 7f39 1f3d
00000140: 03c7 00bf 4bcd 1fbe a965 533e 8237 cbbd
00000150: 0145 3abe 92d9 243e 26d3 f13d 2324 b6bd
00000160: 23e8 8a3d 06e4 d5bd 07a7 38bc a119 863e
00000170: 2478 32bd c0dc 8a3d a534 1ebe 1090 c13b
00000180: 07b2 333d c4fc b43c 2d71 bc3c 2085 02be
00000190: 6191 c13d 5ce3 743d bf8e 06be bc49 7cbd
000001a0: ef41 61be 150b abbe 6b70 323c 062e d63c
000001b0: 20ec efbd 5045 1e3e cf51 ebbd 2651 fa3d
000001c0: 4814 7d3e 44b6 07bc 649a ee3d 7bd7 b63d
000001d0: f257 4fbc 97d7 23be 6a26 d6be 1f0c 893e
000001e0: e6d6 05bc 9136 d4bc aede 11be 5b5a b23d
000001f0: 33dc ba3d 91b7 97be 2c8b d8bd 49ab 103c
00000200: 61f6 683e 8710 cbbd a90c 26be 370f 233e
00000210: 8b0d 7fbd 46d0 58bd 0e23 703d c05f 003d
00000220: 23bf e6bd ef50 9abc a56e ff3e e263 963d
00000230: c726 8a3c 58d9 373e 50ce 8d3d 13e9 e53d
00000240: dc40 17bf ef96 643e c288 ab3c bf81 95bd
00000250: 3420 303e 8ca1 0f3c 9223 a2bc b8ce 40bd
00000260: e9f2 a03c df9d 913b 7d27 a8bc 84ed d2bd
00000270: 50df d6be 68db dcbe ae12 013e 0474 2e3e
00000280: 8761 09be 5c16 013e 091c 1c3f e2c8 553e
00000290: 5c7b a4be 8e54 9c3d 9516 a53c 1b5f 0a3d
000002a0: 0da7 a63a 9a08 87bd 63e5 5d3d 8831 a3be
000002b0: a429 633d 830c c33d bfba 903f 89d5 a73e
000002c0: 62f9 8cbe b421 08be 5596 01be 5bb5 803b
000002d0: 30fe 88bd 4e03 1fbe b57d 333e 6c17 123f
000002e0: 56d9 27bc 3d4e ffbd 4a2d 48be d05d a3bc
000002f0: 6971 8ebd 223b 003e e824 ba3c 9590 3a3d
00000300: dfe3 733d 8e39 653c 46ea b9be dd3a c93d
00000310: b902 e53d cc53 d4bd 2127 6bbd a5b4 d03d
00000320: da91 27bd 1f1b 84bd fea0 fb3e e2de 9abd
00000330: 5ad5 ab3c 62da dbbe 9455 3a3e a88e 9f3e
00000340: 2ec3 853e 0420 1bbe 3e01 c0be 200c a9bd
00000350: d8ad 513e cdcb 953e 7ba8 f33e 9d03 203e
00000360: 19b7 883d d371 b73d 4226 42bd b5ef febe
00000370: c986 ddbe 8dc9 1fbb 6cd8 14be b8f9 a4bc
00000380: 395e fbbd 2c0a 59bd 7ec9 cebc cfd7 2bbd
00000390: 35de 87bc 85cf 043e 30a6 b03c 6fce a53d
000003a0: 7562 88bd 61dd 3dbe 5174 5abf 85c7 0dbe
000003b0: ccfc b1bd aabe 8d3f a364 11be 09da 563e
000003c0: 34b1 e93e 35dc f13d 19b2 033d c48d acbd
000003d0: b9a8 413d d5df c7bd 8f7c c03d f914 6c3d
000003e0: 05a7 22bd 7f31 eabd 4944 bebd dea0 9c3e
000003f0: 2c5c f9be 33b8 6e3e 37f2 993d 72e9 edbc
0.049794212 -0.014004299 -0.0053037945 -0.09475436 0.49952358 -0.49346334 0.12824266 -0.11981858
-0.010940408 -0.102737606 -0.41960287 0.301323 -0.48251912 0.10653276 -0.025336988 -0.107176885
0.13585082 0.0011246934 0.11920869 0.02800004 -0.05376887 -0.028920904 -0.0015863358 0.2840746
0.4566678 0.1930117 -0.07899754 0.123533376 0.028830076 -0.055237718 -0.35264474 -0.1999942
-0.012118466 -0.17403328 0.14586362 0.08626069 0.15466557 0.054713335 -0.06995407 -0.005978862
0.01521681 0.009366124 -0.1647733 0.4701703 -0.14055465 -0.044211805 -0.06468237 0.30497596
0.16065918 -0.3766435 -0.5252047 0.11563354 -0.0045625865 0.0166664 -0.064015836 -0.041508406
-0.029670639 0.041716725 -0.025740262 -0.017352033 0.05967163 -0.54421204 -0.034216765 0.26815334
-0.093095005 -0.116692126 -0.121908255 0.5001763 -0.02750773 -0.37827164 0.018200994 -0.11419964
-0.05598372 0.12725423 0.14708243 -0.13134384 -0.04700281 0.13702695 -0.11898535 0.038873192
-0.5030367 -0.15605657 0.20644249 -0.09922697 -0.18190385 0.16098621 0.118078515 -0.08893611
0.06782558 -0.10443883 -0.011270291 0.26191428 -0.043571606 0.06780386 -0.1544977 0.005907066
0.043870952 0.022093184 0.023003185 -0.12746096 0.09451557 0.05978714 -0.13140391 -0.061593756
-0.21997808 -0.33406892 0.01089106 0.026144993 -0.11714959 0.15456128 -0.11490213 0.12222509
0.24714768 -0.008283202 0.116505414 0.089278184 -0.012655245 -0.1600021 -0.41826183 0.2676706
-0.008168912 -0.025904926 -0.14245102 0.0870864 0.09124031 -0.29632238 -0.1057342 0.0088299
0.22750236 -0.09915262 -0.16215767 0.15923773 -0.062268775 -0.052933 0.05862718 0.031341314
-0.11266925 -0.01883742 0.49889103 0.0734327 0.016864194 0.17954004 0.069241166 0.11226096
-0.5908334 0.22323202 0.020939235 -0.07300138 0.17199785 0.008766543 -0.019792352 -0.047072142
0.019647079 0.0044438685 -0.020526642 -0.10299209 -0.4196725 -0.43136144 0.12604782 0.17036444
-0.1341611 0.12606186 0.6098028 0.20877412 -0.32125366 0.07633315 0.02015237 0.033782106
0.001271458 -0.065934375 0.05417384 -0.31873727 0.055459633 0.09523871 1.130699 0.32780102
-0.27534014 -0.13294107 -0.12655003 0.0039278693 -0.066891074 -0.15528604 0.17528422 0.5706699
-0.010244688 -0.12466095 -0.19548526 -0.019942194 -0.06955225 0.12522557 0.022722676 0.04554804
0.059543487 0.013990773 -0.3631155 0.098256804 0.1118216 -0.103675455 -0.057410363 0.10190705
-0.04091058 -0.064504854 0.49146265 -0.07562043 0.020975757 -0.4294005 0.18196708 0.31163526
0.26125473 -0.15148932 -0.37500948 -0.08254266 0.20476472 0.2925705 0.47589478 0.15626378
0.06675548 0.08957257 -0.047399767 -0.49792257 -0.43266895 -0.0024381608 -0.14535683 -0.020138606
-0.12273831 -0.052988216 -0.025242563 -0.041953858 -0.016585449 0.12969787 0.02156362 0.08096015
-0.06659404 -0.1854148 -0.85333735 -0.13845642 -0.08690795 1.1073811 -0.14198546 0.20981611
0.45643008 0.11809579 0.03215227 -0.08425477 0.047280047 -0.097594894 0.09398758 0.05763719
-0.039710063 -0.11435222 -0.09290368 0.30591482 -0.48703134 0.23312454 0.07516902 -0.02904198

a2c_network.actor_mlp.0.bias f4 [256]
00000000: 991b 98be 708b 7bbc beeb 80be 9a71 09be
00000010: 8800 553e 7341 82bc 1791 a3be 2c23 0d3d
00000020: a284 ebbd 28dd d53d a73b 953c 25c7 86bd
00000030: 5f9d 903e 3417 63be dc8c 74be 6ea7 a9be
00000040: 6d17 913d c865 e2bc f4b6 3ebd cbc6 f8be
00000050: 01dd 69bd 1807 4a3d f994 7fbd c194 93be
00000060: 9317 61be 82c1 3e3e 35d0 fa3b 9d57 66be
00000070: 4f90 943d 2b14 18be cde8 42be 61ca 203e
00000080: 8f54 eebd 606d 38be 94b3 243e 8ceb 1abe
00000090: 4fe7 92be ae82 acbd b5a6 a23e c365 1d3e
000000a0: 8bd4 c9be eb62 71be 8165 c1bd 858b b3be
000000b0: b902 aebe a952 e0bd d75b c63d c030 84be
000000c0: 2cd0 cb3d e78d ea3d ad20 63be 347b 97be
000000d0: c48e 3f3e c04d 0e3f f564 26bd b97c d23d
000000e0: cae7 0abe 2b04 e23d 32f5 c5bd 8662 70be
000000f0: 95a8 f5bd 749d c5bd cd71 7abd 0d64 57be
00000100: 3ed6 96be 7770 7abd b2ce 1abe 4a3d 1dbe
00000110: 7567 473d c868 29be 7a88 3ebe 12bf 81be
00000120: baf3 f63d 1989 aebd 4d68 3e3d 581b 67be
00000130: 6680 213d 1474 f23c d573 9abe db21 78bd
00000140: 982a 633e 01b4 1fbe f83b ddbe cb9b 7bbe
00000150: e05f 48bd 6548 0cbe 4d0e b0bd 7f16 943e
00000160: 2919 803c 219e 143e cf8e efbd 00dd 443e
00000170: b40d a73d 57dc 583e 486d ad3d d6cc 103e
00000180: 1f6a 9b3d d12f 633e 90ab 993d ec5f 73be
00000190: e868 353e 7ceb f73d 1d20 5c3d 6a76 733d
000001a0: edfb a23d f0f8 6d3d b4ce 363e eb3e 4e3e
000001b0: 5423 1b3e 1993 4ebc 97d0 afbd c9c5 50bd
000001c0: 5aac 15bc ae33 4c3e f14e 40be 3301 b93d
000001d0: 2b2b c9be e34b b6be aa31 cbbd b79c 563e
000001e0: c183 97be 69e3 afbe 0dae 553c e3ea 69be
000001f0: 2c66 3e3e c0d9 a8be 05e6 80be ce3c 91bd
00000200: 0563 12be 9304 28bd 6b44 343e 01a9 803e
00000210: f66a 80be f5cf 60bd 1f86 d23d 71c5 93be
00000220: 05cc 4bbd 0ebe 0dbe e4b9 083e e2c6 f13d
00000230: 72d8 a63c bb33 86be 7556 a8be 0179 18be
00000240: af30 17be 4556 61be df63 c33d 0b8e 153e
00000250: 0546 aebd a94a d5be de5c efbb 60c2 e93d
00000260: 6b27 fc3d 8274 18be 10c0 65be 6532 63be
00000270: fb02 f0bc 87a0 eb3d 434e 19be 5061 96be
00000280: 6ddf 9ebe 9d8f afbe 5ab7 003e bfc4 96bd
00000290: 1648 92bd 74ea 8ebe 29ec 8dbd 2af4 783e
000002a0: 939a 65be e7e0 a7bc 07e7 b83d 1af4 17bd
000002b0: f70a eabd 25e5 c0be 8ba3 efbd cc56 9a3d
000002c0: 7a5c dabc 2a4f 8e3e 5695 28be 890f 78be
000002d0: 8e30 0b3e 5937 cfbd 4dd8 833b 014f 14be
000002e0: 2dea 203d 4933 e93c 055a 3fbe 5de3 cb3c
000002f0: bd64 9e3e 5ea1 eabd 8dd1 963d 7599 1bbf
00000300: 897a a0bd 78df 2cbc b1da 3bbd 4eb1 7e3d
00000310: 33f8 ffbd 11df 30bd 2f11 ef3c 85a0 c9be
00000320: 9621 a1be d305 f4be 4b11 96bc abb7 83be
00000330: 3bf2 933d f9c5 703d a5ed 4fbe bbc9 a33b
00000340: f969 113e 16f5 d9bd 00b7 8abe b45c 963e
00000350: fef3 50be 6bc1 713e 2e29 4ebd 230a 503b
00000360: ac2f e43c 0bed 2d3d 75e7 cbbb 1a68 13bd
00000370: 782a 963d f774 9d3d 5d61 05be 6c6e 3d3d
00000380: 28ef c7be 71bb 91bd 1137 d9be 9471 62be
00000390: 8abf 0abe 912d 45be 52a1 033d 8080 143e
000003a0: 1752 95be fc14 babe b71a 403c f1d6 263e
000003b0: 354b 283e b927 7cbe d534 b8be 198c 84bd
000003c0: bfeb 99bd a5b3 33bd d57c 8dbe 9b35 58be
000003d0: e6fd 07be 7b93 aabe ad83 d1bd 5a37 b9bd
000003e0: adca 1d3e 3466 65be f698 8bbe b15a a8bd
000003f0: 8ea1 173d 75b3 e1be fa01 493e 615d efbc
-0.29708555 -0.015353069 -0.25179857 -0.13422242 0.20800984 -0.01590035 -0.31946632 0.03445737
-0.11499907 0.10442573 0.018216921 -0.065809526 0.28245065 -0.2217682 -0.23881859 -0.3313555
0.07084546 -0.027636424 -0.046561196 -0.48589167 -0.05709553 0.04932317 -0.06239793 -0.28824428
-0.21981649 0.18628505 0.0076542147 -0.2249436 0.07254087 -0.14851443 -0.19034119 0.15702201
-0.11637222 -0.18010473 0.16084129 -0.15128917 -0.286921 -0.08423363 0.31767812 0.1537085
-0.3941997 -0.2357289 -0.094431885 -0.35067382 -0.33986452 -0.10953266 0.09685486 -0.25818443
0.09951815 0.11452847 -0.22180434 -0.29586184 0.18706805 0.5558739 -0.040623624 0.10277695
-0.13564983 0.11035951 -0.09665908 -0.23475084 -0.11995045 -0.096491724 -0.061143685 -0.2103426
-0.2946033 -0.06114241 -0.1511791 -0.15355411 0.04868265 -0.16543877 -0.18606749 -0.25341088
0.12058206 -0.08522243 0.046486188 -0.22569025 0.03942909 0.029596366 -0.30166498 -0.060579162
0.22184217 -0.1559601 -0.43209815 -0.24571149 -0.04891956 -0.13699491 -0.08596478 0.28923413
0.015636997 0.14513446 -0.116971605 0.1922493 0.081569105 0.21177803 0.08468109 0.14140639
0.075886 0.2218621 0.07503426 -0.2376706 0.177158 0.12105462 0.053741563 0.0594391
0.07958207 0.058098733 0.17852288 0.20141189 0.15150195 -0.012608313 -0.08584707 -0.050969873
-0.00913533 0.19941589 -0.18780114 0.09033432 -0.39290747 -0.35604772 -0.09921582 0.2095822
-0.29592708 -0.34353188 0.013041985 -0.22843508 0.18593663 -0.3297863 -0.2517549 -0.07091676
-0.14295585 -0.041019987 0.17604224 0.2512894 -0.25081605 -0.054885823 0.10279488 -0.28861573
-0.049755115 -0.13842031 0.13352162 0.11805512 0.020366881 -0.26211342 -0.3287846 -0.1488991
-0.14764665 -0.22005565 0.09540533 0.14604966 -0.08509449 -0.41658524 -0.007304772 0.11414027
0.12312206 -0.14888194 -0.22436547 -0.22187193 -0.029298296 0.115052275 -0.1497126 -0.2937112
-0.31029835 -0.34289256 0.12569943 -0.07361745 -0.071426556 -0.2791325 -0.069298096 0.24311891
-0.22422247 -0.020492984 0.0902844 -0.037098028 -0.11427873 -0.37674823 -0.11701115 0.075360864
-0.026655424 0.27794772 -0.16463217 -0.24224676 0.13592741 -0.101179786 0.004023588 -0.14483263
0.039285827 0.028466837 -0.18686683 0.024888689 0.30936232 -0.114565596 0.073641874 -0.6078103
-0.07835872 -0.010551326 -0.045862857 0.06218081 -0.12498512 -0.043181483 0.029182998 -0.3938028
-0.31470937 -0.47660694 -0.018318793 -0.25726065 0.07223936 0.05878255 -0.20305498 0.0049984134
0.14200582 -0.106424496 -0.27092743 0.29367602 -0.20405576 0.2360894 -0.05033224 0.0031744323
0.027854763 0.04246239 -0.00622266 -0.03598795 0.07332319 0.07688325 -0.13025422 0.046247885
-0.3904965 -0.0711583 -0.42424825 -0.22113639 -0.13549629 -0.19255663 0.03213627 0.14502144
-0.29164192 -0.36344135 0.011725119 0.16292931 0.16434939 -0.24624528 -0.35977808 -0.06472034
-0.07515668 -0.043872494 -0.27634302 -0.21114199 -0.13280448 -0.33315644 -0.10230193 -0.090437606
0.15409346 -0.22402269 -0.27265137 -0.08220423 0.037019305 -0.44082227 0.1962966 -0.029219331

a2c_network.actor_mlp.2.weight f4 [128, 256]
00000000: 02d7 623c 6216 063e 967c 83bd 9cf1 bd3b
00000010: c4c4 b1bd e645 9fbe b942 093e 5843 143d
00000020: aaba db3e 9740 efbd 121f 18be 4fd7 29be
00000030: b72f e8bd ec18 5cbd 6d8a 9fbd 7c45 663e
00000040: 0486 3ebe 8763 06bc 8514 163e 1a35 273c
00000050: 427b 273e b807 24be 37a2 973d 6cbc 833d
00000060: e5ab 5dba 0d38 c1bc 0f8b 82be 3dfc 37be
00000070: dac8 d7bd 36dd a03e c66d 5d3d 6987 02be
00000080: 32bd 17be 63b1 1d3e ef89 51bd 7dd0 dbbd
00000090: 711c 96be dc7e 3dbe d085 8dbd 434d 753c
000000a0: c59f e6bd db99 18be f3c1 5dbd 0bbb a43d
000000b0: 61a0 70bc 889f ac3d 0cc5 7b3d 9a8e 4bbd
000000c0: 848a 3abd 3f53 bdbc dd31 b6bd 6416 27bc
000000d0: a304 8fbe ac93 453d 738a 4abe a6dd 98bd
000000e0: 2a64 473e 6d3e 9c3d 13bf d3bc 47cd 7f3c
000000f0: e15d 8c3d 6208 36be 7a87 9cbc 6efb 7d3d
00000100: ea64 da3e fe4b 363e 7c3a 91bd ba13 18be
00000110: ec2b babd 5e5a 8abe 3efb 11bd d6b2 3d3e
00000120: 8cf2 c3bc aa8c 80bd 17d2 11be 97a9 cebd
00000130: e942 45bd 711b 9d3d 60af 35be f5a8 8f3d
00000140: 760e 35be b1c4 833e 6956 86bd 6a5c 0fbe
00000150: 98b3 86bd 8bf4 783d b428 41be c79f 733e
00000160: 9f09 6fbd ae3c bd3d 26ac 11bd d548 d0ba
00000170: cd78 013d cdd8 fcbd 2e67 21be 079d e7bd
00000180: 6ecd ad3d b2c1 103d f6ce 673e 482d 8d3d
00000190: 1651 cc3d 1482 0f3e 1088 113d 6ac2 02be
000001a0: 4be2 24bb 3e46 eabd 9dfb 37be 3a3a dd39
000001b0: cb89 f63d 6611 de3c d985 9c3e b9ae 053d
000001c0: 94c5 69bc 7d2c 363d 7ff5 313d 225b 93bc
000001d0: e41c b83e 995d cf3d b852 4c3d b614 3cbe
000001e0: deeb fbbd 86d5 0b3e ebfd ee3d b714 8cbe
000001f0: 3b03 14be 7ba6 8a3d 0f90 12bd be78 433d
00000200: 31a0 27bd 375f 943d 58ff dabd 863a 29bd
00000210: a75d 103d 1f9b ecbc 6dd8 61be 76f7 8b3e
00000220: 9490 873e d665 06bc 0327 a03d 78ec 02bd
00000230: e8bb 48bd 8c5c 9e3b 93fa b13d 497c 70bd
00000240: 6a8d 56be c4bb 10be 6d69 003c c498 273e
00000250: 52da 183e 742b 09bd 0880 d53a ee10 4e3d
00000260: dcce 5f3c 8950 cb3d 8c2b 143e e319 72bd
00000270: d4ef a0bd 9e05 92bd b547 713d 6e27 99bd
00000280: 7051 8abc 2e7c 22bc d729 173d c9f7 88bd
00000290: d49e bcbd c529 ec3c 1ece 87bd 90e5 e93d
000002a0: afe5 c63d 98b1 033e 5003 7ebd 2f22 623d
000002b0: 659b fcbc 3be2 683e 7d37 a3bd c8bc dfbd
000002c0: 9ac9 643c cdfd 05bd 2349 98bd 1427 9abd
000002d0: 5871 18be 48b5 7c3c 057e ea3d 997e 913c
000002e0: 4178 9ebd 5586 ec3c d567 463e b008 2ebe
000002f0: d838 ffbd b51a 13bd 9f75 cabd a479 f33d
00000300: d28f 65be 21e2 17be 4c1f 04be e771 4e3d
00000310: 470a e43b 6de5 07be 8b14 f43d 4c99 543e
00000320: d91c 12be 32d9 1bbe 8c59 d2bd fb54 af3c
00000330: 3b56 08be 5722 a8bd 9d60 1cbe 3b1d 2abe
00000340: be80 c8bd e531 283e 70cb fb3d 4ca6 483e
00000350: 748e 05be 44c4 86bd c799 323c b486 613e
00000360: 0ecb f13d 4161 f0bd eab7 d83e 5e84 1dbe
00000370: eb07 7ebd 2341 38bd 509f 86bd 5124 a1bc
00000380: b973 593e 8c40 2dbe 6583 8f3e 1e62 86bd
00000390: 0975 37be 6152 12be 69c3 93bd f4af 39be
000003a0: 9584 88bd b65c 1dbe c79b 2bbd 4257 e03d
000003b0: 005e 20be 71aa ecbc 62ab 9ebd abb8 e43c
000003c0: 67c6 0b3d 481a f53d 2fe3 23bd f466 61be
000003d0: d342 fabd 7658 a1be d6e3 7d3d b2aa 553e
000003e0: b61e 3dbd 97d2 ba3e fc10 653e 7432 49bd
000003f0: 1763 3c3e 0b76 e33d 1c91 f2bc 49a9 02bd
0.013845207 0.13094476 -0.06420247 0.0057966243 -0.08680108 -0.31108016 0.13404359 0.036197037
0.4291585 -0.116822414 -0.14855602 -0.1658604 -0.11337226 -0.053734705 -0.077900745 0.22487444
-0.1860581 -0.00820244 0.14656265 0.0102055315 0.16355613 -0.1601857 0.07403987 0.06432423
-0.0008456095 -0.023586297 -0.25496718 -0.17967315 -0.10536356 0.3141877 0.054059766 -0.12746967
-0.14818266 0.15399699 -0.051156934 -0.10733125 -0.29318574 -0.18505424 -0.06910288 0.014972034
-0.11260942 -0.14902441 -0.054140043 0.08043488 -0.014686675 0.08428866 0.061467215 -0.049696542
-0.045542255 -0.023110984 -0.088962294 -0.010198209 -0.27933225 0.048236534 -0.19779377 -0.07464151
0.19471803 0.07629094 -0.025847947 0.015612907 0.068538435 -0.17776635 -0.019107569 0.06200736
0.42655116 0.17802426 -0.07091233 -0.14851275 -0.09090409 -0.2702207 -0.035639994 0.18525252
-0.023919366 -0.062768295 -0.14240299 -0.100909404 -0.048159514 0.0767125 -0.17742682 0.07014648
-0.17681298 0.25736 -0.0655945 -0.14000097 -0.065772235 0.06078009 -0.18863183 0.23791419
-0.058358785 0.09240089 -0.035564564 -0.0015890846 0.031609345 -0.12346039 -0.15762016 -0.113092475
0.08486448 0.035340972 0.22637543 0.06893402 0.099764034 0.14014465 0.03553015 -0.12769476
-0.0025159295 -0.11439179 -0.17967077 0.00042195787 0.12038001 0.027107906 0.30570868 0.03263733
-0.014268298 0.04447602 0.043447014 -0.017987791 0.35959542 0.10125274 0.049883574 -0.18367276
-0.123008475 0.13655671 0.11669525 -0.27359554 -0.14454357 0.06770035 -0.035781916 0.04772257
-0.040924255 0.07244723 -0.10693234 -0.041315578 0.035245564 -0.028882561 -0.22055216 0.27337235
0.26477492 -0.0082029905 0.07819941 -0.031963795 -0.049007326 0.00483281 0.08690371 -0.058712278
-0.20952383 -0.14134127 0.007837635 0.16366869 0.14927033 -0.033488706 0.0016288767 0.050309114
0.013660159 0.0992747 0.14469737 -0.05910672 -0.078582436 -0.07129978 0.058906276 -0.07478224
-0.016884536 -0.009917302 0.036905136 -0.06687886 -0.092099816 0.028828511 -0.066311106 0.11420739
0.097117774 0.12860715 -0.062014878 0.05520838 -0.030835817 0.2274255 -0.07969568 -0.10924679
0.013964081 -0.032712746 -0.07435825 -0.07526985 -0.14886987 0.01542408 0.114498176 0.017760562
-0.0773778 0.028872648 0.19375546 -0.16995502 -0.12462014 -0.03591414 -0.09885716 0.118884355
-0.22418144 -0.14832355 -0.12902564 0.050401594 0.006959233 -0.13271113 0.11917981 0.20761603
-0.14268817 -0.15219572 -0.10270986 0.021402827 -0.13314144 -0.08209675 -0.1527123 -0.16612713
-0.097901806 0.16425283 0.12294662 0.19594687 -0.13042623 -0.065804034 0.010900921 0.22024041
0.11806308 -0.117373 0.42327815 -0.15382525 -0.06201927 -0.044983994 -0.06573355 -0.019670637
0.21235551 -0.16919154 0.28029934 -0.06561683 -0.17915739 -0.14289238 -0.07215006 -0.18133527
-0.06665913 -0.15367398 -0.041896608 0.10954143 -0.15660858 -0.028889867 -0.077475324 0.027920088
0.034124758 0.119679034 -0.04001158 -0.2201193 -0.12219777 -0.31512803 0.06198486 0.20865896
-0.046171866 0.36488792 0.2236976 -0.04912038 0.18397175 0.11106499 -0.02961021 -0.031899724

a2c_network.actor_mlp.2.bias f4 [128]
00000000: bb2a eabd f594 0bbe dbea c2be b3c6 92be
00000010: d13c 63be 7657 85be 4b41 aebe b8b3 55bd
00000020: 8b06 15bd fa60 8dbd 8424 8cbd 43a9 febe
00000030: 2a2a fdbd fb31 c3be fc98 a1be 937e 18bd
00000040: 6a28 b7bd 48a7 08bd e567 2f3d 04c0 e0bd
00000050: 2aa7 77be f9a9 003e 8ebc c43c e6ae f5bd
00000060: 862e 98bd a142 54be dc0e 5abc 76a2 d6be
00000070: 74f7 113d 3f14 1d3d 7c14 a7bd a33e 96be
00000080: 19ad 95be 986d 7e3d 7287 81bd 3917 38be
00000090: 3e21 0abe 32dd d8be e6a9 b73c 6a41 8f3d
000000a0: 52bc a9be 992e 14bc 5971 09be 70cd bcbd
000000b0: d5af 39be e4b8 01bf d780 08be a19e 7abd
000000c0: b4b9 e3bc d432 72bb c433 58bc 8f8a 24bd
000000d0: 6e15 693a 264e 2cbe 2305 a9bc e5c6 99be
000000e0: 1eff a8bd 452a 5b3e 149f dabd cb33 28bd
000000f0: 670e acbe 5026 e2bd 69ad 82bc bcf5 adbe
00000100: 184b 45be a12f 9cbe be6b 73bd e6ed 60be
00000110: 5723 d73d 8faf b7bd e2f5 5e3b 259b 93be
00000120: aede 3abe 6899 8fbe a1b3 f03d 01db e0be
00000130: d8d1 9a3d da3d f5bd 263e ccbe f342 0bbe
00000140: e2b7 eebd 9b11 8dbe 098b ddbd c01a aabd
00000150: 5455 0abd 64e6 15bf a490 c7bd cc43 8cbe
00000160: 9679 40be a7af 113e a75d e0bc a57b abbb
00000170: c2f8 7fbe bfd7 9fbc bb95 fdbc 3299 9fbe
00000180: d084 80be 886d 2dbe 7646 95bd c648 90bd
00000190: 3f20 1abe b46a 1d3e 1757 17be bff4 10bd
000001a0: 63cc 9cbe ed5c 83be 35e4 aebe ad7f 8abe
000001b0: d3b6 44be e22d f1bd f08b 2ebe 4094 a7be
000001c0: 7def 88bd 380d 0ebd 0a8c 45be dacb 9bbd
000001d0: 70b6 28be c500 093c 6865 db3d 9669 b4be
000001e0: 17d6 38bd dc49 f8bd a1d0 99be dfe9 813e
000001f0: a7a4 a9be ef9e d2be 7dd9 aabe 1ed1 6d3c
-0.114339314 -0.13631041 -0.38069806 -0.2866722 -0.22191168 -0.2604329 -0.3403419 -0.052173346
-0.036383193 -0.069032624 -0.06842902 -0.4973851 -0.12361558 -0.3812407 -0.3156203 -0.037230086
-0.08943255 -0.033362657 0.04282369 -0.10974124 -0.24184862 0.1256484 0.024015691 -0.1199625
-0.07430749 -0.20728542 -0.013309207 -0.41920823 0.03563638 0.038349386 -0.08158204 -0.29344663
-0.29233626 0.062116235 -0.06324662 -0.17977609 -0.13489243 -0.4235626 0.022419881 0.069948986
-0.3315149 -0.009044313 -0.13422145 -0.092188716 -0.18133481 -0.50672746 -0.13330398 -0.061186437
-0.027798511 -0.0036956565 -0.013195936 -0.040171202 0.0008891438 -0.16826686 -0.020632332 -0.30034557
-0.08251785 0.21402843 -0.10674873 -0.04106502 -0.33604738 -0.11042464 -0.015951829 -0.33976543
-0.19266927 -0.30505088 -0.059428923 -0.21965751 0.105047874 -0.08969032 0.003402107 -0.28829303
-0.18249008 -0.28046727 0.117530115 -0.43917087 0.07559556 -0.11974688 -0.39891165 -0.13599758
-0.116561666 -0.27552494 -0.108175345 -0.083058834 -0.03377278 -0.58554673 -0.09744385 -0.27395475
-0.18796381 0.14227162 -0.027388407 -0.0052332454 -0.24997237 -0.019512055 -0.030955186 -0.31171566
-0.25101328 -0.16936314 -0.0728883 -0.070451304 -0.15051363 0.15372735 -0.14779316 -0.035389658
-0.30624685 -0.25656834 -0.34158483 -0.27050534 -0.19210367 -0.117763296 -0.1704557 -0.32730293
-0.06686304 -0.034680575 -0.19291702 -0.07607241 -0.16475844 0.008362 0.10712701 -0.35236806
-0.045126047 -0.121234626 -0.30041984 0.25373742 -0.33133432 -0.41136882 -0.33369055 0.014515189

a2c_network.actor_mlp.4.weight f4 [64, 128]
00000000: 464f ae3a dd4b 9fbd ac86 283d adfa f439
00000010: 0fa3 b73c 5f05 ba3d 14a6 adbd f103 4fbc
00000020: 67f0 87bc 690f 8bbd 9b4c 963d 5bb3 b7bd
00000030: af13 95bd fd02 803d dd8d df3d 8201 28be
00000040: 507b 263d 4e0d 47bc ce79 a1bc 4068 f83d
00000050: 7d3c d43c 303b 3dbe 84cb ecbb 836d f23d
00000060: 98ef cdbc 3905 e83c bdf8 8d3d 1fa2 0f3e
00000070: 5b85 e4bd e75a d2bc dc99 36bb e0a9 483e
00000080: d181 13be aa73 383d 7486 603d 6788 bbbd
00000090: 2055 bc3d e144 a7bc ce6b 563d 0ad6 95bd
000000a0: 7b04 62bd 5f6f 05bd 9167 92bd c836 883c
000000b0: 3a83 883c a05d b1bd 8699 00be 1338 53bd
000000c0: ac8e 6fbd 3edb 8b3d 45ce 9abd d281 4b3c
000000d0: b00b c1bc 56db dabc e365 04bc 3f4e 12bd
000000e0: 96bc b4ba b39b 1c3c fa7d 313d 5eda 173e
000000f0: a272 d03d 420d 35bd b64f dc3d a5ed febc
00000100: 8050 c23c 7a37 98bd c0b2 663c 792c 9abd
00000110: 6758 b7bc 4436 85bd 10cc 4fbd f429 29be
00000120: a40e 33be 888c 313e 4b22 aebd 966a ea3d
00000130: 3664 bdbd 6315 86bd 0e40 e23c 0b58 d33d
00000140: a1f6 e2bc 2faa be3c b96f 993c 1013 653d
00000150: 9a28 803d 50a7 71bd 1b7b b83b acd7 d03d
00000160: b4e1 f83d 9997 ff3d b854 0abd af5b 343d
00000170: 13d8 34bf cc70 22bc f548 943d b57e 08bf
00000180: 576c 563b 5f46 2cbb 76ba 9e3d 1c40 7ebe
00000190: e9b1 493d 98f9 debc a8d4 9abd 0b96 36bd
000001a0: 82e4 243c d4d4 a8bd 6d46 8b3d e46e c0be
000001b0: 4ecf 6ebd ecbb fc3b f9ef d13c 2231 6abd
000001c0: 26b9 233e 8b6a f93b e05d cc3d cc96 cc3d
000001d0: fdec 283d 9f10 b73d 0725 d23c c325 f43d
000001e0: 023a 97bd 6d66 57bd fa56 8fbd 1410 0b3d
000001f0: 5cba 3fbe 79ab b63d de79 c8bd 9f93 85bd
00000200: 5966 933d b7c0 73be 38c6 c73d 289e a1be
00000210: aa6d bd3c 9713 8a3d e572 863d 4c32 4abd
00000220: ee2b c5bd a329 aabc 5665 10be 5535 8d3c
00000230: 649a 13bd 1ec9 833d a758 00be 0249 a73d
00000240: 97f9 cc3d 6e05 2a3e 14c4 2f3d 8e07 4dbe
00000250: 2b09 883d 6962 73be f8c4 34bd 0149 e43d
00000260: e25a 763d 8470 61ba 26eb 0b3e 1591 ad3d
00000270: c1bf 633c ec4d 4e3a c4f0 00bc 0b63 723e
00000280: 85e0 103d f617 28bc 0713 0b3e c6f0 3d3e
00000290: e73e 4b3e c01e 903d 8e20 a33d b8e1 863d
000002a0: c494 12bd 8360 ddbd 8837 2dbe e48e febd
000002b0: 7f1c cf3d 8d0c 273d 69ee 91bd ddee 8c3c
000002c0: d9a9 a03d 027b aa3d 8142 ebbc 89b9 1fbe
000002d0: 29d0 2f3d 012a 13bd 23c8 9a3d 8dd0 7d3d
000002e0: 7708 1bbd 28de babd 399a 79bd a232 acbd
000002f0: 41b6 953e 0297 3c3e 7f52 e43d a100 e53d
00000300: 9de1 1b3e b101 ca3b 19ad 93bd 7375 00bd
00000310: 2c7e 2f3d 67ed a53b e536 113e 63ad e0bc
00000320: a0f7 26be e250 303e b55e a5ba 40b4 073e
00000330: 9b68 8c3d 8863 a9bd 622f 5e3e a5e5 91bd
00000340: 2e5c 253d 1ad8 19bc 2795 c63c 96b8 13bc
00000350: 9245 be3d cd4b f9bd 00e9 af3d cf59 5a3d
00000360: a7f8 203e 0b94 8c3d de15 3ebe 02e2 9b3d
00000370: 4268 9abd 3648 de3d f06e 043e ab89 133d
00000380: b65d 40be a729 a93d 22ae bfbb 2c75 99bd
00000390: e5ff 923d 8302 543d 9af5 653d 6d13 07bf
000003a0: 126e e6bd b72d 9cbe 8b6b 84bd 715c debd
000003b0: d015 81bc f3a8 873d eb70 c93d 69d7 8abe
000003c0: c31d 763e 54d0 49bc 76bd fdbd e7d0 343e
000003d0: 35b0 5abd 1889 71bd 44a9 d4bd 89fd a33d
000003e0: 2fd7 51bb 64f4 503d 35d4 08be bbc9 26be
000003f0: 54f7 1bbe 9f67 14be 5aa2 693d 3a60 efbc
0.0013298772 -0.07778142 0.041144058 0.00046726075 0.02241662 0.09083056 -0.084789425 -0.012635217
-0.016594125 -0.06790049 0.0733883 -0.08969756 -0.07279145 0.0625057 0.1091573 -0.16406825
0.040644944 -0.012149168 -0.019711401 0.12129259 0.02590775 -0.1847961 -0.0072264094 0.11837294
-0.025138661 0.028322803 0.06932209 0.14026688 -0.11158248 -0.025678111 -0.0027862703 0.19596052
-0.1440499 0.04503218 0.054815724 -0.09156876 0.09195924 -0.020418586 0.052348904 -0.07316215
-0.055180054 -0.032576915 -0.0714866 0.016627684 0.016664136 -0.08660436 -0.12558565 -0.05156715
-0.058485672 0.068289265 -0.07558874 0.012421088 -0.023565143 -0.026715916 -0.008080932 -0.035719153
-0.0013789113 0.009558606 0.04333303 0.14829394 0.101781145 -0.044202097 0.10757391 -0.031119177
0.023720026 -0.07432456 0.014080703 -0.07528014 -0.02238102 -0.06504491 -0.05073172 -0.1651991
-0.17486054 0.17338765 -0.085026346 0.11446111 -0.09247629 -0.06547048 0.027618434 0.10319527
-0.027705492 0.02327451 0.018730031 0.055926383 0.06257744 -0.058997452 0.0056299097 0.10197386
0.121524245 0.12480087 -0.0337722 0.04403275 -0.70642203 -0.009914588 0.07240478 -0.5331834
0.0032718384 -0.0026287062 0.07750408 -0.24829143 0.049241934 -0.027218625 -0.07560092 -0.044576686
0.010064246 -0.08243719 0.06800542 -0.37584603 -0.05830317 0.0077128317 0.025627123 -0.057175763
0.15988597 0.007611578 0.09978843 0.099897 0.041241635 0.08938717 0.025652422 0.11921265
-0.07384111 -0.052587915 -0.06999011 0.03395088 -0.18723434 0.089194246 -0.09788869 -0.06522297
0.07197256 -0.23803984 0.09754604 -0.31565976 0.023123581 0.06742018 0.06564883 -0.049364373
-0.096275195 -0.020771807 -0.14101157 0.017237345 -0.03603591 0.064348444 -0.12533818 0.08168222
0.10008543 0.16603634 0.042911604 -0.20022413 0.06642374 -0.23768009 -0.044133157 0.11146737
0.060145266 -0.0008599835 0.13663921 0.08474938 0.013900698 0.00078698876 -0.007869903 0.23670594
0.03537037 -0.010259619 0.13581477 0.18548879 0.19848214 0.07037115 0.07965194 0.06586021
-0.035786405 -0.10809424 -0.16915715 -0.12429598 0.10112857 0.040783454 -0.07125551 0.017203743
0.07844896 0.08324243 -0.028718235 -0.1559812 0.042923126 -0.03592873 0.07557704 0.061966468
-0.03784987 -0.09124404 -0.060938094 -0.08408095 0.2924061 0.1841698 0.111485474 0.111817606
0.15222783 0.0061647524 -0.0721075 -0.03136201 0.042844936 0.005063701 0.14181097 -0.027426427
-0.16305399 0.17218354 -0.0012616726 0.13252354 0.068558894 -0.08270937 0.21697763 -0.07123879
0.040371113 -0.0093899015 0.024241043 -0.009016177 0.09290613 -0.12172661 0.08589363 0.053308304
0.15719853 0.068641745 -0.18563029 0.07611467 -0.07539417 0.10853617 0.12932944 0.036019962
-0.18785748 0.08259898 -0.0058496157 -0.07493052 0.07177714 0.051760208 0.056142427 -0.52764016
-0.11251463 -0.30503628 -0.06465825 -0.108574755 -0.015757471 0.066240214 0.098359905 -0.2711747
0.2403479 -0.012317736 -0.123896524 0.17657815 -0.0533907 -0.058968633 -0.10383847 0.08007342
-0.0032019129 0.05101432 -0.133622 -0.16287892 -0.15231067 -0.14492653 0.057039596 -0.02922069

a2c_network.actor_mlp.4.bias f4 [64]
00000000: e000 b93c 765a babc 510b af3c 8706 8bbe
00000010: 16a6 87bc c327 73bd dc6f b4be 69ed 28be
00000020: 909f 1ebe 1af7 703e cebf 8c3d ef36 93be
00000030: ec39 b2bd 3088 96be b68f 013d 4afc c23d
00000040: dc11 70be cf2b a33c 9838 7ebd b351 743e
00000050: d085 7dbd 3008 f8bc 3a2c 6fbe 0b7e ddbd
00000060: 6200 acbe 6b09 d7be 0c3e 34be b9cb 91bd
00000070: 1d81 07bc cd56 45be e898 613d 184e 6f3c
00000080: b990 39be 46ed 803d b39d 30be e57d 9dbe
00000090: 5d65 fc3c 09c1 25be d319 97be 618c d73c
000000a0: 29ea 95be e25a 563d 0df9 65be 59cf 463e
000000b0: fbef c5be d0b3 183e 686b 82be 6a54 2fbe
000000c0: 5b65 723d 34b1 29bd f358 7bbc 2a14 11be
000000d0: 139a 82bd 2356 91bd 1840 2fbe 765f 1bbc
000000e0: 9d95 ec3d 2b24 a23d f378 8bbe dfa8 aabe
000000f0: abd2 9dbd f5ca fbbd b5a3 30be e5ee 2f3d
0.022583425 -0.022748213 0.0213677 -0.27153417 -0.016558688 -0.05936409 -0.35241592 -0.16496815
-0.15490556 0.23531762 0.06872521 -0.28752849 -0.08702454 -0.29400778 0.031631194 0.095207766
-0.23444313 0.01991835 -0.06206569 0.23859291 -0.06189519 -0.030277342 -0.23356715 -0.108150564
-0.33594042 -0.41999373 -0.17601794 -0.07118935 -0.008270529 -0.19271393 0.055077463 0.014606021
-0.18121614 0.06295256 -0.17247657 -0.30760112 0.030810053 -0.16186918 -0.2951189 0.026312055
-0.29280213 0.052332766 -0.22458287 0.19415034 -0.38659653 0.14912343 -0.2547257 -0.17122045
0.05917869 -0.04142876 -0.015341031 -0.14167848 -0.063770436 -0.070965074 -0.17114294 -0.009483209
0.11551974 0.07917055 -0.27240714 -0.33331963 -0.07706197 -0.1229457 -0.1724995 0.042952437

a2c_network.value.weight f4 [1, 64]
00000000: ce10 0f3c e4c9 e83c 979e a5bc e2f2 eabd
00000010: 6959 e1bc 78b1 993e 4659 48bd ba82 a33e
00000020: 84eb 4a3e 9cef 383e 5f24 1d3d 3263 91bb
00000030: 2b0a 07be 8505 29bc 72c2 103d 776f 363e
00000040: d0f7 e83d 3fbe 473e 2830 733b 90bc 48bd
00000050: 5e44 783d 1c6d 99bc e009 c73e 78a4 063c
00000060: 5fac ae3e 41e2 973b f045 6ebd 8e63 803d
00000070: 2329 9abc 8991 99bd 64de 48be 3b72 cfba
00000080: c31d e03a 8254 81bd d78d 183e 1f61 fdbd
00000090: 8401 1abb d981 653e 57b8 283d 1f2f 963a
000000a0: 1e09 a5bd f266 99bd 8803 a63e 7ec1 b93d
000000b0: d6fa 92bd eb6d 8e3c 179d ab3e 043e fe3d
000000c0: df37 c7bc 39c2 263d 8a83 a63d 6d08 633c
000000d0: 543b 7f3d 2935 0dbc 24a2 a9bc 2ba0 88bc
000000e0: 8bc3 eb3b 2baf 1f3c 269a e2bc 0b80 9abd
000000f0: 9555 0fbc 5ac3 47bc 6970 8b3b 9556 a9bc
0.008732034 0.028416581 -0.020217223 -0.114721075 -0.027508454 0.3001821 -0.048913263 0.31935674
0.19816405 0.18060154 0.038364764 -0.004436874 -0.13187473 -0.010316257 0.035341688 0.17815958
0.113753915 0.19506167 0.003710756 -0.049007952 0.060612075 -0.018728785 0.38874722 0.008217923
0.34115884 0.004635126 -0.058172166 0.062689885 -0.018818444 -0.07498462 -0.19616085 -0.001582689
0.0017098713 -0.06314947 0.14897858 -0.1237204 -0.0023499439 0.22412814 0.041191425 0.0011458135
-0.080583796 -0.074903384 0.3242457 0.09070109 -0.071767494 0.017386397 0.33518288 0.12414172
-0.024318634 0.04071257 0.08130558 0.013856989 0.06231244 -0.008618631 -0.020707197 -0.016677937
0.0071949414 0.009746353 -0.027661394 -0.075439535 -0.008748432 -0.012192572 0.0042553437 -0.020671168

a2c_network.mu.weight f4 [7, 64]
00000000: fa92 3abe 0f9a 88bd 6511 fe3b 6b21 eabc
00000010: cff7 153d ad74 773c 8dcf 38bd 6d99 213d
00000020: c791 4b3d 5908 a63b 9a5e 11be 8567 60bd
00000030: ee80 533c 4118 91bc c0fa 5dbd 40e4 8e3c
00000040: 12b9 833c ebdf 37bc 84e6 c03b e2de a5bd
00000050: f75d 8d3d 1ab4 e23d 9adc bd3c 6af1 29be
00000060: 9a34 4f3d 21dd 123d e572 993c 77e7 ac3d
00000070: e5c1 d53d 74e3 fd3c 709c c5bb 44c9 c7bd
00000080: fec7 0d3d 671c d6bd 8e3e b6ba 3cac 87bb
00000090: 2972 42bd e75c 003d daf2 b2bc 7ce4 303d
000000a0: 290f d0bc 8e4c 3d3b 9cc3 373d 74c5 243d
000000b0: bf1a 9fbd dfb0 8a3d d431 733d 1aac 01bd
000000c0: fe0e 213d 527b 943c da38 0d3c 07fd 5e3d
000000d0: a046 053d 7503 a1bc 2c78 d73c d563 7f3d
000000e0: 86c3 713d 690f 613e 9e5a c1bd 217b a9bc
000000f0: a43e 9f3d 818c 02bc c2f1 163d c10e 013e
00000100: 0036 1abe 07ec 8f3e 3856 09be a375 d3bb
00000110: ea55 2abe 0b6c d3bc c00d 2fbd 182a 99bd
00000120: fbda c6bc db59 0abc 0157 bcbd 392e 633d
00000130: ae68 a2bb d3a7 f3bc 1b91 043d 2f0c 0a3c
00000140: a998 6bbd 30d0 9c3d 8e97 19bd 9d91 fcbb
00000150: 02c3 30bd cf80 b13d c7a4 603c 78ad 453d
00000160: 5756 253c 8518 fcbd a17f 0bbd 450b d23d
00000170: ffdc 07bd bb75 0d3e 42a7 113d 0ad1 e33d
00000180: 029e b7bd e035 a33d 71bf 19bd 0ab1 a03d
00000190: d976 6a3d d1dc 81bd 1398 a2bd e30f 0e3c
000001a0: 9d0b 823d 6f43 413c 4311 0c3a ab14 e2bc
000001b0: e7b6 ca3d 3398 5cbe 3119 43bc a09d 553c
000001c0: a882 663d fff1 323d e220 92bc 2ec7 4d3b
000001d0: 32fe ec3c f1c5 00bc 29c8 3abc d022 4bbc
000001e0: 5109 6ebc db0c f13d eede 4a3b bb28 7b3d
000001f0: 7d94 26be 080c 053d 3eff 18bd bdd7 073d
00000200: 2a8b d7bd ba8f b13c 1608 ef3d ef08 8fbc
00000210: 632f 92bd af01 d2bc d296 f23d e1cb 16bd
00000220: 20ad 863c 68d4 95bc 4c65 373d a0ed 6e3d
00000230: b9b2 4fbd 0c6a 063d 8356 07bd 98f4 d9ba
00000240: 352a c7bc 11ed 1d3d 97cd 91bb 3ad4 8e3d
00000250: 0207 53bc c2a7 b03d 8d3f 5e3d 1a47 903d
00000260: c815 94bc 368e 8bbd 30ca 4e3d 913a d2bb
00000270: bc55 c13d bcfd a1bc f0e9 5e3c 958e 15bb
00000280: e398 efbd e042 0b3d 3ed4 aebc f5ea 283d
00000290: 4b1a 6cbd a373 9e3d 941b a33c 4596 46be
000002a0: 1d02 873d d8d5 8cbd 8131 463d 469a 763c
000002b0: 6c23 05bb d3d0 d7bc 33fb c93c 71be a73c
000002c0: ad79 71bd eaac 13bd 70c9 cd3c 0faa 24bd
000002d0: a4a6 2e3c 8b2d 8abd cd5e f3bd becf c7bc
000002e0: 9658 4c3e 5b7d d93c 1121 d23d a1a2 25bc
000002f0: ce56 40be 06db 71bd 5e70 563b ceb2 173d
00000300: 2511 f43b 011e c33a c96d 2b3d 095e 103e
00000310: 2ba7 403e 1101 b4bc bb24 e33d 45d7 c93c
00000320: 1b8c 833d 5050 043d c857 aebd 90d2 803c
00000330: a259 523e 0b34 4b3d 2ff1 873d 405d 263d
00000340: 4e68 e13d 7453 b8bb eb3a a73d 3f1d 80bd
00000350: 0a8f 133d 0278 073e 3042 2e3d 0171 9cbd
00000360: 4ca2 5abd 8208 5b3b 8128 93bd 61b3 2f3b
00000370: 75a5 db3d e2b5 e8bc 720a 7c3c 1889 19bd
00000380: 27b3 94bd b575 113e b389 9c3d f77c 09be
00000390: b746 39be 568e bbbc e43b 2f3d 8c30 f239
000003a0: 77a9 ad3d c1b6 cfbc 0f50 1bb9 1399 6bbd
000003b0: 7766 3ebe 2fc2 43bd a6c1 003e 64b2 543d
000003c0: edff f63d 8012 b13c 3b68 cebc 141d b63d
000003d0: 3bc0 d7bc bd16 1e3e 18ad 783d 82f7 733e
000003e0: 1244 c1bd 0c96 6c3d b807 b5bb 9144 13bd
000003f0: e615 10be 5a49 04bd 9567 85be e394 8e3b
-0.1822013 -0.06670009 0.0077535384 -0.028580388 0.03661328 0.015103501 -0.04511981 0.03945296
0.04969957 0.005066913 -0.14196244 -0.054786224 0.012909157 -0.01771176 -0.054194212 0.017442822
0.01607946 -0.01122282 0.0058868546 -0.08099152 0.06902688 0.11069508 0.02317648 -0.16595998
0.050587274 0.035855416 0.018731544 0.08442586 0.10437373 0.030992247 -0.0060306117 -0.09755185
0.034614556 -0.10454636 -0.0013904141 -0.004140405 -0.047472153 0.0313386 -0.021844316 0.04318665
-0.025397854 0.0028884741 0.044864282 0.04022737 -0.07768773 0.06772017 0.05937369 -0.03165827
0.03932094 0.01812521 0.0086195115 0.054440524 0.032538056 -0.019654969 0.02630242 0.062351067
0.059024356 0.21978535 -0.09441112 -0.020688595 0.077756196 -0.007968069 0.036851652 0.12603284
-0.15059662 0.28109762 -0.13411796 -0.0064532324 -0.16634336 -0.025808355 -0.042737722 -0.07478732
-0.02427434 -0.008444275 -0.09196282 0.055464003 -0.0049563264 -0.02974311 0.032364946 0.008425756
-0.057518635 0.07656896 -0.03749805 -0.007707788 -0.043154724 0.086671464 0.013711161 0.048261136
0.010091386 -0.12309364 -0.034057263 0.10256056 -0.033169743 0.13814442 0.0355599 0.111238554
-0.089656845 0.0796926 -0.03753609 0.078462675 0.05724225 -0.063409455 -0.07939162 0.00867078
0.06349871 0.011795863 0.00053431484 -0.027597746 0.09898167 -0.21542434 -0.011907862 0.013038069
0.056276947 0.043687817 -0.017837945 0.0031399238 0.028929804 -0.007859693 -0.011400261 -0.012398437
-0.014528588 0.1177003 0.003095563 0.06131814 -0.16267581 0.032482177 -0.037352793 0.03316473
-0.1052459 0.02167498 0.11671464 -0.017460315 -0.071379445 -0.025635568 0.11845173 -0.036815528
0.016439974 -0.01828976 0.04477434 0.058332086 -0.050707553 0.032815978 -0.03304149 -0.0016628681
-0.024312118 0.038556162 -0.004449557 0.06974073 -0.012880089 0.08625747 0.054259825 0.070448115
-0.018076792 -0.06814234 0.05048579 -0.006415673 0.09440181 -0.01977431 0.01360558 -0.0022820581
-0.11699083 0.033999324 -0.02134144 0.041239697 -0.057642262 0.077369 0.019910611 -0.19393261
0.065922 -0.06876725 0.048387054 0.01505143 -0.0020315303 -0.026344692 0.024655914 0.020476552
-0.05895393 -0.036053576 0.025120467 -0.040201243 0.010659847 -0.06746968 -0.11883316 -0.024391051
0.19955668 0.026549032 0.10260213 -0.0101095745 -0.18783113 -0.059046768 0.0032720785 0.037035756
0.007448333 0.0014886261 0.041852746 0.14098372 0.1881377 -0.021973165 0.1109099 0.024638781
0.06423207 0.032303154 -0.08512837 0.015725404 0.20542005 0.04961018 0.06637799 0.040616274
0.11006223 -0.0056251828 0.081655346 -0.06255578 0.036025085 0.13229373 0.04254359 -0.07638741
-0.053377435 0.003342182 -0.0718546 0.00268098 0.10724918 -0.028407041 0.01538335 -0.03748426
-0.07260733 0.14205058 0.076434515 -0.13426577 -0.18093382 -0.02289502 0.042781726 0.00046194007
0.084795885 -0.025355699 -0.00014811776 -0.05751903 -0.18593775 -0.04779261 0.12573871 0.05192794
0.12060533 0.021615267 -0.025196185 0.08892265 -0.02633678 0.15438361 0.06071195 0.23824885
-0.094368115 0.057760283 -0.005524602 -0.035954062 -0.14070854 -0.032296516 -0.2605559 0.004351245

a2c_network.mu.bias f4 [7]
00000000: fda2 b23d 5ea5 40bd dd7b 81be 47f8 68bd
00000010: 6179 f6bd 5efb 053e bf95 69bc
0.08722494 -0.047032706 -0.25289813 -0.0568774 -0.1203487 0.1308417 -0.014256894

exp_avg f4 [7]
00000000: 4f9e 2e3a 5957 a039 98d1 92b9 e013 3ab9
00000010: 01d9 8d39 e2ee 50b9 9edd 70b9
0.0006661163 0.00030582657 -0.0002800345 -0.00017745746 0.00027055296 -0.00019925417 -0.00022970742

exp_avg_sq f4 [7]
00000000: 4d41 8836 6de9 8b36 c87a 7a36 0219 a036
00000010: 58e6 7136 2a27 7336 1113 7736
4.060718e-06 4.169697e-06 3.732437e-06 4.771283e-06 3.6045876e-06 3.6232618e-06 3.6816966e-06

exp_avg f4 [256, 19]
00000000: 920c efb9 fb42 ec38 f8f5 c1b8 e71e 33b9
00000010: e3e3 92ba 7331 ff3a 02fa 0bb9 a6a4 803a
00000020: fd0c 02bb 01bb bf38 7a08 baba 103b 0f3b
00000030: afaf 7939 0ed9 afba 0494 74ba 7b15 86ba
00000040: 5d07 183a 069d 1d38 19df 01ba ada2 12b8
00000050: 51fd 3ab9 4f6e b338 6769 ecb8 46d3 33b9
00000060: ffe5 9036 bece fb38 7bc7 c538 d9af 1338
00000070: f4b5 87b8 e3ba 12b9 a36e 9138 6cc2 fd37
00000080: 296f a5b9 d058 e1b8 c939 81b8 e1b6 cf38
00000090: 7b09 a3b9 7d5b edb9 07e3 6139 ac9d 9f38
000000a0: cedf afb8 8c40 5fb8 abbc ec38 0002 feb9
000000b0: 9617 3539 dcb3 8ab8 fe4a d539 369d c8b8
000000c0: 2112 3139 3450 03ba 97e6 0639 a9a2 3238
000000d0: bf4c b638 cb5a db37 bf3d a8b8 6dde c437
000000e0: 3510 9838 6519 08b8 4eb4 23ba eee6 7e39
000000f0: 80b9 a539 8ecd 9439 8607 53ba 66d7 bfb9
00000100: 5798 26b9 d074 463a e7d3 6839 d712 8f39
00000110: 724a 5eba c2ac 9fb9 1c6e 2239 5b67 4c3a
00000120: 7d5f 893a 8223 9839 78a8 053a 8445 0c3a
00000130: 8898 b438 a27b cd38 2408 4938 5993 8a39
00000140: d025 c738 62f5 26b9 c0d2 9ab9 5930 d8b8
00000150: 44a4 d238 90b6 4039 f988 73b8 378e 73b8
00000160: 0cd4 9fb9 6c41 9239 decf d538 075c d638
00000170: 23f4 9bb8 18ea 6439 eef3 6f39 17e6 b5b8
00000180: f04e 9eb8 2796 b938 e83d b336 f619 1bb9
00000190: c6d6 f5b8 e715 9e38 0449 0e39 6845 b538
000001a0: b6d2 53b8 a4f8 19b9 f9c0 eab8 99bf f436
000001b0: bf14 05b9 4afd a1b8 e0f8 30b8 3b41 1c39
000001c0: 03d8 3db9 272a 2cb9 07cd 8938 8325 2339
000001d0: 80ea 0a39 d197 9138 6c97 1339 f4ac 88b9
000001e0: d9c1 fc38 00df 56b8 d6a4 4339 1d89 87b8
000001f0: bc45 5139 896e 87b9 a8e5 4a39 9bb3 2b39
00000200: 6602 00b9 80cd 1cb9 12a6 f9b8 3f5b 58b8
00000210: b22f 08b7 0683 5839 77e0 cb38 4762 1bb9
00000220: c0d7 9b38 dd9b e539 a9ff 26ba 34f9 8e39
00000230: f7e7 bbb9 27b5 2e3a c61e 29b9 0601 cd39
00000240: f09b 1aba e835 2637 d464 8e39 cb82 33b9
00000250: 4086 51b9 0425 dab9 959b 58b9 7028 46b9
00000260: 25f4 af39 2d6c 5539 13a1 5eb9 1583 9639
00000270: d8c5 463a 819d 10ba 366d 5737 7ad8 adb9
00000280: 6e23 d839 f494 10b7 a07f 493a a3e9 06ba
00000290: d4ab 1fb9 c3af 3b3a c25b 1b3a b682 e839
000002a0: f523 d8b9 4c20 233a e737 5b3a 2719 3c39
000002b0: 9cbd 85b8 43c1 a039 c98e 2ab8 09a6 8939
000002c0: 77dd 24b9 5aed d038 53cb 2fb9 dade bc39
000002d0: 2a90 88b8 aded 5039 f0c8 81b9 55fa a7b8
000002e0: 564f 3239 484f 13b9 b151 3639 64f7 d3b8
000002f0: ca1a 67b9 3211 17b9 1165 23b8 fa43 d7b9
00000300: b8ec 9f38 7261 36b8 25d0 43b8 8220 c2b9
00000310: 8918 2839 6626 b438 c30c c139 af8c dfb8
00000320: e558 bcb6 25ce e3b9 347a b738 e325 b6b8
00000330: 5072 2b39 268f 8d39 0de6 2139 329c fa38
00000340: 6e23 9838 d49f 32b8 93be ba38 8773 2038
00000350: d41f cdb8 5b8b 2bb9 52b2 9a39 b136 7638
00000360: aaa3 2139 263f 91b9 05b7 e4b7 a0c5 25b9
00000370: f18e a439 6f8c 4b38 622c 17b9 d3b8 e1b9
00000380: abea 00ba e300 09b9 a1e2 07ba 0796 0bba
00000390: 22db 68b9 a0d7 ed38 c051 7238 1c39 5bb9
000003a0: 8437 10b9 662e 1f38 e3e4 c836 8ba8 2e39
000003b0: fcef 4d38 1d60 d9b6 cd92 58b9 085b 9f37
000003c0: 6f4f 6f36 106f 53b8 61b8 71b9 376e efb8
000003d0: 0e4c b9b6 4537 2339 d53b ef38 49fa 02b9
000003e0: 2ca6 46ba 688d 203a b627 6439 26ef 44b9
000003f0: bbda 023a 0639 26ba 31f3 5f39 74de 36ba
-0.00045594998 0.00011265833 -9.2487724e-05 -0.00017082282 -0.0011206832 0.0019469693 -0.00013349208 0.0009814694
-0.0019844167 9.142422e-05 -0.00141932 0.0021855272 0.00023811938 -0.0013416128 -0.00093299174 -0.001022979
0.0005799437 3.7577956e-05 -0.00049542036 -3.4960616e-05 -0.0001783271 8.555932e-05 -0.0001127299 -0.00017149476
4.3183095e-06 0.000120071214 9.430848e-05 3.5211302e-05 -6.471193e-05 -0.00013993266 6.9347465e-05 3.0250485e-05
-0.00031554073 -0.00010745379 -6.161963e-05 9.904593e-05 -0.00031096846 -0.00045272327 0.00021542246 7.6110795e-05
-8.386337e-05 -5.3227457e-05 0.00011288499 -0.00048448145 0.00017270292 -6.613854e-05 0.000406824 -9.566026e-05
0.00016886789 -0.00050092046 0.00012865137 4.2589996e-05 8.692731e-05 2.6149113e-05 -8.0223654e-05 2.3468596e-05
7.2509436e-05 -3.2448577e-05 -0.0006244824 0.00024309356 0.0003160946 0.0002838191 -0.00080501323 -0.00036590843
-0.00015887745 0.0007570507 0.00022204184 0.00027289122 -0.0008479721 -0.00030455558 0.00015490543 0.00077973836
0.0010480728 0.00029018155 0.0005098651 0.0005350935 8.61148e-05 9.79819e-05 4.7929716e-05 0.00026431194
9.4961026e-05 -0.00015922406 -0.0002953019 -0.00010308688 0.00010044177 0.00018378557 -5.806328e-05 -5.8068163e-05
-0.0003048483 0.00027896033 0.0001019535 0.000102214566 -7.43645e-05 0.00021830981 0.00022883687 -8.67361e-05
-7.54873e-05 8.8494555e-05 5.3418225e-06 -0.00014791623 -0.00011722515 7.538107e-05 0.00013569376 8.6436805e-05
-5.050256e-05 -0.00014683843 -0.000111939335 7.2940716e-06 -0.00012691597 -7.724257e-05 -4.2193453e-05 0.0001490162
-0.00018104915 -0.00016418901 6.5708584e-05 0.00015558866 0.00013248064 6.942417e-05 0.00014075421 -0.00026068802
0.00012052403 -5.122926e-05 0.00018658055 -6.462841e-05 0.00019957771 -0.00025831562 0.00019349775 0.00016374739
-0.00012207925 -0.00014953874 -0.00011904178 -5.1583393e-05 -8.117337e-06 0.00020648175 9.721604e-05 -0.00014818563
7.4311625e-05 0.0004379441 -0.0006370494 0.0002727002 -0.00035840247 0.0006664567 -0.0001612856 0.0003910141
-0.000589787 9.906922e-06 0.00027159473 -0.00017119494 -0.00019981805 -0.0004160778 -0.00020657324 -0.00018897816
0.00033560503 0.00020353562 -0.00021231575 0.00028707893 0.00075825816 -0.0005516634 1.2840426e-05 -0.0003315842
0.00041225128 -8.61775e-06 0.0007686559 -0.0005146509 -0.00015227433 0.00071596744 0.0005926454 0.00044347876
-0.0004122552 0.0006222769 0.0008362517 0.00017938447 -6.377252e-05 0.0003066157 -4.0664137e-05 0.00026254382
-0.00015722761 9.962423e-05 -0.00016765045 0.00036024192 -6.511838e-05 0.00019924967 -0.00024754507 -8.0098085e-05
0.00017004958 -0.00014048547 0.00017387305 -0.00010107344 -0.00022039856 -0.00014406888 -3.8956354e-05 -0.00041058642
7.625803e-05 -4.3482934e-05 -4.6685473e-05 -0.00037026784 0.00016030869 8.590221e-05 0.00036821337 -0.00010659673
-5.6131853e-06 -0.00043450404 8.748882e-05 -8.685493e-05 0.00016350416 0.0002700027 0.00015439857 0.000119500226
7.254524e-05 -4.258736e-05 8.904668e-05 3.8254566e-05 -9.78109e-05 -0.00016359745 0.00029506028 5.8701906e-05
0.00015415126 -0.00027703604 -2.7264943e-05 -0.00015809247 0.00031387017 4.852976e-05 -0.00014417016 -0.0004305305
-0.0004917781 -0.00013065668 -0.00051836116 -0.0005324785 -0.00022206877 0.00011341204 5.777343e-05 -0.00020906742
-0.00013753591 3.7951766e-05 5.9871104e-06 0.0001665672 4.909931e-05 -6.478293e-06 -0.00020654053 1.8996667e-05
3.5660012e-06 -5.0409755e-05 -0.00023052238 -0.00011416937 -5.5222836e-06 0.00015565481 0.00011407553 -0.00012491005
-0.0007577862 0.0006124587 0.00021758568 -0.00018781106 0.00049917 -0.00063408946 0.00021357533 -0.0006975897
