runs/FrankaCubeStack_01-19-14-17/nn/FrankaCubeStack.pth (torch, 577583 bytes, 36 tensors)

value_mean_std.running_mean f8 [1]
0	0x401bff44b488c388	6.999285527083778

value_mean_std.running_var f8 [1]
0	0x4013d81d5e98d36e	4.961049535825493

value_mean_std.count f8 []
0	0x41a1a00002000000	147849217.0

running_mean_std.running_mean f8 [19]
0	0xbf88816450911717	-0.011965545376493787
1	0x3f8ea018057f056c	0.014953792255144115
2	0x3fa8c2de32f6e52d	0.048361724587673606
3	0x3fed48a2a42b6e2c	0.9151166159094308
4	0x3f7eff1f2feafab5	0.00756752188197989
5	0xbf69abffff620aec	-0.00313377379922152
6	0x3ff0d2dbec5850ca	1.0514792663789643
7	0xbf6bb98645629aa1	-0.0033843634110611452
8	0x3f7202f17cfd8448	0.0043973382124429874
9	0x3f82c39c9d31ad4a	0.00916216234892055
10	0x3f62d1d4a6cb62cf	0.002297320685425631
11	0xbf7aae142973f419	-0.006513670690080375
12	0x3ff131990c589a1e	1.0746088487882228
13	0xbfc6549551f11da3	-0.17445627690379437
14	0xbfa966894a68ed89	-0.0496104148228041
15	0xbfb198c08e04b1d3	-0.06873706309551801
16	0x3f8f9a5829f1ef8e	0.015431107311307615
17	0x3f9556022eafa865	0.020835908984658497
18	0x3f966726f2290b1f	0.02187786915807088

running_mean_std.running_var f8 [19]
0	0x3fa56aaabb1aee99	0.041829428997030856
1	0x3f8ca6760adab59c	0.013989374357459998
2	0x3fb51d852abfa63e	0.08248169225375876
3	0x3f95f81014d342f5	0.021454097052642635
4	0x3f9648e0dc1e27f9	0.021762383875774536
5	0x3f967bcc496e6f0c	0.0219566268748244
6	0x3f390c96e7e9af76	0.0003822201178198462
7	0x3fb0ef50f1aaf91e	0.0661516752252038
8	0x3fb0d551804b3004	0.06575497991724438
9	0x3f7bb4dc0349ba07	0.006764277863665408
10	0x3f933dc19b46eb93	0.01879026899562637
11	0x3f940b31009a33a4	0.019573941861881786
12	0x3f74b3aed2f4e444	0.005054171472971328
13	0x3fec75f316004ca7	0.8893981389723152
14	0x3fa7bae5ae3b6477	0.046347787397913835
15	0x3f96109ccf76b9fb	0.021547746813377327
16	0x3f7397113d64d5be	0.004782740920111049
17	0x3f11acda6a36573c	6.742556666091982e-05
18	0x3f10fbb751962fdf	6.478601826226349e-05

running_mean_std.count f8 []
0	0x4191a00004000000	73924609.0

a2c_network.sigma f4 [7]
0	0xbf95506b	-1.1665167
1	0xbf984cdc	-1.1898456
2	0xbfe7effe	-1.8120115
3	0xbf3e9bae	-0.744563
4	0xbf4fe38e	-0.81206596
5	0xbee9c973	-0.45661506
6	0xbfd922a5	-1.6963698

a2c_network.actor_mlp.0.weight f4 [256, 19]
0	0x3badc323	0.005302803
1	0x3c547e25	0.012969528
2	0x3ae9eae3	0.0017846491
3	0xbd5c6560	-0.053807616
4	0x3ef227ca	0.47295982
5	0xbee9df29	-0.4567807
6	0xbdfe0f81	-0.12405301
7	0xbd8c9e8b	-0.06866177
8	0xbcce8528	-0.025209978
9	0x3d05feb3	0.032713603
10	0xbefbe18f	-0.49195525
11	0x3e9b34a4	0.303136
12	0xbf27b387	-0.6550831
13	0x3d88cf67	0.06680184
14	0x3cef1aa9	0.029187517
15	0xbd9f7d3a	-0.07787557
16	0x3e190018	0.14941442
17	0xbc06f1d0	-0.0082363635
18	0x3e003202	0.12519076
19	0x3cd64be8	0.026159242
20	0xbd3d3f88	-0.046203166
21	0x3d5ce91e	0.053933255
22	0xbcec48c3	-0.02884329
23	0x3e48e7f5	0.19619735
24	0x3ee81bb8	0.45333648
25	0x3c4a8d68	0.012362815
26	0xbcac54b4	-0.021036483
27	0x3ddcecaa	0.107873276
28	0x3e21e49a	0.15809861
29	0xbe0eb895	-0.139376
30	0xbec26ee8	-0.3797524
31	0xbe4b6472	-0.19862536
32	0xbd66702d	-0.056259323
33	0xbd23bf79	-0.039977524
34	0x3e20fbaa	0.15721002
35	0x3dc160d2	0.09442295
36	0x3dd61ed5	0.104550995
37	0x3d4d9d24	0.05019869
38	0xbc4247cf	-0.011857941
39	0x3ca0908b	0.019600173
40	0xbcca96f4	-0.024730183
41	0x3d359fb0	0.044341743
42	0xbe259323	-0.1616941
43	0x3eefa82c	0.46807992
44	0xbe574c42	-0.21025184
45	0xbd383f96	-0.044982515
46	0xbd11b064	-0.03556861
47	0x3dfdb72f	0.12388455
48	0x3e1dc263	0.15406184
49	0xbee782db	-0.45217022
50	0xbf0cd029	-0.5500513
51	0x3d930015	0.0717775
52	0xbd05a186	-0.032624744
53	0x3c3e06e8	0.011598326
54	0xbdf4bcde	-0.11950086
55	0xbc8b9e8c	-0.017043374
56	0xbc0390e4	-0.00803015
57	0x3c494af5	0.012285938
58	0xbc2e5ce4	-0.010642264
59	0x3bbc27d9	0.005742055
60	0x3cc7d028	0.024391249
61	0xbf134560	-0.5752773
62	0xbd01587f	-0.031578537
63	0x3d74524b	0.059648793
64	0xbd908b70	-0.070578456
65	0xbd83f7f6	-0.06443779
66	0xb8517393	-4.993712e-05
67	0x3efad43f	0.48990056
68	0xbd023a24	-0.03179373
69	0xbef12e54	-0.47105658
70	0x3b757708	0.0037454981
71	0xbd40de5b	-0.047087055
72	0xbc989388	-0.018625036
73	0x3d7ddeb1	0.061979953
74	0x3e388c93	0.18022375
75	0xbe14171f	-0.14461945
76	0xbd73e261	-0.059542064
77	0x3dbd970b	0.09257325
78	0xbd3473fc	-0.044055924
79	0x3da20fd6	0.07913177
80	0xbec613b4	-0.38686907
81	0xbdbe0d84	-0.09279922
82	0x3eb747f3	0.3579708
83	0xbe08151e	-0.13289306
84	0xbe4296e4	-0.19002873
85	0xbe86a030	-0.26294088
86	0x3e4e8922	0.201695
87	0xbdbe63d9	-0.09296388
88	0x3e1f8fb2	0.15582159
89	0xbda7c52f	-0.08191907
90	0x3bc7ff00	0.0061033964
91	0x3e29c532	0.1657913
92	0x3d248fbd	0.040176142
93	0x3e06d40e	0.1316683
94	0xbe4afcb4	-0.19822961
95	0xbd3ce0ff	-0.04611301
96	0xbd459b01	-0.048243526
97	0x3d76c0ca	0.06024245
98	0xbd55e61f	-0.052221414
99	0x3e03ae36	0.12859425
100	0x3db49877	0.08818143
101	0xbe5d52cc	-0.21613616
102	0xbde5c558	-0.11219281
103	0x3d952f97	0.07284468
104	0xbe52063c	-0.2051019
105	0xbdc29e4f	-0.09502851
106	0x3cca7991	0.02471617
107	0xbcbf2bd9	-0.023336338
108	0xbb99bb5e	-0.0046915254
109	0xbbbe9966	-0.0058166264
110	0x3c5bad17	0.013407967
111	0x3c7801ce	0.015137149
112	0x3e8da339	0.27663592
113	0xbe833744	-0.25628102
114	0x3d812997	0.06306761
115	0x3d203f00	0.03912258
116	0xbc0dda2d	-0.008657974
117	0xbd87321f	-0.06601357
118	0xbe8ac410	-0.2710271
119	0x3ec12a2f	0.37727496
120	0xbdd192e8	-0.10233098
121	0xbdbcf62d	-0.09226642
122	0xbdf7ceb5	-0.12099973
123	0x3e00f6fa	0.12594214
124	0x3e81b9d3	0.25337085
125	0xbe87e0b7	-0.2653863
126	0xbe45e3d3	-0.1932519
127	0xbd354653	-0.04425652
128	0x3de41cfb	0.1113834
129	0xbd356515	-0.044285852
130	0xbe37f283	-0.17963605
131	0x3dfd11e8	0.12356931
132	0xbdf5798b	-0.11986073
133	0xbd3289be	-0.043588392
134	0xbc2b7633	-0.010465193
135	0x3ce9b898	0.028530404
136	0xbdbad524	-0.091226846
137	0xbddf6b5f	-0.10909151
138	0x3f0b39ec	0.54385257
139	0x3e0f76b1	0.14010121
140	0x3d2a3623	0.041555535
141	0x3e399f3e	0.18127152
142	0x3dc4d3f7	0.096107416
143	0x3d9af5f4	0.07566443
144	0xbf15d3d8	-0.5852637
145	0x3e8ac79c	0.27105415
146	0x3c81ee75	0.015860775
147	0xbdb2ac4e	-0.08724271
148	0x3e3912dc	0.180736
149	0xbd412744	-0.047156587
150	0xbd98492b	-0.07435831
151	0xbd8a4622	-0.06751658
152	0xbc87913e	-0.016548749
153	0x3b67f785	0.0035395336
154	0xbc886cec	-0.0166535
155	0xbdb02145	-0.08600096
156	0xbefa277c	-0.4885825
157	0xbec4389c	-0.3832444
158	0x3e18c108	0.14917386
159	0x3e0fb618	0.14034307
160	0xbdf03970	-0.11729705
161	0xbd92426e	-0.07141577
162	0x3f1085ab	0.5645396
163	0x3e84fc25	0.2597362
164	0xbea9a5c3	-0.3313428
165	0x3cb36b84	0.021901853
166	0x3d1bfc62	0.038082488
167	0x3d54c56b	0.051946085
168	0x3cdeb8f4	0.027187802
169	0xbd04bd3d	-0.032407034
170	0x3d9ecfb5	0.07754461
171	0xbeab2ed5	-0.33434168
172	0x3e8f428f	0.27980468
173	0x3dd25c3c	0.102714986
174	0x3f87de1c	1.0614657
175	0x3e690d83	0.2275906
176	0xbe8bfea1	-0.27342704
177	0x3e31a505	0.17348106
178	0xbca9f561	-0.020746889
179	0xbbc7beeb	-0.0060957572
180	0xbddb0928	-0.10695106
181	0xbe5789f3	-0.21048717
182	0x3e392818	0.18081701
183	0x3f157a8c	0.58390117
184	0x3d9ed6a0	0.0775578
185	0xbd5a1ce7	-0.05325022
186	0xbe282f56	-0.16424307
187	0xbe5ed3ec	-0.2176053
188	0xbda4b2fa	-0.080419496
189	0x3d8b08a5	0.06788758
190	0x3d47e8bb	0.048805933
191	0xbe02054d	-0.12697335
192	0x3daa0a4f	0.083027475
193	0xbd97af42	-0.07406475
194	0xbe9efe5c	-0.31053436
195	0x3cc677e8	0.024227098
196	0x3e737bd9	0.23777713
197	0xbe237382	-0.15962031
198	0xb9ca5a8b	-0.00038595902
199	0x3dbcd421	0.09220148
200	0x3d21152a	0.039326824
201	0xbe11e7b2	-0.14248541
202	0x3f07eebc	0.53098655
203	0x3da04a6f	0.07826697
204	0xbd13b3cb	-0.036060136
205	0xbe882a2e	-0.2659468
206	0x3e383a1c	0.17990917
207	0x3dd33264	0.103123456
208	0xbcc0b353	-0.023523008
209	0xbe1ed05f	-0.15509175
210	0xbee62ab5	-0.44954458
211	0xbd14de72	-0.036344953
212	0x3e147954	0.14499408
213	0x3ee23e61	0.44188216
214	0x3f04fe87	0.5195088
215	0x3ea6038c	0.3242458
216	0xba3a5334	-0.0007107735
217	0x3dab49d5	0.08363692
218	0xbe9d25c0	-0.30692863
219	0xbee1d687	-0.44108984
220	0xbedbc2ef	-0.4292216
221	0xbc95818b	-0.018250247
222	0xbd64b6f0	-0.055838525
223	0xbd5a3b06	-0.053278945
224	0xbde001d1	-0.109378465
225	0xbd12d861	-0.035850886
226	0xbd83ce5c	-0.06435844
227	0xbd9d0166	-0.07666282
228	0xbc17377f	-0.00922954
229	0x3d238904	0.03992559
230	0x3db71417	0.08939379
231	0x3cf48ab6	0.029851299
232	0xbdc6f52d	-0.09714732
233	0xbe474684	-0.19460493
234	0xbf20979c	-0.6273134
235	0xbe089959	-0.13339747
236	0xbde1e72e	-0.11030422
237	0x3f3bdf6e	0.733878
238	0xbd66788b	-0.056267302
239	0x3e371dfc	0.17882532
240	0x3f14effc	0.5817869
241	0x3e005f3e	0.12536332
242	0x3bbe3c07	0.0058054957
243	0xbd9c243f	-0.07624101
244	0xbd803998	-0.06260985
245	0xbd5acb9c	-0.053416833
246	0x3e309fae	0.17248413
247	0xbc20bcdc	-0.009810653
248	0xbd42cf9f	-0.047561284
249	0x3cd774aa	0.026300747
250	0xbdb022ea	-0.08600409
251	0x3eba470f	0.36382338
252	0xbf056285	-0.52103454
253	0x3e5c0c4b	0.21489064
254	0x3d87ac34	0.06624642
255	0x3c468769	0.012117245

a2c_network.actor_mlp.0.bias f4 [256]
0	0xbe8f512b	-0.27991614
1	0xbcbdac23	-0.02315337
2	0xbe282cd6	-0.16423354
3	0xbe1f16d0	-0.15536046
4	0x3d8f372a	0.069929436
5	0xbcc62eda	-0.024192262
6	0xbe617acb	-0.22019498
7	0x3d8506b2	0.06495418
8	0xbe04b5e5	-0.12960012
9	0x3ded0c4d	0.11574612
10	0x3d4df8b5	0.050286014
11	0xbb9d7caa	-0.004806121
12	0x3e8a3ad6	0.26998013
13	0xbe10b402	-0.14131168
14	0xbe57c2ba	-0.21070376
15	0xbeaa4bc6	-0.33260936
16	0x3d86d25a	0.0658309
17	0x3b63f1ff	0.0034781692
18	0xbc9f46e6	-0.019442987
19	0xbeef9604	-0.4679414
20	0xbd51f285	-0.051256675
21	0x3d99756e	0.07493101
22	0xbe247956	-0.16061911
23	0xbe550e28	-0.20806181
24	0xbe8d00ca	-0.27539665
25	0x3e2a9e17	0.16661869
26	0xbcad2529	-0.021135883
27	0xbe6a6b42	-0.22892478
28	0x3dc5a860	0.096512556
29	0xbe719bcf	-0.23594593
30	0xbdda1a57	-0.10649555
31	0x3df08d53	0.117457055
32	0xbdda1c47	-0.10649925
33	0xbe477894	-0.1947959
34	0x3e16f3d0	0.14741445
35	0xbe3c8d99	-0.1841339
36	0xbe9de346	-0.30837458
37	0xbe1cd06a	-0.15313879
38	0x3e99da3a	0.30049306
39	0x3e12a1bf	0.14319514
40	0xbec18f39	-0.37804583
41	0xbe49c522	-0.19704106
42	0xbdceaa88	-0.1009112
43	0xbead2da8	-0.33823895
44	0xbe9231b5	-0.28553548
45	0xbd9b67a1	-0.07588125
46	0x3dd16baf	0.10225617
47	0xbea5611a	-0.32300645
48	0x3dd0163f	0.10160493
49	0x3dacc3b9	0.08435769
50	0xbe375a61	-0.1790557
51	0xbe910170	-0.2832141
52	0x3e3335de	0.17501017
53	0x3ef66889	0.4812663
54	0xbd39929e	-0.04530584
55	0x3df80c78	0.12111753
56	0xbe66f42f	-0.22554086
57	0x3d3b9847	0.04579952
58	0xbdb6648e	-0.08905898
59	0xbe5ecda3	-0.21758132
60	0xbe0e79ba	-0.13913622
61	0xbde2827f	-0.110600464
62	0xbdd99921	-0.1062491
63	0xbe18dcfc	-0.14928049
64	0xbe8494f0	-0.2589488
65	0xbde0675e	-0.10957216
66	0xbe274871	-0.16336228
67	0xbe2fe546	-0.17177305
68	0xbb7d0361	-0.003860675
69	0xbe027764	-0.12740856
70	0xbe1348cf	-0.14383243
71	0xbe877eff	-0.26464078
72	0x3e14be5a	0.14525738
73	0xbd94a119	-0.072572894
74	0x3dcc563d	0.09977386
75	0xbe5ed2df	-0.21760128
76	0x3d16492f	0.036690887
77	0x3d2ead16	0.042645536
78	0xbea09af6	-0.31368226
79	0xbdb0ba1e	-0.08629249
80	0x3e3b9ec1	0.18322279
81	0xbe5955da	-0.21224156
82	0xbeb68b5c	-0.35653198
83	0xbe29cf07	-0.16582881
84	0xbd68b704	-0.056815162
85	0xbe2ee04b	-0.17077748
86	0xbd4a3751	-0.04936916
87	0x3e474e99	0.19463576
88	0xbd147b9f	-0.036250707
89	0x3d9d56c8	0.07682568
90	0xbdaf6ec6	-0.0856605
91	0x3e3626d6	0.17788252
92	0xbc4db4fc	-0.012555357
93	0x3e8e2eb0	0.27769995
94	0x3c53cdba	0.012927467
95	0x3deb8562	0.1150005
96	0x3d3efcab	0.04662768
97	0x3dd0bd8c	0.10192403
98	0x3d2941d1	0.041322533
99	0xbe5ee1b6	-0.2176579
100	0x3dfa375f	0.122175924
101	0x3d4f44a3	0.050602566
102	0x3d819d72	0.063288584
103	0x3be9f347	0.0071395966
104	0x3d9b6b7a	0.07588859
105	0x3a07330f	0.00051574496
106	0x3e20de28	0.15709746
107	0x3e342697	0.17592846
108	0x3e266aba	0.1625165
109	0xbcebb429	-0.02877243
110	0xbe01c715	-0.126736
111	0xbc900674	-0.017581202
112	0xbbecc2e1	-0.00722538
113	0x3dc4838e	0.095954046
114	0xbe211657	-0.15731178
115	0x3d16b7d3	0.036796402
116	0xbeb9ea1c	-0.36311424
117	0xbe9f430b	-0.31105837
118	0xbd5bdfd5	-0.05368026
119	0x3e2dc115	0.16968186
120	0xbe852b25	-0.2600948
121	0xbe8d3398	-0.27578425
122	0xbde4d5d8	-0.111736
123	0xbe4eb610	-0.20186639
124	0x3e2760dd	0.16345544
125	0xbe8ebe5c	-0.27879608
126	0xbe473c95	-0.19456704
127	0xbcd4fda2	-0.025999848
128	0xbdc7e41a	-0.09760304
129	0x3b4d3248	0.0031310488
130	0x3e2c397f	0.16818808
131	0x3e81ef00	0.25377655
132	0xbe6faf46	-0.23406705
133	0xbd5dd31a	-0.0541564
134	0x3d8b443c	0.06800124
135	0xbec412bf	-0.38295552
136	0xbda1a617	-0.07893007
137	0xbe15f756	-0.14645132
138	0x3df5ad13	0.11995902
139	0x3e157fa6	0.14599475
140	0x39b46687	0.00034408664
141	0xbe455071	-0.19268967
142	0xbe9851d5	-0.29749933
143	0xbe0b4cf7	-0.13603579
144	0xbddf26b3	-0.10896053
145	0xbe4bedb3	-0.19914894
146	0x3dc87220	0.097873926
147	0x3d8e4905	0.06947521
148	0xbbe5b587	-0.007010165
149	0xbecee651	-0.40410092
150	0xbd866984	-0.06563094
151	0x3ddf3ee7	0.109006695
152	0x3ddaa720	0.10676408
153	0xbe0277d4	-0.12741023
154	0xbe52b620	-0.20577288
155	0xbe5d32c5	-0.21601398
156	0x3d93bece	0.072141275
157	0x3d853189	0.06503589
158	0xbe3660ed	-0.17810412
159	0xbe99254e	-0.29911274
160	0xbe9b01c6	-0.3027479
161	0xbea7bf60	-0.32763195
162	0x3d8a7ead	0.06762443
163	0x3c34d08a	0.011036048
164	0xbd8cf886	-0.068833396
165	0xbe69c753	-0.22829942
166	0xbdd416bd	-0.103558995
167	0x3de0d947	0.10978942
168	0xbe631e00	-0.22179413
169	0xbbddcecc	-0.006769037
170	0x3cf4e115	0.029892484
171	0xbd68aa44	-0.056803003
172	0xbdd91bc9	-0.10601003
173	0xbea2a235	-0.3176438
174	0xbdc9071e	-0.098158106
175	0x3c28ee40	0.0103107095
176	0xbd303ef0	-0.043028772
177	0x3e5856ff	0.21126936
178	0xbe134083	-0.14380078
179	0xbe8e884b	-0.27838358
180	0x3e0cbcef	0.13743947
181	0xbded7385	-0.11594299
182	0x3d69d438	0.057087153
183	0xbde4a229	-0.11163742
184	0x3be947e9	0.007119168
185	0x3c3f870e	0.011689914
186	0xbe18ab8a	-0.14909187
187	0x3c9cfaaf	0.019162504
188	0x3e7aabff	0.24479674
189	0xbdfbaec7	-0.122891955
190	0x3dadd0c3	0.08487084
191	0xbf13b428	-0.5769677
192	0xbd3a38f9	-0.04546449
193	0xbcbd0781	-0.023074867
194	0xbc988253	-0.01861683
195	0x3d164ac5	0.0366924
196	0xbe1e9bb4	-0.15489084
197	0xbdaed99c	-0.085375994
198	0x3bbae1b3	0.005703175
199	0xbea4a75b	-0.32158932
200	0xbe976e7f	-0.2957649
201	0xbec6ed48	-0.38852906
202	0xbcc9bf86	-0.024627458
203	0xbe75a605	-0.23989113
204	0x3d0fa077	0.03506514
205	0x3d8189e5	0.063251294
206	0xbe4f86f7	-0.20266329
207	0xbdf54860	-0.11976695
208	0x3e5a7561	0.21333839
209	0xbde09668	-0.10966188
210	0xbec6c9aa	-0.38825732
211	0x3e31cc60	0.17363119
212	0xbe4246f6	-0.18972382
213	0x3e444576	0.19167122
214	0xbdff622e	-0.12469898
215	0xbdb8ece3	-0.090295576
216	0xbca8f2a7	-0.020623518
217	0x3d5a80d7	0.053345527
218	0x3cd2845a	0.025697876
219	0xbd13f398	-0.03612098
220	0x3c1d50b7	0.009601763
221	0x3dc18275	0.09448711
222	0xbe42e009	-0.19030775
223	0xbd0ab09f	-0.033859845
224	0xbef02213	-0.46900997
225	0xbdaf4c54	-0.0855948
226	0xbede1605	-0.43376175
227	0xbe3dae46	-0.18523511
228	0xbdd225e3	-0.102611326
229	0xbe3e98de	-0.18613002
230	0x3d832a8d	0.064046
231	0x3e1ede14	0.15514404
232	0xbe9a99c9	-0.30195454
233	0xbe818df7	-0.25303623
234	0x3d36092a	0.044442333
235	0x3e2f583c	0.17123502
236	0x3db3b601	0.08774949
237	0xbe3323ec	-0.17494172
238	0xbe95249c	-0.29129493
239	0xbd537f63	-0.051635157
240	0x3ddbeb2d	0.107382156
241	0x3c17c8ea	0.00926421
242	0xbe53e978	-0.2069453
243	0xbd4cb336	-0.049975596
244	0xbe0dae56	-0.13836035
245	0xbeadf523	-0.33976087
246	0xbde37986	-0.11107163
247	0xbd8666ac	-0.06562552
248	0x3e1f8909	0.15579619
249	0xbe6be9ec	-0.23038453
250	0xbe9a35f9	-0.30119303
251	0xbdabf4d9	-0.0839631
252	0x3d2a252d	0.04153936
253	0xbece0911	-0.40241292
254	0x3e21d376	0.15803322
255	0xbcf3c94b	-0.02975907

a2c_network.actor_mlp.2.weight f4 [128, 256]
0	0xbcc3a60f	-0.023882894
1	0xbcea2d57	-0.028586073
2	0xbd6b2c41	-0.05741525
3	0xbd341d2c	-0.043973133
4	0xbe391a8d	-0.18076535
5	0xbdfed196	-0.12442319
6	0x3d282888	0.04105428
7	0x3d9a1335	0.07523195
8	0xbdaeccbd	-0.085351445
9	0xbe816aee	-0.25276893
10	0xbd57a21d	-0.052644838
11	0xbc6b8a70	-0.014376268
12	0xbd774f94	-0.060378626
13	0xbd3bb9b7	-0.04583141
14	0xbdb137de	-0.08653234
15	0xbcbf26f1	-0.023333998
16	0xbd2968e8	-0.041359812
17	0xbc8d2840	-0.017231107
18	0x3d08a515	0.03336056
19	0x3dbe5c54	0.09294954
20	0xbd0b72bd	-0.03404497
21	0xbc22070f	-0.009889378
22	0xbd57a0d4	-0.052643612
23	0x3d0af99e	0.03392946
24	0xbdda1466	-0.10648422
25	0x3d523538	0.051320285
26	0x3bc66d29	0.0060554934
27	0xbd7b84fa	-0.061406113
28	0xbe278558	-0.1635946
29	0x3d33f601	0.04393578
30	0xbd05c005	-0.032653827
31	0xbba58c49	-0.0050521237
32	0x3d45a198	0.04824981
33	0xbe1364f3	-0.14393978
34	0xbda9d7c5	-0.08293108
35	0xbdb5ab92	-0.08870615
36	0xbd5712f1	-0.0525083
37	0xbdbb18e6	-0.091356084
38	0x3cc2390c	0.023708843
39	0xbc53a4df	-0.012917726
40	0xbe16c6ca	-0.1472427
41	0xbca7dba4	-0.020490475
42	0x3ae9f357	0.001784901
43	0x3cbd8550	0.023134857
44	0xbd9fc190	-0.07800591
45	0x3c0d15bb	0.008611138
46	0xbc211e67	-0.009833909
47	0xbdad117e	-0.08450602
48	0x3c9a60a2	0.018844906
49	0xbd9d5379	-0.07681937
50	0x3d15f412	0.036609717
51	0xbdf02f90	-0.11727822
52	0xbd644d5a	-0.05573783
53	0xbd92a7a5	-0.07160882
54	0xbcd0eb57	-0.025502844
55	0xbe593e6c	-0.21215218
56	0x3cad903e	0.021186944
57	0xbd98b7a4	-0.07456902
58	0xbdbc7f15	-0.092039265
59	0xbe0825b5	-0.13295634
60	0xbdcf1837	-0.101120405
61	0xbe0e7446	-0.13911542
62	0xbe1f6e8f	-0.15569519
63	0xbc819ff1	-0.015823336
64	0xbd3f8deb	-0.046766203
65	0xbd682306	-0.056674026
66	0xbe17cae4	-0.1482349
67	0xbdabe307	-0.083929114
68	0xbe03da91	-0.12876345
69	0xbe00f280	-0.12592506
70	0xbe0cf7dc	-0.13766426
71	0x3c44d13b	0.012012775
72	0xbdf90c43	-0.12160542
73	0x3caacc32	0.020849321
74	0xbdc5717a	-0.096407846
75	0xbda41405	-0.08011631
76	0x394356fd	0.00018629055
77	0x3d04784f	0.032341298
78	0xbd8f4b31	-0.069967635
79	0xbdc762e4	-0.09735659
80	0xbcbdf609	-0.023188608
81	0xbc23b11a	-0.009990955
82	0xbded81e6	-0.11597042
83	0x3dabda9d	0.083913065
84	0xbe4a38e1	-0.1974826
85	0xbe6a9bf8	-0.2291106
86	0xbd293bce	-0.0413168
87	0xbc0da109	-0.008644351
88	0xbdc06865	-0.09394912
89	0xbe32f9c5	-0.17478092
90	0xbd6538dd	-0.055962432
91	0xbdbd692d	-0.09248576
92	0x3c346028	0.011009254
93	0xbd1347cc	-0.035957143
94	0xbdef7893	-0.116929196
95	0xbdb4b85f	-0.088242285
96	0xbc95f992	-0.018307481
97	0xbe4a2f77	-0.19744669
98	0xbd979623	-0.07401683
99	0xbdb71db4	-0.08941212
100	0xbda62d89	-0.08114154
101	0x3d488fd6	0.048965298
102	0x3cef065d	0.029177839
103	0xbe5db1a9	-0.21649803
104	0xbd783131	-0.060593788
105	0xbd98ba6c	-0.07457432
106	0xbd9519a6	-0.07280283
107	0x3c91f141	0.017815234
108	0x3dc472da	0.09592219
109	0xbe3c9028	-0.18414366
110	0xbe07a776	-0.13247475
111	0xbc66b963	-0.014082286
112	0xbd92451e	-0.07142089
113	0x3d1bca3a	0.038034655
114	0xbd8c4ed0	-0.0685097
115	0xbdfa8c9b	-0.122338496
116	0x3d858738	0.065199316
117	0xbd2816b5	-0.04103728
118	0xbd9be1bd	-0.076114155
119	0xbd23499f	-0.039865132
120	0xbdda4b5a	-0.106589034
121	0xbdba1e09	-0.0908776
122	0xbe0931fa	-0.13397971
123	0xbe165b04	-0.14683157
124	0xbc80d4c3	-0.015726453
125	0x3c1196cc	0.00888605
126	0xbc773b3c	-0.015089806
127	0xbc9afab0	-0.018918365
128	0xbd0b900b	-0.034072917
129	0xbbcb650b	-0.0062071136
130	0xbc871716	-0.0164905
131	0xbc928b77	-0.017888768
132	0x3c1f23f6	0.009713164
133	0xbe1cf4f7	-0.15327822
134	0xbdb1bae8	-0.08678228
135	0x3de3d68a	0.111249045
136	0xbda2da3e	-0.07951783
137	0xbe03e9e9	-0.12882198
138	0xbd68706b	-0.056747835
139	0x3b68e8c7	0.0035539137
140	0xbd6c9acd	-0.057764817
141	0xba45da00	-0.0007547438
142	0xbe215420	-0.15754747
143	0xbe11e1af	-0.14246248
144	0xbe1d9620	-0.153893
145	0xbe285e0e	-0.16442129
146	0xbe865d63	-0.26243123
147	0x3d831a51	0.06401504
148	0xbb37771d	-0.002799458
149	0xbdbe78ef	-0.0930041
150	0xbda4011f	-0.08008026
151	0xbd5a1def	-0.053251203
152	0x3c2a9232	0.010410832
153	0xbb206a5f	-0.0024477465
154	0xbda2d728	-0.07951194
155	0xbe099862	-0.13437036
156	0xbcd6199a	-0.026135255
157	0xbd5b1309	-0.05348495
158	0xbd729611	-0.059225146
159	0xbda4c81b	-0.080459796
160	0xbe8ec58b	-0.27885088
161	0xbd6d26cf	-0.05789834
162	0x3d9f50af	0.07779061
163	0x3c7893ec	0.015171986
164	0xbe1009b5	-0.14066203
165	0xbde72d77	-0.112879686
166	0x3cc7a966	0.024372768
167	0xbd079529	-0.033101235
168	0xbc0694c8	-0.008214183
169	0xbd3b3e76	-0.045713864
170	0xbd140c88	-0.036144763
171	0xbdfe87f2	-0.12428273
172	0xbd37c6c7	-0.044867303
173	0xbd811465	-0.06302718
174	0xbdf85032	-0.12124671
175	0xbd941868	-0.072312176
176	0xbe1493de	-0.14509532
177	0xbd14c18f	-0.036317404
178	0xbe3aab01	-0.18229295
179	0x3d16c291	0.036806647
180	0xbcb09dc7	-0.02155961
181	0xbdab1967	-0.083544545
182	0xbdca3712	-0.09873785
183	0xbde1a28a	-0.1101733
184	0xbda1b3b0	-0.07895601
185	0xbe5184c3	-0.20460801
186	0x3dda6899	0.10664482
187	0xbdfea1fd	-0.124332406
188	0xbe84edd3	-0.25962695
189	0xbe08ae97	-0.1334785
190	0xbd363230	-0.044481456
191	0x3ccf8a98	0.025334641
192	0xbe127784	-0.14303404
193	0xbdc367b8	-0.09541267
194	0xbd03d4c4	-0.03218533
195	0xbd9d116b	-0.07669338
196	0xbe2a921b	-0.16657297
197	0xbe55098b	-0.20804422
198	0xbdf6cd41	-0.12050868
199	0xbcb31150	-0.021858841
200	0xbd982418	-0.07428759
201	0xbdf73e30	-0.12072408
202	0xbe2c38e1	-0.16818573
203	0xbda66252	-0.08124222
204	0xbb8b5428	-0.0042519756
205	0x3c328ff1	0.010898576
206	0xbd269293	-0.040667128
207	0x3d57c0ee	0.052674226
208	0x398181c5	0.00024701483
209	0xbd82ad96	-0.06380765
210	0xbe86f3a5	-0.2635776
211	0x3c0a222f	0.008431002
212	0xbe4fbbff	-0.20286559
213	0xbd8f812a	-0.07007058
214	0xbd9e14b2	-0.07718791
215	0xbd8ef731	-0.06980742
216	0xbd6cd884	-0.057823673
217	0xbdea6b06	-0.11446194
218	0xbe4bdd04	-0.1990853
219	0xbe093e0d	-0.13402577
220	0xbdb16931	-0.08662642
221	0xbe4fcd68	-0.202932
222	0xbdf4fb9b	-0.119620524
223	0xbe09d970	-0.13461852
224	0xbd936d8e	-0.0719863
225	0xbd5e5156	-0.054276787
226	0xbcbaee38	-0.02281867
227	0xbe401651	-0.18758513
228	0xbda24f0e	-0.07925235
229	0xbd7eca72	-0.062204786
230	0xbcc1eaa0	-0.023671448
231	0xbe33ae60	-0.17546988
232	0xbdc56fa9	-0.09640438
233	0xbde9dbdc	-0.11418888
234	0xbd92bcfb	-0.071649514
235	0x3da311b6	0.079623625
236	0xbe1b0103	-0.15137105
237	0xbdabd38e	-0.0838996
238	0xbcfad25a	-0.030617882
239	0xbd725e14	-0.05917175
240	0x3d46b43d	0.048511732
241	0xbd41a66c	-0.047277853
242	0x3dc21038	0.0947575
243	0xbd8f8fe9	-0.070098706
244	0xbe6f9cb1	-0.23399617
245	0x3c972be5	0.018453548
246	0xbd80b720	-0.06284928
247	0xbd8b447e	-0.06800173
248	0xbcb78086	-0.022400152
249	0xbdc47e2e	-0.09594379
250	0xbdd9f740	-0.10642862
251	0xbd281205	-0.04103281
252	0xbda2f536	-0.079569265
253	0xbc49cd96	-0.012317082
254	0xbd89e389	-0.06732852
255	0x3d21adb8	0.03947231

a2c_network.actor_mlp.2.bias f4 [128]
0	0xbdc923a2	-0.098212495
1	0xbe190cb7	-0.14946257
2	0xbe540f99	-0.20709075
3	0xbeb22009	-0.34790066
4	0xbe8d16c1	-0.27556422
5	0xbe5c394f	-0.21506236
6	0xbe85fe11	-0.261704
7	0xbbd4c0aa	-0.006492694
8	0xbd3dfc8c	-0.046383426
9	0xbcb74491	-0.022371562
10	0xbde25872	-0.11052026
11	0xbec506ba	-0.38481694
12	0xbe22e9ef	-0.15909551
13	0xbeb121f0	-0.34596205
14	0xbe9bc4f3	-0.30423698
15	0xbd70ec00	-0.058818817
16	0x3d920fb7	0.071319036
17	0xbc211404	-0.009831432
18	0x3c4f7e43	0.0126643805
19	0xbe4ba360	-0.19886541
20	0xbe587fb6	-0.21142468
21	0x3da2babe	0.079457745
22	0xbd336c27	-0.043804314
23	0xbe7b9dc6	-0.24571905
24	0xba056778	-0.00050889654
25	0xbe722882	-0.23648265
26	0x3dbbdd34	0.091730505
27	0xbeb7a434	-0.35867465
28	0x3d451488	0.048115283
29	0xbcf796ee	-0.030223336
30	0xbc42a8f5	-0.011881103
31	0xbe3a3d07	-0.18187343
32	0xbe8468c4	-0.2586118
33	0x3d76cd99	0.060254667
34	0xbd8f2b95	-0.069907345
35	0xbe9352bd	-0.28774062
36	0xbe70384f	-0.2345898
37	0xbe9424c9	-0.28934315
38	0x3d57fff2	0.052734323
39	0x3b3794ce	0.0028012278
40	0xbe4c6784	-0.19961363
41	0xba99e327	-0.001174067
42	0xbe52c845	-0.2058421
43	0x3bf16ae5	0.007367479
44	0xbe7831f2	-0.24237803
45	0xbec13ae2	-0.37740237
46	0xbdd065c4	-0.1017566
47	0x3cdd79db	0.027035644
48	0xbc166871	-0.009180174
49	0xbd091e18	-0.033475965
50	0xbd0bf02b	-0.03416459
51	0xbd73e38f	-0.05954319
52	0x3b49d812	0.0030798954
53	0xbe12f923	-0.1435285
54	0xbcf34b94	-0.029699124
55	0xbeb88943	-0.36042222
56	0xbb4d19b2	-0.0031295833
57	0x3e19e278	0.15027797
58	0xbdcdb65a	-0.100445464
59	0xbd708913	-0.058724474
60	0xbeb40b28	-0.35164762
61	0xbc0e7e68	-0.00869713
62	0x3c504a06	0.012712961
63	0xbe518904	-0.20462424
64	0xbd444d0c	-0.04792504
65	0xbeb39fe7	-0.35082933
66	0x3cecd009	0.028907793
67	0xbe49d33a	-0.19709483
68	0x3e1c7adc	0.15281242
69	0xbdbe926a	-0.0930527
70	0x3dbd93e2	0.09256722
71	0xbe80e9dd	-0.25178424
72	0xbe027294	-0.1273902
73	0xbeb392ad	-0.35072842
74	0x3d34861c	0.04407321
75	0xbeba94d1	-0.36441663
76	0x3e14792e	0.14499351
77	0xbde469c5	-0.111529864
78	0xbedb281f	-0.42804047
79	0xbe1d1e16	-0.15343508
80	0xbdd6b893	-0.104844235
81	0xbe83b0c6	-0.25720805
82	0xbd690452	-0.056888886
83	0xbe52b991	-0.205786
84	0xbce9f91c	-0.028561167
85	0xbf2adf36	-0.6674684
86	0xbdc7998a	-0.09746082
87	0xbe6e086c	-0.232454
88	0xbe49b818	-0.19699132
89	0x3e2488ab	0.1606776
90	0xbd8aa911	-0.06770528
91	0xbd10013a	-0.03515742
92	0xbe58918b	-0.2114927
93	0x3c3f40a1	0.011673124
94	0xbd77d496	-0.060505472
95	0xbea1ae1b	-0.31578144
96	0xbe2e3cf2	-0.17015436
97	0xbe495bd7	-0.1966394
98	0xbdf5ee60	-0.12008357
99	0xbdc62cde	-0.096765265
100	0xbc7be9fb	-0.0153756095
101	0x3d8672ad	0.065648414
102	0xbe004d5e	-0.12529513
103	0xbd6dc39b	-0.058047872
104	0xbe8b842f	-0.27249286
105	0xbe9cf550	-0.3065591
106	0xbea8cc8f	-0.32968566
107	0xbe96432d	-0.29348126
108	0xbe512786	-0.20425233
109	0xbd90de24	-0.0707362
110	0xbea045c7	-0.31303236
111	0xbeb9bddf	-0.36277673
112	0xbdeee95e	-0.11665605
113	0xbde3a8a8	-0.11116153
114	0xbe56943b	-0.20954983
115	0x3d3a3c94	0.045467928
116	0xbe5277c1	-0.20553495
117	0xbd627248	-0.05528477
118	0x3d9b5e43	0.07586338
119	0xbeaef006	-0.34167498
120	0xbd8abf2f	-0.067747466
121	0xbe596535	-0.21230014
122	0xbe94cd1b	-0.29062733
123	0x3e386c05	0.18009956
124	0xbe9d76e6	-0.30754775
125	0xbe88db73	-0.26729926
126	0xbec1a358	-0.37819934
127	0xbded4534	-0.11585465

a2c_network.actor_mlp.4.weight f4 [64, 128]
0	0x3adc218a	0.0016794663
1	0x3d60e070	0.05490154
2	0x3d3b3d35	0.04571267
3	0x3c362d81	0.011119247
4	0x3d4a4107	0.04937842
5	0x3e334140	0.1750536
6	0xbe094c47	-0.13408004
7	0x3cdf6cc3	0.027273541
8	0xbc742752	-0.014901953
9	0x3cbc6f68	0.023002341
10	0x3d0dad97	0.034589376
11	0xbe017a98	-0.12644422
12	0xbc833c76	-0.016020041
13	0x3cc89d90	0.024489194
14	0x3d8c43cb	0.06848868
15	0xbe683ead	-0.22680159
16	0x3dadab21	0.08479906
17	0x3d2daa49	0.042398725
18	0xbdcbb536	-0.099466726
19	0x3e399e49	0.18126787
20	0xbc822c9e	-0.015890416
21	0xbd8f19a6	-0.06987314
22	0x3d15e318	0.036593527
23	0x3d8ce40b	0.06879433
24	0x3c2f34d6	0.010693749
25	0x3de85899	0.11345024
26	0x3dcbd3c2	0.09952499
27	0xbd6c2c32	-0.057659335
28	0xbda29593	-0.07938685
29	0x3d8afefb	0.06786915
30	0x3db7667e	0.08955096
31	0x3df42d0f	0.11922657
32	0x3d5160a7	0.051117565
33	0x3d10989f	0.0353018
34	0x3c0575b2	0.0081457365
35	0xbcbc5811	-0.022991212
36	0x3ca5ccb3	0.02023921
37	0x3cf47433	0.029840564
38	0x3c31901d	0.010837582
39	0xbd18a745	-0.037268896
40	0xbd82857b	-0.06373116
41	0x3b297f8d	0.002586338
42	0xbcddff01	-0.027099134
43	0x3cf746c9	0.03018512
44	0xbd11d552	-0.03560383
45	0xbdfe4116	-0.12414758
46	0xbe40b3c6	-0.18818578
47	0xbd726378	-0.059176892
48	0x3ce99f01	0.028518202
49	0xbccb0da1	-0.024786772
50	0x3d4f8988	0.05066827
51	0x3cec8a67	0.02887459
52	0x3dacf67b	0.0844545
53	0x3d512a80	0.05106592
54	0xbcf13b4c	-0.02944722
55	0xbdc52b0f	-0.096273534
56	0x3d28e503	0.041234028
57	0x3d018ef4	0.03163047
58	0x3daaafd0	0.08334315
59	0x3e0c8fe9	0.13726772
60	0x3dbbf5b2	0.09177722
61	0xbd165274	-0.036699727
62	0x3c83167e	0.016001936
63	0x3cd8abaf	0.026449053
64	0xbd15d1d9	-0.03657708
65	0xbdecc211	-0.11560453
66	0xbc10a146	-0.008827513
67	0xbe3f0d48	-0.1865741
68	0xbbdcdbf2	-0.0067400867
69	0x3d43e0cf	0.047821816
70	0xbc88ee4a	-0.016715188
71	0xbd50421b	-0.050844293
72	0xbe52bfc9	-0.20580973
73	0x3cda71df	0.026665626
74	0x3b93b010	0.0045070723
75	0x3e032d40	0.1281023
76	0xbdce0eee	-0.10061441
77	0xbd4bf96d	-0.049798418
78	0x3d4ce575	0.050023515
79	0xbcab34c8	-0.020899191
80	0x3cdca11d	0.026932294
81	0xbdb83699	-0.08994789
82	0xbcb8e736	-0.022571187
83	0x3c9d8ac2	0.019231204
84	0x3e0539b8	0.13010299
85	0xbd986ff0	-0.074432254
86	0x3cc2d463	0.023782915
87	0x3e258063	0.16162257
88	0x3da4e647	0.080517344
89	0x3d879aee	0.06621347
90	0x3bc9195f	0.0061370577
91	0x3d111590	0.035420954
92	0xbf3a6ce0	-0.7282238
93	0xbd795b6b	-0.0608782
94	0x3cf0f0d2	0.029411707
95	0xbeb64e41	-0.35606578
96	0x3da04254	0.07825151
97	0x39564666	0.00020434856
98	0x3d997fe1	0.07495094
99	0xbe9ad0ae	-0.30237335
100	0x3dd6fcea	0.10497458
101	0xbb271e62	-0.0025500287
102	0xbcfa4623	-0.030551022
103	0xbd6ba9db	-0.057535034
104	0xbda40781	-0.08009244
105	0xbdfa1d26	-0.12212591
106	0x3d17e43e	0.037082903
107	0xbebf2ae7	-0.3733742
108	0x3cef5e32	0.02921972
109	0xbd1997e1	-0.03749836
110	0x3da4bf78	0.08044332
111	0xbd8d3dfa	-0.06896587
112	0x3e108ec9	0.14116968
113	0x3cdf7b9a	0.027280618
114	0x3e7648d6	0.24051222
115	0x3c881a7f	0.016614197
116	0x3cd83bce	0.026395705
117	0x3d501c60	0.05080831
118	0xbbbae339	-0.0057033566
119	0x3e05abfb	0.13053887
120	0xbd5b5d28	-0.053555638
121	0xbcef8f2e	-0.029243078
122	0x3cb6ea3f	0.022328494
123	0xbcb476e3	-0.022029346
124	0xbd978816	-0.07399003
125	0x3e013964	0.12619549
126	0xbd18d181	-0.037309173
127	0xbd4995de	-0.04921519
128	0x3d14f1c4	0.03636338
129	0xbe50389d	-0.20334096
130	0xbc6af296	-0.014340064
131	0xbe95396b	-0.2914537
132	0x3bf7aaaa	0.0075581865
133	0xbced2bdd	-0.02895158
134	0x3dc32291	0.095280774
135	0xbdf8e269	-0.12152559
136	0xbe1205c7	-0.14260016
137	0xbd373794	-0.044730738
138	0xbcb3c781	-0.021945717
139	0xbd2a60e4	-0.04159631
140	0xbdb7d329	-0.089758225
141	0xbe241c35	-0.16026385
142	0xbd0ecebd	-0.03486513
143	0x3d79b974	0.060967878
144	0xbe307e37	-0.17235647
145	0x3d2c74b8	0.0421035
146	0xbc59ed49	-0.013301202
147	0xbdc614c7	-0.09671932
148	0xbd8c94f1	-0.06864346
149	0xbe65b24f	-0.224313
150	0x3d47f551	0.048817936
151	0x3e5744cd	0.21022339
152	0xbd6af3db	-0.057361465
153	0x3ce6d410	0.028177291
154	0xbaecadef	-0.0018057207
155	0xb98a742f	-0.00026407975
156	0xbde103e3	-0.109870695
157	0xbe3521b2	-0.17688635
158	0x3c774fe0	0.015094727
159	0x3e4c02f9	0.19923009
160	0x3db8f721	0.09031511
161	0x3c94b94b	0.01815476
162	0x3d55363d	0.05205368
163	0x3e0ce912	0.13760784
164	0x3db59ac4	0.0886741
165	0x3e2d29e6	0.16910514
166	0x3ccf07b2	0.025272224
167	0xbd4a9e6e	-0.049467497
168	0x3d119cd8	0.03554997
169	0xbc564bb4	-0.0130795725
170	0xbd3ea135	-0.046540458
171	0xbe4b3402	-0.19844058
172	0xbd46c2ff	-0.048525807
173	0x3e123179	0.14276685
174	0xbe229655	-0.1587766
175	0xbca66e5a	-0.020316292
176	0xbcc4453f	-0.0239588
177	0x3e91eb18	0.28499675
178	0x3c858ac4	0.01630152
179	0xbe438542	-0.19093803
180	0xbe25a761	-0.16177131
181	0xbd00c3f3	-0.03143687
182	0xbb8d35cd	-0.004309392
183	0x3de295fc	0.110637635
184	0xbda11fd5	-0.078673996
185	0xbd996b13	-0.07491126
186	0x3d3833b6	0.04497119
187	0xbd2a3efd	-0.041563977
188	0x3e3d7594	0.18501884
189	0x3c8ae468	0.016954616
190	0x3e1ede72	0.15514544
191	0x3def2fea	0.11679061
192	0x3e32f5a3	0.17476515
193	0x3d70d3f4	0.058795884
194	0xbe109106	-0.14117822
195	0xbc9a4b24	-0.018834658
196	0xbde83149	-0.113375254
197	0xbdc3a99c	-0.09553835
198	0x3d88e7b9	0.066848226
199	0xbd750786	-0.059821628
200	0xbeab4ea4	-0.33458436
201	0x3dcf9d38	0.10137409
202	0xbcd2505a	-0.02567308
203	0x3cc82793	0.024432933
204	0xbcfd3885	-0.03091074
205	0xbd8af571	-0.067850955
206	0x3cc0659a	0.023485947
207	0xbe5a5a64	-0.21323544
208	0x3d40bede	0.047057025
209	0xbd8f605e	-0.070008025
210	0xbda7ebe2	-0.08199288
211	0x3d0836a5	0.033255238
212	0x3de91931	0.11381758
213	0xbe59a75b	-0.21255247
214	0x3dc79b6d	0.09746442
215	0x3d475bdb	0.048671585
216	0xbbeeb8d8	-0.0072852187
217	0x3d5a3599	0.05327377
218	0xbe3cb4ab	-0.18428294
219	0xbc3ca297	-0.011513374
220	0xbddc4d07	-0.10756879
221	0x3d8f8426	0.07007627
222	0x3c7d72be	0.015469251
223	0x3d05c8f1	0.032662336
224	0xbd822c51	-0.06356109
225	0x3d9470cb	0.07248076
226	0x3d2dbbe3	0.04241551
227	0xbdcca627	-0.099926285
228	0x3ddb4cc5	0.10708002
229	0x3c8cdc87	0.017195
230	0xbcdd8e45	-0.027045378
231	0xbf046a97	-0.51725143
232	0xbde18b86	-0.1101294
233	0xbe86c68c	-0.26323354
234	0xbe1de2f3	-0.15418606
235	0xbe032a71	-0.12809159
236	0x3da72a50	0.08162367
237	0x3e29ef8c	0.16595286
238	0x3d51d063	0.051224124
239	0xbe967653	-0.2938715
240	0xbda274d1	-0.07932437
241	0x3cf9a401	0.030473711
242	0xbd75fe6b	-0.060057085
243	0xbdcc95f7	-0.09989541
244	0x3e301226	0.17194423
245	0x3d6951d6	0.05696281
246	0xbe55bb3a	-0.20872203
247	0x3da6f343	0.08151867
248	0x3d685a89	0.056726966
249	0x3e059912	0.13046673
250	0xbe5172a3	-0.20453887
251	0xbdeef6d9	-0.11668176
252	0x3c285bd3	0.010275799
253	0xbe7a7247	-0.24457656
254	0x3dc31cb9	0.09526963
255	0x3daa87b7	0.08326667

a2c_network.actor_mlp.4.bias f4 [64]
0	0x3d04cbcb	0.032420915
1	0x3d17798c	0.03698115
2	0xbd5f9e35	-0.054594237
3	0xbe502acf	-0.2032883
4	0x3d055549	0.032552037
5	0x3d0adf3d	0.033904303
6	0xbebd49f2	-0.36970478
7	0xbcfc3d69	-0.030791001
8	0xbd95d62d	-0.073162414
9	0x3e38c554	0.18044025
10	0x3d84e769	0.064894505
11	0xbec9b5d7	-0.39396545
12	0xbde8a13e	-0.113588795
13	0xbea4513d	-0.3209323
14	0xba19bee8	-0.0005864934
15	0x3b13f078	0.002257375
16	0xbe17335b	-0.14765684
17	0x3e0cde2e	0.1375663
18	0xbd7767f1	-0.06040186
19	0x3e53fd68	0.20702136
20	0xbe79a8f1	-0.24380852
21	0x3c1f298e	0.009714497
22	0xbc9a37e9	-0.018825488
23	0xbe1d78ed	-0.15378161
24	0xbe647ae5	-0.22312506
25	0xbea75df1	-0.3268886
26	0xbd7a56fc	-0.06111811
27	0xbe4ed43c	-0.20198148
28	0xbce88f91	-0.02838877
29	0xbe452d9a	-0.19255677
30	0xbd407fee	-0.046997003
31	0x3d459b8f	0.048244055
32	0xbdbf66e6	-0.09345798
33	0x3ddcfead	0.10790763
34	0xbd8ffcab	-0.070306145
35	0xbe1b6d93	-0.15178518
36	0xbce4d206	-0.027932178
37	0xbdac2ae8	-0.08406621
38	0xbea8dc4a	-0.32980567
39	0xbae9dc70	-0.0017842185
40	0xbe9345ca	-0.28764182
41	0xbe06d1f9	-0.13166036
42	0xbe3cdf73	-0.18444614
43	0x3e573cff	0.21019362
44	0xbe9c0d78	-0.30479026
45	0x3d966125	0.073427476
46	0xbe2b3db5	-0.16722758
47	0xbe1e2151	-0.15442397
48	0x3d9d2e3a	0.07674833
49	0xbd34df2e	-0.044158153
50	0x3d45cc86	0.048290752
51	0xbd9754be	-0.0738921
52	0xbe6391ca	-0.22223583
53	0xbdaced58	-0.08443707
54	0xbd2fd5de	-0.04292857
55	0xbd847ef3	-0.06469526
56	0x3d6a2914	0.05716808
57	0x3d6d42ea	0.057925142
58	0xbe594cce	-0.21220705
59	0xbe92f09c	-0.28699195
60	0x3c1cded3	0.00957461
61	0xbe2401ab	-0.16016261
62	0xbe7b9f7b	-0.24572556
63	0xbd2ad7be	-0.041709654

a2c_network.value.weight f4 [1, 64]
0	0x3cc3b215	0.023888627
1	0x3c53283c	0.012888011
2	0xbcc9d912	-0.02463964
3	0x3b6bdfc5	0.0035991531
4	0xbc6536e8	-0.013990141
5	0xbb8f9ef3	-0.004382962
6	0xbcb30548	-0.021853104
7	0x3c4510f6	0.01202797
8	0xbd2622d9	-0.040560577
9	0x3dac97b1	0.0842737
10	0x3c2d7081	0.010585905
11	0xbbc1d924	-0.0059157778
12	0x3d0a8b23	0.033824097
13	0xbe1ad60c	-0.15120715
14	0xbb9348b1	-0.0044947495
15	0x3c96abb0	0.018392414
16	0x3c9b7c1c	0.018980078
17	0x3d7a7647	0.061147954
18	0x3d851d5d	0.06499741
19	0xbc903118	-0.017601535
20	0xbc18a42e	-0.009316487
21	0x3a8948b0	0.0010473933
22	0x39fa93c0	0.00047793798
23	0x3c553703	0.013013604
24	0xbc40f0eb	-0.011776189
25	0xbcc7cf50	-0.024390846
26	0x3ccf9611	0.025340112
27	0x3c709d2a	0.014685908
28	0xbb9ff28c	-0.0048812088
29	0x3b9ec561	0.0048453067
30	0xbbe47b48	-0.006972704
31	0x3bdb6a6e	0.006696037
32	0xbb19bf34	-0.0023459913
33	0x3d6938b8	0.056938857
34	0xbb335704	-0.0027365098
35	0xbc09a218	-0.008400463
36	0x3b915c21	0.0044360314
37	0x3c969d8c	0.018385671
38	0xbc0e9cb8	-0.008704357
39	0x38bfd020	9.146356e-05
40	0xbc9b32dd	-0.018945152
41	0x3dc145e1	0.094371565
42	0x3dc35c7c	0.09539124
43	0x3d586795	0.05283316
44	0x3d6d1659	0.05788264
45	0x3c112dfd	0.008861062
46	0x3d832622	0.06403758
47	0xbbf96f22	-0.007612125
48	0x3acdff28	0.0015716301
49	0x3d3a3d72	0.045468755
50	0x3c0c9d58	0.008582436
51	0x3cb31adc	0.021863393
52	0x3c806b16	0.015676063
53	0xbb9b2d5d	-0.0047356323
54	0xbd587a66	-0.052851103
55	0xbccef790	-0.025264531
56	0x3ba90ceb	0.0051590106
57	0x39845326	0.00025238952
58	0x3bbe2ae0	0.005803451
59	0x3b49e363	0.00308057
60	0xbb169c69	-0.0022981411
61	0xbb5ba38d	-0.0033514232
62	0x3c018c0a	0.007906923
63	0x39d5471f	0.00040679515

a2c_network.mu.weight f4 [7, 64]
0	0xbe589dec	-0.21153992
1	0xbc23e32d	-0.010002893
2	0x3d673eff	0.056456562
3	0x3c52f9b2	0.012876915
4	0x3d46993f	0.04848599
5	0x3c0896c0	0.008336723
6	0xbdfe04ab	-0.12403234
7	0xbb86b517	-0.004110943
8	0x3d9bc26a	0.07605441
9	0xbcd3e77f	-0.025867222
10	0xbdc8b460	-0.09800029
11	0xbe421c6e	-0.18956158
12	0xbcf68cd3	-0.030096447
13	0x3b22c040	0.0024833828
14	0xbce73b11	-0.028226407
15	0xbc3271fc	-0.010891434
16	0xbc346b06	-0.0110118445
17	0xbc948506	-0.018129837
18	0xbca734c0	-0.020410895
19	0xbd0d56c6	-0.03450658
20	0xbc609560	-0.013707489
21	0x3d9915a9	0.074748345
22	0x3b3a796b	0.0028453718
23	0x3c4ab284	0.012371663
24	0x3bf470d8	0.007459741
25	0xbc43ced4	-0.011951167
26	0xba1f0ee6	-0.00060675887
27	0xbc42ff7d	-0.011901733
28	0x3d4d288b	0.050087493
29	0xbd87ec83	-0.06636908
30	0x3c1720cc	0.009224128
31	0xbc57fb5f	-0.01318249
32	0x3bf3e476	0.007443006
33	0xbdb10ea0	-0.086453676
34	0xbc972b24	-0.018453188
35	0xbc0cb6d7	-0.008588514
36	0xbd1bd512	-0.038044997
37	0xbcf2d3e3	-0.029642051
38	0x3c833683	0.016017204
39	0xbc640d06	-0.013919121
40	0xbd394e57	-0.045240726
41	0xbc57d7fe	-0.013174055
42	0xbcf11c50	-0.029432446
43	0x3d735527	0.05940738
44	0xbd52a9ae	-0.05143135
45	0x3bf65ea9	0.0075186086
46	0x3c719f43	0.014747444
47	0xbbe0620f	-0.006847627
48	0xbb9047ed	-0.0044031055
49	0x3d3f9c4e	0.046779923
50	0xbc098886	-0.008394366
51	0x3964f634	0.00021835492
52	0xbd1aafd1	-0.037765328
53	0xbcd10e30	-0.02551946
54	0x3c2f061a	0.010682607
55	0x3d606868	0.05478707
56	0x3db1260e	0.086498365
57	0x3e3b12b4	0.18268853
58	0xbcd6a9cb	-0.02620401
59	0xbcb45979	-0.02201532
60	0xba273ecc	-0.0006379902
61	0xbd3022c2	-0.043001898
62	0x3c62202c	0.013801616
63	0x3e007c4a	0.12547413
64	0x3a1437f4	0.00056540896
65	0x3e2579e4	0.16159779
66	0x3cc8bebd	0.024505014
67	0xbb9a0f10	-0.0047015026
68	0xbe641138	-0.22272193
69	0x3c894f2f	0.01676139
70	0xbc4466dd	-0.011987415
71	0xbcb418a8	-0.021984413
72	0xbca3f844	-0.020015843
73	0x3bfaec06	0.0076575307
74	0xbdef3e7e	-0.11681841
75	0xbc8d1d11	-0.017225774
76	0xbcdb670a	-0.026782531
77	0xbd171597	-0.036885824
78	0x3c70c05c	0.0146943
79	0xbb62de9d	-0.003461755
80	0x3ba15790	0.0049237683
81	0x3d593036	0.053024493
82	0x3c8dce36	0.017310243
83	0xbd53dc31	-0.051723663
84	0xbce7e1ba	-0.028305877
85	0x3d5ca323	0.053866517
86	0x3b823a06	0.003974202
87	0x3d8eca38	0.06972164
88	0x3d01f00f	0.03172308
89	0xbc1802c3	-0.009278002
90	0xbc8ed1bd	-0.017433995
91	0x3962ba7b	0.00021622509
92	0xbd4857e0	-0.04891193
93	0x3d0324ab	0.03201739
94	0xbd248c41	-0.04017282
95	0x3c9576d3	0.018245136
96	0xbc02c6bc	-0.007981952
97	0x3d4bd588	0.049764186
98	0x3c5485b1	0.012971328
99	0x3d8bfaa6	0.06834917
100	0x3b8b4316	0.0042499406
101	0x3b0f3626	0.0021852343
102	0x3ca96cfb	0.020681849
103	0xbd773d87	-0.06036141
104	0x3d42ab6a	0.047526754
105	0xbbf54075	-0.0074844905
106	0xbb59a8d7	-0.0033212209
107	0x3cbaf208	0.022820488
108	0xbd2cf9d0	-0.042230427
109	0xbdffcbdf	-0.12490057
110	0x3c196bf8	0.009364121
111	0xbd249749	-0.04018334
112	0xbd5461dc	-0.05185114
113	0xbd5f8c25	-0.05457701
114	0x3c001030	0.007816359
115	0x3b781e28	0.0037859771
116	0xbd130c71	-0.035900537
117	0xbc5e1ea6	-0.013557112
118	0x3c879bd9	0.016553806
119	0x3d4a75e8	0.04942885
120	0xbc261a91	-0.01013817
121	0x3d3f1ae9	0.046656523
122	0xbc6ab4fe	-0.014325378
123	0x3d263852	0.040581055
124	0xbc52b7a8	-0.01286117
125	0x3cf5aff0	0.02999112
126	0x3d2ca67f	0.04215097
127	0xbdb74367	-0.08948403
128	0xbd8c1484	-0.068398505
129	0x3cb2c0c4	0.021820433
130	0x3b903dc1	0.004401893
131	0xbcd4419a	-0.025910188
132	0xbc2357c3	-0.0099696545
133	0xbd91219f	-0.07086491
134	0x3de2e949	0.11079652
135	0x3d1a75d0	0.03771001
136	0x3ba8ee3e	0.005155354
137	0xbd26b8d0	-0.040703595
138	0x3c934c18	0.01798062
139	0x3ac6a002	0.0015153887
140	0x3c8a69ea	0.016896207
141	0x3a040e49	0.0005037529
142	0x3d0e70b4	0.03477545
143	0xbb8c9a79	-0.0042908755
144	0xbb9ecd5e	-0.004846259
145	0xba6cef58	-0.00090383505
146	0xbb19119e	-0.0023356448
147	0x3d8ef365	0.069800176
148	0x3c9660db	0.018356731
149	0x3ddb69a5	0.107135095
150	0x3a3318f9	0.00068320293
151	0xbd7a44c6	-0.061100744
152	0xbd1a5b7b	-0.0376849
153	0xba5333c7	-0.00080567267
154	0x3b103a1d	0.0022007294
155	0xbaa2f38a	-0.00124322
156	0x3dea8cf9	0.1145267
157	0x3d30cc5f	0.043163653
158	0x3d577adc	0.052607402
159	0x3c597fa0	0.013275057
160	0x3bc6c8d2	0.00606642
161	0x3d2fa8a5	0.04288544
162	0xbc4a09e1	-0.012331457
163	0xbc46a715	-0.012124796
164	0xbdd1712a	-0.102266625
165	0xbd7b79a4	-0.061395302
166	0xbb2edd9e	-0.0026682387
167	0xbd912c8f	-0.07088577
168	0x3b6f7e39	0.003654374
169	0xbbce4178	-0.0062944256
170	0xbc19d5bd	-0.009389338
171	0x3c67fa74	0.014158834
172	0x3d56a441	0.05240274
173	0x3bf0d614	0.007349739
174	0x3c18bf82	0.009323003
175	0xbbd6446b	-0.006538918
176	0xbd26140e	-0.04054647
177	0xbd12561f	-0.035726663
178	0xb9a6a924	-0.00031788007
179	0xbb8b1e37	-0.0042455452
180	0x3c6e6e9c	0.0145527385
181	0xbe057bb0	-0.13035464
182	0x3c8dbc98	0.017301843
183	0xbc0a0aa4	-0.0084253885
184	0x3e096108	0.1341592
185	0xbd0b90e1	-0.034073714
186	0xbcf5034c	-0.029908799
187	0xbd42786d	-0.04747813
188	0xbb21dcf0	-0.002469834
189	0x3cecb43a	0.028894532
190	0xbbb677bb	-0.005568472
191	0x3d5a6bd0	0.053325474
192	0x3cba5c4a	0.022749085
193	0xbda62bbf	-0.08113813
194	0xbdf37953	-0.11888375
195	0x3cdd09e3	0.026982253
196	0xbd03f076	-0.032211743
197	0xbd89c972	-0.06727876
198	0xbd1fc920	-0.039010167
199	0xbd9ce7ca	-0.07661398
200	0xbc415f96	-0.011802575
201	0x3dae4ddc	0.08510944
202	0x3b275b91	0.0025536756
203	0xbd5bb952	-0.053643532
204	0x3c79e6cd	0.015252781
205	0xbc8c9bf1	-0.017164202
206	0x3e0f1fbd	0.13976951
207	0xbc638ec6	-0.01388902
208	0x3cda7064	0.02666492
209	0x3c3f3c4d	0.011672092
210	0xbaf2d6f7	-0.0018527199
211	0x3dabc3c5	0.083869494
212	0xbdc255c3	-0.09489014
213	0x3db74db0	0.089503646
214	0xbbe9ef8f	-0.0071391533
215	0xbc3bf095	-0.011470933
216	0x3df63beb	0.12023147
217	0xbd213e5d	-0.039366115
218	0x3b44f3f6	0.0030052639
219	0x3cfb68dc	0.03068965
220	0x3e46c6f5	0.19411834
221	0xbd97f5ac	-0.07419905
222	0x3d37441e	0.044742696
223	0xbdb596bf	-0.08866643
224	0xbcf7cd31	-0.03024921
225	0x3d9cd8c7	0.076585345
226	0x3da94049	0.082642145
227	0x3cc4e419	0.024034547
228	0xbe255a9e	-0.16147849
229	0x3e13c0a5	0.14428957
230	0xbca53f06	-0.020171653
231	0x3d8ff514	0.07029167
232	0x3ddd767d	0.108136155
233	0x3bf2962e	0.0074031567
234	0x3cbc1462	0.022958938
235	0xbd9af359	-0.07565946
236	0xbd90c15a	-0.07068129
237	0xbda59f9a	-0.08087082
238	0x3cc71ace	0.024304774
239	0xbcc2185d	-0.023693258
240	0x3dbc86f8	0.09205431
241	0x3d66c092	0.056335993
242	0xbb5a6f9e	-0.003333069
243	0xbd21b9d3	-0.039483856
244	0xbcffc3db	-0.03122132
245	0x3db6594f	0.08903753
246	0x3d5bfbba	0.053706862
247	0x3db2be09	0.087276526
248	0xbddafbb9	-0.106925435
249	0xbd0f6760	-0.035010695
250	0xbd81a8fe	-0.06331061
251	0xbc4c1225	-0.012455498
252	0x3c88e459	0.016710447
253	0xbe095327	-0.13410626
254	0xbeadb2f9	-0.33925608
255	0xbdb90323	-0.090338014

a2c_network.mu.bias f4 [7]
0	0x3d59f977	0.053216424
1	0xbc02e4c5	-0.007989113
2	0xbe917c30	-0.2841506
3	0xbd812064	-0.06305006
4	0xbde86c42	-0.113487735
5	0x3dca61a9	0.098819084
6	0xbd3319ef	-0.043725904

exp_avg f4 [7]
0	0xbabf62cc	-0.0014601587
1	0xbad3b59b	-0.0016152145
2	0x3a1abc16	0.0005902661
3	0x38dbe0b8	0.00010484591
4	0x3ac6aa96	0.001515704
5	0x3a6a428c	0.0008936308
6	0xba886977	-0.0010407408

exp_avg_sq f4 [7]
0	0x3847f582	4.7673944e-05
1	0x3836369e	4.3443048e-05
2	0x3852bf1d	5.024589e-05
3	0x38280a1e	4.0063744e-05
4	0x382e92aa	4.1621424e-05
5	0x3857c294	5.144121e-05
6	0x383f86e3	4.566357e-05
