runs/FrankaCubeStack_01-19-14-17/nn/last_FrankaCubeStack_ep_100_rew_22.566923.pth (torch, 578871 bytes, 36 tensors)

value_mean_std.running_mean f8 [1]
0	0x401509c8fba744cc	5.259555751880907

value_mean_std.running_var f8 [1]
0	0x401fe08bfb328cae	7.969283986053751

value_mean_std.count f8 []
0	0x4189000008000000	52428801.0

running_mean_std.running_mean f8 [19]
0	0xbf7b510748db6e8e	-0.006669071631872149
1	0x3f965ff5b3d41da7	0.021850432492127727
2	0x3f95afad34745df9	0.02117796547562809
3	0x3fecf261cf4627c7	0.9045876549073392
4	0x3f8006acafc83552	0.007825230707590922
5	0xbf72023f88b45235	-0.004396675281232156
6	0x3ff0d04226cca276	1.0508443370437397
7	0xbf6d0e8604d04e0a	-0.003546964412189051
8	0x3f76ac8db43a8699	0.005535653621025504
9	0x3f8453b545a2bf3d	0.009925285518277977
10	0xbf626b210cfb6ffe	-0.002248348762675433
11	0xbf7638095bc141ad	-0.005424534374541085
12	0x3ff15bd41ca163bd	1.0849190824867343
13	0xbfde3726753a394d	-0.47211610267631415
14	0xbfb0dde89ce49e56	-0.06588605718990811
15	0xbfbb319c69f03fba	-0.10622575365437018
16	0x3f90645402c32660	0.016007721584890056
17	0x3f956918c786fa61	0.020908724954774253
18	0x3f966d50f16fcc2c	0.021901383148314732

running_mean_std.running_var f8 [19]
0	0x3fa3390a2b745c2e	0.0375445535702784
1	0x3f91b56a7cb80833	0.017293609487758665
2	0x3fb84b82e926fe02	0.09490221206851149
3	0x3f9f7214c36cd6a4	0.030708622386746
4	0x3f9cc5cd62909afd	0.0280983058366031
5	0x3f9acb633bd43e98	0.026166487242390873
6	0x3f4ece1a4a610cce	0.0009400966998857287
7	0x3fb2af11ab70a2b1	0.07298384128138015
8	0x3fb1cfbbf993db5d	0.06957602351381582
9	0x3f80e9c2503fbd3c	0.00825835997963386
10	0x3f96682dd1bf6f8e	0.021881786276807307
11	0x3f95efe3f5229aaf	0.021422921978820394
12	0x3f7b22a6ef0618a4	0.006624843678201629
13	0x3fe5d7d9fbeb21db	0.6825990600855748
14	0x3fa75f425933f949	0.045648644818344915
15	0x3f9b86100e92e493	0.026878596200479676
16	0x3f77de03919ac30e	0.005826963367937988
17	0x3f18d2ee66464864	9.469585490354395e-05
18	0x3f18f3b89d63cdba	9.518446254102352e-05

running_mean_std.count f8 []
0	0x4179000010000000	26214401.0

a2c_network.sigma f4 [7]
0	0xbf276c8d	-0.6540001
1	0xbf1f736c	-0.62285495
2	0xbf4361d6	-0.7632116
3	0xbe8a85fc	-0.27055347
4	0xbe908047	-0.28222868
5	0xbe3bbf70	-0.18334746
6	0xbf63d383	-0.88994616

a2c_network.actor_mlp.0.weight f4 [256, 19]
0	0x3ca85e77	0.020552857
1	0x3c645a50	0.013937548
2	0x3b8767c9	0.004132245
3	0xbd0f2afe	-0.03495311
4	0x3ee5a5cb	0.44853052
5	0xbee1c54a	-0.44095832
6	0xbe38c5ba	-0.18044177
7	0xbd824cb0	-0.06362283
8	0xbd138328	-0.036013752
9	0x3bc428c3	0.0059863045
10	0xbeeece1a	-0.46641618
11	0x3e985867	0.29754946
12	0xbf103afc	-0.56340003
13	0x3d8340ca	0.06408842
14	0x3ca00ad7	0.019536419
15	0xbd964adc	-0.07338497
16	0x3e18f524	0.14937264
17	0x39728909	0.00023129968
18	0x3df79a1c	0.12089941
19	0x3d2f77b0	0.042838752
20	0xbdac5772	-0.08415116
21	0x3cf6a59a	0.030108262
22	0xbd16f9ee	-0.036859445
23	0x3e462347	0.19349395
24	0x3ee5a74e	0.44854206
25	0xbd1e9221	-0.038713578
26	0xbd0f4125	-0.034974236
27	0x3dd8f04c	0.10592708
28	0x3e5fb436	0.21846089
29	0xbdcb0b5d	-0.09914277
30	0xbebfad43	-0.37436876
31	0xbe274b75	-0.16337378
32	0xbdab8576	-0.08375065
33	0xbd68d955	-0.05684789
34	0x3e3d6ce7	0.18498574
35	0x3d882919	0.06648464
36	0x3dcb95e2	0.09940697
37	0x3d462e67	0.048384096
38	0xbd21f646	-0.039541505
39	0x3d172d50	0.036908448
40	0xbcc962a2	-0.024583165
41	0x3d0984ad	0.033573795
42	0xbe20bed5	-0.15697797
43	0x3ee5b683	0.44865808
44	0xbe4f99bc	-0.20273489
45	0xbd30b73a	-0.04314349
46	0xbbb2f3a7	-0.0054611745
47	0x3e140c86	0.14457902
48	0x3e0edc15	0.13951142
49	0xbed92057	-0.42407486
50	0xbef6e76b	-0.48223433
51	0x3d93dec6	0.07220225
52	0xbd447f2c	-0.047972843
53	0x3bc5d275	0.0060370513
54	0xbe225c55	-0.15855534
55	0xbd2665d7	-0.040624466
56	0xbc52fd14	-0.012877721
57	0x3c25f842	0.01012999
58	0xbc3f585e	-0.011678783
59	0x3c098123	0.008392605
60	0x3d7ba3ac	0.061435387
61	0xbf0fb64a	-0.56137526
62	0xbd2f7c34	-0.04284306
63	0x3d0fe58d	0.035131026
64	0xbd970b64	-0.073752195
65	0xbd876d76	-0.06612675
66	0xbc925fab	-0.017867884
67	0x3ee0c2a7	0.43898508
68	0xbd1761f5	-0.036958653
69	0xbecbd4e1	-0.3981085
70	0x3c86a9d7	0.016438408
71	0xbd743db8	-0.059629172
72	0xbc1dcf6a	-0.009631971
73	0x3d848556	0.06470744
74	0x3e1b9967	0.15195237
75	0xbe185aad	-0.1487834
76	0xbd6199eb	-0.05507843
77	0x3e1ace06	0.15117654
78	0x3b0d270a	0.0021538162
79	0x3d9b3ec5	0.07580332
80	0xbeb1b1b6	-0.34705895
81	0xbdd85f19	-0.105650134
82	0x3eaa2da5	0.3323795
83	0xbe0dd3c5	-0.13850315
84	0xbe5a3e4f	-0.21312831
85	0xbe7f3d56	-0.24925742
86	0x3e4a4ae5	0.19755132
87	0xbdaf0100	-0.085451126
88	0x3de57df5	0.11205665
89	0xbda58d6f	-0.08083617
90	0x3be97170	0.0071241185
91	0x3e411b13	0.18857984
92	0x3d2fdca4	0.04293503
93	0x3dcf2ae2	0.10115601
94	0xbe4c0e5b	-0.19927351
95	0x3c8ea299	0.017411517
96	0xbb957d06	-0.004562023
97	0x3cff98b5	0.031200746
98	0xbd317529	-0.043324623
99	0x3d85b668	0.06528932
100	0x3ca24f71	0.019813271
101	0xbe14459e	-0.14479682
102	0xbdd6e591	-0.10493005
103	0xbd90a78a	-0.070632055
104	0xbe6168e0	-0.22012663
105	0xbe1cbefd	-0.15307231
106	0xbd1c6845	-0.038185377
107	0xbcfe3aee	-0.03103396
108	0xbd0d6616	-0.034521185
109	0x3cf66fd1	0.030082615
110	0x3c2af873	0.0104352115
111	0x3cd3b910	0.02584508
112	0x3e578a1d	0.2104878
113	0xbe436776	-0.19082436
114	0x3d92b80a	0.07164009
115	0x3d75f820	0.060051084
116	0xbc9de3d9	-0.019273685
117	0xbdd1f8cf	-0.102525346
118	0xbe905591	-0.28190282
119	0x3eb2e6a0	0.34941578
120	0xbe14b800	-0.14523315
121	0xbcdeda62	-0.027203742
122	0xbdef5dac	-0.11687788
123	0x3e0e2944	0.13882929
124	0x3e4421c1	0.19153501
125	0xbe6fa92f	-0.23404382
126	0xbe47712b	-0.19476764
127	0xbd4f409e	-0.050598733
128	0x3e44a599	0.19203795
129	0xba90f337	-0.0011058812
130	0xbe364123	-0.17798285
131	0x3dd5e6bb	0.10444399
132	0xbdc5544c	-0.09635219
133	0xbd7075ea	-0.0587062
134	0x3cc4e599	0.024035262
135	0x3cffe62e	0.031237688
136	0xbdf5c9d6	-0.12001388
137	0xbd9ad610	-0.075603604
138	0x3f110f51	0.56663996
139	0x3e76b357	0.2409185
140	0x3c8045af	0.015658228
141	0x3e3607e6	0.1777645
142	0x3d01fafe	0.031733505
143	0x3db0da51	0.086353905
144	0xbf09606d	-0.5366276
145	0x3e798cdb	0.24370138
146	0xbd012eea	-0.03153888
147	0xbd7cfc62	-0.06176413
148	0x3e24c280	0.16089821
149	0xbd1e7a3c	-0.03869079
150	0xbde8117c	-0.1133146
151	0xbdbb5735	-0.09147493
152	0xbc66c0b5	-0.014084031
153	0x3bdb14dc	0.0066858362
154	0xbc98c500	-0.018648624
155	0xbdbd274c	-0.09236011
156	0xbee92ac9	-0.45540455
157	0xbecbd34c	-0.39809644
158	0x3e09609f	0.13415764
159	0x3e09285f	0.13394307
160	0xbdf1ec7c	-0.11812684
161	0xbdad5aaa	-0.084645584
162	0x3f0837b3	0.5320999
163	0x3e6dbdc5	0.23216923
164	0xbe9786dc	-0.29595077
165	0x3c4d2658	0.012521349
166	0x3d356e2a	0.044294514
167	0x3d285e86	0.04110577
168	0x3d426ac1	0.04746509
169	0xbd236b31	-0.039897148
170	0x3da1480d	0.07875071
171	0xbeda8e0d	-0.426865
172	0x3e6ad30c	0.2293207
173	0x3dedbff4	0.11608878
174	0x3f8277c2	1.0192797
175	0x3e5747e9	0.21023525
176	0xbe82cb4f	-0.25545737
177	0x3de78845	0.11305288
178	0x3d1ba01a	0.03799448
179	0xbd234a7f	-0.039865967
180	0xbd8f979e	-0.070113406
181	0xbe70c1eb	-0.23511474
182	0x3e408d41	0.18803884
183	0x3f0dc5b0	0.5537977
184	0x3db34b8e	0.08754645
185	0xbda540de	-0.08069013
186	0xbe316023	-0.1732183
187	0xbe46bcc3	-0.19407944
188	0xbd8c3352	-0.06845726
189	0x3dc383bd	0.095466115
190	0x3dadf28c	0.08493528
191	0xbe20a986	-0.15689668
192	0x3da7b497	0.08188742
193	0x3ca3c8aa	0.019993145
194	0xbe967c6e	-0.29391807
195	0x3cc849e2	0.024449293
196	0x3e6134ab	0.21992747
197	0xbe411e95	-0.18859322
198	0xbd1aa82c	-0.037758037
199	0x3afe0a00	0.0019381642
200	0x3cfa9bf9	0.030591952
201	0xbe0bb4a0	-0.13643122
202	0x3ef39e73	0.47581825
203	0x3d9f7dcc	0.07787666
204	0xbd945e32	-0.07244529
205	0xbe6b6bf4	-0.229904
206	0x3e3dba82	0.18528178
207	0x3ddf9849	0.10917718
208	0xbc138d7f	-0.009005903
209	0xbdeccc9b	-0.11562463
210	0xbee527ab	-0.44756827
211	0xbd67fbb7	-0.05663654
212	0x3ddd50e9	0.10806448
213	0x3ec040ef	0.3754954
214	0x3f01db90	0.5072565
215	0x3ea073bc	0.31338298
216	0x3d282989	0.041055236
217	0x3da2b9c5	0.07945589
218	0xbe8f5dea	-0.28001338
219	0xbeecc416	-0.46243352
220	0xbedd8a20	-0.43269444
221	0x3936d661	0.00017436735
222	0xbd8190ab	-0.06326421
223	0xbd452aeb	-0.048136633
224	0xbdf59e7a	-0.11993118
225	0xbc8444b7	-0.016146047
226	0xbd963d0d	-0.07335863
227	0xbd8e0bf8	-0.069358766
228	0xbcad2054	-0.02113358
229	0x3d3a643f	0.04550576
230	0x3d13e615	0.036108095
231	0x3c86b8d6	0.016445559
232	0xbddc89bb	-0.107684575
233	0xbe5ceba7	-0.21574269
234	0xbefbabfb	-0.49154648
235	0xbdd6b199	-0.10483093
236	0xbdec4e68	-0.11538392
237	0x3f28b408	0.65899706
238	0xbda47869	-0.08030779
239	0x3e128024	0.14306694
240	0x3f057037	0.5212435
241	0x3dec364f	0.11533796
242	0x3c281c07	0.0102605885
243	0xbdc64437	-0.0968098
244	0xbc3a698f	-0.011377706
245	0xbd03f255	-0.032213528
246	0x3e3cf255	0.18451817
247	0xbcbde325	-0.0231796
248	0xbd8006e0	-0.06251311
249	0x3b511545	0.0031903547
250	0xbdbec307	-0.09314542
251	0x3eb2d7b7	0.34930202
252	0xbf0c58a1	-0.54822737
253	0x3e08945c	0.13337845
254	0x3d6e8f68	0.05824223
255	0x3ba4d24b	0.0050299517

a2c_network.actor_mlp.0.bias f4 [256]
0	0xbe974fc9	-0.2955306
1	0xbd0c2b65	-0.03422107
2	0xbe43e6f6	-0.19131073
3	0xbe33144e	-0.17488214
4	0x3da91514	0.082559735
5	0xbca7a56f	-0.020464627
6	0xbe74c426	-0.2390295
7	0x3d823181	0.06357098
8	0xbe1f7327	-0.15571271
9	0x3e0cf996	0.13767084
10	0x3ddc2c9e	0.107506976
11	0x3bb1e3ea	0.005428781
12	0x3e8cc857	0.27496597
13	0xbe3053db	-0.17219488
14	0xbe6ae360	-0.22938299
15	0xbe99f2e6	-0.3006813
16	0x3d37396a	0.04473249
17	0x3c7b34a2	0.015332373
18	0xbc6a3bbc	-0.014296468
19	0xbed1c5d3	-0.4097124
20	0xbdda2907	-0.106523566
21	0x3d8f9b34	0.070120245
22	0xbe0e28a4	-0.1388269
23	0xbe677273	-0.22602253
24	0xbe8760fe	-0.26441187
25	0x3e0b0e80	0.1357975
26	0xbd2060fc	-0.03915499
27	0xbe678d6a	-0.22612539
28	0x3da8b479	0.082375474
29	0xbe5173f5	-0.2045439
30	0xbdd8770e	-0.10569583
31	0x3dc20ce8	0.09475118
32	0xbdf2c765	-0.11854438
33	0xbe4c553b	-0.19954388
34	0x3df5f538	0.120096624
35	0xbe4c9dc8	-0.19982064
36	0xbe893e03	-0.26805124
37	0xbe04b3a9	-0.1295916
38	0x3e84494f	0.2583718
39	0x3df33563	0.11875417
40	0xbea9e7d5	-0.33184686
41	0xbe6b6c96	-0.22990641
42	0xbddd26f2	-0.10798444
43	0xbe977db9	-0.29588106
44	0xbe7756af	-0.24154161
45	0xbd977374	-0.07395068
46	0x3dae30e1	0.08505417
47	0xbe643aea	-0.22288099
48	0x3d8a9285	0.06766228
49	0x3d91eace	0.071248636
50	0xbe5c7e89	-0.21532644
51	0xbe90451d	-0.2817773
52	0x3e333f88	0.17504704
53	0x3ef993af	0.48745486
54	0xbd71f49f	-0.05907118
55	0x3dfd8f5b	0.123808585
56	0xbe583292	-0.21113041
57	0x3d80bf8c	0.06286535
58	0xbe0364f9	-0.12831487
59	0xbe5fd68a	-0.21859184
60	0xbe10871f	-0.14114045
61	0xbe08e9f5	-0.13370498
62	0xbdaff878	-0.085923135
63	0xbe216ab9	-0.15763368
64	0xbe88f4f6	-0.2674939
65	0xbe0baca5	-0.13640077
66	0xbe217b03	-0.15769581
67	0xbe4c939c	-0.19978184
68	0x3bda2704	0.006657483
69	0xbe15b23f	-0.14618777
70	0xbe245170	-0.16046691
71	0xbe8ebccf	-0.27878425
72	0x3df33421	0.11875177
73	0xbda890da	-0.08230753
74	0x3dbe7e88	0.09301478
75	0xbe7daaec	-0.24772233
76	0x3ca2e4cb	0.019884488
77	0x3d2ed320	0.042681813
78	0xbea017c1	-0.31268123
79	0xbdfcec0a	-0.123497084
80	0x3e4358bd	0.1907682
81	0xbe2fee8f	-0.17180847
82	0xbebc4864	-0.3677398
83	0xbe2d09d9	-0.16898288
84	0xbd8088b6	-0.062760755
85	0xbdcf73d1	-0.10129512
86	0xbdb72e63	-0.089443944
87	0x3e5bd96d	0.2146966
88	0xbc8328ea	-0.01601072
89	0x3d950eba	0.072781995
90	0xbdc754b4	-0.09732953
91	0x3e0b6e3d	0.13616271
92	0x3da97c29	0.08275635
93	0x3e9a851d	0.30179682
94	0x3caa068d	0.020755077
95	0x3dc7f1b4	0.09762898
96	0x3d8b78a9	0.068101235
97	0x3ddd105d	0.10794137
98	0x3d4fda2b	0.05074517
99	0xbe525a80	-0.20542336
100	0x3dc7c355	0.097540535
101	0x3d74dbee	0.059780054
102	0x3d30c2d1	0.04315454
103	0x3d2a2a8c	0.041544482
104	0x3dad8145	0.08471922
105	0xbbea120a	-0.0071432637
106	0x3e198029	0.14990295
107	0x3e5f2a8d	0.21793576
108	0x3e17da2d	0.14829321
109	0xbd25f29c	-0.040514573
110	0xbdb822b1	-0.08990992
111	0xbd572349	-0.052523885
112	0xbcd0e53d	-0.025499934
113	0x3dbd78c9	0.092515536
114	0xbe44b589	-0.19209875
115	0x3d15327f	0.03642511
116	0xbebd745b	-0.37002835
117	0xbeb53ddb	-0.35398754
118	0xbd947547	-0.072489314
119	0x3e27dedd	0.1639361
120	0xbe97d524	-0.296548
121	0xbe8ecb52	-0.27889496
122	0xbdd03565	-0.10166434
123	0xbe6dbb0d	-0.23215885
124	0x3e1842af	0.14869188
125	0xbe84211f	-0.2580652
126	0xbe38ace7	-0.18034707
127	0xbd4744b1	-0.048649494
128	0xbd9d6013	-0.0768434
129	0x3d0dd955	0.034631092
130	0x3e13e4ce	0.14442751
131	0x3e83582d	0.2565321
132	0xbe8eea90	-0.27913332
133	0xbc98cdc2	-0.0186528
134	0x3d8697ff	0.0657196
135	0xbea5d756	-0.3239085
136	0xbd71c9b7	-0.05903026
137	0xbe45ff49	-0.19335665
138	0x3d982a57	0.07429951
139	0x3d8564f3	0.06513395
140	0x3d0afffd	0.033935536
141	0xbe4b60fb	-0.19861214
142	0xbea45790	-0.32098055
143	0xbe1f66c5	-0.15566547
144	0xbdf26900	-0.118364334
145	0xbe7080fb	-0.23486702
146	0x3defb262	0.11703946
147	0x3d464915	0.04840954
148	0xbc0db5dd	-0.008649317
149	0xbecd4d26	-0.40097922
150	0xbd0fe601	-0.03513146
151	0x3dca9320	0.09891343
152	0x3dfedfc3	0.12445023
153	0xbe0e6ebd	-0.13909431
154	0xbe65276a	-0.22378317
155	0xbe781786	-0.24227723
156	0x3d8e7ae7	0.069570355
157	0x3d806436	0.06269114
158	0xbe57e0d0	-0.21081853
159	0xbe9b8929	-0.30378082
160	0xbe87b2bf	-0.2650356
161	0xbea103e1	-0.31448272
162	0x3d8f0422	0.0698321
163	0x3cd41a4d	0.025891447
164	0xbdcc64af	-0.09980141
165	0xbe8346dd	-0.25640002
166	0xbe0c8d29	-0.13725723
167	0x3de316ec	0.110883564
168	0xbe6a56ae	-0.22884628
169	0xbc9dd560	-0.019266784
170	0x3d8c9e1d	0.06866095
171	0xbd2a8d48	-0.041638643
172	0xbe08f5b4	-0.13374978
173	0xbea8c258	-0.32960773
174	0xbe06ba11	-0.13156916
175	0xba824017	-0.0009937313
176	0xbd52ea19	-0.051492784
177	0x3e57076b	0.20998923
178	0xbe2e34cc	-0.17012328
179	0xbe6bdb35	-0.2303284
180	0x3df1d25b	0.118077
181	0xbda7af21	-0.081877
182	0x3c387b25	0.011259829
183	0xbe0a9692	-0.13534
184	0x3c6a50ab	0.014301459
185	0x3bf0b921	0.007346288
186	0xbe4d70b6	-0.20062527
187	0x3b08b64e	0.0020860615
188	0x3e86e183	0.26343927
189	0xbe0159cc	-0.12631911
190	0x3d9529de	0.07283376
191	0xbf156d10	-0.5836954
192	0xbd535bf9	-0.051601384
193	0xbcdb2d79	-0.026755081
194	0x3b82c5e4	0.0039908756
195	0x3d2eea85	0.042704124
196	0xbe0396d4	-0.12850505
197	0xbda0aba1	-0.078452356
198	0xbc040a47	-0.008059091
199	0xbeb08c2a	-0.34481937
200	0xbe8d20bd	-0.2756404
201	0xbeb0e007	-0.3454592
202	0xbd31787b	-0.04332779
203	0xbe715fc4	-0.23571688
204	0x3d0cb610	0.034353316
205	0x3d2d32b0	0.042284667
206	0xbe237eb4	-0.15966302
207	0xbd5ebbcc	-0.054378316
208	0x3e517cb8	0.20457733
209	0xbd9ee442	-0.077583805
210	0xbe9f7b48	-0.31148744
211	0x3e590503	0.21193318
212	0xbe3ce671	-0.18447281
213	0x3e2cc215	0.16870911
214	0xbd435710	-0.04769045
215	0xbd6579b3	-0.056024265
216	0xbd03a489	-0.032139335
217	0x3d463ce1	0.048397902
218	0x3c30b499	0.010785245
219	0xbd1d24ac	-0.03836505
220	0x3bf93a64	0.0076058377
221	0x3db08950	0.0861994
222	0xbe3b9af9	-0.18320836
223	0xbb19ed8d	-0.0023487539
224	0xbedd6f3e	-0.43248934
225	0xbddb2392	-0.10700144
226	0xbed80ba7	-0.4219639
227	0xbe5259bf	-0.20542048
228	0xbdcaf173	-0.09909334
229	0xbe679a95	-0.22617562
230	0x3d3d97d6	0.04628738
231	0x3e11e6e0	0.14248228
232	0xbe91ebb5	-0.28500143
233	0xbe5e036a	-0.2168099
234	0x3d6f2f07	0.05839446
235	0x3e0f6a77	0.14005457
236	0x3daf241e	0.08551811
237	0xbe28ab4b	-0.16471593
238	0xbe82a801	-0.25518802
239	0xbccf61e4	-0.025315233
240	0x3d1a6444	0.037693277
241	0xbd05a8ec	-0.0326318
242	0xbe7b591b	-0.2454571
243	0xbd16afce	-0.036788754
244	0xbe07f995	-0.13278802
245	0xbe95b79f	-0.29241654
246	0xbe068677	-0.13137232
247	0xbd961d3c	-0.07329795
248	0x3e0c7034	0.13714677
249	0xbe744601	-0.2385483
250	0xbe984b67	-0.29745027
251	0xbdc0e1ca	-0.09418066
252	0x3d31c40e	0.043399863
253	0xbede232f	-0.43386218
254	0x3e090608	0.13381207
255	0xbd5c7c2c	-0.053829357

a2c_network.actor_mlp.2.weight f4 [128, 256]
0	0xbca1f564	-0.019770332
1	0x3d2d63f5	0.042331655
2	0xbd0981ca	-0.033571042
3	0x3c555645	0.013021057
4	0xbd2b08da	-0.04175649
5	0xbd17fff2	-0.037109323
6	0x3d9e7a5a	0.077381805
7	0x3d3bde84	0.045866504
8	0xbcade89b	-0.021229079
9	0xbdf5ec0c	-0.12007913
10	0xbd6d478d	-0.057929564
11	0xbce5fddd	-0.028075153
12	0xbd5f13ab	-0.054462116
13	0xbac1f9bf	-0.0014799162
14	0xbd405eea	-0.046965517
15	0x3d15cc8c	0.036572024
16	0x3ce28416	0.027650874
17	0xbd100488	-0.03516057
18	0x3cddc09f	0.027069388
19	0x3d563cdd	0.052304137
20	0x3c0c5d55	0.008567174
21	0x3a03f844	0.0005034248
22	0xbd9b9a4c	-0.07597789
23	0xbb12edea	-0.002241964
24	0xbd521642	-0.051290758
25	0x3d9c3a1f	0.07628273
26	0x3cd3f475	0.025873402
27	0xbd73a890	-0.059486926
28	0xbe121901	-0.1426735
29	0x3d1881d6	0.037233196
30	0xbc900002	-0.017578129
31	0xbcb64a69	-0.022252278
32	0x3d38d9d9	0.04512963
33	0xbdc3c89c	-0.095597476
34	0xbd9e049a	-0.077157214
35	0xbd598f69	-0.053115282
36	0xbd6c203a	-0.05764792
37	0xbd8a6396	-0.06757276
38	0x3c46bbff	0.012129783
39	0x3cc5441f	0.024080334
40	0xbe1a83ff	-0.15089415
41	0xbb951eb5	-0.0045507797
42	0xbcebd684	-0.028788812
43	0x3d240c9b	0.040051084
44	0xbd2526a7	-0.040320065
45	0x3d812863	0.06306531
46	0x3c30a345	0.010781114
47	0xbd24e6a2	-0.04025901
48	0xbcdce68d	-0.026965404
49	0x3c5474c1	0.012967289
50	0xbc370b9b	-0.011172201
51	0xbd530461	-0.051517848
52	0xbd3ff260	-0.046862006
53	0xbd6aa9ca	-0.05729083
54	0xbcd70ddc	-0.026251726
55	0xbe18750d	-0.14888401
56	0x3d544513	0.051823687
57	0xbc82345a	-0.015894104
58	0xbd2f3dc8	-0.04278353
59	0xbcc05ecc	-0.023482703
60	0xbcbb0c4d	-0.022833014
61	0xbe0705ab	-0.13185756
62	0x3c06107a	0.008182639
63	0x3d86a5e2	0.065746084
64	0x3a8cc88a	0.0010740918
65	0xbd69164b	-0.056906026
66	0xbe0b643e	-0.13612458
67	0xbd99d173	-0.075106524
68	0xbd4a02ae	-0.04931896
69	0xbdd74e3a	-0.105129674
70	0xbd289d1a	-0.04116545
71	0xbb5039b7	-0.0031772682
72	0xbdc6ba30	-0.09703481
73	0x3d9494da	0.07254954
74	0xbde6c7fe	-0.11268614
75	0xbcbabe71	-0.022795888
76	0xbc91d80e	-0.017803218
77	0x3d54e7e8	0.051978976
78	0xbd426790	-0.047462046
79	0xbd205b85	-0.03914978
80	0xbd972eb5	-0.073819555
81	0xbc936c4d	-0.017995978
82	0xbdd748f0	-0.105119586
83	0x3dedd2a7	0.11612444
84	0xbe2105b1	-0.15724827
85	0xbe1acedf	-0.15117978
86	0xbc03c60e	-0.008042825
87	0x3b29b90d	0.0025897652
88	0xbc81b351	-0.015832575
89	0xbcbe8035	-0.023254493
90	0xbd02dc7d	-0.031948555
91	0xbda263ec	-0.07929215
92	0xbd05435e	-0.03253495
93	0xbd64647d	-0.055759896
94	0xbd9971d8	-0.07492417
95	0xbe003ca6	-0.12523136
96	0xbc81fc6e	-0.015867438
97	0xbd2e2ecb	-0.042525094
98	0xbcaf92d1	-0.021432312
99	0xbd262764	-0.04056491
100	0xbdb67c7b	-0.089104615
101	0x3c1313c1	0.008976878
102	0xbcf69e10	-0.030104667
103	0xbe14f7e6	-0.14547691
104	0xbceef799	-0.029170798
105	0xbc2eadba	-0.010661537
106	0xbda5f5cc	-0.08103523
107	0x3c9331be	0.017968055
108	0x3d0b354c	0.033986375
109	0xbd0f8eb3	-0.035048198
110	0xbd1ff0f1	-0.03904814
111	0x3d0a8f3d	0.03382801
112	0x3b3d1ecf	0.0028857475
113	0x3c1f5823	0.009725603
114	0x3d16a1ba	0.03677533
115	0x3c93d550	0.018046051
116	0x3d61b5a0	0.05510485
117	0xbd1d6122	-0.03842271
118	0xbd4d8dd7	-0.050184097
119	0xbc5fc265	-0.013657187
120	0xbda5abbc	-0.08089396
121	0x3c2fc94c	0.010729145
122	0xbd76e9ae	-0.060281448
123	0xbdb1a5e6	-0.08674221
124	0xbd599ccf	-0.05312806
125	0xbbc787b8	-0.006089177
126	0x3d311e83	0.04324199
127	0x3c482a27	0.012217081
128	0x3ccf86ef	0.025332896
129	0xbc475b2f	-0.012167736
130	0xbd29afa1	-0.04142726
131	0x3cb02515	0.021502057
132	0xbcc95d20	-0.024580538
133	0xbd830291	-0.06396974
134	0xbc8d476c	-0.01724597
135	0x3d8f48bf	0.06996297
136	0xbdd7b0ec	-0.10531792
137	0xbcb7bfc7	-0.022430314
138	0xbd2d09fc	-0.04224585
139	0x3d8876eb	0.06663307
140	0x3d6796a5	0.05654015
141	0x3d4e0cb6	0.05030509
142	0xbe019165	-0.1265312
143	0xbd30de4d	-0.043180753
144	0xbdaaa3bc	-0.08332011
145	0xbdeed46c	-0.1166161
146	0xbe00a4f7	-0.12562929
147	0x3d5424ea	0.051793016
148	0x3d918af0	0.07106578
149	0xbdb65d1c	-0.08904478
150	0xbb02f632	-0.001998317
151	0xbc9a546b	-0.018839082
152	0x3c18e63a	0.009332234
153	0x3d47d8fb	0.048790913
154	0xbd60c688	-0.054876834
155	0xbd6a9c6b	-0.057278078
156	0xbd7ae269	-0.061251078
157	0xbd5350c4	-0.051590696
158	0xbc81869a	-0.015811253
159	0xbcf825f5	-0.030291537
160	0xbe14f753	-0.14547472
161	0xbd0a2ee4	-0.033736125
162	0x3d087f82	0.033324726
163	0xbd67f014	-0.05662544
164	0xbd39263b	-0.045202475
165	0xbdc347f7	-0.095352106
166	0x3d0c0a91	0.034189764
167	0x3b477cbc	0.0030439338
168	0xbb105799	-0.0022024869
169	0xbc2e0a03	-0.010622504
170	0xbdb2102a	-0.08694489
171	0xbc890b3a	-0.016728986
172	0xbccf6919	-0.02531867
173	0x3a7e1e82	0.0009693877
174	0xbd89fec2	-0.06738044
175	0xbcdaae38	-0.026694402
176	0xbdfce3a3	-0.12348106
177	0xbc8b0267	-0.016968919
178	0xbdf1d8d8	-0.11808938
179	0xbd731383	-0.05934478
180	0x3c4745cd	0.012162638
181	0xbd5e938e	-0.054339938
182	0xbd82ddc1	-0.063899525
183	0xbd7409f4	-0.059579805
184	0xbcf37915	-0.029720822
185	0xbd56faa6	-0.05248513
186	0x3dd21538	0.102579534
187	0xbd666856	-0.056251846
188	0xbe43c12b	-0.19116656
189	0xbd6d0217	-0.05786332
190	0xbd39eef6	-0.045393907
191	0xbc3f6d71	-0.011683808
192	0xbd185f4f	-0.03720027
193	0x3d6e2c39	0.058147643
194	0x3c59e87f	0.01330006
195	0xbc822b91	-0.015889915
196	0xbdb3da16	-0.08781831
197	0xbe122c6f	-0.14274763
198	0x3d17677c	0.036963925
199	0x3d7d2cb3	0.061810207
200	0xbbb6ecdc	-0.005582435
201	0xbdc49bba	-0.09600015
202	0xbe15dc25	-0.1463476
203	0xbd49d5f9	-0.049276326
204	0x3c0526b9	0.008126908
205	0xba27da6c	-0.0006403092
206	0xbad9a746	-0.0016605638
207	0x3cb4fb39	0.022092449
208	0xbb8ef075	-0.004362161
209	0xbd02b7b9	-0.031913493
210	0xbda666d3	-0.08125081
211	0xbd286779	-0.041114304
212	0xbe11d785	-0.1424237
213	0xbdbf14d3	-0.09330144
214	0xbd205353	-0.039141964
215	0xbc0fb152	-0.008770304
216	0x3bc0067d	0.0058601485
217	0xbdb2cafc	-0.087301224
218	0xbe0452e3	-0.12922244
219	0xbcc6f187	-0.024285091
220	0xbd78190f	-0.060570773
221	0xbe0088ed	-0.12552233
222	0xbdb786f5	-0.08961288
223	0xbdb760f4	-0.08954039
224	0xbd9937f8	-0.07481378
225	0xbb0326bb	-0.0020012099
226	0x3c72ac5b	0.014811601
227	0xbe0e586c	-0.13900918
228	0xbd0da82c	-0.03458421
229	0xbdcd9cdd	-0.10039685
230	0x3c434fec	0.01192091
231	0xbb692104	-0.0035572657
232	0xbd0c34b0	-0.034229934
233	0xbd0f3adf	-0.034968253
234	0xbd7e4536	-0.062077723
235	0x3da5a7a3	0.08088615
236	0xbdbb5842	-0.09147693
237	0xbd8506fa	-0.06495471
238	0xbd132bdf	-0.03593051
239	0xbd8edd58	-0.06975812
240	0x3d7181a9	0.058961544
241	0xbb85d01a	-0.0040836455
242	0x3d9094ac	0.07059607
243	0xbd66176c	-0.05617468
244	0xbdee7ed2	-0.11645283
245	0xbd271ae9	-0.040797148
246	0xbc958a0c	-0.018254302
247	0xbcfac212	-0.030610118
248	0xbce4305c	-0.02785509
249	0xbd535dbd	-0.051603068
250	0xbd8d1a14	-0.0688974
251	0xbc184ffe	-0.009296415
252	0x3d232d66	0.039838217
253	0xbcce9c21	-0.025220932
254	0xbd613109	-0.054978404
255	0x3b2d7105	0.002646507

a2c_network.actor_mlp.2.bias f4 [128]
0	0xbdb1ec3a	-0.08687635
1	0xbe05fdbd	-0.13085075
2	0xbe83b277	-0.25722095
3	0xbe99089b	-0.29889378
4	0xbe61f0f4	-0.22064573
5	0xbe391b54	-0.18076831
6	0xbe90975e	-0.28240484
7	0x3d77f77d	0.060538758
8	0xbd226a56	-0.03965219
9	0x3bdba249	0.0067026955
10	0xbd51c403	-0.051212322
11	0xbebaed28	-0.3650906
12	0xbe170b74	-0.14750463
13	0xbeb693bc	-0.35659587
14	0xbe8dc9f6	-0.27693146
15	0xbd1682cd	-0.036745835
16	0x3d6f327b	0.05839775
17	0xbc092f81	-0.008373142
18	0x3da6e9d3	0.08150067
19	0xbe2894a5	-0.16462953
20	0xbe2d7105	-0.16937645
21	0x3dc53974	0.09630099
22	0x3afb7683	0.00191851
23	0xbe84c7c3	-0.25933656
24	0x3c9054b3	0.017618513
25	0xbe6fa45f	-0.23402546
26	0x3ddae3e3	0.10687997
27	0xbeb131b4	-0.34608233
28	0x3db3ce3d	0.08779571
29	0x3cf4d6bc	0.02988755
30	0x3ce07d9b	0.027403643
31	0xbe070fe0	-0.1318965
32	0xbe7ad37c	-0.24494737
33	0x3d8c9712	0.06864752
34	0xbd8bdf68	-0.06829721
35	0xbe59c28c	-0.2126562
36	0xbdd04fad	-0.10171447
37	0xbea90b67	-0.33016512
38	0x3db0e06a	0.086365536
39	0x3c747a1b	0.01492169
40	0xbe4a1a5e	-0.19736621
41	0xbb11f518	-0.0022271331
42	0xbe27627d	-0.16346164
43	0xbc2dff50	-0.010619953
44	0xbe678acb	-0.22611539
45	0xbece809f	-0.40332505
46	0xbe14e49f	-0.14540337
47	0x3d87a6ec	0.06623635
48	0xbbf1a544	-0.0073744375
49	0xbc47aebc	-0.012187656
50	0x3c749940	0.014929116
51	0xbd7855be	-0.060628645
52	0xba5ff585	-0.000854336
53	0xbdb5443d	-0.08850906
54	0x3ca2459e	0.019808587
55	0xbe9689f5	-0.29402128
56	0xbd1d2e3b	-0.038374167
57	0x3e387292	0.18012455
58	0xbd7d422f	-0.061830696
59	0xbdd79481	-0.10526372
60	0xbe882343	-0.26589403
61	0x3ca7622a	0.02043255
62	0x3d73bdfd	0.05950736
63	0xbe4cc068	-0.19995272
64	0xbd63764d	-0.055532742
65	0xbea829a2	-0.32844263
66	0x3d5f5037	0.05451986
67	0xbe52764d	-0.2055294
68	0x3e2fdd34	0.17174226
69	0xbdeca201	-0.11554337
70	0x3db2d783	0.08732512
71	0xbe8441d0	-0.2583146
72	0xbe110ced	-0.14165087
73	0xbe95a8e9	-0.2923043
74	0x3d8f5e28	0.07000381
75	0xbeba26d0	-0.36357737
76	0x3e0d6945	0.13809688
77	0xbdc13dde	-0.09435628
78	0xbeb9ba58	-0.36274981
79	0xbe0d6733	-0.13808899
80	0xbd79ada7	-0.060956623
81	0xbe7aabd8	-0.24479616
82	0xbd5dd486	-0.054157756
83	0xbe1123d5	-0.14173825
84	0x3c7d3f2b	0.015456955
85	0xbf18dd83	-0.59713
86	0xbd2809cf	-0.04102498
87	0xbe790128	-0.24316847
88	0xbe280b4f	-0.16410564
89	0x3e17777b	0.14791672
90	0xbc9bb9cf	-0.019009499
91	0x3cd049fd	0.025425905
92	0xbe609b1e	-0.21934173
93	0x3d3abd98	0.045590967
94	0xbb698d7b	-0.0035637307
95	0xbe991329	-0.2989743
96	0xbe256dad	-0.16155119
97	0xbe3fae84	-0.18718916
98	0xbd2da035	-0.042389113
99	0xbde9d399	-0.11417312
100	0x3cd3dd5c	0.025862388
101	0x3db5f919	0.08885402
102	0xbda0a4d1	-0.07843936
103	0xbdca3b53	-0.098745964
104	0xbe991d03	-0.29904947
105	0xbe8dba10	-0.27681017
106	0xbe948cb4	-0.29013598
107	0xbe956703	-0.29180154
108	0xbe1ac1eb	-0.15113036
109	0x3bce51cc	0.006296372
110	0xbeb4080f	-0.35162398
111	0xbec87923	-0.3915492
112	0xbd85e53d	-0.06537864
113	0xbd830438	-0.06397289
114	0xbde5b69d	-0.11216471
115	0x3cd5cedc	0.026099615
116	0xbe1a52dc	-0.15070671
117	0x3c37ae3f	0.011210977
118	0x3d9ffb41	0.07811595
119	0xbe6c8680	-0.23098183
120	0xbdfd42cf	-0.12366258
121	0xbe147224	-0.14496666
122	0xbe91d028	-0.28479123
123	0x3e3c80dd	0.18408532
124	0xbe9f34f5	-0.3109509
125	0xbe3b9d48	-0.18321717
126	0xbebf61d6	-0.3737933
127	0xbd43681f	-0.04770672

a2c_network.actor_mlp.4.weight f4 [64, 128]
0	0xbc838c1e	-0.016058024
1	0xbd0e76ca	-0.034781255
2	0x3cf8d00f	0.030372648
3	0x3bb43f6a	0.0055007236
4	0x3d38bf96	0.045104586
5	0x3dd1f119	0.10251064
6	0xbe10ddd9	-0.14147128
7	0x3cdabcd4	0.026701368
8	0xbcee01ee	-0.029053655
9	0x3bf1f40a	0.007383828
10	0xbb98f51e	-0.004667892
11	0xbe154749	-0.14577974
12	0xbd246905	-0.040139217
13	0xbc935fb8	-0.017989978
14	0x3dc79cb4	0.097466856
15	0xbe4b96f8	-0.19881809
16	0x3d1f2b1a	0.038859464
17	0x3d5c9d5b	0.053861003
18	0xbe00d4ec	-0.12581223
19	0x3e3feea4	0.18743378
20	0x3cf8fd4e	0.030394223
21	0xbd96ff5c	-0.07372925
22	0x3c008abe	0.007845579
23	0x3d545a33	0.051843833
24	0x3c0b2490	0.008492604
25	0x3d5a3493	0.053272795
26	0x3dc73c9e	0.09728359
27	0xbd09f97a	-0.033685185
28	0xbd3d944e	-0.046284012
29	0x3ccc5bde	0.02494615
30	0x3c9ce933	0.019154167
31	0x3dd5b80d	0.104354955
32	0xbbb92d4f	-0.005651153
33	0x3d07201d	0.03298961
34	0xbcd30977	-0.02576135
35	0xbd0bfa5f	-0.03417432
36	0x3d8c36e6	0.068464085
37	0x3cc869c5	0.024464497
38	0x3cc62b58	0.02419059
39	0xbcdb4378	-0.02676557
40	0xbcc8a9f4	-0.024495102
41	0x3c8fc60e	0.017550495
42	0xbc856ef4	-0.016288258
43	0xbc39be7e	-0.011336921
44	0xbc6a3cdc	-0.014296737
45	0xbe14fe07	-0.14550029
46	0xbe25522a	-0.16144624
47	0xbdab5cd1	-0.08367313
48	0x3c8dfba0	0.017331898
49	0x3c33ac0e	0.010966314
50	0x3d559fd2	0.05215437
51	0x3c445cd3	0.011985022
52	0x3d2c0b45	0.042002935
53	0x3d8c0b00	0.068380356
54	0xbc5c0247	-0.013428277
55	0xbd924cf6	-0.071435854
56	0xbb59fc4d	-0.0033261955
57	0x3c26bd47	0.010176963
58	0x3dd58599	0.10425872
59	0x3dd7601c	0.10516378
60	0x3d5c2cb3	0.053753566
61	0xbcfe1f0a	-0.03102066
62	0x3d85edcf	0.06539499
63	0x3cd34f5c	0.025794677
64	0x3d169c60	0.036770225
65	0xbdfafb39	-0.12254948
66	0x3c197eb4	0.009368587
67	0xbe358ec0	-0.17730236
68	0xbb58a1dc	-0.003305546
69	0xbd10ea52	-0.035379715
70	0xbd1d8021	-0.03845227
71	0xbd8741e3	-0.06604364
72	0xbe4c79d9	-0.19968356
73	0x3d1525f8	0.036413163
74	0x3ba0555c	0.004892988
75	0x3e666d76	0.22502694
76	0xbd75184d	-0.05983763
77	0xbcf351b9	-0.029702054
78	0x3d3837f1	0.044975225
79	0x3cc345f5	0.023837069
80	0x3d34204d	0.043976117
81	0xbc99de96	-0.018782895
82	0xbc99278b	-0.018695613
83	0x3d7e18ed	0.06203549
84	0x3de9109d	0.11380122
85	0xbdc27abe	-0.094960675
86	0x3b8a68d9	0.0042239246
87	0x3e19bf10	0.15014291
88	0x3db2707f	0.08712863
89	0x3dc2a1bd	0.095035054
90	0x3c2e4c75	0.010638346
91	0x3d2dac00	0.04240036
92	0xbf074b9b	-0.5284974
93	0x3b9a17da	0.0047025504
94	0x3d7b7044	0.06138636
95	0xbe9db594	-0.30802596
96	0x3d4d569c	0.050131425
97	0xbd9e9aac	-0.07744345
98	0x3da8acad	0.0823606
99	0xbe718767	-0.23586808
100	0x3d8025bc	0.06257197
101	0x3a7d1c29	0.000965538
102	0xbc821a3f	-0.015881656
103	0xbd0aa94b	-0.033852857
104	0xbc2c588f	-0.010519161
105	0xbe0537ab	-0.13009517
106	0x3d17dd9b	0.037076574
107	0xbe9024f1	-0.28153184
108	0x3ce67eb1	0.028136583
109	0xbd8504b6	-0.06495039
110	0x3b8645ff	0.0040976997
111	0xbdc79c8a	-0.09746654
112	0x3e4a9fdd	0.19787546
113	0x3d223eb3	0.039610576
114	0x3e692bbb	0.22770588
115	0x3ca0245e	0.019548591
116	0x3d65e7df	0.056129333
117	0x3d68815b	0.056763988
118	0xbc0a513b	-0.008442218
119	0x3dfc432e	0.12317501
120	0xbddf396e	-0.10899626
121	0x3c870eef	0.016486613
122	0x3c347fba	0.0110167805
123	0x3ca2b8a9	0.019863443
124	0xbde3d3d6	-0.11124389
125	0x3de58b8e	0.112082586
126	0xbc9dd8c5	-0.019268403
127	0xbc22cb73	-0.009936201
128	0x3e0f95dc	0.1402201
129	0xbdee9779	-0.11649985
130	0xbc8eeeb1	-0.017447801
131	0xbe8e6b2f	-0.2781615
132	0x3d804f36	0.06265108
133	0x3d8948fd	0.067033745
134	0x3d318d79	0.04334781
135	0xbd807098	-0.062714756
136	0xbd20ea5f	-0.039286014
137	0xbbb9bae0	-0.005668029
138	0x3d88b411	0.0667497
139	0xbd747639	-0.05968306
140	0x3c174119	0.009231829
141	0xbd9476d2	-0.07249226
142	0x3c4c1e34	0.012458373
143	0x3d65cd3c	0.05610393
144	0xbd6c8780	-0.05774641
145	0xbc2e2dad	-0.010631007
146	0xbd7401fa	-0.059572197
147	0xbe2876b4	-0.16451532
148	0xbc3cf458	-0.011532865
149	0xbe24e9f2	-0.16104868
150	0xbcfac485	-0.030611286
151	0x3e00d7c9	0.12582316
152	0x3d16ed90	0.03684765
153	0x3dd36c09	0.103233404
154	0xbd644c20	-0.05573666
155	0x3d199f8c	0.03750567
156	0xbd036fba	-0.032088973
157	0xbe1b2106	-0.15149316
158	0x3d5ea3f9	0.054355595
159	0x3e4b5653	0.19857149
160	0x3dfc80d0	0.123292565
161	0x3d608320	0.05481255
162	0xbc0e3f53	-0.00868209
163	0x3e07ec4c	0.13273734
164	0x3badac82	0.0053001055
165	0x3df5145f	0.11966776
166	0x3bfa0b9d	0.007630779
167	0xbd215e78	-0.039396733
168	0x3d0c231d	0.034213174
169	0xbd934a1b	-0.07191869
170	0x3ce8db5b	0.02842491
171	0xbe513fd5	-0.20434506
172	0x3d909fb1	0.07061709
173	0x3c78d51c	0.015187528
174	0xbe3358c0	-0.17514324
175	0xbbcc5744	-0.006235989
176	0x3ce2c407	0.027681364
177	0x3e5d8880	0.21634102
178	0xbd6103f8	-0.054935426
179	0xbdd0dff1	-0.101989634
180	0xbcf15b43	-0.029462462
181	0xbcfbb918	-0.030727908
182	0x3d615f99	0.05502281
183	0x3db7c5ab	0.08973249
184	0xbce71a51	-0.02821079
185	0xbe013a7b	-0.12619965
186	0x3cab5aa0	0.020917237
187	0xbd0d87ca	-0.034553327
188	0x3e55517e	0.20831868
189	0x3caa008c	0.020752214
190	0x3d5fb3cc	0.054614827
191	0x3d6c7793	0.057731222
192	0x3e2e401f	0.17016648
193	0xbc93ec30	-0.018056959
194	0xbdb99115	-0.09060875
195	0x3c10b554	0.0088322945
196	0xbd8cb570	-0.06870544
197	0xbdec3b6f	-0.115347736
198	0x3e08b24d	0.13349266
199	0xbd914a32	-0.0709423
200	0xbe8c6905	-0.27423874
201	0x3dbaf585	0.091288604
202	0x3c23a494	0.009987969
203	0x3d8bd7d0	0.06828272
204	0xbc64fb89	-0.013975986
205	0xbda56aca	-0.08077009
206	0x3da25992	0.079272404
207	0xbe681cfd	-0.22667308
208	0x3e06aff1	0.13153054
209	0xbd554d2a	-0.052075543
210	0xbd0c8165	-0.034303088
211	0x3d96dfae	0.07366882
212	0x3dc19073	0.094513796
213	0xbe0d5082	-0.13800243
214	0x3da61f15	0.08111397
215	0x3d37ea7d	0.04490136
216	0xbd1ff3c9	-0.03905085
217	0x3de05bff	0.10955047
218	0xbdf8a5d1	-0.12141002
219	0xba9884b7	-0.0011636232
220	0xbddd170f	-0.10795414
221	0x3ca23e0a	0.019804973
222	0x3d371d2d	0.04470556
223	0x3c80dfd1	0.015731724
224	0xbd448b1c	-0.047984228
225	0x3d90f8e2	0.07078721
226	0x3d230eef	0.039809164
227	0xbdca3c52	-0.098747864
228	0x3ac88cf5	0.0015300798
229	0x3ca32a05	0.019917497
230	0xbcb02b41	-0.021505
231	0xbeed7ea7	-0.4638569
232	0xbdcbc997	-0.099505596
233	0xbe8a6c0a	-0.27035552
234	0xbe16812b	-0.14697711
235	0xbe0ab745	-0.13546474
236	0x3daf11f0	0.08548343
237	0x3e288d92	0.16460255
238	0x3db8813d	0.09009025
239	0xbe438eb6	-0.19097409
240	0xbd08ca10	-0.033395827
241	0xbc8217c4	-0.015880473
242	0xbd4d8e4e	-0.05018454
243	0xbdd99fd6	-0.106261894
244	0x3d4eca56	0.05048593
245	0x3d82b2df	0.06381773
246	0xbda06af4	-0.078329
247	0x3ca45521	0.020060124
248	0x3d2db56d	0.04240935
249	0x3dbecebf	0.093167774
250	0xbe2c7b57	-0.16843925
251	0xbe256b72	-0.16154268
252	0xbc90f2aa	-0.017693836
253	0xbe37a033	-0.17932205
254	0x3d79e449	0.061008725
255	0x3ddcec17	0.10787218

a2c_network.actor_mlp.4.bias f4 [64]
0	0x3d74d7d4	0.059776142
1	0x3d0b487f	0.034004685
2	0xbd8399cd	-0.064258195
3	0xbe1a2cc3	-0.15056138
4	0x3d08c609	0.033391986
5	0x3d18666e	0.03720706
6	0xbeb365ad	-0.3503851
7	0x3c538597	0.012910268
8	0xbdba1817	-0.09086626
9	0x3e814769	0.25249794
10	0x3def8643	0.1169553
11	0xbebb42df	-0.36574456
12	0xbd12c543	-0.035832655
13	0xbe9d221a	-0.3069008
14	0x3cb1b377	0.02169202
15	0x3ce0c4b5	0.027437547
16	0xbdf8bbc0	-0.121451855
17	0x3e38edf7	0.18059526
18	0xbc35326a	-0.011059383
19	0x3e4d996e	0.2007806
20	0xbe3558da	-0.17709675
21	0x3c5d5c0c	0.013510715
22	0xbc58dcc5	-0.013236229
23	0xbe046be2	-0.12931779
24	0xbe479894	-0.19491798
25	0xbea09477	-0.3136327
26	0xbca0e55c	-0.019640617
27	0xbe0fb8a7	-0.14035283
28	0x3c357bd2	0.011076884
29	0xbe4d5f67	-0.20055924
30	0xbc6860ad	-0.014183206
31	0x3d9dcc3c	0.0770497
32	0xbdcb1356	-0.099157974
33	0x3e21aeae	0.15789291
34	0xbce07514	-0.027399577
35	0xbe2736c0	-0.16329479
36	0x399fd3e6	0.0003048472
37	0xbd077253	-0.033068012
38	0xbe989860	-0.29803753
39	0x3d30567d	0.04305123
40	0xbe8c463d	-0.27397338
41	0xbd3fcdea	-0.046827234
42	0xbdfe0865	-0.12403945
43	0x3e886bcf	0.2664475
44	0xbea16ee8	-0.31529927
45	0x3dfe1770	0.12406814
46	0xbdc01f61	-0.09380985
47	0xbe0963f4	-0.13417035
48	0x3d633032	0.055465885
49	0x3cc74986	0.02432705
50	0x3d0d630f	0.034518298
51	0xbcbe1692	-0.023204122
52	0xbe2b9d79	-0.1675929
53	0xbd645592	-0.05574567
54	0xbd337a3e	-0.04381775
55	0xbd97d456	-0.07413547
56	0x3df44291	0.11926759
57	0x3d69b2f5	0.057055432
58	0xbe3c1595	-0.18367608
59	0xbe93c7e4	-0.28863442
60	0x3bb6a307	0.0055736336
61	0xbdf9fe05	-0.122066535
62	0xbe7435a1	-0.23848583
63	0x3b2b503a	0.0026140348

a2c_network.value.weight f4 [1, 64]
0	0x3cf8b3e4	0.030359216
1	0x3c667262	0.014065357
2	0xbd3028b3	-0.043007564
3	0xbb24d500	-0.0025151372
4	0xbcb9cead	-0.022681559
5	0xbc51b201	-0.012798787
6	0xba5d3eb9	-0.00084398274
7	0x3c28a921	0.01029423
8	0xbd0abb50	-0.03387004
9	0x3dfe6029	0.12420685
10	0x3dade838	0.08491558
11	0xbceccf9d	-0.028907591
12	0x3cbbe6de	0.022937234
13	0xbdb3761f	-0.08762764
14	0x3b8dce58	0.0043275766
15	0x3c278f28	0.010227002
16	0x3c26e8fd	0.010187385
17	0x3d8fba88	0.07018
18	0x3b0e6ddc	0.0021732962
19	0xbd1af714	-0.03783329
20	0xbc249fc1	-0.010047854
21	0xbcb9f2bb	-0.02269875
22	0x3b8013cb	0.0039086095
23	0x3c1b7a59	0.009489619
24	0x3cc718b4	0.024303772
25	0xbae49766	-0.001744014
26	0xbabebc2b	-0.0014551928
27	0x3c1c2f40	0.00953275
28	0xbae4bbd0	-0.0017450992
29	0x3c053ea9	0.008132615
30	0xba4c5bc6	-0.0007795658
31	0x3d095ef9	0.03353784
32	0xbba8511e	-0.005136623
33	0x3dd2d912	0.10295309
34	0x3cb26a7f	0.021779297
35	0x3b0afe23	0.0021208606
36	0x3ccb6fd9	0.024833607
37	0x3ce8c9b4	0.028416492
38	0x3b2d7854	0.0026469426
39	0x3c628d85	0.013827686
40	0xbd482721	-0.04886544
41	0x3cde9871	0.0271723
42	0x3cad488a	0.021152753
43	0x3dfcfc81	0.12352849
44	0x3d106257	0.035250034
45	0x3ccd3079	0.025047528
46	0x3b3b394e	0.0028568092
47	0xbc71398e	-0.014723195
48	0xbc80d1a2	-0.01572496
49	0x3c7f1f3a	0.01557141
50	0xbbb9bf99	-0.005668592
51	0x3c76bfbb	0.015060361
52	0xbb7f23a7	-0.0038931163
53	0xbb495cef	-0.0030725559
54	0xbcb03b59	-0.021512674
55	0xbc0fec3b	-0.008784349
56	0x3d491946	0.04909637
57	0x3c7937a5	0.015211021
58	0x3bf660eb	0.0075188777
59	0xbbad2dd1	-0.0052850028
60	0x3a4b8506	0.00077636575
61	0x3c9029af	0.017598001
62	0x37440acb	1.1685023e-05
63	0x3b77187b	0.00377038

a2c_network.mu.weight f4 [7, 64]
0	0xbe626479	-0.2210864
1	0xbcce1dc3	-0.025160676
2	0x3c5714fa	0.01312756
3	0xbcbcd8b6	-0.023052555
4	0x3b86762c	0.0041034427
5	0x3cb5db16	0.022199195
6	0xbe0b245a	-0.13588086
7	0xbb47f663	-0.0030511848
8	0x3cb286d6	0.02179281
9	0xbcd2c0fd	-0.02572679
10	0xbdb4996c	-0.088183254
11	0xbe12beb2	-0.14330557
12	0x3b3fbd7c	0.0029257229
13	0xbcd504fe	-0.026003357
14	0xbcb24ac9	-0.021764176
15	0xbcc875fa	-0.024470318
16	0xbc28f3a6	-0.010311997
17	0xbbc035b3	-0.0058657764
18	0xbc083bc9	-0.008315035
19	0xbd30d9e5	-0.04317655
20	0x3bc60425	0.0060429745
21	0x3d3d1b94	0.04616888
22	0x3adf2cf9	0.0017026953
23	0x3c8e7f0b	0.017394563
24	0x3c8b6348	0.017015114
25	0xbc048487	-0.008088238
26	0xbb44d73d	-0.0030035519
27	0xbc1237a3	-0.008924398
28	0x3d149ce3	0.03628243
29	0xbd1f98a2	-0.03896392
30	0x3c477a58	0.012175165
31	0xbd97414d	-0.07385502
32	0xbb4f185c	-0.0031600213
33	0xbdabf936	-0.083971426
34	0x3b84757b	0.004042325
35	0x3cbfbdcb	0.02340593
36	0xbd24479b	-0.04010735
37	0x3c90b5b0	0.01766476
38	0x3b9fd959	0.004878205
39	0x3c9664a5	0.018358538
40	0xbd310712	-0.043219633
41	0x3c2cf099	0.01055541
42	0x3c4b048c	0.012391221
43	0x3d9adcef	0.07561671
44	0xbcf1be55	-0.029509703
45	0x3d681829	0.056663666
46	0x3c170b8f	0.009219064
47	0x3af05123	0.0018334728
48	0x3cd412d8	0.025887892
49	0xbbc21aec	-0.0059236195
50	0x3c4927c2	0.012277545
51	0x3c232f4d	0.009960008
52	0x3c49253d	0.012276945
53	0xbc1da4c2	-0.009621801
54	0xbb11a4d7	-0.0022223496
55	0x3ca484db	0.020082882
56	0x3d94586a	0.07243426
57	0x3e3a66ae	0.18203232
58	0xbced5ebe	-0.02897584
59	0xbd3ba962	-0.045815833
60	0x3c276d10	0.010218874
61	0xbb4fb86b	-0.0031695615
62	0x3d3c85c3	0.046026003
63	0x3dd29170	0.10281646
64	0xbd33bf0c	-0.04388337
65	0x3e3e827e	0.18604466
66	0xbbd7fd79	-0.0065914956
67	0x3c90bd1c	0.0176683
68	0xbe8a83a9	-0.27053574
69	0xbbbc25f8	-0.005741831
70	0xbc6d7421	-0.014493019
71	0xbb8976e2	-0.00419508
72	0xbc3fb951	-0.011701898
73	0xbcb29c39	-0.021803008
74	0xbdc3cd22	-0.0956061
75	0xbcb26c8c	-0.021780275
76	0xbb970d35	-0.0046097287
77	0xbd277b31	-0.04088897
78	0xbbb5bac4	-0.005545946
79	0xbc28d6f5	-0.010305156
80	0xba93c15f	-0.0011272839
81	0x3d9f8263	0.07788541
82	0xbba60679	-0.0050666896
83	0xbd02c80c	-0.03192906
84	0xbd2f1b10	-0.04275042
85	0x3e06da06	0.13169107
86	0xbbea7efd	-0.0071562515
87	0x3cc3e1e8	0.023911431
88	0xbc2d6639	-0.010583454
89	0x3c0f50cc	0.008747291
90	0x3a139554	0.00056298566
91	0xbc5b64e8	-0.013390757
92	0xbd85feb1	-0.06542719
93	0x3c93df05	0.01805068
94	0xbcab54fb	-0.020914545
95	0x3ce5f093	0.028068816
96	0xbbe859bb	-0.007090775
97	0x3d1b3f04	0.037901893
98	0xbcd087f9	-0.025455462
99	0x3c3e664b	0.011621068
100	0xbc5526f1	-0.013009773
101	0x3b9bd221	0.004755274
102	0x3c4c4856	0.012468418
103	0xbbaca66e	-0.0052688634
104	0x3d884191	0.06653131
105	0xbae3b467	-0.001737249
106	0xbbc4dab5	-0.006007517
107	0x3b750883	0.0037389107
108	0xbd750cc3	-0.059826624
109	0xbe13c631	-0.14431073
110	0xbbf00f56	-0.007326047
111	0xbafaa914	-0.0019123876
112	0xbcd7e6df	-0.026355205
113	0xbc36ab0a	-0.011149177
114	0x3c1d5e4f	0.009605004
115	0x3be99705	0.0071285986
116	0xbd1fba26	-0.038995884
117	0xbd876551	-0.066111214
118	0x3c7435c3	0.014905396
119	0xbc1c2435	-0.009530117
120	0x3b334e98	0.0027360078
121	0x3d8f5328	0.06998283
122	0xbcb7f43f	-0.022455333
123	0x3cc38470	0.023866862
124	0xbb0ea475	-0.0021765504
125	0x3b9adb54	0.004725853
126	0xbd15ee32	-0.036604114
127	0xbd6b3dac	-0.05743186
128	0xbde666b1	-0.112500556
129	0xbc6ea08b	-0.014564644
130	0xbd35ef7c	-0.044417843
131	0x3b73bf80	0.0037193
132	0xbcb9a356	-0.022660892
133	0xbd95bef7	-0.07311814
134	0x3daaa2e0	0.08331847
135	0x3c268484	0.01016343
136	0x3c83ec66	0.016103934
137	0xbd6d5bd2	-0.057948895
138	0x3d86c44e	0.06580411
139	0x3bf83ccb	0.0075756065
140	0x3c8cb228	0.017174795
141	0x3c02c5f2	0.007981764
142	0x3d4f56bb	0.050619822
143	0x3bd5cd68	0.0065247305
144	0xbac372db	-0.0014911549
145	0xbd26821e	-0.040651433
146	0xbb22e6e0	-0.002485685
147	0x3da36bb7	0.07979529
148	0x3c57d344	0.013172928
149	0x3d798786	0.06092026
150	0x3bb4d99a	0.005519104
151	0xbd121a11	-0.03566939
152	0xbcd6b997	-0.026211543
153	0x3a5e31d7	0.00084760546
154	0x3af43883	0.0018632564
155	0xbc93887c	-0.018009417
156	0x3decc019	0.11560077
157	0x3ceacdce	0.028662588
158	0x3d8cafea	0.068694904
159	0x3aa95836	0.0012919966
160	0xbc7e9c32	-0.01554017
161	0x3da0987b	0.07841583
162	0x3c594da5	0.013263141
163	0xbbdf11ad	-0.006807527
164	0xbe142f2f	-0.14471124
165	0xbca38c1d	-0.019964272
166	0x3c626a22	0.013819249
167	0xbe1608cf	-0.14651798
168	0x3c1d9271	0.009617434
169	0x3b98a838	0.004658725
170	0xbc3cbe5c	-0.011519995
171	0x3c1c3403	0.009533885
172	0x3d2c01af	0.041993793
173	0xbd1a5884	-0.03768207
174	0xbbd3efa1	-0.006467775
175	0xbc233fa6	-0.009963905
176	0xbd88b7b1	-0.06675661
177	0x3b6901d4	0.0035554068
178	0xb987f7eb	-0.0002593392
179	0x3ab39e8d	0.0013703868
180	0x3cbe52f3	0.023232913
181	0xbddf8eba	-0.10915895
182	0xbb36bfe6	-0.0027885376
183	0xbb91bcf9	-0.004447576
184	0x3e32cd32	0.17461088
185	0xbb821700	-0.003970027
186	0xbd235823	-0.039878976
187	0xbcb8ea3f	-0.022572635
188	0x3b6721f0	0.003526803
189	0x3bfb80f1	0.007675283
190	0xbb1f8b58	-0.002434453
191	0x3ccc06a8	0.024905518
192	0x3d09461c	0.033514127
193	0xbd710b76	-0.05884882
194	0xbd9778fc	-0.07396123
195	0x3b2d016d	0.0026398555
196	0xbb888371	-0.0041660597
197	0xbccc905d	-0.024971182
198	0xbacf6014	-0.001582148
199	0xbc8d409c	-0.017242722
200	0x3cc0c392	0.023530755
201	0x3d5a240a	0.053257026
202	0xbc04b018	-0.008098625
203	0xbda55197	-0.08072203
204	0x3c06ba2d	0.008223099
205	0x3c885f99	0.016647147
206	0x3e0d2517	0.1378368
207	0xbc16e574	-0.009209979
208	0xbbd6db03	-0.00655687
209	0xbd36e507	-0.04465201
210	0x3c87d917	0.016583009
211	0x3dac0d73	0.08401003
212	0xbd212e61	-0.03935087
213	0x3dcdcd58	0.10048932
214	0xbacca980	-0.001561448
215	0xbb6f733a	-0.0036537186
216	0x3d2ac250	0.041689217
217	0xbcb7e5a8	-0.022448376
218	0x3b8ef90a	0.004363184
219	0x3d4b6561	0.04965723
220	0x3de9b07b	0.11410614
221	0xbd40f590	-0.047109187
222	0x3cf9b87c	0.030483477
223	0xbd0dbdf3	-0.034604978
224	0x3bc97e55	0.006149093
225	0x3db40fb1	0.087920554
226	0x3dc7f447	0.09763389
227	0xbca7ae58	-0.020468876
228	0xbdfe259f	-0.124095194
229	0x3df4c9ab	0.119525276
230	0xbb72646e	-0.003698613
231	0x3de43a37	0.11143916
232	0x3dd93e22	0.10607554
233	0xbcd779b0	-0.026303142
234	0xbcb19746	-0.021678578
235	0xbcaa7b75	-0.020810822
236	0xbd7272b8	-0.059191436
237	0xbc704bd6	-0.014666518
238	0x3c744064	0.01490793
239	0xbbaa5b98	-0.005198907
240	0x3ded4ee0	0.1158731
241	0x3c2168c9	0.009851643
242	0x3b9182e3	0.0044406517
243	0x3c54aaac	0.0129801445
244	0xbb9847b0	-0.0046472177
245	0x3dd9355a	0.10605879
246	0x3bac4153	0.0052568107
247	0x3b967b34	0.0045923237
248	0xbe0c7c6d	-0.1371934
249	0xbb2f4ea9	-0.0026749766
250	0xbd06bafd	-0.03289317
251	0x3c93bf01	0.018035414
252	0x3c63f87f	0.013914227
253	0xbc2f93a0	-0.010716349
254	0xbe823dfc	-0.25437915
255	0xbdaa7afd	-0.083242394

a2c_network.mu.bias f4 [7]
0	0x3d386d65	0.0450262
1	0xbcfed379	-0.031106697
2	0xbe873457	-0.2640712
3	0xbd2b536a	-0.041827597
4	0xbe017344	-0.12641627
5	0x3dbb72ba	0.09152742
6	0xbd178d70	-0.03700012

exp_avg f4 [7]
0	0x3a70747a	0.000917263
1	0xb9790a51	-0.00023750334
2	0x3b152a0e	0.0022760662
3	0x3b557599	0.0032571314
4	0xba70eea4	-0.00091908337
5	0x3adadcc0	0.0016697869
6	0x3a034d89	0.0005008807

exp_avg_sq f4 [7]
0	0x38e5f9ec	0.000109661225
1	0x38cc4fa7	9.7423144e-05
2	0x38da9b66	0.00010423995
3	0x38b32019	8.541364e-05
4	0x38daab3c	0.00010426945
5	0x38c94900	9.598024e-05
6	0x38f5382c	0.00011692973
