runs/FrankaCubeStack_01-19-14-17/nn/last_FrankaCubeStack_ep_200_rew_22.657478.pth (torch, 578871 bytes, 36 tensors)

value_mean_std.running_mean f8 [1]
6.576799707765283
00000000: e9c6 2495 a44e 1a40

value_mean_std.running_var f8 [1]
6.188483842387203
00000000: 8482 8be8 01c1 1840

value_mean_std.count f8 []
104857601.0
00000000: 0000 0004 0000 9941

running_mean_std.running_mean f8 [19]
-0.009569646914203776 0.01777416522204472 0.049067422833233294 0.9137953310883349 0.010015751595805741 -0.0011196528928114039 1.0513354542000688 -0.005848276118752212
0.001854339313678517 0.009353909245123115 0.003176063547428494 -0.004877050135838386 1.0780141948929707 -0.3730489621177149 -0.05548568604424941 -0.087073475531849
0.015183742804973753 0.02085043447806563 0.02195678387129455
00000000: ac05 3f44 4099 83bf 8f99 5e09 6433 923f
00000010: 8148 bc80 5d1f a93f 6861 c8b4 cf3d ed3f
00000020: 1809 646c 2383 843f f206 ae23 2a58 52bf
00000030: 35a2 0e20 45d2 f03f 3c34 b0aa 5cf4 77bf
00000040: 1fd4 4ead a961 5e3f f364 6172 2428 833f
00000050: f67f 1e22 b004 6a3f fb9c 592d f5f9 73bf
00000060: 7806 fbcf 8b3f f13f 8c8c 06c1 08e0 d7bf
00000070: bf8f e9ad 9e68 acbf 1323 c281 724a b6bf
00000080: 9fd4 3976 a718 8f3f 5442 c3f8 d059 953f
00000090: 2a36 9cd2 d67b 963f

running_mean_std.running_var f8 [19]
0.03711635642870542 0.013782161622852339 0.08801479336534272 0.023102997201201927 0.0227452778890697 0.022284765021436375 0.0005175007248389409 0.06724524591405986
0.06563137756949511 0.007099517717353168 0.01908429363190818 0.019458375557739757 0.006069722559333875 0.7773321466026344 0.044281056637309205 0.023264765263746736
0.004952574809408233 7.456163405619453e-05 7.241945214929797e-05
00000000: 8814 0442 ea00 a33f dfb6 816b d239 8c3f
00000010: 0b7f 1133 2388 b63f a7ca ace5 4fa8 973f
00000020: 2c1d b0c2 894a 973f fb4c dd43 d1d1 963f
00000030: ede4 2b58 1cf5 403f 562a 0304 fc36 b13f
00000040: e89d 40cc 37cd b03f f64d 9d46 6214 7d3f
00000050: b4b2 1044 d58a 933f fc77 9d7a e5ec 933f
00000060: 55ca 35be 90dc 783f 9835 79aa e7df e83f
00000070: b2db 2db4 01ac a63f f7df d3f7 b7d2 973f
00000080: 6cff 65ad 2649 743f 3be7 851e bf8b 133f
00000090: 0b7d dcb6 fcfb 123f

running_mean_std.count f8 []
52428801.0
00000000: 0000 0008 0000 8941

a2c_network.sigma f4 [7]
-0.97182786 -0.99498916 -1.4596272 -0.54679453 -0.63316166 -0.35667542 -1.4580065
00000000: b6c9 78bf 9cb7 7ebf 10d5 babf bafa 0bbf
00000010: e216 22bf 299e b6be f59f babf

a2c_network.actor_mlp.0.weight f4 [256, 19]
0.0066310316 0.013185098 -0.0056363083 -0.046891794 0.46124107 -0.45315287 -0.14881045 -0.05878892
-0.031372454 0.02669789 -0.48915243 0.29975563 -0.64389473 0.06711433 0.024760265 -0.08374336
0.15631603 -0.014784056 0.11709475 0.027557367 -0.07414148 0.04599624 -0.024074478 0.18532634
0.44668177 -0.005800738 -0.028893568 0.10673218 0.16157462 -0.13836986 -0.38353196 -0.18490107
-0.063551165 -0.047264397 0.1607376 0.11000526 0.10422149 0.05448219 -0.02493966 0.023046095
-0.025159061 0.038959272 -0.1582464 0.46425924 -0.25244156 -0.047193427 -0.031498402 0.12599625
0.14793476 -0.44760662 -0.52253956 0.0727139 -0.03521925 -0.0023970003 -0.13082843 -0.026414236
-0.01616909 0.020535516 -0.014191047 0.004979695 0.029417908 -0.5722468 -0.033530124 0.033001337
-0.06720682 -0.069182485 0.026024919 0.4784194 -0.029169025 -0.44913104 0.005493691 -0.050747152
-0.027925344 0.064248465 0.1764627 -0.14041898 -0.060844883 0.09817229 -0.018402984 0.06390886
-0.3563666 -0.10166897 0.37135455 -0.15175746 -0.18517824 -0.286405 0.21955675 -0.09376329
0.1415026 -0.07595845 0.014165948 0.18724646 0.034131493 0.13159221 -0.18868087 -0.01001968
-0.060723215 0.03408231 -0.03291628 0.095229715 0.072747186 -0.21322972 -0.10685202 0.029497309
-0.20607564 -0.12752384 0.011908401 -0.026797706 -0.0041794735 0.00021409754 -0.010796412 0.01801387
0.2568112 -0.22762996 0.03370814 0.04520075 0.004704258 -0.07472543 -0.28611162 0.35752288
-0.122959144 -0.06826193 -0.13004969 0.1424999 0.22743054 -0.27359435 -0.19045645 -0.04724237
0.12749827 -0.043576736 -0.20114084 0.11644674 -0.112703264 -0.048999656 -0.015703043 0.021003433
-0.09542485 -0.10553706 0.5488999 0.18575172 0.040809575 0.19465607 0.061048083 0.07123953
-0.57206494 0.25868365 0.019237574 -0.087012686 0.18855472 -0.05123436 -0.08614853 -0.07570919
-0.019817794 -0.0026094432 -0.016724464 -0.08801484 -0.4857255 -0.3927982 0.15520331 0.1413533
-0.12029611 -0.034035806 0.5514008 0.2502286 -0.3157341 0.018857887 0.03616905 0.04429743
0.032669738 -0.032126073 0.081067406 -0.34216636 0.24716137 0.1391159 1.0703394 0.21730173
-0.2538845 0.20594522 0.012474101 -0.040514417 -0.1337437 -0.21683158 0.19436371 0.5826568
0.09946111 -0.07292142 -0.15679313 -0.22677366 -0.05029167 0.10116719 0.062102586 -0.13682398
0.089705706 -0.04698958 -0.31179762 0.030065479 0.24849889 -0.15565863 -0.030362286 0.06916912
0.032400426 -0.13725567 0.5212251 0.081973374 -0.04054895 -0.26191488 0.18819067 0.11253185
-0.0042791157 -0.12538818 -0.4426381 -0.05558804 0.14773133 0.4186074 0.50954866 0.28472978
0.01666234 0.08588865 -0.31126568 -0.4554192 -0.43864763 -0.013242629 -0.03841814 -0.052004054
-0.10052337 -0.032102603 -0.07612643 -0.0813868 -0.011775376 0.04930858 0.09339177 0.03066871
-0.10147734 -0.19249906 -0.5531489 -0.13492264 -0.10463576 0.67782396 -0.06177711 0.17892426
0.5712326 0.1304586 0.005415482 -0.07620717 -0.039375458 -0.045582633 0.17614599 -0.01996581
-0.035965 -0.0077974745 -0.08975152 0.3627831 -0.5212152 0.18103005 0.07267155 -0.0015971456
00000000: 2049 d93b 4f06 583c c8b0 b8bb 9c11 40bd
00000010: ca27 ec3e a703 e8be c461 18be a7cc 70bd
00000020: 6780 00bd 89b5 da3c 3072 fabe 9279 993e
00000030: 49d6 24bf 3d73 893d 0ad6 ca3c a481 abbd
00000040: 4f11 203e d338 72bc 5fcf ef3d fdbf e13c
00000050: 7dd7 97bd 8e66 3c3d d737 c5bc 30c6 3d3e
00000060: 79b3 e43e 1e14 bebb 34b2 ecbc 6796 da3d
00000070: d173 253e d4b0 0dbe 4d5e c4be b556 3dbe
00000080: 1d27 82bd 5098 41bd 6698 243e 704a e13d
00000090: 1472 d53d b828 5f3d 424e ccbc 2acb bc3c
000000a0: 601a cebc c293 1f3d 580b 22be 63b3 ed3e
000000b0: 0540 81be e54d 41bd 7804 01bd 2905 013e
000000c0: 367c 173e b22c e5be 27c5 05bf 06eb 943d
000000d0: 0f42 10bd fe16 1dbb e3f7 05be ab62 d8bc
000000e0: 0a75 84bc 193a a83c 9181 68bc b62c a33b
000000f0: d3fd f03c c47e 12bf e256 09bd 692c 073d
00000100: bba3 89bd 8caf 8dbd 3632 d53c 63f3 f43e
00000110: e1f3 eebc 81f4 e5be 6c04 b43b 3fdc 4fbd
00000120: b1c3 e4bc b394 833d a3b2 343e fec9 0fbe
00000130: 7c38 79bd 8e0e c93d dbc1 96bc a6e2 823d
00000140: af75 b6be d237 d0bd 2f22 be3e 4f66 1bbe
00000150: 5d9f 3dbe ada3 92be 7cd3 603e f806 c0bd
00000160: 0fe6 103e 1b90 9bbd 4b18 683c 89bd 3f3e
00000170: 77cd 0b3d 1cc0 063e 8f35 41be 9529 24bc
00000180: e8b8 78bd e499 0b3d 39d3 06bd cc07 c33d
00000190: 7afc 943d e458 5abe 3bd5 dabd 57a4 f13c
000001a0: 7e05 53be 9c95 02be 741b 433c dd86 dbbc
000001b0: f7f3 88bb 5f7f 6039 6fe3 30bc d391 933c
000001c0: c27c 833e d417 69be 8c11 0a3d 6c24 393d
000001d0: 2d26 9a3b a509 99bd 397d 92be 3d0d b73e
000001e0: 01d2 fbbd e9cc 8bbd bf2b 05be 7eeb 113e
000001f0: 8de3 683e 8f14 8cbe 0407 43be 3781 41bd
00000200: e88e 023e 857d 32bd ddf7 4dbe a17b ee3d
00000210: f8d0 e6bd ddb3 48bd aba3 80bc 640f ac3c
00000220: 1b6e c3bd d023 d8bd b484 0c3f b335 3e3e
00000230: f127 273d ec53 473e 8e0d 7a3d 08e6 913d
00000240: d972 12bf 2f72 843e 1e98 9d3c b533 b2bd
00000250: 7d14 413e 1fdb 51bd a46e b0bd 6b0d 9bbd
00000260: ed58 a2bc 3103 2bbb be01 89bc 2041 b4bd
00000270: 03b1 f8be d81c c9be 9eed 1e3e ebbe 103e
00000280: cf5d f6bd 2169 0bbd 9a28 0d3f f71d 803e
00000290: e6a7 a1be db7b 9a3c ff25 143d 3971 353d
000002a0: b4d0 053d a196 03bd ab06 a63d 6e30 afbe
000002b0: df17 7d3e 6674 0e3e e200 893f 5884 5e3e
000002c0: 26fd 81be 4ee3 523e 2c60 4c3c 72f2 25bd
000002d0: 1cf4 08be 1909 5ebe 4807 473e ff28 153f
000002e0: 44b2 cb3d d357 95bd 618e 20be 5b37 68be
000002f0: a3fe 4dbd be30 cf3d 485f 7e3d 961b 0cbe
00000300: a0b7 b73d 2578 40bd f0a3 9fbe e14b f63c
00000310: 7e76 7e3e fa64 1fbe 54ba f8bc 8aa8 8d3d
00000320: 4fb6 043d c08c 0cbe 026f 053f a8e1 a73d
00000330: a816 26bd b519 86be 0eb5 403e 1977 e63d
00000340: d337 8cbb c265 00be 76a1 e2be 49b0 63bd
00000350: e246 173e b653 d63e c871 023f 1ac8 913e
00000360: 767f 883c 63e6 af3d 375e 9fbe b52c e9be
00000370: 6c96 e0be 9df7 58bc 575c 1dbd 3402 55bd
00000380: 32df cdbd 057e 03bd 2ce8 9bbd 1fae a6bd
00000390: 82ed 40bc cbf7 493d 2f44 bf3d f23c fb3c
000003a0: 5ad3 cfbd 791e 45be 2b9b 0dbf 2929 0abe
000003b0: 464b d6bd df85 2d3f ff09 7dbd ec37 373e
000003c0: 4d3c 123f f096 053e 5b74 b13b 8112 9cbd
000003d0: 2948 21bd dbb4 3abd 9d5f 343e 578f a3bc
000003e0: 0950 13bd f581 ffbb a5cf b7bd b5be b93e
000003f0: 5c6e 05bf f15f 393e d2d4 943d 5057 d1ba

a2c_network.actor_mlp.0.bias f4 [256]
-0.27755308 -0.025186963 -0.17021228 -0.15675807 0.08442032 -0.030021913 -0.22254264 0.06783696
-0.13359185 0.111902595 0.049047854 -0.00068268075 0.2588362 -0.1456224 -0.20805022 -0.3354759
0.057887066 -0.00018749529 -0.016002879 -0.463804 -0.04871621 0.06941546 -0.15757999 -0.2149044
-0.28473338 0.15452087 -0.02583193 -0.23561427 0.09389237 -0.24578077 -0.08085086 0.1094362
-0.10646314 -0.19390282 0.14449123 -0.19048804 -0.3062887 -0.14643835 0.2789254 0.1428899
-0.3699228 -0.19771533 -0.098948896 -0.33562616 -0.26239768 -0.08218164 0.100613214 -0.2996168
0.0990291 0.083040364 -0.1856891 -0.2617146 0.18280943 0.47195056 -0.044410825 0.12374345
-0.20958076 0.043877635 -0.0984183 -0.22255418 -0.13675436 -0.11420002 -0.10888261 -0.14888912
-0.25383607 -0.11499974 -0.16622604 -0.1757775 -0.002662162 -0.13073958 -0.13783416 -0.27091593
0.14967157 -0.066877484 0.103033304 -0.22073865 0.036701273 0.048366234 -0.32043323 -0.09607418
0.17887698 -0.20534202 -0.35754746 -0.18373549 -0.057043824 -0.1386485 -0.05277539 0.19201012
-0.053317748 0.086182274 -0.08399103 0.16605477 -0.012900034 0.28371182 0.016613994 0.10361447
0.053258646 0.0957348 0.04068253 -0.21067365 0.12408576 0.047052145 0.053525712 0.017803105
0.08100343 -0.017605986 0.15222944 0.17133176 0.1547668 -0.032963596 -0.11695342 -0.018599378
-0.011377252 0.080288224 -0.16526541 0.047261294 -0.36151648 -0.31341684 -0.051173303 0.17510466
-0.26659825 -0.2761755 -0.09147142 -0.22242048 0.1501125 -0.2719757 -0.21728045 -0.0038861586
-0.11497692 0.003137807 0.16404164 0.25149912 -0.2420257 -0.034102824 0.08452909 -0.37547928
-0.07608988 -0.15772472 0.11981418 0.13927889 0.0028879538 -0.18740098 -0.30333763 -0.14197192
-0.10864914 -0.20580928 0.10905953 0.047682267 0.0033980748 -0.42829582 -0.05143772 0.104165286
0.094211295 -0.12744696 -0.20778984 -0.21986467 0.07380783 0.08168019 -0.192817 -0.31250748
-0.3004813 -0.325436 0.065690085 0.0036849799 -0.07088873 -0.22780769 -0.11037672 0.09619211
-0.21822658 -0.008293791 0.02221856 -0.04977284 -0.1043267 -0.3120486 -0.09721196 0.008604044
-0.032049786 0.20714867 -0.1414143 -0.26727933 0.13870956 -0.11228313 0.047435638 -0.11713242
0.014046273 0.014432767 -0.15525073 0.014999766 0.25269622 -0.120759666 0.0803657 -0.5794063
-0.04763714 -0.016100666 -0.00045165248 0.038891703 -0.13254529 -0.082544945 0.0062232353 -0.3227646
-0.3036239 -0.3833519 -0.022517761 -0.23785137 0.03688655 0.060522363 -0.19607307 -0.13125588
0.20895556 -0.11263082 -0.36402243 0.1743486 -0.18692708 0.18788317 -0.10730297 -0.08788186
-0.020300198 0.05735037 0.026596485 -0.04068866 0.010440979 0.09791227 -0.18878925 -0.031899463
-0.47424003 -0.090831034 -0.45626736 -0.18784907 -0.10407359 -0.19171128 0.054740507 0.16579293
-0.2906124 -0.25503016 0.049536236 0.17128024 0.11381061 -0.17760015 -0.2870269 -0.031107927
0.109132774 0.012726294 -0.21131466 -0.073372185 -0.12841974 -0.34437388 -0.11580236 -0.06319607
0.16464745 -0.22692794 -0.33037913 -0.084271096 0.041378807 -0.39472416 0.15273982 -0.037416726
00000000: 701b 8ebe e454 cebc 214c 2ebe 3085 20be
00000010: 90e4 ac3d 84f0 f5bc 38e2 63be 1bee 8a3d
00000020: 4dcc 08be 302d e53d 67e6 483d eef5 32ba
00000030: 2e86 843e 0a1e 15be 1e0b 55be 7fc3 abbe
00000040: fd1a 6d3d 629a 44b9 7818 83bc b877 edbe
00000050: a68a 47bd b129 8e3d a65c 21be e60f 5cbe
00000060: 93c8 91be b83a 1e3e 7c9d d3bc de44 71be
00000070: a54a c03d f4ad 7bbe 2395 a5bd 1620 e03d
00000080: 5909 dabd 768e 46be 82f5 133e 4c0f 43be
00000090: dfd1 9cbe eff3 15be 4fcf 8e3e bb51 123e
000000a0: 8566 bdbe e375 4abe b8a5 cabd 31d7 abbe
000000b0: fd58 86be d94e a8bd 4d0e ce3d 6067 99be
000000c0: c5cf ca3d 1111 aa3d 4925 3ebe 75ff 85be
000000d0: 6532 3b3e 81a3 f13e 20e8 35bd 356d fd3d
000000e0: 579c 56be 09b9 333d 898f c9bd 3ee5 63be
000000f0: 5609 0cbe b3e1 e9bd d9fd debd 6476 18be
00000100: cdf6 81be fc84 ebbd 2937 2abe 04ff 33be
00000110: ab77 2ebb 99e0 05be 6624 0dbe 7eb5 8abe
00000120: 8143 193e 10f7 88bd 2003 d33d 5009 62be
00000130: 1354 163d ac1b 463d d30f a4be 8ac2 c4bd
00000140: 872b 373e 2e45 52be 7610 b7be 2825 3cbe
00000150: c9a6 69bd dff9 0dbe 022b 58bd 4d9e 443e
00000160: b663 5abd 5580 b03d 7d03 acbd 430a 2a3e
00000170: aa5a 53bc ad42 913e 121a 883c d333 d43d
00000180: bd25 5a3d 9b10 c43d b9a2 263d d5ba 57be
00000190: ad20 fe3d c0b9 403d c73d 5b3d d1d7 913c
000001a0: 20e5 a53d 6e3a 90bc 09e2 1b3e 9871 2f3e
000001b0: 307b 1e3e d604 07bd 4685 efbd b95d 98bc
000001c0: a767 3abc 276e a43d 563b 29be 0f95 413d
000001d0: b018 b9be 2c78 a0be 199b 51bd a34e 333e
000001e0: 917f 88be e066 8dbe 5e55 bbbd 32c2 63be
000001f0: 17b7 193e 6640 8bbe c47e 5ebe ecae 7ebb
00000200: 0579 ebbd aaa3 4d3b 88fa 273e 7ec4 803e
00000210: 96d5 77be 67af 0bbd 961d ad3d d23e c0be
00000220: 03d5 9bbd 9782 21be 2361 f53d 209f 0e3e
00000230: d343 3d3b 0be6 3fbe 124f 9bbe 1661 11be
00000240: 7183 debd abbf 52be 9a5a df3d 7b4e 433d
00000250: 3cb2 5e3b 9749 dbbe 5cb0 52bd 9c54 d53d
00000260: daf1 c03d 7581 02be dcc6 54be 3424 61be
00000270: 8f28 973d f247 a73d d271 45be fb00 a0be
00000280: afd8 99be 8c9f a6be 8688 863d b47f 713b
00000290: 1c2e 91bd 6b46 69be 310d e2bd 5e00 c53d
000002a0: ca76 5fbe aee2 07bc b303 b63c 9bde 4bbd
000002b0: 3da9 d5bd d6c4 9fbe 1017 c7bd faf7 0c3c
000002c0: a346 03bd c81e 543e e9ce 10be d6d8 88be
000002d0: e109 0e3e b3f4 e5bd df4b 423d 1fe3 efbd
000002e0: 5722 663c 6a77 6c3c 0cfa 1ebe 94c1 753c
000002f0: 6661 813e d850 f7bd c696 a43d f953 14bf
00000300: 291f 43bd 8be5 83bc c5cb ecb9 e84c 1f3d
00000310: f4b9 07be 530d a9bd 48ec cb3b 6741 a5be
00000320: 9874 9bbe b346 c4be 2b77 b8bc 4f8f 73be
00000330: 5a16 173d 4ce6 773d 61c7 48be f167 06be
00000340: 72f8 553e fdaa e6bd 2661 babe 7088 323e
00000350: d069 3fbe 7264 403e a9c1 dbbd 68fb b3bd
00000360: 9a4c a6bc 39e8 6a3d dfe0 d93c 27a9 26bd
00000370: a410 2b3c 3a86 c83d f851 41be 03a9 02bd
00000380: 97cf f2be 9f05 babd e09b e9be 825b 40be
00000390: 8924 d5bd f64f 44be 9537 603d 9fc5 293e
000003a0: 26cb 94be 5093 82be 82e6 4a3d 1664 2f3e
000003b0: 8915 e93d d0dc 35be 31f5 92be 0dd6 febc
000003c0: 0181 df3d f281 503c df62 58be 2844 96bd
000003d0: 7780 03be c651 b0be ca29 edbd f16c 81bd
000003e0: 5799 283e cc5f 68be 7427 a9be 5396 acbd
000003f0: d37c 293d 4919 cabe d467 1c3e 4842 19bd

a2c_network.actor_mlp.2.weight f4 [128, 256]
-0.058910582 -0.032162536 -0.030175995 -0.04676691 -0.15608011 -0.1080733 0.09424732 0.06749585
-0.08327268 -0.22175498 -0.06382163 -0.047150955 -0.06722285 -0.03884745 -0.11203223 0.019900512
-0.013054264 -0.02476839 0.0063824803 0.09638594 -0.040292118 0.008123916 -0.061511848 0.0041163415
-0.08013933 0.021990472 0.013676423 -0.093729295 -0.14065516 0.053496424 -0.046154875 -0.0025003545
0.03642568 -0.13022497 -0.08365065 -0.105199106 -0.056746945 -0.07588263 0.026906349 0.013899642
-0.15179871 -0.046363857 -0.029018497 0.042703167 -0.0726386 0.013517985 -0.0107643595 -0.060626835
0.015720576 -0.07056193 -0.00095656834 -0.12100021 -0.056237873 -0.060930267 -0.006780293 -0.17695121
-0.001395707 -0.057225488 -0.09640263 -0.09037006 -0.097525075 -0.16018973 -0.16055745 -0.012354609
-0.041556254 -0.07608121 -0.14578153 -0.13021855 -0.14171399 -0.08451801 -0.114469334 -0.0011987585
-0.10953311 -0.003051143 -0.08133336 -0.073058024 0.017410196 0.0459673 -0.06806293 -0.09570423
-0.053799544 -0.02059774 -0.1234279 0.07490206 -0.20876396 -0.20267645 -0.018834282 -0.0017622366
-0.087796666 -0.11437352 -0.06367216 -0.09519969 -0.0039938167 -0.04201847 -0.11217994 -0.08192171
-0.014100914 -0.1328502 -0.06905863 -0.09553765 -0.08020421 0.071851455 0.03760855 -0.19984008
-0.0409958 -0.03673548 -0.069106944 0.014469419 0.105078235 -0.16055903 -0.10096057 0.0025524858
-0.0519966 0.035622798 -0.059477236 -0.102907315 0.09187841 -0.07483907 -0.055212867 -0.05480458
-0.10736234 -0.08081196 -0.13231494 -0.11710441 -0.02574953 -0.021704616 0.015876634 -0.028227521
0.009766023 -0.0033177913 -0.02359723 -0.00020243989 -0.027286017 -0.15188849 -0.07211907 0.12787002
-0.10804532 -0.08919035 -0.0404672 0.019410547 -0.033074163 -0.012752362 -0.15034531 -0.10098588
-0.15026645 -0.1548032 -0.2397968 0.05931005 -0.021845577 -0.090927735 -0.06067308 -0.028521901
0.010927959 -0.0070989644 -0.06502964 -0.14023055 -0.056887347 -0.064856365 -0.051567614 -0.053019997
-0.20091885 -0.07089135 0.03439912 -0.028472796 -0.15407008 -0.14371248 -0.0045942124 -0.03610221
-0.03079659 -0.03165876 -0.045692004 -0.119397946 -0.02289158 -0.05162636 -0.09673355 -0.060898144
-0.13394482 -0.03125604 -0.18235275 0.027581673 0.014276972 -0.08895961 -0.05769979 -0.088489994
-0.078686364 -0.15404338 0.07737594 -0.094951645 -0.24880426 -0.12935054 -0.03857133 0.021343378
-0.12501788 -0.035227105 -0.032595888 -0.06419287 -0.16328692 -0.21247654 -0.10096812 -0.016312828
-0.059364885 -0.10942062 -0.1500789 -0.0627926 -0.008732134 0.040105533 -0.015553351 0.037402097
0.021128956 -0.06884224 -0.2360244 0.0006992119 -0.18531957 -0.06568514 -0.093858756 -0.058444586
-0.020539124 -0.09468677 -0.16010892 -0.119102485 -0.09279343 -0.14130096 -0.12469461 -0.11405849
-0.063635014 -0.06822218 0.007680861 -0.169877 -0.09331779 -0.100196704 0.0033166583 -0.105247505
-0.07084572 -0.08139801 -0.076152734 0.09687927 -0.16144937 -0.052963257 -0.033612538 -0.056509007
0.038871977 -0.032358423 0.065775186 -0.037041795 -0.18754992 0.004432344 -0.0569005 -0.048660364
-0.024832407 -0.0885956 -0.061852142 -0.03356246 -0.04166541 -0.0525163 -0.044559117 0.041690316
00000000: 394c 71bd ddbc 03bd a633 f7bc a98e 3fbd
00000010: 77d3 1fbe 8955 ddbd bd04 c13d 443b 8a3d
00000020: de8a aabd bd13 63be eab4 82bd 5c21 41bd
00000030: 22ac 89bd 811e 1fbd 2771 e5bd 6606 a33c
00000040: 8de1 55bc 14e7 cabc 2024 d13b fe65 c53d
00000050: 5909 25bd 2c1a 053c d9f3 7bbd 60e2 863b
00000060: 1720 a4bd 5d25 b43c 1313 603c 25f5 bfbd
00000070: e807 10be 111f 5b3d e50c 3dbd fddc 23bb
00000080: 1833 153d b259 05be 0851 abbd a172 d7bd
00000090: 7c6f 68bd 5a68 9bbd b46a dc3c 53bb 633c
000000a0: 1f71 1bbe 07e8 3dbd 33b8 edbc 84e9 2e3d
000000b0: 8cc3 94bd 8a7a 5d3c ff5c 30bc d853 78bd
000000c0: 70c8 803c c682 90bd 37c2 7aba f5ce f7bd
000000d0: af59 66bd 0492 79bd 382d debb b332 35be
000000e0: 28f0 b6ba 4665 6abd be6e c5bd f013 b9bd
000000f0: 3abb c7bd c708 24be 2c69 24be fc6a 4abc
00000100: e436 2abd 77d0 9bbd c147 15be 0358 05be
00000110: 791d 11be c717 adbd e66e eabd a91f 9dba
00000120: e552 e0bd aff5 47bb 1b92 a6bd 729f 95bd
00000130: d49f 8e3c 3548 3c3d 9464 8bbd 9400 c4bd
00000140: e95c 5cbd 97bc a8bc c4c7 fcbd 4066 993d
00000150: 38c6 55be 6a8a 4fbe 5a4a 9abc d9fa e6ba
00000160: bdce b3bd aa3c eabd 8d66 82bd 0ef8 c2bd
00000170: 90de 82bb 8f1b 2cbd 99be e5bd 92c6 a7bd
00000180: 8507 67bc e209 08be 9c6e 8dbd 3ea9 c3bd
00000190: 1b42 a4bd db26 933d 6c0b 1a3d e1a2 4cbe
000001a0: 36eb 27bd f177 16bd f187 8dbd 2411 6d3c
000001b0: 4233 d73d 9669 24be 6ac4 cebd 9b47 273b
000001c0: 63fa 54bd 36e9 113d 679e 73bd 12c1 d2bd
000001d0: bf2a bc3d 3a45 99bd e326 62bd c47a 60bd
000001e0: c9e0 dbbd be80 a5bd 917d 07be 70d4 efbd
000001f0: aef0 d2bc e1cd b1bc b70f 823c 673d e7bc
00000200: ab01 203c 4d6f 59bb fa4e c1bc 0b46 54b9
00000210: ed86 dfbc a888 1bbe 2ab3 93bd 5cf0 023e
00000220: dd46 ddbd 6ea9 b6bd efc0 25bd de02 9f3c
00000230: c678 07bd 48ef 50bc 1ff4 19be afd1 cebd
00000240: 73df 19be bb84 1ebe 4b8d 75be 18ef 723d
00000250: 7ff5 b2bc 5238 babd 5684 78bd c3a6 e9bc
00000260: 2f0b 333c 6e9e e8bb 432e 85bd 9998 0fbe
00000270: b502 69bd 6ad3 84bd 9038 53bd 7f2b 59bd
00000280: acbd 4dbe 7c2f 91bd 17e6 0c3d c83f e9bc
00000290: 8cc4 1dbe 5d29 13be 0c8b 96bb e9df 13bd
000002a0: 2149 fcbc 9eac 01bd 8a27 3bbd e986 f4bd
000002b0: 1f87 bbbc 2976 53bd 3d1c c6bd 5570 79bd
000002c0: d528 09be 5506 00bd aeba 3abe f6f2 e13c
000002d0: f6e9 693c 7530 b6bd 9d56 6cbd 3e3a b5bd
000002e0: 5126 a1bd 8cbd 1dbe 4777 9e3d 0276 c2bd
000002f0: 8bc6 7ebe 7874 04be f9fc 1dbd 4fd8 ae3c
00000300: b004 00be 4c4a 10bd 4483 05bd 8d77 83bd
00000310: b034 27be 7393 59be 60c8 cebd 7ba2 85bc
00000320: 9828 73bd eb17 e0bd 48ae 19be 6899 80bd
00000330: 3911 0fbc b345 243d 7bd3 7ebc f132 193d
00000340: a216 ad3c 29fd 8cbd 61b0 71be 514b 373a
00000350: 6ac4 3dbe ee85 86bd 0539 c0bd 9763 6fbd
00000360: aa41 a8bc 23eb c1bd 98f3 23be 01ec f3bd
00000370: 7b0a bebd 33b1 10be e35f ffbd 7f97 e9bd
00000380: 1353 82bd 12b8 8bbd bbaf fb3b 3cf4 2dbe
00000390: 661d bfbd ee33 cdbd 4b5c 593b 018c d7bd
000003a0: 9017 91bd 00b4 a6bd f7f5 9bbd a468 c63d
000003b0: fc52 25be 00f0 58bd 4dad 09bd fd75 67bd
000003c0: 3938 1f3d 448a 04bd 24b5 863d 23b9 17bd
000003d0: 160d 40be 323d 913b 8010 69bd 1750 47bd
000003e0: 556d cbbc 9c71 b5bd ac58 7dbd ca78 09bd
000003f0: 59a9 2abd 551b 57bd 9f83 36bd 77c3 2a3d

a2c_network.actor_mlp.2.bias f4 [128]
-0.09278757 -0.15239829 -0.21135822 -0.34621486 -0.27165824 -0.20292237 -0.25451303 0.013188004
-0.05756945 -0.0047940677 -0.10935678 -0.37539923 -0.16822724 -0.35670686 -0.29248282 -0.053320635
0.051924866 -0.06501463 0.016177636 -0.19367824 -0.1871898 0.08455438 -0.020484822 -0.25320038
0.01459158 -0.24221931 0.09323045 -0.3737673 0.085985094 -0.019176558 0.010318901 -0.15604009
-0.2743912 0.05885389 -0.07183475 -0.24185507 -0.20737796 -0.28606692 0.062002536 0.010019938
-0.18775718 0.014113818 -0.18556589 0.015343914 -0.21837306 -0.4073916 -0.106122315 0.03762509
-0.017666342 -0.038752846 -0.013627007 -0.054224398 0.0114420215 -0.14882703 -0.025857432 -0.3617324
-0.014909436 0.16161034 -0.09790568 -0.060750317 -0.34282732 0.009001059 0.023947766 -0.18105839
-0.059315767 -0.35617045 0.011460526 -0.20291984 0.16483836 -0.105527565 0.07846682 -0.2448235
-0.13579024 -0.33333352 0.04810004 -0.3575233 0.14759696 -0.12237266 -0.3880109 -0.14495113
-0.10322569 -0.24317005 -0.07514923 -0.15808426 -0.025364874 -0.6520101 -0.08588579 -0.23787822
-0.18480982 0.14976093 -0.057279177 -0.018163575 -0.21754222 0.02222967 -0.029988965 -0.3118458
-0.16766444 -0.17634223 -0.11216537 -0.09306058 -0.006133228 0.08231687 -0.11777858 -0.070745304
-0.2851444 -0.2960566 -0.33283678 -0.2891803 -0.19710287 -0.06893209 -0.36913702 -0.3643949
-0.10109182 -0.0893642 -0.2197272 0.020605227 -0.21082687 -0.046483837 0.07815995 -0.31397495
-0.077144615 -0.19719376 -0.2943505 0.18112247 -0.30026135 -0.24717888 -0.3827471 -0.08076859
00000000: 6907 bebd 4c0e 1cbe 4a6e 58be 1343 b1be
00000010: ca16 8bbe e2ca 4fbe 884f 82be 7f12 583c
00000020: f2cd 6bbd 8e17 9dbb 73f6 dfbd 5434 c0be
00000030: c343 2cbe 48a2 b6be 4fc0 95be bd66 5abd
00000040: 2baf 543d 6426 85bd f686 843c 9753 46be
00000050: afae 3fbe d92a ad3d c9cf a7bc 7ba3 81be
00000060: 8611 6f3c 5708 78be 9bef be3d 6d5e bfbe
00000070: f418 b03d 2818 9dbc 9c10 293c f9c8 1fbe
00000080: 017d 8cbe c710 713d 191e 93bd dba8 77be
00000090: e35a 54be 5d77 92be 5ff6 7d3d ab2a 243c
000000a0: 6b43 40be a53d 673c fc04 3ebe 0a65 7b3c
000000b0: 309d 5fbe a295 d0be a856 d9bd c41c 1a3d
000000c0: 01b9 90bc 4ebb 1ebd cf43 5fbc 671a 5ebd
000000d0: 5177 3b3c 1d66 18be f7d2 d3bc fd34 b9be
000000e0: b546 74bc 2e7d 253e c682 c8bd 53d5 78bd
000000f0: 1087 afbe 2e79 133c 1b2e c43c 5f67 39be
00000100: 17f5 72bd f95b b6be eec4 3b3c 38ca 4fbe
00000110: 63cb 283e d61e d8bd 36b3 a03d 03b3 7abe
00000120: 990c 0bbe b1aa aabe 8c04 453d 4b0d b7be
00000130: a823 173e 849e fabd 5da9 c6be 126e 14be
00000140: fe67 d3bd 9201 79be d7e7 99bd d7e0 21be
00000150: ffc9 cfbc 22ea 26bf e4e4 afbd 5996 73be
00000160: c93e 3dbe ee5a 193e 929d 6abd c7cb 94bc
00000170: 63c3 5ebe ff1a b63c 6bab f5bc 41aa 9fbe
00000180: 3ab0 2bbe 0f93 34be f5b6 e5bd 8c96 bebd
00000190: 3ff9 c8bb bf95 a83d e535 f1bd eae2 90bd
000001a0: 72fe 91be bb94 97be 9569 aabe 710f 94be
000001b0: 56d5 49be 452c 8dbd 87ff bcbe f891 babe
000001c0: 3a09 cfbd 9404 b7bd 2b00 61be 4bcc a83c
000001d0: 00e3 57be d665 3ebd 5312 a03d 53c1 a0be
000001e0: fffd 9dbd 29ed 49be 1cb5 96be 2b78 393e
000001f0: dbbb 99be 761c 7dbe 6ef7 c3be 016a a5bd

a2c_network.actor_mlp.4.weight f4 [64, 128]
-0.010406222 0.011308447 0.052745793 0.0348771 0.046758037 0.14645551 -0.1298931 0.012344424
-0.02578141 0.0146724405 0.033914767 -0.13261463 -0.026138796 -0.004138817 0.09289626 -0.21918654
0.066489674 0.0719025 -0.09813336 0.18890105 0.0018374766 -0.056645516 0.028115302 0.07552354
-0.019039895 0.10887191 0.10131101 -0.05931608 -0.0471912 0.064952955 0.09991535 0.117833786
0.033999633 0.03916604 0.0025817633 -0.025208391 0.050112937 0.051327713 0.012485773 -0.003353423
-0.07726752 0.020369021 -0.029062701 -0.00011368791 -0.050106306 -0.12851402 -0.20646332 -0.053565864
0.013295548 -0.026051741 0.046677645 0.02739558 0.067075856 0.067663796 -0.018975021 -0.09479985
0.0097595705 0.02199224 0.09171933 0.153664 0.070370086 -0.031577513 0.03684955 0.029443618
0.0030705074 -0.11729689 0.01961426 -0.17764844 -0.0054815495 0.026798539 -0.009374361 -0.05256416
-0.20274137 0.029858535 0.02219684 0.17660324 -0.082518 -0.036089383 0.0430794 -0.0017642748
0.031839952 -0.056414153 -0.0130682 0.026130425 0.13157663 -0.079221815 0.02816164 0.1576072
0.0945509 0.075778864 0.0033456406 0.046043415 -0.6430769 -0.03515857 0.046378326 -0.33919737
0.05912158 -0.020968173 0.07808655 -0.27282247 0.096895434 -0.0043028803 -0.029701876 -0.05220023
-0.071705274 -0.10655836 0.028601611 -0.3573071 0.036289055 -0.034951262 0.06197371 -0.0890143
0.13394994 0.017039753 0.24390855 0.034633886 0.055431504 0.059421092 -0.02744727 0.14324634
-0.0683 -0.02960911 0.024847517 0.004763284 -0.08691465 0.14695174 -0.03269818 -0.041466754
0.086999126 -0.16368341 -0.0146743 -0.2593793 0.0480827 0.029134551 0.11495925 -0.12387469
-0.11547838 -0.040265076 -0.010376119 -0.078332365 -0.08144621 -0.18232088 -0.032707553 0.046447013
-0.10561103 0.019735534 -0.016118271 -0.12346807 -0.050852586 -0.18617165 0.024980497 0.1956836
-0.03712676 0.044033468 -0.016850613 0.0674064 -0.09780479 -0.20315804 0.04004766 0.19032535
0.093569115 0.032711558 -0.007851594 0.1595428 0.062416684 0.10954377 0.018286519 -0.023143884
0.033532564 -0.02734696 -0.04527594 -0.23031272 0.0013913882 0.12139458 -0.15783446 -0.030974232
-0.037550665 0.32121387 0.011218881 -0.18419151 -0.10101786 -0.03153217 0.008027822 0.1090909
-0.09979063 -0.11584844 0.03803722 -0.02617406 0.19070853 0.023402816 0.12357821 0.065450594
0.1455399 0.027004808 -0.12199031 -0.03192553 -0.08763438 -0.12287639 0.054831803 -0.068438776
-0.3020059 0.12880069 0.008221248 0.05168378 -0.036441952 -0.05611011 0.027081933 -0.23651938
0.10141476 -0.026526023 -0.07607988 0.0497477 0.12001229 -0.21176523 0.07666979 0.03385019
0.004553291 0.0718556 -0.19092703 -0.026408654 -0.1200733 0.07166336 0.019492859 0.010845338
-0.05647896 0.050925784 0.036440507 -0.09297758 0.12652515 -0.038679987 -0.054185092 -0.4796983
-0.11576444 -0.24544275 -0.19160408 -0.09062601 0.058854345 0.15356588 0.036033828 -0.2771755
-0.053761248 0.019510971 -0.04408442 -0.12008325 0.12796047 0.050805263 -0.18542382 0.068318605
0.051163286 0.13826337 -0.22353742 -0.122382484 -0.008231043 -0.22403066 0.06784376 0.090587184
00000000: dc7e 2abc 1147 393c f90b 583d 4adb 0e3d
00000010: 5b85 3f3d 6ff8 153e b202 05be 4440 4a3c
00000020: 8933 d3bc ad64 703c 36ea 0a3d 21cc 07be
00000030: 0721 d6bc ea9e 87bb 6540 be3d 7072 60be
00000040: bd2b 883d 9e41 933d 25fa c8bd 476f 413e
00000050: 7cd7 f03a 2105 68bd 1052 e63c 16ac 9a3d
00000060: 8ef9 9bbc 3cf8 de3d 267c cf3d 6bf5 72bd
00000070: 8f4b 41bd 0e06 853d 6ba0 cc3d d752 f13d
00000080: 3343 0b3d 926c 203d cd32 293b d481 cebc
00000090: 3943 4d3d 023d 523d 2191 4c3c 1ac5 5bbb
000000a0: 6f3e 9ebd efdc a63c e714 eebc bb6b eeb8
000000b0: 453c 4dbd 2e99 03be 1f6b 53be e167 5bbd
000000c0: 92d5 593c 766a d5bc 0f31 3f3d b26c e03c
000000d0: 115f 893d 5193 8a3d 8171 9bbc 6c26 c2bd
000000e0: 9be6 1f3c 1229 b43c 58d7 bb3d 185a 1d3e
000000f0: 311e 903d 6c57 01bd 8eef 163d be33 f13c
00000100: 913a 493b 5a39 f0bd 16ae a03c 79e9 35be
00000110: 929e b3bb 9c88 db3c eb96 19bc 844d 57bd
00000120: 6f9b 4fbe e399 f43c 26d6 b53c 7bd7 343e
00000130: 32ff a8bd 76d2 13bd 0674 303d 3d3f e7ba
00000140: 9c6a 023d 8712 67bd 011c 56bc 790f d63c
00000150: 06bc 063e 0c3f a2bd 3db3 e63c c863 213e
00000160: e7a3 c13d f331 9b3d 8942 5b3b 0598 3c3d
00000170: b0a0 24bf 6f02 10bd 33f7 3d3d 47ab adbe
00000180: 7829 723d 72c5 abbc d7eb 9f3d 63af 8bbe
00000190: 1d71 c63d 2dff 8cbb 5951 f3bc e9cf 55bd
000001a0: 37da 92bd 453b dabd ed4d ea3c f5f0 b6be
000001b0: d5a3 143d 0e29 0fbd 25d8 7d3d 214d b6bd
000001c0: 2c2a 093e f496 8b3c 2ac3 793e 43dc 0d3d
000001d0: 250c 633d 8863 733d 19d9 e0bc 2baf 123e
000001e0: dfe0 8bbd ce8e f2bc 058d cb3c 5315 9c3b
000001f0: 4f00 b2bd 847a 163e 87ee 05bd 0bd9 29bd
00000200: 992c b23d a09c 27be 7a6c 70bc 5dcd 84be
00000210: 5ef2 443d 95ab ee3c c16f eb3d 03b2 fdbd
00000220: ee7f ecbd feec 24bd 9900 2abc b86c a0bd
00000230: 45cd a6bd 53b2 3abe 5bf8 05bd 393f 3e3d
00000240: 984a d8bd 6aac a13c 770a 84bc d4dc fcbd
00000250: cd4a 50bd c8a3 3ebe e6a3 cc3c 4861 483e
00000260: 3b12 18bd 705c 343d 4c0a 8abc 5e0c 8a3d
00000270: e14d c8bd a908 50be 0409 243d a6e4 423e
00000280: 2aa1 bf3d 8efc 053d f9a3 00bc 305f 233e
00000290: a3a8 7f3d 7c58 e03d 9ccd 953c 3e98 bdbc
000002a0: 7159 093d bb06 e0bc 4473 39bd 19d7 6bbe
000002b0: 3e5f b63a b99d f83d 5b9f 21be acbd fdbc
000002c0: bace 19bd 2576 a43e 66cf 373c b39c 3cbe
000002d0: 74e2 cebd e027 01bd 2087 033c 0d6b df3d
000002e0: 085f ccbd f241 edbd eacc 1b3d fb6a d6bc
000002f0: 1949 433e 43b7 bf3c 9316 fd3d f60a 863d
00000300: 6908 153e 3039 dd3c 0ed6 f9bd 58c4 02bd
00000310: a779 b3bd 9ea6 fbbd 5097 603d a129 8cbd
00000320: 84a0 9abe 54e4 033e 6ab2 063c 5fb2 533d
00000330: 2844 15bd b7d3 65bd eeda dd3c 2332 72be
00000340: 8bb2 cf3d 1a4d d9bc c5cf 9bbd 3fc4 4b3d
00000350: 01c9 f53d fcd8 58be 0d05 9d3d 7fa6 0a3d
00000360: c633 953b 0729 933d 6082 43be f656 d8bc
00000370: fee8 f5bd 3dc4 923d 7daf 9f3c a5b0 313c
00000380: 7b56 67bd 8e97 503d a442 153d 086b bebd
00000390: cf8f 013e e86e 1ebd 30f1 5dbd 049b f5be
000003a0: e815 edbd 5855 7bbe dc33 44be 219a b9bd
000003b0: 4111 713d 6040 1d3e 3598 133d f2e9 8dbe
000003c0: c134 5cbd 79d5 9f3c dd91 34bd 35ee f5bd
000003d0: 1208 033e 2e19 503d bedf 3dbe a0ea 8b3d
000003e0: 9890 513d ea94 0d3e fee6 64be aba3 fabd
000003f0: 7fdb 06bc 4b68 65be abf1 8a3d c685 b93d

a2c_network.actor_mlp.4.bias f4 [64]
0.032957792 0.030686824 -0.05869642 -0.19549914 0.030765563 0.022500625 -0.37976474 -0.017478984
-0.076720454 0.20484667 0.074929416 -0.39113113 -0.093182676 -0.31504813 -0.0012230955 0.011805523
-0.14494441 0.14062308 -0.04726508 0.20230326 -0.22610141 0.0102241235 -0.020531539 -0.16767101
-0.21666957 -0.3380422 -0.040233653 -0.19417365 -0.021875994 -0.1840509 -0.04560328 0.05532957
-0.083876394 0.12164669 -0.06058617 -0.17195342 -0.032749772 -0.065482244 -0.33003023 0.015762342
-0.2876078 -0.107302085 -0.15220204 0.2257725 -0.30400407 0.08740589 -0.14632015 -0.15234905
0.08009942 -0.032518953 0.05380128 -0.06360881 -0.20808946 -0.086749166 -0.045087043 -0.07044001
0.07220689 0.054596376 -0.20240669 -0.2831734 0.019472962 -0.1534718 -0.23725803 -0.035368007
00000000: c0fe 063d ef62 fb3c a86b 70bd ed30 48be
00000010: 1008 fc3c 3b53 b83c 8670 c2be 1630 8fbc
00000020: 9d1f 9dbd 53c3 513e 9874 993d 5742 c8be
00000030: 8fd6 bebd fd4d a1be 4650 a0ba f46b 413c
00000040: 4f6c 14be 7fff 0f3e 0799 41bd 9628 4f3e
00000050: 2187 67be 1583 273c c231 a8bc f3b1 2bbe
00000060: a1de 5dbe de13 adbe 0bcc 24bd 75d5 46be
00000070: 4935 b3bc d777 3cbe 81ca 3abd 42a1 623d
00000080: 63c7 abbd e621 f93d 3429 78bd 8f14 30be
00000090: a024 06bd 8e1b 86bd b9f9 a8be 0720 813c
000000a0: 5441 93be 32c1 dbbd dada 1bbe e830 673e
000000b0: 6ca6 9bbe dc01 b33d f3d4 15be 6401 1cbe
000000c0: 2a0b a43d 9832 05bd bb5e 5c3d 5645 82bd
000000d0: 6715 55be 8ca9 b1bd 31ad 38bd da42 90bd
000000e0: 35e1 933d 73a0 5f3d b343 4fbe 1bfc 90be
000000f0: c385 9f3c b627 1dbe c5f3 72be 0bde 10bd

a2c_network.value.weight f4 [1, 64]
0.025102574 0.009686364 -0.03888948 0.0116007775 -0.0213303 -0.013597482 -0.019559756 0.023413116
-0.06450603 0.1282444 0.016937748 -0.0005719165 0.014405229 -0.15101708 0.0026433168 0.014776758
0.0196051 0.052657973 0.021621078 -0.017439762 -0.008716255 0.0071479245 0.005374186 0.009147421
-0.0045137415 -0.035224073 0.02040959 0.02595721 0.003140786 -0.0022844083 -0.003078494 0.0031606222
0.0013768497 0.09384635 0.001784615 -0.016786216 0.011659865 0.00130673 -0.0070166527 0.0051694717
-0.015558609 0.08470806 0.03842397 0.095992155 0.05037236 0.01205821 0.053972684 -0.017870318
-0.020311393 0.030137988 -0.00011835681 0.021468112 0.0203471 -0.0018052656 -0.048452884 -0.030696513
0.017857997 -0.0016713392 -0.00886416 0.0060573537 0.008977649 0.017985692 0.0028438242 0.003531608
00000000: eaa3 cd3c 8eb3 1e3c 934a 1fbd 3011 3e3c
00000010: e2bc aebc f9c7 5ebc c83b a0bc ddcc bf3c
00000020: bd1b 84bd 8052 033e 08c1 8a3c abec 15ba
00000030: e903 6c3c 39a4 1abe 7f3b 2d3b 371a 723c
00000040: e09a a03c e3af 573d b01e b13c d5dd 8ebc
00000050: a0ce 0ebc 2339 ea3b f119 b03b 11df 153c
00000060: 02e8 93bb 1e47 10bd 0332 a73c 37a4 d43c
00000070: a5d5 4d3b 03b6 15bb 8fc0 49bb 7122 4f3b
00000080: 6977 b43a 8432 c03d bee9 e93a 3f83 89bc
00000090: 0509 3f3c 9546 ab3a f3eb e5bb ac64 a93b
000000a0: 89e9 7ebc 6b7b ad3d 7462 1d3d 8997 c43d
000000b0: 3f53 4e3d cc8f 453c 7612 5d3d c664 92bc
000000c0: 1464 a6bc f1e3 f63c 5436 f8b8 e5dd af3c
000000d0: f6ae a63c a99e ecba 8876 46bd 4177 fbbc
000000e0: ef4a 923c d610 dbba fb3a 11bc c47c c63b
000000f0: fd16 133c bb56 933c 745f 3a3b 8d72 673b

a2c_network.mu.weight f4 [7, 64]
-0.22456236 -0.012411534 0.03826483 0.01232715 0.038074967 0.01210214 -0.12929092 -0.004109891
0.045028627 -0.01249397 -0.08989567 -0.18673068 -0.01141039 0.009995441 -0.02474829 -0.006451108
-0.001444446 -0.019240988 0.0005015332 -0.04177391 0.011242484 0.06447063 0.009875185 0.019847061
0.004479237 -0.015306055 -0.0031362735 -0.022833336 0.05631438 -0.06739921 0.00073075946 -0.033845276
-0.0069708214 -0.0779617 -0.0047699576 -0.0017179976 -0.021705365 -0.015720474 0.0062412694 0.004456616
-0.037079312 0.017637445 -0.006733128 0.060865358 -0.05156696 0.017380456 0.005484108 0.0019652778
-0.0034869758 0.027248269 0.0059954864 0.0025184797 -0.026069438 -0.023731481 0.0016715777 0.03415584
0.08299082 0.1810343 -0.013966359 -0.03718755 0.006025925 -0.042800464 0.027010364 0.11747633
-0.01060984 0.14933273 0.013062082 0.0076935766 -0.23026615 0.008302624 -0.021484984 -0.021271275
-0.013176128 -0.010695248 -0.0883943 -0.0084020505 -0.017655442 -0.052947603 0.030118842 -0.000459897
0.00815547 0.03316807 -0.0068478673 -0.07414216 -0.026525069 0.05943546 -0.00071082026 0.065566264
0.030060643 0.006304511 -0.002258345 0.0021901876 -0.058388274 0.019515704 -0.042249106 0.019320922
0.0041462807 0.03735217 -0.015514158 0.036367252 -0.0108767105 0.00080968015 0.017464109 -0.029453587
0.058560234 0.010310746 -0.0005726446 0.02289075 -0.027495092 -0.12696297 -0.0058532353 -0.02007932
-0.051373567 -0.026589923 0.0047073714 0.0054857405 -0.03959398 -0.021637715 0.004331625 0.0143216625
-0.008167145 0.040716995 -0.0155799845 0.041336242 -0.00486559 0.015794005 0.030360065 -0.07155456
-0.06761035 0.010413521 0.004212324 -0.017294247 -0.0042171916 -0.0954783 0.12132148 0.034026507
-0.0060260687 -0.037042998 0.031915106 0.011136818 0.0048547997 0.006780621 0.030115847 0.0034215325
0.0045521143 -0.007557035 0.00540019 0.094121 0.010563036 0.11127604 0.005252816 -0.058663625
-0.04374561 0.001220266 -0.0004150348 -0.0070954203 0.108409315 0.048176102 0.06144937 0.012360849
-0.0012379923 0.04749994 -0.043553565 -0.006759744 -0.11387551 -0.042682733 0.0065782075 -0.09962683
0.00683873 0.003934159 -0.014420445 0.006926698 0.05908004 -0.009233621 0.0013207434 -0.0053216503
-0.053066906 -0.0318121 -0.0024127872 0.0047738007 0.019917391 -0.12083032 0.016610898 0.0030278724
0.1508196 -0.030556947 -0.030283725 -0.043141473 0.0015840739 0.018506981 -0.007216263 0.053523682
0.022455536 -0.073814295 -0.087066226 -0.0019421369 -0.014764237 -0.0664319 -0.029641032 -0.054418225
-0.019613255 0.059133235 -0.016098058 -0.0484745 0.0050303014 0.024897505 0.15786606 -0.016512489
-0.0019449327 0.0031977429 -0.020269059 0.07203178 -0.078538865 0.10773323 0.002974504 -0.036362316
0.096504755 -0.024527244 0.005673188 0.058410767 0.17013319 -0.08238885 0.03720134 -0.07651701
0.010159637 0.07243343 0.08294827 0.018592695 -0.14885527 0.12770662 -0.022938248 0.11286298
0.08684755 -0.005282527 0.006648015 -0.080088235 -0.09384032 -0.0385587 0.029332107 -0.003466071
0.109636225 0.054201458 0.0022941926 0.008927866 -0.032884665 0.09405467 0.037938334 0.05943172
-0.1165104 -0.006086706 -0.03706521 -0.043987107 0.007958726 -0.112710506 -0.32421255 -0.08658684
00000000: adf3 65be bf59 4bbc 95bb 1c3d d1f7 493c
00000010: 7ff4 1b3d 0e48 463c d764 04be 44ac 86bb
00000020: f06f 383d 82b3 4cbc 391b b8bd 5436 3fbe
00000030: a5f2 3abc ebc3 233c edbc cabc d163 d3bb
00000040: 9153 bdba 479f 9dbc 5379 033a 1f1b 2bbd
00000050: 6532 383c 2d09 843d 87cb 213c 4e96 a23c
00000060: 90c6 923b 3fc6 7abc f089 4dbb fa0c bbbc
00000070: e8a9 663d 9908 8abd 7090 3f3a 58a1 0abd
00000080: 7d6b e4bb 62aa 9fbd 4e4d 9cbb 6f2e e1ba
00000090: 73cf b1bc 39c8 80bc 9083 cc3b ce08 923b
000000a0: 7ae0 17bd 677c 903c 92a1 dcbb f44d 793d
000000b0: e037 53bd 7561 8e3c 08b4 b33b e4cb 003b
000000c0: bf85 64bb c337 df3c c975 c43b 140d 253b
000000d0: 938f d5bc 8668 c2bc d718 db3a fee6 0b3d
000000e0: 17f7 a93d 0e61 393e 28d3 64bc f951 18bd
000000f0: 1f75 c53b 8a4f 2fbd d744 dd3c 6e97 f03d
00000100: e5d4 2dbc aeea 183e 5802 563c 661a fc3b
00000110: e4ca 6bbe bb07 083c 4701 b0bc 1941 aebc
00000120: b0e0 57bc 1f3b 2fbc 1208 b5bd c1a8 09bc
00000130: 25a2 90bc 96df 58bd cabb f63c 551e f1b9
00000140: 859e 053c 3edb 073d 1364 e0bb d8d7 97bd
00000150: 1a4b d9bc 9972 733d 5756 3aba 9b47 863d
00000160: bd41 f63c 1296 ce3b be00 14bb 4089 0f3b
00000170: 8b28 6fbd 66df 9f3c 660d 2dbd e946 9e3c
00000180: 86dd 873b 97fe 183d 182f 7ebc d4f5 143d
00000190: 3b34 32bc b740 543a e410 8f3c a648 f1bc
000001a0: dbdc 6f3d 67ee 283c 871d 16ba 6285 bb3c
000001b0: 633d e1bc 9502 02be 7fcc bfbb 637d a4bc
000001c0: 176d 52bd 1cd3 d9bc 4b40 9a3b bac1 b33b
000001d0: 4c2d 22bd 9441 b1bc 4ef0 8d3b 68a5 6a3c
000001e0: 7dcf 05bc ddc6 263d 3143 7fbc 3150 293d
000001f0: 876f 9fbb 6e62 813c acb5 f83c 328b 92bd
00000200: 4c77 8abd 799d 2a3c 8907 8a3b aaac 8dbc
00000210: 5e30 8abb 208a c3bd 6577 f83d 615f 0b3d
00000220: 5476 c5bb 66ba 17bd 6ab9 023d 3377 363c
00000230: 0315 9f3b f92f de3b 82b5 f63c ca3b 603b
00000240: e729 953b 01a1 f7bb 14f4 b03b 83c2 c03d
00000250: 9610 2d3c b1e4 e33d d01f ac3b 4549 70bd
00000260: 992e 33bd 55f1 9f3a 0799 d9b9 b380 e8bb
00000270: b405 de3d 4e54 453d 56b2 7b3d 2985 4a3c
00000280: 2144 a2ba 4c8f 423d 3965 32bd d880 ddbb
00000290: 9037 e9bd 17d4 2ebd 018e d73b 2709 ccbd
000002a0: 6d17 e03b 1eea 803b bb43 6cbc 5bf9 e23b
000002b0: e9fd 713d 9d48 17bc cb1c ad3a 3d61 aebb
000002c0: af5c 59bd 684d 02bd da1f 1ebb 8b6d 9c3b
000002d0: cc29 a33c e375 f7bd 9413 883c 456f 463b
000002e0: 7470 1a3e 9052 fabc 9315 f8bc 1db5 30bd
000002f0: b3a0 cf3a f49b 973c 6776 ecbb a63b 5b3d
00000300: acf4 b73c f32b 97bd c74f b2bd 4d8f feba
00000310: b3e5 71bc 730d 88bd c0d1 f2bc a5e5 5ebd
00000320: faab a0bc b135 723d 13e0 83bc 338d 46bd
00000330: 3ad5 a43b daf5 cb3c a4a7 213e 3345 87bc
00000340: 1ded feba 3991 513b 4c0b a6bc 6685 933d
00000350: fcd8 a0bd 3da3 dc3d e5ef 423b a7f0 14bd
00000360: 49a4 c53d 5ced c8bc 26e6 b93b 2140 6f3d
00000370: 6537 2e3e 7cbb a8bd 6f60 183d f3b4 9cbd
00000380: 9b74 263c fa57 943d c8e0 a93d b54f 983c
00000390: 846d 18be 86c5 023e fee8 bbbc b524 e73d
000003a0: 21dd b13d 0c19 adbb 98d7 d93b 4d05 a4bd
000003b0: 5b2f c0bd baef 1dbd e349 f03c 0627 63bb
000003c0: f588 e03d 5902 5e3d 2a5a 163b 2f46 123c
000003d0: 12b2 06bd bc9f c03d 3a65 1b3d ad6e 733d
000003e0: 019d eebd fe72 c7bb b1d1 17bd d32b 34bd
000003f0: 5165 023c c4d4 e6bd 30ff a5be 7154 b1bd

a2c_network.mu.bias f4 [7]
0.04696784 -0.013796182 -0.28080693 -0.06050049 -0.11561741 0.10492949 -0.035625912
00000000: 5a61 403d 6209 62bc edc5 8fbe 5dcf 77bd
00000010: d2c8 ecbd 46e5 d63d 7aec 11bd

exp_avg f4 [7]
0.001223069 0.00054223504 0.002767172 -0.0010122703 0.0012777791 0.0024407234 0.00085207383
00000000: 634f a03a c724 0e3a 7159 353b 28ae 84ba
00000010: 277b a73a 8bf4 1f3b b55d 5f3a

exp_avg_sq f4 [7]
6.6519926e-05 6.315152e-05 6.467938e-05 6.8577356e-05 6.3457344e-05 6.0697843e-05 6.3854495e-05
00000000: 9d80 8b38 3770 8438 7aa4 8738 30d1 8f38
00000010: 6714 8538 d095 7e38 9fe9 8538

exp_avg f4 [256, 19]
-0.0068107955 0.0033971192 -1.6883865e-05 0.0007984272 0.0014378651 0.0021483293 -0.00022060829 0.00042496852
-0.002019838 0.0001809365 0.0017260283 0.0019575176 0.00056252413 0.001370234 0.0013165962 -0.0010710894
-0.0018706222 -0.0014029143 -0.00062984566 -0.0004025973 -6.7406195e-06 -1.4874598e-05 0.00020316045 -2.6250722e-05
-0.00012869942 -8.3001105e-05 -2.609099e-05 -8.938816e-05 1.5146534e-05 -8.525761e-05 -0.00017287013 0.0003170306
0.000444164 -0.00071503164 -0.00058511697 0.00040945568 3.054554e-05 0.00017367976 0.000113068796 0.0020048278
0.00068113283 -3.9476472e-05 -0.00033721558 -0.00036198384 -2.0191215e-05 0.0003550102 0.0010291637 -0.00016661295
-0.0005707839 -0.00077047467 0.00072399876 -0.0029593084 0.0017269731 -0.0008445177 -0.0016170602 -0.000889748
-0.0007687995 0.0009031767 0.0027023363 0.00069849705 0.00085352466 0.002510835 0.00044157228 -4.720245e-05
-0.0013865866 0.00074958813 2.3792873e-05 0.0026880968 0.00045736786 0.00057515566 -0.005203839 0.0051651704
0.00071672496 -0.0059639723 -0.0032880728 -0.0029161973 0.00089748856 0.000382156 0.00031310058 -0.000117609205
0.00013982928 0.00040858428 -2.5062633e-05 -0.00028795103 -0.0002696387 -1.4204022e-05 0.00017000438 0.0005100194
-0.00033995262 -0.0007854718 0.0014056371 0.0010082264 -0.0012171203 -0.00073324726 -0.0006660821 -1.2526856e-05
0.00024292928 0.000267632 0.00014630528 6.3903695e-05 4.2924486e-05 1.2764603e-05 -1.2730252e-05 5.0306095e-05
-1.7109756e-05 4.3655895e-05 -2.9825887e-06 0.000104651066 -0.000305459 0.00058418623 -2.2418493e-05 -0.000665057
-0.0005616286 -0.0004706928 0.00019386128 0.0003029669 0.00035870576 6.0641083e-05 -0.00030401608 5.296599e-05
2.2964425e-05 0.0002592078 0.00030638208 -5.6490826e-05 -0.0004435991 -4.6530222e-05 0.00018499297 -0.0010445532
0.00051035464 -1.7282639e-05 -0.0003458213 -0.00031812725 -0.0002914566 0.0022314512 -0.001207078 0.00016636429
-0.0002736565 -0.0014557198 -0.00061776926 4.6237823e-05 0.000585986 0.00021381812 -8.993726e-06 -0.0016109745
-0.000547541 -0.0005835927 0.0004079854 -0.0008720124 0.00045093242 0.0019994893 0.0011620664 0.0009286062
0.0007058044 0.0029579115 0.000942226 0.0009132272 0.00074912445 0.00093017326 -9.515561e-06 -0.0003869876
0.0001826271 0.0001862838 0.0007099327 0.0008802172 0.00049428194 -0.0052588875 0.0040986794 0.0006928164
-0.0046864236 -0.0021844716 -0.0020362816 0.00015718918 -0.0010368705 0.00020227414 0.00030484892 0.00010991284
-0.0005586288 -2.4983248e-05 -0.00031307995 0.00016953841 6.579292e-05 0.00013988056 -0.00037167745 -0.00034429127
0.0011038475 -0.0015052209 1.1199182e-05 0.0013429705 0.00033798255 0.0002492875 0.00040791888 -0.0013691381
-0.00017404984 -4.175188e-05 0.00044229307 0.00034683672 8.607919e-05 -0.00036009468 -0.00015327567 3.585706e-05
0.00054570753 0.0005650025 -0.00031244362 0.0013952865 -0.0005686161 0.00036882336 0.00087443873 0.00026812826
0.00015951469 5.473399e-05 -0.0008587931 -0.00066160515 -0.00032868492 -0.00050744385 0.0002754455 2.9316774e-05
0.00043437598 -0.00058060564 -0.00040616927 -0.0006461636 -0.00028912348 0.00018368113 0.003608524 -0.003940888
8.1472936e-05 0.0020187101 0.0011346588 0.0011270366 0.0010360044 -0.0017004785 -0.00018239001 7.861698e-05
-0.0010174101 0.00010217589 3.9326143e-05 0.0006028314 -0.0002392209 2.8255385e-05 -0.0010456035 0.00028721662
-0.00044522033 0.0011476548 -0.00039084 0.0006879649 0.00168911 0.0005834834 0.00036139993 -0.0015085316
0.00035006847 -0.0003125391 0.00011242776 0.0006590486 0.00080807763 -6.642359e-05 -0.00019315312 -0.00083615596
00000000: 182d dfbb 34a2 5e3b d3a1 8db7 8b4d 513a
00000010: bf76 bc3a fcca 0c3b 1653 67b9 4fce de39
00000020: 425f 04bb c6b9 3d39 e63b e23a b249 003b
00000030: 5b76 133a 6c99 b33a a391 ac3a cc63 8cba
00000040: aa2f f5ba fee1 b7ba 3a1c 25ba b213 d3b9
00000050: 7b2d e2b6 e98d 79b7 7807 5539 ff34 dcb7
00000060: 7df3 06b9 e110 aeb8 f9dd dab7 e775 bbb8
00000070: de1d 7e37 55cc b2b8 7944 35b9 2037 a639
00000080: afde e839 f670 3bba 8962 19ba 36ac d639
00000090: 061e 0038 ce1d 3639 591f ed38 6e63 033b
000000a0: 0d8e 323a 8a93 25b8 4fcc b0b9 a6c8 bdb9
000000b0: 4e60 a9b7 aa20 ba39 01e5 863a d3b4 2eb9
000000c0: a9a0 15ba aef9 49ba bcca 3d3a f5f0 41bb
000000d0: 9a5b e23a a062 5dba 89f3 d3ba fa3d 69ba
000000e0: 4389 49ba 2ac3 6c3a ae19 313b 581b 373a
000000f0: 12bf 5f3a d28c 243b d482 e739 3ffb 45b8
00000100: 20be b5ba 0280 443a ce96 c737 c82a 303b
00000110: e0ca ef39 0bc6 163a f784 aabb 9740 a93b
00000120: 99e2 3b3a 6d6d c3bb b57c 57bb ac1d 3fbb
00000130: 7045 6b3a 1c5c c839 a627 a439 f6a4 f6b8
00000140: 239f 1239 4137 d639 983d d2b7 22f8 96b9
00000150: 4b5e 8db9 cf4d 6eb7 3443 3239 d3b2 053a
00000160: ab3b b2b9 1fe8 4dba 5b3d b83a 7726 843a
00000170: c887 9fba 6437 40ba 039c 2eba 702a 52b7
00000180: d5ba 7e39 f550 8c39 8669 1939 0904 8638
00000190: d109 3438 8d27 5637 0494 55b7 c2ff 5238
000001a0: ec86 8fb7 291b 3738 7c28 48b6 1d78 db38
000001b0: 0326 a0b9 1324 193a 590f bcb7 3857 2eba
000001c0: 423a 13ba 51c7 f6b9 3e47 4b39 87d7 9e39
000001d0: ac10 bc39 de58 7e38 5964 9fb9 cc27 5e38
000001e0: baa3 c037 48e6 8739 e8a1 a039 90f0 6cb8
000001f0: dd92 e8b9 7229 43b8 acfa 4139 64e9 88ba
00000200: 52c9 053a 2ffa 90b7 594f b5b9 51ca a6b9
00000210: a5ce 98b9 8a3d 123b d136 9eba 1372 2e39
00000220: 8e79 8fb9 dacd beba cbf1 21ba 7cef 4138
00000230: db9c 193a 5d34 6039 c2e3 16b7 5627 d3ba
00000240: db88 0fba 3efc 18ba e0e6 d539 c397 64ba
00000250: 206b ec39 dd09 033b 7a50 983a b56d 733a
00000260: bb05 393a 85d9 413b b7ff 763a a465 6f3a
00000270: e460 443a dfd6 733a 06a5 1fb7 99e4 cab9
00000280: 977f 3f39 2d55 4339 c71a 3a3a 60be 663a
00000290: b392 013a bf52 acbb 374e 863b 1f9e 353a
000002a0: 9290 99bb 5a29 0fbb 2373 05bb 26d3 2439
000002b0: 9ae7 87ba 8d19 5439 21d4 9f39 0281 e638
000002c0: f270 12ba 1e93 d1b7 e124 a4b9 1fc6 3139
000002d0: 4efa 8938 e7ac 1239 b4dd c2b9 fe81 b4b9
000002e0: faae 903a d54a c5ba 1fe4 3b37 9d06 b03a
000002f0: 4033 b139 cdb2 8239 f2dd d539 a774 b3ba
00000300: 2681 36b9 bd1e 2fb8 92e3 e739 a3d7 b539
00000310: 6a85 b438 17cb bcb9 a0b8 20b9 3a65 1638
00000320: d00d 0f3a ad1c 143a 79cf a3b9 0ce2 b63a
00000330: 2e0f 15ba a25e c139 973a 653a 9193 8c39
00000340: 6643 2739 2d92 6538 a120 61ba 926f 2dba
00000350: 5853 acb9 fb05 05ba ab69 9039 4bed f537
00000360: f5bc e339 c933 18ba 1ef3 d4b9 4e63 29ba
00000370: 7f95 97b9 879a 4039 fd7c 6c3b 9122 81bb
00000380: 73dc aa38 564c 043b d5b8 943a 13b9 933a
00000390: 8aca 873a 97e2 deba f23f 3fb9 2bdf a438
000003a0: 9e5a 85ba 4347 d638 20f2 2438 5507 1e3a
000003b0: 5fd7 7ab9 fa05 ed37 a20c 89ba 9095 9639
000003c0: 766c e9b9 e86c 963a a8e9 ccb9 8b58 343a
000003d0: 2065 dd3a e8f4 183a 477a bd39 ecb9 c5ba
000003e0: 6589 b739 4adc a3b9 32c7 eb38 01c4 2c3a
000003f0: 2cd5 533a e54c 8bb8 2589 4ab9 7a31 5bba
