runs/FrankaCubeStack_01-19-14-17/nn/last_FrankaCubeStack_ep_300_rew_22.779718.pth (torch, 579063 bytes, 36 tensors)

value_mean_std.running_mean f8 [1]
000000 64 45 ea 57 35 40 1c 40
       7.062703488992472

value_mean_std.running_var f8 [1]
000000 ff 16 fd 68 23 01 13 40
       4.751111641356828

value_mean_std.count f8 []
000000 00 00 00 02 00 c0 a2 41
       157286401.0

running_mean_std.running_mean f8 [19]
000000 df d0 da e8 be 7f 87 bf ff 64 46 99 0e 5c 8d 3f
       -0.011474124413645757 0.014335741093236097
000010 c0 c8 5c 1c 53 cc a7 3f cf a9 a0 1a e4 4e ed 3f
       0.04648074837895555 0.9158802528448237
000020 5c 21 d8 66 63 da 7d 3f a3 0f 8e e7 16 9c 69 bf
       0.007288349426297049 -0.0031261870721567982
000030 78 12 64 2a e9 d2 f0 3f 6e 29 5d 6d 4d c9 68 bf
       1.0514918952841565 -0.0030256759882025175
000040 ff 1d 5f cb 23 40 72 3f c4 bf 69 52 cd bc 82 3f
       0.004455699750856023 0.009149173810527496
000050 fe 67 81 86 68 11 63 3f 07 02 de 30 56 3f 7a bf
       0.0023276368629412394 -0.006408058818010882
000060 1c bc 5a 0c ae 2e f1 3f 47 f5 44 5d 82 23 c4 bf
       1.0738964541049034 -0.1573336558739504
000070 7d bd 02 b3 c7 95 a8 bf 39 b5 02 83 be 40 b1 bf
       -0.0480177312869001 -0.06739416788578446
000080 52 e6 02 f3 c7 e6 8d 3f d9 e1 d3 56 cd 4a 95 3f
       0.01460033617364612 0.020793159889736266
000090 50 7b 13 d4 ad 58 96 3f
       0.021822658604715273

running_mean_std.running_var f8 [19]
000000 7a 7d 2a 52 f5 94 a5 3f be 44 f6 a4 33 e1 8c 3f
       0.042152086524988655 0.01410141322301894
000010 91 e3 45 cd 80 c5 b4 3f d3 01 cd 42 e6 af 95 3f
       0.08113865863368931 0.021178815676877804
000020 75 c5 a4 97 65 47 96 3f 54 16 53 57 42 91 96 3f
       0.02175673234996141 0.022038494663112765
000030 9a b2 a0 a2 0c 0e 38 3f be 34 85 1a d7 dc b0 3f
       0.0003670483444036338 0.06586975476712362
000040 cf a2 c1 61 fc c0 b0 3f d1 e1 dd 9d 02 5c 7b 3f
       0.06544473063116672 0.0066795446599532
000050 16 01 aa c3 9c 50 93 3f ff 7d 6a f8 7e 39 94 3f
       0.018862199251544608 0.019750579750164473
000060 74 92 bb 15 22 02 74 3f 9d 0a 13 1f 8d ab ec 3f
       0.0048848468247554185 0.8959413153573511
000070 2e 02 4e 2e 7a a4 a7 3f 3e ec a0 ff c0 cc 95 3f
       0.04617673697703527 0.021288886644679865
000080 05 06 fc ad 93 56 73 3f e6 62 2b 7d e3 34 11 3f
       0.004721238015692024 6.563795549697666e-05
000090 3c 1c 41 4e b7 88 10 3f
       6.307238396728669e-05

running_mean_std.count f8 []
000000 00 00 00 04 00 c0 92 41
       78643201.0

a2c_network.sigma f4 [7]
000000 cd 63 9e bf d5 c4 9e bf 7e ce f1 bf 74 b6 4e bf
       -1.2374207 -1.2403818 -1.8891141 -0.8074715
000010 9d 26 5a bf 55 2a f7 be f1 eb df bf
       -0.8521517 -0.48274484 -1.7493879

a2c_network.actor_mlp.0.weight f4 [256, 19]
000000 3c f0 d3 3b 29 fa 6d 3c 2c 8f f4 b9 29 c2 54 bd
       0.006467847 0.014524975 -0.00046645978 -0.051942978
000010 7e 8e f1 3e e3 de e8 be 06 bb ff bd cb 86 8a bd
       0.47179025 -0.4548255 -0.12486844 -0.06763991
000020 bb fb d5 bc 61 04 05 3d 3a 2c fd be 3f a3 9c 3e
       -0.026121011 0.03247488 -0.49447805 0.30593297
000030 33 bb 28 bf 6d 06 88 3d 14 c4 ec 3c 20 a6 9f bd
       -0.65910643 0.066418506 0.028902091 -0.07795358
000040 0d 2d 1a 3e 99 5f 02 bc 61 e6 fc 3d 14 e0 ca 3c
       0.15056248 -0.007957363 0.12348629 0.024765052
000050 ff 0c 40 bd 07 63 3e 3d dd 10 e0 bc 62 b1 4d 3e
       -0.046887394 0.04648116 -0.027351791 0.20087197
000060 89 f8 e6 3e b5 91 58 3c b3 de d9 bc 08 27 db 3d
       0.45111492 0.013218333 -0.02659545 0.10700804
000070 09 5d 28 3e c9 a6 0b be cb 7a c4 be 9d be 4d be
       0.1644174 -0.13637842 -0.38374934 -0.20092244
000080 98 a6 71 bd 1a 43 21 bd 0a 38 1c 3e 77 8e b2 3d
       -0.058996767 -0.039370634 0.15255752 0.08718579
000090 08 f0 cc 3d 75 0f 3f 3d 74 32 76 bc 30 b7 a1 3c
       0.1000672 0.0466456 -0.015026677 0.01974067
0000a0 05 6c aa bc 64 22 37 3d 04 cf 29 be a9 8e f0 3e
       -0.02080346 0.04471053 -0.16582876 0.4698384
0000b0 36 59 58 be bb fc 27 bd a0 c6 16 bd 97 98 00 3e
       -0.21127781 -0.041012507 -0.036810517 0.12558208
0000c0 f2 a7 1b 3e 80 2b e7 be ac e0 0d bf 2b 1f 96 3d
       0.15200785 -0.45150375 -0.5542095 0.073301636
0000d0 0d 4d 1a bd fa 95 1b 3c 21 d7 fa bd df 90 7d bc
       -0.037671138 0.009496206 -0.12248064 -0.0154764345
0000e0 aa 25 23 bc e6 00 41 3c a0 41 27 bc 6c 6a da 3b
       -0.00995771 0.011779999 -0.010208517 0.0066655185
0000f0 e3 f7 a2 3c 29 6f 13 bf e6 24 04 bd e0 13 84 3d
       0.019893592 -0.5759149 -0.03226175 0.06449103
000100 a4 04 8d bd 81 65 83 bd c0 30 21 3c 74 a7 fb 3e
       -0.06885651 -0.06415845 0.009838283 0.49151194
000110 51 58 05 bd fe 1f f3 be e4 97 e0 3b a3 7e 3d bd
       -0.03255493 -0.47485346 0.0068540443 -0.04626335
000120 70 62 b0 bc a0 16 7f 3d d3 01 3d 3e f0 83 12 be
       -0.021531314 0.062277436 0.18457727 -0.14308143
000130 d6 ba 5a bd f8 4e b6 3d eb 0e 38 bd 3f a6 9a 3d
       -0.053400837 0.08901781 -0.044936102 0.0755124
000140 49 fb c6 be c7 78 b8 bd ed 37 b6 3e bf a1 08 be
       -0.3886359 -0.090074115 0.35589543 -0.13342951
000150 66 7e 46 be e4 70 82 be b9 68 4e 3e 0b f1 b8 bd
       -0.19384155 -0.25476754 0.20157136 -0.0903035
000160 23 c3 23 3e 40 f6 a5 bd 05 8a 0d 3c d9 f4 2a 3e
       0.15992408 -0.08103609 0.008638863 0.16694964
000170 e9 07 3d 3d bf 53 04 3e 85 2e 51 be eb 68 41 bd
       0.04615012 0.12922572 -0.20427902 -0.0472192
000180 c5 17 31 bd 96 ad 68 3d 52 ad 2a bd f8 e1 04 3e
       -0.04323556 0.05680617 -0.041669197 0.12976825
000190 7d 44 aa 3d 87 d5 50 be e3 a5 ed bd 7d 98 b0 3d
       0.08313844 -0.20393954 -0.11603906 0.08622835
0001a0 61 c9 4b be 8d 50 c1 bd 08 50 91 3c d1 2b 7e bc
       -0.19901039 -0.09439192 0.017738357 -0.015513376
0001b0 6b 51 a5 bb c4 eb e5 3b fe 15 b5 3c 97 aa 46 3c
       -0.005045106 0.007016631 0.022105213 0.012125633
0001c0 02 ad 8d 3e e2 0f 87 be 5d 83 6b 3d 0e c2 1e 3d
       0.27671057 -0.26379305 0.057498325 0.038759284
0001d0 bf 74 1f bc 72 b6 98 bd 80 11 8d be 03 aa c0 3e
       -0.009732424 -0.07456674 -0.27552414 0.3762971
0001e0 86 28 c9 bd fd 38 b8 bd 92 9d f1 bd 77 de 0f 3e
       -0.09822182 -0.08995245 -0.11797632 0.14049707
0001f0 3b 96 80 3e 33 ff 88 be 75 65 45 be 07 ca 25 bd
       0.25114617 -0.26757202 -0.19276984 -0.04047587
000200 c5 e7 ea 3d 5c 9e 3b bd da 03 35 be 01 74 02 3e
       0.11469988 -0.04580532 -0.1767725 0.12739564
000210 cf 93 01 be 74 0c 16 bd ff 33 16 bc 6d 3f f0 3c
       -0.12654041 -0.03663297 -0.00916767 0.029327119
000220 85 e8 b9 bd d1 45 d9 bd b8 38 0a 3f 7e 59 16 3e
       -0.09077553 -0.106090195 0.53992796 0.14682576
000230 68 14 23 3d 8b fe 39 3e db dc cb 3d 30 bd a0 3d
       0.039814383 0.18163507 0.09954234 0.07848585
000240 96 33 17 bf 04 16 8c 3e 88 75 61 3c 80 54 aa bd
       -0.5906309 0.27360547 0.013760932 -0.08316898
000250 3c 7c 36 3e 93 6e 4c bd de 65 99 bd 95 52 87 bd
       0.17820829 -0.04991014 -0.07490133 -0.06607548
000260 c9 60 7a bc 43 c2 79 3b ff b0 41 bc 04 12 ac bd
       -0.015281864 0.0038110174 -0.011821984 -0.08401874
000270 b5 74 fb be 4e 8d c3 be 39 bd 17 3e de de 10 3e
       -0.49112478 -0.38193744 0.14818276 0.14147517
000280 23 33 f5 bd 2c d0 82 bd 2f 8f 10 3f 79 c0 85 3e
       -0.11972644 -0.06387362 0.5646848 0.26123407
000290 4e 7e ab be a7 02 b2 3c 4d 69 16 3d 7b ba 51 3d
       -0.334948 0.02172978 0.036721516 0.051203232
0002a0 ba ce da 3c 83 2b ec bc 1d 77 9f 3d ec 32 ab be
       0.026709903 -0.028829342 0.07786391 -0.33437288
0002b0 49 3d 8f 3e 4d 68 d5 3d 16 86 89 3f 3a db 5d 3e
       0.27976444 0.104202844 1.0744045 0.2166566
0002c0 08 2a 89 be 21 b5 3a 3e 80 48 0c bc ff 8e c0 bb
       -0.2678988 0.18233158 -0.008562207 -0.0058764215
0002d0 71 c7 ee bd e5 70 64 be d4 ef 40 3e 9c c4 17 3f
       -0.11659134 -0.22308691 0.18841487 0.5928438
0002e0 24 62 90 3d 8f ad 40 bd 19 22 31 be e3 b3 60 be
       0.07049969 -0.04704052 -0.17298163 -0.21943621
0002f0 92 94 ae bd a0 1c 88 3d a4 ed 34 3d 5b 5e f6 bd
       -0.08524431 0.06646085 0.044171944 -0.120297156
000300 92 97 96 3d f2 30 98 bd dd 22 9c be 87 fc d4 3c
       0.073531285 -0.074312106 -0.3049535 0.02599932
000310 0c d4 76 3e e6 e9 26 be 25 75 8a 3b b7 eb c1 3d
       0.24104327 -0.16300163 0.0042253905 0.09468787
000320 61 8f 37 3d 6f 68 11 be ea 4b 09 3f 03 ae 9e 3d
       0.04481447 -0.14199995 0.5363146 0.07748034
000330 6a 93 07 bd 7c 57 8a be 60 e2 36 3e 56 fe d0 3d
       -0.03309957 -0.2701987 0.17859793 0.10204761
000340 61 71 af bc 29 76 14 be 14 8f e4 be ea de d3 bc
       -0.021416368 -0.144982 -0.4464041 -0.02586313
000350 50 c2 0b 3e 48 06 e3 3e ce 2f 05 3f 86 09 ad 3e
       0.13648343 0.4434073 0.5202607 0.33796328
000360 3d fb 4b bb 6f f2 a3 3d 98 e8 9a be ad 8f e1 be
       -0.0031125091 0.08005225 -0.3025558 -0.44054928
000370 84 bd db be 4f aa 8b bc 68 ba 5f bd ab 6a 56 bd
       -0.42918026 -0.017048983 -0.05462113 -0.05234782
000380 02 02 e1 bd 68 ca 0b bd 53 65 82 bd a9 d3 96 bd
       -0.10986711 -0.034128577 -0.06366982 -0.0736459
000390 7c d5 4c bc 08 53 11 3d 80 b4 bd 3d ed 93 ee 3c
       -0.0125020705 0.035479575 0.09262943 0.02912327
0003a0 6b 21 ca bd df 60 44 be aa 55 21 bf b7 2c 08 be
       -0.09869655 -0.19177578 -0.6302134 -0.13298307
0003b0 27 57 e6 bd 85 5b 3a 3f 35 44 75 bd 88 f9 3a 3e
       -0.11247092 0.727959 -0.0598795 0.18259251
0003c0 cc 4f 18 3f ad 9c f7 3d 81 85 d9 3b 91 02 96 bd
       0.5949676 0.120904304 0.0066382294 -0.07324708
0003d0 42 29 83 bd 0c a3 70 bd 97 54 2f 3e 5f a6 0f bc
       -0.06404354 -0.058749244 0.17122112 -0.008767693
0003e0 5b 98 40 bd 72 0f e3 3c bf 2f b7 bd ab 61 b9 3e
       -0.047020297 0.027717326 -0.08944654 0.36207327
0003f0 31 50 05 bf 1d ea 57 3e a5 1d 81 3d 83 70 7f 3c
       -0.5207549 0.21085401 0.06304482 0.01559079

a2c_network.actor_mlp.0.bias f4 [256]
000000 f5 8f 8e be 93 32 90 bc d3 e5 23 be 2b 23 1b be
       -0.27844205 -0.01760224 -0.1600564 -0.15150134
000010 37 cc 8d 3d ab b4 b1 bc 1c 2f 5f be 66 30 87 3d
       0.069237165 -0.021692595 -0.21795315 0.06601028
000020 7e f9 02 be 81 4a e9 3d 3d 91 3e 3d f2 1d bd bb
       -0.12790486 0.113911636 0.04652523 -0.005771392
000030 b1 67 89 3e 0c aa 11 be 90 cd 55 be 2a 81 ac be
       0.26836923 -0.14225024 -0.20879197 -0.33692294
000040 e6 08 8a 3d 68 d5 80 3b 5a ab c0 bc 9e c0 ee be
       0.067399785 0.00393169 -0.023519207 -0.4663133
000050 90 81 5e bd 58 71 98 3d ab 5f 22 be a8 65 4f be
       -0.05432278 0.074434936 -0.15856807 -0.20253623
000060 d4 d9 8b be 11 95 2b 3e 3e e7 9a bc 5d ab 68 be
       -0.27314627 0.16756083 -0.018909093 -0.2272162
000070 65 e3 ca 3d 23 37 74 be a8 3a e9 bd 09 4e e5 3d
       0.09906653 -0.23849158 -0.11388141 0.11196525
000080 10 65 d4 bd b8 f6 44 be 11 3c 17 3e a2 5f 3c be
       -0.10370839 -0.1923474 0.14769007 -0.18395856
000090 40 3d a1 be 2b 2b 1f be a0 a3 9a 3e 79 b4 13 3e
       -0.31492043 -0.15543811 0.3020296 0.14424314
0000a0 47 27 c2 be bc 33 46 be 66 b3 cb bd c6 f0 ac be
       -0.3792059 -0.19355673 -0.09946327 -0.33777446
0000b0 5f b1 91 be 58 a2 a8 bd 85 76 d1 3d e4 ac a8 be
       -0.28455636 -0.082340896 0.10227684 -0.32944405
0000c0 c9 f9 cb 3d f9 23 af 3d 5d f3 32 be 58 59 90 be
       0.09959752 0.08551783 -0.17475648 -0.28193164
0000d0 07 c6 2f 3e 67 70 f5 3e 3d 96 31 bd 98 e1 f3 3d
       0.17165385 0.4793732 -0.04335617 0.11908263
0000e0 cd 7e 66 be 4a e8 39 3d a3 c6 ae bd 31 c0 5f be
       -0.22509308 0.045387544 -0.08533981 -0.21850659
0000f0 88 4a 0e be 01 e2 db bd b6 ad d4 bd 6a c0 19 be
       -0.13895619 -0.10736466 -0.10384695 -0.15014806
000100 64 52 84 be 81 13 d8 bd 48 f5 26 be ba 7b 2c be
       -0.2584411 -0.10550595 -0.16304505 -0.16844073
000110 90 66 de bb d3 6e fe bd 02 db 11 be 2a ac 88 be
       -0.0067871287 -0.12423482 -0.14243701 -0.2669385
000120 40 81 13 3e cc e1 92 bd d9 b5 c8 3d 9f f1 5b be
       0.14404774 -0.071719736 0.0980031 -0.2147889
000130 67 2c 1e 3d 8c d4 34 3d 6f 68 9f be 45 63 a9 bd
       0.038616564 0.044148013 -0.31134364 -0.08270887
000140 94 44 3d 3e c7 64 5c be 19 5d b5 be d1 6d 2b be
       0.18483192 -0.21522819 -0.3542259 -0.1674111
000150 41 30 54 bd 8e e6 3a be 7b f3 41 bd 61 4f 44 3e
       -0.05180383 -0.18252012 -0.04735134 0.19170906
000160 e1 92 13 bd 21 56 98 3d 22 c6 ad bd e9 7e 35 3e
       -0.036028747 0.07438303 -0.084850565 0.17724194
000170 1a 07 eb bb 80 93 8d 3e 7b e5 2d 3c 78 dd ed 3d
       -0.0071724774 0.27651596 0.010613794 0.116145074
000180 08 dc 38 3d e1 da cd 3d 20 d5 2c 3d b6 6b 5f be
       0.045131713 0.100515135 0.04219544 -0.21818432
000190 ee a5 f8 3d 49 f2 54 3d a3 b9 82 3d 31 a1 ce 3b
       0.121410236 0.051988874 0.06383064 0.0063058366
0001a0 c4 b0 99 3d 9b 20 0c 3b 6b ab 21 3e 9c dc 2f 3e
       0.075044185 0.002138174 0.15788047 0.17174
0001b0 fd 44 28 3e 21 de e5 bc 84 9c 02 be 90 f3 92 bc
       0.16432567 -0.02806002 -0.12755018 -0.017938405
0001c0 96 de bd bb d9 98 c3 3d d4 a5 1e be 27 55 14 3d
       -0.0057943566 0.09550638 -0.15492946 0.03621402
0001d0 e2 53 b8 be cc 91 9d be 83 45 5d bd d7 fe 2c 3e
       -0.36001498 -0.30775297 -0.05402137 0.16894089
0001e0 98 70 83 be 96 fc 8b be 89 85 e6 bd f8 11 4a be
       -0.2567184 -0.27341145 -0.112559386 -0.19733417
0001f0 52 18 29 3e 7f 92 91 be 46 23 4e be f4 3f c3 bc
       0.16513184 -0.2843208 -0.20130643 -0.023834206
000200 70 13 cd bd f3 61 76 bb bc 6f 2a 3e 99 4e 81 3e
       -0.10013473 -0.0037595003 0.16644186 0.25255278
000210 77 b6 6b be 72 49 75 bd ae ff 8a 3d 23 d6 c4 be
       -0.23018824 -0.059884496 0.06787048 -0.38444623
000220 c5 f6 96 bd 04 25 13 be b4 e7 f2 3d 90 c4 14 3e
       -0.07371286 -0.14369589 0.118606 0.14528108
000230 c4 f1 b1 ba 94 ab 45 be de 0f 97 be fc a0 09 be
       -0.001357608 -0.19303733 -0.29504293 -0.13440317
000240 2e 01 e3 bd 80 dd 49 be a7 2c c9 3d 80 f4 96 3d
       -0.110842094 -0.19713402 0.0982297 0.073708534
000250 b3 fc a9 bb 47 e3 cd be 5b 4d 8b bd 1f 87 e0 3d
       -0.005187595 -0.4021246 -0.06801864 0.10963272
000260 13 34 e0 3d c2 f4 ff bd 5d 3e 50 be ba bc 5a be
       0.10947432 -0.12497856 -0.2033629 -0.21361056
000270 d0 a7 86 3d 33 2c 7f 3d 06 65 31 be 1a e0 99 be
       0.065749764 0.06229801 -0.17323694 -0.30053788
000280 50 8c 9c be 9d 12 a7 be 26 ea 8c 3d 03 dc 7f 3c
       -0.305758 -0.32631388 0.06880598 0.01561642
000290 d7 24 89 bd ab 51 68 be 1f d5 d0 bd 80 0d e4 3d
       -0.0669648 -0.22687404 -0.101968996 0.111353874
0002a0 0d 2e 62 be 72 a5 a9 bb 85 38 ed 3c da 58 5f bd
       -0.2208788 -0.0051771933 0.028957615 -0.054528095
0002b0 7a 2f d4 bd e3 5f a1 be 91 50 ca bd fa 10 2a 3c
       -0.10360618 -0.31518468 -0.09878648 0.010380024
0002c0 3f 77 33 bd 22 f8 56 3e 87 6b 0f be ba 67 8d be
       -0.043814894 0.20993093 -0.14005862 -0.276182
0002d0 d3 15 03 3e 0d 9a ee bd 14 39 69 3d c5 de e2 bd
       0.12801294 -0.116504766 0.0569392 -0.11077646
0002e0 2e a4 89 3b 66 18 30 3c b1 3c 12 be 01 53 a5 3c
       0.00420048 0.010748005 -0.14280964 0.02018118
0002f0 85 9d 79 3e 1d 38 fc bd 4e ad ae 3d 5b 73 14 bf
       0.24376495 -0.1231539 0.08529149 -0.5798852
000300 c1 a5 34 bd 88 d1 ba bc df c3 dc bc 2a 5b 05 3d
       -0.044103388 -0.02280499 -0.026948867 0.032557644
000310 2a 14 1e be 4f c0 aa bd 4d 8f a0 3b f3 fa a3 be
       -0.1543738 -0.08337461 0.0048998953 -0.32027397
000320 46 f9 97 be c2 30 c9 be 66 6a bb bc e3 30 78 be
       -0.29682368 -0.39295012 -0.022877883 -0.24237399
000330 2b 47 13 3d a4 4f 87 3d 89 08 50 be e8 2d ec bd
       0.035956543 0.06606987 -0.20315756 -0.115321934
000340 aa d2 56 3e 4b 10 e2 bd 24 57 c9 be ad 9c 2e 3e
       0.209788 -0.11038264 -0.39324296 0.17051955
000350 9c b6 41 be 62 0e 49 3e 28 d0 03 be 7a 47 ad bd
       -0.18917316 0.19634393 -0.12872374 -0.08460899
000360 78 6c ab bc 5a b7 58 3d 6d fb d7 3c 66 21 12 bd
       -0.020925745 0.052909233 0.026365006 -0.035676382
000370 57 74 52 3c 13 c7 c0 3d 83 a5 3f be 61 ce fd bc
       0.01284512 0.094129704 -0.18715481 -0.030982198
000380 72 a9 f0 be 84 39 ac bd 71 94 dd be 09 eb 3b be
       -0.47004277 -0.08409408 -0.43277314 -0.18351378
000390 4d a5 ce bd 23 67 3b be 03 a0 83 3d e4 f5 1c 3e
       -0.10090122 -0.18301062 0.06427004 0.15328175
0003a0 83 44 9c be 9a e1 83 be 6f a3 2b 3d 0c 27 31 3e
       -0.3052102 -0.25758058 0.04190391 0.17300051
0003b0 1b 74 af 3d b2 6d 3a be fd bd 94 be f6 a2 63 bd
       0.08567067 -0.18205908 -0.290512 -0.055575334
0003c0 17 fa cd 3d 4e 61 38 3c 89 e7 4e be bf e9 7c bd
       0.100574665 0.011253668 -0.20205511 -0.061746355
0003d0 3a 0b 0f be 05 47 ae be 81 62 de bd e1 4f 85 bd
       -0.13969126 -0.3403856 -0.10858632 -0.06509376
0003e0 7e 1b 1c 3e 88 0c 6d be cb 99 9c be 33 84 a6 bd
       0.15244862 -0.23149312 -0.30586085 -0.08130684
0003f0 67 5a 2c 3d 43 c6 ca be 52 85 23 3e a5 f3 c8 bc
       0.042078402 -0.39604387 0.15968826 -0.024530241

a2c_network.actor_mlp.2.weight f4 [128, 256]
000000 dd 6b be bc 16 7a 2e bd f9 e2 97 bd a7 56 4d bd
       -0.023244793 -0.0425969 -0.074163385 -0.050131466
000010 ec 98 3b be c5 74 f8 bd fb ef 1a 3d 01 21 94 3d
       -0.18320054 -0.12131647 0.03782652 0.072328575
000020 7e ce c1 bd 54 c3 86 be 09 94 47 bd 48 ff 7e bc
       -0.094632134 -0.263209 -0.04872516 -0.0155637935
000030 8c 7b 80 bd f1 23 44 bd c2 95 bb bd 67 3f 09 bd
       -0.06273565 -0.04788584 -0.091594234 -0.03350773
000040 fc db f7 bc ca 43 db bc 92 45 b0 3c 5e a1 c3 3d
       -0.030256264 -0.026765723 0.021517549 0.09552263
000050 bc c2 08 bd 05 87 24 bc 3d f2 79 bd f5 44 2b 3d
       -0.03338884 -0.010041957 -0.061022032 0.04181381
000060 b3 b1 df bd bd bf 32 3d 91 15 bf bb a6 ae 64 bd
       -0.10922565 0.043639887 -0.0058314283 -0.05583062
000070 d0 1a 2a be 6e 7c 00 3d 92 7b da bc 48 85 32 bb
       -0.1661179 0.031368665 -0.026670251 -0.0027240086
000080 cf 5a 1e 3d 45 09 1c be 32 77 b0 bd 65 e2 c3 bd
       0.03866082 -0.15237911 -0.08616485 -0.09564666
000090 fa 45 4e bd 69 37 b4 bd 04 ad ab 3c 8f ae d4 bc
       -0.050359704 -0.08799631 0.020956524 -0.025962142
0000a0 6e ee 20 be 60 78 aa bc ce cf da ba 79 10 91 3c
       -0.15715954 -0.020809352 -0.0016694011 0.01770805
0000b0 0b 8b a3 bd aa 8b 12 3c c2 73 73 bc 54 24 99 bd
       -0.07985505 0.008944431 -0.014859142 -0.07477632
0000c0 f3 2c b1 3c e2 87 b3 bd 4d 06 18 3d 93 37 eb bd
       0.021627879 -0.08766152 0.037115384 -0.11485209
0000d0 52 0c 61 bd fd 7c 98 bd 74 dc 1a bd 00 81 60 be
       -0.05494339 -0.074457146 -0.037807897 -0.2192421
0000e0 46 1a d8 3c d1 0c 91 bd f0 ff b6 bd 7f 08 fd bd
       0.026379716 -0.07082523 -0.08935535 -0.12355136
0000f0 fd a6 ed bd f4 8c 0d be 94 6a 19 be d1 03 4b bc
       -0.11604116 -0.138233 -0.14982063 -0.012391047
000100 f8 05 4c bd 22 46 6f bd 09 ab 25 be 52 56 a8 bd
       -0.04981038 -0.058416493 -0.16178526 -0.08219589
000110 f2 ad 06 be 8c 5a 05 be 69 61 14 be bf 2c 0f 3d
       -0.13152292 -0.13022822 -0.14490284 0.034954783
000120 67 53 fb bd 88 a6 81 3c db cd b9 bd 27 54 bb bd
       -0.12271767 0.015826479 -0.09072467 -0.0914691
000130 fd 0e 07 bc 09 de c1 3c be ea 9e bd 02 7e d9 bd
       -0.00824332 0.023665445 -0.07759617 -0.10619737
000140 e3 a1 da bc fd 8c 4a bc a9 64 f6 bd 19 79 97 3d
       -0.026688522 -0.012362716 -0.12030918 0.073961444
000150 d0 67 56 be 37 73 67 be c5 5c 36 bd 94 b0 40 bc
       -0.20938039 -0.22602545 -0.044522066 -0.0117608495
000160 10 45 c8 bd 40 31 3c be 6c 5e 67 bd d0 0a c7 bd
       -0.097787976 -0.18378162 -0.056486532 -0.09718859
000170 2b 3f b4 3c db d3 02 bd b8 f9 f6 bd f1 58 ba bd
       0.022002777 -0.031940322 -0.12059349 -0.090989955
000180 78 6a 63 bc 3b ae 53 be 77 ba b5 bd 71 2b c4 bd
       -0.013880365 -0.20671932 -0.08873456 -0.09578598
000190 50 2e b1 bd 5f 52 35 3d a3 b9 98 3c 67 c0 61 be
       -0.086514115 0.04426801 0.018643206 -0.22046052
0001a0 cb 00 65 bd df 19 9f bd 5e ef 98 bd a8 fc c9 3c
       -0.05590896 -0.077686064 -0.07467531 0.024656609
0001b0 ea 30 bf 3d 12 df 45 be 17 f4 13 be 19 d6 11 bc
       0.093355015 -0.19323376 -0.14448582 -0.0089011425
0001c0 ff b5 a0 bd a0 6d fa 3c 14 fd 9d bd d1 74 00 be
       -0.07847213 0.030569851 -0.077142864 -0.12544562
0001d0 a9 44 83 3d 9a c4 1b bd 84 c2 91 bd 0e 4e 65 bd
       0.0640958 -0.03802929 -0.07117179 -0.055982642
0001e0 53 2b eb bd 46 96 d6 bd 87 5e 0a be 92 33 1e be
       -0.11482873 -0.10477881 -0.13512622 -0.1544936
0001f0 f8 8b da bc 0a c2 29 3c cb b8 87 bc bb 20 af bc
       -0.02667807 0.010361204 -0.016567608 -0.021377912
000200 e4 02 3e bd bf b6 ce bb b6 8e 87 bc 4c 81 f5 bc
       -0.046389475 -0.006308406 -0.016547542 -0.02996888
000210 60 ca 18 3c d8 71 1a be 28 a9 a4 bd 78 67 ed 3d
       0.009325594 -0.1508249 -0.080400765 0.11592001
000220 7d d8 9d bd e0 cf 12 be fe c2 7a bd 36 54 21 bb
       -0.077073075 -0.1433711 -0.061221115 -0.0024616844
000230 7a 72 85 bd 7e 31 d1 bb fe fd 1f be 0b ac 17 be
       -0.06515975 -0.0063840738 -0.15624234 -0.14811723
000240 4a 64 18 be 73 8c 27 be 90 76 8e be 2e cc 6c 3d
       -0.14882007 -0.16362171 -0.2782483 0.05781191
000250 0b b5 4d 3b c8 79 c2 bd bc d5 97 bd 1d c5 88 bd
       0.0031388428 -0.09495884 -0.074138135 -0.066782214
000260 92 d4 96 3c c0 15 5d bc b4 ff aa bd 38 b6 0e be
       0.018411908 -0.013493955 -0.08349553 -0.13936698
000270 d8 4e 8e bc cd 76 84 bd 17 cf 8b bd d6 36 b3 bd
       -0.01737158 -0.06467972 -0.06826609 -0.087506935
000280 ef 49 97 be b2 6f 60 bd 6d fa 93 3d e5 3e b9 3c
       -0.29548594 -0.05479402 0.07225499 0.022612998
000290 9e 53 1a be ca f2 d5 bd c9 03 ce 3c 0e 73 12 bd
       -0.1507096 -0.10446699 0.02514829 -0.035754256
0002a0 eb 65 34 bc 6c da 16 bd 42 e5 1f bd 87 e3 fd bd
       -0.011010627 -0.036829397 -0.039036997 -0.12396913
0002b0 4e 1c 54 bd 93 51 8c bd 5a fa 00 be be 20 96 bd
       -0.051784806 -0.068514965 -0.12595502 -0.07330464
0002c0 05 df 1d be ad 7c 12 bd db c4 41 be c6 14 34 3d
       -0.15417106 -0.03576343 -0.1892275 0.043965124
0002d0 ba 29 9d bc 87 72 b7 bd 56 d6 e8 bd 7b 99 ef bd
       -0.019184936 -0.08957391 -0.11369006 -0.11699196
0002e0 d5 52 a6 bd be c7 5c be 70 44 c7 3d de 31 0c be
       -0.08121268 -0.2156057 0.0972985 -0.13690898
0002f0 eb ca 8a be 85 4a 10 be 40 8b 3f bd 86 3d cd 3c
       -0.2710794 -0.14090927 -0.04676366 0.02505375
000300 93 27 18 be 86 51 c9 bd 10 8a 20 bd 1c 97 9c bd
       -0.14858846 -0.098300025 -0.039194167 -0.07646009
000310 e1 f7 28 be 4f 6c 5c be f2 b4 05 be 28 df ae bc
       -0.16500808 -0.21525691 -0.13057306 -0.021346644
000320 88 b2 83 bd 28 d0 fb bd e2 f5 31 be 84 c5 9b bd
       -0.064305365 -0.12295562 -0.17378953 -0.076060325
000330 c9 62 7a bb 79 0a 30 3c bf df 27 bd 8c 17 74 3d
       -0.0038205853 0.010744684 -0.040984865 0.05959277
000340 4a b3 84 bb c0 39 a5 bd 6b da 7c be 81 cb db 3b
       -0.0040496932 -0.080676556 -0.24692695 0.006707609
000350 e1 5a 50 be fc f2 93 bd fc a6 88 bd 89 29 6f bd
       -0.20347168 -0.0722408 -0.06672475 -0.05838922
000360 5c 11 84 bd cb 65 e9 bd 0e 53 48 be 6e 2d 14 be
       -0.064486235 -0.113963686 -0.19562933 -0.14470455
000370 c9 34 b3 bd ba a2 4d be 5c 0d 02 be 65 0a 12 be
       -0.08750302 -0.20081607 -0.12700409 -0.14261778
000380 65 90 99 bd 41 ca 75 bd 37 62 04 bd 21 9e 53 be
       -0.07498244 -0.060007337 -0.032320227 -0.2066579
000390 f5 dd ad bd 2e 36 74 bd 79 b4 c9 bc 14 35 3d be
       -0.084896006 -0.059621982 -0.024622189 -0.18477279
0003a0 d2 39 bf bd 90 b6 f6 bd 46 de 9b bd 68 c6 9f 3d
       -0.093372 -0.1204654 -0.07610755 0.07801515
0003b0 48 73 10 be 65 c6 a5 bd fa cf cb bc a7 7f 54 bd
       -0.14106476 -0.080944814 -0.024879444 -0.05187955
0003c0 a1 5a 59 3d d6 d8 34 bd ba 8c c4 3d 01 ab 8b bd
       0.053064946 -0.044152103 0.09597154 -0.06819726
0003d0 b2 2a 6c be c7 07 91 3c 64 2c 95 bd fa 94 a7 bd
       -0.23063162 0.017703904 -0.072838575 -0.08182712
0003e0 6f 33 b7 bc 31 47 cd bd 84 50 e0 bd 39 e4 4a bd
       -0.022363393 -0.10023344 -0.10952857 -0.049534056
0003f0 33 70 aa bd f7 5e 80 bb 55 44 90 bd 79 91 1a 3d
       -0.083221816 -0.0039175707 -0.07044283 0.03773639

a2c_network.actor_mlp.2.bias f4 [128]
000000 56 b0 d0 bd 15 3d 18 be 63 41 4e be 43 ad b1 be
       -0.101898834 -0.14867051 -0.2014213 -0.347025
000010 49 a6 8f be 94 9c 59 be 01 6a 85 be 68 37 1c bc
       -0.28056553 -0.21251136 -0.26057437 -0.009534694
000020 d5 67 fd bc 1f 5b 05 bc f3 64 e5 bd e5 bb c3 be
       -0.0309333 -0.008139401 -0.11200895 -0.3822929
000030 00 61 24 be 69 43 ae be 76 a6 9d be fc af 77 bd
       -0.16052628 -0.34035805 -0.30791062 -0.060470566
000040 d1 68 87 3d a9 fb 96 bc 34 99 cb 3b 3f 84 49 be
       0.06611789 -0.018430548 0.0062133316 -0.19679354
000050 0d 7d 5a be b8 ea a4 3d 88 eb 5c bd bc d7 7a be
       -0.21336766 0.080525815 -0.053935558 -0.24496359
000060 fc 82 6b 3b b0 8e 70 be 30 fe c4 3d fa 75 b4 be
       0.0035936227 -0.23491931 0.09618795 -0.3524626
000070 45 c6 4a 3d ed e0 fb bc c8 de 9e bc 14 c6 3b be
       0.04950549 -0.030746901 -0.01939334 -0.1833728
000080 6e 7a 86 be ff 0b 79 3d 71 59 84 bd 8a 28 95 be
       -0.2626528 0.060802456 -0.06462372 -0.2913249
000090 f1 6e 72 be f0 5b 92 be 0b 67 62 3d ab 6a ed 3b
       -0.23675133 -0.28585768 0.05527405 0.007245382
0000a0 a7 b1 4e be 1b d1 2e 3a 21 f1 52 be 31 ee 4a 3c
       -0.20184956 0.00066687324 -0.20599796 0.012385891
0000b0 1a b4 78 be c1 41 be be 14 ab cf bd 90 1a c6 3c
       -0.24287453 -0.3715954 -0.101400524 0.024182588
0000c0 9b 08 a1 bb c3 5d 03 bd 20 9a 25 bd b0 66 65 bd
       -0.004914356 -0.03207184 -0.04043019 -0.056006134
0000d0 df 5c e7 3a b6 d0 15 be 5d 90 12 bd c8 a6 b8 be
       0.0017651579 -0.14630398 -0.035782207 -0.36064744
0000e0 15 fa fa 3a 84 7e 25 3e b5 90 cc bd 09 a0 6e bd
       0.0019148017 0.16161543 -0.09988538 -0.05825809
0000f0 a7 11 b9 be 00 ad 11 b9 a9 54 3f 3c fb 4e 58 be
       -0.3614628 -0.00013892725 0.011677899 -0.21123879
000100 91 ae 5a bd d9 f2 b2 be 5f 69 ff 3c bc 6f 47 be
       -0.053389136 -0.34950903 0.031178175 -0.19476217
000110 cc 1f 1f 3e ab e1 bd bd 6f 95 b6 3d 11 d6 82 be
       0.15539473 -0.092715584 0.08915221 -0.25553945
000120 c6 6f 05 be 84 0c b4 be dd 47 30 3d 14 85 bc be
       -0.1303092 -0.351658 0.043037284 -0.3682028
000130 9a 05 07 3e c3 5b d1 bd b8 33 dd be ed de 22 be
       0.1318573 -0.1022258 -0.4320352 -0.15905352
000140 55 f7 d2 bd dd c1 82 be de 64 5d bd c9 1a 59 be
       -0.10301081 -0.2553853 -0.054051273 -0.21201624
000150 29 b8 01 bd a0 60 27 bf d6 15 d4 bd ac 1d 71 be
       -0.03166977 -0.65381813 -0.103557274 -0.23546475
000160 fb c0 46 be 99 12 26 3e ac 83 8f bd 00 0d 01 bd
       -0.19409554 0.16218032 -0.07007536 -0.03150654
000170 f4 f7 58 be d4 2f 63 3c 24 28 72 bd de 4e a2 be
       -0.21188337 0.013866384 -0.059120312 -0.31700796
000180 9c c4 2c be 5e c7 46 be 93 4d f8 bd b3 53 cc bd
       -0.16871876 -0.1941199 -0.12124171 -0.09976902
000190 ef a2 0e bc f6 63 7a 3d b9 a8 00 be ea c7 61 bd
       -0.008705839 0.061130486 -0.12564363 -0.055122294
0001a0 9b 89 89 be 1b 69 9d be 0d ba a6 be 85 99 96 be
       -0.26862797 -0.30744252 -0.3256382 -0.29414
0001b0 56 1b 5b be 5f 65 8e bd 1e 2d 9f be 57 4f b8 be
       -0.21397147 -0.06952929 -0.3108911 -0.35998031
0001c0 35 1d fe bd f0 b6 f2 bd 53 d1 56 be fa 97 45 3d
       -0.124079145 -0.11851299 -0.20978288 0.04824064
0001d0 b2 7a 4e be 74 d2 59 bd 19 72 93 3d 38 22 af be
       -0.20163992 -0.05317922 0.07199497 -0.34205794
0001e0 7b 94 87 bd c1 4b 59 be 1e 99 95 be 73 63 33 3e
       -0.06620117 -0.21220304 -0.29218382 0.17518406
0001f0 34 ab 9a be 28 28 95 be 8c b4 c0 be 2f c5 ee bd
       -0.30208743 -0.291322 -0.37637746 -0.116587035

a2c_network.actor_mlp.4.weight f4 [64, 128]
000000 b0 c0 dd 3a e6 71 3a 3d e2 83 3e 3d cc 0e eb 3b
       0.0016918387 0.04551878 0.046512492 0.007173395
000010 37 06 45 3d 51 58 3b 3e da 69 0c be ba 9d 02 3d
       0.04810163 0.18295409 -0.13712254 0.0318887
000020 1e 76 6f bc 61 c4 90 3c 91 ee 39 3d f7 d6 f4 bd
       -0.014615564 0.017671766 0.04539353 -0.11955064
000030 c6 f3 91 bc ff 9e bf 3c b9 a6 8b 3d 7d f4 71 be
       -0.017816436 0.023391245 0.06818909 -0.23628421
000040 53 4d ab 3d 02 73 1c 3d 6d f2 dc bd 36 07 3a 3e
       0.08364358 0.038195617 -0.107884265 0.18166813
000050 59 28 33 bc cf d6 86 bd ae 29 08 3d d2 f7 9c 3d
       -0.010934913 -0.0658394 0.033242874 0.076644555
000060 eb fc b4 3b 7c d8 e9 3d cf e5 ba 3d b2 18 3c bd
       0.0055233142 0.11418244 0.09125864 -0.04592199
000070 e1 ea b3 bd e0 9d 78 3d 04 eb c2 3d 79 33 06 3e
       -0.08785034 0.060697436 0.09517482 0.13105573
000080 45 fc 61 3d e2 17 ec 3c 3b 92 0c 3b 52 13 93 bc
       0.055172224 0.028819982 0.0021449465 -0.017953549
000090 38 bf 92 3c 71 22 19 3c d1 30 11 3c 03 35 ca bc
       0.017913446 0.00934659 0.008861736 -0.024683481
0000a0 88 c9 91 bd c2 ab b9 3b 28 0c e6 bc 88 9b b3 3c
       -0.07118517 0.005666227 -0.028081968 0.021924749
0000b0 de ed e8 bc 42 a3 fa bd f2 b5 41 be 30 ec 69 bd
       -0.028433736 -0.1223817 -0.18917063 -0.05711001
0000c0 e2 6c f5 3c f5 64 db bc ef 4f 3c 3d 6a 08 d4 3c
       0.029959146 -0.026781539 0.045974668 0.025882918
0000d0 8c d9 ac 3d 1f 71 3a 3d 2d a1 00 bd 89 be c4 bd
       0.08439931 0.045518037 -0.03140371 -0.09606654
0000e0 f1 70 1e 3d 31 77 c0 3c 35 f8 ac 3d 86 1b 0d 3e
       0.038681928 0.023494335 0.08445779 0.1378003
0000f0 a3 4f c7 3d 52 5e e9 bc 3a 2f 8d 3c 1f 39 84 3c
       0.097319864 -0.028487358 0.017234433 0.016140519
000100 4f cd 03 bd 83 4f d8 bd 5e b0 5c bc 38 4d 47 be
       -0.03217822 -0.10562041 -0.013469784 -0.1946305
000110 ae 8f 0e bc 7f 6a 46 3d a7 58 0f bc be 44 4b bd
       -0.008701248 0.048441406 -0.008749164 -0.049626105
000120 df f3 4e be ee 1e f1 3c dd 27 12 3c 8f 30 f7 3d
       -0.20210217 0.029433694 0.008920637 0.12069809
000130 55 f8 c7 bd 1e 0b 41 bd b9 1e 3f 3d e6 a5 0d bd
       -0.097641625 -0.047129743 0.04666016 -0.03458204
000140 57 8a dd 3c 82 eb c3 bd 98 60 01 bd 75 46 80 3c
       0.027043505 -0.09566404 -0.03158626 0.015658597
000150 63 fe 06 3e 88 56 a6 bd 5c b5 c0 3c f9 0a 1f 3e
       0.13182978 -0.08121973 0.023523979 0.1553153
000160 14 94 a8 3d 73 80 85 3d 6d fa 9d 3b fa 51 10 3d
       0.08231369 0.0651864 0.004821113 0.03523443
000170 e2 64 3b bf 8a 6d 69 bd b6 68 99 3c 8e a8 b4 be
       -0.7320081 -0.05698923 0.018726688 -0.35284847
000180 53 7d 8d 3d ea 17 51 bb 71 9b 9a 3d 38 ef 9b be
       0.06908669 -0.0031905123 0.07549179 -0.30455947
000190 71 58 e3 3d 62 46 15 bc a7 6d 09 bd 23 ce 6e bd
       0.11100853 -0.009111019 -0.03355184 -0.058302056
0001a0 91 6b ae bd 1d a4 ec bd 95 d9 0a 3d 58 fd be be
       -0.085166104 -0.115547396 0.03389891 -0.3730266
0001b0 37 c5 20 3d b9 b3 19 bd de 48 ba 3d fd 80 aa bd
       0.03925058 -0.037524913 0.090959296 -0.08325384
0001c0 7c a7 0c 3e f8 69 71 3c d5 68 79 3e 29 5e 80 3c
       0.13735765 0.014734738 0.24356396 0.015669899
0001d0 28 80 5d 3c c2 eb 72 3d 68 09 0d bc dc 42 05 3e
       0.013519324 0.059306867 -0.0086082 0.13013786
0001e0 12 bd 72 bd 30 a3 fd bc 0d 4d a2 3c 17 31 d0 bc
       -0.059262343 -0.030961603 0.019812131 -0.025414033
0001f0 70 54 bb bd 0f e3 f4 3d dd 8f 0e bd fa d8 64 bd
       -0.091469646 0.119573705 -0.034805167 -0.055870987
000200 3f 54 2c 3d 1b 5a 42 be b0 86 09 bd 3c f4 9c be
       0.04207253 -0.18979685 -0.033575714 -0.30655086
000210 13 fd 4e bc a4 d3 e5 bc 06 1e b0 3d 58 a5 fb bd
       -0.01263358 -0.02805502 0.085994765 -0.12287396
000220 e7 cc 04 be 66 62 34 bd 69 2e bf bc c9 df 4d bd
       -0.12968789 -0.044039153 -0.02333756 -0.050262246
000230 1e 93 ac bd 31 6c 26 be b1 41 3b bd 3a 9c 72 3d
       -0.08426498 -0.16252209 -0.045716945 0.05923102
000240 47 10 2f be a7 60 c0 3c db 82 0f bd b4 57 c7 bd
       -0.17096053 0.023483587 -0.035036903 -0.09733525
000250 cb 87 8b bd 89 9d 60 be 73 7c 3d 3d 8a 5e 64 3e
       -0.0681301 -0.21935095 0.046261262 0.22301689
000260 ad 70 60 bd 29 e4 cb 3c 6d 75 76 bc 1a 3f 3d b7
       -0.054794956 0.024889069 -0.015042645 -1.127997e-05
000270 0f 84 c7 bd 57 35 38 be 97 45 9e 3c ea 16 54 3e
       -0.09741985 -0.17989098 0.019320292 0.20711866
000280 b7 34 97 3d 22 1b 5f 3c d7 e1 71 3d be 11 0e 3e
       0.073831014 0.013617309 0.05905327 0.13873956
000290 e3 4b a9 3d 7c 6c 39 3e 1c 71 a1 3c d3 b2 28 bd
       0.08266427 0.1810779 0.019707255 -0.041186165
0002a0 51 06 4b 3d 4d 7e 7a bc 96 51 25 bd 2a 12 44 be
       0.04956657 -0.0152889015 -0.04036101 -0.19147554
0002b0 09 c2 3d bd ad f2 08 3e 59 6d 27 be 97 83 c8 bc
       -0.046327624 0.13373823 -0.16350307 -0.02447681
0002c0 36 2a 80 bc 37 6d 8a 3e 30 3d 41 3c de 00 4b be
       -0.015645128 0.2703645 0.011794373 -0.1982455
0002d0 c1 41 24 be 62 94 04 bd 83 47 ee ba d7 26 e4 3d
       -0.16040708 -0.03236807 -0.0018179271 0.111402206
0002e0 82 c1 86 bd 2e bf 89 bd d7 04 4e 3d 62 62 27 bd
       -0.065798774 -0.06725918 0.050297584 -0.04086531
0002f0 00 f9 3b 3e 4d 03 18 3c 57 47 21 3e eb 4f 00 3e
       0.18356705 0.009278131 0.1574987 0.12530486
000300 55 6d 33 3e e6 ef 70 3d fc 2a 12 be 13 41 0e bd
       0.17522176 0.058822535 -0.1427421 -0.03473003
000310 55 be e9 bd a5 2b cd bd f3 f8 85 3d ad b4 92 bd
       -0.11413256 -0.1001809 0.06541624 -0.071633674
000320 eb 3a ae be 67 c9 93 3d 55 32 0e bd c6 e9 ce 3c
       -0.34029326 0.07216149 -0.03471597 0.025257956
000330 cf 10 f2 bc 67 03 54 bd 9a 1f de 3c c3 97 60 be
       -0.02954903 -0.051761057 0.027114678 -0.21932893
000340 6a 87 45 3d fa 41 a0 bd c5 25 86 bd f9 8c 07 3d
       0.048224844 -0.07825084 -0.06550173 0.033093426
000350 91 34 ee 3d 2b 83 63 be c3 62 b1 3d 41 df 5e 3d
       0.1163112 -0.22218005 0.086614154 0.05441213
000360 23 26 88 bc db fe 62 3d 89 09 3b be f7 4b 85 bb
       -0.016619748 0.05541883 -0.18265356 -0.0040678936
000370 c0 0d dc bd 6d 51 85 3d e5 44 21 3c 93 cb 05 3d
       -0.1074481 0.06509671 0.009843086 0.032664847
000380 d6 24 87 bd 9f e1 78 3d 52 1b 32 3d a4 6f b5 bd
       -0.06598823 0.060762044 0.043483086 -0.088591844
000390 cb 90 e4 3d 98 cb 78 3c ad 06 eb bc 1e 9f 02 bf
       0.111604296 0.015185259 -0.028689707 -0.51024044
0003a0 7c 61 cb bd 15 b3 8e be 86 ab 23 be 94 29 17 be
       -0.09930703 -0.27871004 -0.159834 -0.14761955
0003b0 63 d7 ab 3d 36 ea 37 3e e6 7c 1b 3d dc cf 98 be
       0.08390691 0.17960438 0.03796091 -0.29846084
0003c0 48 20 a5 bd 8d 87 af 3c 5f 75 84 bd 70 72 cc bd
       -0.08062798 0.02142694 -0.06467699 -0.09982765
0003d0 26 d6 36 3e 72 b7 6c 3d 24 eb 52 be 6c 2b 91 3d
       0.17855129 0.057792135 -0.20597512 0.0708836
0003e0 c2 24 62 3d 77 b2 f9 3d 62 f7 47 be a2 d4 e0 bd
       0.055210836 0.121922426 -0.19527963 -0.109780565
0003f0 6b bb 58 3c d6 ee 77 be a2 13 c1 3d 99 d0 a9 3d
       0.013228278 -0.24212202 0.09427573 0.0829174

a2c_network.actor_mlp.4.bias f4 [64]
000000 18 30 f8 3c a1 3a 18 3d 49 80 55 bd 64 22 4e be
       0.03029637 0.037165288 -0.052124295 -0.20130306
000010 a7 af d5 3c 4c a1 f6 3c e9 31 be be e4 90 fd bc
       0.026084734 0.03010621 -0.37147453 -0.030952878
000020 08 b2 99 bd 82 60 39 3e f7 4d 81 3d 78 f2 c8 be
       -0.0750466 0.18103221 0.06313699 -0.3924749
000030 69 fb ef bd c8 13 a6 be 24 0f c2 bb 28 87 55 3b
       -0.117178746 -0.32436967 -0.005922215 0.003258178
000040 86 3c 16 be 6f bc 11 3e e7 d2 5a bd a2 31 50 3e
       -0.14671525 0.14232038 -0.05342379 0.20331433
000050 d2 47 7c be 8d 7b cd 3b 33 08 d0 bc 8c be 1a be
       -0.24636772 0.006270832 -0.025394535 -0.1511175
000060 74 51 5f be e8 94 a6 be 78 39 72 bd bb 56 50 be
       -0.21808416 -0.3253548 -0.059136838 -0.20345585
000070 d5 14 f9 bc 65 c7 47 be d7 39 45 bd 02 79 21 3d
       -0.030405441 -0.19509657 -0.048150863 0.039422043
000080 c1 03 c3 bd 2f ad d6 3d f1 7c 8a bd 8a 90 18 be
       -0.095222004 0.10482251 -0.06762112 -0.14898887
000090 a7 9f e7 bc ab 14 a8 bd ec 00 a8 be 4c 5b c9 3a
       -0.02827437 -0.08207067 -0.32813203 0.0015362292
0000a0 b2 d9 8e be 95 72 0b be f2 35 45 be 0e 43 54 3e
       -0.27900463 -0.13617928 -0.1925886 0.20728704
0000b0 91 76 9b be 04 47 88 3d 33 f1 28 be f3 23 1a be
       -0.30363896 0.0665417 -0.1649826 -0.15052776
0000c0 6c cf a3 3d 33 b7 27 bd 89 3a 4a 3d e9 dd 9b bd
       0.07998547 -0.040946197 0.04937223 -0.076106854
0000d0 68 35 60 be a9 5b a5 bd 1a b9 33 bd 19 4d 82 bd
       -0.21895373 -0.080741234 -0.0438777 -0.063623615
0000e0 c9 f1 67 3d 30 f4 6c 3d ca 5b 56 be 64 26 92 be
       0.05662707 0.057850063 -0.20933452 -0.28544915
0000f0 16 f3 0c 3c d7 46 26 be a4 09 7d be dc 0c 45 bd
       0.008602878 -0.16237961 -0.24710709 -0.048107967

a2c_network.value.weight f4 [1, 64]
000000 e2 60 44 3c e5 56 30 bb a8 a9 9a bc 66 03 c5 bb
       0.011985989 -0.0026907262 -0.018879727 -0.006012368
000010 67 17 98 bc 9f c5 f0 bb 2d bc b4 bc b1 ad 36 38
       -0.018565847 -0.007347777 -0.022062385 4.3553944e-05
000020 96 d4 23 bd 8a d7 bc 3d fc e1 cb 3c da a4 52 bc
       -0.03999766 0.09220798 0.024888031 -0.0128566865
000030 14 1e 28 3d ff 6b 3a be 7b 22 d7 ba 25 fb 8b 3c
       0.04104431 -0.1820526 -0.0016413474 0.017087528
000040 5d 96 d1 3c 59 87 4d 3d bb a5 5c 3d 23 a5 e4 bc
       0.025584394 0.050177906 0.05386899 -0.027910775
000050 0b a3 fc 3a 4f 8e 79 bb 32 83 ed bb d8 f6 30 3b
       0.0019274665 -0.0038079207 -0.0072483057 0.00270026
000060 64 ad 30 bc 7a 6d 26 bd 86 d0 42 3d 01 8f c5 3c
       -0.010783527 -0.04063175 0.047562145 0.024116041
000070 5a e9 9d 3b 32 fe f6 3b cb 1c 94 bb a9 81 4d 3b
       0.0048190774 0.0075376267 -0.004520034 0.00313578
000080 7f d2 13 3c 36 51 75 3d 82 85 35 3b d4 0b ad bc
       0.009022354 0.059891902 0.0027697985 -0.021123804
000090 51 28 0e 3b bd 09 76 3a 27 24 41 bc 6b ee 5b bb
       0.002169151 0.00093856064 -0.011788405 -0.0033558856
0000a0 44 f2 38 bc 3e e3 c8 3d 47 b4 c6 3d fd bd 6b 3d
       -0.011288229 0.09808968 0.09702354 0.057554234
0000b0 33 cb 7e 3d 0e c9 17 3c 44 1f 8b 3d d1 bf 53 bc
       0.062205505 0.009264244 0.06793073 -0.012924151
0000c0 c6 8a 13 bb 3e 1e 2c 3d 4f fd 3a 3c d3 bd f3 3c
       -0.0022513135 0.04202103 0.011412933 0.029753601
0000d0 f2 63 5b 3c ba 3e dc 3b 16 d6 72 bd e1 ad 1c bd
       0.013390528 0.006721345 -0.0592862 -0.03825176
0000e0 b4 6f 0b 3c eb 22 e0 b9 fd 49 d4 bb a7 7a e3 bb
       0.008510519 -0.00042750625 -0.0064785467 -0.0069421115
0000f0 8f cc 33 3c 12 2b c4 3b 9c 2b 72 3b b6 8b 04 bc
       0.010974064 0.0059865797 0.0036952263 -0.00808995

a2c_network.mu.weight f4 [7, 64]
000000 85 a5 5a be 8e 51 85 bc 22 b0 84 3d fc 1c 8f 3c
       -0.21352203 -0.01627424 0.06478907 0.017469876
000010 89 7a 74 3d b3 f7 71 3c fb f4 0c be b1 e2 7d bc
       0.05968717 0.014768529 -0.13765328 -0.015495942
000020 ce e3 84 3d fa 95 e6 bc 3d 81 c0 bd 05 03 44 be
       0.06488763 -0.028147686 -0.0939965 -0.19141777
000030 d1 91 03 bd 09 5b a3 3b 5a 20 e9 bc d2 f3 95 bb
       -0.032121483 0.0049852175 -0.02845781 -0.004576185
000040 1e 3d 50 bc 51 2c 87 bc da 9c 36 bc f8 7c bc bc
       -0.012709884 -0.016500624 -0.011145795 -0.023008808
000050 06 6b 51 bc a8 2c aa 3d c2 9c db ba 78 f7 1c 3c
       -0.012781864 0.08309299 -0.0016755091 0.0095804855
000060 19 6a 05 3b a1 17 a9 bc 6b 15 a5 bb 46 c5 d7 ba
       0.0020357429 -0.02064115 -0.0050379536 -0.001646199
000070 53 ca 5b 3d 01 63 88 bd 42 d1 b0 3b 41 48 f2 bb
       0.05365975 -0.066595085 0.005396039 -0.0073938672
000080 a5 8c a0 3c 3b 66 b9 bd 6c 74 c6 bc 77 c9 f7 bb
       0.019598315 -0.09052702 -0.024225436 -0.0075618583
000090 ea 94 22 bd 5f 9a d0 bc 38 50 dc 3c 47 e9 86 bc
       -0.039692797 -0.025464235 0.02689372 -0.016468657
0000a0 56 fe 3a bd 58 e2 47 bc 83 47 e4 bc 6c 4e 6c 3d
       -0.04565271 -0.012199961 -0.02786613 0.057691976
0000b0 64 5e 6e bd f6 e1 f1 3b f0 4e 77 3c fc 35 19 bc
       -0.058195487 0.007381673 0.015094504 -0.00935125
0000c0 53 f7 54 39 41 a1 42 3d 7e f2 36 bc 2a 6c b4 39
       0.00020310031 0.047517065 -0.011166213 0.00034412864
0000d0 79 10 2f bd 30 55 e4 bc c1 b0 a5 3b e3 c5 71 3d
       -0.04274032 -0.027872652 0.005056471 0.05902661
0000e0 03 7d a2 3d b7 1e 2f 3e 2a 14 db bc c6 24 9d bc
       0.07934 0.1710156 -0.026743013 -0.019182574
0000f0 f3 84 bb bb a6 6b 55 bd 0a 66 0f 3c 9a 48 03 3e
       -0.005722636 -0.052104615 0.008752355 0.12820664
000100 00 7c 1e bb 31 49 25 3e 22 79 c0 3c 0c d3 21 bc
       -0.0024182796 0.16141202 0.02349526 -0.009876978
000110 03 44 56 be 8b c6 4a 3c 95 2e a3 bc 44 81 b0 bc
       -0.20924382 0.012376438 -0.019919673 -0.021546014
000120 87 a8 85 bc d4 7f 82 3b 6e 4b f0 bd 51 ed 8b bc
       -0.016315712 0.0039825235 -0.11733137 -0.017080935
000130 dc 1b db bc d5 33 04 bd dc e0 8d 3c 08 c6 de b9
       -0.026746683 -0.032275993 0.017319135 -0.00042490684
000140 3e da 6c 3c 95 c4 6d 3d 90 41 68 3c ab f6 3e bd
       0.01445633 0.058048803 0.014175788 -0.04662196
000150 51 fa f2 bc 33 c7 40 3d ba e4 d6 bb af cf 75 3d
       -0.029660376 0.04706497 -0.006558028 0.060012516
000160 1f c1 00 3d d8 dc 56 bc 82 6a a0 bc c4 16 30 bc
       0.031434175 -0.013114177 -0.019582037 -0.010747615
000170 21 77 3d bd 64 1d 01 3d 54 ee 22 bd 84 10 d1 3b
       -0.04625619 0.03152217 -0.03977807 0.0063801426
000180 87 67 d7 bb a9 43 4c 3d 3a 47 b3 3c 10 2e ac 3d
       -0.0065736207 0.049869213 0.02188455 0.08407223
000190 bd d5 b3 3b 3b 19 18 3a 63 05 fe 3c 64 d1 6d bd
       0.005488126 0.00058020995 0.031008428 -0.05806102
0001a0 7a af 49 3d 27 9f ab bb f4 5d 95 bb 3b 12 d6 3c
       0.049239613 -0.0052374783 -0.004558319 0.02613174
0001b0 ff d0 17 bd 5d 83 fa bd a5 5e 89 3c 45 ea 3d bd
       -0.03706455 -0.12232087 0.016768763 -0.046365995
0001c0 9a 60 53 bd 64 a8 71 bd 86 e1 b6 3b 99 f4 e2 3b
       -0.0516058 -0.05899848 0.0055810837 0.006926131
0001d0 80 7a 15 bd 0f ea 63 bc 99 cc b3 3c 4a ac 4b 3d
       -0.03649378 -0.013910784 0.021948146 0.049724855
0001e0 90 98 e7 ba 93 4a 47 3d d1 b8 ec bb 52 4f 1f 3d
       -0.0017669369 0.048655104 -0.0072241803 0.038894005
0001f0 a8 07 2f bb 81 b3 19 3d 5f da 48 3d 31 06 a2 bd
       -0.0026707444 0.037524704 0.04903638 -0.07911337
000200 69 04 88 bd a3 8f a2 3c 9f d4 bc 3b 49 21 fa bc
       -0.06641466 0.019843882 0.005762651 -0.03053345
000210 1a 05 42 bb 71 db 91 bd ba 45 e1 3d 88 ff 29 3d
       -0.0029605092 -0.07121933 0.109996274 0.04150346
000220 7f 2d 3e 3c f4 13 16 bd b2 47 ba 3c 0e 7c d3 3a
       0.011607527 -0.036640123 0.022739265 0.0016134994
000230 64 da 9b 3c d1 4a ae bb 10 19 2f 3d a5 5e 68 bb
       0.019025035 -0.0053189774 0.04274851 -0.0035456803
000240 4e 1a 57 bb 88 50 d7 ba de 58 22 bc 48 53 75 3d
       -0.0032822075 -0.0016427198 -0.009908883 0.059893876
000250 bc eb 9b 3c 8b 59 db 3d 71 04 50 3b 74 8b 7e bd
       0.019033305 0.10710438 0.0031740929 -0.06214471
000260 0a ba 18 bd 4e f0 6c 3b d8 bd 33 3b 86 b6 43 3b
       -0.037286796 0.0036153975 0.0027426388 0.002986343
000270 72 ab f8 3d dc 36 2c 3d 59 06 5a 3d 4f 2b 39 3c
       0.121420756 0.042044505 0.05322871 0.0113018295
000280 3e 5d 79 3a 49 fc 0d 3d b7 34 52 bc de 5e 63 bc
       0.00095124904 0.034664426 -0.012829951 -0.013877599
000290 82 80 c6 bd 25 6a 83 bd 52 04 5e bb bf f7 91 bd
       -0.0969248 -0.0641673 -0.0033877087 -0.07127332
0002a0 ed 6e ae 3b bb f6 11 bb 83 ce d4 bb 55 53 87 3c
       0.005323282 -0.0022272307 -0.0064943447 0.016519228
0002b0 41 62 62 3d 75 45 da 3b 34 2d 4b 3c 68 1d 45 bc
       0.055269483 0.006661112 0.012400914 -0.012030937
0002c0 fd 7e 0e bd 88 28 01 bd 8a d3 4e 3a cb 0a 82 bb
       -0.034789074 -0.031532794 0.0007889798 -0.003968572
0002d0 26 fd 85 3c c0 b6 06 be 17 f0 a4 3c ae 6f 8a bb
       0.016356062 -0.13155651 0.020134015 -0.004224739
0002e0 fb a1 0c 3e 60 28 0f bd b4 71 ec bc 8b ce 4c bd
       0.13733666 -0.034950614 -0.028862812 -0.050001662
0002f0 1e 9e cd 3b 73 53 f4 3c 39 fd e2 bb 9a 04 56 3d
       0.0062749526 0.029824948 -0.006927159 0.052250482
000300 fb 08 9c 3c 66 eb a2 bd 08 aa d5 bd 60 9a f9 3c
       0.019047251 -0.07955055 -0.104328215 0.03046912
000310 3c 5c 19 bd 35 34 84 bd 2a ff eb bc cd 2f 8f bd
       -0.037441477 -0.0645527 -0.028808195 -0.06991539
000320 69 18 70 bc 92 ba b3 3d 17 f7 df 3b 55 1d 5d bd
       -0.014654257 0.0877582 0.0068348753 -0.05398305
000330 bc 8b 46 3c cf 56 fb bb 0f a1 01 3e 83 02 ab bc
       0.012118276 -0.0076702605 0.12659095 -0.020875221
000340 9e 6d ac 3c de 93 04 3b 96 45 ab bb 2d c4 c1 3d
       0.021048363 0.0020229737 -0.005226801 0.09461246
000350 fa cb e1 bd 71 e2 ba 3d 6e 20 f8 bb 0f 59 40 bb
       -0.110252336 0.091252215 -0.0075722253 -0.0029349958
000360 d6 af fc 3d 55 42 fa bc 40 19 a9 bb 1e c6 d8 3c
       0.123382255 -0.030549208 -0.0051604807 0.026461657
000370 6a 12 4f 3e b5 e0 82 bd 39 41 16 3d 53 2c d7 bd
       0.20221868 -0.06390516 0.036683295 -0.10506501
000380 7c 9f a6 bc af 65 93 3d 21 2c b3 3d ad c5 f8 3c
       -0.02033972 0.07197129 0.08748651 0.030367697
000390 a4 c4 25 be c9 48 0f 3e fb f8 b6 bc 07 cd a0 3d
       -0.16188294 0.13992609 -0.02233552 0.07851606
0003a0 8e e7 d0 3d a4 f6 58 3b da 7a b2 3c aa 6a a2 bd
       0.102004156 0.0033105994 0.021787096 -0.07930501
0003b0 95 e3 89 bd b3 2b ae bd c0 ad e9 3c 8b 48 e3 bc
       -0.06732861 -0.08504429 0.028525233 -0.027744552
0003c0 80 f9 ce 3d 12 31 3d 3d 1d 84 2c ba 58 58 28 bd
       0.10106182 0.046189375 -0.0006580966 -0.041099876
0003d0 d4 d1 06 bd c0 2a b6 3d fa 05 5f 3d 6e 0e b6 3d
       -0.03291495 0.08894873 0.05444906 0.08889471
0003e0 f6 f1 ee bd e2 67 23 bd 8d d4 9c bd 1b 35 ee 3b
       -0.11667244 -0.039893992 -0.07657728 0.0072695143
0003f0 03 e9 72 3c 6c 96 14 be fa a7 ad be bb df cc bd
       0.014826062 -0.14510506 -0.33917218 -0.10003611

a2c_network.mu.bias f4 [7]
000000 10 48 60 3d e2 50 ac bb 7e 42 93 be 15 e4 76 bd
       0.054756224 -0.0052586654 -0.28761667 -0.06027611
000010 f9 0b e2 bd ba 54 cc 3d d6 0b 42 bd
       -0.1103744 0.09977098 -0.04737457

exp_avg f4 [7]
000000 08 77 98 3a 8f 8f 0e 3a 59 87 d1 3a aa 17 33 3a
       0.0011632154 0.0005438262 0.0015985771 0.00068318343
000010 8c 7b 08 3a 97 f8 31 ba 89 06 e5 39
       0.0005206398 -0.0006789057 0.00043683153

exp_avg_sq f4 [7]
000000 0c d3 3b 38 4b fc 1a 38 da 40 30 38 c2 4c 17 38
       4.4780827e-05 3.6951427e-05 4.2022068e-05 3.607269e-05
000010 ed 41 27 38 8e a9 33 38 1f b7 35 38
       3.98773e-05 4.2834836e-05 4.3324308e-05
