runs/BallBalance_31-14-19-00/nn/BallBalance.pth (torch, 180063 bytes, 36 tensors)

value_mean_std.running_mean f8 [1]
000000 c3 3d 83 9e c8 a4 15 40
       5.41092155147584

value_mean_std.running_var f8 [1]
000000 00 b2 df 3f 12 b6 0f 40
       3.9639019956723587

value_mean_std.count f8 []
000000 00 00 00 10 00 c0 79 41
       27000833.0

running_mean_std.running_mean f8 [24]
000000 d1 5d 53 7a 4a 8c d9 3f 93 24 eb 89 98 ba dd 3f
       0.39918767877449307 0.46451390713316093
000010 c7 e5 14 1d 23 e9 db 3f 3a ab a7 36 34 5f c4 3f
       0.4361045631408981 0.15915539425562902
000020 64 68 1c e9 c3 50 cb 3f 83 34 b2 b6 79 c4 c9 3f
       0.2134022606122158 0.20130845471104317
000030 79 11 9d e7 9b 08 86 3f 92 e6 9d 74 50 53 97 3f
       0.010758607869896452 0.022778756253933503
000040 98 a8 1d 54 22 ac e8 3f e6 00 bd 41 b9 18 a5 3f
       0.7710124628913659 0.04120425155133649
000050 cb 63 5a b1 03 72 90 3f c9 a8 80 3e e0 7a ce bf
       0.016059930515073078 -0.23812487651713912
000060 57 ad 0e 8a 30 26 76 3f 57 ad 0e 8a 30 26 76 3f
       0.005407514196956362 0.005407514196956362
000070 57 ad 0e 8a 30 26 76 3f 3a 91 e7 1d a9 11 49 3f
       0.005407514196956362 0.0007650447622009956
000080 53 e3 02 12 ad a4 bb 3f 49 20 1e 0c c2 45 bb bf
       0.10798150720337434 -0.10653317256776619
000090 f1 42 3e 22 e6 07 bf bf d9 37 54 15 bb 76 b0 3f
       -0.12121427856460422 0.06431168814398748
0000a0 aa f9 d2 15 bb 76 b0 3f 2b 53 cb 14 63 52 74 bf
       0.06431168825927239 -0.004961382900280846
0000b0 f8 2a a6 67 49 a0 42 bf 34 f3 16 3d 88 35 61 bf
       -0.0005684240743887006 -0.002100721446110754

running_mean_std.running_var f8 [24]
000000 bf 3f 50 68 86 66 d3 3f 2f fe 3e 57 ca 1e d6 3f
       0.30313263117659156 0.34562929649470936
000010 56 b0 df d9 db 97 d3 3f 6f d3 95 ab 71 a7 18 40
       0.3061437251733471 6.163519555110596
000020 43 c3 44 10 30 87 16 40 8f 7a 35 2e 09 69 16 40
       5.632019285389847 5.602574083341678
000030 c3 c8 b8 81 81 40 a1 3f f8 f7 49 ed bf 53 9a 3f
       0.033695265851194665 0.025710104806869055
000040 17 8c e3 53 7a f6 97 3f 27 e6 ab ec 76 3d cb 3f
       0.023401175851983504 0.21281324917053832
000050 a6 1b 88 f6 59 3f ca 3f 70 f0 11 82 a4 34 f3 3f
       0.2050583318489007 1.2003521996366793
000060 1f 3b 38 08 ed c0 2a 40 1f 3b 38 08 ed c0 2a 40
       13.376808411468629 13.376808411468629
000070 1f 3b 38 08 ed c0 2a 40 7a 81 c6 80 bc 69 aa 3f
       13.376808411468629 0.0515879542538213
000080 50 75 b3 ab c0 40 09 40 e3 db 74 45 e1 ba 07 40
       3.1566174902097046 2.9662499834334866
000090 19 f6 ee dd eb 61 0f 40 84 f4 9a b5 22 43 f1 3f
       3.9228131617117126 1.0788905233341959
0000a0 90 6f 85 b7 22 43 f1 3f 4c d5 b3 de 82 75 14 40
       1.0788905304716288 5.114757041669986
0000b0 09 11 9b 4f 3c 38 12 40 a1 36 17 c2 e0 33 10 40
       4.554917568053733 4.050662071863969

running_mean_std.count f8 []
000000 00 00 00 20 00 c0 69 41
       13500417.0

a2c_network.sigma f4 [3]
000000 53 75 c3 bf ab c9 a7 bf 0c 89 95 bf
       -1.527018 -1.3108419 -1.1682448

a2c_network.actor_mlp.0.weight f4 [128, 24]
000000 dc 2b e4 be 37 db 8d be 0e 34 84 3d 9f b1 9e be
       -0.44564712 -0.2770631 0.06455241 -0.3099489
000010 e4 a2 3c 3e 04 4d 32 3e af a1 2d 3f 38 39 0d bf
       0.18421513 0.17412192 0.67824835 -0.55165434
000020 d7 21 3f 3f 5b ea 95 3e a1 5d 18 3e af 3f d1 3d
       0.7466101 0.29280362 0.14879467 0.10217225
000030 f8 5c 28 b9 77 24 08 3e 87 3f 1e bc ee 0c 02 bd
       -0.00016056362 0.1329516 -0.009658701 -0.031750612
000040 26 f3 b7 3c 80 bd fd bb 74 5a d8 3d a3 6a 06 3e
       0.02245481 -0.0077435374 0.105641276 0.13126616
000050 5d 3f 89 3d 41 44 22 bc 9a c3 71 3d 6e a5 89 3c
       0.06701539 -0.009903968 0.05902443 0.016802516
000060 c0 13 92 bd 4d 0c d6 be 54 df 00 bf f1 40 93 bd
       -0.07132673 -0.4180626 -0.5034077 -0.07190121
000070 cd a1 ff be 87 e3 95 3e 85 24 9a 3e f2 1b 77 3e
       -0.49928132 0.29275152 0.30105987 0.24131754
000080 bb fd 66 3e 12 22 6a 3d ae 33 5d 3e e7 87 f2 bd
       0.22557728 0.0571614 0.21601745 -0.118423276
000090 a8 42 02 3e 2d 8a cc bc 6b 8d 35 3e 27 17 e9 3d
       0.1272074 -0.024968231 0.17729728 0.11381369
0000a0 ba 6e 62 3e aa db 0f be 71 c6 1e bd d8 e1 b3 bd
       0.22112551 -0.14048639 -0.038763467 -0.08783311
0000b0 83 6d b5 bd a0 fa 96 be c1 07 bb 3e fd 4e 21 3e
       -0.08858778 -0.29488087 0.36529353 0.15752788
0000c0 b5 1d b2 3e 2c 64 89 bd 73 5f 01 bf f8 7c 0b 3c
       0.3478829 -0.067085594 -0.5053627 0.008513682
0000d0 4d f6 ab bd e2 dd 6b 3d 25 30 3f be 24 9e 36 3f
       -0.083965875 0.05758465 -0.1867071 0.71335053
0000e0 db b1 19 bc 43 25 71 be 82 05 98 3e da 53 cc 3d
       -0.009380783 -0.2354937 0.29691702 0.09976931
0000f0 80 b6 66 3d 57 91 ed bd 39 8d 49 3d 38 53 c3 bc
       0.05632639 -0.11599987 0.049206946 -0.023843393
000100 21 83 99 bd c1 69 48 3d 06 35 c4 3c 9b ee 26 bd
       -0.07495714 0.04892898 0.023951065 -0.040754896
000110 03 27 08 3e 83 42 8d bc 2d ed fb bd 4c e6 dc 3d
       0.13296132 -0.01724363 -0.12301097 0.10786113
000120 df 8a 70 bc ba bd 7b be 0c f9 c4 bd 9d 9a b5 be
       -0.014681547 -0.24584094 -0.096178144 -0.35469523
000130 df d6 9f be 1d a0 09 3c e9 00 a1 be 65 bb 39 bf
       -0.3121862 0.00839999 -0.31446007 -0.72551566
000140 46 1a 56 3e bf 7f 06 bf a2 d1 18 bf 38 d7 ae 3c
       0.2090846 -0.52538675 -0.59694874 0.021342859
000150 7e 30 25 be 47 af e6 bd 08 b1 62 3e 30 24 ae bc
       -0.1613178 -0.112639 0.22137845 -0.02125749
000160 33 c1 bb 3a 45 d6 e7 bd d2 60 d7 bc b2 32 cf bd
       0.0014324546 -0.113201655 -0.026291285 -0.10117091
000170 19 8a ab ba fd c6 0a be e5 9c ce bc ce fc 42 be
       -0.0013087421 -0.1355247 -0.025221298 -0.1904175
000180 fb f4 95 be 9b 18 84 be 37 38 c2 3e e8 b8 dc 3d
       -0.29288468 -0.25800022 0.37933514 0.107774556
000190 8d ea 44 3d 4f 23 2d 3d 71 71 cb bd e1 86 f7 be
       0.048075248 0.04227 -0.099337466 -0.48345092
0001a0 58 13 74 3f 8a 4a 58 bd 70 d9 06 3f 33 d8 d7 3e
       0.95342016 -0.05280546 0.52675533 0.42157134
0001b0 44 65 3e be 76 41 03 3e b9 d0 8d bd 73 6b a2 3b
       -0.18593317 0.1281794 -0.06924576 0.0049566566
0001c0 b7 4b 08 be 76 ff 4b be 99 5b 2a 3d ce 84 75 bd
       -0.13310133 -0.1992167 0.04159126 -0.059941106
0001d0 c1 50 83 3d 5d db 01 3d a1 8e e2 bd cb 03 2f be
       0.06411887 0.03170334 -0.110623606 -0.1709129
0001e0 c1 4a 2c be d9 9c 84 3c 36 fe a0 3d fa b2 dc bd
       -0.16825391 0.016188072 0.07860987 -0.107763246
0001f0 94 32 8b 3d 30 9c b0 bd 29 ad 86 3e b5 ce 82 be
       0.067967564 -0.086235404 0.26303986 -0.2554833
000200 95 a7 d6 3e bb 84 6c bf ed 5a 88 3f 90 fc 58 3f
       0.4192473 -0.9239003 1.0652748 0.8476038
000210 2b 6a b3 3d 49 d0 4d 3d d4 ab 37 3d 92 2d ff bd
       0.08760484 0.050247464 0.044841602 -0.12459864
000220 bb 7a 17 3e 71 22 81 3d b3 bc a1 3c 9c 4d 73 be
       0.14792912 0.06305397 0.0197433 -0.23760074
000230 c9 28 e5 3c e8 8a 4b bd 1d 4f 20 3d 4f b3 ec 3d
       0.02797355 -0.04969302 0.03913795 0.11557638
000240 de 95 9c 3e ae d4 92 be fb 64 06 3e a1 cc 69 bd
       0.3058309 -0.28677887 0.13124458 -0.057079915
000250 0b 39 88 3e 64 7b f6 bd a8 76 62 be 52 dd e6 be
       0.2660602 -0.12035254 -0.22115576 -0.4509073
000260 4b b8 99 be ba 94 e6 3e 22 58 cd 3e 5c 42 eb be
       -0.30023417 0.45035344 0.40106302 -0.45949066
000270 a1 f4 21 3d 46 d8 c7 3d ac c2 ee 3c 2f 04 7f 3d
       0.039539937 0.09758048 0.029145561 0.06225985
000280 39 f2 0e 3e bc 61 e8 3d 81 21 9d 3d d9 e1 77 bc
       0.13959588 0.11346766 0.07672406 -0.01512953
000290 d8 72 08 bd 8e 47 2f bd 36 e4 d3 3c 46 ce 92 3d
       -0.03331265 -0.04279285 0.025865655 0.0716825
0002a0 f6 1e 8b 3e ad 3f 5c 3e 29 7c e7 be 68 60 c2 3d
       0.2717206 0.21508665 -0.45211914 0.09491044
0002b0 3d e2 d7 bd 69 9b 98 be af b5 0a 3e fa 5e 0f 3e
       -0.105411984 -0.2980607 0.1354587 0.14001074
0002c0 67 3c 5f 3d f6 45 f6 be f0 91 15 3f bf 11 c3 3d
       0.054500964 -0.4810025 0.5842581 0.09524869
0002d0 37 21 67 3d b4 5e 67 bd 86 cf 6e bd 8c e9 8a bd
       0.05642816 -0.0564868 -0.05830338 -0.06782827
0002e0 9f c8 56 bd 5f cb 7a 3d 3d 62 18 3e 13 aa 45 3e
       -0.05243742 0.061229106 0.14881225 0.1930316
0002f0 0a 36 a7 bd 2b 4c 88 3d d7 d5 02 bd 38 3f 3d 3e
       -0.08164604 0.06655153 -0.031942215 0.18481147
000300 6d 46 c4 3e 9d 17 49 3e fa 8d 16 3e 39 fb 4c bd
       0.3833498 0.19637914 0.14702597 -0.050044272
000310 3f 98 8f be df ab b9 3d 3d 1e fe be 95 1a 26 be
       -0.28045842 0.09065985 -0.49632445 -0.16221078
000320 a0 33 fd bd 2e 47 0d 3f a0 74 4e 3f 82 de 88 bd
       -0.12363362 0.55186737 0.80646706 -0.06683065
000330 45 0c d8 bd 58 92 28 be c8 0a 04 be af b5 6a 3d
       -0.10549215 -0.16462076 -0.12894738 0.057302173
000340 96 14 8a 3d 8e 69 06 3e 41 dd 33 3e 7c 4e 14 3e
       0.06742208 0.13126203 0.1756487 0.14483064
000350 e5 b6 ba 3d 50 d2 17 be c9 b1 80 3d b4 ad 39 be
       0.091169156 -0.14826322 0.0628391 -0.18132669
000360 49 85 9c 3d 77 50 87 bd ee 37 b9 be 4b 11 5c be
       0.076426096 -0.06607144 -0.36175483 -0.21490972
000370 9c 0e 27 3e a8 90 7f be fc 40 ee bd 0e b1 ad 3e
       0.16314167 -0.24957526 -0.116334885 0.33924145
000380 47 ff 18 be 30 e8 11 3f ea 7e 9b be 1f 5a 58 be
       -0.1494113 0.56994915 -0.30370265 -0.21128128
000390 97 79 25 3d 3e 99 b8 bc 7f cb 64 3c 5d 76 d4 bb
       0.04039916 -0.02253401 0.013964533 -0.0064838366
0003a0 46 5e 08 3e 82 28 e5 bd 53 82 db 3d 83 8c bd 3d
       0.13317212 -0.11189367 0.10718217 0.09255316
0003b0 9b 41 15 3e 6d f5 55 3e 85 ff 50 bc 97 53 ac be
       0.14575808 0.20894404 -0.012756233 -0.33657524
0003c0 db 8e 51 be ba 08 17 3d 22 b1 16 3b 7c 3a 3d bb
       -0.20464651 0.036873557 0.0022993763 -0.002887397
0003d0 b7 ae c1 bd 21 6f 25 be d9 91 ef 3e 2f 05 d5 bd
       -0.09457152 -0.16155674 0.4679096 -0.10401379
0003e0 3e 59 19 3f a3 50 57 3f 83 51 df 3e 6a 97 fb 3d
       0.599018 0.84107417 0.43616876 0.12284739
0003f0 b9 a7 c2 bd 51 d1 f2 3d b2 e2 3d 3e 8f 8f 02 be
       -0.09504647 0.1185633 0.18543509 -0.12750076

a2c_network.actor_mlp.0.bias f4 [128]
000000 42 6b 80 be 8e 24 91 3d 51 be 42 bf 25 2e e8 be
       -0.2508183 0.070870504 -0.7607165 -0.45347705
000010 b4 9b fd be cd 7d ee bd 75 a2 07 3e ad 4f 62 3d
       -0.49532855 -0.11645088 0.13245566 0.055251766
000020 ea 7e 9b be 12 e1 1c bf d2 66 50 3e 56 d4 2c bf
       -0.30370265 -0.6128093 0.20351723 -0.675115
000030 93 38 5f be 7f 8d 0c 3d e0 41 26 be b1 14 90 3e
       -0.21798925 0.03431463 -0.16236067 0.28140786
000040 1d 21 96 3e e6 44 47 bf 56 53 ef be 08 7f 56 3e
       0.29322138 -0.77839506 -0.46743268 0.20946896
000050 ad cc 22 bf 01 e5 63 bf df f5 0a 3f 5d c7 0d bf
       -0.6359356 -0.8902131 0.5428142 -0.5538233
000060 33 c2 be be 3b 14 e6 3e f4 21 8c be b5 09 e7 be
       -0.37257537 0.4493731 -0.27369654 -0.45124593
000070 cf b0 34 3f 1f 1c e1 bd 3e 6b 3b bd 1c 0e 16 bf
       0.7058229 -0.10991692 -0.04575657 -0.5861528
000080 20 61 22 bf 2d cf d5 3e 98 af 03 3f b9 11 0b bf
       -0.6342945 0.41759625 0.5143981 -0.5432392
000090 80 d1 07 bf cf 3b f6 be b6 39 5e bf 76 26 43 3e
       -0.53054047 -0.48092505 -0.8680681 0.1905764
0000a0 08 02 2d bf b0 28 1d bf 2a d7 1d 3e ea 89 2f bf
       -0.67581224 -0.6139021 0.1541411 -0.68569815
0000b0 31 a8 82 3d 05 8a d6 be 24 a2 26 bf 23 d7 03 3f
       0.06379736 -0.41902176 -0.65091157 0.5150015
0000c0 6c e8 e6 be 93 b5 d9 be 9e 46 97 3c 8f 07 1f bf
       -0.450992 -0.42521343 0.01846629 -0.6212091
0000d0 f5 d8 0a bf 09 1e b3 3d d2 37 90 bf c6 0e 1f bf
       -0.542373 0.08745963 -1.1267035 -0.6213192
0000e0 48 86 67 be c4 90 b1 bd 2d 0d 64 bd 08 fd 5a bf
       -0.22609818 -0.0867019 -0.055676628 -0.85542345
0000f0 b2 fc c9 be 7d 81 f0 be 32 ab ae 3d d3 4a 66 bd
       -0.39450604 -0.46973792 0.08528747 -0.0562237
000100 e3 1d 48 39 b0 c5 17 3e b0 c0 29 3e ea e5 26 bf
       0.0001908462 0.14821506 0.1657741 -0.6519457
000110 83 13 ac be ee 57 89 bf 87 29 92 be 17 79 2b bf
       -0.33608636 -1.0729959 -0.28547308 -0.66981643
000120 fc a1 c7 3d fa 66 36 3e 6f d9 fb be 3d f9 16 3e
       0.09747693 0.1781272 -0.49189326 0.14743514
000130 05 af 73 3d f6 ac 22 bf ac 92 01 bf f6 22 92 3e
       0.059493084 -0.6354517 -0.5061443 0.28542298
000140 c2 1e 72 3e d6 a9 88 be 3f 10 a5 3e 77 a3 30 3d
       0.23644546 -0.26692075 0.32238957 0.043124642
000150 70 43 45 be 5f 18 06 3f ae 6c a1 be 63 b4 bc 3d
       -0.19264007 0.5238094 -0.3152823 0.092140935
000160 7e 2c 0e bf 44 08 df be ce 49 ba bf 82 4a eb be
       -0.5553664 -0.43560994 -1.4553773 -0.45955282
000170 71 7d 51 be b9 b1 18 bf c8 6c 07 bf 78 a3 d8 3e
       -0.20458008 -0.59646183 -0.5290036 0.42312217
000180 91 f9 cf be c5 2c ae be 80 63 d9 3e 40 79 df be
       -0.40620092 -0.3401853 0.42458725 -0.43647194
000190 14 2f f2 be ef 4d d4 bd bb a7 1b 3f c3 f8 4b be
       -0.47301543 -0.10366427 0.6080281 -0.19919114
0001a0 d1 71 d0 3e c6 70 44 3e cf 12 2b bf 7c 7b 7e bf
       0.40711835 0.19183645 -0.66825575 -0.9940717
0001b0 be c9 5d 3d 28 88 31 3c 73 24 a8 be 07 1c 14 bf
       0.054147474 0.010835685 -0.3284031 -0.57855266
0001c0 32 5b 14 3f 2c b9 24 bf 05 7d 0f be 0e 1c 16 bf
       0.57951653 -0.6434505 -0.14012535 -0.5863656
0001d0 8d 02 16 bf 9b 91 0b bf 36 70 8f be 52 80 87 bd
       -0.5859764 -0.5451905 -0.28015298 -0.06616272
0001e0 77 87 24 bf ad ff d1 be 09 1c 00 bf 79 7f aa be
       -0.642692 -0.41015378 -0.5004278 -0.3330038
0001f0 38 3a 20 bf fc c9 71 3e e1 79 17 bf 25 bf 86 3e
       -0.62588835 0.23612207 -0.5917035 0.26317707

a2c_network.actor_mlp.2.weight f4 [64, 128]
000000 e6 a0 c5 bd bc d5 c6 bd 99 ec 0c be d0 0c 15 3e
       -0.096498296 -0.09708735 -0.1376213 0.14555669
000010 11 4f 85 3e 1a f9 8b 3d eb f8 a8 bd a0 03 29 be
       0.26036885 0.06834622 -0.08250602 -0.16505289
000020 60 f1 96 3d 3f 52 ff bb 8a ee f0 bd f9 e5 33 3e
       0.073702574 -0.007791787 -0.11764248 0.17568196
000030 22 f6 f9 3b b3 66 09 bd c2 45 dd bd b1 82 78 be
       0.0076282183 -0.033545207 -0.10804321 -0.24268605
000040 5b 75 89 be 9c 0c 4f be 04 88 0e bd a8 3b 74 3c
       -0.26847348 -0.20219654 -0.034797683 0.014906801
000050 30 64 94 3d 6c 07 1e 3e 91 0d 5e be 96 f5 39 be
       0.07245672 0.15432519 -0.21684863 -0.1816009
000060 ae 71 f5 bc 99 0e 16 3e 5f 8f 44 3d 86 85 12 be
       -0.029961433 0.14654006 0.04798829 -0.14308748
000070 71 1d 1a 3b 55 7a c8 bb f6 e5 51 be 2c 43 d9 3d
       0.0023516084 -0.0061180987 -0.2049788 0.10608515
000080 72 c6 20 3e 99 25 c8 bd af 63 61 bd ba a8 8e bd
       0.15700701 -0.09772796 -0.055026706 -0.06965776
000090 41 72 31 bd 50 3d 02 3d 31 a7 46 3e fd ba 4b be
       -0.04332185 0.031796753 0.19399716 -0.19895549
0000a0 52 d0 67 be 8b fa 55 be 78 cb 00 be 93 60 b0 3d
       -0.22638062 -0.20896356 -0.12577617 0.0861217
0000b0 58 ca 95 bd 8a d3 e6 3d 17 5b df bd ea bb 19 be
       -0.07313985 0.112708166 -0.10906046 -0.1501309
0000c0 28 4f 94 bc 85 75 fa bd d6 cf 02 bc 75 ed 87 be
       -0.01810415 -0.12229446 -0.007984122 -0.26548353
0000d0 6e 73 50 be 3e 8e 5c bd cd 0c e9 bd 1f 2e 08 3e
       -0.20356533 -0.05384659 -0.11379395 0.13298844
0000e0 a0 55 13 bc 44 a6 92 3d ec d4 a3 3d 04 61 f7 3c
       -0.008992583 0.07160619 0.07999596 0.030197628
0000f0 49 72 9b 3e cc 2a af 3c 08 55 43 be f5 e4 fd 3d
       0.3036063 0.021382712 -0.19075406 0.12397186
000100 b7 b2 8f 3d db bc 6e ba a6 ba 93 3d 29 9a e5 bd
       0.07016509 -0.0009107121 0.07213335 -0.11211044
000110 de 4a 9c 3e 89 6c bf 3c 40 61 86 3d 79 de fa 3d
       0.3052587 0.023367183 0.06561518 0.122494645
000120 2d 30 92 be 18 2a 63 bd 32 10 40 3c c4 ae f3 bd
       -0.2855238 -0.055460066 0.011722611 -0.11898568
000130 de e4 55 be 15 d7 39 be 10 af 5b 3e e1 b9 08 3e
       -0.20888087 -0.18148454 0.214535 0.13352157
000140 9e ba 1b be 17 c3 6a 3d 1e 92 58 be a2 8e a8 3c
       -0.15207908 0.05731496 -0.2114949 0.020575825
000150 b5 2b 5b be 96 cb e6 bb 26 ff 59 3e 20 de 0a be
       -0.21403392 -0.0070433123 0.21288738 -0.13561296
000160 05 d0 5b 3d 34 4e fb 3d 3b 8e d5 bd 2c a7 0a bd
       0.05366518 0.122707754 -0.10427519 -0.033850834
000170 e8 d9 e8 3d 60 10 09 bc 1b 0c 1f be 6c fc bf 3d
       0.11369687 -0.0083657205 -0.15531962 0.093743175
000180 4e 40 f8 3d 04 80 34 be 5b 34 25 be 43 f9 78 bd
       0.1212164 -0.17626959 -0.16133253 -0.06078459
000190 17 8d 95 ba 53 fe d4 bd bd e8 9e bd 1c ba 13 3e
       -0.0011409846 -0.10400071 -0.07759235 0.14426464
0001a0 05 f4 60 bc 78 4c 97 be 18 b7 4a 3e 68 48 f2 bd
       -0.013730054 -0.2955053 0.19796407 -0.11830217
0001b0 6d 58 42 bd 8c f4 68 bb c1 65 f2 3c e0 72 92 bc
       -0.04744761 -0.0035546152 0.029589536 -0.017877042
0001c0 16 b4 80 3d 8d 5e 3e 3e 9d 9d df be 88 79 b5 ba
       0.06284349 0.18590756 -0.43674937 -0.0013845423
0001d0 ea 64 30 3e a3 b3 d9 bd 53 06 a6 bd 2b eb 00 be
       0.17225996 -0.10629966 -0.08106675 -0.1258971
0001e0 1c 2e 7f bc bd d5 90 3e 31 a0 73 be dd 21 1e be
       -0.015574958 0.2828807 -0.23791577 -0.15442605
0001f0 8e 0b e4 bd 16 97 ea 3d 4c ea 3d 3e a8 ac 3d be
       -0.111350164 0.114545986 0.18546408 -0.18522894
000200 ea 5b 19 be 45 09 ad bb a8 25 22 3d 2d fe b9 bd
       -0.14976469 -0.005280646 0.039586693 -0.09081683
000210 65 f5 e5 bd e9 0a 49 3e 7f 7f 92 be df 3d bf 3d
       -0.11228446 0.19633068 -0.28612897 0.09337973
000220 83 ff d0 3c 14 a5 05 be b4 68 f5 3d ad 00 23 3e
       0.025512462 -0.13051254 0.11982861 0.15918227
000230 cd f6 ae bd 43 c1 77 3e bf 13 04 bd 62 8f 85 be
       -0.08543167 0.24194817 -0.032245394 -0.26085955
000240 3b e0 2c be ea 48 18 3d e0 fa 2f 3d b1 54 90 bd
       -0.16882412 0.03717891 0.042963862 -0.070474036
000250 0e b5 60 3d 7b 09 3a be 40 11 40 bc e8 cf ce be
       0.054860167 -0.18167679 -0.011722863 -0.40392995
000260 05 69 57 be 0f a2 5c bc 46 1b fa bb 5c fd 8d bd
       -0.21036156 -0.013466372 -0.007632646 -0.0693309
000270 91 f6 33 3e 8b 12 54 3e 3e 8f 3e bd 72 6f af 3e
       0.17574526 0.20710199 -0.046523325 0.34264714
000280 3e 2d 8e be cc ac 13 be 26 b7 c7 be df ed 06 3e
       -0.27768892 -0.14421386 -0.3900692 0.13176678
000290 5c 0b 34 3d ac 95 b2 be 11 96 dd bd 62 01 2e be
       0.043956146 -0.34879816 -0.108196385 -0.16992715
0002a0 f8 99 08 3e 93 10 c4 bd 95 43 90 be 24 60 31 be
       0.13339984 -0.09573474 -0.2817656 -0.17321831
0002b0 2a 1f 1e 3e 71 ce 42 be 55 f2 f9 bd 44 2a b0 bd
       0.15441576 -0.19024064 -0.12204424 -0.086018115
0002c0 09 86 dd 3b 6b 8e 66 be d3 d3 40 3e 87 da 48 be
       0.006760363 -0.22515266 0.18830805 -0.19614612
0002d0 15 d1 98 be 5c be 16 3e ee e9 37 bd 28 82 9f 3c
       -0.29847017 0.14721054 -0.044900827 0.019471243
0002e0 31 f4 50 3e 82 12 84 3d d8 8a 98 bd 3c f7 50 3e
       0.20405652 0.064488426 -0.07448357 0.20406812
0002f0 f6 67 f6 be 5b 6e da 3d 34 63 91 be b5 a4 70 bd
       -0.4812619 0.1066558 -0.28395998 -0.058750827
000300 bc 2d be 3d 67 04 80 3d 0c b4 c0 be b9 a5 69 be
       0.09286067 0.0625084 -0.37637365 -0.22817124
000310 a9 83 8b bc 32 ff 44 be d8 3d 7a be b3 f9 7c bd
       -0.017030554 -0.19237974 -0.24437654 -0.06176157
000320 63 50 e4 3d 98 e4 e6 bd a5 3d 14 3f 73 ec 7c be
       0.11148145 -0.112740695 0.5790656 -0.24699573
000330 71 f2 cb 3d 0a 0e 95 bc 9f 72 70 be c0 c2 1b bf
       0.099583514 -0.01819517 -0.23481224 -0.6084404
000340 83 ce 6e 3d bf 74 9c 3e 5f a8 1e 3e 7c 78 dc bd
       0.058302414 0.3055782 0.15493916 -0.10765168
000350 7b de ed 3d 78 33 0f bf 0b 59 48 be cb 88 1b bc
       0.116147004 -0.5593791 -0.19565217 -0.009493063
000360 d8 dc fe bd c0 0b 88 be 76 e7 4e 3c 79 13 96 3d
       -0.12444466 -0.26571465 0.012628427 0.07327933
000370 59 3e 96 bd dd 81 7c 3c 75 57 a5 bd 64 bb eb bd
       -0.073361106 0.015411821 -0.08073322 -0.11510351
000380 67 3b 17 be 5f 8d 08 3d 69 da 6e 3e 7b 65 ac bd
       -0.14768754 0.033337947 0.23325504 -0.08417793
000390 fd a5 95 bc 33 ef 93 be 19 74 81 bd e9 59 68 be
       -0.018267626 -0.28893432 -0.06320972 -0.22690548
0003a0 44 91 47 3e 2e 6e b6 bd e2 29 b4 3d 73 9b f3 3b
       0.19489008 -0.08907734 0.08797051 0.0074343025
0003b0 fd 31 47 be 6d 5e ac bd a2 29 3c 3e 80 99 05 bd
       -0.19452663 -0.08416448 0.18375257 -0.032617092
0003c0 3d 46 d7 be 98 e2 13 bf 11 97 81 be 7a 6d e0 3d
       -0.42045775 -0.5776763 -0.25310567 0.10958381
0003d0 12 be 11 be 48 7f ac bd 8b c5 5a bc 79 72 f8 bd
       -0.14232662 -0.084227145 -0.013352762 -0.12131209
0003e0 19 ac 90 bb 59 b3 a7 be fa 79 a0 3e 99 df dd 3d
       -0.004415047 -0.3275402 0.3134306 0.108336635
0003f0 12 33 4e bd 90 59 db bc d7 3f a8 bd a6 d4 8d be
       -0.050341673 -0.026776105 -0.082153015 -0.277013

a2c_network.actor_mlp.2.bias f4 [64]
000000 af b0 46 be 2e 39 97 3d 11 e2 4c be 6e e7 f2 3c
       -0.19403337 0.07383953 -0.20008112 0.02965137
000010 d9 e8 a3 bd 2c 95 a4 be 9d b6 21 be 76 24 e2 be
       -0.080033965 -0.3214506 -0.15792318 -0.44168442
000020 04 f4 81 be d3 4d d8 3c aa 4f f1 bd 17 dc b3 be
       -0.25381482 0.026404297 -0.11782773 -0.35128853
000030 bb 9a a6 be d7 d0 65 be 86 f4 91 be 4d 65 1f be
       -0.32539925 -0.22442947 -0.2850687 -0.15565987
000040 9f b5 23 be 5b 8e e6 3d bb c6 e9 3d f8 da 43 3e
       -0.15987252 0.11257621 0.11414858 0.19126499
000050 c0 67 a1 be e9 83 63 bd c3 88 54 bf f7 38 08 bf
       -0.31524467 -0.05554572 -0.8302118 -0.5321192
000060 41 50 1d be 3d b7 97 3d 4d a1 9d 3d a5 82 6f be
       -0.15362646 0.07407997 0.07696781 -0.2338968
000070 e5 7d 19 bd 0b 5a 06 3f fa 55 a1 be 51 31 51 3d
       -0.037473578 0.52481145 -0.31510907 0.051072422
000080 26 7e 58 be 75 bd bc be 5c d0 3b bc 6a da 54 3e
       -0.21141872 -0.36863294 -0.011463251 0.20786443
000090 d0 df 1f bf 9c c5 ae be 99 af c3 3d e6 4e e2 be
       -0.62450886 -0.3413514 0.09554977 -0.4420082
0000a0 fe 7e 57 be fc 6a b1 3c 2c a1 a6 be 38 f7 bb be
       -0.21044537 0.02165746 -0.3254484 -0.3671205
0000b0 9b 3a 67 be 69 f5 81 bd 4e 44 53 be 21 16 e3 be
       -0.2258095 -0.063456364 -0.20631525 -0.4435282
0000c0 90 35 ad bc 92 9c 67 3d 4c 97 8b be df 22 67 3c
       -0.021143705 0.0565458 -0.27263868 0.014107435
0000d0 33 eb af be 9d bf 12 bf bb 16 11 bf 1b 4a 6e be
       -0.3435913 -0.5732363 -0.5667531 -0.23270456
0000e0 7a 10 61 bf eb 97 59 be cf 91 85 be 3a 75 8d be
       -0.87915766 -0.21249358 -0.26087806 -0.276285
0000f0 80 67 44 be 75 70 09 be bd 72 8a be e8 ec a8 bd
       -0.19180107 -0.13421805 -0.27040663 -0.08248311

a2c_network.actor_mlp.4.weight f4 [32, 64]
000000 2a b1 e9 be 4f 87 35 3d 33 9f 09 3e fc 39 e1 3d
       -0.45642978 0.044318493 0.13439636 0.10997388
000010 15 c0 89 be c6 24 c0 3d 7e 11 27 3e 37 74 bd bd
       -0.2690436 0.09382014 0.16315266 -0.09250682
000020 32 ee c0 3d 70 7b 85 bc f1 c5 a6 be 1d 43 2b be
       0.09420432 -0.016294211 -0.32572892 -0.1672482
000030 21 15 d5 3d f7 54 83 3d e3 f7 75 3e 81 92 82 3d
       0.10404421 0.0641269 0.24020343 0.063756
000040 66 d0 7a be c4 c0 db 3d 81 1a ef 3b c4 2f 09 3d
       -0.2449356 0.107301265 0.0072968607 0.03349282
000050 eb e8 1d be 42 0b 60 be f4 64 f0 3d 4a 17 2b be
       -0.15420882 -0.21879295 0.11738005 -0.16708103
000060 e2 e4 0b be fb fe f9 bd 80 00 28 3e e8 33 a4 be
       -0.1366153 -0.12206837 0.1640644 -0.3207085
000070 1c c9 56 be 23 10 07 be 91 9e 4f be 45 b3 46 3d
       -0.20975155 -0.1318975 -0.20275332 0.04851081
000080 38 40 d0 bd 58 ef e0 3d ec 16 16 be 44 4d 4c 3d
       -0.10168499 0.10983151 -0.14657182 0.049878374
000090 0c 2d a0 be ea b6 12 bf 59 e0 d1 bc 78 53 c9 3d
       -0.31284368 -0.57310355 -0.025619673 0.098303735
0000a0 52 55 90 3d 25 c0 09 3b 47 c9 a0 3d 16 81 f1 bd
       0.070475236 0.0021019068 0.078508906 -0.11792199
0000b0 b7 35 29 3e 34 97 eb be f8 eb e3 3c 18 63 1b 3e
       0.16524397 -0.46013796 0.02782248 0.1517452
0000c0 4e e8 45 3c 73 34 ad bc 43 76 94 bd 69 88 b0 bd
       0.012079312 -0.021143174 -0.07249119 -0.08619768
0000d0 61 8e dc 3d 93 a3 82 be 9e 0d 33 bc 1f 1a 33 be
       0.10769344 -0.25515422 -0.01092854 -0.17490433
0000e0 cd 72 21 3e d4 09 49 be c9 b7 a7 be b7 7b a2 3e
       0.1576645 -0.19632655 -0.32757404 0.31735012
0000f0 61 db ad bd 56 14 1b bd d5 38 90 be 75 ca b0 3d
       -0.08489109 -0.03786119 -0.2816836 0.086323656
000100 3d 3f 1f bd 43 bf 04 3d 1a bd 67 be c3 dd ac bd
       -0.038878668 0.032408964 -0.2263073 -0.08440735
000110 d0 d8 4f bd e7 8a 90 bd b9 43 70 be b6 f6 9a be
       -0.050743878 -0.070577435 -0.23463334 -0.3026635
000120 b0 04 b1 bd 66 fe b8 bd 4d 47 d1 3d 5c 52 1c 3e
       -0.08643472 -0.09032898 0.10218678 0.15265793
000130 f2 89 46 bb 0b 84 e6 3d 9b f0 6d bd a9 7e a0 3e
       -0.0030294624 0.11255654 -0.058090787 0.31346634
000140 0f 52 b0 bd c0 2a 2e 3d 61 d6 20 3b e3 df a8 be
       -0.086094014 0.04252124 0.0024541842 -0.32983312
000150 c8 ef bb bd 9a 52 05 3d 66 16 da be 47 dd 01 3d
       -0.09176594 0.032549478 -0.42595214 0.031705167
000160 3b cb 30 bd 09 3c 78 3e 71 d9 65 3e b0 1b de bd
       -0.043162566 0.24241652 0.22446229 -0.10845125
000170 aa 15 22 be 77 0d 20 be 5f 9e 8e 3c 2d cc 0d 3e
       -0.15828577 -0.15630136 0.017409502 0.13847418
000180 13 53 a8 3a ed ec 68 3d 6a 6b e4 bd a1 bd 89 bd
       0.0012842141 0.056866575 -0.111533 -0.06725622
000190 9d ec ce 3d 2b d0 54 bd 00 37 03 bd 55 0e 31 3d
       0.10103724 -0.051956337 -0.032034874 0.04322656
0001a0 3b 98 0e be 44 8d 38 3e 3d 59 8f 3d 6e 97 a0 3c
       -0.13925259 0.18022639 0.06999443 0.019603457
0001b0 c1 db 18 be 29 db 1e be ff 07 20 3e 13 93 1a bd
       -0.1492758 -0.1551329 0.1562805 -0.037737917
0001c0 de 6c ff bd 9a 01 87 bd d6 d4 d8 bd c8 6c ae be
       -0.12471937 -0.06592102 -0.1058747 -0.34067369
0001d0 91 01 e6 bc ff 83 5f 3d 0d 4c 00 3e c8 14 fd 3b
       -0.028076919 0.05456924 0.12529011 0.0077234246
0001e0 be aa a8 be bc 04 59 be 25 d2 49 3d e1 66 49 be
       -0.32942766 -0.21193212 0.049272675 -0.19668151
0001f0 10 c6 91 be c7 94 32 be b9 f7 bf 3d 8c 18 2a 3d
       -0.28471422 -0.17439567 0.09373421 0.041527316
000200 ae 9c 85 bd 76 b8 1f 3e 4f a9 cf bd 91 7f 67 3e
       -0.06524025 0.1559771 -0.10139715 0.22607256
000210 a7 2f 31 3e 68 7c 52 bd 08 c5 e0 bd f5 0d 22 be
       0.17303334 -0.051388174 -0.10975081 -0.15825637
000220 51 9a 46 be 7b 7b 89 3e d4 ac 9f bc 43 05 4e 3c
       -0.19394805 0.2685202 -0.01949159 0.012574497
000230 f5 2e 2b 3d 9c 88 75 3d 2c ef e8 3b 2c f7 04 be
       0.04179283 0.059944734 0.0071085896 -0.12984914
000240 4b 45 1c 3d af 7e 53 3d 2a 0e c3 bd ff ea 90 3d
       0.03815202 0.051634487 -0.09524186 0.07076072
000250 d2 f1 b7 3d ca c8 82 3e ff 6b 20 be 96 1e b1 bd
       0.089816704 0.25543815 -0.15666197 -0.08648412
000260 98 31 7f 3e 33 43 1e 3d a4 1b 3c 3e 6f 65 b2 be
       0.24921262 0.038638305 0.18369919 -0.34843013
000270 06 6b e3 bd 84 70 2a bc 1b 3b 21 be 0d eb b6 bb
       -0.111043975 -0.010402802 -0.15745203 -0.0055822195
000280 b2 42 b8 be 24 6d 4d bd 76 bf c4 bc 6b f6 b9 bd
       -0.35988384 -0.050152913 -0.024017077 -0.090802036
000290 96 0f d3 bd 39 b0 4a 3d 39 75 2f 3b 91 fb 8b 3d
       -0.10305707 0.049484465 0.002677275 0.06835092
0002a0 69 80 b5 bd 51 9a c5 3c 41 bc 9c be 10 b4 49 bc
       -0.08862383 0.024121435 -0.30612376 -0.012310997
0002b0 48 56 37 be 85 ff 80 3e 71 9b de bd 9d c6 14 3d
       -0.17904007 0.25194946 -0.10869492 0.036322225
0002c0 0b d1 20 3e 55 81 64 bd 4b d3 42 bc ad 81 cb 3c
       0.15704744 -0.055787403 -0.0118911965 0.024842108
0002d0 12 4b d0 be a0 a5 98 bd 97 c1 4b bd fa 97 80 3c
       -0.40682274 -0.074534655 -0.04974517 0.015697468
0002e0 d6 74 d3 bd 9d 91 1e be 26 91 0d be 20 7c 12 be
       -0.10325019 -0.15485235 -0.13824901 -0.14305162
0002f0 35 1b 6f bd 9b d8 b8 3e a3 ea ad 3d 1c 24 6d be
       -0.058375556 0.36102757 0.08492019 -0.23158306
000300 6f 49 4a 3b 11 a2 35 bd 76 60 74 bd 88 af 44 bc
       0.0030866524 -0.04434401 -0.059662305 -0.012004741
000310 3b 24 0d 3e 92 7e 04 be ed 34 ab be 00 8f 47 be
       0.13783352 -0.12938908 -0.33438817 -0.19488144
000320 55 64 9c 3e 14 82 da 3c cd 18 a6 3d 96 f6 a6 be
       0.30545297 0.026673354 0.08110199 -0.32610005
000330 ed 9e 05 bf 44 92 a1 3e 73 3b 82 bd 71 4e 7c bd
       -0.52195626 0.31556904 -0.06358995 -0.061598245
000340 26 c7 af 3e 3b 50 8f 3e 6e da 36 be 73 64 b1 3d
       0.34331626 0.27990898 -0.17856762 0.08661737
000350 74 8c 76 be 47 20 f1 bd 2a 0e 0e bd f9 b3 94 be
       -0.24077016 -0.117737345 -0.034681477 -0.29043558
000360 1e 55 a6 3e a8 aa 77 be 30 d9 f8 3d 79 9e 2c 3e
       0.32486814 -0.24186194 0.121508 0.16857328
000370 45 54 9e bd 72 45 4e bd 53 f0 b2 bd 34 82 c4 3d
       -0.07730917 -0.050359197 -0.087372445 0.09595147
000380 aa 4c 22 be 94 88 ec 3e db 22 ae be 92 1b 30 be
       -0.15849558 0.4619795 -0.34010968 -0.17198017
000390 18 6f c8 be 3a 28 83 be 17 62 8f 3e 68 86 08 3d
       -0.39147258 -0.25616628 0.28004524 0.033331305
0003a0 f4 8b 6e 3e 48 b6 0c 3d 46 97 92 3b 69 c8 8b 3b
       0.23295575 0.034353524 0.0044735996 0.004265834
0003b0 15 c2 8c 3e ea 9a 91 3e f5 6b 64 be dc 77 d9 3d
       0.27491823 0.28438503 -0.22306807 0.106185645
0003c0 40 54 38 bb 53 06 95 be a1 db fa bd f2 22 67 be
       -0.0028126389 -0.29106387 -0.12248922 -0.22571924
0003d0 8a 1a 42 3f 7a 24 17 3c ce 85 c4 be 2c 5f 9a be
       0.75821745 0.009225005 -0.38383335 -0.30150735
0003e0 91 d8 a0 3d 58 56 74 3e 1c 7a d6 bd 54 cc 12 3f
       0.07853807 0.23861063 -0.10472509 0.5734303
0003f0 27 25 8d be 0d 15 28 3e 10 f3 a5 3e 2e 8e 18 3e
       -0.27567407 0.1641428 0.32412004 0.14897987

a2c_network.actor_mlp.4.bias f4 [32]
000000 b4 dc 0f 3e 03 56 03 be 16 5a f5 bd 14 44 a7 be
       0.14049035 -0.1282578 -0.11980073 -0.32669127
000010 a0 a1 9c be 92 57 8c be 13 dd 80 3d 7a 28 09 be
       -0.3059206 -0.2741056 0.062921666 -0.13394347
000020 05 5f 8b bc 76 92 ad be 7e 11 ef 3b 01 ba 8a be
       -0.017013082 -0.33900803 0.0072957864 -0.27095035
000030 17 d5 12 be b0 6b fb 3d 5c 1c 40 be f6 d1 11 3e
       -0.143391 0.12276399 -0.18760818 0.1424025
000040 19 63 29 3e 78 63 12 be 6e 18 2c 3e 8e e7 58 be
       0.16541709 -0.14295757 0.16806194 -0.21182081
000050 01 a0 0e be 9b 20 60 be b2 7f cb 3b 8a e6 f1 3c
       -0.13928224 -0.21887438 0.006210291 0.029528875
000060 72 b0 81 be 2a 8c 3c be 58 2c 8e be ee 82 a1 be
       -0.2532993 -0.18412843 -0.27768207 -0.31545204
000070 97 fd 03 3e 15 9f 01 bd 95 39 09 be bf 62 4c be
       0.12889706 -0.031645853 -0.13400872 -0.19959544

a2c_network.value.weight f4 [1, 32]
000000 35 01 f4 39 d7 23 db bd 3b 30 2f 3b 1f aa 14 bb
       0.00046540206 -0.10700195 0.0026731628 -0.0022684408
000010 40 95 08 3f 63 2f bb 3b b9 e6 87 3d 73 75 a1 3c
       0.5335274 0.005712436 0.06635804 0.019709324
000020 3b 70 c3 bc 83 4c 54 bc 3b 38 f0 bc c0 8a 94 3c
       -0.023857227 -0.012957695 -0.029323688 0.018132567
000030 24 67 18 3c 3c 0d 50 3e fe 20 c1 3a f3 6c 42 3b
       0.009301934 0.20317549 0.0014734564 0.002966699
000040 9a 34 a4 bd d8 2a 58 bd bf ab ae 3c 4e e0 a8 bd
       -0.080178455 -0.052775234 0.02132213 -0.08245908
000050 99 34 07 bc 19 ba 4d be 31 6c 10 3c 29 80 95 bb
       -0.008252286 -0.20090522 0.008814857 -0.004562397
000060 48 b0 8d ba ea a6 a0 3d 7b ec 29 3c c0 c6 d5 3b
       -0.0010809982 0.07844336 0.010371323 0.006523937
000070 13 84 a5 3b a7 44 a4 3c 40 7d bb bc f0 31 e0 bd
       0.005051145 0.020052267 -0.022886872 -0.10947025

a2c_network.mu.weight f4 [3, 32]
000000 55 b0 e6 bc c2 a5 3f ba 4c 3e 9e bc 43 87 b6 bc
       -0.028160254 -0.00073107716 -0.019316815 -0.022281295
000010 36 ea 31 3d af 3d 02 3e 9a 5d 13 bd 52 c8 fb bc
       0.04343625 0.12718843 -0.035977937 -0.030735169
000020 d8 ea 90 bc b0 58 d1 bc bc 3f 37 3d 98 89 39 3c
       -0.017690107 -0.025554985 0.044738516 0.011324309
000030 e4 7f 14 3d f1 17 93 3d eb 23 4e bd 1c 13 21 3d
       0.03625478 0.07182301 -0.050327223 0.039324865
000040 e0 37 09 bb ba 28 7b bc 64 58 25 be 2c 10 e4 3c
       -0.0020937845 -0.015329534 -0.16147 0.027839743
000050 18 af 12 bd 6d e1 7d 3d 21 9d 21 bd ca c4 b3 3d
       -0.035811514 0.06198256 -0.03945649 0.08777769
000060 4f 61 47 bc 83 33 89 bc 58 bd 16 3e 48 df 08 be
       -0.012169196 -0.016748196 0.14720666 -0.13366425
000070 03 7f 63 3d 88 4e 7a 3d 3d 6f 1a 3d 92 ae 0c 3c
       0.05554105 0.06111005 0.03770374 0.008586543
000080 5b 41 16 3d 49 6a e1 bc 0a 8d cf bd f0 64 02 be
       0.03668342 -0.027516501 -0.10134323 -0.12733817
000090 69 b6 01 3d bb 7a 04 be f5 27 a2 bd 47 fa a5 bc
       0.0316681 -0.12937443 -0.079177774 -0.020260943
0000a0 d0 e2 2e bc 08 e7 ea 3d 15 ca 07 3e e8 78 18 be
       -0.0106741935 0.11469847 0.13260682 -0.14889872
0000b0 4c b7 ae 3d 35 20 04 3e b6 ee 3c bd fd 48 92 bd
       0.08531055 0.12902911 -0.04612609 -0.07142828
0000c0 d0 4c 76 bb e6 5a 91 bc 1b 57 ac 3c fb d9 e5 3d
       -0.0037582405 -0.017743539 0.021037629 0.11223217
0000d0 a7 59 15 bd c5 70 22 3d 00 46 5c 3d e8 7d 80 bb
       -0.036462452 0.039658327 0.053777695 -0.003921259
0000e0 f1 11 ca 3d 9e 4c af bc 0b 07 71 bd 73 62 94 bb
       0.09866703 -0.021398839 -0.058844607 -0.0045283376
0000f0 2c c0 a1 bd 3e bb 25 3c 4c f3 23 3d 99 05 e8 3c
       -0.07897982 0.010115443 0.040026948 0.028322982
000100 22 92 3c be c5 7a 75 3c da a5 11 3d e7 74 07 bd
       -0.1841512 0.014982884 0.03555856 -0.03307047
000110 4f 16 5b bc 14 36 67 3d fa 9b cc 3d 7f c2 a9 bd
       -0.013372018 0.056448057 0.09990688 -0.0828905
000120 16 19 02 bc ba cc 42 3d c5 8d 77 3d e8 b6 9f bd
       -0.007940551 0.047558524 0.060437936 -0.077985585
000130 9f b6 5b be 5d a9 cb bc 93 67 75 3c d1 fa b5 bb
       -0.21456383 -0.024861032 0.014978307 -0.0055535813
000140 6c ee d5 3b b7 95 fe bb 8b 69 93 3d b9 7a ab bc
       0.0065286662 -0.0077693122 0.07197865 -0.020932542
000150 3e a2 e6 bc a7 14 f8 3c 4b b9 e3 3d d5 99 fb bc
       -0.028153535 0.030283285 0.11119326 -0.030713001
000160 a8 c6 e5 bd c3 ec 1d 3c 07 fd ff bd 7c a5 b3 39
       -0.11219531 0.009638968 -0.12499433 0.00034264836
000170 78 4f 39 3e d7 89 03 3d fc 24 91 bc e3 2d 99 3d
       0.18096721 0.032113876 -0.01771783 0.07479455

a2c_network.mu.bias f4 [3]
000000 7b 88 cc bc 78 54 71 bd 1c 49 b4 3d
       -0.024967423 -0.058918446 0.08803007

exp_avg f4 [3]
000000 4b 96 38 3b 7a 6e 30 bb ed da 67 ba
       0.0028165753 -0.0026921318 -0.0008844573

exp_avg_sq f4 [3]
000000 ae 71 18 39 8c b7 33 39 57 7d 1a 39
       0.00014538199 0.00017139147 0.00014733277

exp_avg f4 [128, 24]
000000 f5 8c b7 b8 a0 e2 3c b9 5e bf 66 b9 b0 ce 89 b8
       -8.752375e-05 -0.00018013502 -0.00022005799 -6.5711676e-05
000010 26 bc 16 39 b1 56 40 b9 ff f1 45 38 82 22 72 39
       0.00014375206 -0.00018342842 4.7193837e-05 0.00023091774
000020 8c 01 31 b8 74 5f a4 b8 c2 3d a5 b9 2c 4c 1b ba
       -4.220153e-05 -7.837909e-05 -0.00031517266 -0.0005924131
000030 ee 72 41 ba ee 72 41 ba ee 72 41 ba 47 af 7a 39
       -0.00073794916 -0.00073794916 -0.00073794916 0.00023907154
000040 f3 8c 1f 38 a9 e3 0b b7 ba 0f f7 b8 59 a7 43 b9
       3.8039823e-05 -8.338052e-06 -0.00011780807 -0.00018658991
000050 53 a7 43 b9 9a 73 06 3a e5 64 32 ba b3 42 3f 39
       -0.00018658982 0.00051289203 -0.00068051956 0.00018240027
000060 ae 86 67 b9 5f 6a ae b9 71 5a 01 ba be 3b 87 b9
       -0.00022080049 -0.0003326712 -0.00049344363 -0.00025793718
000070 0b f3 d4 39 8f c7 e1 39 a7 15 ce 38 7c 74 bf 38
       0.00040616872 0.00043064027 9.8268785e-05 9.1292866e-05
000080 d5 14 0a b8 96 9d 80 39 2a 37 51 b9 86 f0 a9 38
       -3.2921165e-05 0.00024531473 -0.00019952343 8.103349e-05
000090 ee 61 81 39 ee 61 81 39 ee 61 81 39 11 14 14 b9
       0.0002467776 0.0002467776 0.0002467776 -0.00014121855
0000a0 59 b8 6f b9 f0 e5 25 39 39 a6 22 39 69 88 8c b9
       -0.00022861491 0.00015821285 0.00015511447 -0.00026804514
0000b0 66 88 8c b9 4a ce a5 b9 f1 67 91 39 5e 9b 35 39
       -0.00026804506 -0.0003162495 0.00027733998 0.00017319384
0000c0 b8 14 08 b9 df 63 aa b8 bf 70 c2 b8 a1 3c 5c b9
       -0.00012977689 -8.124834e-05 -9.2716415e-05 -0.00021003421
0000d0 8d 3f bf 37 0a 1e c6 38 c4 99 04 b9 9f bc f7 37
       2.2798567e-05 9.446971e-05 -0.00012645783 2.9532528e-05
0000e0 62 fa bd b9 c9 cc 0b b9 4e 11 14 b9 a2 ff 9d 39
       -0.0003623544 -0.00013332361 -0.00014120826 0.00030135835
0000f0 aa 9e 0e 39 aa 9e 0e 39 aa 9e 0e 39 7e e6 82 37
       0.00013601282 0.00013601282 0.00013601282 1.5604539e-05
000100 2c 2b 15 b9 50 25 1d 39 2d ea 3a 39 b5 01 b6 b8
       -0.0001422583 0.00014986587 0.0001782558 -8.678754e-05
000110 b1 01 b6 b8 41 7a 7f b9 a5 73 e1 38 0d 54 67 39
       -8.678751e-05 -0.00024364238 0.000107503765 0.00022061188
000120 63 9d 12 39 d5 a2 a7 38 ba 49 06 b8 7c 6d 17 38
       0.00013982276 7.9935104e-05 -3.2016753e-05 3.610317e-05
000130 96 67 fb 38 30 81 82 b8 8f ac da b7 b4 c7 ce b7
       0.00011987907 -6.222946e-05 -2.6067979e-05 -2.4650108e-05
000140 da 27 d0 37 d1 20 fd 38 dd b7 01 38 24 c5 a1 b9
       2.481409e-05 0.000120700926 3.0927233e-05 -0.00030855194
000150 22 56 a1 b9 22 56 a1 b9 22 56 a1 b9 5e d7 3a 38
       -0.00030772487 -0.00030772487 -0.00030772487 4.4546432e-05
000160 fb 1d 7d b8 5c c0 98 38 5d b6 20 37 f9 aa 2f b9
       -6.0347822e-05 7.2837545e-05 9.579203e-06 -0.00016752993
000170 f2 aa 2f b9 2e 4a f7 38 88 36 cb b9 74 5e b4 39
       -0.00016752983 0.00011791695 -0.00038759806 0.00034402648
000180 fc 9e 02 b9 9e 5e 8a b8 50 fd 8d 39 24 6b b1 b8
       -0.00012456992 -6.5979766e-05 0.00027082348 -8.459974e-05
000190 fe 79 38 b9 48 49 10 38 b3 21 85 b8 b8 e4 a4 35
       -0.00017593053 3.4400524e-05 -6.348211e-05 1.2285518e-06
0001a0 ac 66 dd b9 51 0c 2d 38 f4 c7 8f b9 e1 33 47 39
       -0.000422289 4.1257885e-05 -0.00027424062 0.00018997445
0001b0 0f 6f 21 ba 0f 6f 21 ba 0f 6f 21 ba cf 64 e9 39
       -0.00061582116 -0.00061582116 -0.00061582116 0.0004451633
0001c0 7f 37 69 b9 fc 96 ab 39 77 bf 6a 39 f0 16 c3 b9
       -0.00022241285 0.00032728154 0.00022387305 -0.00037210388
0001d0 f1 16 c3 b9 6d 68 c3 39 ea 0a 25 ba b8 47 9d 39
       -0.0003721039 0.00037271102 -0.0006295877 0.00029998808
0001e0 b0 96 97 b9 c3 d6 d5 b9 2c 4f bc b9 df 17 09 b9
       -0.00028913235 -0.00040786536 -0.00035917142 -0.00013074231
0001f0 da 14 f1 39 45 1b 93 39 a3 29 f8 38 9e 9e db 38
       0.00045982638 0.00028058342 0.00011833317 0.000104722785
000200 30 20 96 b9 93 b2 53 38 ff 6d d7 38 8c 2c 5a 39
       -0.0002863421 5.047263e-05 0.00010272487 0.00020806695
000210 b1 17 cc b8 b1 17 cc b8 b1 17 cc b8 56 73 a2 b9
       -9.731891e-05 -9.731891e-05 -9.731891e-05 -0.0003098498
000220 ca a9 84 b9 bf ee 7c 39 81 78 87 39 25 74 80 b9
       -0.00025303505 0.00024121533 0.0002583899 -0.00024500597
000230 20 74 80 b9 5a 33 98 b9 e5 d9 2c 39 2b b4 70 39
       -0.00024500582 -0.0002902996 0.0001648437 0.00022955301
000240 da 54 cf 39 05 29 8d 39 8c 92 87 39 c1 ef 43 b9
       0.00039545336 0.00026924178 0.00025858392 -0.00018685964
000250 14 ef 33 37 1e 76 e4 b7 62 e1 aa 38 08 46 a3 b8
       1.0724896e-05 -2.723472e-05 8.1482125e-05 -7.78549e-05
000260 a8 95 c2 39 7c 8a 15 b9 e1 77 de 39 23 24 a7 b9
       0.00037114066 -0.00014261337 0.00042432456 -0.00031879646
000270 19 0c 88 38 19 0c 88 38 19 0c 88 38 27 c7 7a b9
       6.487239e-05 6.487239e-05 6.487239e-05 -0.00023916048
000280 64 fe 78 39 52 3c 8d b9 01 56 77 b9 f6 26 92 39
       0.00023745891 -0.00026938558 -0.00023587795 0.00027876318
000290 ff 26 92 39 d6 97 5c b9 6b c0 52 39 82 6d 07 39
       0.00027876344 -0.00021037398 0.00020098842 0.00012915398
0002a0 7f b5 51 39 03 51 5e 39 96 00 b6 39 34 af 87 38
       0.00019999406 0.00021201749 0.00034714182 6.469936e-05
0002b0 e2 84 d4 37 01 b3 9d b8 84 4b 10 b9 d2 4c 7a b8
       2.5334248e-05 -7.5196855e-05 -0.00013761042 -5.967619e-05
0002c0 8b bf 1c 38 d7 5d cd 38 a3 f0 a1 37 ef e6 5a 38
       3.7371687e-05 9.792641e-05 1.930475e-05 5.2190324e-05
0002d0 a1 c3 d5 36 a1 c3 d5 36 a1 c3 d5 36 13 0c 84 b7
       6.370669e-06 6.370669e-06 6.370669e-06 -1.5741249e-05
0002e0 01 17 77 38 8c 74 d2 b7 e5 20 24 b8 08 cc 22 38
       5.8910813e-05 -2.5088222e-05 -3.9131282e-05 3.881383e-05
0002f0 ef cb 22 38 24 bc 31 38 87 7b b2 b8 27 4e c6 38
       3.8813738e-05 4.2375308e-05 -8.51071e-05 9.455933e-05
000300 5c 89 fa 38 7e 77 32 39 67 84 4a 38 c3 d8 ff b8
       0.00011946514 0.00017019917 4.8283862e-05 -0.000121997226
000310 82 f8 24 37 38 d3 71 b8 2b f0 82 37 2e b1 7d 36
       9.833022e-06 -5.765559e-05 1.5609045e-05 3.780307e-06
000320 f3 83 a8 b8 a3 26 b2 b8 b6 c4 bf b7 3a 9e a0 b8
       -8.035442e-05 -8.494898e-05 -2.2860575e-05 -7.6588665e-05
000330 cb 11 13 b9 cb 11 13 b9 cb 11 13 b9 95 d6 da b8
       -0.00014025641 -0.00014025641 -0.00014025641 -0.00010435019
000340 fa 67 e2 37 ff 93 2e b8 4b af 19 b8 a2 c3 e4 37
       2.6989717e-05 -4.1622665e-05 -3.6641297e-05 2.7270817e-05
000350 a4 c3 e4 37 00 32 93 b8 36 c0 b2 b8 61 19 66 39
       2.727082e-05 -7.0188195e-05 -8.5235035e-05 0.00021943964
000360 a0 7e 96 b8 f4 6d 1d b8 bf 86 30 37 8a 88 46 b9
       -7.176143e-05 -3.753412e-05 1.05217905e-05 -0.00018933616
000370 38 0a 15 b9 20 da 96 38 b0 1f f2 b8 ac fe 10 b8
       -0.00014213554 7.193186e-05 -0.000115453615 -3.4569457e-05
000380 24 c1 29 b9 ec b0 9d b8 6d cc 9b b8 94 ef 66 39
       -0.00016189046 -7.519298e-05 -7.429053e-05 0.00022023759
000390 17 5e 46 b9 17 5e 46 b9 17 5e 46 b9 19 6c 32 39
       -0.00018917803 -0.00018917803 -0.00018917803 0.00017015672
0003a0 8b 21 fb b7 73 79 9b 38 c6 bc 29 38 56 3f aa b8
       -2.9937151e-05 7.4135976e-05 4.046855e-05 -8.118029e-05
0003b0 4f 3f aa b8 be e8 01 38 55 95 0d b9 96 1e 0a 39
       -8.118024e-05 3.0972755e-05 -0.00013502438 0.000131721
0003c0 7d 26 6a 38 49 95 e0 38 5d 9e 15 37 44 6d 18 b8
       5.5825793e-05 0.00010708959 8.917964e-06 -3.6341386e-05
0003d0 0b 58 8b 38 03 00 fe b8 90 43 5a b8 d5 28 e0 38
       6.644436e-05 -0.00012111666 -5.2038173e-05 0.00010688758
0003e0 c1 a0 ff 38 a2 04 07 b9 09 91 89 38 09 c2 96 b7
       0.0001218929 -0.00012876329 6.559684e-05 -1.7971748e-05
0003f0 a2 a6 e5 b9 a2 a6 e5 b9 a2 a6 e5 b9 85 47 23 39
       -0.00043802435 -0.00043802435 -0.00043802435 0.00015571534

exp_avg_sq f4 [128, 24]
000000 3f 1b a0 37 0e f5 a5 37 8b 5c a9 37 d1 02 39 36
       1.9086174e-05 1.9783645e-05 2.0189464e-05 2.7568788e-06
000010 24 64 64 36 cd 02 71 36 a5 ea 77 36 b8 f8 4f 35
       3.4032937e-06 3.5913429e-06 3.694245e-06 7.747544e-07
000020 b7 eb 65 37 9d 99 27 36 b2 2f 38 36 e4 40 92 36
       1.3704345e-05 2.4974354e-06 2.74459e-06 4.3586933e-06
000030 56 72 87 37 56 72 87 37 56 72 87 37 35 a9 51 37
       1.6146496e-05 1.6146496e-05 1.6146496e-05 1.2496767e-05
000040 ea 74 b4 36 17 a7 9e 36 52 55 ae 36 63 02 a5 36
       5.3780286e-06 4.7282188e-06 5.1955367e-06 4.917661e-06
000050 63 02 a5 36 41 ce 9f 37 b1 6b c0 37 c6 db 9e 36
       4.917661e-06 1.9050321e-05 2.2938331e-05 4.734352e-06
000060 ba bf 70 38 49 48 7c 38 57 9c 87 38 39 c5 c5 36
       5.739902e-05 6.0148803e-05 6.466422e-05 5.8940172e-06
000070 23 ca bb 36 5a 70 11 37 3f cb 2b 37 c6 6f c0 35
       5.596566e-06 8.668832e-06 1.0239716e-05 1.4337645e-06
000080 9b 35 33 38 8c df 79 36 0c af 66 36 47 58 01 37
       4.272685e-05 3.7234013e-06 3.4374561e-06 7.709553e-06
000090 50 d2 19 38 50 d2 19 38 50 d2 19 38 c2 b8 17 38
       3.667391e-05 3.667391e-05 3.667391e-05 3.6173275e-05
0000a0 b8 ef 9c 37 9b e9 73 37 6d 19 93 37 f6 c6 79 37
       1.8708277e-05 1.4538319e-05 1.7535605e-05 1.4887881e-05
0000b0 f8 c6 79 37 40 9f 50 38 7f b5 66 38 b2 57 44 37
       1.4887883e-05 4.9739378e-05 5.5005305e-05 1.17029285e-05
0000c0 37 00 38 37 6f 5a 37 37 2d c0 56 37 e3 be ac 35
       1.0967305e-05 1.0928706e-05 1.2800138e-05 1.2870554e-06
0000d0 0d b7 b7 35 ce 3d f8 35 d8 d4 2a 36 7e 9b 97 35
       1.3687837e-06 1.8495427e-06 2.5455865e-06 1.1295631e-06
0000e0 e9 a9 13 37 68 a9 a1 35 c3 e8 0a 36 c1 f9 0f 36
       8.801443e-06 1.2044738e-06 2.0699088e-06 2.1454036e-06
0000f0 3e c1 a1 36 3e c1 a1 36 3e c1 a1 36 81 e8 9d 36
       4.8206703e-06 4.8206703e-06 4.8206703e-06 4.7060316e-06
000100 96 cf 1d 36 94 d1 14 36 eb 31 1a 36 43 67 1a 36
       2.3515654e-06 2.217571e-06 2.2976844e-06 2.3007894e-06
000110 3f 67 1a 36 9b a4 b5 36 63 a8 ec 36 01 53 08 36
       2.3007885e-06 5.413383e-06 7.052951e-06 2.0313894e-06
000120 d7 66 62 37 3b e6 69 37 b3 63 71 37 e7 85 9e 35
       1.3494594e-05 1.3941487e-05 1.4387932e-05 1.1810888e-06
000130 21 78 e8 35 0c 17 f4 35 5d 51 5e 36 1f 46 8b 35
       1.7320309e-06 1.8186124e-06 3.3127938e-06 1.0376715e-06
000140 01 b8 30 37 04 56 10 36 35 6e 4e 36 41 b0 60 36
       1.0533259e-05 2.150774e-06 3.076054e-06 3.3481194e-06
000150 d7 7b de 36 d7 7b de 36 d7 7b de 36 c6 e4 df 36
       6.6305324e-06 6.6305324e-06 6.6305324e-06 6.6725506e-06
000160 81 4b 3c 36 47 01 27 36 77 c7 36 36 ee f7 29 36
       2.8058132e-06 2.4885683e-06 2.7236217e-06 2.5327276e-06
000170 ed f7 29 36 6e 57 f4 36 f0 8a 1f 37 2a d4 17 36
       2.5327274e-06 7.281945e-06 9.509487e-06 2.262425e-06
000180 2c 41 9e 36 4a f1 8e 36 7f 31 98 36 8e 31 b5 35
       4.716354e-06 4.2600195e-06 4.535715e-06 1.3499973e-06
000190 f5 85 d8 35 f3 74 d7 35 7b ce 93 35 bb cb e4 34
       1.6132241e-06 1.6052785e-06 1.1012447e-06 4.2616543e-07
0001a0 f7 07 46 36 70 20 dc 35 a5 bc 1e 36 06 99 01 36
       2.9508935e-06 1.6400718e-06 2.365364e-06 1.931157e-06
0001b0 fe c4 91 36 fe c4 91 36 fe c4 91 36 69 46 52 36
       4.3442697e-06 4.3442697e-06 4.3442697e-06 3.1333423e-06
0001c0 f8 44 be 35 5e cf b7 35 ae 0a c2 35 3a aa be 35
       1.4176176e-06 1.3694914e-06 1.4457235e-06 1.4205646e-06
0001d0 38 aa be 35 5f d3 a1 36 6c 35 c6 36 f5 08 c2 35
       1.4205643e-06 4.8227807e-06 5.907079e-06 1.4456733e-06
0001e0 53 cd 83 37 66 fa 87 37 b1 bf 8a 37 44 af 54 36
       1.5712028e-05 1.6209855e-05 1.6540145e-05 3.169248e-06
0001f0 de 7b 89 36 ec a6 9c 36 a7 cd 28 36 70 b0 4e 35
       4.097338e-06 4.6685946e-06 2.5153656e-06 7.699773e-07
000200 ac f7 2a 37 78 90 7d 35 d6 73 b4 35 7b 18 15 36
       1.0190455e-05 9.4460074e-07 1.3444758e-06 2.221698e-06
000210 62 b2 8e 37 62 b2 8e 37 62 b2 8e 37 b3 5e 1d 37
       1.7010785e-05 1.7010785e-05 1.7010785e-05 9.379978e-06
000220 68 1a ba 36 20 a6 a9 36 0d ec b6 36 dd f9 ab 36
       5.546306e-06 5.055932e-06 5.4515026e-06 5.125285e-06
000230 de f9 ab 36 77 78 8e 37 a4 e9 c1 37 c1 5c ad 36
       5.1252855e-06 1.6983815e-05 2.311619e-05 5.1665997e-06
000240 91 92 5a 37 04 39 5c 37 6b 89 65 37 d2 3b e5 35
       1.3027938e-05 1.3126297e-05 1.3681459e-05 1.707924e-06
000250 74 43 33 36 59 8c 1d 36 60 78 43 36 e1 c4 99 35
       2.6712341e-06 2.3476516e-06 2.9127332e-06 1.1456688e-06
000260 a2 cb 1b 37 5d 81 c2 35 8e 4e 06 36 ab 36 4a 36
       9.286132e-06 1.4491776e-06 2.001328e-06 3.0132167e-06
000270 c2 29 65 37 c2 29 65 37 c2 29 65 37 ef 62 02 37
       1.3659186e-05 1.3659186e-05 1.3659186e-05 7.771639e-06
000280 d3 e6 4a 36 15 eb 64 36 e0 85 4a 36 8a 0a 78 36
       3.0234703e-06 3.4111483e-06 3.017827e-06 3.6961014e-06
000290 89 0a 78 36 7a 13 62 37 12 1f 9e 37 97 99 4b 36
       3.6961012e-06 1.34751845e-05 1.8849536e-05 3.0338758e-06
0002a0 3a 16 48 37 66 56 45 37 b0 89 61 37 f1 e4 b9 35
       1.1926104e-05 1.1762231e-05 1.3443103e-05 1.3850205e-06
0002b0 8c 44 f3 35 fc 1c 0c 36 44 30 28 36 93 72 25 35
       1.8124861e-06 2.0878497e-06 2.5062045e-06 6.163402e-07
0002c0 93 79 12 37 95 b4 1b 35 71 c1 69 35 41 27 b6 35
       8.730584e-06 5.800478e-07 8.708076e-07 1.3571481e-06
0002d0 42 74 0d 37 42 74 0d 37 42 74 0d 37 53 12 09 37
       8.431323e-06 8.431323e-06 8.431323e-06 8.170103e-06
0002e0 d3 65 4b 36 2d 3b 3f 36 46 39 47 36 0f c7 43 36
       3.0308627e-06 2.8495663e-06 2.9686648e-06 2.9173132e-06
0002f0 11 c7 43 36 42 96 22 37 35 9a 55 37 0b 75 19 36
       2.9173136e-06 9.690937e-06 1.27316935e-05 2.2866905e-06
000300 56 fb 90 35 81 d6 97 35 bd 06 94 35 01 19 81 34
       1.0801984e-06 1.1312806e-06 1.102882e-06 2.4046315e-07
000310 4f 25 a0 34 a7 e9 c7 34 5f 02 92 34 cc 8b 37 34
       2.9829468e-07 3.7236643e-07 2.7196344e-07 1.7094061e-07
000320 c2 c1 5c 35 e0 34 6a 34 53 95 8a 34 f6 4a e0 34
       8.223834e-07 2.1812184e-07 2.581315e-07 4.1777793e-07
000330 c0 36 9f 35 c0 36 9f 35 c0 36 9f 35 49 c9 32 35
       1.1862357e-06 1.1862357e-06 1.1862357e-06 6.6603076e-07
000340 07 50 e4 34 ec ee f6 34 9c 2a ec 34 64 b6 f9 34
       4.2526537e-07 4.599491e-07 4.3989428e-07 4.651257e-07
000350 64 b6 f9 34 a5 45 95 35 9f dd d4 35 d5 8e a2 34
       4.651257e-07 1.1121634e-06 1.5859731e-06 3.0278775e-07
000360 c5 a7 af 36 85 9f c0 36 13 64 ce 36 d0 3e 32 35
       5.2349374e-06 5.7406164e-06 6.1509286e-06 6.640157e-07
000370 9f b7 97 35 c6 e7 b5 35 d2 ea 8c 35 58 a6 d3 34
       1.1303817e-06 1.3553006e-06 1.0499155e-06 3.9422844e-07
000380 ef 9f 8c 36 6a 2c 3f 35 ca cb 46 35 5d b6 af 35
       4.190944e-06 7.1217676e-07 7.40573e-07 1.3091591e-06
000390 6e ef d0 36 6e ef d0 36 6e ef d0 36 27 27 97 36
       6.2267563e-06 6.2267563e-06 6.2267563e-06 4.5047086e-06
0003a0 ed a5 e6 35 64 ea c2 35 04 b2 e1 35 09 09 bf 35
       1.7184626e-06 1.4522343e-06 1.6815616e-06 1.4233239e-06
0003b0 0a 09 bf 35 7b 1a fa 36 c8 11 1b 37 90 48 99 35
       1.423324e-06 7.4536633e-06 9.24286e-06 1.1420507e-06
0003c0 4a 3f 8e 36 89 2a 92 36 09 4c 94 36 8d 9c 2c 35
       4.2392976e-06 4.356091e-06 4.4195954e-06 6.4302805e-07
0003d0 95 f6 85 35 a5 ad 8a 35 7e 23 4c 35 bf e6 3f 34
       9.981037e-07 1.0332338e-06 7.604757e-07 1.7872206e-07
0003e0 c4 c1 3d 36 31 20 99 34 f8 01 ad 34 08 6b 46 35
       2.827598e-06 2.8521893e-07 3.2225194e-07 7.39165e-07
0003f0 93 7f a5 36 93 7f a5 36 93 7f a5 36 c5 e3 43 36
       4.932235e-06 4.932235e-06 4.932235e-06 2.9189844e-06
