runs/BallBalance_31-14-19-00/nn/last_BallBalance_ep_250_rew__310.31_.pth (torch, 181427 bytes, 36 tensors)

value_mean_std.running_mean f8 [1]
0	0x40168b14187d665e	5.635818846372414

value_mean_std.running_var f8 [1]
0	0x400d2fa47c6150ae	3.648262950630019

value_mean_std.count f8 []
0	0x417f400010000000	32768001.0

running_mean_std.running_mean f8 [24]
0	0x3fd81fafea54ac19	0.3769340313326111
1	0x3fdbc1cb72fae5e9	0.43370329121134304
2	0x3fda06c5a36bb497	0.40666333159499274
3	0x3fc5e5b51ccb2def	0.17107261568013096
4	0x3fcb7e1d5fc00292	0.2147862165002335
5	0x3fc9d5d4dbda699b	0.20183811888712175
6	0x3f99cfbc346f600c	0.02520650930441097
7	0x3f9d89edb4bcdf8c	0.028846468120917332
8	0x3fe8978dea319bc1	0.7685002874467203
9	0x3fa40c18d62af8ff	0.03915479292253287
10	0x3f8fe14ca608e8d2	0.015566443268756922
11	0xbfcbd1bb4dedcfa9	-0.21733800225376612
12	0x3f72ee74469d3b1c	0.004621938898550917
13	0x3f72ee74469d3b1c	0.004621938898550917
14	0x3f72ee74469d3b1c	0.004621938898550917
15	0x3f50427c290fe32c	0.00099241375960286
16	0x3fb92740800b018d	0.09825518728303546
17	0xbfb8a9dfb9949bf9	-0.09634207039617583
18	0xbfbc5890a7515762	-0.11072639546304466
19	0x3fad8412b72e0156	0.057648262844852624
20	0x3fad8412b82cfb27	0.057648262960802214
21	0xbf747d354d87fa85	-0.00500222035816356
22	0x3efcc72ee8acdecf	2.744489624292753e-05
23	0xbf60e809315f31e0	-0.002063768343736991

running_mean_std.running_var f8 [24]
0	0x3fd0afeec838d70e	0.260738082436874
1	0x3fd314b1979eb987	0.2981380444206469
2	0x3fd13ba89f4f6803	0.26926627690920685
3	0x4015e24139596b1c	5.470951934893289
4	0x40142017022fb3b9	5.031337770616056
5	0x4014b0a2345c6313	5.172493761195045
6	0x3f9eb8e170f04711	0.03000213863203444
7	0x3f96b617d2d0a9a0	0.022179004900104382
8	0x3f95894ed8982039	0.02103160092340792
9	0x3fc7eff4b1207754	0.18701037071962878
10	0x3fc747e5ab1a01f6	0.18188162664956992
11	0x3ff21e2d309170e2	1.132367315024617
12	0x402a2688100a0721	13.075256825660803
13	0x402a2688100a0721	13.075256825660803
14	0x402a2688100a0721	13.075256825660803
15	0x3fa733d4b1039b25	0.04531731282059174
16	0x40071defc7e136ab	2.889617501793358
17	0x4005af1f2cc5376b	2.7105086801229183
18	0x400ccfd9704486a5	3.601488949862715
19	0x3fef77aaabc9105d	0.9833577494796476
20	0x3fef77aaaf4b71e8	0.9833577560162299
21	0x40144211b1dd6db2	5.064520625247882
22	0x4012446ef8bbda13	4.566829573121612
23	0x400cdbaa1394e5fd	3.607257988912123

running_mean_std.count f8 []
0	0x416f400020000000	16384001.0

a2c_network.sigma f4 [3]
0	0xbfc710be	-1.5551984
1	0xbfc072e0	-1.5035057
2	0xbfa4cb09	-1.2874461

a2c_network.actor_mlp.0.weight f4 [128, 24]
0	0xbee5395e	-0.4477033
1	0xbea8bf94	-0.32958663
2	0x3ccf33f5	0.02529333
3	0xbe91a409	-0.2844546
4	0x3e30c104	0.1726113
5	0x3df861a7	0.12128001
6	0x3f3a874d	0.728627
7	0xbf077bd6	-0.52923334
8	0x3f3c83a1	0.7363835
9	0x3e80865f	0.25102517
10	0x3e011327	0.12604962
11	0x3de993b9	0.11405129
12	0x3b23c43a	0.0024988786
13	0x3e0adda7	0.13561116
14	0xbbe55a0f	-0.006999261
15	0xbd3cbd66	-0.046079062
16	0x3c6edd89	0.014579185
17	0x3aad4ddc	0.0013222056
18	0x3e003901	0.12521745
19	0x3e1525c8	0.14565194
20	0x3da6b56b	0.081400715
21	0xbd17348a	-0.03691534
22	0x3d829c83	0.063775085
23	0x3d60c0ae	0.054871254
24	0xbd80918c	-0.06277761
25	0xbece9264	-0.40346062
26	0xbf035555	-0.5130208
27	0xbd72a54d	-0.059239674
28	0xbeffc0e8	-0.49951863
29	0x3e9952ac	0.29945886
30	0x3ea35c7c	0.31906497
31	0x3e59fb6c	0.21287316
32	0x3e5f1815	0.2178653
33	0x3dc48fbe	0.09597729
34	0x3e6f4081	0.2336445
35	0xbde07843	-0.10960438
36	0x3e0b0394	0.13575584
37	0xbc868279	-0.016419636
38	0x3e3e4e54	0.18584567
39	0x3df1d09d	0.11807368
40	0x3e6493ac	0.22321957
41	0xbe0b3d66	-0.1359764
42	0xbd1ce72d	-0.038306404
43	0xbdbc6749	-0.091993876
44	0xbdbdf2f5	-0.09274856
45	0xbe9b28fb	-0.30304703
46	0x3ebd2696	0.369435
47	0x3e2d0151	0.16895033
48	0x3ec081a1	0.375989
49	0xbdb4952a	-0.08817513
50	0xbeef1ec3	-0.46703157
51	0x3c8b4450	0.017000347
52	0xbdc8d921	-0.09807039
53	0x3de89741	0.113569744
54	0xbdd9d96c	-0.10637173
55	0x3f2376d1	0.63853174
56	0xbd19fb37	-0.037593093
57	0xbe8cfd4c	-0.27537
58	0x3e9e59af	0.30927798
59	0x3d8cf0f3	0.06881895
60	0x3d57d9f9	0.05269811
61	0xbdf4ff9b	-0.119628154
62	0x3d3ab099	0.045578573
63	0xb98c6dd5	-0.00026784712
64	0xbd0d69ca	-0.034524716
65	0x3c17fab8	0.009276085
66	0xbcc2728b	-0.023736259
67	0xbc4d1e89	-0.012519487
68	0x3e2510d7	0.16119705
69	0x3c270122	0.010193141
70	0xbe0f4f6a	-0.13995138
71	0x3dbbb9e9	0.09166319
72	0xbd071019	-0.032974336
73	0xbe8e3e17	-0.27781746
74	0xbe295402	-0.16535953
75	0xbeb76360	-0.35818005
76	0xbe8ec92c	-0.27887857
77	0xbd6c06c0	-0.057623625
78	0xbe8e17d3	-0.2775255
79	0xbf2ce3dd	-0.6753519
80	0x3e378151	0.17920424
81	0xbef29542	-0.473795
82	0xbf12caa6	-0.57340467
83	0x3d80b283	0.062840484
84	0xbe2d2b20	-0.16910982
85	0xbdf6a4a1	-0.12043119
86	0x3e5ab666	0.21358642
87	0x3cebfa85	0.02880598
88	0x3d412cdb	0.047161918
89	0xbe101243	-0.14069466
90	0xbd8f83f2	-0.070075884
91	0xbd994f6a	-0.0748585
92	0x3cccd481	0.025003674
93	0xbdbc3bbc	-0.09191081
94	0xbd4fabfe	-0.050701134
95	0xbe43312d	-0.19061728
96	0xbeb1d000	-0.34729004
97	0xbea3549b	-0.31900486
98	0x3ebffd00	0.3749771
99	0x3df808c6	0.121110484
100	0x3dc5707a	0.09640594
101	0x3cea887a	0.02862953
102	0xbdc01897	-0.0937969
103	0xbf010039	-0.50390965
104	0x3f68c79d	0.90929586
105	0xbc883f9c	-0.016631894
106	0x3f099dd0	0.5375643
107	0x3ed30f9a	0.4122284
108	0xbe3ff17c	-0.18744463
109	0x3e01b530	0.12666774
110	0xbd90e93e	-0.070757374
111	0xbd530cbe	-0.051525824
112	0xbe318bb3	-0.17338447
113	0xbe370c13	-0.178757
114	0x3d9843df	0.074348204
115	0xbd9eaf77	-0.07748311
116	0x3d3ec767	0.046576884
117	0x3b3f8fb2	0.0029229936
118	0xbdcc70ea	-0.09982474
119	0xbe1c4662	-0.15261224
120	0xbe2e51cd	-0.17023392
121	0x3d50119c	0.050798044
122	0x3e06f31b	0.13178675
123	0xbe0c28e1	-0.13687469
124	0x3dc424a6	0.09577303
125	0xbdd6aced	-0.10482202
126	0x3e4667a8	0.19375479
127	0xbeaf4a03	-0.34236154
128	0x3eec85b2	0.4619575
129	0xbf64ea25	-0.89419776
130	0x3f81dab8	1.0144873
131	0x3f583b71	0.844657
132	0x3db79ad3	0.08965077
133	0x3d56316a	0.05229322
134	0x3d400cf7	0.046887364
135	0xbde35d33	-0.11101761
136	0x3e04c71f	0.12966584
137	0x3dadb59c	0.08481905
138	0x3d3468f7	0.044045415
139	0xbe813d8c	-0.2524227
140	0x3c577a42	0.013151707
141	0xbd5a459a	-0.053289033
142	0x3ccfeeb0	0.02538237
143	0x3e19c16d	0.15015192
144	0x3e9a87e0	0.3018179
145	0xbe98e1d1	-0.29859784
146	0x3e214ec7	0.15752707
147	0xbd1d5cca	-0.03841857
148	0x3e950d4d	0.2911171
149	0xbd3a8518	-0.045537084
150	0xbe79675a	-0.24355832
151	0xbf0aa431	-0.54156786
152	0xbea5354c	-0.32267225
153	0x3ef970df	0.48718926
154	0x3eb5c302	0.35500342
155	0xbeed363d	-0.46330443
156	0x3d450db1	0.04810876
157	0x3dd964ee	0.10614954
158	0x3d1a7a70	0.03771442
159	0x3db34264	0.087528974
160	0x3ded5edc	0.115903586
161	0x3e0edb16	0.13950762
162	0x3dd00b79	0.10158438
163	0xbd1c9da9	-0.038236294
164	0xbd671810	-0.056419432
165	0xbd32c101	-0.043641094
166	0x3cac431b	0.021028092
167	0x3ddd1e8b	0.10796841
168	0x3e869863	0.26288137
169	0x3e44ac87	0.19206439
170	0xbee7db3e	-0.45284456
171	0x3d04fc4a	0.032467164
172	0xbdb20152	-0.08691658
173	0xbe7582f7	-0.2397574
174	0x3e24b271	0.16083695
175	0x3e3d30bf	0.18475626
176	0x3d763368	0.06010762
177	0xbf03f9ef	-0.51553243
178	0x3f12f187	0.5739979
179	0x3dc21aab	0.09477743
180	0x3d5c87cd	0.053840447
181	0xbd71f7f8	-0.059074372
182	0xbd7968bc	-0.060890898
183	0xbd608e1c	-0.054823026
184	0xbd344ec9	-0.044020448
185	0x3d576867	0.0525898
186	0x3e10030e	0.14063665
187	0x3e4d4340	0.20045185
188	0xbd980386	-0.07422547
189	0x3d62e3db	0.05539308
190	0xbc842ca4	-0.016134568
191	0x3e329dc6	0.17442998
192	0x3ed8db0e	0.42354625
193	0x3e22a159	0.15881862
194	0x3dd284ca	0.10279234
195	0xbde87c39	-0.113518186
196	0xbe6381db	-0.22217505
197	0x3d282f32	0.041060634
198	0xbf1be922	-0.6090261
199	0xbe84828c	-0.2588085
200	0xbe231d96	-0.15929255
201	0x3f2b08f8	0.6681056
202	0x3f5b415c	0.85646605
203	0xbb6ba036	-0.0035953647
204	0xbdf999a5	-0.121875085
205	0xbe39591e	-0.18100402
206	0xbe14d18d	-0.14533062
207	0x3d4c1af3	0.04983039
208	0x3d8f2d0e	0.069910154
209	0x3e008ee6	0.12554511
210	0x3e2ddd00	0.16978836
211	0x3e17ff62	0.14843515
212	0x3dc218b9	0.09477372
213	0xbdef758a	-0.11692341
214	0x3d1a4e40	0.03767228
215	0xbe54bcc4	-0.20775133
216	0x3d971cbc	0.073785275
217	0xbde8b287	-0.113621764
218	0xbed27eae	-0.41112274
219	0xbe8aefdc	-0.27136123
220	0x3e24e9df	0.1610484
221	0xbe738a0f	-0.23783134
222	0xbe03b40f	-0.12861656
223	0x3ec199a7	0.3781254
224	0xbe43d0ae	-0.19122574
225	0x3f2b901b	0.6701676
226	0xbe9201c2	-0.28516966
227	0xbe3a8e92	-0.18218449
228	0x3d677345	0.056506414
229	0xbbd29786	-0.0064267544
230	0x3cf658fb	0.030071726
231	0xbc751b08	-0.014960058
232	0x3de37efe	0.11108206
233	0xbdd02481	-0.101632126
234	0x3e015927	0.12631665
235	0x3da8ec6b	0.08248218
236	0x3e0af198	0.13568723
237	0x3e49b26c	0.19696969
238	0xbc8baaea	-0.017049272
239	0xbe979f42	-0.29613692
240	0xbe534792	-0.2063277
241	0x3caca9ea	0.021077115
242	0xbab65d5c	-0.0013913321
243	0xbc998335	-0.018739322
244	0xbe00b29e	-0.12568137
245	0xbe2c6e20	-0.16838884
246	0x3ec52ff0	0.38513136
247	0xbdce972e	-0.10087429
248	0x3f23df1c	0.6401231
249	0x3f5ee2de	0.8706492
250	0x3edb372b	0.42815527
251	0x3df99624	0.1218684
252	0xbd8bfad7	-0.06834953
253	0x3e14bf1e	0.1452603
254	0x3e593921	0.21213199
255	0xbde09915	-0.10966698

a2c_network.actor_mlp.0.bias f4 [128]
0	0xbe78e4d5	-0.24306042
1	0x3d8345b2	0.06409778
2	0xbf42301b	-0.75854653
3	0xbedf38f8	-0.4359815
4	0xbefb5eba	-0.49095708
5	0xbe1ec44a	-0.15504566
6	0x3e185e78	0.14879787
7	0x3d59732d	0.053088356
8	0xbe5edbdc	-0.21763557
9	0xbf1bdc86	-0.6088337
10	0x3e324b6c	0.17411584
11	0xbf2e862f	-0.681735
12	0xbe6cdff6	-0.2313231
13	0x3d0c518b	0.034257453
14	0xbe2f4172	-0.17114809
15	0x3e90bcc2	0.2826901
16	0x3e83edb5	0.25767294
17	0xbf4259b0	-0.759181
18	0xbed7126e	-0.42006248
19	0x3e6baedd	0.23015924
20	0xbf1df314	-0.6169903
21	0xbf5f73cf	-0.87286085
22	0x3f09ce1c	0.5383012
23	0xbf0f2d19	-0.5592819
24	0xbeb200de	-0.34766287
25	0x3ee548a4	0.44781983
26	0xbe856885	-0.26056305
27	0xbee38d66	-0.44443816
28	0x3f2a479e	0.6651553
29	0xbde4ef88	-0.111784995
30	0xbd393478	-0.045216054
31	0xbf13a305	-0.57670623
32	0xbf2394f6	-0.6389917
33	0x3eea2eb9	0.45738772
34	0x3f035d85	0.51314574
35	0xbf0753df	-0.5286235
36	0xbeff3bc0	-0.49850273
37	0xbeecca46	-0.46248072
38	0xbf5ba0a6	-0.85792005
39	0x3e3998d8	0.18124712
40	0xbf301c0d	-0.687928
41	0xbf1c398e	-0.6102532
42	0x3dc04fd9	0.0939023
43	0xbf2d4c5d	-0.67694646
44	0x3d97351f	0.07383179
45	0xbecdf133	-0.40223083
46	0xbf293d27	-0.66108936
47	0x3f080319	0.53129727
48	0xbecfb7eb	-0.40570006
49	0xbee331c5	-0.4437391
50	0x3c22da3f	0.009939729
51	0xbf161919	-0.58632046
52	0xbf0ab15b	-0.5417687
53	0x3deb2346	0.11481337
54	0xbf8fa0ad	-1.1220909
55	0xbf21ea6d	-0.6324833
56	0xbe6c3827	-0.23068295
57	0xbd7a3c65	-0.061092753
58	0xbd32483e	-0.043525927
59	0xbf51a4b4	-0.8189194
60	0xbec45256	-0.38344067
61	0xbee9bfd5	-0.4565417
62	0x3d916469	0.0709923
63	0xbda155b5	-0.078776754
64	0x3c7cc0ed	0.015426856
65	0x3e397e9b	0.18114702
66	0x3e5b59f5	0.21421035
67	0xbf239896	-0.639047
68	0xbeae4dd4	-0.34043753
69	0xbf8a9e19	-1.0829498
70	0xbe9a0d3b	-0.3008822
71	0xbf2b59db	-0.66933984
72	0x3daa32b3	0.08310451
73	0x3e506bba	0.20353594
74	0xbefbc2c5	-0.49172035
75	0x3e0e8094	0.13916236
76	0x3d6dac41	0.058025602
77	0xbf181e59	-0.59421307
78	0xbf06cd3c	-0.5265691
79	0x3e8c7b5f	0.27437875
80	0x3e8f14b6	0.2794549
81	0xbe6854bf	-0.22688578
82	0x3ea9a963	0.33137044
83	0x3cee65ee	0.029101338
84	0xbe383e33	-0.17992477
85	0x3f0438a0	0.516489
86	0xbe927ef1	-0.28612474
87	0x3d9c1a91	0.07622255
88	0xbf111d64	-0.5668547
89	0xbed4da4d	-0.415728
90	0xbfb50cb2	-1.4144499
91	0xbee4c174	-0.44678843
92	0xbe4c4979	-0.19949903
93	0xbf159a43	-0.5843851
94	0xbf078818	-0.5294204
95	0x3ed2d36e	0.41176933
96	0xbebddf1b	-0.37084278
97	0xbea279b7	-0.31733486
98	0x3ed7fe81	0.4218636
99	0xbecdaa85	-0.4016916
100	0xbef088f1	-0.46979478
101	0xbdb11d5c	-0.08648178
102	0x3f1b6146	0.606953
103	0xbe2df2cd	-0.16987152
104	0x3ecfab3a	0.40560323
105	0x3e34095a	0.17581692
106	0xbf25449f	-0.6455783
107	0xbf77ac4d	-0.96747285
108	0x3e003b00	0.12522507
109	0x3db2fa66	0.08739166
110	0xbe9994fc	-0.2999648
111	0xbf13e87d	-0.57776624
112	0x3f138401	0.57623297
113	0xbf29a7a6	-0.66271436
114	0xbda94860	-0.082657576
115	0xbf0fc49a	-0.56159365
116	0xbf16b7d8	-0.58874273
117	0xbf0e1492	-0.5550014
118	0xbe9a38c8	-0.30121446
119	0xbdc13f05	-0.09435848
120	0xbf237327	-0.63847584
121	0xbecb41e6	-0.39698714
122	0xbef6d0d1	-0.4820619
123	0xbeb53672	-0.353931
124	0xbf21b190	-0.63161564
125	0x3e605398	0.21906888
126	0xbf162ef4	-0.58665395
127	0x3e84b4f7	0.25919315

a2c_network.actor_mlp.2.weight f4 [64, 128]
0	0xbe02f8f2	-0.12790278
1	0xbdb18ab5	-0.086690344
2	0xbe1f2844	-0.15542704
3	0x3e098d34	0.13432771
4	0x3e6b0d9d	0.22954412
5	0x3d9ea4a4	0.077462465
6	0xbda94b1c	-0.08266279
7	0xbe0e81e9	-0.13916744
8	0x3d2afeff	0.04174709
9	0xbccad8b0	-0.024761528
10	0xbe419daf	-0.18907808
11	0x3e1af86f	0.15133832
12	0x3d1d7249	0.03843907
13	0xbd17b349	-0.037036214
14	0xbd23f956	-0.040032707
15	0xbe1d845e	-0.15382525
16	0xbe88b1c0	-0.26698112
17	0xbe51c0f7	-0.20483766
18	0xbd7e9aa3	-0.06215919
19	0xbcf7664e	-0.03020015
20	0x3d4af1c9	0.04954699
21	0x3e31fd6a	0.17381826
22	0xbe6c75d4	-0.23091823
23	0xbe2a96cb	-0.16659085
24	0xbd3e7f38	-0.046508044
25	0x3e1c8f4a	0.15289035
26	0x3d8ad6b6	0.06779234
27	0xbe36b794	-0.17843467
28	0xbd8d576f	-0.06901442
29	0xbc903b84	-0.017606504
30	0xbe4d5096	-0.20050272
31	0x3d971001	0.073760994
32	0x3e29497d	0.1653194
33	0xbde54679	-0.11195082
34	0xbcd47e47	-0.02593912
35	0xbda8a868	-0.08235246
36	0xbdaa21df	-0.08307242
37	0x3c889dff	0.0166769
38	0x3e34d0df	0.17657803
39	0xbe746c29	-0.23869385
40	0xbe730f27	-0.23736249
41	0xbe59a7de	-0.21255443
42	0xbddd5a76	-0.1080827
43	0x3d34465b	0.04401241
44	0xbdfb1b0a	-0.12261017
45	0x3ddb4621	0.107067354
46	0xbe110357	-0.1416143
47	0xbdf62132	-0.1201805
48	0xbd7185a3	-0.058965337
49	0xbe15f975	-0.14645942
50	0xbcfd6332	-0.03093109
51	0xbe961cd0	-0.29318857
52	0xbe38efc5	-0.18060215
53	0xbe0736ab	-0.13204448
54	0xbe045c2e	-0.12925789
55	0x3dd8ab13	0.10579505
56	0xbd21477b	-0.03937481
57	0x3d5af44b	0.053455632
58	0x3c157c49	0.00912387
59	0xbc30a21e	-0.010780839
60	0x3e9ae9ff	0.3025665
61	0x3bc68160	0.006057903
62	0xbe492fb1	-0.19647099
63	0x3d8de5d8	0.06928605
64	0xbcee92b5	-0.02912269
65	0xbd3616d2	-0.044455357
66	0x3c8830ae	0.016624775
67	0xbdcea9b8	-0.10090965
68	0x3e8ad69f	0.27116868
69	0xb83eff26	-4.5537156e-05
70	0x3cbfc4c3	0.023409253
71	0x3dbf516f	0.09341704
72	0xbe92b277	-0.28651783
73	0x3c78a0eb	0.015175085
74	0x39a854c6	0.00032106618
75	0xbdf8c937	-0.12147754
76	0xbe17a232	-0.14807966
77	0xbe44060e	-0.19142935
78	0x3e4042d0	0.18775487
79	0x3e0eed37	0.13957678
80	0xbdeb7224	-0.1149638
81	0x3d2a321d	0.041551698
82	0xbe4f925d	-0.20270677
83	0xbc96f16d	-0.018425668
84	0xbe8473b0	-0.25869513
85	0xbd42ed39	-0.047589514
86	0x3e46cdfc	0.19414514
87	0xbe145004	-0.14483649
88	0x3d059198	0.032609552
89	0x3d9d9423	0.076942705
90	0xbe0a4af5	-0.13505156
91	0xbd032f7a	-0.0320277
92	0x3db599aa	0.088672
93	0xbd29f741	-0.041495565
94	0xbdec072f	-0.11524808
95	0x3dde9f06	0.10870175
96	0x3da51f15	0.08062569
97	0xbe4c2f35	-0.19939883
98	0xbe2f1f79	-0.1710185
99	0xbd6b278b	-0.057410758
100	0xbc8bd1fd	-0.017067904
101	0xbdef910f	-0.116975896
102	0xbd8a70c9	-0.06759793
103	0x3e023bb0	0.12718081
104	0xbd02464b	-0.031805318
105	0xbe8c4c53	-0.2740198
106	0x3e2d6b44	0.1693545
107	0xbdd045a4	-0.10169533
108	0xbd219ea6	-0.03945794
109	0xbd16d771	-0.036826555
110	0xbca48801	-0.020084383
111	0xbd9070d7	-0.070527725
112	0x3d450b5e	0.048106544
113	0x3e3d2f3c	0.1847505
114	0xbed96a0f	-0.4246373
115	0xbd011844	-0.031517282
116	0x3e061067	0.13092194
117	0xbdf3d824	-0.1190646
118	0xbde58835	-0.1120762
119	0xbe06143d	-0.13093658
120	0xbc1c9ef0	-0.009559378
121	0x3e622897	0.22085796
122	0xbe81c0d9	-0.25342444
123	0xbdfd8c98	-0.12380332
124	0xbde8871e	-0.113538966
125	0x3d37238f	0.044711646
126	0x3e337a7f	0.17527197
127	0xbe34fb55	-0.17674
128	0xbe1314a4	-0.14363343
129	0x3be9fa0e	0.0071404045
130	0x3c929271	0.017892094
131	0xbd578f8c	-0.05262713
132	0xbdf296a4	-0.11845139
133	0x3e1d8a02	0.15384677
134	0xbeac596f	-0.33661982
135	0x3ba01d12	0.004886278
136	0x3cbb5632	0.02286825
137	0xbdcf9079	-0.10134978
138	0x3db77cb3	0.08959331
139	0x3e14faea	0.14548841
140	0xbd3385bf	-0.043828722
141	0x3e36bda4	0.1784578
142	0xbdbcdde5	-0.092220105
143	0xbe7fa9e7	-0.24967156
144	0xbe3c49cc	-0.18387526
145	0x3d04672a	0.032324947
146	0x3d987700	0.074445724
147	0xbd80cdad	-0.062892295
148	0x3d85ead3	0.0653893
149	0xbe34d927	-0.17660962
150	0xb9a6c60b	-0.0003180954
151	0xbec2885a	-0.37994653
152	0xbe5c51a3	-0.21515517
153	0xbc88477d	-0.01663565
154	0xbd117e40	-0.035520792
155	0xbd900932	-0.07033004
156	0x3de90559	0.11377973
157	0x3e50a37e	0.20374867
158	0xbccd4d3c	-0.025061242
159	0x3ec61176	0.38685197
160	0xbe89d4f9	-0.26920298
161	0xbe2d7eb1	-0.1694286
162	0xbeb52e31	-0.35386804
163	0x3e2866eb	0.1644551
164	0x3d3ac732	0.045600124
165	0xbe9bf58e	-0.3046078
166	0xbdc385d3	-0.09547009
167	0xbe408700	-0.18801498
168	0x3deeef21	0.11666704
169	0xbdb20bb7	-0.08693641
170	0xbeacb3e3	-0.33730993
171	0xbe5d5bc4	-0.21617037
172	0x3e12684a	0.14297596
173	0xbe4d0ae0	-0.2002368
174	0xbe146eb2	-0.14495352
175	0xbde8f7ca	-0.11375387
176	0x3c31d11a	0.010853076
177	0xbe8b6266	-0.2722351
178	0x3dce31e2	0.10068108
179	0xbe4c799f	-0.1996827
180	0xbe918a7c	-0.28425968
181	0x3dd4904c	0.10379085
182	0xbd26b95d	-0.04070412
183	0x3c73b4be	0.014874635
184	0x3e493d39	0.19652261
185	0x3df335cd	0.11875496
186	0xbd5d71e4	-0.054063693
187	0x3e4f236f	0.2022836
188	0xbeddfb80	-0.43355942
189	0x3e040cf8	0.12895572
190	0xbe9c1f91	-0.30492833
191	0xbd1b1cef	-0.03786939
192	0x3d98a709	0.074537344
193	0x3db5a43d	0.088692166
194	0xbec00ddf	-0.37510583
195	0xbe456938	-0.19278419
196	0xbd09a145	-0.033601064
197	0xbe3a6c07	-0.18205272
198	0xbe62c0d2	-0.22143868
199	0xbd6aaa00	-0.05729103
200	0x3e24a4f5	0.16078551
201	0xbdd81919	-0.10551662
202	0x3f11478d	0.567498
203	0xbe74dd51	-0.2391255
204	0x3ddc4146	0.107546374
205	0xbd262c6d	-0.04056971
206	0xbe6095db	-0.21932165
207	0xbf1a73d1	-0.6033297
208	0x3d04dea4	0.03243889
209	0x3ea249c6	0.3169691
210	0x3e03f9bf	0.1288824
211	0xbdbf92bb	-0.093541585
212	0x3dc24c22	0.094871774
213	0xbf0bc8fc	-0.5460355
214	0xbe55ee93	-0.2089179
215	0xbd43fef9	-0.047850583
216	0xbe18da71	-0.14927079
217	0xbe89fa53	-0.26948795
218	0x3c6d0594	0.014466662
219	0x3d887533	0.06662979
220	0xbdbf6b37	-0.093466215
221	0x3ccff693	0.02538613
222	0xbda2fe51	-0.07958663
223	0xbe0f6ef3	-0.14007168
224	0xbe0a21df	-0.13489483
225	0x3c2b35c8	0.010449834
226	0x3e735790	0.23763871
227	0xbdfc7913	-0.123277806
228	0xbd90dbf2	-0.07073201
229	0xbe9aa003	-0.30200204
230	0xbdb17f21	-0.08666826
231	0xbe38e4a7	-0.18055974
232	0x3e3c8847	0.1841136
233	0xbe07e903	-0.1327248
234	0x3de6fee6	0.11279087
235	0xbc7faa9e	-0.015604643
236	0xbe356988	-0.17716038
237	0xbdd56f43	-0.10421612
238	0x3e3ffa67	0.18747865
239	0xbd2caeb6	-0.042158805
240	0xbed777c1	-0.42083552
241	0xbf096fc8	-0.5368619
242	0xbe76c0f1	-0.24097039
243	0x3de7fd6d	0.11327634
244	0xbe05b978	-0.13059032
245	0xbd985bc6	-0.074393794
246	0xbdaa72d0	-0.0832268
247	0xbd989133	-0.074495696
248	0xbbe1ea08	-0.006894354
249	0xbeaa0561	-0.3320723
250	0x3e8bb779	0.27288416
251	0x3e0bfeaa	0.13671365
252	0xbd3562b3	-0.04428358
253	0xbd5306ea	-0.051520266
254	0xbd9115d5	-0.07084242
255	0xbe821eeb	-0.25414214

a2c_network.actor_mlp.2.bias f4 [64]
0	0xbe3312d3	-0.1748765
1	0x3d917cb4	0.07103863
2	0xbe502cd0	-0.20329595
3	0x3db324f6	0.08747284
4	0xbda58f1b	-0.08083936
5	0xbec6dcdd	-0.3884038
6	0xbdf1838e	-0.1179267
7	0xbefb13ca	-0.49038535
8	0xbe72fd08	-0.23729336
9	0x3d0d5aed	0.03451054
10	0xbdd2d7ba	-0.10295053
11	0xbeafa8f7	-0.34308597
12	0xbea17e04	-0.31541455
13	0xbe6f6853	-0.2337964
14	0xbe9a3cb8	-0.3012445
15	0xbe37b73c	-0.17940992
16	0xbe1add43	-0.15123467
17	0x3defc6e1	0.11707855
18	0x3dfaa6c0	0.12238836
19	0x3e4f3b5d	0.20237489
20	0xbe77a6f8	-0.24184787
21	0xbd8ed61c	-0.06974432
22	0xbf6127db	-0.8795144
23	0xbf168294	-0.58792996
24	0xbe04b594	-0.12959892
25	0x3d3ea453	0.04654343
26	0x3db45a12	0.08806242
27	0xbe809e0e	-0.25120586
28	0xbd34e91e	-0.04416763
29	0x3f0227b6	0.50841844
30	0xbeb0a116	-0.344979
31	0x3d249c72	0.04018826
32	0xbe5732db	-0.21015494
33	0xbec20538	-0.37894607
34	0x3cafca7e	0.02145886
35	0x3e42f0ff	0.19037245
36	0xbf2efad5	-0.6835149
37	0xbeaf7221	-0.3426676
38	0x3e1ffb58	0.15623224
39	0xbef446e3	-0.47710332
40	0xbe6803ba	-0.22657672
41	0x3c48d63a	0.012258107
42	0xbea97aac	-0.33101404
43	0xbe98fb56	-0.29879254
44	0xbe509444	-0.20369059
45	0xbd74af75	-0.05973764
46	0xbe043af2	-0.12913111
47	0xbef48bc3	-0.4776288
48	0xbd19e751	-0.037574116
49	0x3d5b19d7	0.05349144
50	0xbe89a87e	-0.26886362
51	0x3d15d698	0.036581606
52	0xbeb4f954	-0.35346472
53	0xbf2842b9	-0.6572681
54	0xbf2fcf2b	-0.6867549
55	0xbe67e8f5	-0.2264746
56	0xbf686f24	-0.9079459
57	0xbe64daf6	-0.22349152
58	0xbe93b58d	-0.2884945
59	0xbe80f5ea	-0.25187618
60	0xbe5ecf91	-0.21758868
61	0xbd97cf27	-0.07412558
62	0xbe87761a	-0.26457292
63	0xbdd5bd2c	-0.10436472

a2c_network.actor_mlp.4.weight f4 [32, 64]
0	0xbeea5c54	-0.45773566
1	0x3b8452fb	0.0040382124
2	0x3e09056f	0.13380979
3	0x3dd7fd53	0.10546365
4	0xbea054ff	-0.31314847
5	0x3dfc7373	0.12326708
6	0x3e344ac9	0.17606653
7	0xbda2b32a	-0.07944329
8	0x3d8f92a1	0.07010389
9	0xbc14a156	-0.009071669
10	0xbec2db99	-0.38058165
11	0xbe22259c	-0.1583466
12	0x3da57ce9	0.08080465
13	0x3d8f9c70	0.0701226
14	0x3e85056a	0.25980693
15	0x3d533952	0.051568337
16	0xbe9fe70a	-0.31230956
17	0x3de67423	0.1125262
18	0xba1bca76	-0.000594295
19	0x3cbc4618	0.022982642
20	0xbdb1910a	-0.08670242
21	0xbe6e941b	-0.23298685
22	0x3e03b82e	0.12863228
23	0xbe1d3a59	-0.15354289
24	0xbe105114	-0.14093429
25	0xbe0d6dcb	-0.13811414
26	0x3e0b0b0d	0.13578434
27	0xbea2a266	-0.31764525
28	0xbe6fb6ce	-0.23409578
29	0xbe0caac0	-0.13737011
30	0xbe5355bd	-0.20638175
31	0x3d70dafb	0.058802586
32	0xbdc925d0	-0.09821665
33	0x3e057a2b	0.13034885
34	0xbe34e1ab	-0.1766421
35	0x3d32e2f5	0.043673474
36	0xbea6cb17	-0.3257682
37	0xbf148263	-0.58011454
38	0xbd2bd99a	-0.041955568
39	0x3dd932e4	0.1060541
40	0x3d8fc77e	0.07020472
41	0xbc3a6d15	-0.011378546
42	0x3d978421	0.073982485
43	0xbdae36bc	-0.085065335
44	0x3e3021e3	0.17200427
45	0xbee72677	-0.45146534
46	0x3d068cfc	0.032849297
47	0x3e31320f	0.17304252
48	0xbd3ef09e	-0.04661619
49	0xbd1e36f1	-0.038626615
50	0x3cc80a98	0.024419114
51	0xbd92ccce	-0.0716797
52	0x3cf15663	0.029460138
53	0xbe7c5f7b	-0.24645798
54	0x3b1c08ff	0.0023809073
55	0xbe40eb1a	-0.18839684
56	0x3e1b9665	0.1519409
57	0xbe0ae939	-0.1356553
58	0xbea841e6	-0.32862777
59	0x3ea901cf	0.33009192
60	0xbd86dad3	-0.06584706
61	0xbce05d72	-0.027388308
62	0xbea376e4	-0.31926644
63	0x3daf4a7e	0.0855913
64	0xbd2827f3	-0.041053724
65	0xbceaf571	-0.028681489
66	0xbe767216	-0.24066958
67	0xbd70f78a	-0.05882982
68	0xbe0820e9	-0.13293804
69	0xbcd99957	-0.026562376
70	0xbe51294e	-0.20425913
71	0xbe865381	-0.26235583
72	0xbd7361e4	-0.059419528
73	0xbddb29db	-0.10701343
74	0x3e18bbb8	0.14915359
75	0x3e50e592	0.20400074
76	0xbd0291b8	-0.03187725
77	0x3dd5ac97	0.104333095
78	0xbcfeca12	-0.031102214
79	0x3e9ccbee	0.30624336
80	0xbe270ce4	-0.16313511
81	0x3d848342	0.06470348
82	0xbcd0cdfc	-0.025488846
83	0xbeb22f7c	-0.34801853
84	0xbd852dee	-0.06502901
85	0x3d98ae1b	0.07455083
86	0xbec49214	-0.383927
87	0x3dd123f0	0.10211933
88	0xbb0767c0	-0.0020661205
89	0x3e934aec	0.28768098
90	0x3e735522	0.23762944
91	0xbd254049	-0.04034451
92	0xbe31f5ee	-0.17378971
93	0xbe36caeb	-0.17850845
94	0x3cdf2d85	0.027243385
95	0x3e10acaa	0.14128366
96	0xbb287452	-0.0025704098
97	0x3cce493f	0.02518141
98	0xbe21c8be	-0.15799233
99	0xbd8ba7df	-0.06819128
100	0x3e160ec6	0.14654073
101	0xbd82fda7	-0.063960366
102	0xbe025d26	-0.12730846
103	0x3d99054d	0.07471714
104	0xbdd82df5	-0.105556406
105	0x3e059148	0.13043702
106	0x3d9436c8	0.07237011
107	0x3d6830f4	0.05668731
108	0xbe139133	-0.14410858
109	0xbe327557	-0.17427574
110	0xbc9403ba	-0.018068183
111	0x3c6bead2	0.014399247
112	0xbdcbf9ee	-0.0995978
113	0xbd50f4a1	-0.051014546
114	0xbe33bd71	-0.17552735
115	0xbe9f9daf	-0.3117499
116	0xbd2b86b2	-0.041876502
117	0x3dceb679	0.10093398
118	0x3e2db9b5	0.16965373
119	0xbce20036	-0.027587991
120	0xbe8f56f7	-0.27996036
121	0xbe44c987	-0.19217502
122	0x3d87f218	0.066379726
123	0xbe35492d	-0.17703696
124	0xbe706eea	-0.2347981
125	0xbe4885a2	-0.19582227
126	0x3da59ab3	0.08086147
127	0x3dbaf151	0.09128059
128	0xbd33ca6a	-0.04389421
129	0x3d8fdeb9	0.07024903
130	0xbdd295ab	-0.10282453
131	0x3e873615	0.2640845
132	0x3e025abd	0.12729926
133	0xbd6e6a2e	-0.05820673
134	0xbd85e1b0	-0.06537187
135	0xbdf938bb	-0.121690236
136	0xbe6f4403	-0.23365788
137	0x3e87a57b	0.2649344
138	0xbd8abcbe	-0.06774281
139	0xbc569e03	-0.013099196
140	0x3d9dcfa2	0.077056184
141	0x3d67abf8	0.056560487
142	0x3ca1d019	0.019752549
143	0xbe036cbd	-0.12834449
144	0x3da0a2fb	0.07843586
145	0xbab8192f	-0.0014045591
146	0xbd907ea3	-0.07055404
147	0x3ce4caa5	0.02792866
148	0x3cdc45f5	0.026888827
149	0x3e7f6765	0.24941786
150	0xbe0394eb	-0.12849776
151	0xbd900674	-0.07032481
152	0x3e90baf0	0.28267622
153	0x3b16e38d	0.0023023814
154	0x3e17a123	0.14807563
155	0xbeb438a9	-0.35199478
156	0xbdd597b2	-0.10429324
157	0xbd31776b	-0.043326776
158	0xbe30f210	-0.1727984
159	0xbbf23425	-0.00739147
160	0xbed28587	-0.41117498
161	0xbd022a41	-0.031778578
162	0xbc68197f	-0.014166235
163	0xbde06071	-0.10955895
164	0xbdbaa62a	-0.091137245
165	0xbc3f2511	-0.011666552
166	0x3d2760f0	0.04086393
167	0x3de1a11b	0.110170566
168	0xbdb2bddb	-0.08727618
169	0x3d41a194	0.047273234
170	0xbea76cb5	-0.32700124
171	0xbcb4b005	-0.022056589
172	0xbe3724fa	-0.17885199
173	0x3e8e53f6	0.27798432
174	0xbdd02860	-0.10163951
175	0x3d2d8d3a	0.042371012
176	0x3e0c7fe0	0.13720655
177	0xbd8cd598	-0.06876677
178	0xbd39d9d9	-0.04537377
179	0x3c0ba8b0	0.008524105
180	0xbed11649	-0.40837315
181	0xbda2b158	-0.07943982
182	0xbd353320	-0.04423821
183	0xbbe65edd	-0.0070303516
184	0xbd811774	-0.063033015
185	0xbe69d133	-0.2283371
186	0xbe0e4ddc	-0.13896888
187	0xbdf1e006	-0.11810307
188	0xbda4d766	-0.080488965
189	0x3ebd377d	0.36956397
190	0x3d6cf694	0.057852343
191	0xbe70949c	-0.2349419
192	0x3bb4f231	0.0055220355
193	0xbc5ab181	-0.013347984
194	0xbd4637ff	-0.048393246
195	0x3cbef77f	0.023311375
196	0x3dcc7f01	0.099851616
197	0xbe18595c	-0.14877838
198	0xbeab3bbb	-0.33444008
199	0xbe480fd9	-0.19537295
200	0x3e9f6a5d	0.31135836
201	0xbce13e5e	-0.02749556
202	0x3dfd235a	0.123602584
203	0xbeb055d3	-0.3444048
204	0xbf0d7f08	-0.5527196
205	0x3e9b3753	0.30315647
206	0xbd9ac3f3	-0.075569056
207	0xbd7ec382	-0.06219817
208	0x3eb2ec9d	0.34946147
209	0x3e85f561	0.26163772
210	0xbe568476	-0.20948967
211	0x3da09aae	0.07842003
212	0xbe37161d	-0.1787953
213	0xbe079576	-0.13240609
214	0xbd3341e8	-0.043764025
215	0xbe9a9b0a	-0.3019641
216	0x3eb01d3d	0.34397307
217	0xbe75349a	-0.23945847
218	0x3deecb64	0.116598874
219	0x3e334a8e	0.17508909
220	0xbd92cbf7	-0.071678095
221	0xbd265adb	-0.04061399
222	0xbd76b6e3	-0.060233008
223	0x3db856e3	0.09000947
224	0xbdff33ef	-0.124610774
225	0x3ee7fa88	0.45308328
226	0xbeb48a05	-0.3526155
227	0xbe2e4c1a	-0.17021218
228	0xbed1b0e7	-0.40955278
229	0xbe6aa97a	-0.22916213
230	0x3e88f359	0.2674816
231	0x3cc39802	0.023876194
232	0x3e5ad177	0.21368967
233	0x3d2e9897	0.04262599
234	0x3c2441d5	0.010025461
235	0xbbc43a9d	-0.0059884326
236	0x3e8887d5	0.26666132
237	0x3e7cfd72	0.24706057
238	0xbe6b6ea0	-0.22991419
239	0x3dc1d1b9	0.094638295
240	0x3b9cb2c3	0.0047820522
241	0xbe9c3e74	-0.30516398
242	0xbdeb6958	-0.11494702
243	0xbe86a4c0	-0.2629757
244	0x3f36004b	0.710942
245	0x3c113922	0.008863719
246	0xbec30281	-0.38087848
247	0xbe836701	-0.25664523
248	0x3d98b266	0.07455902
249	0x3e66734f	0.22504924
250	0xbdae7120	-0.08517671
251	0x3f1129e1	0.5670453
252	0xbe8323f3	-0.25613365
253	0x3e154c7e	0.1457996
254	0x3eb2c1b0	0.34913397
255	0x3e0c5ce0	0.13707304

a2c_network.actor_mlp.4.bias f4 [32]
0	0x3e09d736	0.13461003
1	0xbe16bc11	-0.14720179
2	0xbe1ddd24	-0.1541639
3	0xbea4630d	-0.3210682
4	0xbe92baae	-0.2865805
5	0xbe8e865b	-0.2783688
6	0x3d85a782	0.0652609
7	0xbe0ba3d7	-0.13636719
8	0xbd187cf7	-0.03722855
9	0xbea680a4	-0.3252002
10	0x3ae80623	0.0017702024
11	0xbe8cab88	-0.27474618
12	0xbdf93c92	-0.12169756
13	0x3dfc5131	0.123201735
14	0xbe3d0187	-0.18457614
15	0x3e124393	0.1428359
16	0x3e4e8501	0.20167924
17	0xbe144a37	-0.14481436
18	0x3e137fa9	0.14404167
19	0xbe7cff85	-0.24706848
20	0xbe0a75eb	-0.13521545
21	0xbe48391c	-0.19553035
22	0xb98c48b6	-0.00026757055
23	0x3cf64182	0.030060533
24	0xbe7fc4fb	-0.24977486
25	0xbe5e3c24	-0.2170263
26	0xbe989640	-0.29802132
27	0xbe9eaf46	-0.30993098
28	0x3e112881	0.14175607
29	0xbcf63401	-0.030054094
30	0xbde129e5	-0.10994319
31	0xbe34abe0	-0.1764369

a2c_network.value.weight f4 [1, 32]
0	0xbb1973f1	-0.0023415054
1	0xbda168e7	-0.07881337
2	0x3c8fa9ce	0.017537024
3	0x3c10bc5f	0.008833974
4	0x3f0e6dbf	0.5563621
5	0x3b551f5c	0.0032519912
6	0x3dfc2c6c	0.1231316
7	0x3c5eb6d6	0.013593396
8	0xbda9ac16	-0.08284776
9	0x3c79e28a	0.015251765
10	0x3c82e538	0.01597844
11	0x3c997e2c	0.018736921
12	0x3bd0405b	0.006355328
13	0x3e8132aa	0.25233966
14	0x3bc6f3dd	0.0060715512
15	0xbc07ab3d	-0.0082805725
16	0xbdb0ca9e	-0.08632396
17	0xbdf94c26	-0.12172727
18	0xbca5996b	-0.020214757
19	0xbd3b47a7	-0.04572263
20	0x3c926874	0.017872073
21	0xbe30f0af	-0.17279314
22	0x3cf8f65a	0.030390907
23	0x3b5097c8	0.003182875
24	0x3c013db6	0.007888248
25	0x3dad42e7	0.08460026
26	0x3c134a90	0.008989945
27	0xbd5fb5de	-0.0546168
28	0xbbef72f6	-0.0073074056
29	0x3cbc7c2e	0.023008432
30	0xbd251e9b	-0.04031239
31	0xbd9f52b5	-0.07779447

a2c_network.mu.weight f4 [3, 32]
0	0xbd0fc396	-0.035098635
1	0x3af1d5b8	0.0018450534
2	0x3c2c7813	0.010526675
3	0xbbfd121f	-0.0077231075
4	0x3ca0db20	0.019635737
5	0x3dd63741	0.104597576
6	0xbcf5b785	-0.029994735
7	0xbd1be32c	-0.038058445
8	0xbd0128ff	-0.031533238
9	0xbd314ed6	-0.043288074
10	0x3cf70add	0.030156547
11	0x3b8c468d	0.0042808712
12	0x3d04d88e	0.032433085
13	0x3d871730	0.065962195
14	0xbd3edc45	-0.046596784
15	0x3d8a1e99	0.06744117
16	0xbb246dbf	-0.0025089828
17	0xbc5cd849	-0.013479301
18	0xbe2c8447	-0.16847335
19	0x3c94f554	0.018183388
20	0xbd47591b	-0.048668962
21	0x3d49049d	0.049076665
22	0xbd8aca54	-0.06776872
23	0x3dd89b2b	0.10576471
24	0xbb8f4801	-0.004372597
25	0xbc1f8c44	-0.009738032
26	0x3e0cf08f	0.13763641
27	0xbdd9ccbe	-0.106347546
28	0x3d9942e2	0.0748346
29	0x3d328659	0.043585155
30	0x3d134a43	0.035959493
31	0x3bdab19e	0.0066740056
32	0x3d02a229	0.03189293
33	0xbd628cb0	-0.05530995
34	0xbdf9f3d9	-0.122047134
35	0xbe0321d5	-0.12805875
36	0x3b0bfbb9	0.0021359755
37	0xbe14651a	-0.14491692
38	0xbdaf3ab8	-0.085561216
39	0xba5eab2b	-0.0008494134
40	0xbd113a12	-0.03545577
41	0x3dcfa45d	0.10138772
42	0x3de534f9	0.11191744
43	0xbe154c02	-0.14579776
44	0x3db9b267	0.09067231
45	0x3dfbadff	0.122890465
46	0xbdb1eec6	-0.086881205
47	0xbda2d9a6	-0.079516694
48	0xbb8cf85e	-0.0043020686
49	0xbc8d0ad7	-0.017217083
50	0x3ba7eacc	0.0051244255
51	0x3ddecc3d	0.10878799
52	0xbd9d9a0d	-0.076953985
53	0x3c66d5e7	0.014089084
54	0x3cd5eea9	0.026114779
55	0x3c667023	0.014064821
56	0x3db08365	0.086188115
57	0x3c79635f	0.015221446
58	0xbd91e66d	-0.07124028
59	0x3c49afb1	0.0123099545
60	0xbd95ad5d	-0.07308457
61	0xbbc9c892	-0.006157943
62	0x3d637ff6	0.055541955
63	0x3d08bb61	0.033381823
64	0xbe49cee2	-0.19707826
65	0x3bf736f1	0.0075443913
66	0x3c8dd804	0.017314918
67	0xbbb2f157	-0.005460899
68	0xbcca3963	-0.024685567
69	0x3d86d69f	0.065839045
70	0x3dac3dba	0.08410211
71	0xbd511e92	-0.051054545
72	0xbce5f609	-0.02807142
73	0x3d099fa9	0.03359953
74	0x3d2c8a86	0.042124294
75	0xbd9ffdc2	-0.07812072
76	0xbe6a7f7a	-0.22900191
77	0xbcefce2e	-0.029273119
78	0xbd4824ea	-0.04886333
79	0x3bf8243f	0.0075726802
80	0xbcb5e88a	-0.02220561
81	0xbcc7c0e3	-0.024383968
82	0x3da1e3bd	0.07904766
83	0xbc620e1b	-0.013797308
84	0xbd4dc042	-0.05023218
85	0x3c9a4519	0.018831776
86	0x3daa4340	0.08313608
87	0xbce1d471	-0.02756712
88	0xbe0e4729	-0.13894333
89	0x3ce59c11	0.02802852
90	0xbdfe5ccc	-0.12420043
91	0x3d7d8989	0.061898742
92	0x3e326875	0.1742266
93	0x3d1dfbed	0.038570333
94	0xba9b32de	-0.0011840721
95	0x3db2a78b	0.087233625

a2c_network.mu.bias f4 [3]
0	0xbc2f1012	-0.010684984
1	0xbd16b455	-0.03679307
2	0x3dcd17b4	0.10014287

exp_avg f4 [3]
0	0xbaaa95b9	-0.0013014592
1	0xb9271d8e	-0.00015937371
2	0x3a3fffd8	0.00073241955

exp_avg_sq f4 [3]
0	0x39055a52	0.00012717515
1	0x39117827	0.00013873038
2	0x392287c2	0.00015500098

exp_avg f4 [128, 24]
0	0x39c2557b	0.0003706625
1	0x39c624b5	0.00037792852
2	0xb80a424c	-3.2963508e-05
3	0x39c8d9dc	0.0003830929
4	0x386d8ac7	5.663445e-05
5	0x39cbbb2c	0.0003885863
6	0xb9b7338f	-0.00034942894
7	0xb8ec0992	-0.000112551395
8	0x3987cdff	0.00025902686
9	0x394a4692	0.0001929051
10	0x37d828ef	2.5768268e-05
11	0xb92ae2f2	-0.00016297007
12	0x3a8eba68	0.0010889294
13	0x3a8eba68	0.0010889294
14	0x3a8eba68	0.0010889294
15	0xba12c05b	-0.0005598121
16	0xb9b6b8e5	-0.00034851502
17	0x395b3159	0.00020903851
18	0x39cbfef6	0.00038909138
19	0xb841956f	-4.6153957e-05
20	0xb84195d1	-4.6154313e-05
21	0xbaaab42f	-0.001302367
22	0x3acc4dce	0.0015587152
23	0xb962db01	-0.00021634625
24	0xb819a232	-3.66291e-05
25	0x38dcaf2c	0.00010523046
26	0xba0f8dac	-0.0005476128
27	0xb9250eaf	-0.00015741096
28	0x3a4a182f	0.0007709292
29	0xb945b4a2	-0.00018854675
30	0xb8c340fd	-9.3104296e-05
31	0x397dbd8b	0.0002419857
32	0x39b80993	0.00035102348
33	0xb8ad975a	-8.277474e-05
34	0x3a025d9c	0.00049730553
35	0xb9c13466	-0.00036850868
36	0x3961b91f	0.00021526635
37	0x3961b91f	0.00021526635
38	0x3961b91f	0.00021526635
39	0xb95c8b49	-0.00021032723
40	0x39888616	0.00026039843
41	0xb9aab094	-0.00032556488
42	0xb94b5ae6	-0.00019393451
43	0x3a076c24	0.00051659555
44	0x3a076c21	0.0005165954
45	0xba139f17	-0.0005631311
46	0x3a1a8289	0.0005894085
47	0xb7853649	-1.5880114e-05
48	0x391bdaa0	0.00014863396
49	0xb8d956a5	-0.00010363505
50	0xb94ba6ad	-0.0001942168
51	0x39736fcf	0.00023215938
52	0xb95a8a7c	-0.0002084169
53	0xb8645259	-5.443613e-05
54	0x37d17642	2.496981e-05
55	0xb8b2f8e5	-8.5340616e-05
56	0xb8ffbf41	-0.00012194971
57	0x3a079544	0.00051720836
58	0xba09f908	-0.0005263244
59	0x3a036d41	0.00050135335
60	0x38b0ba9b	8.427092e-05
61	0x38b0ba9b	8.427092e-05
62	0x38b0ba9b	8.427092e-05
63	0xba150094	-0.0005683985
64	0xb9826e95	-0.00024877922
65	0x392389c6	0.00015596216
66	0x396e1b25	0.00022707561
67	0xb928dbef	-0.0001610366
68	0xb928dbed	-0.00016103657
69	0xb9324c47	-0.00017003818
70	0x39758f0b	0.00023418308
71	0x38e5fbde	0.00010966485
72	0xb8585639	-5.1578714e-05
73	0x37edb87b	2.8338507e-05
74	0x39168b3f	0.00014356988
75	0xb97cfcdb	-0.00024126789
76	0x39820313	0.00024797823
77	0x391e383e	0.00015089006
78	0xb984b257	-0.00025309875
79	0xb8de29df	-0.00010593584
80	0x3910d5a6	0.000138125
81	0x383efafb	4.5533274e-05
82	0xb8af6639	-8.363691e-05
83	0xb82baca0	-4.0930347e-05
84	0x39982ea8	0.0002902646
85	0x39982ea8	0.0002902646
86	0x39982ea8	0.0002902646
87	0xb883e418	-6.2890525e-05
88	0xb90ff208	-0.00013727706
89	0x391b05cd	0.00014784113
90	0x39050d87	0.00012688908
91	0xb92e93c5	-0.00016648982
92	0xb92e93c2	-0.00016648977
93	0xb98dffe3	-0.00027084266
94	0x39e5daf5	0.0004384142
95	0xb9319879	-0.00016936836
96	0x3937adf0	0.00017517037
97	0xb88bbd0f	-6.6632514e-05
98	0xb880cf90	-6.142177e-05
99	0x38ee710a	0.000113697795
100	0xb908bc92	-0.00013040219
101	0x38a624e5	7.922369e-05
102	0x37bd601d	2.2575312e-05
103	0x3929f509	0.00016208379
104	0xb9a2f6f9	-0.00031083057
105	0x3a1af5cd	0.0005911261
106	0xba00539d	-0.0004895272
107	0x3a25a2ab	0.000631849
108	0x3a159f84	0.00057076686
109	0x3a159f84	0.00057076686
110	0x3a159f84	0.00057076686
111	0xba39100a	-0.000705958
112	0xba1485de	-0.00056657
113	0x39f82bfd	0.0004733502
114	0x3a13fd57	0.00056453556
115	0xb9dc2b3c	-0.00041993882
116	0xb9dc2b3f	-0.0004199389
117	0xba1101de	-0.0005531589
118	0x3a4f506f	0.0007908409
119	0xb85e387d	-5.2981533e-05
120	0x38c7970e	9.5171956e-05
121	0xb9c24f38	-0.00037061586
122	0xb9be79c9	-0.0003633036
123	0xb9c852fe	-0.00038208807
124	0xb946c083	-0.00018954468
125	0xb9e7fd4a	-0.00044248468
126	0x38d68ab7	0.00010230153
127	0x39878846	0.00025850738
128	0xb8e62526	-0.00010974174
129	0xb8db6c2b	-0.000104628816
130	0x399a1f13	0.0002939632
131	0xb8bbb6c3	-8.950897e-05
132	0x39392b2a	0.00017659055
133	0x39392b2a	0.00017659055
134	0x39392b2a	0.00017659055
135	0x38cf9c57	9.89965e-05
136	0x3a09d924	0.0005258492
137	0xba07dd2d	-0.0005182799
138	0xb9fe61a7	-0.00048519412
139	0x3a24f585	0.0006292689
140	0x3a24f584	0.0006292688
141	0x38d74baf	0.00010266096
142	0xb7fb8f3d	-2.9988232e-05
143	0xb95870c9	-0.00020641381
144	0xb9def3d4	-0.00042524806
145	0xb99c281a	-0.00029784517
146	0xb87d8b53	-6.0449656e-05
147	0xba234bce	-0.00062292523
148	0x36ac1d39	5.1294014e-06
149	0xb9141b69	-0.00014124591
150	0xb9a3574b	-0.0003115482
151	0x39a2a88d	0.00031024628
152	0xb83a8806	-4.4472537e-05
153	0xb9ddbbef	-0.00042292426
154	0x394d6e85	0.00019591495
155	0xb8be476e	-9.073211e-05
156	0xb99e52a5	-0.00030197683
157	0xb99e52a5	-0.00030197683
158	0xb99e52a5	-0.00030197683
159	0x3a10ff7b	0.00055312336
160	0x39c4f647	0.00037567524
161	0xb9885470	-0.00026002852
162	0xb9d5262d	-0.0004065497
163	0x3902fad3	0.00012491205
164	0x3902fad3	0.00012491205
165	0x3a2c7bc3	0.0006579721
166	0xba389c70	-0.0007042354
167	0xb923a425	-0.0001560604
168	0xb50acc72	-5.1706513e-07
169	0x3893d6b4	7.049498e-05
170	0xb76928c2	-1.3897372e-05
171	0x3960755a	0.00021406022
172	0xb8b0c10e	-8.428293e-05
173	0x37b89b5e	2.2006858e-05
174	0xb9593d01	-0.00020717458
175	0xb991c8dc	-0.00027806207
176	0xb8c5c83e	-9.43099e-05
177	0x393b7dc3	0.0001788056
178	0xb9334b1b	-0.00017098749
179	0x374d1675	1.2224181e-05
180	0x36dce714	6.583412e-06
181	0x36dce714	6.583412e-06
182	0x36dce714	6.583412e-06
183	0xb93d7e43	-0.00018071481
184	0xb9695736	-0.000222531
185	0x3952cdd5	0.00020103839
186	0x396775b9	0.00022073732
187	0xb9513d8f	-0.00019954726
188	0xb9513d91	-0.00019954728
189	0xb855c1be	-5.0963594e-05
190	0x38978aae	7.226072e-05
191	0x38c15b06	9.2199116e-05
192	0xb946a0eb	-0.00018942698
193	0xb887778a	-6.4595675e-05
194	0xb7c734f2	-2.3747303e-05
195	0xb8af0133	-8.344874e-05
196	0xb8c67b00	-9.464286e-05
197	0xb88b5247	-6.643362e-05
198	0xb908863d	-0.00013019978
199	0x38fa3bf3	0.000119320954
200	0xb90ca038	-0.00013411127
201	0xb8934348	-7.022038e-05
202	0xb78328e8	-1.5635465e-05
203	0xb896fe34	-7.1999064e-05
204	0xb90f7b6b	-0.0001368352
205	0xb90f7b6b	-0.0001368352
206	0xb90f7b6b	-0.0001368352
207	0xb7b09e26	-2.1054479e-05
208	0x38ccc1cd	9.763576e-05
209	0xb8b12a45	-8.447891e-05
210	0xb8d2c50c	-0.00010050283
211	0x386b7313	5.6135537e-05
212	0x386b7311	5.613553e-05
213	0x394bdeb9	0.0001944256
214	0xb94376e9	-0.00018640947
215	0xb6dcdde4	-6.5823424e-06
216	0xb83fbffd	-4.571675e-05
217	0xb908e939	-0.00013056853
218	0x3914703f	0.00014156195
219	0xb9a7f42b	-0.00032034641
220	0x392e22b9	0.00016606868
221	0xb8b3d1ff	-8.5745e-05
222	0x390132c9	0.00012321318
223	0x39140f8e	0.00014120174
224	0xb68ca0fb	-4.1910657e-06
225	0xb7029fa1	-7.78577e-06
226	0xb917851c	-0.0001445007
227	0x388ebc0c	6.806114e-05
228	0xb9ae13f3	-0.0003320273
229	0xb9ae13f3	-0.0003320273
230	0xb9ae13f3	-0.0003320273
231	0x37d51f21	2.5406074e-05
232	0xb8cfc1f6	-9.906657e-05
233	0x38e106cc	0.00010730102
234	0x38cf23ad	9.877174e-05
235	0xb8ea12bd	-0.0001116148
236	0xb8ea12bf	-0.00011161481
237	0x39a09a97	0.00030632757
238	0xb970d7df	-0.00022968602
239	0x3763dbb5	1.3581409e-05
240	0x393cb77c	0.0001799743
241	0x38d8ae15	0.00010332108
242	0x37f2a331	2.892464e-05
243	0xb91e87cb	-0.00015118641
244	0x37a9b6bd	2.0231464e-05
245	0x38847add	6.3171356e-05
246	0xb90960b3	-0.00013101361
247	0xb907cf7d	-0.00012951899
248	0x382faf70	4.188664e-05
249	0x389ec814	7.5712946e-05
250	0xb7d11512	-2.4924553e-05
251	0xb9542006	-0.00020229825
252	0x394ee1a9	0.00019729756
253	0x394ee1a9	0.00019729756
254	0x394ee1a9	0.00019729756
255	0xb8c4c5da	-9.382861e-05

exp_avg_sq f4 [128, 24]
0	0x36c37d58	5.826045e-06
1	0x36d79226	6.4245132e-06
2	0x37060ec8	7.990464e-06
3	0x376e6116	1.420851e-05
4	0x371c4862	9.3151775e-06
5	0x376957b7	1.3908305e-05
6	0x382704db	3.9820425e-05
7	0x3680aa1f	3.834502e-06
8	0x36a5957b	4.934785e-06
9	0x37109b5d	8.619242e-06
10	0x36ad59f1	5.1662723e-06
11	0x372ce0b6	1.03043185e-05
12	0x37b9ef8c	2.2165266e-05
13	0x37b9ef8c	2.2165266e-05
14	0x37b9ef8c	2.2165266e-05
15	0x36cf4351	6.1769174e-06
16	0x37884b31	1.6247477e-05
17	0x377adb0a	1.495216e-05
18	0x378e14bd	1.6937376e-05
19	0x3765c03e	1.36942235e-05
20	0x3765c03e	1.36942235e-05
21	0x3819e084	3.668714e-05
22	0x38049edd	3.1619205e-05
23	0x370e6445	8.487205e-06
24	0x3708585a	8.126803e-06
25	0x3728d443	1.0063001e-05
26	0x373a2db5	1.1097106e-05
27	0x3790763c	1.7221195e-05
28	0x3726219a	9.9021945e-06
29	0x378d6a5b	1.6858035e-05
30	0x3814a13f	3.5436122e-05
31	0x369b37df	4.625864e-06
32	0x36eebe49	7.115105e-06
33	0x370ee922	8.51814e-06
34	0x36c3d2e4	5.8360038e-06
35	0x375e1290	1.3236553e-05
36	0x381a499f	3.6785026e-05
37	0x381a499f	3.6785026e-05
38	0x381a499f	3.6785026e-05
39	0x371f4067	9.492133e-06
40	0x380df4f7	3.384516e-05
41	0x38054a4c	3.1778865e-05
42	0x3813c08b	3.522685e-05
43	0x37f3bf35	2.9056895e-05
44	0x37f3bf36	2.9056897e-05
45	0x3853d8bc	5.050817e-05
46	0x38402d0a	4.5818313e-05
47	0x378b0ade	1.6575152e-05
48	0x35a8ee8c	1.2586402e-06
49	0x35ca0579	1.5051766e-06
50	0x35edb5f2	1.7710829e-06
51	0x35b33adc	1.335367e-06
52	0x35bf5fdb	1.4258507e-06
53	0x36023fd9	1.9408674e-06
54	0x3634cd78	2.6941689e-06
55	0x35ce1bee	1.5356325e-06
56	0x36225452	2.4188962e-06
57	0x3617aef1	2.2602583e-06
58	0x368094ab	3.8320045e-06
59	0x366732a5	3.4451161e-06
60	0x36085af0	2.0318512e-06
61	0x36085af0	2.0318512e-06
62	0x36085af0	2.0318512e-06
63	0x35d1f0b1	1.5641764e-06
64	0x35c064f1	1.4334493e-06
65	0x35b50403	1.3486718e-06
66	0x35bcfd3a	1.408079e-06
67	0x35cbebb2	1.5193275e-06
68	0x35cbebb0	1.5193273e-06
69	0x3620c1e6	2.3954722e-06
70	0x363130aa	2.6403382e-06
71	0x3589ee5d	1.0276668e-06
72	0x3609edd1	2.0553018e-06
73	0x36175ed8	2.255596e-06
74	0x3641ff66	2.8907903e-06
75	0x3650e85d	3.1129669e-06
76	0x3622d28d	2.4262438e-06
77	0x367346c8	3.6251022e-06
78	0x36e14049	6.7130063e-06
79	0x35a38389	1.2182728e-06
80	0x36417b5c	2.8831046e-06
81	0x3687f6ab	4.0520295e-06
82	0x368b9403	4.1597536e-06
83	0x369dbf29	4.7012186e-06
84	0x36cad5e0	6.0449674e-06
85	0x36cad5e0	6.0449674e-06
86	0x36cad5e0	6.0449674e-06
87	0x35e24088	1.6857093e-06
88	0x365e5608	3.3130655e-06
89	0x3653112c	3.1451445e-06
90	0x36631256	3.3836309e-06
91	0x364d0dee	3.0555489e-06
92	0x364d0deb	3.0555482e-06
93	0x36ef9fb9	7.141349e-06
94	0x36eaf5bd	7.002351e-06
95	0x36495001	2.9997902e-06
96	0x35f2d538	1.809246e-06
97	0x3603ce2c	1.964053e-06
98	0x360c0845	2.086644e-06
99	0x367c4862	3.7593059e-06
100	0x36665dc3	3.4327247e-06
101	0x36af2382	5.21954e-06
102	0x36ebbaaa	7.0252763e-06
103	0x359ffc34	1.1919824e-06
104	0x3626d000	2.4857e-06
105	0x368b183a	4.145343e-06
106	0x36b172dc	5.2883825e-06
107	0x36ad8917	5.171761e-06
108	0x3729ebc7	1.0128081e-05
109	0x3729ebc7	1.0128081e-05
110	0x3729ebc7	1.0128081e-05
111	0x3644b667	2.9312448e-06
112	0x36cbedc6	6.077552e-06
113	0x36b92d4c	5.518703e-06
114	0x36d83aa8	6.44413e-06
115	0x36a60e2b	4.948835e-06
116	0x36a60e2d	4.948836e-06
117	0x3760339b	1.3363456e-05
118	0x375b3d89	1.30677445e-05
119	0x368113f9	3.8468247e-06
120	0x36800dba	3.8162952e-06
121	0x3690475c	4.2998417e-06
122	0x3696afd3	4.490817e-06
123	0x37057036	7.953544e-06
124	0x370c7731	8.372402e-06
125	0x3753e8c1	1.2630772e-05
126	0x37bf49c0	2.2803317e-05
127	0x36291e77	2.5200695e-06
128	0x360d5cd7	2.1064677e-06
129	0x361c47d2	2.3287616e-06
130	0x3636b3ad	2.7224698e-06
131	0x3690e7cd	4.3185196e-06
132	0x37d7e8c1	2.5738382e-05
133	0x37d7e8c1	2.5738382e-05
134	0x37d7e8c1	2.5738382e-05
135	0x36a40b64	4.888907e-06
136	0x37525fa5	1.2539244e-05
137	0x3747a79f	1.1900352e-05
138	0x375c7697	1.3140633e-05
139	0x373805e0	1.09686225e-05
140	0x373805df	1.0968622e-05
141	0x37f70785	2.9448196e-05
142	0x3801d689	3.0955798e-05
143	0x371a9c27	9.215472e-06
144	0x3681ea99	3.8718103e-06
145	0x36a88fe6	5.023542e-06
146	0x36ad4604	5.1639527e-06
147	0x36cd9e0d	6.1278756e-06
148	0x36d3e88d	6.3153625e-06
149	0x371c3bc6	9.312242e-06
150	0x37bda4ff	2.2607388e-05
151	0x363b2a8d	2.788994e-06
152	0x365fc4e6	3.33442e-06
153	0x36522cba	3.1318473e-06
154	0x363ea9f2	2.8411127e-06
155	0x36b5dc2a	5.419851e-06
156	0x380f558d	3.4173532e-05
157	0x380f558d	3.4173532e-05
158	0x380f558d	3.4173532e-05
159	0x36b8f87e	5.5125556e-06
160	0x376d314f	1.4137781e-05
161	0x375dc94e	1.3219496e-05
162	0x3775d3f1	1.4652484e-05
163	0x374fe541	1.2391539e-05
164	0x374fe543	1.2391541e-05
165	0x3816027d	3.5765104e-05
166	0x382ecf70	4.1678024e-05
167	0x370d304a	8.415498e-06
168	0x35bdeb7a	1.415013e-06
169	0x35c5cfe4	1.4738148e-06
170	0x360879a5	2.0336386e-06
171	0x359bbde6	1.1603668e-06
172	0x359c29aa	1.1635032e-06
173	0x35bf871f	1.4269934e-06
174	0x36125025	2.1802346e-06
175	0x3560fb17	8.3811886e-07
176	0x35c8b2a8	1.4953157e-06
177	0x35716ff0	8.9942387e-07
178	0x359276cd	1.0912423e-06
179	0x35d676c8	1.5978812e-06
180	0x3644c1dd	2.931912e-06
181	0x3644c1dd	2.931912e-06
182	0x3644c1dd	2.931912e-06
183	0x35ae0456	1.2965272e-06
184	0x35f3089d	1.8107418e-06
185	0x35eb30b0	1.7523034e-06
186	0x35f5f831	1.8326156e-06
187	0x35ea7551	1.7468502e-06
188	0x35ea754e	1.7468499e-06
189	0x36599043	3.2419491e-06
190	0x3673c2d7	3.6323233e-06
191	0x35995e1b	1.1426777e-06
192	0x34e361a0	4.2353076e-07
193	0x34f6caf1	4.596873e-07
194	0x35239f5f	6.095415e-07
195	0x354c4bae	7.610605e-07
196	0x3535a67c	6.767002e-07
197	0x35888d3e	1.0173896e-06
198	0x361008f1	2.1462877e-06
199	0x34f175d9	4.4975494e-07
200	0x34d7531e	4.0107346e-07
201	0x34d29449	3.922344e-07
202	0x35154581	5.5607967e-07
203	0x354d6bc8	7.6525293e-07
204	0x3604d2ea	1.97923e-06
205	0x3604d2ea	1.97923e-06
206	0x3604d2ea	1.97923e-06
207	0x3514ba57	5.5405457e-07
208	0x35833508	9.775695e-07
209	0x35801789	9.543593e-07
210	0x3587f40a	1.0129309e-06
211	0x3576ef89	9.199071e-07
212	0x3576ef88	9.1990705e-07
213	0x3617c119	2.261315e-06
214	0x36243377	2.446786e-06
215	0x353b4cdf	6.977479e-07
216	0x359f4e5e	1.1869231e-06
217	0x35acad7e	1.2865491e-06
218	0x35ce9677	1.5391987e-06
219	0x360b9163	2.079724e-06
220	0x35b27c63	1.3298235e-06
221	0x36289401	2.51201e-06
222	0x3697f7ef	4.529014e-06
223	0x3578f09a	9.273732e-07
224	0x3595038e	1.11024e-06
225	0x35c553ff	1.470209e-06
226	0x35a2fe11	1.2143884e-06
227	0x360b9144	2.079717e-06
228	0x36b3abc0	5.35461e-06
229	0x36b3abc0	5.35461e-06
230	0x36b3abc0	5.35461e-06
231	0x35cc7f26	1.523619e-06
232	0x364c8ea3	3.0481394e-06
233	0x36390884	2.7572105e-06
234	0x3650f8cf	3.113924e-06
235	0x36326805	2.6584614e-06
236	0x36326807	2.6584619e-06
237	0x371a054f	9.180351e-06
238	0x37036b97	7.833259e-06
239	0x361290f3	2.1840067e-06
240	0x3590a3d5	1.0776517e-06
241	0x35a84d4a	1.253947e-06
242	0x35a56a3c	1.2324376e-06
243	0x36227c27	2.4212147e-06
244	0x35eb6b99	1.754018e-06
245	0x361a055f	2.2950915e-06
246	0x36cca954	6.099386e-06
247	0x351a3167	5.744136e-07
248	0x354b0d88	7.5643084e-07
249	0x3578ddaa	9.2709763e-07
250	0x3519ab6a	5.724638e-07
251	0x35bb2f54	1.394636e-06
252	0x36be7bf0	5.6768695e-06
253	0x36be7bf0	5.6768695e-06
254	0x36be7bf0	5.6768695e-06
255	0x3599472f	1.1420105e-06

exp_avg f4 [128]
0	0xba829b44	-0.0009964486
1	0x3868e7ee	5.552911e-05
2	0x37d7b74a	2.5715348e-05
3	0x38905a83	6.883314e-05
4	0x3856b9ad	5.11945e-05
5	0x3a040398	0.0005035936
6	0x395c7b41	0.0002102675
7	0xb9672804	-0.00022044784
8	0xb7d37217	-2.5206287e-05
9	0x395b5944	0.00020918722
10	0xba1a8191	-0.00058939407
11	0xb720268d	-9.545719e-06
12	0xb9b192b0	-0.00033869362
13	0x38f56eec	0.00011703171
14	0x3811ce28	3.4762692e-05
15	0xb9a4523e	-0.00031341793
16	0xba61846f	-0.0008602803
17	0xb92d7bc2	-0.00016544669
18	0xb911f78f	-0.000139205
19	0xba3ee252	-0.0007281649
20	0x38cb020a	9.680174e-05
21	0xb97d4e2d	-0.00024157083
22	0xba96ea49	-0.0011513914
23	0xba62d4ba	-0.00086529145
24	0xb98bb984	-0.00026650366
25	0x386f5b7a	5.7067235e-05
26	0xb96c51bb	-0.00022537161
27	0xb9184465	-0.00014521329
28	0xb9865664	-0.00025622838
29	0xb904d7dd	-0.00012668916
30	0xb951d45f	-0.00020010908
31	0x39e1a3eb	0.00043037473
32	0x3940e49c	0.0001839571
33	0xb9ecbf07	-0.00045155754
34	0x38e9de8e	0.0001115176
35	0xba12bc4f	-0.0005597518
36	0xba3a10be	-0.00070978317
37	0xb8ccff68	-9.775051e-05
38	0xb804269c	-3.150721e-05
39	0xbaa4ef5a	-0.0012583539
40	0xb99c72cc	-0.0002984017
41	0xb9f45c95	-0.00046608286
42	0xb9e8604b	-0.00044322232
43	0xb83e1717	-4.5321034e-05
44	0xb8063aa1	-3.2002692e-05
45	0xba12df55	-0.0005602737
46	0xba44cbb2	-0.00075071596
47	0xb776c104	-1.4707683e-05
48	0xb9e34015	-0.0004334456
49	0xba1b46ae	-0.0005923313
50	0xb912087e	-0.00013926809
51	0xb9d27745	-0.00040143184
52	0xb9ca5fcb	-0.00038599814
53	0x39a35b5e	0.00031157857
54	0xb99f7b93	-0.00030418913
55	0x39aeca39	0.00033338534
56	0xba6c9973	-0.0009025551
57	0x3a659eb3	0.0008759305
58	0x3909752c	0.00013108988
59	0xba411fca	-0.00073671027
60	0x399cd4ea	0.00029913272
61	0x38464438	4.7270412e-05
62	0xba437383	-0.0007455872
63	0x3934fe7e	0.00017260943
64	0xba4b5776	-0.0007756868
65	0x39a00335	0.00030519968
66	0xba029c4f	-0.0004982398
67	0xb9dfb48e	-0.00042668398
68	0x3923673e	0.00015583352
69	0xb9696d13	-0.00022261245
70	0x393beef9	0.00017922734
71	0x3a0c4b4b	0.00053517957
72	0x38d34274	0.00010073642
73	0x39e98522	0.00044540415
74	0x3a06ca04	0.0005141797
75	0xb7a5e6df	-1.977704e-05
76	0x39e4cdd1	0.00043640894
77	0xb832b4b6	-4.2606807e-05
78	0xb89d8fb1	-7.513108e-05
79	0xba246667	-0.00062713627
80	0x38ab1625	8.15804e-05
81	0xb9181753	-0.00014504539
82	0x3a176fc7	0.0005776849
83	0x36b21ebe	5.3083922e-06
84	0xb927fdbf	-0.00016020889
85	0xba5dc416	-0.00084597
86	0x39ce792d	0.00039381665
87	0xb9d66492	-0.00040892191
88	0xba9b31f7	-0.0011840452
89	0xba0b83d4	-0.0005322073
90	0x389c960e	7.4666095e-05
91	0x38651a91	5.4622597e-05
92	0xb9d48cf8	-0.0004054082
93	0xb96bdb5a	-0.00022493061
94	0xba36ba85	-0.00069705426
95	0x39b3a950	0.00034267688
96	0xba5111c8	-0.0007975367
97	0xb90cfd88	-0.00013445888
98	0x384cfca5	4.8872684e-05
99	0xba381c18	-0.0007023229
100	0xb9a80e30	-0.00032054028
101	0xb97f9746	-0.00024375049
102	0xb9894d39	-0.00026188212
103	0xb7ceb998	-2.4643537e-05
104	0x3a325a64	0.00068036304
105	0xb8b4cd99	-8.6213644e-05
106	0xb8c2d78c	-9.2907896e-05
107	0xb90e67f9	-0.00013580908
108	0xb995ca92	-0.0002857042
109	0x39b806ba	0.00035100227
110	0x383a8477	4.4469223e-05
111	0xb93a75a3	-0.00017782165
112	0xba96e7e5	-0.0011513202
113	0xb9bc1cbb	-0.0003587956
114	0xba21f1d7	-0.00061776995
115	0x38959bb6	7.133877e-05
116	0x3933703d	0.00017112582
117	0xb9a297ab	-0.0003101205
118	0xba6e1a0d	-0.00090828614
119	0xb809aaea	-3.282252e-05
120	0x39b63f50	0.00034760917
121	0xb93c156d	-0.00017937059
122	0x39762052	0.00023472428
123	0xb88f5604	-6.834793e-05
124	0xb912118a	-0.00013930179
125	0xba74b199	-0.00093343254
126	0x39af82aa	0.00033475953
127	0xb695241e	-4.4447506e-06
