runs/BallBalance_31-14-19-00/nn/last_BallBalance_ep_200_rew_322.8519.pth (torch, 181427 bytes, 36 tensors)

value_mean_std.running_mean f8 [1]
00000000: 09c7 cc09 0970 1540
5.3594094783054596

value_mean_std.running_var f8 [1]
00000000: 0567 2184 12c5 0f40
3.971226722974168

value_mean_std.count f8 []
00000000: 0000 0010 0000 7941
26214401.0

running_mean_std.running_mean f8 [24]
00000000: 709b 3e86 760d da3f 5a24 5e95 435a de3f
00000010: 4d02 2e36 0282 dc3f ad73 3e9f 5586 c43f
00000020: 56c3 8351 af8b cb3f d870 67d0 0ff9 c93f
00000030: 1313 de0f 8103 843f 4862 cb35 7b93 963f
00000040: b3d0 04f2 3cb8 e83f 8941 2ac8 cc8b a53f
00000050: f08b 4cab 728d 903f 4710 795a d3f5 cebf
00000060: d0a2 39d3 f868 763f d0a2 39d3 f868 763f
00000070: d0a2 39d3 f868 763f 3227 745b 4185 483f
00000080: 87bf b060 ea27 bc3f 7921 e2e0 55cb bbbf
00000090: 8180 0c9c 3b97 bfbf d7c5 3f75 2dcc b03f
000000a0: f621 bf75 2dcc b03f 129b 7edb 166d 74bf
000000b0: 5d95 e448 6bb5 46bf ae38 86a8 2341 61bf
0.40707171544857257 0.47425927721685 0.44543509760845695 0.16034956241210577 0.21520034294328622 0.20291326213817373 0.009772308632599846 0.022046971472123894
0.7724899985246537 0.04208221381589101 0.01616458101774393 -0.24187700193044945 0.005471202824630608 0.005471202824630608 0.005471202824630608 0.0007483071448472821
0.10998406277280824 -0.10857140293422231 -0.12340138015543013 0.06561550247695123 0.06561550259278434 -0.004986848150940986 -0.0006930135585078535 -0.002106256146539107

running_mean_std.running_var f8 [24]
00000000: 542b 7eec 36c9 d33f b64f 7077 9c7e d63f
00000010: 5b6a d8f5 66e4 d33f a7f8 4f52 9e31 1940
00000020: 7d18 16bc 1df7 1640 487a 9626 0cd1 1640
00000030: 3977 ca4d e4b3 a13f 876a d7b4 df00 9b3f
00000040: b47b fd26 5d51 983f b90d d8d1 bcd2 cb3f
00000050: d1ac 8dca c1c9 ca3f 9e52 661a 7b71 f33f
00000060: 4adb 49f7 67a8 2a40 4adb 49f7 67a8 2a40
00000070: 4adb 49f7 67a8 2a40 b54d f630 86eb aa3f
00000080: 1b8e df23 38b0 0940 b8f9 8899 6522 0840
00000090: 7a22 eabe 7fea 0f40 1e4c 2dbe 038e f13f
000000a0: a1c4 27c0 038e f13f aa1e 1739 8867 1440
000000b0: e05c 9a06 3b00 1240 330c 5255 4584 1040
0.30915616126065015 0.3514777342218126 0.31081556328141396 6.298455511218129 5.741324366425144 5.7041479138702655 0.03457559060664867 0.026370520985305148
0.023747878556033178 0.2173687004688938 0.20928213491729378 1.2152052909124573 13.328918197408388 13.328918197408388 13.328918197408388 0.05257815692598503
3.211044578800068 3.016795348637256 3.9895014682008965 1.0971715382372689 1.0971715456073883 5.1011055870400615 4.500225165530736 4.129170735485832

running_mean_std.count f8 []
00000000: 0000 0020 0000 6941
13107201.0

a2c_network.sigma f4 [3]
00000000: 96d7 b7bf 4cad a6bf 267c 91bf
-1.4362667 -1.3021636 -1.1366012

a2c_network.actor_mlp.0.weight f4 [128, 24]
00000000: ddde e7be 695b 90be 26c2 5d3d b84f 9bbe
00000010: 3373 333e 1a3e 2c3e 29eb 2c3f 10e1 0abf
00000020: 23a2 3c3f 4394 a03e 2153 133e a9d4 be3d
00000030: 2584 80ba 824d 073e a4ae 2bbc bf61 b2bc
00000040: 419b e73c a71f 44bc b4ac cb3d a03a 083e
00000050: 6adf 8c3d 5cd0 28bc 8b2f 733d f29a 9b3c
00000060: c001 8fbd 4e31 d7be 6a77 01bf 85be a7bd
00000070: 37b7 fbbe da92 9a3e b572 973e 2ddd 763e
00000080: 73b7 633e 351d b03d 4ac2 4b3e 6dee 00be
00000090: 1bdc 073e bfbe 9fbc de26 3b3e 9797 f13d
000000a0: f352 5f3e d083 0abe ca17 15bd ecc0 c2bd
000000b0: 974c c4bd c790 94be 3e65 b93e 55c0 223e
000000c0: 800d b23e 885a 92bd 799b 01bf f641 2039
000000d0: 24db aebd 15b5 4f3d f1b6 41be f899 383f
000000e0: 9ea8 44bc f52f 6cbe 28e8 963e ec99 d93d
000000f0: 65e8 603d 6a78 f0bd 1ebf 433d 8088 dcbc
00000100: 2837 9bbd f5e9 4e3d 528a d83c 5c18 22bd
00000110: 935c 093e 5de3 6abc a85e 03be d950 ea3d
00000120: 1df7 41bc 1e82 71be 389f c3bd b5e3 a8be
00000130: 643a acbe 184b e2bb 171f 9fbe bf23 39bf
00000140: be88 583e 055c 02bf de94 19bf 6397 5e3c
00000150: ac14 17be 9977 cabd dacc 703e 1016 95bc
00000160: 571c 303c a4b7 00be e231 1dbd cebf c3bd
00000170: 224c 8c3b 0a52 11be 62d7 9ebc 4a08 3dbe
00000180: ef81 92be 4f63 7bbe 67ef c63e 161c d63d
00000190: 9873 593d e97d bd3c ee25 d4bd 75fc f9be
000001a0: 0f39 763f 045b 3dbd 4795 093f e598 cc3e
000001b0: a919 42be 221a ff3d 7039 95bd 0db0 723c
000001c0: 30bf ffbd 942c 51be ce23 0f3d 5c51 5dbd
000001d0: 6f6a 8f3d a560 fa3c 12a6 e9bd 3421 27be
000001e0: 6ce1 1fbe 757b fe3c ccc1 b93d 99ea efbd
000001f0: fe96 693d 1310 bbbd 50ee 883e 318e 8fbe
00000200: f2f0 db3e 5dba 6fbf edec 873f 8b6f 523f
00000210: 9e59 b33d 32af 4d3d bd8a 373d 5aa7 edbd
00000220: 4221 1d3e 700d 753d 3e5a 813c b24e 6dbe
00000230: f98f 0a3d fcfb 57bd a71c 2b3d ab68 ef3d
00000240: e756 a23e 76ab 8bbe 856b 1a3e e952 67bd
00000250: 72b2 893e b0ca 09be 34d9 5cbe 1b1b e2be
00000260: a868 92be 80c2 e43e 2180 d23e 55f1 f3be
00000270: dc9f 153d e4ad c13d 0119 d63c b8b1 813d
00000280: b76a 0f3e 2ae0 e73d f034 9b3d 7c8a 81bc
00000290: 9d3f 0bbd c435 04bd bb66 8e3c a8f7 983d
000002a0: 378f 8d3e 603d 5d3e 5360 e3be 843d c43d
000002b0: 1982 c4bd 869f 9abe c181 113e 7d00 1b3e
000002c0: 402e 753d f720 02bf fa0b 123f 08e7 953d
000002d0: 2f3d 583d bc42 76bd 8eb3 7dbd 913c 88bd
000002e0: 27ad 55bd c969 813d 218c 193e 56fe 443e
000002f0: 8d8d a8bd 2d81 923d 3650 19bd 13d2 3f3e
00000300: 0257 c83e fbe2 603e a5a6 243e 3ad7 71bd
00000310: 1264 96be d3eb c93d 0543 00bf e0c0 1fbe
00000320: f220 eabd 7d1f 0f3f 2e86 4b3f cd74 babd
00000330: 9a72 d7bd 8645 28be edbd 03be 9ce2 783d
00000340: 91af a73d ebbb f53d 8b06 253e e360 1c3e
00000350: b0db ca3d 1c60 09be 508d 6f3d e251 45be
00000360: f8a4 a83d 77dc 6abd 43dd b6be e29a 63be
00000370: 9dcc 243e 8386 85be 3606 f6bd 1590 ac3e
00000380: 3f04 18be 6bb3 153f 5263 9bbe 82f7 56be
00000390: 673a 343d ba17 9bbc 49e7 8f3c 4ca6 5dbc
000003a0: 60d9 ff3d 9298 d7bd dcf8 e63d b28d a23d
000003b0: 34c2 073e 5199 4d3e 5237 23bc 7dd3 a2be
000003c0: d29a 5bbe 611c 1d3d 756e ef3a ab62 c0bc
000003d0: d22d bcbd 8ba1 29be c38b f23e 3232 bebd
000003e0: c2dc 193f 60c1 523f 18f6 e33e 378f e43d
000003f0: 6516 cbbd a562 ea3d 53ab 393e 0bc4 ffbd
-0.4528722 -0.2819474 0.054140233 -0.30334258 0.17524414 0.16820565 0.67546326 -0.5424967
0.736849 0.31363115 0.1438718 0.093179055 -0.0009805007 0.1321316 -0.010478649 -0.021775125
0.028272273 -0.011970437 0.0994505 0.13303614 0.0687855 -0.010303583 0.059371512 0.018994782
-0.06982756 -0.42029804 -0.50572836 -0.081906356 -0.4916322 0.30190164 0.29579702 0.2410781
0.22237949 0.08599321 0.19898334 -0.12590952 0.13267557 -0.019500135 0.18276545 0.117964916
0.21808986 -0.13526845 -0.03639964 -0.09509453 -0.09584921 -0.29016706 0.36210054 0.15893681
0.34775925 -0.07146174 -0.5062786 0.00015283361 -0.085378915 0.050709803 -0.18917443 0.7210994
-0.012003092 -0.23065169 0.29473996 0.106250614 0.05490913 -0.11741717 0.047789685 -0.026920557
-0.075788796 0.050516088 0.026433144 -0.039574012 0.1341422 -0.014336434 -0.12829077 0.11441202
-0.011838702 -0.23584792 -0.09551853 -0.32986227 -0.336383 -0.0069059245 -0.31078407 -0.7232017
0.21145913 -0.5092166 -0.5999278 0.013585898 -0.1475398 -0.09886093 0.23515645 -0.018198997
0.010748944 -0.12570053 -0.03837765 -0.09558068 0.0042815367 -0.14191452 -0.019389812 -0.18460193
-0.28614756 -0.24549602 0.38854524 0.10454576 0.053088754 0.023131328 -0.10358797 -0.48825422
0.96180815 -0.046229377 0.53743404 0.399604 -0.18955101 0.12456156 -0.07286346 0.014812482
-0.12487638 -0.20427161 0.034946255 -0.05403267 0.070027225 0.030563662 -0.114086285 -0.1632126
-0.15613335 0.031064728 0.09070167 -0.11714668 0.057028763 -0.09133925 0.26744318 -0.2803817
0.42957264 -0.9364374 1.0619179 0.8220145 0.087573275 0.050215907 0.044810046 -0.116041854
0.15344718 0.059827268 0.015790101 -0.23174551 0.03382871 -0.052730545 0.041775372 0.11689886
0.31706926 -0.27279252 0.15080078 -0.056475554 0.26893955 -0.13456225 -0.21567231 -0.44161305
-0.2859547 0.44679642 0.4111338 -0.4764506 0.036529407 0.09456995 0.02613497 0.06332725
0.14005552 0.11322053 0.075784564 -0.015813105 -0.033996213 -0.032277837 0.01738297 0.07469112
0.27648327 0.21605444 -0.44409427 0.09582046 -0.09595127 -0.30199832 0.14209653 0.15136905
0.05985856 -0.5083155 0.57049525 0.07319456 0.052792724 -0.060122237 -0.061938815 -0.06652177
-0.052167084 0.06319005 0.14994861 0.19237646 -0.08230124 0.071535446 -0.03743001 0.1873248
0.39128882 0.21961586 0.16079195 -0.059043147 -0.29373223 0.09859433 -0.50102264 -0.1560092
-0.11432065 0.5590742 0.79501617 -0.09104309 -0.105199054 -0.16432771 -0.1286542 0.060762987
0.081877835 0.11998733 0.16115777 0.15271334 0.09905183 -0.13415569 0.058484375 -0.19269517
0.0823459 -0.057339158 -0.35715684 -0.22227052 0.16093679 -0.26079187 -0.120129034 0.33703676
-0.1484537 0.58476895 -0.30349213 -0.20992854 0.04400101 -0.018932212 0.01756634 -0.013528418
0.12492633 -0.10527147 0.11277935 0.079371825 0.13257676 0.20078017 -0.00996192 -0.31801978
-0.21445778 0.038357142 0.0018267172 -0.023484549 -0.09188427 -0.1656553 0.47372255 -0.09286918
0.60102475 0.82326317 0.44523692 0.111601286 -0.09916381 0.11444596 0.18131761 -0.12488564

a2c_network.actor_mlp.0.bias f4 [128]
00000000: 1cb5 78be 82c9 913d a339 43bf 1173 ecbe
00000010: 59c0 00bf a231 01be 7517 e13d b240 4c3d
00000020: 8d95 a3be 3066 1dbf 4d9c 533e 6099 2bbf
00000030: a945 61be 84c8 043d a4c8 3ebe fdc5 8c3e
00000040: 862e 983e d5ac 44bf 4d0b f1be 24bc 6b3e
00000050: 4f8d 23bf 55eb 67bf f28c 0b3f 1953 0ebf
00000060: c211 bfbe cc81 e33e e3e6 89be b6e5 e9be
00000070: 00f0 323f 7b6e e2bd 25f8 63bd 37e6 16bf
00000080: c4df 20bf 583f d43e 33be 013f 8ffb 08bf
00000090: 483f 07bf bffc f8be 1331 61bf 4a5d 4c3e
000000a0: f783 2dbf b6f6 1abf 2835 263e 332a 30bf
000000b0: 08fa 823d 9f53 dabe b284 24bf f469 fe3e
000000c0: 6d2b eabe c912 dabe 7fa8 7d3c d242 1ebf
000000d0: cb6d 0dbf 16b3 b53d 85c2 8fbf 7e7e 1ebf
000000e0: b9f6 64be 2337 c8bd c52c 60bd dbb3 58bf
000000f0: 8c97 cebe 81e0 f1be 22db c43d ca4a 48bd
00000100: bc8f f13b 3a01 023e 361b 2b3e c96b 26bf
00000110: 615b acbe 06e4 89bf 62f4 8bbe 6097 2abf
00000120: 8c51 c43d 6fe3 1b3e 6c4e ffbe 76b1 183e
00000130: 4972 453d 6274 22bf ed75 02bf dd79 923e
00000140: c451 603e dd67 8abe 53d7 9e3e 7258 753d
00000150: be25 48be 3bd3 043f 6795 a2be 25f2 ad3d
00000160: 4ac3 0bbf d181 dcbe 4034 bbbf 656c eebe
00000170: 9831 56be 74c6 18bf 8b27 08bf e24d d53e
00000180: bae2 c4be b7fe b6be ceee d33e 0004 dfbe
00000190: 6aba f0be 445a e8bd 70c1 193f 03a5 5cbe
000001a0: 2567 cc3e dbff 443e 635c 28bf 4122 80bf
000001b0: ac20 d43c 2504 7abc ef8f adbe 5561 13bf
000001c0: 1c89 133f e473 24bf 4533 1bbe fb91 17bf
000001d0: 6166 17bf 8da0 0cbf 8876 8dbe c79a 73bd
000001e0: d017 25bf 4ab4 d4be 858c 02bf 9f9e a4be
000001f0: 4028 21bf 8091 7d3e 797d 15bf af85 853e
-0.24287838 0.07118513 -0.7625982 -0.4618154 -0.502935 -0.1261659 0.10990802 0.049866386
-0.31950036 -0.6148405 0.20665093 -0.67030907 -0.2199923 0.03241779 -0.18631226 0.27494803
0.29722995 -0.7682622 -0.47078934 0.23020989 -0.63887495 -0.90593463 0.5451194 -0.55595547
-0.37318236 0.44434965 -0.26933965 -0.45683068 0.6989746 -0.11056229 -0.05565657 -0.5894503
-0.6284144 0.41454577 0.50680846 -0.5350885 -0.52830935 -0.4863033 -0.87965506 0.19957462
-0.6777949 -0.605327 0.16231215 -0.6881439 0.06395346 -0.42641923 -0.64264977 0.4969021
-0.45736256 -0.42592457 0.015482067 -0.6182071 -0.55245656 0.088720486 -1.1231238 -0.6191176
-0.22359742 -0.097761415 -0.054730196 -0.8464944 -0.40349996 -0.47241595 0.09612109 -0.04889945
0.007371871 0.1269578 0.16709599 -0.6500822 -0.33663467 -1.0772712 -0.27334887 -0.6663723
0.09585866 0.15223478 -0.4986452 0.14911446 0.048204694 -0.63458836 -0.5096119 0.286086
0.21906191 -0.27032366 0.31023654 0.0598988 -0.19545648 0.5188481 -0.3175461 0.08493451
-0.5459486 -0.43067792 -1.462532 -0.46567073 -0.20917356 -0.59677815 -0.5318534 0.41660982
-0.3845423 -0.35741207 0.4139313 -0.4355774 -0.47017223 -0.11345342 0.6006079 -0.21547322
0.39922443 0.19238226 -0.6576597 -1.0010453 0.025894485 -0.015259777 -0.33898875 -0.5757039
0.5763109 -0.64239335 -0.15156277 -0.59207124 -0.5914059 -0.5493248 -0.27629495 -0.05947378
-0.6448946 -0.415438 -0.50995666 -0.32152268 -0.6295204 0.24762535 -0.5839458 0.26078555

a2c_network.actor_mlp.2.weight f4 [64, 128]
00000000: 7ef8 d0bd 1d38 d1bd 4379 1abe 1b71 1c3e
00000010: c7b2 813e ce79 613d 8517 c8bd b9ef 25be
00000020: 9803 b33d e860 91bb d110 d8bd 04cf 333e
00000030: b222 49bb cd67 80bc 5e93 cfbd 0931 73be
00000040: 7f6f 8abe c4f3 4ebe d8db 01bd a988 ae3c
00000050: efe2 9e3d 3c3c 1a3e 8336 62be eb97 2ebe
00000060: 392c c1bc ed50 173e a8bb ed3c 23e5 00be
00000070: 2217 803b 9e23 58bc 46e7 58be 0b92 d03d
00000080: b6ac 1e3e e22b c1bd 91b8 4dbd 2e75 95bd
00000090: cea1 4bbd d98e a03c b776 473e f8b7 45be
000000a0: 0df3 69be 00dd 5bbe 10b5 f6bd 56f7 8c3d
000000b0: 4e2d a4bd b80a de3d 9426 ebbd 0acc 1ebe
000000c0: e203 dcbc ed8e fcbd 1c8d 82bc dba7 85be
000000d0: b9c5 58be a566 87bd 8753 f8bd 159d 033e
000000e0: 2366 e8bb ea03 9c3d bc56 a43d a147 093d
000000f0: 4603 983e 5e62 d23c e915 3fbe 7c72 e53d
00000100: 2e95 6a3d e07d f9bb 1f69 853d ba57 e6bd
00000110: 87bd 963e 1185 2e3c 9379 a03d efc8 f33d
00000120: 367d 94be 6221 52bd dbe1 543b de58 01be
00000130: 67ec 53be 0b4b 3bbe b2b6 5e3e e8c0 033e
00000140: 9ab9 23be 7628 873d 1dd3 4dbe 6074 d13c
00000150: 0ef3 62be 3fd9 d0bb 083f 563e 33c4 0cbe
00000160: 8b42 4b3d 58c3 093e fba9 e2bd ce21 31bd
00000170: 7dfb c83d 151c 58bc 0561 1abe afaa bc3d
00000180: e8bf e93d 2493 2ebe 1349 0ebe 44a5 74bd
00000190: ccd6 88bb e9ce e1bd de47 9abd e447 023e
000001a0: 918a 84bc b8da 92be c003 433e 27db 02be
000001b0: 4ca1 32bd a051 c5ba a433 153b 8ca0 c6bc
000001c0: 9222 703d 4b3d 473e 8753 debe 0709 cfba
000001d0: eaf0 303e 7b7c bfbd de94 b0bd 6751 00be
000001e0: 7668 4cbc 9d03 923e cfc2 68be 2214 38be
000001f0: ec86 f2bd 4231 f53d 263d 383e 86cd 3ebe
00000200: 58bf 1ebe a2da 86bb 62df 193d b9cc bfbd
00000210: dffc f1bd 860c 3a3e 0372 90be 7649 bf3d
00000220: 105f be3c eb9e fdbd 772c f33d e166 263e
00000230: 4e4f b8bd 5880 7b3e abca b7bc 0a05 85be
00000240: d86b 28be 758c 0c3d 261f 1a3d 6453 96bd
00000250: 09f5 503d f779 34be 4be4 61bc bc98 cbbe
00000260: 4f3d 5bbe 179f 98bb db24 f9bb 4f95 76bd
00000270: 4d11 303e 3750 513e 25df 51bd 222a a93e
00000280: 5b42 8ebe 2cd8 15be abd4 c4be f606 fb3d
00000290: 866b 133d d667 b3be 7698 cebd f256 31be
000002a0: bdea 013e 3554 c4bd 9b6c 91be 1878 2bbe
000002b0: 5021 133e 350a 47be 2ffa 00be 9806 a7bd
000002c0: 2c3b 4dba b954 69be 2944 443e dffa 4cbe
000002d0: 6902 98be 746c 113e 9c0c 42bd fd77 673c
000002e0: f96a 493e 2f6a 773d 81cb 8cbd 02fa 483e
000002f0: c8aa f4be fdc7 ce3d 9f96 94be 9db3 76bd
00000300: fe2e a23d 9754 823d ed48 c6be d107 6bbe
00000310: 964d aebc cdd1 49be 7915 74be 3b42 8bbd
00000320: 2a1f c53d 7b70 e1bd d799 113f 7fc2 80be
00000330: 8c6a d43d 2db4 bebc 4fa5 74be 8e08 1abf
00000340: 1c15 793d 0f46 993e edcb 263e 2bda f2bd
00000350: 95b6 e63d c806 10bf fe55 44be 19cc 91bc
00000360: b049 05be 86e1 85be c6bd 4c3c 75de 8a3d
00000370: 8461 92bd 5c6d 553c c7e4 9abd b971 dcbd
00000380: 2250 1ebe a266 ce3c 4898 723e 34d8 9fbd
00000390: f0d6 f1bc 61b7 93be 786b 6bbd f480 63be
000003a0: 8e70 4b3e fc76 a5bd 47bd a53d a5b0 393c
000003b0: 47ec 36be 3435 a5bd 3676 323e 8627 35bd
000003c0: 6008 dabe 7d18 16bf cd15 7cbe 3d8b d53d
000003d0: 4b07 16be b044 a3bd df0c 99bc 0ecb 06be
000003e0: 0372 95ba c866 a9be 88a9 9a3e 2c85 c83d
000003f0: a823 69bd ed71 0abd 74fe b2bd e690 8fbe
-0.10203646 -0.10215781 -0.1508532 0.15277521 0.2533171 0.055047803 -0.09770111 -0.16204728
0.0874092 -0.004436601 -0.105500825 0.17559439 -0.0030690846 -0.015674496 -0.1013553 -0.23749174
-0.2703819 -0.20210177 -0.0317038 0.021305399 0.07758128 0.1506204 -0.22091107 -0.1705014
-0.023580657 0.14776964 0.029020146 -0.12587409 0.0039090076 -0.013192086 -0.21181974 0.101841055
0.15495571 -0.09432198 -0.050224844 -0.07297741 -0.049714856 0.019599365 0.1947888 -0.1930846
-0.22846623 -0.21471024 -0.12046254 0.06883113 -0.08016454 0.10841888 -0.114819676 -0.15507522
-0.02685732 -0.123319484 -0.015936427 -0.26104626 -0.21169175 -0.06611375 -0.121253066 0.12852891
-0.007092254 0.07617934 0.08024356 0.033515576 0.29689997 0.02568167 -0.18660702 0.11203477
0.057271175 -0.0076138824 0.06514191 -0.11247201 0.29441473 0.010651843 0.078356884 0.119035594
-0.29001778 -0.051301368 0.0032483253 -0.12631556 -0.20695649 -0.18290345 0.2174938 0.12866557
-0.1598877 0.06599514 -0.20100065 0.025568187 -0.2216303 -0.006373554 0.20922482 -0.13746719
0.049624007 0.13453424 -0.110675775 -0.04324513 0.098135926 -0.013190289 -0.15076073 0.09212243
0.11413556 -0.17048317 -0.13895063 -0.059727922 -0.0041759964 -0.11025793 -0.07533239 0.12722737
-0.016179355 -0.28682494 0.190444 -0.12778912 -0.043610856 -0.0015054233 0.0022766376 -0.024246477
0.05862672 0.19456975 -0.434231 -0.0015795537 0.17279401 -0.09349915 -0.08622144 -0.12531053
-0.012476077 0.28518382 -0.22730564 -0.1797643 -0.118421406 0.11972286 0.17992076 -0.18633088
-0.1550268 -0.0041154185 0.03756655 -0.093652196 -0.118158095 0.1816884 -0.28211984 0.093401834
0.023238689 -0.12383827 0.11873715 0.16250183 -0.08999501 0.24560678 -0.022435507 -0.25980407
-0.16447389 0.034313638 0.03762736 -0.07340124 0.051014934 -0.17624651 -0.013787339 -0.39764965
-0.21410106 -0.004657637 -0.0076032705 -0.060200986 0.171941 0.20440756 -0.051238198 0.33039957
-0.27785 -0.14633244 -0.38443503 0.12257187 0.035991214 -0.35040158 -0.10087673 -0.17318323
0.12687202 -0.09586374 -0.28403172 -0.16745031 0.14368176 -0.19437487 -0.12595437 -0.081555545
-0.00078289467 -0.22786225 0.19166626 -0.20017575 -0.2968934 0.14201528 -0.047375306 0.0141277285
0.19669713 0.060404 -0.06874753 0.1962662 -0.47786546 0.100967385 -0.29021165 -0.060229886
0.07919119 0.063637905 -0.38727513 -0.229522 -0.02127723 -0.19708939 -0.23836316 -0.06799742
0.09625085 -0.11007782 0.56875366 -0.2514839 0.10371885 -0.023279274 -0.23891185 -0.60169303
0.060811147 0.29936263 0.16288729 -0.118580185 0.112652935 -0.5626035 -0.19173428 -0.017797517
-0.13016391 -0.26148623 0.012496417 0.067807116 -0.07147506 0.013026562 -0.07563167 -0.107638784
-0.15460256 0.025195424 0.23690903 -0.07804909 -0.029521435 -0.28850845 -0.057475537 -0.2221716
0.19867155 -0.08079335 0.080927424 0.011333619 -0.1786357 -0.08066788 0.17427906 -0.044227146
-0.42584515 -0.58631116 -0.24617691 0.10426948 -0.1465122 -0.079720855 -0.018682895 -0.13163397
-0.0011401776 -0.33086228 0.30207467 0.097910255 -0.05691877 -0.033800054 -0.08739939 -0.28040236

a2c_network.actor_mlp.2.bias f4 [64]
00000000: c00e 46be fc69 9f3d dae8 3cbe a8db 383d
00000010: 92a1 9fbd 4ea6 a1be c918 17be db3b e4be
00000020: 3795 83be 99ee ae3c 6449 07be 4e7c b4be
00000030: e1cc a4be 9280 66be d332 8cbe 150f 2ebe
00000040: d522 25be 5b66 e23d d1d6 ea3d e79e 4a3e
00000050: 0da8 9ebe 18d7 85bd cfcc 51bf 6e1e 05bf
00000060: 5233 14be 0f48 803d 2067 973d ae43 66be
00000070: b6ea fabc b034 083f d0a3 a0be 13cf 2b3d
00000080: 798d 5bbe d86c bebe d088 71bc dd9b 5c3e
00000090: c39c 1cbf a62a b0be d3cb bb3d 9163 e1be
000000a0: 8f05 4cbe 0ebf b33c bbcc a6be e261 c0be
000000b0: dacb 5ebe d3aa 70bd ee08 65be b020 e9be
000000c0: 4475 82bc 032c 773d 9292 85be 77f0 f93c
000000d0: adb9 acbe d597 12bf d4e6 0fbf bd10 6dbe
000000e0: 9d28 5ebf 2023 56be f3e0 84be ca81 7fbe
000000f0: 90f1 2cbe 8dda 00be 7ca0 8abe 9c7c aebd
-0.19341564 0.07783887 -0.18448201 0.045131356 -0.07794489 -0.31572193 -0.14755549 -0.44576916
-0.2569978 0.021354007 -0.1321159 -0.35251087 -0.3218756 -0.22509983 -0.27382526 -0.16997941
-0.16126569 0.11054679 0.11466754 0.19787179 -0.30987588 -0.065351665 -0.8195314 -0.51999557
-0.14472702 0.06263744 0.073927164 -0.22486755 -0.030629497 0.53205395 -0.3137498 0.04194553
-0.21440686 -0.37192416 -0.014742091 0.21543832 -0.611767 -0.34407538 0.09169736 -0.44021276
-0.19923995 0.021941688 -0.32578072 -0.3757468 -0.2175745 -0.05875666 -0.22366688 -0.4553275
-0.015925057 0.060344707 -0.26088387 0.03051017 -0.3373541 -0.5726293 -0.5621159 -0.23150916
-0.8678072 -0.20911837 -0.25952873 -0.24951854 -0.16889024 -0.1258337 -0.27075565 -0.08519861

a2c_network.actor_mlp.4.weight f4 [32, 64]
00000000: 8522 e9be 9fb6 603d f08c 123e 3a11 d53d
00000010: 7c8e 87be 6594 c13d ed1c 293e 5ee6 bcbd
00000020: afa2 c93d ee8d 36bc 569e a8be 8894 2fbe
00000030: be1b d63d a015 8c3d 8cdb 753e ca55 833d
00000040: f758 77be 6181 db3d ca40 803b d55f 0d3d
00000050: 3b06 1ebe d097 60be e29a ef3d bc99 2abe
00000060: e89a 01be 759d f8bd 8f67 2e3e 8c4f a5be
00000070: 00af 4cbe bf89 07be 61ec 48be ca27 423d
00000080: b24e d8bd d035 e73d 5ca5 22be 7660 543d
00000090: ba28 a1be 2568 13bf 1e28 26bc b4f6 c83d
000000a0: 2030 8c3d c3d0 c6ba 5a37 923d 4ab1 f0bd
000000b0: 1b6f 2a3e b9f7 ebbe 7ddd 233d f1fb 203e
000000c0: ce5c 923c ec02 a9bc 795a bdbd fbd1 b6bd
000000d0: bbe8 e23d 8894 82be edfc 3ebc dfba 2abe
000000e0: fb2e 233e 95c1 58be a37e a7be 2389 a13e
000000f0: af1c b0bd 1529 27bd 3aa2 8cbe 3305 c83d
00000100: ec24 e2bb 7e69 e53c bcc6 92be 8500 63bd
00000110: dd03 67bd b37a 3abd 948a 52be 2793 8fbe
00000120: 9a0c f2bd 5cef 48bd 2eb1 c33d a46e 2e3e
00000130: c6fa ca3c 1793 a83d 9954 0cbd 3ad3 943e
00000140: b64e 38bd f436 83bc 59dd 373b 5610 bbbe
00000150: 3e20 88bd 62b7 7f3d eb25 d6be d9fc 0e3d
00000160: 533a 1abd a1c9 663e 5302 553e 85a1 b1bd
00000170: 17d5 12be 9e50 3dbe 6926 28bc a05f ff3d
00000180: d93a dabc 8e38 943d c51a b7bd 1764 e5bd
00000190: 9c6e 073e c321 77bd cbce c0bb 696c 8f3d
000001a0: 7a2f 2abe e0af 583e bb7c 4c3d a5d0 dc3c
000001b0: 2518 00be 8a40 0dbe 0245 363e edf9 44bd
000001c0: ccbc 4dbe 8bb7 dfbd 6294 c7bd b52d c0be
000001d0: fe7a a3bb ebb1 833d 0946 193e eeb1 d5b9
000001e0: 380d 9bbe 19c2 54be ef39 683d f0d9 2dbe
000001f0: 33e9 babe 615d 1ebe 4cf3 8c3d 8c11 57bb
00000200: 9b2a 46bd 3732 0f3e 6045 cdbd 5b32 633e
00000210: bef3 2c3e b7f3 5abd 30a5 e5bd 074b 1fbe
00000220: 6dba 40be 506e 8e3e 8c40 b1bc af1b fc3b
00000230: d1cb 0b3d 4e46 623d eb8d 6a3b 05a7 07be
00000240: eaff 023d 7086 6c3d fcc7 b2bd bfb7 953d
00000250: eeb8 d03d 9ca9 753e 5fdf 19be 2e5f 9bbd
00000260: e98e 843e 9f6b 1d3d 57b4 313e 6d0e b7be
00000270: 2d80 edbd 63cc 82bc d6b3 0fbe feca c03b
00000280: 5805 b9be 28b8 50bd 4e6f 07bd b883 abbd
00000290: d2d3 d2bd 7213 1b3d f962 ab3c 0247 963d
000002a0: fd97 c3bd fd0d a23c fbdf 98be 6da8 7bbc
000002b0: e4a5 35be 30a4 7c3e c213 fcbd e47c 293d
000002c0: bf44 283e 2656 4cbd d171 293c e7e8 6f3d
000002d0: 2589 c2be 1ad4 92bd ca1d 4dbd 0962 283c
000002e0: 5857 debd 4fb2 16be 6fcd 07be 4c33 0cbe
000002f0: 5a86 69bd 21a4 bb3e 921d ae3d 7893 6bbe
00000300: 130d d5ba 88ca 34bd 07f9 7ebd 96cd 34bc
00000310: 6c8c 0d3e 6d56 04be b4ca aabe 3f97 48be
00000320: 6655 9c3e 3630 d13c 3b93 9c3d f7f1 a1be
00000330: 0641 06bf 9ec1 9f3e 20fb 85bd b849 73bd
00000340: c0d7 ac3e c09e 923e 4c3f 39be af1a b93d
00000350: da4b 82be 6809 e3bd b0f5 35bd 6388 99be
00000360: 02e6 a23e 113e 78be 428d ee3d 72c4 233e
00000370: b9af a6bd 7f74 37bd 59f5 9ebd eba3 bc3d
00000380: 4e2f 1ebe f1a9 e93e 998c a7be 91eb 2dbe
00000390: a467 cabe da91 81be d1b9 8d3e e151 ee3c
000003a0: 65ee 663e 3d51 2f3d 8db5 dd3b a4ae c5ba
000003b0: 5dcf 8b3e 2622 933e 6c7b 67be 1896 c03d
000003c0: 2b3a a3bb 419f 94be b679 e1bd b00d 62be
000003d0: f68d 433f 1045 16ba 8623 c8be e4fc 9abe
000003e0: 7b2c 953d 2111 733e 4434 d8bd b0c6 123f
000003f0: d2c2 91be 3c30 2a3e da41 a63e 0405 113e
-0.4553415 0.05486166 0.14311576 0.10403676 -0.26475894 0.09452132 0.1651494 -0.092236266
0.098454826 -0.011142237 -0.329333 -0.17146504 0.1045451 0.06840062 0.24009532 0.06412847
-0.24155031 0.107180364 0.0039139735 0.03451522 -0.15432064 -0.21932912 0.116994634 -0.16660208
-0.12656748 -0.121394075 0.17031692 -0.32287252 -0.19988632 -0.1323614 -0.19621421 0.047401227
-0.10561885 0.11289561 -0.15883392 0.051849805 -0.31476384 -0.57580787 -0.010141401 0.0981268
0.068451166 -0.0015168417 0.07139464 -0.11752565 0.16643946 -0.46087435 0.04000615 0.15721108
0.017866518 -0.020631276 -0.09245772 -0.08926769 0.11079546 -0.25503945 -0.011656982 -0.16672848
0.1593589 -0.21167596 -0.32713804 0.3154994 -0.08599221 -0.040810663 -0.2746752 0.09766617
-0.006901374 0.028004404 -0.28667247 -0.055420417 -0.05640017 -0.04552717 -0.20560676 -0.28041956
-0.1181881 -0.049056396 0.09555279 0.17034394 0.024777781 0.0823118 -0.034260366 0.29067403
-0.04499694 -0.016017415 0.0028055517 -0.365359 -0.06646775 0.062430747 -0.41825804 0.034909103
-0.03765328 0.22537853 0.20801668 -0.086733855 -0.143391 -0.18487784 -0.010263064 0.12469411
-0.026639389 0.072373495 -0.08940653 -0.11200731 0.13225788 -0.060334932 -0.0058840266 0.070030995
-0.16619673 0.21160841 0.04992364 0.026954958 -0.1250921 -0.13794151 0.17799762 -0.04808991
-0.20091552 -0.1092368 -0.09745099 -0.37534872 -0.004989027 0.064304195 0.14968123 -0.00040759094
-0.30283523 -0.20777167 0.056695875 -0.16977668 -0.36506042 -0.15465309 0.06882343 -0.0032816855
-0.048380475 0.13983999 -0.10022998 0.22187178 0.16889855 -0.05345508 -0.11213148 -0.15555964
-0.18821116 0.27818537 -0.021637224 0.00769373 0.03412992 0.05524283 0.0035790156 -0.13247307
0.03198234 0.057745397 -0.0872955 0.073104374 0.101915225 0.23990482 -0.15026616 -0.075865135
0.25890282 0.038432714 0.1735395 -0.35753193 -0.11596713 -0.0159666 -0.14033446 0.0058835736
-0.3613689 -0.050956875 -0.033065133 -0.08374733 -0.10294308 0.03786034 0.020921217 0.073377624
-0.09550474 0.01978206 -0.29858384 -0.01535998 -0.17739064 0.24672008 -0.12308456 0.04137887
0.16432475 -0.049886845 0.010342077 0.058571722 -0.37995258 -0.071693614 -0.050077237 0.01027728
-0.10856503 -0.14716457 -0.1326196 -0.13691443 -0.057012893 0.36648658 0.08501734 -0.23005474
-0.0016254507 -0.04413846 -0.06224921 -0.011035344 0.13823098 -0.12923594 -0.33357775 -0.19588946
0.30533904 0.025535684 0.076452695 -0.31629917 -0.5244297 0.31202406 -0.06542039 -0.059396476
0.33758354 0.28636742 -0.18090552 0.090382926 -0.25448495 -0.110857785 -0.04442376 -0.29986867
0.31816107 -0.24242426 0.116480365 0.15992907 -0.08138985 -0.044788834 -0.0776164 0.09210952
-0.15447733 0.45637468 -0.32724455 -0.16984393 -0.39532197 -0.25306588 0.2768083 0.029091777
0.22551878 0.042802084 0.0067660273 -0.0015081954 0.27306643 0.2873699 -0.22605675 0.09403628
-0.0049812994 -0.2902775 -0.11009543 -0.22075534 0.7638849 -0.0005732337 -0.39089602 -0.30271065
0.072838746 0.23737003 -0.10556844 0.57334423 -0.2846895 0.16619962 0.32472116 0.1416207

a2c_network.actor_mlp.4.bias f4 [32]
00000000: 4b7b 113e 2349 1ebe 3848 f8bd 05fc a5be
00000010: c0ed a2be 4bb3 8abe d044 823d 9071 07be
00000020: a539 243a 7b0f adbe cc5f 063c 60d4 88be
00000030: d0ce 13be b02b ff3d 3eaf 42be 810c 0d3e
00000040: c505 3a3e a8a3 06be 9967 313e 9e26 5abe
00000050: 603b 09be 32c9 66be 4e7c c83b 67d5 f53c
00000060: 160e 80be 4cad 2dbe 7ce5 89be bbff a3be
00000070: 77d2 013e 37bf 06bd f0a4 03be 5233 54be
0.14207189 -0.15457587 -0.1212315 -0.32418838 -0.31822014 -0.27089915 0.06360781 -0.13226914
0.0006264693 -0.33800873 0.008201551 -0.2672453 -0.14434361 0.124595046 -0.19012162 0.13774301
0.18166263 -0.13148367 0.17324676 -0.21303794 -0.13401556 -0.22537687 0.006118334 0.030008985
-0.25010747 -0.16960639 -0.26932895 -0.32031044 0.12677942 -0.0328972 -0.12855887 -0.20722702

a2c_network.value.weight f4 [1, 32]
00000000: 5dec a33a 96a8 e3bd b6fc c43b aafb b0ba
00000010: fce0 073f 7681 913b 82e9 833d e7a1 833c
00000020: 76e1 14bd 3a05 e7bb 2d70 1fbd 018a 543c
00000030: 7f96 db3b ae22 4f3e ea40 ab3b b4ba 913a
00000040: b75e 95bd dc1c 45bd 0938 383c 1edb a1bd
00000050: 5b7b 7ebb 556e 51be 3ca5 103c c0f9 0dbc
00000060: 132c d2ba 9539 9d3d c09f 043c 94e7 80bb
00000070: 1041 8d3b 180a 6a3c 819f cfbc 919a d7bd
0.0012506355 -0.111161396 0.006011571 -0.0013502736 0.53077674 0.004440482 0.064410225 0.016068412
-0.03634783 -0.0070501836 -0.03892534 0.012972356 0.00670129 0.20228073 0.005226244 0.0011118264
-0.07293456 -0.048123226 0.011243829 -0.079031214 -0.003883085 -0.20452245 0.008828457 -0.008665502
-0.0016034864 0.076769985 0.008094728 -0.0039338563 0.0043107346 0.014284633 -0.025344612 -0.10527528

a2c_network.mu.weight f4 [3, 32]
00000000: fc48 08bd 0713 b1bb a26a 8bbc ab0e 83bc
00000010: 6f81 313d 0e56 063e a57c 19bd a903 c9bc
00000020: 9718 a2bc 5ca7 c4bc f8c5 1f3d c62a d33b
00000030: 502b 073d cebf 983d 3932 66bd ad9c 2e3d
00000040: ad79 4fbb 7c3d afbc 0c12 29be 44dc ea3c
00000050: ba0d 18bd 617d 783d 180b 2cbd 9482 bb3d
00000060: 88ed 73bc 9e04 b6bb 1a99 1a3e 0ddd 05be
00000070: fe5a 6b3d eb20 773d 5650 1c3d e770 3c3c
00000080: 65d7 0d3d 6f41 eabc 554d cabd 6d09 03be
00000090: 9ab6 ed3c ddbe 02be 85b1 a2bd 63c5 99bc
000000a0: 7695 47bc 27b2 ee3d f24f 063e 89aa 18be
000000b0: ca96 ba3d 2335 083e 1906 39bd eb0c 94bd
000000c0: 0c36 23bb 2d28 5dbc 4789 873c bca4 e73d
000000d0: 9c49 32bd c136 153d 38c7 5f3d 75cd 26bb
000000e0: 0eea cf3d b7f6 52bc 29bb 7abd 3b4a 6dbc
000000f0: 10e5 a3bd c4d9 e93b 04f4 363d 23d3 e73c
00000100: 4484 3fbe 3ac9 913c 1071 fc3c 44ab 00bd
00000110: eeb8 72bc 7e8f 5c3d 4054 c93d 0267 b9bd
00000120: 3c09 f3ba c220 523d ac47 5d3d 9797 a3bd
00000130: a4e1 57be 7bfb c9bc b206 883c bbe8 66bc
00000140: 4bda 8b3b 0722 5739 703d 863d efaf 95bc
00000150: ef57 04bd 9c0c f33c 1e7f e23d a8a6 00bd
00000160: e6de d8bd 30a0 d43b d62c fbbd daaa cfbc
00000170: cc42 383e 057d 013d fe78 82bc 2c73 9e3d
-0.03327273 -0.0054038796 -0.01701862 -0.015998205 0.043336328 0.13118765 -0.037472386 -0.024537878
-0.019787116 -0.024005584 0.039007157 0.006444308 0.03300029 0.07458459 -0.05620024 0.042629886
-0.0031658218 -0.021391623 -0.1651079 0.028669484 -0.037122466 0.060666446 -0.042002767 0.09155765
-0.014888175 -0.0055547496 0.15097466 -0.13072605 0.057459824 0.060334127 0.03816255 0.011501527
0.034629244 -0.028595654 -0.09878031 -0.12796564 0.029017735 -0.12768121 -0.079440154 -0.01877088
-0.01218163 0.116550736 0.13116434 -0.14908804 0.09110792 0.1330152 -0.04517183 -0.072290264
-0.002490404 -0.013498348 0.016544951 0.113107175 -0.04352723 0.03642917 0.05463335 -0.0025452052
0.10152064 -0.012876204 -0.061213646 -0.01448303 -0.080026746 0.0071365554 0.044666305 0.02829892
-0.18702799 0.017796148 0.030815631 -0.03141333 -0.0148145985 0.053847782 0.098305225 -0.0905285
-0.0018542181 0.05130077 0.05402343 -0.07987898 -0.21082169 -0.024656048 0.016604755 -0.014093573
0.004267966 0.00020516674 0.06554687 -0.018272368 -0.032310423 0.029669099 0.11059402 -0.031408936
-0.105893895 0.0064888224 -0.12264411 -0.025350023 0.17994231 0.03161337 -0.015926834 0.07736811

a2c_network.mu.bias f4 [3]
00000000: 84c8 c8bc 4d11 64bd 1f8d b33d
-0.024509676 -0.05568056 0.08767151

exp_avg f4 [3]
00000000: 8ad0 e538 7a0f 153b dd01 27ba
0.00010958414 0.002274482 -0.0006370822

exp_avg_sq f4 [3]
00000000: 3090 1639 b4e7 3939 189a 2239
0.00014358829 0.00017729291 0.00015506928

exp_avg f4 [128, 24]
00000000: cd26 b038 6c10 8d39 bb8a 9639 5188 1b39
00000010: f067 59b9 131f 4bb7 db68 6bb9 ae21 9638
00000020: c54d 8739 cc3c a038 f323 c0b7 68f8 eeb7
00000030: 3aca 8d3a 3aca 8d3a 3aca 8d3a 44eb 38ba
00000040: 42ce f3b8 62e8 77b8 6b51 0239 184a 2039
00000050: 224a 2039 420b 64ba f46a 993a c3e5 89b9
00000060: dbb8 123a ba9b fa39 2d6b 643a 05be 92b8
00000070: f7af 9bb9 bc71 3bb9 69cc 1db9 2e00 deb8
00000080: f224 263a 9a8e 54b9 3c9f 38b9 b4cd cbb9
00000090: acdb b138 acdb b138 acdb b138 f8d3 63b9
000000a0: 9bda 45b9 f25e 1339 605e 3839 1322 31b9
000000b0: 1722 31b9 170f a9b9 0bf1 6a39 173c e438
000000c0: d8ba d338 5316 cbb8 64b6 8f38 e24f 0cb8
000000d0: 2178 6db9 cbcc fd37 ef6f 3339 3e1e 80b8
000000e0: 1303 86b8 3d94 2639 f82e bc38 e87a f738
000000f0: 8750 7838 8750 7838 8750 7838 fe53 4ab9
00000100: efc1 0c38 d317 b4b8 80b5 78b8 6a70 8738
00000110: 5970 8738 fadd e1b9 f371 9139 8d03 de38
00000120: 00d7 2f39 592e d539 7c73 a639 333f 6739
00000130: ada1 5239 7c22 5438 50cf 1639 48ca 2a39
00000140: 33ff a139 3a87 8eb9 ccce 0536 bf78 68b9
00000150: 8c87 e6b9 8c87 e6b9 8c87 e6b9 8ef8 5939
00000160: 2db4 00b9 ab69 4c39 c027 e938 0abf 74b9
00000170: 09bf 74b9 9f2f ed39 1a5d 0aba aa78 9138
00000180: 8855 473a 8dbb 533a 4866 273a 6a16 2b37
00000190: caef 1f39 9859 bd39 1092 b2b8 b9be 7338
000001a0: 4f8e 093a ccc0 e338 8623 6ab9 f0db 38b9
000001b0: 908f 0239 908f 0239 908f 0239 c1aa c2b9
000001c0: f096 56b9 93b7 f838 9ed7 2939 d46e 2fb9
000001d0: d16e 2fb9 5319 a4b9 43d5 7139 9730 2bb7
000001e0: 6d38 9839 0535 4d39 5823 2e38 4171 6c39
000001f0: 7917 96b9 b50e f9b8 c2ed 8939 d7db c437
00000200: d7a5 2739 7375 0339 ad85 76b7 d13e 1cb8
00000210: a8e7 3a3a a8e7 3a3a a8e7 3a3a dcd4 1dba
00000220: 6506 b2b9 a0eb 4739 0154 b739 9a9c ddb8
00000230: b09c ddb8 f1a6 97ba 2c96 863a aec3 8f38
00000240: f99e 09ba 8966 62ba 820c 4cba 8317 83b8
00000250: f9e5 efb8 ba66 4339 2ab9 5539 7d80 3f37
00000260: d0b5 23ba 37cd 8db8 b813 82b7 926e 5739
00000270: cace 223a cace 223a cace 223a 677f 1538
00000280: e9be 37b7 b103 d237 8bd7 a037 5ac0 2eb7
00000290: 61bf 2eb7 b584 eab8 fda2 ec39 f3e8 c2b9
000002a0: ba57 b238 e545 5b36 aaf4 a6b8 26c6 9b38
000002b0: 7665 a238 0bee 6738 48b1 6f39 e787 86b8
000002c0: 1532 c138 f041 e2b7 6384 c1b8 cdc8 6339
000002d0: 0530 e9b9 0530 e9b9 0530 e9b9 9b7d d938
000002e0: 4c69 82b8 3b81 b038 8f16 5338 568e e4b8
000002f0: 608e e4b8 57ab 1e39 c602 b5b9 3b2b 4939
00000300: 6134 b538 41a1 ad38 095c 4db6 65ce 7738
00000310: 74c5 dab8 5d8d 5cb8 b9f8 e338 51ca ce37
00000320: a633 f836 bc04 1238 e5bc 56b8 248e 8a38
00000330: e630 003a e630 003a e630 003a 0c64 00b9
00000340: a8ab 99b7 8041 93b7 a3f3 1138 09bf 8f38
00000350: 08bf 8f38 7602 fcb9 cb05 173a 7800 b8b8
00000360: 217b a138 0b64 4739 9485 6339 1c51 aab8
00000370: 292e 32b9 04a4 6a39 4509 0c38 0235 98b8
00000380: bbfc e938 9766 6d36 1b05 eab6 5f89 ffb7
00000390: 5964 9d39 5964 9d39 5964 9d39 476f 88b9
000003a0: b030 4db9 bcd8 0339 9614 2c39 5c98 21b9
000003b0: 5498 21b9 117c d4b9 eef2 f239 88ef 7d37
000003c0: 69e3 5839 935d 8d39 95b9 3d39 53cd 9538
000003d0: 4b8b 0ab8 60b5 8e36 3e4d 0138 6513 0138
000003e0: 8efb 4239 2e3f adb8 8e50 aab8 8826 b638
000003f0: b425 143a b425 143a b425 143a c8d5 4ab9
8.399561e-05 0.0002690585 0.00028713592 0.00014832734 -0.00020733452 -1.2106978e-05 -0.00022450408 7.158831e-05
0.0002580715 7.640719e-05 -2.2904924e-05 -2.8487484e-05 0.0010817715 0.0010817715 0.0010817715 -0.00070541
-0.000116255615 -5.9105812e-05 0.00012428097 0.00015286391 0.00015286406 -0.00086991873 0.0011704848 -0.00026301862
0.00055970036 0.0004779974 0.000871348 -6.9972164e-05 -0.00029695008 -0.00017876079 -0.00015048835 -0.000105858184
0.0006337903 -0.00020271019 -0.00017606927 -0.00038872438 8.480935e-05 8.480935e-05 8.480935e-05 -0.00021727371
-0.00018868821 0.00014054382 0.00017582765 -0.00016892729 -0.00016892735 -0.00032245435 0.00022405775 0.0001088308
0.000100960664 -9.6839525e-05 6.852744e-05 -3.3452998e-05 -0.00022646833 3.0255314e-05 0.00017112469 -6.109149e-05
-6.3901905e-05 0.00015886217 8.973287e-05 0.00011800771 5.9202805e-05 5.9202805e-05 5.9202805e-05 -0.0001929551
3.3559216e-05 -8.5875065e-05 -5.9296843e-05 6.4582404e-05 6.458228e-05 -0.0004308073 0.00027741454 0.00010586446
0.00016769394 0.00040661058 0.0003174803 0.0002205342 0.0002008739 5.0576855e-05 0.00014382345 0.00016287819
0.0003089845 -0.00027185102 1.9938916e-06 -0.00022170226 -0.0004397001 -0.0004397001 -0.0004397001 0.00020787327
-0.00012274152 0.0001949432 0.0001111771 -0.00023340821 -0.0002334082 0.00045239643 -0.00052781554 6.936614e-05
0.00076039927 0.00080769585 0.00063857855 1.0197613e-05 0.0001525275 0.00036115642 -8.514908e-05 5.811334e-05
0.0005247341 0.00010860115 -0.00022329213 -0.0001762954 0.00012451247 0.00012451247 0.00012451247 -0.00037129785
-0.00020464859 0.00011859755 0.0001619742 -0.00016730587 -0.00016730583 -0.00031299386 0.00023062997 -1.02037075e-05
0.0002903374 0.00019570075 4.151775e-05 0.00022548904 -0.00028627718 -0.00011875985 0.0002630782 2.3467392e-05
0.00015988141 0.00012536887 -1.4693866e-05 -3.72518e-05 0.00071298564 0.00071298564 0.00071298564 -0.0006020793
-0.0003395557 0.00019065896 0.00034967068 -0.000105672705 -0.000105672865 -0.0011570138 0.0010268143 6.8552195e-05
-0.0005249824 -0.0008636495 -0.0007783846 -6.250946e-05 -0.00011439244 0.00018634918 0.00020382242 1.1414403e-05
-0.0006245049 -6.761628e-05 -1.550639e-05 0.00020545188 0.00062106235 0.00062106235 0.00062106235 3.564302e-05
-1.09521e-05 2.503567e-05 1.9173856e-05 -1.04159935e-05 -1.0415767e-05 -0.00011182708 0.00045134863 -0.00037176124
8.504042e-05 3.2674227e-06 -7.961069e-05 7.427884e-05 7.7436605e-05 5.5296387e-05 0.00022858859 -6.414932e-05
9.212286e-05 -2.6972004e-05 -9.227616e-05 0.00021723211 -0.00044477 -0.00044477 -0.00044477 0.00010370762
-6.218496e-05 8.416405e-05 5.032733e-05 -0.00010898399 -0.000108984066 0.00015131883 -0.00034525077 0.00019184958
8.640509e-05 8.279319e-05 -3.0600952e-06 5.908161e-05 -0.000104318286 -5.2583742e-05 0.00010870532 2.4651325e-05
7.3969886e-06 3.481352e-05 -5.1197498e-05 6.6068285e-05 0.0004890099 0.0004890099 0.0004890099 -0.00012244302
-1.8318955e-05 -1.7554266e-05 3.47976e-05 6.8543544e-05 6.854354e-05 -0.0004806702 0.0005761056 -8.773891e-05
7.700013e-05 0.00019015388 0.00021698169 -8.1213395e-05 -0.00016992599 0.0002237708 3.3387234e-05 -7.257798e-05
0.000111573805 3.5375467e-06 -6.974338e-06 -3.0462337e-05 0.00030020138 0.00030020138 0.00030020138 -0.0002602285
-0.00019568461 0.00012573873 0.00016410867 -0.00015410915 -0.00015410903 -0.00040528228 0.00046338834 1.5135745e-05
0.00020684082 0.00026963334 0.0001809358 7.143118e-05 -3.303149e-05 4.2530446e-06 3.0827934e-05 3.077406e-05
0.00018594993 -8.261051e-05 -8.121236e-05 8.685613e-05 0.000565137 0.000565137 0.000565137 -0.00019343861

exp_avg_sq f4 [128, 24]
00000000: 195d d137 ee75 d637 5cce dc37 5a4d 4e36
00000010: 04ec 6e36 c2f9 8b36 8acb a936 9911 5e35
00000020: 41a6 9437 e14e 3336 5114 4436 defe 9f36
00000030: 4094 8337 4094 8337 4094 8337 3a9c 8637
00000040: 78db d936 1189 b936 fb81 d036 0dfe c036
00000050: 0dfe c036 e114 a437 3d1f c337 efd9 b936
00000060: daff a138 88cd a638 c1ed b238 d46d f136
00000070: 2746 da36 4db3 2837 7026 7237 5ff8 b635
00000080: 099d 7238 51ef 9036 548f 8536 a884 1637
00000090: 0400 2538 0400 2538 0400 2538 31f6 4c38
000000a0: 17a3 cb37 08b5 9a37 72ae bc37 3302 a037
000000b0: 3302 a037 e914 6a38 a875 7c38 9150 6e37
000000c0: 9b5d 8237 9125 8137 e1f1 9537 c31c d635
000000d0: 8a49 e335 6600 1a36 8145 6e36 a370 ab35
000000e0: 1a39 4d37 1d9c ae35 2b42 1536 1eae 1c36
000000f0: 6217 bc36 6217 bc36 6217 bc36 ca45 d536
00000100: c49a 4f36 351b 4336 aa32 4a36 526f 4a36
00000110: 4e6f 4a36 cc9b db36 2620 0d37 5fac 2f36
00000120: 21f0 9737 101d 9a37 d716 a037 db41 b635
00000130: a451 fa35 f856 0836 aadb 9b36 15d0 a235
00000140: 8002 6c37 5b7f 1c36 2068 5e36 8058 7036
00000150: 4e50 db36 4e50 db36 4e50 db36 a052 1637
00000160: 9221 6a36 ef7c 4a36 911f 6336 dce1 4b36
00000170: dbe1 4b36 579c 0737 d712 2537 98c8 2b36
00000180: 4d72 d036 f5fb b836 529e c336 500b d935
00000190: 1c4d 0036 4d0e 0036 7f00 cb35 35e9 fd34
000001a0: e2d0 7436 180f b335 0de4 0f36 01dc ee35
000001b0: c83c 9436 c83c 9436 c83c 9436 7f3a 8836
000001c0: 4f17 e835 0730 d935 8374 eb35 b912 df35
000001d0: b712 df35 daed b436 c63f d236 acd3 e135
000001e0: c5a6 9e37 bb24 9e37 600d a037 c191 6d36
000001f0: d3a1 8b36 242b aa36 67c0 6236 7582 4435
00000200: 4100 4c37 fde5 8b35 6d4e bd35 3c0b 1336
00000210: 08e4 7237 08e4 7237 08e4 7237 9934 3f37
00000220: f7d2 d236 70f1 b636 a268 cd36 210b b836
00000230: 210b b836 1733 8a37 9894 a937 7e7d b536
00000240: c799 7d37 4f86 7437 8697 8237 0ff7 f335
00000250: 6099 3036 bdda 2236 55c6 8036 6d95 9f35
00000260: f504 3337 6edc d435 bc1f 1436 71e9 4536
00000270: e928 4737 e928 4737 e928 4737 ffd3 1d37
00000280: 7a5f 5536 e11b 6836 3729 5336 b062 7a36
00000290: b062 7a36 547d 4b37 988b 9037 7e99 5936
000002a0: fc8c 8a37 7243 8737 c719 9b37 4989 ee35
000002b0: a514 1636 2440 3136 51d9 6e36 f900 4535
000002c0: f159 4a37 7f32 4035 00c5 8b35 ac7c d935
000002d0: 6ce3 2237 6ce3 2237 6ce3 2237 cdb8 3b37
000002e0: 7c60 8336 87bd 7236 ed5e 7f36 23b1 7936
000002f0: 25b1 7936 a9ed 4337 c7d8 7f37 6d0d 4436
00000300: 8707 b635 788a b835 fd49 b635 3bc0 9c34
00000310: 1cec b934 118a d134 0e53 b634 00ed 4a34
00000320: d788 8235 c7cc 4634 decb 8934 93b9 d834
00000330: 3c58 9835 3c58 9835 3c58 9835 5cc0 5735
00000340: 1c13 0135 b1b3 0c35 684e 0635 6b19 0e35
00000350: 6c19 0e35 1aa4 8a35 2daa cd35 4b71 b134
00000360: 0852 dc36 9966 e736 7aa2 fa36 7ba8 3b35
00000370: e193 a035 a270 b635 5695 bd35 cca2 e134
00000380: 21d2 ae36 f52c 4d35 54f4 4935 1006 bb35
00000390: 5cef b436 5cef b436 5cef b436 2837 bd36
000003a0: 7023 fb35 91e2 cc35 158f f235 64b6 c835
000003b0: 65b6 c835 0d27 e636 945f 0c37 f9e9 9735
000003c0: 9bfe b336 b4c7 b536 988d b936 943a 4135
000003d0: 8d72 9235 3db9 9b35 cee0 8835 29ef 4834
000003e0: e6d7 7036 c539 9934 3f74 a934 b487 4b35
000003f0: 7bb3 9d36 7bb3 9d36 7bb3 9d36 bace 7536
2.4958093e-05 2.5565703e-05 2.6322137e-05 3.0741417e-06 3.5602143e-06 4.1715984e-06 5.0602875e-06 8.272705e-07
1.7720393e-05 2.6718992e-06 2.9218102e-06 4.7682397e-06 1.5685451e-05 1.5685451e-05 1.5685451e-05 1.6046793e-05
6.4926535e-06 5.5293863e-06 6.214015e-06 5.7516213e-06 5.7516213e-06 1.9560046e-05 2.3260358e-05 5.5388005e-06
7.724734e-05 7.95378e-05 8.5319865e-05 7.1951454e-06 6.505073e-06 1.0055327e-05 1.44332735e-05 1.3632342e-06
5.7843547e-05 4.3193945e-06 3.9803945e-06 8.971583e-06 3.933908e-05 3.933908e-05 3.933908e-05 4.8866674e-05
2.427543e-05 1.844253e-05 2.2492579e-05 1.907451e-05 1.907451e-05 5.580942e-05 6.0191058e-05 1.4204664e-05
1.5540796e-05 1.5395492e-05 1.7874818e-05 1.5952613e-06 1.6934221e-06 2.294802e-06 3.550522e-06 1.2773274e-06
1.2232247e-05 1.3009445e-06 2.2241245e-06 2.334716e-06 5.6055587e-06 5.6055587e-06 5.6055587e-06 6.356019e-06
3.093549e-06 2.90731e-06 3.0129836e-06 3.0165143e-06 3.0165133e-06 6.5448457e-06 8.41174e-06 2.6177365e-06
1.8112421e-05 1.8371764e-05 1.9084122e-05 1.3579223e-06 1.8650212e-06 2.0316202e-06 4.6449322e-06 1.21305e-06
1.4067278e-05 2.3319942e-06 3.3141187e-06 3.58143e-06 6.5360573e-06 6.5360573e-06 6.5360573e-06 8.959934e-06
3.4888258e-06 3.0173067e-06 3.384401e-06 3.0380825e-06 3.0380822e-06 8.083028e-06 9.839153e-06 2.5597747e-06
6.2121894e-06 5.512959e-06 5.829884e-06 1.6171052e-06 1.911837e-06 1.908181e-06 1.5124823e-06 4.7294603e-07
3.648042e-06 1.3340932e-06 2.1441404e-06 1.7796411e-06 4.4178196e-06 4.4178196e-06 4.4178196e-06 4.0599257e-06
1.7292131e-06 1.6181738e-06 1.7542774e-06 1.6620244e-06 1.6620241e-06 5.3921076e-06 6.265912e-06 1.6825411e-06
1.8912726e-05 1.8852172e-05 1.9079715e-05 3.5400592e-06 4.1613616e-06 5.071417e-06 3.3788617e-06 7.320553e-07
1.2159407e-05 1.0423242e-06 1.4104422e-06 2.1911246e-06 1.4477417e-05 1.4477417e-05 1.4477417e-05 1.13967335e-05
6.2830472e-06 5.4521297e-06 6.121657e-06 5.484923e-06 5.484923e-06 1.6474673e-05 2.0215564e-05 5.4088296e-06
1.5115779e-05 1.45748045e-05 1.5567766e-05 1.8176814e-06 2.631532e-06 2.4267204e-06 3.837786e-06 1.1889912e-06
1.0670386e-05 1.5859384e-06 2.207219e-06 2.9491168e-06 1.1870849e-05 1.1870849e-05 1.1870849e-05 9.407288e-06
3.1795048e-06 3.4586922e-06 3.146544e-06 3.7310347e-06 3.7310347e-06 1.2128923e-05 1.7231141e-05 3.2424864e-06
1.6516533e-05 1.612466e-05 1.8489443e-05 1.7772337e-06 2.2363758e-06 2.641239e-06 3.5591258e-06 7.3389634e-07
1.2061079e-05 7.1599055e-07 1.0413642e-06 1.6204044e-06 9.708903e-06 9.708903e-06 9.708903e-06 1.1189096e-05
3.9153365e-06 3.617113e-06 3.8053215e-06 3.7206999e-06 3.7207003e-06 1.167824e-05 1.5249657e-05 2.921409e-06
1.3562247e-06 1.3749368e-06 1.358159e-06 2.919713e-07 3.4630727e-07 3.902974e-07 3.3960572e-07 1.8898936e-07
9.72558e-07 1.8514685e-07 2.5666571e-07 4.0368158e-07 1.1350562e-06 1.1350562e-06 1.1350562e-06 8.037366e-07
4.808405e-07 5.241555e-07 5.0032986e-07 5.293611e-07 5.2936116e-07 1.0329561e-06 1.5323218e-06 3.305125e-07
6.5660606e-06 6.8962804e-06 7.4694954e-06 6.99081e-07 1.1963967e-06 1.3592837e-06 1.412506e-06 4.2027966e-07
5.2100663e-06 7.643387e-07 7.523388e-07 1.393435e-06 5.392283e-06 5.392283e-06 5.392283e-06 5.63906e-06
1.8711271e-06 1.5265124e-06 1.8072047e-06 1.4954244e-06 1.4954245e-06 6.8590803e-06 8.366904e-06 1.1318472e-06
5.3642557e-06 5.417469e-06 5.5299133e-06 7.1983345e-07 1.0911186e-06 1.1602311e-06 1.0198216e-06 1.8713457e-07
3.5888456e-06 2.8540504e-07 3.1563283e-07 7.5820867e-07 4.699859e-06 4.699859e-06 4.699859e-06 3.6628176e-06

exp_avg f4 [128]
00000000: e321 c2b9 e218 65ba dddf bc38 7fdc 0eba
00000010: 1cab 91ba e9a3 12b9 7e41 6d3a 8b4d a0b8
00000020: 803d deb8 b13c a4b9 c62e a8b9 1ab7 d7b9
00000030: d0ad 133a 9947 0dba e67f 8837 5d82 ccb8
00000040: 1d84 ae38 f544 7cb9 d42a d0b9 016e 02ba
00000050: 2292 b9b9 1a1e 003a 21e1 a13a 301f b5ba
00000060: 3b1b 9e38 aa6a 3bba 2fdf 293a 8f8a dcba
00000070: 1e81 0339 ab7d 053b 3b77 a73a 5e90 9f39
00000080: 8b39 bb38 e830 003a 935a 16ba 117f c239
00000090: e041 213a f542 633a 0d04 4d39 5401 753a
000000a0: 14b1 493a 58f1 653a 46ba c936 e137 0139
000000b0: be6c e539 d1c4 703a 16e1 5d38 c6dd a73a
000000c0: b3d5 aa3a b9b6 9b39 5eb2 e7b9 a287 813a
000000d0: 576d b13a e1eb 0538 7fe3 c239 1704 96ba
000000e0: 575b ea39 dce5 5eba 5592 e6b9 425e ce39
000000f0: ed80 84b8 4d64 0a3a 6cb0 fe39 4d41 0fba
00000100: 5535 b938 b9f4 a139 e239 483a 5fe1 77b9
00000110: d6f8 893a 9623 ae3a fe1b 8cb9 8d9e 86ba
00000120: 3ac8 633a 5be1 9238 ad36 9039 336b 0d3a
00000130: af8f c8b7 f11c 6837 ba7f 2eba 357d bab8
00000140: 8069 823a 8a05 263a 43ce 26ba 370f 48ba
00000150: a56c 1739 e87b aa3a c94a 49ba 261f f039
00000160: 1d70 023a 514a 9eba 69b3 8a38 90e9 443a
00000170: 665b be3a f386 f839 daf6 a0ba 4992 89ba
00000180: 0ef1 9136 b6b2 acb8 d19b e1b9 0152 94b9
00000190: 79d5 633a 2ceb 9f3a a1ba bcb9 e9d3 2b3a
000001a0: f24c b4ba 540e 82bb e95d dc38 6856 7f3a
000001b0: cc30 8f3a 1672 a1b9 e0e2 ac3a e744 ae39
000001c0: 2385 d33a 3cdb f4ba bf00 813a 05f8 7bb9
000001d0: 75ae 90ba b8fb 0aba 9e25 9b3a 0378 01ba
000001e0: ea1a 67ba 8414 02ba 29da 91ba 283f 1239
000001f0: eed1 653a 74ac c339 afd2 f0b9 f4c2 4239
-0.0003702781 -0.00087393646 9.006236e-05 -0.00054497266 -0.0011113617 -0.00013984706 0.00090505916 -7.643838e-05
-0.0001059724 -0.00031325736 -0.00032078306 -0.00041144417 0.0005633505 -0.0005389392 1.627202e-05 -9.75176e-05
8.3215746e-05 -0.00024058281 -0.0003970476 -0.00049754983 -0.00035394827 0.0004887298 0.0012350419 -0.0013818499
7.539099e-05 -0.0007149378 0.00064800953 -0.0016825962 0.00012541233 0.0020369093 0.0012776622 0.00030434405
8.927573e-05 0.00048901 -0.00057355425 0.00037097235 0.0006151479 0.000866934 0.00019551833 0.0009346206
0.0007693928 0.000877162 6.011952e-06 0.00012323215 0.00043759303 0.00091846014 5.2900134e-05 0.0012807183
0.0013033658 0.00029700043 -0.00044192647 0.0009882341 0.0013536614 3.192935e-05 0.0003717206 -0.0011445311
0.00044700011 -0.00085028796 -0.00043978044 0.0003936161 -6.318265e-05 0.0005279228 0.000485781 -0.00054647477
8.831421e-05 0.00030890646 0.000763802 -0.00023639713 0.0010526429 0.0013285752 -0.00026723737 -0.001027064
0.0008689199 7.003798e-05 0.00027506557 0.0005394697 -2.3908766e-05 1.3835016e-05 -0.0006656606 -8.892493e-05
0.0009949654 0.0006333223 -0.0006363133 -0.0007631662 0.00014440955 0.0013006898 -0.00076786854 0.00045799575
0.00049758126 -0.0012076591 6.6137705e-05 0.000751161 0.0014523088 0.0004740279 -0.0012280599 -0.0010495867
4.349399e-06 -8.2348866e-05 -0.00043031437 -0.00028289857 0.00086911727 0.0012200824 -0.00035997204 0.00065547094
-0.0013755842 -0.003968993 0.000105079096 0.00097403536 0.0010924577 -0.00030793314 0.0013190173 0.00033239202
0.00161377 -0.001868106 0.0009842141 -0.0002402962 -0.001103832 -0.0005301791 0.0011836772 -0.00049388426
-0.0008815961 -0.00049621635 -0.0011127639 0.00013947173 0.00087669387 0.00037321786 -0.0004593334 0.00018573907
