runs/FrankaCubeStack_31-15-41-44/nn/last_FrankaCubeStack_ep_100_rew_12.344401.pth (torch, 578871 bytes, 36 tensors)

value_mean_std.running_mean f8 [1]
00000000: f1cd 09c6 4c8c 0640
2.8185058089963992

value_mean_std.running_var f8 [1]
00000000: 4839 5cec e610 0b40
3.3832529512066323

value_mean_std.count f8 []
00000000: 0000 0080 0000 4941
3276801.0

running_mean_std.running_mean f8 [19]
00000000: a9bc 3793 0e2a 7fbf db8d a125 056d 793f
00000010: 49a8 d990 beb4 80bf e08f caf2 376a ed3f
00000020: 1ddd f667 644c 893f 664b 07a3 4956 783f
00000030: 6f76 316f 2bcc f03f 0f83 7433 9fff 89bf
00000040: 7450 8724 c9ea 77bf 6063 484b ee3d 863f
00000050: f21f ace1 3007 71bf da40 62ab 67f3 613f
00000060: 71b4 1e61 00b4 f13f d037 8a8c 8037 c9bf
00000070: b2bb 63ab 420d a2bf 6529 55f5 6ed6 c6bf
00000080: b6d0 6f9e 149c 863f 989c e9b4 2f02 843f
00000090: 0098 0328 a6aa 853f
-0.0076084679926530585 0.006207485299543926 -0.008157242579916029 0.9192161314026599 0.012352737829913136 0.005941665309779553 1.0498461097226046 -0.012694591291223327
-0.005839143479949727 0.010860311195800498 -0.004157248443114258 0.0021912598413750097 1.1064456742999733 -0.19700629102993483 -0.03525741903455727 -0.1784189889825242
0.011039887509447826 0.009769795139801737 0.010579393478518995

running_mean_std.running_var f8 [19]
00000000: 0756 d846 a3d0 953f cf36 12c6 f998 953f
00000010: 55b6 394e fdcb b63f 0c8e 1d88 ebaf 973f
00000020: 4c5a a8d7 371e 9f3f b5b9 964e 9362 9b3f
00000030: 6ef8 c27a 10cc 443f 7abc 3025 a142 b33f
00000040: b7c1 8412 c4b1 b13f a0e7 3e9e 2799 7b3f
00000050: bdfd 86a1 c5f0 963f 726c 1e24 9177 973f
00000060: 2218 082c fe3e 8b3f e60a 65b5 df2f e73f
00000070: 2e11 da2d 4445 b63f afca f411 7da6 b03f
00000080: 3278 d7c6 6829 aa3f 6dc8 830c 3617 223f
00000090: a3bb baa7 0f0d 233f
0.021303702544249983 0.021091368402770535 0.08905013236809485 0.023132019217326813 0.030388710534760485 0.02674322287719529 0.0006346779314510117 0.075235435084993
0.06911874248613158 0.006737856634510125 0.022402847274632032 0.022917049245375805 0.013303743094194746 0.7245939772477328 0.08699442023686707 0.06504041374572965
0.05109717776552748 0.00013802084709585734 0.0001453477487891294

running_mean_std.count f8 []
00000000: 0000 0000 0100 3941
1638401.0

a2c_network.sigma f4 [7]
00000000: c0c6 93be b939 41bf 5b55 90be 8c56 80bd
00000010: e9e2 2dbe 5952 34be 7579 81bf
-0.28862572 -0.754787 -0.2819012 -0.062665075 -0.1698109 -0.17609538 -1.0115191

a2c_network.actor_mlp.0.weight f4 [256, 19]
00000000: 8b47 033e 981c f7bd 6ad8 783d 2652 22bd
00000010: 68aa dc3e 016e 8fbe 53da c1bd 106c a7bd
00000020: 0cfd cdbd c3ae adbb 3aef c0be 69d5 1e3e
00000030: aa22 b5be 0043 c13d 71f9 31bb 7fb1 0cbe
00000040: 10d6 943d 1ae3 78bd efba 603d 92a2 203d
00000050: bc9b afbd 7608 863b b82a a5bd e54c 213e
00000060: 0b12 563e 4c5c bd3d 34f9 c4bd 09e5 343e
00000070: 8e0c d1bc 1b93 cc3d d82d 12be cb54 21be
00000080: 876b aabd 8cdf e9bd 78c6 543e e82e fb3c
00000090: a34d b63d 115e 8f3d 81d9 c5bb 8182 4a3e
000000a0: 838c 43be e9db da3c 144e dabd 6d25 bf3d
000000b0: d9f6 05bd 3e50 65bb 0e11 10bd 3289 833e
000000c0: b143 92bd 42d9 08be e8f0 c2bd 487b 003e
000000d0: 6f8e a93d 2e67 743e c866 12be 214a cfbd
000000e0: 2e96 33bd 168b 66be e5f2 213e 7a86 ee3c
000000f0: 09fd a63d 289c 71be 1acd efbd ce6f 953e
00000100: 67ce 0dbe 2029 cc3c d56c c8bc 8c82 683e
00000110: 617c dfbd 9e79 26be 2464 a43d 68ba 8f3d
00000120: 1a71 bdbc 91ea 6a3e e3fd 193e 1cd7 3ebe
00000130: 74a8 6bbd 4224 433e e31d c1bd fa2d 60bd
00000140: 8e43 9cbe 7139 1cbe ca3a 833d aa69 b3bd
00000150: ebda 1cbe 0ff9 903d 6df6 7cbd 7e78 1fbe
00000160: 9d54 05be 23bc 22be 2f1a 11be 687f 6d3e
00000170: 59cf 553d dc6e d33d 1ddd 30be c332 c7bd
00000180: e5d1 a9bd 3c05 473d c8b0 4dbe 8462 3cbd
00000190: efff bcbd c7ff d3bd 3e10 e9bd e45a 49bd
000001a0: 94e6 36be 09b1 2fbe c306 0fbe bfeb 43bd
000001b0: 0e6f 0cbe 1a30 5a3e cc5f a43c 2ee8 573e
000001c0: da4c b43d 5032 37be bc9f 2a3e 71e0 7cbe
000001d0: 5afd fb3a d9ef 23be 0fb7 0cbe 16f6 b139
000001e0: 508c a9bd ae71 493d 539d bcbc 4b9e 743e
000001f0: 4229 9cbd 7d0f d3bd ad71 913d 0e09 f6bc
00000200: 698c 583e bc3f 903e b730 86be 7fcb 2c3e
00000210: 7772 8a3d 7def 59be f611 73be a3d8 663e
00000220: 4408 95be 2b13 ca3d 15e5 8b3e d983 3bbc
00000230: c4ea cebd 20b8 7d3e a656 3abd be58 8a39
00000240: e58c bebe 679c e43d d53d 03bd 2bf6 3bbd
00000250: 4a38 0c3e 9928 833c 6aa4 d5bd 1c56 cdbd
00000260: 7177 7c3c eb65 053e e6d0 c23b 2baa c0bd
00000270: ec25 75be ca37 e4be 248f 0a3e 5abf db3d
00000280: 44c3 5cbe d304 5a3d a8a0 b13e 1c97 4c3e
00000290: cc2f 2dbd 166a 98bc 7986 aa3c 6462 223b
000002a0: df3b 4fbc 0cac 09bd caf9 883d 45e0 a03d
000002b0: d9da 5ebe 6e7b fa3d 0202 8b3e aae6 123d
000002c0: d7d8 ffbd ebd8 17bd 224a 74bd e178 a43c
000002d0: 3480 b43d ebcc 11be 87ea b43d 4944 473e
000002e0: e0ec ff3b 5f3e abbd 05af 88bd 45dd c0bd
000002f0: 4b21 0bbe 0b64 8b3c 5cd2 173e b25f 3a3e
00000300: 6b20 8f3c 882e 4bbe 029a 16be 54f1 eabb
00000310: 1f14 803e 9b55 97bd 2b81 c6bd f4d5 a33d
00000320: 7491 4e3d 7de0 35be 0bbe f73d 0b42 38bd
00000330: 8894 303d b5e9 13be 30b8 3c3e 14e5 bc3d
00000340: af9b 0b3c cb58 043d 004a 4fbe f925 ffbd
00000350: a9df 233d 369c 413e ec46 8c3e 0f72 9f3d
00000360: d257 893d 9e8f ed3d 7b56 8abe 749b 71be
00000370: 8faa 92be 472b 37bc bef8 afbd 4ca7 7fbc
00000380: 1cad a6bd 81eb cdbc 8875 e9bc a371 a2bc
00000390: 3749 b23d 3a2a cfbd ea48 ca3d 1723 19bd
000003a0: 2e05 38be 0781 95bd fc60 d6bd 4415 6bbd
000003b0: d325 63be 1e74 c23d 19dd 3abe c435 483e
000003c0: 9597 2e3d 76ce 763e e553 1dbe 3a10 7e3e
000003d0: d3be a7bd 9215 833d b7f7 653e df56 5c3d
000003e0: d76f 913d 67e5 21bd 7107 8dbe 170a 3c3e
000003f0: 214d debe 68ee 703d 48cd a33d 6c6b 083e
0.1282026 -0.12066001 0.060753264 -0.039629124 0.4309876 -0.28013614 -0.0946547 -0.08174908
-0.100580305 -0.0053003742 -0.37682515 0.15511097 -0.3537801 0.09436607 -0.0027156735 -0.13739584
0.07267392 -0.060763456 0.054865774 0.03921754 -0.08574626 0.004090364 -0.080647886 0.15751989
0.2090532 0.0924612 -0.09617844 0.17665495 -0.025518682 0.09988996 -0.142753 -0.15755002
-0.083212905 -0.11419591 0.20778835 0.030662015 0.08901527 0.070003636 -0.0060378914 0.19776346
-0.1909657 0.02671619 -0.106594235 0.0933331 -0.032706115 -0.0034990455 -0.035172515 0.2569061
-0.07141817 -0.13364127 -0.095186055 0.12547028 0.0827912 0.23867485 -0.1429702 -0.10121561
-0.043844394 -0.22513995 0.15815313 0.029116858 0.081537314 -0.23594725 -0.11709042 0.29186863
-0.13848267 0.024921954 -0.024465958 0.2270605 -0.10912395 -0.16257331 0.08026913 0.07017976
-0.02312522 0.22941042 0.15038256 -0.18636745 -0.057533696 0.190568 -0.094295286 -0.054731347
-0.3052029 -0.15256287 0.064076975 -0.08760388 -0.15317886 0.07078754 -0.061758447 -0.15573308
-0.13020559 -0.15892081 -0.14170144 0.23193133 0.052199695 0.10323879 -0.17271848 -0.09726479
-0.08291987 0.048588976 -0.20086968 -0.04599239 -0.09228503 -0.1035152 -0.11380051 -0.049158946
-0.17861396 -0.17157377 -0.13967423 -0.047832247 -0.13714239 0.21307412 0.02006521 0.21084663
0.08803721 -0.17890286 0.16662496 -0.24694993 0.0019225285 -0.16009463 -0.13741706 0.0003394342
-0.082787156 0.04918068 -0.023024237 0.23888509 -0.07625057 -0.103056885 0.0710176 -0.030033614
0.21147312 0.28173625 -0.2620904 0.16874503 0.06760114 -0.21282764 -0.2373732 0.22543578
-0.2910787 0.09866937 0.27323213 -0.011445009 -0.10103372 0.2477727 -0.04549279 0.0002638753
-0.3721687 0.11162644 -0.03204139 -0.04588906 0.13693348 0.01601057 -0.1043175 -0.1002619
0.015409336 0.1302716 0.005945313 -0.09407457 -0.23940247 -0.44573814 0.13531166 0.10729857
-0.21558863 0.053227257 0.34692883 0.19979519 -0.04228191 -0.018605273 0.020816075 0.0024777884
-0.012648552 -0.033611342 0.066882685 0.07855276 -0.21763171 0.122305736 0.2714997 0.03586451
-0.12492531 -0.037072103 -0.05964101 0.02007717 0.08813515 -0.14238326 0.08833795 0.19459642
0.00781022 -0.08361506 -0.06674007 -0.09417204 -0.13586919 0.017015478 0.1482634 0.18200567
0.017471513 -0.19841969 -0.14707187 -0.007169882 0.2501535 -0.07389375 -0.096926056 0.07999793
0.050431684 -0.17761417 0.12096795 -0.04498486 0.0431104 -0.14444621 0.18429637 0.09223381
0.008521005 0.032311242 -0.20243073 -0.124584146 0.04000822 0.18907246 0.2739786 0.07785427
0.067062035 0.115996584 -0.27019104 -0.23594457 -0.2864575 -0.011179752 -0.08592366 -0.0156038515
-0.08138487 -0.025136711 -0.028498426 -0.019829577 0.08705371 -0.10115476 0.098771885 -0.03738698
-0.17970726 -0.07300001 -0.10467717 -0.057393327 -0.22182398 0.09494804 -0.18248405 0.1955176
0.04262503 0.24102196 -0.15364034 0.24810877 -0.08190694 0.064005986 0.22457777 0.053793784
0.0710141 -0.039525416 -0.2754474 0.18363224 -0.4341822 0.058821112 0.07998139 0.13322228

a2c_network.actor_mlp.0.bias f4 [256]
00000000: eb7c 83be 68fd 133e bceb b7bb ff26 22be
00000010: 7653 f13d 7d4d b93d 5454 1ebe 52e1 533e
00000020: 090b 203c 6fd3 b63d a25f 953d 9e43 2eba
00000030: 8b4c d23d b008 9cbd 4bf1 1bbe e1f5 83bd
00000040: b3ee 9e3d 90a5 113e 5bc1 743e da8f 51be
00000050: d881 a9b9 9fde cf3c 0bc0 29bd 8403 f9bd
00000060: f9b2 d5bd 3813 593e b703 a53d d22f 49be
00000070: d5c0 963c e923 8abd 214a 453b e43b 963d
00000080: 47f3 32bd e577 a63d f50b 183d 019c 3fbe
00000090: 4280 b2bd a5ff 52be ba95 f53d bbdc ef3d
000000a0: 6b4d 343e 60a5 acbd 2cba de3d 51e1 5b3d
000000b0: b5ce f53b 88fb 0c3d c8f9 82bc cf45 67bd
000000c0: 5bbe c53d c94a cf3d 0440 173c 008e 823d
000000d0: 180b bbbb 4ecb 2b3e ce85 0b3e a7cb e23d
000000e0: ed09 2fbe 911f cfbd d0d2 253e 9b94 dbbd
000000f0: d1d6 29be d3dd f93d 21f7 c5bd b0fb 33be
00000100: bcc8 0abd b281 8bbd 0906 30bc 659e 563d
00000110: 3f15 943d dcec 01be b552 82bd edf7 06be
00000120: f65f 0c3e 7820 4dbc ca75 433d fc83 f43d
00000130: da6a ee3b 8594 ae3d 87b9 4abe 132c 37bd
00000140: 12db 903e e039 0ebd 321f 35be 54e5 89be
00000150: 9a87 4f3d 4348 dfbc ee43 01be 77ac 703e
00000160: ebc7 443c 2899 903d 4688 84bc 754b 0a3e
00000170: 833c d93d 3d2b d73d 4ffa 283e 8474 6d3e
00000180: c88a 90bc aaaa fb3d 35c6 043e 417c 10be
00000190: aee3 fe3d e9e1 3d3e 735e b73d d440 be3d
000001a0: 1643 253d d947 a63d eaf1 723d 831d 2e3e
000001b0: 11cc f43d a2d8 763d e3dc 83bd 9995 253c
000001c0: 58e3 a13d 14cd d03d bd0f 54bd afeb 803d
000001d0: 65d5 093e d652 00be f1a1 a53d 737a 5f3e
000001e0: 98f8 36bd 333d 893c a85f 493d 5f32 28be
000001f0: 8045 3a3e 8b13 b13d 00b3 cbbd ba89 1abd
00000200: 081a e5bd 989f e1bd 6f2e 213c e38b 7d3d
00000210: 02a6 d93d 7bdf 43bc 2856 e03d 9b34 773c
00000220: 6299 ce3d 1246 a2bd 891b e93d 6647 c33d
00000230: 7ad3 143d 431b a5be 02df 5f3d 7648 f5bd
00000240: 454c f2bd 0565 023d 285a b43d 51cc 0e3e
00000250: 0428 88bd 802e 13be bd50 2a3d 5503 813d
00000260: 15f3 363e 8878 ff3b 2227 cfbd 1a5a 01be
00000270: a647 f13d a234 1e3e 6d4f bc3d 5702 36be
00000280: 960d c53d f5b4 63be dbc2 0e3e 838d 0abe
00000290: 249a c2bc 5b57 c9bd ff61 653d ddac 993c
000002a0: 1450 2b3c 8a87 913d 1792 f73d 31e3 bebd
000002b0: 67e5 e4bc 5994 eebd 85e9 2b3d c838 df3d
000002c0: 05a9 6a3c 30f6 203e a375 53bd a099 813c
000002d0: 09d7 9c3d 9140 763d 1041 e2bc b777 d0bc
000002e0: 35c4 453e 6dbf fe3d fa38 d93d 56ff 5e3d
000002f0: 8818 673e 45dd 95bc 6c3c 193d b85e 79bc
00000300: f426 ab3c fd7e 963d cc4d 4b3d 69e1 2e3e
00000310: 026d d5bd f19f a0bc 88aa a23d 58eb 36be
00000320: 4dd5 13be 5819 fabd adb7 1c3e 36e3 35be
00000330: e273 953d 15cc 273d e51f d6bd 3391 c03d
00000340: 4f9a be3c 53f3 0d3e 28be 263d 0e0d f939
00000350: a5dc 01be 182a 0b3e ea13 20bc 2a8e 543d
00000360: fd08 4e3e d2e5 843d d7b5 103e d14e ce3c
00000370: 788c a03d 2355 c33c a978 933c 948d 8c3d
00000380: 44e2 2d3e 5200 7e3d 5bb5 b7bd c288 1a3d
00000390: 863d fabd e547 ffbc 933a fc3d 0611 063e
000003a0: a73a 26be 93b7 e13c 1e67 0f3e b2f8 973d
000003b0: 2a9e fc3d 4204 c8bd 33ab 12be c661 0d3d
000003c0: 7a34 64bd b55d 09bd 2d10 81bd 8321 46bd
000003d0: 218d c03d eb53 54bc 630b c73d 7645 643d
000003e0: 45e9 c63d 2134 c2bd e581 47bd 69d1 833d
000003f0: 5abc 9bbd 2f08 9e3d 07b9 153e 6ea2 603d
-0.25681242 0.14452136 -0.0056128185 -0.15835188 0.11783497 0.09047983 -0.15461856 0.20691422
0.009768256 0.089270465 0.07293631 -0.0006647649 0.10268506 -0.076188445 -0.15228765 -0.06443382
0.07760372 0.14223313 0.23901884 -0.20465031 -0.00032330933 0.025374709 -0.041442912 -0.12158874
-0.10434527 0.21198738 0.08057349 -0.19647148 0.018402496 -0.067451306 0.0030103999 0.07335642
-0.04368904 0.08128337 0.037120778 -0.18711855 -0.087158695 -0.20605333 0.11991449 0.11712023
0.17607658 -0.0842998 0.10875353 0.053681675 0.007501448 0.034419566 -0.015988246 -0.05646306
0.09655448 0.10121686 0.009231571 0.063747406 -0.0057081096 0.16776773 0.13625261 0.11074
-0.1709363 -0.10113443 0.161937 -0.107217036 -0.16585852 0.12200513 -0.09666277 -0.1757648
-0.03388284 -0.06811847 -0.010743626 0.05239715 0.07230615 -0.12688011 -0.06363431 -0.13180514
0.13708481 -0.012519948 0.047719754 0.119392365 0.0072759213 0.085244216 -0.19797336 -0.044719767
0.28292137 -0.034723163 -0.17687681 -0.26932776 0.05066643 -0.027256137 -0.1262357 0.2350329
0.012010555 0.07060462 -0.016178261 0.13505347 0.10607245 0.10506294 0.16501735 0.23188978
-0.017644301 0.12288411 0.12966235 -0.14109899 0.1244577 0.18543209 0.08953562 0.09289709
0.04034718 0.081191726 0.05931274 0.17003445 0.11952985 0.06026519 -0.06438615 0.010106468
0.079046905 0.101953655 -0.05177282 0.06294953 0.1346031 -0.125316 0.080875285 0.21824054
-0.04467067 0.016752815 0.04916349 -0.16425465 0.18190575 0.08646306 -0.09946251 -0.037729003
-0.11186606 -0.11016768 0.009837731 0.061900984 0.106273666 -0.011955137 0.10953933 0.015088226
0.10087849 -0.07923521 0.11382205 0.095351025 0.036334492 -0.32247362 0.054656036 -0.119767115
-0.118309535 0.03183462 0.088062584 0.13945128 -0.066482574 -0.14373207 0.041580904 0.06299464
0.17866166 0.007796351 -0.10114886 -0.12632027 0.11781244 0.15449765 0.09194837 -0.1777433
0.09621732 -0.22236998 0.13941519 -0.13530545 -0.02375514 -0.09831115 0.05600166 0.018759185
0.010456104 0.0710593 0.12088411 -0.09320677 -0.027941419 -0.11649389 0.04197075 0.10899502
0.014322524 0.15718913 -0.05162586 0.015820324 0.07658202 0.06012017 -0.027618915 -0.02544771
0.19313128 0.12438855 0.106065705 0.054442726 0.22567952 -0.018293986 0.03741114 -0.015220337
0.020892598 0.0734844 0.04963474 0.17078175 -0.10421182 -0.019607516 0.079426825 -0.17863214
-0.14436837 -0.12211865 0.15304442 -0.17762455 0.072974935 0.040966112 -0.10455302 0.094026946
0.02326694 0.13862352 0.04070869 0.00047502707 -0.12681825 0.13590276 -0.009770373 0.05189339
0.20120616 0.06489147 0.14131866 0.025184067 0.07839292 0.023844307 0.018001871 0.068629414
0.16980845 0.062012024 -0.08970138 0.03772808 -0.12218766 -0.031162212 0.1231586 0.13092431
-0.16233312 0.027553355 0.1400418 0.07420482 0.12334855 -0.09766437 -0.1432312 0.034517072
-0.055714108 -0.03353663 -0.063019134 -0.048371803 0.09401918 -0.012959461 0.09718969 0.055730306
0.097124614 -0.09482599 -0.04870786 0.06436426 -0.076042846 0.07716405 0.14621364 0.054842405

a2c_network.actor_mlp.2.weight f4 [128, 256]
00000000: 9603 ec3d aeac 22bc aa2b 01bd 4508 903d
00000010: 774d bc3c d905 0cbd dc15 a3bc f8fb 36bd
00000020: d6b5 00bc 2c1e 2f3d 25ab a6bb 2551 d53c
00000030: 9e6c 2fbc a676 73ba 1ca9 81bc a799 37bd
00000040: 5b42 b63d 6f79 80bd 1a0a c8bd ec72 0e3d
00000050: 53cd e4bc 2269 9dbc 35fc 1bbd 6e29 b9ba
00000060: 1c51 c8bc 2061 d5bb 92e2 253d 63fb 78bc
00000070: eeae e3bc 870a 853c 4eb2 0ebd 6803 b73d
00000080: c7d8 8b3d 4464 eebc 4568 84bd 3d4b 52bb
00000090: 67e6 9a3c a6c9 cf3d 5f9c 573c db7b ccbb
000000a0: 0eac eebd 97b0 253c c39c 2ebb 73a2 6ebc
000000b0: 3100 e7bc 5458 8ebd d168 b9bc 8603 2abd
000000c0: 18cb 693c 8bb5 9a3b debb e63c fc14 7abd
000000d0: eb2d f4bc dc2e a2bd dfd8 103d 5c05 86bd
000000e0: fa40 1fbc 71b7 8c3d 4bbe e73c 7600 933c
000000f0: b2f4 403d 507f 80bd f98d 3c3d 0f58 013d
00000100: c02b 27bd 3c8f 813c 0d8e 83bd 4c97 a33c
00000110: f5f7 54bc a836 1dbd 21f7 60bd 3b70 73bc
00000120: 0ffe 7fbc 510b 5b3d 391e 96bd 1262 eabb
00000130: 4b4f 53bc aeab 913d 87d5 81bd e8eb 69bc
00000140: 0ef7 dcbd dd5a 16bc 9e6e 8cbd 7bc3 2b3e
00000150: d4cc 23bd d659 08be 4dd7 883b c11e 89bd
00000160: b02d 37bd 2399 743d bf0a 30bd ece6 1ebd
00000170: 32d3 1c3d 2d4c 68bd cc08 4cbd 3d0d 00be
00000180: 6cf5 0c3c 2d19 f63c 4ad3 e5bb 24fd 43bd
00000190: 5af7 11be fabe 97bc 7980 a9bd b1d5 7ebc
000001a0: ac69 56bc 6345 edbc e003 6bbd 2d9e 4d3c
000001b0: 6a36 b4bc d8e0 b9bc 0ecd 5d3c 0eaa 4d3d
000001c0: fd3a fe3c 8813 6a3c 05ad 883d 0961 b83d
000001d0: ebfb 1a3b 2de9 a93a 57cd 3cbc 6d8d e8bd
000001e0: e65c 93bd 7259 703c db6b 23bd a300 12bd
000001f0: 2494 e5bd d5ec 86bd 2ef4 08bd bac1 2dbc
00000200: a3ad 4dbd 669e d33c e026 8dbc 25b1 babc
00000210: 71c3 793d e640 3fbd a0b4 80bc b40a f3bb
00000220: 012c 3abd 62e9 bbbc 16d8 50bd 314b 713d
00000230: 0fc1 97bc 60dc 4f3d 158e 1d3d 8990 da3d
00000240: 075c 1c3d a258 24bd 5020 12bb c0e3 623d
00000250: d1b6 813d 8171 87bd 5432 0c3d fad5 cfbd
00000260: 6bbc 1cbd 4557 6d3d e1f7 133d 79de b9bc
00000270: c41d 423d 36da 433d 7298 a63c 67bc 53bd
00000280: e235 80bd 1be4 b6bc 5b08 33bd 3ae6 823c
00000290: 0345 fe3b 92f2 283d b5d9 263d 1cce 04bd
000002a0: 5fde 843c eb58 31bc 2a3a 003c c18c 093d
000002b0: 9145 7abc 5253 14bd f5f7 dd3c 2c8b 083d
000002c0: c058 053c 5c08 acbd 205c e2bd 9c4b 99bd
000002d0: 4c41 4a3d 2dcd 9c3c de0a 40bd 6678 eabc
000002e0: fb5f 68bc 61ac b5bd f9f1 023b 73c2 013d
000002f0: 8072 acbd 6bc8 c7ba 765f 3abd e3b5 efbc
00000300: e8d2 8fbb 001c a93d 2670 aabd d2d3 113d
00000310: 5174 2cbd 08a4 83bd d96c 44ba f296 dc3c
00000320: 25e6 1bbd 8fd0 cbbd 4206 56bd 5914 22bd
00000330: 69b4 883c 1269 153c 7032 803d c177 083d
00000340: adec c1bd a281 993c bc56 6c3d baef bdbc
00000350: 1d84 a0bd 3de5 ecbc cbf3 0cbd ddab 473d
00000360: 9f8b 8fbd d8d7 a23c b9b7 c6bd 69cc c3bd
00000370: 6b0f 6fbd cc94 90bd 01fd fd3c 009c a63d
00000380: a20e 9fbd ebde 5e3d a237 003d 76d7 b9bd
00000390: 587c 94bb 31f7 75bc 1ad7 3d3c afb6 543d
000003a0: 6c98 29bd 6baf 673d 346a 993c f201 c93c
000003b0: 2919 c3bd 4286 73bd 02ac adbc d62e e7bd
000003c0: c445 c0bc 2b1e a73c ae6d 9b3d 1cc5 79bc
000003d0: 4f2e 3bbd eb5e 93bc 052f 443c 167e 103d
000003e0: 0981 363d 24a4 223d db98 17bd f574 ca3d
000003f0: e100 1b3c d725 fdbc ddc9 8cbd 409d 8a3d
0.115241215 -0.009928865 -0.031535782 0.07032827 0.022986157 -0.034185264 -0.019907884 -0.04467389
-0.007855853 0.042753384 -0.00508632 0.02603967 -0.010707049 -0.00092873944 -0.015827708 -0.04482427
0.08899375 -0.062731616 -0.09767552 0.034777567 -0.027929937 -0.01921517 -0.03808232 -0.0014126727
-0.024452738 -0.0065118223 0.040499277 -0.015196654 -0.027793374 0.016240371 -0.034838013 0.089361966
0.06828456 -0.029100545 -0.064652 -0.0032088303 0.018908693 0.10145883 0.01315984 -0.0062403507
-0.116539106 0.010112903 -0.002664373 -0.014565098 -0.028198333 -0.06950441 -0.022632988 -0.041507266
0.014269613 0.0047213486 0.028165754 -0.06105517 -0.029807052 -0.07919094 0.035363074 -0.06543991
-0.009720081 0.06870926 0.028288981 0.017944556 0.04710836 -0.06274283 0.046033833 0.03157812
-0.040813208 0.01581537 -0.064235784 0.019969605 -0.012998571 -0.038382202 -0.05492318 -0.014858301
-0.015624537 0.05347759 -0.07329983 -0.007152804 -0.012897323 0.071128234 -0.06339555 -0.014277436
-0.107893094 -0.009176937 -0.06857036 0.16773789 -0.03999026 -0.1331552 0.0041760565 -0.06695319
-0.044721305 0.059716355 -0.042979 -0.038794443 0.03828735 -0.056713272 -0.049813077 -0.1250505
0.008603435 0.030041302 -0.007013713 -0.047848836 -0.14254513 -0.018523682 -0.08276457 -0.015553878
-0.013086718 -0.02896375 -0.057376742 0.012549919 -0.021998603 -0.022690222 0.013537658 0.050211005
0.031033987 0.014286883 0.06673626 0.09002883 0.002364869 0.0012963169 -0.011523566 -0.113551
-0.07195453 0.014669763 -0.03989778 -0.03564514 -0.11209896 -0.06588141 -0.033435993 -0.01060527
-0.05021442 0.025832366 -0.017230451 -0.022789547 0.060977403 -0.04669275 -0.015711129 -0.0074170474
-0.04545212 -0.022938434 -0.050987326 0.0589096 -0.018524675 0.050747275 0.038465578 0.10672099
0.0381737 -0.04012359 -0.0022297092 0.05539298 0.063336976 -0.06613446 0.034227684 -0.10148235
-0.038265627 0.057944555 0.036125068 -0.022689091 0.047391668 0.047815524 0.020336363 -0.051693346
-0.06260277 -0.022325566 -0.04370914 0.015978921 0.0077596917 0.041246958 0.040734965 -0.032423124
0.016219316 -0.010824422 0.007826367 0.0335815 -0.015275375 -0.036212273 0.027095774 0.03333585
0.008138835 -0.08400032 -0.11052728 -0.074851245 0.04937868 0.019140804 -0.046885364 -0.028621864
-0.01418304 -0.08870769 0.0019980653 0.03167958 -0.08420277 -0.0015242224 -0.045501195 -0.029261535
-0.0043891557 0.08257294 -0.08322172 0.0356024 -0.042103115 -0.06427771 -0.0007493026 0.026927445
-0.03806128 -0.09951889 -0.05225206 -0.039570186 0.016687589 0.009119289 0.0625962 0.03331733
-0.094689704 0.018738572 0.057699904 -0.0231856 -0.078376986 -0.028917903 -0.034412187 0.048747886
-0.070090525 0.019878313 -0.09703011 -0.095604725 -0.058364313 -0.07059631 0.03100443 0.081352234
-0.07766463 0.05441181 0.031303056 -0.09074299 -0.0045314245 -0.015012548 0.011586929 0.051932033
-0.041405126 0.056563776 0.0187274 0.02453706 -0.09526283 -0.05945421 -0.021200184 -0.1128823
-0.023470767 0.020400127 0.07589279 -0.015244748 -0.04569846 -0.017989596 0.011974101 0.035276495
0.04455665 0.039707318 -0.03701101 0.09885589 0.009460659 -0.030901833 -0.0687444 0.06768274

a2c_network.actor_mlp.2.bias f4 [128]
00000000: 4e96 743c 2623 16be 2c66 4cbd 6351 45be
00000010: 186e 5bbe c4a4 72be 1f9d 0dbe f7d9 3ebc
00000020: 84fb d9bc 632a 54bd f122 cf3c e78f 59be
00000030: 3e3a 6bbd 89d0 05be b4fd 6abe cd71 c93d
00000040: 69af 103d 9392 6d3c 7507 de3d fcf7 ccbd
00000050: 695e 35be bf01 f63c ad36 d63d 462c 2dbe
00000060: df70 dd3c 2152 70bd 2b3b a03c b63c d2bb
00000070: 98c0 adbc 9577 463d af02 773d ffc7 16be
00000080: cd29 5bbe e6cc be3d 50ea ecbd 8916 fcbc
00000090: 6a32 013e 7ac9 25be c189 d83d 8c0a 9b3d
000000a0: 8b3e c73c ffd7 933d fe86 2d3e 6ed3 bcbd
000000b0: 23ff 44be f094 88be 51a8 1abe 7626 5c3d
000000c0: a78f db3c 0fab 8f3d 3fa0 3b3d 6b2d cabd
000000d0: 18c7 793b b2e1 84bc d551 e93b 63f1 413c
000000e0: ef37 843d 2627 133e 09c4 b3bd ecb6 3fbe
000000f0: 5a8e 14bd 2448 c2bd 16f4 cb3d 66c8 f4bd
00000100: dbf5 8c3d 5392 77bd 0006 093d 8a62 95bd
00000110: 43f8 1d3e a694 3ebe 2fde 453c b5eb 4fbe
00000120: 9fe2 18be d614 0a3d b839 8a3d 0397 fe3c
00000130: 36cc 813d 3b06 c7bc 2245 983d a3e5 d0bd
00000140: ecef 2dbe 263a b43c d4ac 09be 4847 cabd
00000150: 7a65 283d aee2 e5bd eedc 243d 075e febd
00000160: 5093 eb3c e504 833d 95e7 753d d043 763d
00000170: 7840 64be 471f 513d 633c 993d 7694 983d
00000180: 6d20 57be 1db6 3bbe f2fb c4bc 03ca bf3d
00000190: 7200 fd3d 1bc9 24bc 57f7 b2bd 3b4e 2fbe
000001a0: a035 24be e015 0ebe ce2e 2ebe ea29 29be
000001b0: 3555 82be 167e 963d e970 2d3d f564 5dbe
000001c0: 37cd 6a3c 1bb1 e6bd 95ba d5bc 7c49 963d
000001d0: 8503 3fbe 565a 523d e8c4 ed3d ad20 5abe
000001e0: f1dc e1bd 204c 903d 16b8 b5bd c03d 023e
000001f0: 9afe 32be f36e 56be 4015 53be 263b a33b
0.014928414 -0.14661846 -0.049902126 -0.19269328 -0.21428716 -0.23695666 -0.13829468 -0.011648647
-0.02660919 -0.051798236 0.025285216 -0.212463 -0.05742859 -0.13067831 -0.22948343 0.09836159
0.035323534 0.014500278 0.10841266 -0.10008237 -0.17711796 0.03003013 0.10459647 -0.1691142
0.02703136 -0.058672074 0.019559463 -0.0064159287 -0.02121 0.048453886 0.060305294 -0.1472473
-0.21402664 0.09316425 -0.11568129 -0.030772464 0.12616888 -0.16190138 0.105731495 0.07570371
0.024321815 0.07218932 0.16946027 -0.092200145 -0.19237952 -0.2667613 -0.1510327 0.053747617
0.026801897 0.07015049 0.04580712 -0.09871944 0.0038113054 -0.016220901 0.007120351 0.011837336
0.06455981 0.14370403 -0.08777625 -0.18722123 -0.03626857 -0.09486416 0.09958665 -0.119522855
0.06882831 -0.06044228 0.033452988 -0.072941855 0.15426736 -0.18611392 0.0120768985 -0.20304759
-0.14930199 0.033711277 0.0674929 0.031077867 0.06337778 -0.024294963 0.07435061 -0.1020005
-0.16986054 0.022000384 -0.13444835 -0.09876877 0.0411124 -0.11224876 0.040249757 -0.12420278
0.028756768 0.06397418 0.060035307 0.060123265 -0.22290218 0.05105522 0.07482221 0.07450192
-0.21008463 -0.1833119 -0.024045918 0.093647026 0.123536006 -0.010057713 -0.087385826 -0.17119686
-0.16036081 -0.13875532 -0.17010042 -0.16519895 -0.25455633 0.07348268 0.042344008 -0.21620543
0.014331154 -0.11264249 -0.026089946 0.07338235 -0.18653686 0.051355682 0.116098225 -0.21301527
-0.11028469 0.0704577 -0.08873002 0.12718868 -0.17479935 -0.20940761 -0.20613575 0.0049814163

a2c_network.actor_mlp.4.weight f4 [64, 128]
00000000: 0de9 963c c40b 1abd 740d 943d 4d26 26be
00000010: 656a b03d 07bc c53c 1892 cdbd e0b9 f4bc
00000020: a5d9 cf3c e5b5 bc3d e642 813c dc41 40be
00000030: 10de 853d 19f5 9bbb d39f 45bc 8437 21bd
00000040: b2cd 223d d706 96bd f1e5 dfbd c7e6 c73b
00000050: b1ba 30bd dba3 afbd a17d 86bd 9013 e0bd
00000060: a761 82ba 267c dd3c 5a02 3f3d eb47 79bd
00000070: 803d acbd ed14 6dbd 7d64 563d f916 0bbd
00000080: 4698 16be 5ba8 ca3c d9f2 b3bd 21fb d63c
00000090: 1af6 173b cede 67bc b4a0 333d 0cc1 203d
000000a0: b224 bb3d 45c9 e93c 3ba3 adba 1ac0 1ebc
000000b0: 03de 013e 9c70 5ebd ce68 4abe 9f4a 203d
000000c0: 3e3c 32bd fa23 b1bd 91ad dcbc 7cde 71bb
000000d0: bbb6 5b3d 4d45 363b b638 8fbc c684 0fbe
000000e0: ae8c b7bd 77d8 e1bb ecf3 85bc d0ee 723c
000000f0: 042f 44bd 1af2 213b 1208 83bc 6c3c 3bbe
00000100: a736 3f3d 6ee8 33bd 7b68 1f3d 4b09 bdbd
00000110: 5e0c 64bd 272e 8ebd c81a c1bc 5200 d9bd
00000120: 2a5b aabd 4478 4e3d dfab c8bd 7225 833d
00000130: 11c0 bebd 7b23 cebc 3179 57bd ef63 a33c
00000140: 8940 623d ccbf 78bd 8499 4b3b 1a88 fabc
00000150: 7fa1 dbbc 3554 e83b 2381 adbd 2326 923d
00000160: f9c2 8cbd 505f 0a3d ecb7 9fbd 7146 aab9
00000170: e6a9 8abd db11 82bd 9e00 cdbd 2bc2 2dbd
00000180: cab7 433d fe1c 8bbe 74c6 213d b486 87bd
00000190: dc04 e83c 2219 cebd 710f 5e3d d527 fabd
000001a0: 179a 04be d454 173d 841f 2c3d 4563 bbbd
000001b0: 2b39 e83c 582c 8bbd 954d 7e3d 0b7a b13c
000001c0: 92a5 fd3c 5f6d b53d 7ba6 423d 69a4 043d
000001d0: 77e8 9ebb 19e5 e23c 9339 d9bc 98bf 143d
000001e0: 4dd2 27bd fdbb f1bc 6241 413a 145c a4bd
000001f0: cd6c 8dbd 933f b2bc 0df9 d8bd 5bac 4cbd
00000200: 72c7 be3c b52e 36bd e97d bd3c 8956 dbbd
00000210: 7e92 72bd 29ad 85bc 06bd b4bc 9a02 f43b
00000220: 98d0 ccbb e9dc a9bd ba10 a9bc 7cff adbd
00000230: dbe1 20bc beef c33c 8603 d5bd f8c4 ecbd
00000240: 37f5 6cbc 8e09 83ba 8956 f5bc 53f3 9e3c
00000250: b70a 453d 0a20 08bd 6125 7bbd 6beb 9e3d
00000260: c59a 943c d369 843d 3119 a8bd d4a5 b63d
00000270: 3de9 453d b643 41bd 3dd4 cebd 5748 873d
00000280: 3c02 62bd 1950 0cb9 def0 14bd c979 623d
00000290: 141a 83bd 8d44 183c 62a2 36bd ccd5 a6bd
000002a0: 6c0c 043d 7e54 873c 2db3 fcbd e4b5 cb3c
000002b0: 8246 b93d 4b5d 26bd f9d9 6ebe 6772 b7bb
000002c0: 2bbd 403c 2b5c 103d b4c0 9dbd 263b 4cbb
000002d0: e53a 82bd 506c ebbc 1a0b b0bd 2cf5 ad3d
000002e0: e80d 2b3c 8473 babd 044f 603d 3fed 86bd
000002f0: 1c29 f93c 18e3 8fbd 32b8 d1bc a19e 32bd
00000300: a0c1 903d f9cb 78bd b4d4 4cbd 2007 443d
00000310: 184c 50bd 4162 0b3d ea1e a33d dbe4 d7bd
00000320: f873 7dbd f111 17bd bbee 00bd 321c 92bc
00000330: 83ee 883a baaf 4dbd ed26 6e3d 8ce8 33bd
00000340: 757a 993d d765 bfbd eb2d 093c 3470 843d
00000350: 1b20 c13b 3dda 21bd 39aa cdbd e891 00bd
00000360: 211f fbbc 18fd 383d 962e 1cbc 9a17 603d
00000370: 53b6 b2bd 45c8 44bc 5082 083d e5e4 453d
00000380: c4cd f9bc 7df8 8e3b b9fb de3b f362 41bd
00000390: 01b1 c9bc 095a cb3c 19ea 603c 3502 2ebe
000003a0: b3dc c5bd bafe a8bd 29e1 a5bd 64e1 28bd
000003b0: aab5 d4bc 80bd aa3c 492a 07ba 5766 f0bd
000003c0: 4d46 303d f66d 7b3c 8c9d 25bd a459 05be
000003d0: 9535 9d3d 3f30 cbbc 39dc c7bd 6584 8d3c
000003e0: 0ac0 33bc dcbd 753c 4f0f 86bd 7578 b8bd
000003f0: d086 923b 6d03 9cbd 8c68 fbbd 1935 cdbc
0.018421674 -0.037608877 0.072291285 -0.16225548 0.08614043 0.02413751 -0.10037631 -0.029873788
0.025372336 0.09214381 0.01577897 -0.18775123 0.06536496 -0.0047594425 -0.012062031 -0.039359584
0.039746948 -0.07325523 -0.1093253 0.006100509 -0.043146793 -0.08576175 -0.065669306 -0.10941231
-0.0009947316 0.027036738 0.046633102 -0.060859602 -0.08410168 -0.057881285 0.052341927 -0.033957455
-0.14706525 0.024738481 -0.08786554 0.026242794 0.002318746 -0.014152242 0.04385443 0.039246604
0.091378585 0.028538356 -0.0013247499 -0.009689355 0.12682347 -0.05430661 -0.19766542 0.039133664
-0.043514483 -0.0864944 -0.026938232 -0.0036906293 0.053641062 0.0027812303 -0.017483097 -0.14015493
-0.089623794 -0.0068922597 -0.016351663 0.014827445 -0.0478964 0.0024710954 -0.01599506 -0.18284768
0.04668298 -0.043922834 0.038918 -0.09230288 -0.055675857 -0.069423966 -0.02357234 -0.10595764
-0.083181694 0.050407663 -0.09798407 0.064036265 -0.093139775 -0.025163403 -0.05260581 0.019945113
0.055237327 -0.060729787 0.0031066844 -0.030582476 -0.026810406 0.0070901164 -0.084718965 0.0713618
-0.068731256 0.033782303 -0.07798752 -0.0003247741 -0.06770687 -0.06351062 -0.10009883 -0.0424215
0.047782697 -0.27170557 0.0394959 -0.066174895 0.02832263 -0.100633875 0.054213945 -0.122146286
-0.12949406 0.036946133 0.042022243 -0.091497935 0.028347572 -0.06795567 0.062085707 0.02166464
0.03096274 0.088587515 0.04752205 0.032383356 -0.0048494893 0.027697133 -0.026516711 0.03631553
-0.040972043 -0.029508585 0.00073721085 -0.08025375 -0.06905518 -0.02175883 -0.10594378 -0.04996906
0.023288462 -0.044478137 0.023131328 -0.10709865 -0.059221737 -0.01631792 -0.02206279 0.007446599
-0.0062504523 -0.082940884 -0.020637859 -0.084959954 -0.009819473 0.023918029 -0.10401063 -0.11561006
-0.014462761 -0.0009997354 -0.02994849 0.019403135 0.04810592 -0.03323368 -0.061314944 0.07759746
0.018140206 0.06465497 -0.0820793 0.08918348 0.048318136 -0.047183715 -0.10099075 0.066055946
-0.055177912 -0.00013381279 -0.03636252 0.055291925 -0.064014584 0.0092936875 -0.044588454 -0.08146247
0.03223841 0.016519781 -0.123388626 0.024867006 0.090466514 -0.040616315 -0.23325337 -0.0055983546
0.011763851 0.03524415 -0.07702771 -0.0031163185 -0.063588895 -0.02873817 -0.085958675 0.084940284
0.010440327 -0.09104064 0.054762855 -0.0658822 0.03041511 -0.070257366 -0.025600526 -0.04360831
0.07068181 -0.0607414 -0.050007537 0.047858357 -0.05085382 0.03402925 0.07964881 -0.105416976
-0.061878175 -0.036882345 -0.03147767 -0.01783571 0.0010447059 -0.050216414 0.05814259 -0.043922946
0.0749406 -0.09345596 0.008372764 0.064667135 0.00589372 -0.03951477 -0.10042233 -0.031389147
-0.030654492 0.045163244 -0.009532591 0.05471001 -0.08726182 -0.012010639 0.0333274 0.048313994
-0.030493625 0.004363118 0.00680491 -0.047213506 -0.024620535 0.024823206 0.013727688 -0.1699303
-0.09661236 -0.0825171 -0.080995865 -0.041230574 -0.02596553 0.020842314 -0.0005156142 -0.1173827
0.043035794 0.015346041 -0.04043345 -0.13022476 0.076762356 -0.024803279 -0.09758801 0.017275045
-0.010971079 0.014998879 -0.06545889 -0.0900735 0.0044716373 -0.07617841 -0.122758 -0.025049733

a2c_network.actor_mlp.4.bias f4 [64]
00000000: ac26 113e 6556 f43d a54e f63c b1e1 42be
00000010: c054 0a3e 68dd d83d 41d2 72be 87f7 083d
00000020: b04b e43d 1022 233e caaa 143e 7f92 1abe
00000030: 232a ae3d fa04 2bbe 2ad3 fc3d d2f8 993d
00000040: 8a21 dfbd f716 0c3e 5375 ad3d ff7c 2d3e
00000050: cb6d 26be abdf cd3d 1915 013d 3843 02be
00000060: f392 57be 1eea 3ebe dddc 943d c4c4 f6bd
00000070: 18f4 f83d 6757 adbc f336 933d dae4 ee3d
00000080: 0259 1fbe 9e54 033e db5e cb3d 5e61 33be
00000090: b047 b73d e661 5d3e 22f0 46be bdf4 123e
000000a0: b17f 10be 84d7 e53c 1c8f d1bd a2b9 143e
000000b0: dd4c 4bbe 4389 113e 61a9 1cbe 46a0 3abe
000000c0: 1368 df3d 920e ea3d daf3 743d bc29 a73c
000000d0: 6e7b b3bd 4e55 0d3d 42b8 aabd fbad 14be
000000e0: 482e e43d 9492 233e d28d edbd 6db8 57be
000000f0: d6f6 d13c 0951 a53d 72ba 3bbe 86fc e83d
0.14174908 0.11930541 0.030066798 -0.19031407 0.13508892 0.10589105 -0.23713018 0.033439185
0.11147249 0.15930963 0.14518276 -0.15094946 0.08504131 -0.16701117 0.12344964 0.07518162
-0.10895069 0.13680635 0.084696434 0.16942213 -0.1625282 0.10052427 0.03151426 -0.12720954
-0.2105215 -0.18643996 0.07268689 -0.12049249 0.12155932 -0.02115984 0.07188215 0.11664744
-0.15561298 0.12825248 0.099302016 -0.17517611 0.0894922 0.21619377 -0.19427541 0.14351173
-0.1411121 0.028056867 -0.10232374 0.14523938 -0.1985354 0.14212517 -0.15298988 -0.18225202
0.109085225 0.1142856 0.059802867 0.020405643 -0.08763777 0.03450518 -0.08335926 -0.14519493
0.1114164 0.15973884 -0.11599316 -0.21066447 0.025630396 0.08072097 -0.18332842 0.1137629

a2c_network.value.weight f4 [1, 64]
00000000: b99d 8e3d b330 2a3d 1569 53bc 15df f3bc
00000010: 5bc1 253d 48c1 5d3b e9e9 b6bd 60ad d73c
00000020: 8d89 edbc 75d0 683d bea1 7c3d 7be8 7c3a
00000030: 3cfe 10bc 09ac 06bd 331d 073d fa66 05bd
00000040: 4c71 d1b8 8c64 cb3d 2363 6e3a 59ec 893d
00000050: bc02 2fbd 95c7 383d 95fb 103c fd25 81bc
00000060: 5e47 b33c ad6d 82bd c3c3 9cba bc1e 0b3d
00000070: 66b0 9f3c 6030 753c fada f83b 7a07 903c
00000080: e84c 3bbc 3f74 983d a3b3 623c 5395 41bd
00000090: 3d56 96bc eabf 8abc 412e 4abd 7b5a c4bb
000000a0: 6c48 89bc a31b a1bb 3d5a da3b 3dca 823d
000000b0: 803e 9abd cd5b b43d 962a 02bd 2633 1ebc
000000c0: 6508 fc3c ba15 78bc 03c5 363c b5e8 773b
000000d0: 9c2a 083c 26f5 223d 12b5 58bb be3f 37bd
000000e0: c112 453d a223 4e3d b64e 933c 2025 d6bd
000000f0: 71be 723c 55f5 8bbc e427 94bd 6b08 4dbb
0.06963677 0.04155035 -0.0129034715 -0.02976946 0.0404676 0.0033837128 -0.089313336 0.026327789
-0.028996253 0.056839425 0.061677687 0.00096476794 -0.008849677 -0.03287891 0.03298683 -0.03256891
-9.987e-05 0.09931287 0.0009093752 0.06734533 -0.042727217 0.04511221 0.008849044 -0.015765185
0.021884616 -0.06368575 -0.0011960197 0.033964857 0.019493293 0.014965147 0.0075944634 0.01758169
-0.01143191 0.07444047 0.013836774 -0.047261547 -0.018351668 -0.016937215 -0.049360517 -0.0059922314
-0.016758166 -0.0049166246 0.0066635893 0.0638623 -0.07531452 0.08806572 -0.031778894 -0.009655749
0.030765722 -0.015141899 0.01115537 0.0037827913 0.00831094 0.039784573 -0.003306691 -0.044738524
0.04811359 0.05032695 0.017981868 -0.104563 0.014815913 -0.017084757 -0.07234171 -0.0031285535

a2c_network.mu.weight f4 [7, 64]
00000000: 4e45 01be 8506 b0bc 8ae0 21bc e502 833d
00000010: 6cae f43c e56f a8bd 70b3 1f3c e864 b2bc
00000020: 74ac 803c b8fe 00bd 69a9 07bc c595 d6bd
00000030: 4847 083d 19de 02bd fb51 19be fc6f 0fba
00000040: 6c1b 223c 6401 cdbb a3a5 41bd 2b87 a13d
00000050: a527 253d 2f2b 863c 1643 23bc 0fdd 143c
00000060: 6d14 e5bb 1d2f 383d 6b8a 43bd 710d 8c3e
00000070: 4c7e 90bd 241f a1bd 5059 f63c 4c8e c23d
00000080: ede1 92bd 84e9 753d 1fa0 3fbb ed0a 6abc
00000090: 0fb1 ebbd b6c7 1b3c ec78 503d 8f65 933d
000000a0: 9344 a4bd 2c21 0abc 58d7 e73d d637 023d
000000b0: 7e72 c9bd d210 b73d b73e 51be 72ea 44bb
000000c0: 6053 c03c eb37 913c 5a3a a8bd e00a 273c
000000d0: 4305 24bd f0d5 52bd 3de1 32ba 08e9 36ba
000000e0: 8498 523d 93ae 123e 7463 58bd 9974 b03d
000000f0: 2e99 05bd 03b9 e9bb 58b7 c33c 6a23 093d
00000100: f692 cabd 0382 ac3d a488 ddbc c520 84bd
00000110: 1289 7abe d6b3 463d 8dd5 0d3d 3b75 b9bd
00000120: ef61 e23c 7dbf d1bd 3531 33bd 7821 2a3c
00000130: 55d3 16bc 4a5f 0dbd 5150 a8bc 8ec8 183d
00000140: 778d 843b 546a 063e e286 083c 7249 8d3b
00000150: fc03 5bbd f49e 6c3d 2abf 4e3a 04b1 9abc
00000160: a543 a2bd 9421 9abc 9480 793c c872 db3c
00000170: 1138 9cbd 3196 0e3d bb9b b93b dfbe 1ebd
00000180: 5f95 933c 47bc 1dbc 8c82 e7bc e36e d0bc
00000190: 544f 313c 47c2 1c3d 7bb5 7dbd ec87 bebc
000001a0: 0285 313d fa5c 8ebb 486b 903d e715 05be
000001b0: 3930 783c d448 463c 49a2 9f3a b8db 92bd
000001c0: 293a 733d b415 b53c 0f97 183b 4cee 2fbc
000001d0: 660d 963a 10df a6bd be21 53bd 468f 0c3d
000001e0: 9d42 813d b285 38bd 8bc7 963c 10a0 8c3d
000001f0: 41ca 713c 6f8e 74bd bb33 dfbd 908d 87bd
00000200: 8c94 08be 38c9 9e3c bcab 0fbd 8c26 0c3d
00000210: a1cd 51bd 842b 0b3c 75e5 373e 3a41 313d
00000220: 90a5 d83d b1f2 27bd 5dad 2fbb a5f3 e63c
00000230: 91a2 2dbd 6aa9 6c3d 3094 13bb 782f 77bd
00000240: 70b2 c23c c28d e5bc 51b0 0b3d f863 39bd
00000250: 17af 0f3d b2de b63d 512c c93c d70d ec3c
00000260: a16a 023e b9df 8d3d 97bc e23c 6c9d 003e
00000270: 9546 01bd fedb 643b 82ff 393c a4cf d63b
00000280: d8fc 0d3d 2245 543d 662e 553d 55d9 97bb
00000290: 749f abbc 6abf 0fbd 3568 b73c 921a 8cbd
000002a0: 6137 313c ed04 f4bc d768 9fbd 3b0c 83bd
000002b0: 4b06 0b3e 9e84 2cbd 3672 693d 1229 f5bc
000002c0: e333 f93b 57aa 5ebc 2a2b 043d 14c3 be3a
000002d0: 453e 793d 9a7f 1d3e ae21 a33d 89ec 9bbd
000002e0: 9da3 4d3d 0c96 43bd 5a50 503d b942 cf3d
000002f0: e6e6 bf3c 3b2e d63d cc93 c9bc 44b6 823c
00000300: 9537 b43d 1100 7dbd ccca 723d bd76 65bd
00000310: 0d96 dfbd 4e32 16be e3b2 c53d e422 5dbd
00000320: 9d51 b43b c0ae a23c 3378 97bc 6234 86bd
00000330: a14c 323d 2f6a 7d3d 0c92 d3bd 59be 37bb
00000340: 71fe 5c3c e601 8fbd a44b caba df16 d4bd
00000350: 9cfa 9e3d 59bd 693d 8ab2 603c 3e88 bd3c
00000360: d443 da3b 4e43 a1bd 1c36 9dbc beef 16be
00000370: ff8e 9a3d b405 b23c f612 6ebc 632f f73d
00000380: 5b97 cebd d738 0f3d 6008 13bb 0abb 83bd
00000390: 95e8 09be 1143 5d39 db03 efbd 2b34 54bd
000003a0: 9d61 023d 0a00 77bd ad92 843d a2a6 0ebd
000003b0: 8989 0c3d 68fa d83c a7c3 763d 0c5b e73c
000003c0: c45a 7f3c 39d0 ae3c 706b 97bd 940d 6cbd
000003d0: 7831 ab3b 506e 503c 617a b33c eebb b03c
000003e0: 9d95 5abd 72bc b2bd b180 c9bc e698 b93b
000003f0: 6cb8 43bc 1e66 77bd 2557 65bd dc35 91bd
-0.12624094 -0.021487484 -0.009880194 0.063970365 0.029868327 -0.08224467 0.009747371 -0.021776631
0.015707232 -0.03149292 -0.008280137 -0.10477785 0.033271104 -0.03195009 -0.1497268 -0.0005471704
0.009894233 -0.0062562693 -0.047277104 0.07887109 0.04032101 0.016378013 -0.009964725 0.009085908
-0.0069909603 0.044966806 -0.047739428 0.27354005 -0.07055339 -0.07867268 0.030071884 0.09499797
-0.07171998 0.06003715 -0.0029239727 -0.0142848315 -0.115083806 0.009508064 0.05089657 0.07197105
-0.08020892 -0.00843076 0.113203704 0.03179153 -0.09836291 0.08938755 -0.2043408 -0.0030046967
0.023477256 0.01772686 -0.08214255 0.010195464 -0.04004408 -0.051473558 -0.0006823724 -0.00069774734
0.05141498 0.14324407 -0.05282922 0.08615989 -0.032616787 -0.007132651 0.023891136 0.03348104
-0.09891312 0.08423235 -0.027042694 -0.06451563 -0.2446635 0.04851135 0.034627486 -0.09055563
0.027634589 -0.102416016 -0.0437481 0.010383956 -0.009205659 -0.034514703 -0.02054611 0.03730064
0.0040451842 0.13126498 0.00833294 0.004311734 -0.053470597 0.057768777 0.0007886762 -0.018883236
-0.079230584 -0.01881484 0.015228409 0.02678813 -0.07627881 0.034811202 0.0056643165 -0.038756248
0.018015562 -0.009627408 -0.028260492 -0.0254435 0.010822136 0.038271215 -0.06194065 -0.023258172
0.043339737 -0.0043445798 0.07051712 -0.12996636 0.015148216 0.0121023245 0.0012179102 -0.07170814
0.059381638 0.022105075 0.0023283397 -0.010737967 0.0011448085 -0.081480145 -0.05154585 0.034316324
0.063115336 -0.045049377 0.018405696 0.06866467 0.014757694 -0.059706148 -0.10898539 -0.06618798
-0.13337916 0.019383058 -0.035075888 0.03421645 -0.051221494 0.008494262 0.17958625 0.043275096
0.105784535 -0.041002933 -0.0026806213 0.02819235 -0.042391364 0.057778753 -0.0022518747 -0.060348004
0.023766726 -0.028021697 0.034103695 -0.045261353 0.035079088 0.089291945 0.024557265 0.028815193
0.12735988 0.06927437 0.027677817 0.12560052 -0.031561453 0.0034921165 0.011352422 0.0065555144
0.03466496 0.051823743 0.052046202 -0.0046340623 -0.020950057 -0.035094656 0.022388557 -0.068410054
0.010816426 -0.029787505 -0.077836685 -0.06398817 0.1357662 -0.04211866 0.056993686 -0.02992681
0.0076050623 -0.013590417 0.032267727 0.0014553987 0.0608504 0.15380707 0.07965408 -0.07613475
0.050204862 -0.047750518 0.05085788 0.10120148 0.02342553 0.104580365 -0.024606608 0.015956052
0.08799664 -0.06176764 0.059275433 -0.05602144 -0.10917292 -0.14667627 0.096532606 -0.053988352
0.005502893 0.019858718 -0.018489933 -0.0655296 0.04353011 0.061868843 -0.103305906 -0.002803704
0.013488398 -0.06982784 -0.001543392 -0.10355925 0.07762644 0.05706534 0.013714442 0.023136254
0.006660918 -0.078741655 -0.01919084 -0.14739892 0.075468056 0.021731235 -0.014530888 0.12069585
-0.100874625 0.034966316 -0.0022435412 -0.06432159 -0.13467629 0.00021101187 -0.11670657 -0.051807564
0.031831373 -0.06030277 0.06473289 -0.034826882 0.03431085 0.02648659 0.060245182 0.028241657
0.015585605 0.021339523 -0.07393539 -0.057630137 0.005224403 0.012721613 0.02190894 0.021573987
-0.05336534 -0.08727349 -0.024597498 0.005663979 -0.011945825 -0.06040012 -0.05599131 -0.07090351

a2c_network.mu.bias f4 [7]
00000000: f431 bcbc 8bae 34bd cffb 75be 2a62 a13d
00000010: 4b43 61bd 6848 7ebd 026f 17be
-0.022973038 -0.04411177 -0.24021839 0.078800514 -0.054995816 -0.06208077 -0.1478844

exp_avg f4 [7]
00000000: 2ae5 c93a 2204 8f3b 3d7e c739 9b72 843a
00000010: 01fa 97ba b762 5a38 ca82 963b
0.0015403379 0.0043645063 0.00038050293 0.0010104956 -0.0011594893 5.2067186e-05 0.004593228

exp_avg_sq f4 [7]
00000000: fbcf 0638 0072 1238 6876 db37 27b2 9137
00000010: add7 d537 a443 c737 8924 9338
3.2141787e-05 3.4915283e-05 2.6161972e-05 1.7368306e-05 2.549201e-05 2.3754146e-05 7.0163114e-05

exp_avg f4 [256, 19]
00000000: 885e a938 1648 39b8 0b50 4a37 13a8 093a
00000010: c247 4a3a b3a3 8db7 242f c837 8eeb 84ba
00000020: f798 3b39 afef 05b8 7445 743a 87cc 4cb9
00000030: e1f3 dab9 6c06 2cba 57ec 193a 9789 e5ba
00000040: 17fd 14b9 94a3 6eba 2ab0 72ba 491a ff38
00000050: 7cab 5138 c1c7 deb6 e10f bd36 e12f e639
00000060: 188b 02b9 b57f 40b7 5fe5 91b9 5fc8 3339
00000070: 1cc3 c637 08ed 073a cbca 0339 9acf 85b9
00000080: 5547 b5b8 725a 3b39 1f44 1eb9 4e63 81b9
00000090: 35ec c2b8 9751 0fb9 46af 90b8 1a64 e7b8
000000a0: 2c64 40b8 efa7 0238 bd35 9638 2fc4 48b9
000000b0: c5f4 d5b6 1398 2639 61d8 9038 6d59 c136
000000c0: cee8 2138 7f42 ccb8 faf4 90b9 8b49 f6b9
000000d0: 8771 a039 0e33 39b9 bd2e 70b9 c8a7 69b9
000000e0: 79f1 7cb9 8a76 0ab9 d844 33ba 30ed 2639
000000f0: a96b 2ab9 b118 8ab9 29e2 cf39 914f bdb8
00000100: df65 bd39 1de7 67b9 86ef 5438 83eb c5b9
00000110: 0f07 dc39 4d6d 90b9 a7ba e3b7 1b4a 79b8
00000120: 6bd8 adb9 1706 07ba 077c 53b9 b4bc 02ba
00000130: 92dd bfb9 9f49 c7b9 ab5d 8838 ba39 a2b9
00000140: e022 bdb9 b0ec 20b8 ed81 6336 d15c ee39
00000150: a626 4538 8859 2137 b2f8 ccb9 905e 1538
00000160: 7242 95b8 d16e 4b37 0d15 60b9 f927 e938
00000170: 9749 c4b8 3dc0 a1b8 8a0d fdb8 e86f c8b7
00000180: 08db 8d39 5c1d 7e38 8ff5 b0b9 6d24 6538
00000190: e86a d1b8 036f 4137 532f 2fb9 6a13 0a39
000001a0: ab4b 0db6 b22a 1738 a3df a4b8 8bfd 1d38
000001b0: d659 ef38 f9f8 9c39 03ed 5fb9 e2e7 0c39
000001c0: d3a5 4437 edb0 2a38 d630 a2b9 db0b 99b7
000001d0: 0969 9937 316e e3b5 6756 0039 2e2e 67b8
000001e0: 71e0 2e38 77cf 4038 f18f 5638 7477 e8b7
000001f0: 9ab2 8738 7025 07b9 9ef4 31b9 9554 deb9
00000200: 4dd8 8139 51e7 b0b9 9e80 a2b6 d5ca a2b9
00000210: 4e9a 9ab9 5586 3fb9 d684 e7b8 a5b5 5838
00000220: c8ac d5b9 db25 9239 5ad8 b5b9 224b bcb8
00000230: 6894 14b9 8297 7e39 9738 5338 e8ef f439
00000240: 79b5 72b9 b231 f4b8 32ba 8eb6 66ee 36b6
00000250: 8cff b839 f61c 71b9 b9f0 e338 a4e3 6239
00000260: 1541 23b9 4ff5 41b8 eeb8 b4b8 0b48 b238
00000270: 91fc 48ba 8028 123a 3bf7 dc37 2eef 2c3a
00000280: 89e9 07ba 9aca 7036 2e90 4eba dc45 b939
00000290: 7f05 023a 09bf 523a 5a80 8bba da9f ac3a
000002a0: 69ba 5bb8 c8ce 4f3a d8e1 073a 1bca 42b9
000002b0: e395 c437 67e2 6eb9 1418 3fb7 30b4 1138
000002c0: 0b95 38b9 1dc9 c237 e9cf 6fb9 81aa e238
000002d0: 8ee7 48b7 670c ad38 36ca 84b9 4d68 1ab9
000002e0: 810d 4eb9 279a 2db8 7052 dfb8 4e3a 71b9
000002f0: 2a74 1739 0c6f 8439 c0a0 3cb9 2271 b3b8
00000300: b279 1b38 ff01 54b9 5f0e 96b8 9626 1db6
00000310: 4d68 ccb5 b5de 0c36 afb3 8238 9f74 4937
00000320: de89 bfb8 c563 b638 f55b e5b8 71eb 8fb8
00000330: 47ea b539 e6c4 ebb8 3640 86b9 cc61 7238
00000340: e219 81b8 8e83 a1b7 9ada cc37 9152 b5b8
00000350: ee55 c3b8 6bfe 0f3a 4d86 7db9 c3d4 8b35
00000360: a350 0eba 68c3 9c39 44a7 1e36 dd1e 1b3a
00000370: 79be 57b8 5689 02ba 039b f5b9 67bb 1a3a
00000380: 86f6 2cba 7480 60b9 11ad 17ba e912 f4b9
00000390: d0f1 d938 9139 da38 138b a3b9 0e67 1e39
000003a0: 5956 2938 2e31 d8b7 7994 0238 12e5 2f39
000003b0: d06a 12b9 cbd0 e0b7 faf5 2db7 25f2 0fb9
000003c0: 5bd4 5c39 fbfd 4438 6eb5 12ba 3cea a537
000003d0: 34a5 8239 dd4c 1b39 a866 f738 0c63 3739
000003e0: 2230 fc39 7c75 81b7 7260 b839 f6f9 1a38
000003f0: 6fe9 1839 484f 4a38 7f7e 90b9 d752 65b8
8.076156e-05 -4.4174572e-05 1.2058775e-05 0.000525118 0.0007716381 -1.6884738e-05 2.386381e-05 -0.0010141002
0.00017890694 -3.1932894e-05 0.00093182107 -0.00019531148 -0.00041761904 -0.0006562236 0.0005871704 -0.0017512318
-0.00014208663 -0.00091033545 -0.0009257818 0.000121642435 4.998919e-05 -6.63937e-06 5.6344875e-06 0.0004390469
-0.00012449583 -1.1473826e-05 -0.0002782745 0.00017145414 2.3694294e-05 0.0005185162 0.0001256868 -0.00025522412
-8.644039e-05 0.00017867403 -0.00015093431 -0.00024678785 -9.294638e-05 -0.00013667937 -6.899102e-05 -0.00011033584
-4.586966e-05 3.1150816e-05 7.162567e-05 -0.0001914657 -6.3763896e-06 0.00015887646 6.906759e-05 5.7622588e-06
3.8602207e-05 -9.739864e-05 -0.00027648342 -0.0004697557 0.00030602163 -0.00017661994 -0.00022905595 -0.00022283115
-0.00024122548 -0.00013204865 -0.00068385666 0.00015919353 -0.0001625257 -0.00026339808 0.0003965062 -9.027043e-05
0.0003612479 -0.00022115973 5.0767812e-05 -0.00037750238 0.0004196693 -0.00027547256 -2.7147425e-05 -5.9435242e-05
-0.00033158375 -0.0005150749 -0.00020168732 -0.00049872254 -0.00036595442 -0.0003801109 6.5024324e-05 -0.00030942057
-0.00036074873 -3.8367405e-05 3.3901263e-06 0.0004546405 4.7004454e-05 9.617193e-06 -0.00039095205 3.5612436e-05
-7.11725e-05 1.2125544e-05 -0.00021370147 0.00011117751 -9.3597155e-05 -7.7128854e-05 -0.00012066502 -2.3893968e-05
0.00027056807 6.0585662e-05 -0.0003375229 5.463178e-05 -9.9858094e-05 1.1529543e-05 -0.0001670693 0.00013167938
-2.1054682e-06 3.604097e-05 -7.861785e-05 3.7667847e-05 0.00011413141 0.00029940138 -0.00021355231 0.00013437824
1.1721119e-05 4.0695933e-05 -0.00030935433 -1.8244542e-05 1.8287932e-05 -1.6944888e-06 0.00012239219 -5.51177e-05
4.169386e-05 4.5969584e-05 5.115563e-05 -2.771218e-05 6.470569e-05 -0.0001288855 -0.00016971162 -0.00042406158
0.00024765954 -0.0003374168 -4.8429492e-06 -0.0003105017 -0.00029488135 -0.00018265222 -0.00011039681 5.1667583e-05
-0.00040755258 0.00027875495 -0.00034684205 -8.978533e-05 -0.00014169666 0.00024279769 5.0359024e-05 0.0004671805
-0.00023146522 -0.00011644083 -4.2536058e-06 -2.725888e-06 0.00035285612 -0.0002299434 0.000108690416 0.00021637842
-0.00015569136 -4.6243247e-05 -8.617515e-05 8.5011205e-05 -0.000766703 0.0005575493 2.634117e-05 0.000659692
-0.0005184641 3.5880716e-06 -0.0007879761 0.00035338 0.00049599254 0.0008039331 -0.001064311 0.0013170198
-5.2387277e-05 0.0007927236 0.00051834946 -0.00018576572 2.3434817e-05 -0.0002278179 -1.1390093e-05 3.4738507e-05
-0.0001760313 2.3220253e-05 -0.00022870269 0.000108082786 -1.1974842e-05 8.251593e-05 -0.0002532766 -0.0001472544
-0.00019650722 -4.138998e-05 -0.00010648824 -0.00023005271 0.00014443757 0.00025259738 -0.00017988961 -8.556458e-05
3.7068217e-05 -0.00020218639 -7.155234e-05 -2.3417283e-06 -1.522954e-06 2.0991258e-06 6.232352e-05 1.2007687e-05
-9.1332695e-05 8.69702e-05 -0.00010936699 -6.862626e-05 0.0003469756 -0.000112423484 -0.00025606313 5.7788377e-05
-6.1560204e-05 -1.9253956e-05 2.442049e-05 -8.646132e-05 -9.31433e-05 0.00054929283 -0.00024177991 1.0418229e-06
-0.0005428886 0.00029900228 2.3641196e-06 0.000591738 -5.1437386e-05 -0.0004979571 -0.00046845534 0.0005902559
-0.0006598014 -0.00021410157 -0.0005785982 -0.00046553396 0.000103924074 0.000104057726 -0.000311934 0.00015106445
4.0373157e-05 -2.5772108e-05 3.113269e-05 0.00016774636 -0.00013963436 -2.6800108e-05 -1.0368874e-05 -0.00013727749
0.00021059944 4.696658e-05 -0.0005596493 1.9778607e-05 0.00024918618 0.00014810586 0.00011796999 0.00017489138
0.00048101047 -1.5432706e-05 0.00035167072 3.6949255e-05 0.0001458281 4.823439e-05 -0.00027560067 -5.4675005e-05
